results/ppo/My Behavior/My Behavior-12032.onnx (onnx, 71990 bytes, 6 tensors)

network_body._body_endoder.seq_layers.0.weight f4 [128, 1]
00000000: 6b54 dc3f 8220 2ebf 264b 84be 82d9 e23e
00000010: fd54 80bf bb61 833d bbc9 63bf 9cb6 d33e
00000020: 2ba0 2d3f c780 e5be c7dc 75be 741e 883f
00000030: 61e0 123f 768d 80bf a672 933e d7ec 6abf
00000040: b3bf fbbe 0f86 343f 41e5 333d 4172 a33d
00000050: 4fca 84bf 8618 853f 4ceb 0540 441f 363f
00000060: 9f36 4c3f 0435 d33e 3b3a fabd 952f 72bf
00000070: 999a fc3f 499c e43f 6a83 24bf ccf5 093d
00000080: b684 293f 7fda ad3f 36a4 7abf c9f8 24bf
00000090: 73bc afbe 067e b83b bf7b 88bd 3a25 fd3b
000000a0: e0c1 9ebf 7f21 b1bf ba65 733e a720 c2bf
000000b0: 9bd7 00c0 4afb 3a3f 20cc 4fbf 9d3a f13f
000000c0: 0c7a 723f e8dc 19be c4db 18be b191 1e3f
000000d0: 82b5 c0be b166 0b3e f9b1 6a3f 23e3 a2be
000000e0: bfa8 72be 44b7 d53f 23ee f93f 7f0f b9bf
000000f0: 5e21 76bf f609 a2be 3fb6 5abe d389 8dbe
00000100: 4db3 ddbf ea75 fe3f 8a68 40bf 0931 bcbf
00000110: 0c67 d0be 7ef3 abbf 20e5 ed3b 45d6 933f
00000120: c294 863f 11a0 83be 2cbf 393f 6488 363f
00000130: f731 4ebf 0504 30bf 7ff8 0ac0 7f80 a2be
00000140: 8727 893f f36d 883e 69c4 ba3c 428e 5e3f
00000150: cce5 b9be 98a5 23bf daa0 87bf 9281 20bd
00000160: 9136 663f ecde aabf dce6 65be 1383 c8bf
00000170: d96d 56bf 0668 6c3f daaa 9f3f 004a 94be
00000180: 0f6b 253f ae0a 8a3e c872 423f b5f6 053f
00000190: 5f1b 09bf 7ebe 19bf e6b2 413f ba7f 553f
000001a0: 5f02 62be ff7b 623e d3b5 e13e e93b 28bf
000001b0: c119 0abc b536 3b40 133d 31bf 556f cebd
000001c0: 8116 61bd 4776 753f b709 acbe d883 903f
000001d0: 9b5e a4be 666e dc3f fecf b93f 1c0d a63f
000001e0: a91a 1cbe 6ec7 283d cbd4 92be 8d5f 1a3f
000001f0: 5879 393f 248e b53f 1a2c 1b3f bd6b 5abf
1.7213262 -0.68018353 -0.25838584 0.4430657 -1.0025936 0.06415125 -0.8897969 0.41350257
0.6782252 -0.44824812 -0.24010001 1.0634294 0.57373625 -1.004317 0.28798407 -0.9176764
-0.49169692 0.7051706 0.043919805 0.079807766 -1.037424 1.0398109 2.0924864 0.7114146
0.79770845 0.41251385 -0.12218138 -0.94603854 1.973468 1.7860194 -0.6426302 0.033681676
0.66218126 1.3582305 -0.97906816 -0.64442116 -0.34323463 0.0056302575 -0.06664228 0.007725385
-1.2402916 -1.3838347 0.23769274 -1.5166215 -2.0131595 0.73039687 -0.81170845 1.8846012
0.9471748 -0.15025675 -0.14927584 0.6194106 -0.3763848 0.13613392 0.91677815 -0.31813917
-0.23697184 1.6696553 1.9525799 -1.4457854 -0.96144664 -0.31648225 -0.21358584 -0.27644214
-1.7320343 1.9879735 -0.75159514 -1.4702464 -0.4070362 -1.3433683 0.00725998 1.1549765
1.0514147 -0.25708058 0.7255733 0.71301866 -0.8054499 -0.68756133 -2.171417 -0.3173866
1.0715188 0.26646385 0.022798734 0.8693582 -0.36308134 -0.6392455 -1.0595963 -0.039186068
0.8992701 -1.334928 -0.22451347 -1.5665001 -0.83761364 0.9234623 1.2474015 -0.28962708
0.64616483 0.26961273 0.7595639 0.5232957 -0.5355739 -0.60056293 0.756636 0.8339802
-0.22071217 0.22117613 0.44084033 -0.65716416 -0.008428992 2.925214 -0.69233817 -0.10079829
-0.054953102 0.958836 -0.33601162 1.1290236 -0.32103428 1.7221191 1.4516599 1.2972751
-0.15244545 0.041205816 -0.28677973 0.6030205 0.7245078 1.4184003 0.6061417 -0.85320646

network_body._body_endoder.seq_layers.0.bias f4 [128]
00000000: cbc9 4c32 670d 1b33 3455 05b2 e827 d633
00000010: 939c 4e33 2ef5 5933 42f2 5b33 ef47 172f
00000020: dc79 0bb4 284f 9433 735e 2fb3 b35c 1133
00000030: 7f4d d7b1 8039 40b3 5cf7 edb3 8b9c 0e34
00000040: 2bc2 26b3 ee2e e333 c3dc e032 1293 c833
00000050: 57ee 11b2 ffd5 cf32 de89 3534 70ff 0ab3
00000060: e439 50b3 4bb9 8332 f55b c532 c51d 66b3
00000070: 523e de32 0ca0 1334 3700 cfb2 6751 d7b2
00000080: 34bc a8b3 84cc 4032 d110 6fb3 4de8 f731
00000090: 5ac3 2c33 26af 8333 ebdb 8433 02e2 a433
000000a0: e463 c4b2 2e3c a9b3 5671 fdb3 64cb c0b3
000000b0: 3722 4cb3 7471 7933 c604 d332 dc61 05b3
000000c0: 1434 56b2 3685 1e33 73ab 1433 a249 a6b2
000000d0: 0736 b0b3 40ac 2933 8d17 e532 51b3 8f32
000000e0: f471 d631 9e3d ba33 63e1 2c33 ce83 9cb3
000000f0: 1ad3 4833 2c6d 0ab4 068a 1234 1607 3fb2
00000100: 13bf 62b4 9e5a 12b3 6f86 8131 d222 84b3
00000110: ae90 03b4 d771 7633 a992 a6b1 05c8 bbb3
00000120: 331e 55b2 ca8a ee32 45e6 5a33 934a 7532
00000130: ae57 f332 91ac bc33 41f7 2e34 9a41 e933
00000140: e0d7 7db3 bd03 24b3 fe44 feb2 a9d5 bd30
00000150: 439c c633 7f43 cb32 f3f2 bfb2 61c1 a1b3
00000160: d668 9233 0e1e 8c33 576b 9332 3b4d df32
00000170: 3aa9 dab3 e8c0 e6b3 78b1 c6b3 fb83 e232
00000180: 14c0 4934 0056 89b3 2694 6c33 b656 cd33
00000190: 1d91 1033 f282 8e32 2642 a833 ad32 8cb1
000001a0: f202 94b1 f803 e533 1e7c 30b4 39b1 aab2
000001b0: 6916 3b33 0776 3934 6d60 bcb2 7485 92b1
000001c0: 0d06 cdb1 657a 1eb3 816b 7f32 f561 c0b2
000001d0: 89b8 a333 dadb 21b3 c2ff 3333 548a 8733
000001e0: 370e 3db4 b127 8132 c575 1333 009a 86b3
000001f0: 4fc4 0734 4ab1 5633 9856 97b2 d847 8433
1.1920245e-08 3.610094e-08 -7.760992e-09 9.9724105e-08 4.8105516e-08 5.074724e-08 5.1210243e-08 1.3758926e-10
-1.2989716e-07 6.9061855e-08 -4.0831264e-08 3.3844753e-08 -6.266134e-09 -4.475578e-08 -1.1081167e-07 1.328173e-07
-3.882648e-08 1.0579048e-07 2.6177423e-08 9.339978e-08 -8.494303e-09 2.4195286e-08 1.6907094e-07 -3.2362948e-08
-4.8481425e-08 1.5334669e-08 2.2975636e-08 -5.3578123e-08 2.5872541e-08 1.3748667e-07 -2.409807e-08 -2.5066312e-08
-7.8573436e-08 1.1222372e-08 -5.566182e-08 7.2150557e-09 4.0224542e-08 6.132022e-08 6.186732e-08 7.677956e-08
-2.2862828e-08 -7.8806224e-08 -1.1801846e-07 -8.977693e-08 -4.752857e-08 5.8078015e-08 2.4565804e-08 -3.1055478e-08
-1.2468281e-08 3.6908396e-08 3.4614867e-08 -1.9358428e-08 -8.205466e-08 3.950504e-08 2.6669818e-08 1.6728935e-08
6.2411747e-09 8.672508e-08 4.025186e-08 -7.288291e-08 4.6758124e-08 -1.2891968e-07 1.3647522e-07 -1.1119274e-08
-2.1117403e-07 -3.407569e-08 3.7696775e-09 -6.153063e-08 -1.225296e-07 5.7379875e-08 -4.847909e-09 -8.7442494e-08
-1.2405098e-08 2.776996e-08 5.096651e-08 1.4277833e-08 2.8328795e-08 8.785822e-08 1.6294963e-07 1.0861841e-07
-5.910249e-08 -3.8187626e-08 -2.9600866e-08 1.3812286e-09 9.248517e-08 2.3663004e-08 -2.2345807e-08 -7.532322e-08
6.817724e-08 6.524725e-08 1.7161865e-08 2.5995737e-08 -1.0182198e-07 -1.0745299e-07 -9.252375e-08 2.636988e-08
1.8789461e-07 -6.395203e-08 5.5082772e-08 9.561829e-08 3.3659592e-08 1.6590523e-08 7.835142e-08 -4.0802974e-09
-4.3077018e-09 1.06643654e-07 -1.6436431e-07 -1.9871196e-08 4.3559712e-08 1.7272406e-07 -2.192993e-08 -4.264331e-09
-5.966973e-09 -3.689856e-08 1.4867397e-08 -2.2396287e-08 7.623846e-08 -3.7685687e-08 4.1909296e-08 6.311589e-08
-1.7607168e-07 1.5035626e-08 3.4333215e-08 -6.267874e-08 1.2644271e-07 4.9987e-08 -1.7618092e-08 6.159797e-08

network_body._body_endoder.seq_layers.2.weight f4 [128, 128]
00000000: 63ca 733d fb60 56bc 781f 22be 29bc 0f3c
00000010: b53c c93b ce78 213d 8755 2c3d cec7 e53c
00000020: 3a50 453d 060e eb3d aaaf 9dbd 9889 e63d
00000030: 88fa bebd f3d1 1d3d 8aea 05be bb7c 323d
00000040: 25b8 a63d 1182 af3d 431e 5abd bc0b babd
00000050: 2374 0a3d 9bdd cc3b cad8 3b3c 3655 f5bd
00000060: 0610 84bd f337 9bbb c6dd d7bd c571 2b3b
00000070: 09b4 cb3d d2c5 82bd 1394 4cbc 103d 94bd
00000080: 0ad5 483d d72b c53c 3303 493d d75b 903d
00000090: 1cc2 bbbc 894f 26bd c5d7 663d 263b f4ba
000000a0: e0d2 e23d b492 c83d c623 093e 93c9 933d
000000b0: c91f edbc 3ae7 993d df81 403d ce88 443d
000000c0: f254 183d 8694 2a3e ce4b f1bd 3371 e8bd
000000d0: 66cf 4fbd 221c a1bb 4d4d 8e3d 2332 493d
000000e0: 5439 fc3d d428 0ebe de60 373d 765e 7b3e
000000f0: 1a25 5fbd 3198 dcbd d501 163e 9b09 b1bb
00000100: a95d 8a3d b371 143e 6cb2 35be 15fa 04be
00000110: 8539 18bd b4c3 913d 5cea ddbd c888 29be
00000120: 7a85 993d 6d7f 873d d1e6 b0bc ff9d ad3c
00000130: 44b7 483a 369d d1bc 9ed0 5c3e 5ac7 27be
00000140: 5550 72bd 6168 bfbd 60e7 a0bd 3c43 e1bc
00000150: 8146 8fbd e045 8abc fc9c 14bd 57bc 0d3d
00000160: 08f8 1dbd 5290 af3d d67b 043b 4a26 a43d
00000170: 9358 15bd 29d7 683d 25ac 523d 4bf6 83bb
00000180: 00ca b03d f820 d2bd 5e39 153d 9664 6ebd
00000190: f405 fbbc 24f5 ca3d 0c27 02be 8db2 383d
000001a0: 4025 3d3e b479 1bbe 3be2 48bd 54ff 073e
000001b0: 6757 fcbd 226d 21bd 4139 5e3c a076 403d
000001c0: ce6d 1b3d 31a6 b43b f054 1d3d 4cdc ee3c
000001d0: 5e37 71bd 68bb 1bbe 5c26 a4bd ab09 bebd
000001e0: 7a79 c4bd 7930 b03d f852 04bd f0ff 15be
000001f0: 304f 10be 9c56 bbbd ddff 90bc 961a 64bd
00000200: f12e 52bc 9303 00bb f220 38be 51e5 e83c
00000210: 0b66 9ebd cfa7 9bbd c96e 8e3d 44dd 02be
00000220: b0ca 773c ad83 af3d 521d 303c 8fa3 a53d
00000230: 581e 59bd 3ff4 2e3d e46d 94bd 67ce af3d
00000240: 0aac e9ba dfa4 953d beda 09be 4c6e 37ba
00000250: bde4 4b3d ff17 03be e454 b1bd 4b3f f6bd
00000260: 55da a43c 0728 a3bd 4f53 3f3d 28fd aabd
00000270: 3b4c 2abe 6c33 ad3d fac9 c13c 3878 50bd
00000280: a8ed 1d3d 0fee 733d a0d7 f3bd 9933 19bc
00000290: 7493 b13d b938 9abd 0100 6b3e cee7 063d
000002a0: a0ee 6c3b a5cc 9dbd cd51 15be b3a8 41be
000002b0: 7982 ddbd 5a91 00bd 33e5 c2bc a377 94bc
000002c0: e8d0 3c3c 3220 9fbd d1b4 663d ab15 b9bd
000002d0: 788b 2cbe fc3b 4f3b 2d76 873d 8905 97bb
000002e0: 04d6 e03d c680 2fbd 2709 9cbd 1b4a 93bd
000002f0: 6a51 54bc 44eb c53d fba4 b4bd 7733 c93c
00000300: 7d48 27be dd01 a83d c2a0 5ebd 3777 60bc
00000310: e2a9 1d3d 5e78 5fbc 6df9 ebbd 7563 1f3e
00000320: c3aa d13d 691e 7439 215a 4d3d d49d 333d
00000330: d7d2 00ba f21d f3bd 9056 da3a 793d 0bbd
00000340: 41e2 803d ca3d ad3c 3fa2 5cbd 8224 973c
00000350: 41b3 c53d d53f 58bb ad8b 1a3e 551e e0bd
00000360: c32d 7dbc 054f a2bc 3a07 8fbc ed65 943d
00000370: 02dd 6e3e cf93 853c 166c b6bc e4e1 2cbd
00000380: 8a0a f53c 1aff 133c db14 ab3d d4a8 e13c
00000390: 38d9 023e a373 023e 5679 dfbc 2b7e b5b6
000003a0: d4c8 ea3d 3db3 813c 0bfb 25be 2b7c 6b3e
000003b0: c1eb b2bd 8358 b83d ed6f c1bd e7df 37bb
000003c0: 71e5 37bd 34c2 823c 120b 013e 0683 4dbc
000003d0: 67b9 243d 8828 2c3b 1005 43bd 26da 003e
000003e0: 6a9a df3c 1daf 12be c51b dcbd 6bf1 e5bd
000003f0: ff95 fabc f468 c23c 4fa8 28be f3d1 24bd
0.059519183 -0.013084645 -0.15832317 0.008772888 0.00614127 0.03942185 0.042073753 0.028049376
0.048172213 0.11477284 -0.07699521 0.11256713 -0.09325129 0.0385303 -0.13077751 0.043575983
0.081405915 0.0856973 -0.053251516 -0.090842694 0.033802163 0.0062520034 0.011465261 -0.11979143
-0.06448369 -0.0047368943 -0.10540347 0.0026160341 0.09946448 -0.063853875 -0.0124864755 -0.07238209
0.049031295 0.024068756 0.049075317 0.07048767 -0.022919707 -0.040603194 0.056358118 -0.001863335
0.110753775 0.097936064 0.13392553 0.072161816 -0.02894582 0.07514806 0.046998855 0.04798203
0.037190385 0.1665822 -0.11782037 -0.11349716 -0.0507349 -0.004916684 0.06948338 0.04912008
0.12315622 -0.13882762 0.044770114 0.24547753 -0.054478742 -0.10771216 0.14649136 -0.0054027564
0.067561455 0.14496498 -0.17743844 -0.12986024 -0.03716423 0.071174055 -0.10835716 -0.16556084
0.07496162 0.066161014 -0.021594437 0.021193502 0.0007656703 -0.02558766 0.21563956 -0.1638464
-0.05915864 -0.093460806 -0.07856631 -0.02749788 -0.069958694 -0.016879022 -0.036282524 0.034603443
-0.03856662 0.08572449 0.0020215414 0.080151156 -0.036461424 0.056845818 0.0514337 -0.004027163
0.086322784 -0.102601945 0.036431663 -0.058201395 -0.030642487 0.09910038 -0.12710208 0.045092154
0.18471241 -0.15183145 -0.049043875 0.13280994 -0.12321358 -0.039410718 0.013563455 0.04698813
0.037946515 0.0055129756 0.03841108 0.02915778 -0.058890693 -0.15208209 -0.08015129 -0.09279188
-0.09593482 0.086029954 -0.032305688 -0.14648414 -0.14092708 -0.09147379 -0.01770013 -0.055689417
-0.0128285745 -0.001953338 -0.17981318 0.02842966 -0.07734307 -0.07600366 0.06954724 -0.12779719
0.015124008 0.08570037 0.010749178 0.08087837 -0.053007454 0.0427134 -0.072475225 0.0858429
-0.0017827761 0.07306837 -0.1346235 -0.00069973315 0.04977869 -0.12802123 -0.0865877 -0.12023791
0.02012364 -0.07966619 0.04671031 -0.08349067 -0.16630642 0.084570736 0.02365588 -0.0508959
0.038556725 0.059553202 -0.119063616 -0.009350681 0.086707026 -0.0753035 0.2294922 0.03293591
0.0036152974 -0.077050485 -0.14581986 -0.1891201 -0.10815901 -0.031388618 -0.023790931 -0.018123453
0.0115244165 -0.07769813 0.056324784 -0.09037336 -0.16850078 0.0031621447 0.06614337 -0.004608814
0.1097832 -0.042847417 -0.07618933 -0.07191869 -0.012958864 0.09664014 -0.0882053 0.024560673
-0.16336246 0.082034804 -0.05435253 -0.013700298 0.03849209 -0.013639538 -0.115221836 0.15565284
0.10237648 0.00023280982 0.05013478 0.04385169 -0.000491423 -0.11870946 0.0016657878 -0.03399417
0.062931545 0.021147627 -0.053865667 0.018450025 0.096533306 -0.0032997031 0.15092345 -0.109432854
-0.015452805 -0.01981307 -0.0174595 0.07246003 0.23326495 0.016305832 -0.022268336 -0.042207614
0.029912252 0.009032989 0.08353587 0.027546324 0.12778175 0.12739424 -0.027279537 -5.4089082e-06
0.11464086 0.015832538 -0.16209047 0.22996585 -0.08736373 0.09001257 -0.09445176 -0.002805704
-0.044896547 0.015961744 0.12601879 -0.012543445 0.040215876 0.0026269276 -0.04761225 0.12583217
0.02729531 -0.14324613 -0.10747484 -0.112276874 -0.030589102 0.023731686 -0.16470455 -0.040239286

network_body._body_endoder.seq_layers.2.bias f4 [128]
00000000: f7ca 85b3 f792 6534 30e2 9eb3 51bb a134
00000010: 8a0a 6932 4b90 2e34 f1ff e733 5476 0f34
00000020: 9935 a8b2 a48a 7d34 cc92 fcb2 5cbc b1b3
00000030: b7a6 deb2 950d 2b33 5f04 8a34 0b8f b3b3
00000040: 5700 52b3 e695 17b3 afef 5033 f5e6 09b4
00000050: bcef 9232 1dcb 33b3 d791 42b4 8810 f7b3
00000060: 0988 26b4 8756 b0b3 3f1e 84b2 90d7 b233
00000070: 6c04 8434 6a8f 2932 a4e8 ec33 0aa1 1cb4
00000080: 95d4 18b4 d962 7434 3e1d 5eb4 5371 12b3
00000090: 4a8d 03b4 ac90 c933 9356 8333 a6ed 7234
000000a0: 3232 8532 3b53 a133 8a2e d633 4992 dcb3
000000b0: 27f6 9cb3 b16a 4c33 0df6 cdb3 1ffd 3431
000000c0: e41a 1c33 a5fd 41b4 2ff2 8034 8524 e433
000000d0: 980d 72b3 38e5 15b4 9cf3 6534 4f22 53b4
000000e0: 5e0d c633 1c05 9db3 c5cc 5d33 4caf 9fb4
000000f0: f081 1133 3a60 19b4 cae5 0f32 0d07 a432
00000100: f80c 2eb4 972c 2b34 1b91 b034 7349 3cb3
00000110: eddb 3ab2 3667 8133 e9a2 d933 4874 72b4
00000120: fa77 7833 cdfc 9ab3 4379 0234 221c 34b3
00000130: 5db7 fcb2 cb98 0d34 3479 1134 fdff dcb3
00000140: f006 1c33 02be fbb2 46d1 7f34 834f 28b4
00000150: bc20 eeb3 ef10 2933 1f0a 93b3 0c22 e733
00000160: 9656 8e33 eeb3 b2b2 7523 86b3 c5e1 2c34
00000170: 4f82 7d32 614c 0234 07cd abb4 13d5 7ab3
00000180: 58c1 b6b1 7ccb a3b4 b2ef 5333 6428 dab2
00000190: a3b3 b4b3 dd31 da33 3dd4 4e34 0432 8133
000001a0: 8b06 0934 5ce2 0d33 72b3 0234 37a5 a6b4
000001b0: debd 93b2 0214 c5b3 507b 7733 7f35 6833
000001c0: a7f9 39b3 37ef 1234 5fb7 4d32 4f0d d833
000001d0: de14 b233 e5ca b733 c4bc 9234 9614 e230
000001e0: caca d533 7e85 e432 158c ce32 c47e beb2
000001f0: e363 80b3 ff52 feb3 c988 dbb2 8b80 2c34
-6.230214e-08 2.1380752e-07 -7.3985916e-08 3.0124878e-07 1.3564781e-08 1.6257506e-07 1.0803331e-07 1.336096e-07
-1.9582147e-08 2.3612898e-07 -2.9403417e-08 -8.276467e-08 -2.5920015e-08 3.9826393e-08 2.5707683e-07 -8.3613564e-08
-4.8894744e-08 -3.529376e-08 4.8646765e-08 -1.2843141e-07 1.7105656e-08 -4.1861416e-08 -1.8120714e-07 -1.1504841e-07
-1.5509444e-07 -8.211378e-08 -1.5380577e-08 8.3279815e-08 2.4590133e-07 9.869703e-09 1.10319235e-07 -1.4587218e-07
-1.423344e-07 2.2760231e-07 -2.0686e-07 -3.409634e-08 -1.2251726e-07 9.3861075e-08 6.1159106e-08 2.2624462e-07
1.5506064e-08 7.512286e-08 9.973617e-08 -1.02711574e-07 -7.309091e-08 4.7594487e-08 -9.590813e-08 2.633733e-09
3.6346037e-08 -1.8066801e-07 2.401807e-07 1.062372e-07 -5.635738e-08 -1.3960096e-07 2.1415912e-07 -1.9663388e-07
9.222525e-08 -7.3118116e-08 5.164181e-08 -2.9743603e-07 3.387862e-08 -1.4284242e-07 8.3759435e-09 1.9095319e-08
-1.6209731e-07 1.5941838e-07 3.2888133e-07 -4.3838963e-08 -1.087663e-08 6.0258046e-08 1.0134483e-07 -2.2580309e-07
5.7851118e-08 -7.217168e-08 1.2151308e-07 -4.1935103e-08 -2.9420045e-08 1.3187234e-07 1.3548271e-07 -1.0291112e-07
3.632789e-08 -2.9306651e-08 2.3824859e-07 -1.5675145e-07 -1.1088693e-07 3.936378e-08 -6.847062e-08 1.0762969e-07
6.62814e-08 -2.080375e-08 -6.246311e-08 1.6100883e-07 1.4756167e-08 1.213498e-07 -3.200041e-07 -5.840145e-08
-5.318878e-09 -3.050917e-07 4.9345267e-08 -2.5396908e-08 -8.414579e-08 1.0160486e-07 1.9262457e-07 6.0161284e-08
1.27615e-07 3.3034993e-08 1.2172475e-07 -3.104012e-07 -1.7199394e-08 -9.177167e-08 5.762132e-08 5.4065364e-08
-4.3300727e-08 1.3684335e-07 1.1974264e-08 1.00607046e-07 8.2925666e-08 8.558508e-08 2.7331964e-07 1.6449515e-09
9.9554725e-08 2.6603399e-08 2.4045258e-08 -2.2176557e-08 -5.978634e-08 -1.18428936e-07 -2.5557158e-08 1.6065512e-07

action_model._discrete_distribution.branches.0.weight f4 [5, 128]
00000000: c3e4 2ebb 9390 7ab9 0f34 a2bb 6b1d 643c
00000010: efd1 59bb 5abc 623b a90f 193c 9410 3e3c
00000020: e172 303a 8170 3b3c 4e63 02bb 139d 49bb
00000030: e351 7ebc 9197 4b3c c7af 8d3b 734e 0ebb
00000040: 8674 80bc 88dc 333c a275 0d3c 33a4 95ba
00000050: e3c9 d4b9 d392 9dbb aa5c afbc 31e7 003c
00000060: 5425 8fbc 1b63 653b a0a9 69bc 4a07 6c3b
00000070: b7ba acba 9093 13bc fd76 253c fb18 d8bb
00000080: 71cc 16bb 4bed 033c e8cc dcba b34f ba3b
00000090: 9abb 583b 631e 4f3a ebc5 b33a ad04 5c3c
000000a0: 9870 b83b 0270 c3bb 67e5 89bb cf65 15bc
000000b0: ab02 91bb 2d94 24bc 6122 8fbc 4f8b 1c3c
000000c0: dacc 193b 02f7 9abc 9305 113c 8b1a 9f3b
000000d0: f2eb b5bb 1858 5bbb f27e a93c 806f d9bb
000000e0: 473c 1a3c b800 59ba 516d 9db9 cb2d ccbb
000000f0: 4d91 633c 076f 95bb 9a15 33bc 6f1a 13ba
00000100: f3fd f6bb 2843 aa3c 8ca6 aa3a cf2f 283c
00000110: 8bb2 07bc 1379 66bb 3b0a 0c3c 9740 f5b9
00000120: 3b92 4f3b 6de3 03bb 8fc4 40ba 4f90 d338
00000130: 2f2f ff39 dbd9 7f3b ab53 d0ba f121 afbc
00000140: 3d5f d0ba 0fec 20bc 6c3b a039 f33c 0ebb
00000150: 2305 eabb 2caf 16bc 706a 183b f182 903b
00000160: a624 10bc 8d6a 43bc 073f 05bc 8388 a63c
00000170: 3740 d83a 24a3 09bb cd35 78bc bbdf 8fba
00000180: 050d 5eba 4d5e 68bc 0356 ae3b aacf 783b
00000190: 1af8 0fbc bf97 d8bb 20c0 edbb 6edf c53b
000001a0: fa01 52ba 7965 3bba ca6e b63c 5308 953a
000001b0: 24b8 4a3c 9015 88bc 5526 12bc 95a2 e0bb
000001c0: a41f 0bbc 4b0e 68ba 37d3 43bc 1dfa 843c
000001d0: ab29 8539 e1ec 2c3c 2d77 6a3c 28b4 d83b
000001e0: 65a8 6d3c 3727 d93a 5830 783b 3bf6 3abc
000001f0: 8f5e 003b 929f 9ebb 041d 29bc 96d8 843c
00000200: b33d 84bb 9a00 ab38 f38e 1a3c 5893 623c
00000210: 905a 94ba 40a2 ec3b 8fc8 213b 8f77 f03b
00000220: f066 6f3c 76f9 823c 0f01 2d3c d95d 9ab9
00000230: 15b9 0f3c 04f6 863b a7a5 643c 266c b53b
00000240: 8c94 1e3c 9783 8abc f127 48bc 68af 2fbc
00000250: cb51 243b e821 3f3b 6b24 463c df3d a6bc
00000260: 822e 4a3b 08ce 16bc 8140 3c3b 9845 7b3b
00000270: ae28 893c d791 333c 17d5 0c3c 17f9 253c
00000280: 09f7 2cbc 2e7b b43c 903c fdbb c739 333c
00000290: 20e3 97bb f1d8 c8bb 03ca 733a cfd3 2dba
000002a0: d3d5 803a 13bd 443c f701 b73b ad8b 7cbc
000002b0: e7b0 2a3c a216 603b ee91 c93a a72d 583b
000002c0: 2253 1c3c b03f a9bb b2d9 213c 8ac3 57ba
000002d0: 09ac 8cbc bea8 1cbb a342 05ba 570a 79bb
000002e0: dfb8 d3ba c2c4 8dbc 4315 253c 42cf 36bc
000002f0: a022 a5bb b145 0cbb e8f0 67bb 3636 aa3b
00000300: f0b2 edbb 3b4b 19bb 76a3 483c 6d49 29bc
00000310: 76d9 843c 990b 4b3c d891 bfbb b7cc 143c
00000320: 3d69 ce3b e5c5 12bb 2fd7 463b 0066 4dbb
00000330: 8a05 7fbc bf77 5a3c c3f0 2ebb 8d81 67ba
00000340: dc9b 153c 6949 28ba 6f91 943b 8688 48bb
00000350: 2859 0ebc 8151 ae3b 6612 aabc df9a 2e3c
00000360: 6a9d f53b dfcc 183c 4283 3fbc 8819 9dbb
00000370: 7374 b7bb 57e3 0c3c e27a 2bbc 474e 343b
00000380: d72c aebb a7bb 5dbc 1a06 d43a d027 5c3a
00000390: 080a 77bb 3b09 2a3a af7f 933b 4df2 3d3b
000003a0: 7581 4fbb a009 eebb 628a f5bb 9385 c3bc
000003b0: 6f72 5cbb 0cfe 2f3c 5fa5 903b d2b8 d7bb
000003c0: d886 98bb b383 e3bb ee88 aabb a43c 893c
000003d0: f391 1a3c 5f55 2a3b 97f1 ed3b 8494 3cbc
000003e0: 63f4 2d3c 77fe f939 e186 48bb 7832 b43b
000003f0: fefe 31bc 8caf 80ba b534 10bb 79e0 af3b
-0.0026686646 -0.00023895716 -0.0049500535 0.013923029 -0.0033236702 0.003459713 0.009342113 0.011600632
0.00067309855 0.011440397 -0.0019895616 -0.003076379 -0.015522453 0.012426273 0.004323933 -0.002171424
-0.015680563 0.010977872 0.008634003 -0.0011416733 -0.00040586208 -0.0048087626 -0.02140649 0.00786762
-0.017473854 0.0035001698 -0.014261633 0.0036015087 -0.0013178204 -0.00900735 0.01009917 -0.006594775
-0.002301004 0.0080521805 -0.0016845735 0.0056857704 0.0033070804 0.00079009513 0.00137156 0.013428849
0.0056286566 -0.00596428 -0.004208255 -0.009118511 -0.004425367 -0.0100450935 -0.017472448 0.009554698
0.0023468048 -0.01891661 0.008851427 0.004855459 -0.0055518085 -0.0033469256 0.020690415 -0.0066356063
0.009413785 -0.0008278 -0.0003002682 -0.006231045 0.013889623 -0.0045603546 -0.010930443 -0.0005611544
-0.0075375973 0.020783976 0.0013019606 0.010265305 -0.008282314 -0.003516738 0.008547361 -0.00046778165
0.0031672854 -0.002012457 -0.0007353508 0.000100881436 0.00048672545 0.0039039764 -0.0015894076 -0.02137849
-0.0015897524 -0.009821906 0.0003056185 -0.002170381 -0.0071417256 -0.009197038 0.00232568 0.0044101407
-0.0087978 -0.011927259 -0.008132703 0.020328766 0.001649863 -0.002100178 -0.015149546 -0.0010976711
-0.0008470568 -0.014182639 0.005320312 0.0037965574 -0.008787179 -0.0066098864 -0.007255569 0.006038598
-0.0008011159 -0.00071486045 0.022269625 0.0011370279 0.012373004 -0.016611844 -0.008920272 -0.006855319
-0.00849143 -0.00088522275 -0.011952213 0.016232545 0.00025398782 0.010554523 0.01431064 0.006613273
0.01450548 0.0016567473 0.0037870612 -0.011411245 0.0019587611 -0.0048407996 -0.010321859 0.016216557
-0.0040356754 8.1540275e-05 0.009433496 0.013829075 -0.0011318494 0.00722149 0.0024686193 0.0073384712
0.014611945 0.015988093 0.010559334 -0.0002944309 0.008772154 0.004118683 0.01395551 0.005536574
0.009678971 -0.01690845 -0.012216554 -0.010722972 0.0025073166 0.0029164497 0.012093644 -0.020293174
0.0030850475 -0.009204395 0.002872497 0.0038341042 0.01674303 0.010960064 0.008595726 0.010130188
-0.010556945 0.022031393 -0.007728167 0.010939068 -0.0046352297 -0.006129377 0.00092998164 -0.0006630988
0.000982935 0.012007969 0.005584951 -0.015414161 0.010418153 0.0034193178 0.0015378573 0.0032986195
0.009541305 -0.005165063 0.009878563 -0.0008230737 -0.017171877 -0.002390429 -0.0005083477 -0.0038000548
-0.0016153118 -0.017305735 0.01007587 -0.011157813 -0.005039528 -0.0021403844 -0.0035391394 0.0051944507
-0.007253997 -0.0023390788 0.012246003 -0.0103324475 0.016216975 0.012392902 -0.0058462434 0.009082011
0.0062991665 -0.0022395786 0.0030340662 -0.0031341314 -0.015565285 0.013334214 -0.0026693798 -0.0008831255
0.009131398 -0.00064196304 0.0045339386 -0.0030598952 -0.008688249 0.0053197746 -0.020760726 0.010657041
0.007495572 0.009326189 -0.011689009 -0.0047943033 -0.0055985986 0.008599124 -0.010466309 0.0027512477
-0.005315404 -0.013533509 0.0016176135 0.00083982665 -0.0037695188 0.0006486361 0.004501305 0.0028983534
-0.0031662856 -0.007264331 -0.007493303 -0.023867404 -0.0033637544 0.010741722 0.004414245 -0.0065833116
-0.0046547465 -0.00694319 -0.0052043116 0.016752549 0.009434211 0.0025990827 0.007261466 -0.011510018
0.010617348 0.00047682572 -0.0030597972 0.0054991804 -0.0108640175 -0.0009817942 -0.0022004072 0.0053673354

action_model._discrete_distribution.branches.0.bias f4 [5]
00000000: e079 5437 e079 5437 e079 5437 e079 5437
00000010: e079 5437
1.2664561e-05 1.2664561e-05 1.2664561e-05 1.2664561e-05 1.2664561e-05
