results/ppo/My Behavior/My Behavior-49798.onnx (onnx, 72851 bytes, 7 tensors)

network_body._body_endoder.seq_layers.0.weight f4 [128, 6]
000000 7f 47 b0 bc 19 81 07 3f f6 b7 e4 3e e9 d8 80 3e
       -0.021518467 0.5293136 0.446716 0.2516549
000010 3c 4e 95 be 54 1f 80 be cc 25 36 3f cd 6f 1b 3e
       -0.2916125 -0.250239 0.71151423 0.15179367
000020 34 c5 ab be 43 55 71 3e a3 91 97 be 1c 84 99 3e
       -0.33548892 0.23567681 -0.296033 0.29983604
000030 77 6e 58 3d b3 16 9c bd 45 70 b9 bd 51 10 2a be
       0.052839722 -0.07621517 -0.09054617 -0.16607787
000040 f7 11 0a bf 23 a9 35 3d 93 4c db 3d 53 2d 76 bd
       -0.5393366 0.044350754 0.10707965 -0.06010182
000050 c7 f3 63 3f 6c 8a 3f 3e 25 bf 0c bf 87 56 47 be
       0.8904385 0.18705148 -0.54979163 -0.19466601
000060 6a ca 86 3e bf 31 1f 3f fd 98 44 be 54 dc d1 be
       0.26326305 0.6218528 -0.19198985 -0.4098841
000070 56 11 f6 3e 96 2e 95 be be 58 3e 3e 15 bf 56 bd
       0.480601 -0.29137105 0.1858854 -0.052428324
000080 a8 47 e8 3e f4 90 96 be af 21 77 3e 17 e1 ed 3c
       0.4536717 -0.29407465 0.24133943 0.029037995
000090 96 0b d1 be 15 2a 3c bd 2a 97 e3 3d cd 30 3b bf
       -0.40829152 -0.04593857 0.11112817 -0.7312134
0000a0 72 40 c8 3e 20 41 21 3f cc ae 13 bf b4 72 de 3e
       0.39111668 0.6299 -0.57688594 0.43446887
0000b0 7e 6a f3 bd 5e 5e c2 bc e7 aa 21 be 97 4d 2c be
       -0.11885546 -0.023726638 -0.1578785 -0.16826473
0000c0 71 a7 24 3b 54 c8 4d 3f 9a c1 cb 3d bb 2a 0d bf
       0.0025124217 0.803838 0.09949036 -0.55143327
0000d0 a1 8a e7 be 78 76 29 3e ad 26 d1 3e a6 2f 92 3c
       -0.45222953 0.16549098 0.4084982 0.017844986
0000e0 ef b4 2e be 0d 42 24 3d 58 fb 4e bd d6 60 78 be
       -0.17061208 0.040102053 -0.05053267 -0.2425569
0000f0 52 3b 89 be 78 44 2a 3f 0a 27 50 be 47 95 3f 3e
       -0.2680307 0.66510725 -0.20327392 0.18709289
000100 62 b5 34 3d 3e bf 29 3f 0d c1 32 3f 78 be 86 3e
       0.044118293 0.6630744 0.6982582 0.2631719
000110 56 8b 17 bf 3b ec 33 3f 52 cf 08 bf 5c e5 43 be
       -0.59196985 0.70282334 -0.53441346 -0.19130462
000120 7e 3b 06 be b6 ca 6e 3d 1f 20 dd bb 35 bc 9e bd
       -0.13108632 0.05829879 -0.006748214 -0.077507414
000130 81 86 69 be 56 fa 22 bf 1c 49 40 bc 13 5f c6 bc
       -0.22805215 -0.6366323 -0.011736181 -0.024215257
000140 4c cc 20 3e d6 8f 05 3d 87 5c fb bc fa 95 b5 3e
       0.15702933 0.032607876 -0.030683769 0.35465986
000150 46 55 51 bf aa 68 50 bd 9e 88 1b bf c2 2f e8 3e
       -0.8177074 -0.050881065 -0.60755336 0.45348936
000160 79 9b 94 3e f6 d6 89 3d 8d 04 ed be da ed 12 3f
       0.29024866 0.06730454 -0.46292534 0.5739418
000170 f7 26 11 bf 69 3c 5f bf 31 62 0d be 22 61 0f bf
       -0.5670008 -0.87201554 -0.13806988 -0.5600759
000180 6b db b5 be 88 2c 2e 3f 25 09 05 be d0 57 8c bc
       -0.35518965 0.680367 -0.1299177 -0.017131716
000190 e0 60 88 3e 87 ee 96 be f6 0a 23 3f c1 a6 9d be
       0.2663641 -0.29478857 0.636886 -0.30791286
0001a0 2d c8 17 3f 9b b4 e7 3e be 48 e5 3e 5c c3 91 bf
       0.5928982 0.4525498 0.4478206 -1.1387744
0001b0 9b dc 2c 3e de 09 ff 3e 4f d0 06 be 37 0e f4 be
       0.1688103 0.49812216 -0.13165401 -0.47667095
0001c0 91 d5 de 3e 56 2f a9 3e d3 3b 48 be ae b7 d3 3e
       0.43522313 0.33043927 -0.19554071 0.41351074
0001d0 8f ca 72 bf 7f fb d1 3e ee c3 89 3e 58 a9 d6 be
       -0.9484033 0.4101219 0.26907295 -0.41926074
0001e0 a2 9b 49 bf ac 7b 2e be 4e 33 10 3e 1f be dd bd
       -0.787531 -0.17039365 0.14082071 -0.10827278
0001f0 de 77 19 3e 98 b7 01 bf fa a1 2b be a1 98 82 bd
       0.14987132 -0.50670767 -0.16761008 -0.06376768
000200 5f c7 a1 be 5a 92 78 be 00 91 d7 be 11 e0 e8 be
       -0.3159742 -0.24274579 -0.42102814 -0.4548345
000210 dd 76 b3 bd 6f 6f 0d 3f 3e be 29 3f da 33 03 bf
       -0.08762906 0.5524816 0.6630591 -0.51250994
000220 11 01 61 be e3 f4 01 3d 5b 1f 4b 3f f0 85 18 3d
       -0.21973063 0.031727683 0.7934472 0.037237108
000230 88 d8 9f bd 65 a1 3a 3e c4 d9 a4 3e 70 c8 67 3d
       -0.07804972 0.1822563 0.32197392 0.056587636
000240 b2 e5 50 3e 1e f2 c4 be 77 82 19 be 47 16 bb be
       0.20400122 -0.3846597 -0.14991175 -0.36540434
000250 cd 00 90 bd 10 e7 be bd b5 5b 41 3d 47 09 51 be
       -0.07031403 -0.093214154 0.0472066 -0.20413695
000260 fa cc 3d 3e 0c 62 42 3e 4b 25 29 3f 54 fe 2b 3f
       0.18535224 0.18982714 0.6607253 0.6718495
000270 fd c5 00 be cc 16 41 bf a9 5c 80 be bb 3b 68 3f
       -0.12575527 -0.7542541 -0.25070694 0.9071614
000280 c1 e2 66 be 7b 90 b2 3e c5 62 f6 3c de 95 c4 be
       -0.22547437 0.34875855 0.030076394 -0.3839559
000290 63 da 8c 3e af dd f1 3e a7 39 10 3e 52 01 2f bb
       0.27510366 0.47239444 0.14084493 -0.0026703668
0002a0 73 e6 51 be 93 90 03 bf b7 88 52 3e e6 ea 20 3d
       -0.20498066 -0.5139248 0.20559965 0.039286517
0002b0 02 40 32 bf f2 d6 64 3d 74 bf 93 be 3b dc 2d 3e
       -0.6962892 0.05586905 -0.28857005 0.16978543
0002c0 09 05 03 3e d8 cd 9d 3e 12 40 cd 3e 16 76 37 3e
       0.1279489 0.3082111 0.40087944 0.1791614
0002d0 59 9f 0c 3d 08 a9 2f bf ae 83 55 bf 18 ec ce 3e
       0.034331653 -0.68617296 -0.8340405 0.404145
0002e0 6c e4 21 3d c3 fc 5b 3e e4 55 ca be ef d7 74 bd
       0.03952448 0.2148314 -0.39518654 -0.059776243
0002f0 6d 8f 3c be ce 87 e5 bd 94 b8 a7 bd 40 fb 76 3e
       -0.18414088 -0.11207543 -0.08189502 0.24119282
000300 c0 a4 e7 be 24 7c b5 3f 3c 4d b4 3e aa 28 84 3e
       -0.45242882 1.417851 0.35215175 0.25812274
000310 fe 9b 00 3d 9a dd 0b bf 43 f6 88 3f ec 37 87 3f
       0.031398766 -0.5463501 1.0700153 1.0563941
000320 a4 d0 9c 3c c0 4d de be d8 04 20 bf eb bb 4b 3e
       0.019142456 -0.43418694 -0.6250739 0.19895904
000330 ef 2e 04 bf 94 8a b1 be 38 26 d7 be 2a c9 96 3d
       -0.51634115 -0.3467604 -0.42021346 0.07362588
000340 e8 4c d9 be 18 c7 05 3f 8a df 0d 3e 53 87 fb 3d
       -0.42441487 0.5225692 0.13854805 0.122816704
000350 f7 27 82 3e aa 5b 28 bd 38 66 46 bd 95 8e a3 be
       0.25421116 -0.041103043 -0.048437327 -0.3194472
000360 53 04 d3 bd 86 18 46 3e 88 5d 0b 3d 07 0b f4 bc
       -0.10303559 0.19345292 0.034024745 -0.029790414
000370 bc 96 9e 3e 3e 49 20 be c6 92 58 be d0 d9 d6 3e
       0.30974376 -0.1565294 -0.2114974 0.41963053
000380 47 a3 f8 be 06 6d b0 be 4d a4 29 3f 89 3b 89 be
       -0.4856207 -0.34458178 0.6626633 -0.26803234
000390 25 d1 a0 3d 0d 09 a6 bc 06 09 03 bf b4 40 8f be
       0.07852391 -0.020267988 -0.51185644 -0.27979052
0003a0 e2 a8 ee be 83 21 53 3e 7e 86 f2 be 6e 3d 80 be
       -0.46613222 0.20618252 -0.47368234 -0.25046867
0003b0 6b 5e 72 be e0 a4 23 3e f3 98 bc be 9d 96 12 be
       -0.2366883 0.15980864 -0.3683544 -0.14315267
0003c0 53 ab d5 3e c7 b4 77 3e 49 13 b3 be 48 f3 b4 3e
       0.41732273 0.24190055 -0.3497565 0.3534186
0003d0 77 4b a6 3e 8e e9 d2 be 30 70 78 3e 6b e4 09 3e
       0.3247945 -0.41193813 0.24261546 0.13466041
0003e0 4b 8c e6 3e 8b f9 ef 3e a2 f5 2d 3f ce e3 80 bd
       0.4502891 0.46870074 0.6795293 -0.0629345
0003f0 35 9a a7 bb 8c 34 f3 3e 99 07 09 be 74 50 f7 3d
       -0.0051148185 0.47501028 -0.13381805 0.12075892

network_body._body_endoder.seq_layers.0.bias f4 [128]
000000 86 ed 75 bb 84 21 46 bb 7b b3 65 bb aa 4d 63 ba
       -0.0037525608 -0.003023238 -0.0035049606 -0.00086709356
000010 1f c3 bb ba ac fe 7c bb a1 f5 05 bb 3c 65 a6 3b
       -0.0014325118 -0.0038603945 -0.0020440596 0.005077986
000020 c9 02 48 bb 71 f6 25 3b 38 50 1a 39 e3 12 87 39
       -0.0030519238 0.0025323892 0.00014716468 0.00025763278
000030 e3 5b 8d bb c1 91 08 bb e5 80 3a bb 5e db 13 3b
       -0.0043139323 -0.002083883 -0.0028458175 0.0022561173
000040 36 0a 3a 3b 8a 43 17 ba af 4e 49 39 32 cc 9d bb
       0.0028387434 -0.0005770257 0.00019198166 -0.0048156017
000050 16 82 b2 bb 9c 89 25 bb c8 22 70 3b a8 57 b1 ba
       -0.0054476364 -0.0025259024 0.0036641825 -0.0013530152
000060 c4 0a 7b bb ad 26 26 ba 95 ac 92 bb e4 3a 32 3b
       -0.0038305977 -0.00063381606 -0.00447614 0.0027195746
000070 0d 89 60 3a 26 53 d9 ba fa ad 88 3b f4 33 0b bc
       0.0008565344 -0.0016580566 0.0041711302 -0.008496273
000080 1f 7f ce 3a d4 02 83 bb c0 69 c9 3b 99 12 e0 3a
       0.0015754438 -0.00399814 0.0061466396 0.0017095386
000090 31 86 3a 3b 7f 15 28 bb d3 ca 90 3b f8 1d 46 3b
       0.0028461332 -0.0025647578 0.00441871 0.0030230265
0000a0 6d 66 53 bb 49 f2 98 b7 2c 66 15 bb e3 b0 df ba
       -0.0032257095 -1.8232635e-05 -0.0022796495 -0.0017066266
0000b0 38 e3 68 3a bb a1 3a bb c8 5f 6d 3b 0b 68 2e 3a
       0.0008883956 -0.0028477747 0.003622042 0.0006653077
0000c0 98 0c 87 3a 69 c8 64 3a 7c 76 29 3b 98 11 42 3b
       0.0010303436 0.0008727373 0.0025857976 0.0029612537
0000d0 2d 8b 5a 3b a4 47 77 bb e3 a5 91 bb 64 f5 29 3c
       0.0033347115 -0.003773191 -0.004444824 0.010373447
0000e0 30 cb 75 bb ea 4a 57 3c 7f 9d 2a ba d9 68 86 ba
       -0.0037505142 0.0131404195 -0.0006508454 -0.0010254636
0000f0 e9 c8 9f ba 4e 06 e9 3a 8b 6b 99 3a d8 bc 8d bb
       -0.0012190613 0.0017778368 0.0011705024 -0.0043254904
000100 6c 40 78 bb 26 06 bd ba 75 1d 43 38 3f da db ba
       -0.0037880195 -0.0014421388 4.6519057e-05 -0.0016773416
000110 6a 63 24 b9 57 af 1e 3b 64 ce 8a 3b ee 38 80 ba
       -0.00015677293 0.0024213397 0.0042360295 -0.0009782591
000120 63 30 a9 37 b0 26 99 bb b3 28 13 39 98 05 4b 3b
       2.0168902e-05 -0.0046738014 0.00014034174 0.0030978676
000130 07 e0 82 bb 0d bb cb 3b 25 d9 bf ba 0d 01 56 bb
       -0.0039939913 0.0062173666 -0.0014636858 -0.0032654435
000140 82 fe 45 bb 92 70 88 3a 29 03 b6 ba 11 97 80 bb
       -0.0030211513 0.0010409525 -0.001388644 -0.0039242585
000150 8b c2 4e bb 65 f3 98 b9 02 fc ed 39 fb 16 ce ba
       -0.0031549062 -0.00029173042 0.00045391923 -0.0015723401
000160 b7 d7 40 3b ee e2 80 bb 9d 93 2f bb d4 a7 26 3a
       0.002942545 -0.003933302 -0.0026790865 0.0006357406
000170 20 68 2f 3b 9c 14 82 3a ea 1e 29 3c ce f1 f2 ba
       0.0026764944 0.0009924355 0.010322312 -0.0018535198
000180 3e 8b 18 ba 73 c6 a2 bb 0f f3 ec b9 f0 aa 79 3b
       -0.00058190885 -0.0049675046 -0.0004519452 0.0038096271
000190 6c 72 2e 3b a3 39 7c ba fc 47 25 bc fa 0d b3 bb
       0.0026618494 -0.00096216256 -0.010087963 -0.0054643126
0001a0 8a db 58 bb b2 ed 2e bb 7c bb 99 3b 47 9f 13 3b
       -0.003308984 -0.002669197 0.0046915393 0.0022525357
0001b0 36 e7 d4 b9 ff 2b 0b bb 64 fb 86 3a 4f 80 24 bc
       -0.00040608057 -0.002123594 0.0010298309 -0.010040357
0001c0 89 04 eb 3a 8e e3 21 39 20 8f 83 3b e2 ff a2 bb
       0.0017930429 0.00015438927 0.0040148646 -0.0049743513
0001d0 8a 0d 6e bb c2 d7 b6 3a d6 bf 45 bb 0d ce f5 3a
       -0.0036323988 0.0013949799 -0.0030174158 0.0018753425
0001e0 78 71 ec 3b e9 f3 5a 3b af 25 22 3a 78 6d 42 3a
       0.007215675 0.0033409542 0.0006185425 0.0007416825
0001f0 07 4f 99 ba 7b 3a f9 39 74 ad 1b 3b 1a 8b 27 39
       -0.0011696526 0.00047536552 0.002375451 0.0001597818

network_body._body_endoder.seq_layers.2.weight f4 [128, 128]
000000 98 78 e9 3d 4b cf b5 3d 44 90 7d bc e6 4c 07 3e
       0.113999546 0.088774286 -0.01547629 0.13212928
000010 8f 0e 3b 3d ea 83 e4 bd 5b 11 4c bb 24 10 eb bb
       0.04566818 -0.11157973 -0.0031138274 -0.007173555
000020 cd a7 b6 bd ad c2 17 be ae f0 c3 ba f4 ce 49 3a
       -0.08918724 -0.14820357 -0.0014949047 0.000769838
000030 4c ce c3 bb 95 d8 39 bd 32 b4 a8 3d 96 6e 35 bc
       -0.0059755202 -0.045372564 0.082374945 -0.011073729
000040 f5 63 e2 3d a5 6e c3 3d 8c 1c 83 bd 8e 4b ea bd
       0.110542215 0.09542588 -0.06401929 -0.11440192
000050 96 c5 0a be 43 d1 a1 3d 18 0c 82 bc 31 70 fa 3c
       -0.13551936 0.07901242 -0.015874907 0.030571075
000060 f1 cc a2 bc 9a ea e6 bc de 38 03 3c 18 9f 95 bd
       -0.019873114 -0.028188039 0.008009164 -0.07305735
000070 f2 a9 ed 3b 59 71 2b be 98 0f e1 bc e5 5f 59 bc
       0.007252925 -0.16742457 -0.027473256 -0.013267492
000080 b6 47 d3 bc ad d7 32 3e 1a c8 ad bd 8b e1 b2 3d
       -0.02579103 0.17465086 -0.08485432 0.08734425
000090 ab 97 3b bd 88 c1 72 bd 0d 33 90 3d b0 be f6 bd
       -0.04579894 -0.059266597 0.07040987 -0.120480895
0000a0 51 c1 69 3b 0d 6c 02 3e 44 1a 56 bb 1d 0a 6f 3d
       0.0035668204 0.1273653 -0.0032669464 0.058359254
0000b0 00 53 a9 bb 1e d8 b2 3c 99 41 43 bd 62 c8 d5 bc
       -0.005167365 0.021831568 -0.04766998 -0.026096527
0000c0 f2 96 c3 3d 71 e6 9f bc 4e 6f 42 3e 11 4d d9 3b
       0.09550275 -0.019519063 0.18987772 0.0066315015
0000d0 67 d3 8b bc 82 cd 41 bd 0a 1c d6 3d 80 3f c1 3d
       -0.017068578 -0.04731513 0.10454567 0.0943594
0000e0 d0 74 75 3c c0 c4 00 3d e0 e8 d5 bb 55 8e f3 3c
       0.014981464 0.031437635 -0.006528005 0.029730955
0000f0 9c 6a d1 3c 18 b9 80 bc cb 38 27 be 9e bd bb 3c
       0.02556353 -0.01571326 -0.16330259 0.022917565
000100 cc ca 74 bd ab 0e 4d 3d 70 81 c9 bd 78 d5 8b 3d
       -0.059763715 0.050062817 -0.09839141 0.06827825
000110 93 fc af bb ac ed c2 bd 7d 32 49 bd cb 6c e3 bd
       -0.0053706854 -0.095179886 -0.049120415 -0.11104735
000120 0d 1c f1 3d 11 7d 84 bd 29 b5 a5 bc f3 a3 3e be
       0.117729284 -0.06469167 -0.020227985 -0.18617229
000130 ce 6e 52 bc 43 0e 0f 3d 62 33 15 bd b9 0d 8a 3d
       -0.012843801 0.03492571 -0.036425956 0.06740899
000140 35 aa 57 3d 1b ee a1 3c cf 63 4b bd bd ea 5e 3d
       0.052652556 0.019766858 -0.04965573 0.054423083
000150 fe d6 dd bd 8b 81 82 3c 38 18 5c 3e 0c 5c 75 bc
       -0.10832022 0.015930912 0.21493614 -0.014975559
000160 e6 2e fc 3c a5 87 23 3d 60 77 9a 3d df 09 c6 3d
       0.030784082 0.039924283 0.075423 0.096698515
000170 df 3c e2 3d 47 4e 9c bd ec 06 e2 3c 04 5c a2 bd
       0.110467665 -0.07632118 0.027591191 -0.07927707
000180 65 23 ad bd 59 be 10 3d 63 55 80 bd 06 ee 68 bd
       -0.084540166 0.03533778 -0.06266286 -0.05686762
000190 65 82 e0 3c 95 1a 44 3c 6a fb 91 3d 8b 54 1b 3c
       0.027405927 0.011969228 0.071280316 0.009480606
0001a0 d9 f9 eb bd 04 c4 8d bd 36 23 0f 3e 79 6d d2 bd
       -0.11522264 -0.06922153 0.13978276 -0.102747865
0001b0 67 29 80 bd 3a d1 1d bb c7 58 4b 3d 30 02 26 be
       -0.06257897 -0.0024081008 0.04964521 -0.16211772
0001c0 80 2e cc 3d df 77 5f bd 26 8b 2a bd da 34 dc 3b
       0.09969807 -0.054557677 -0.04163661 0.0067201676
0001d0 59 3e 2a 3e 73 0e d4 3d ed e8 f8 3b 15 c9 6f 3c
       0.16625346 0.103543185 0.0075961263 0.014635344
0001e0 14 76 7d 3d 62 a7 a8 bd 12 df 33 3d 6a 13 9e 3c
       0.061880186 -0.08235051 0.04391391 0.019296367
0001f0 6d 45 9c 3d 5b 28 a7 bd da 18 4e 3d 73 3e 1b bb
       0.076304294 -0.08161994 0.05031667 -0.0023688346
000200 9b c4 a0 bd db c2 69 bc 9e 4e c0 bd 06 58 65 be
       -0.078499995 -0.014267649 -0.09389995 -0.2239686
000210 20 6b f4 bc ab 28 a0 3d 6f 09 7d bd d6 cc 2d bd
       -0.029836237 0.07820257 -0.061776575 -0.042431675
000220 a8 e1 0c be 1d b2 4c bd 5f 61 bc 3d b6 91 00 3c
       -0.13757956 -0.04997455 0.091982596 0.00784724
000230 26 89 b6 3b d4 90 d7 3c 9f 7b 4e bc 6e 10 cf 3d
       0.0055705486 0.026314177 -0.012602716 0.101105556
000240 e5 50 2f 3c 6d fd 8e bd be d8 a7 bd 59 4d 95 3c
       0.010700439 -0.06981931 -0.08195637 0.018225359
000250 85 a0 0d be 97 78 f3 3c ed b6 5a bc 26 28 90 be
       -0.13830765 0.029720588 -0.013349277 -0.2815563
000260 f9 7c b1 3d e7 be 5b 3d 70 9c e4 bb c7 c2 b5 3d
       0.08666415 0.053648856 -0.0069766566 0.088750415
000270 80 79 a7 bd d9 c7 03 bd a3 c2 11 be be f1 eb 3d
       -0.08177471 -0.03217301 -0.14234404 0.11520718
000280 96 48 1c bd eb 51 66 3c 84 e6 de 3c ba c0 8c 3e
       -0.03815516 0.014057617 0.027209528 0.2749079
000290 3a 87 8c 3c 91 49 cd bd ed 5d 65 bd a3 2f 52 3d
       0.017154325 -0.10023797 -0.055997778 0.05131496
0002a0 de 02 ac bb c5 a6 f5 bd cd f9 1d bd b3 85 6b 3d
       -0.0052493652 -0.119946994 -0.038568307 0.057500552
0002b0 be 25 84 3d 6c e7 03 bc e5 9b 86 3d 1e f6 2a 3d
       0.06452511 -0.008050781 0.06572703 0.041738622
0002c0 00 6a 2f 3d f9 b2 10 bd d7 d2 0b 3c 1c 9a 56 bd
       0.0428257 -0.03532693 0.008534155 -0.052393064
0002d0 66 e0 6f 3e b7 68 90 3d c8 59 5c bd 61 ff 72 3e
       0.23425445 0.07051223 -0.05379656 0.23730232
0002e0 12 45 a6 3c 5c a3 6d 3d da a7 55 3e 3c da 53 3d
       0.020296607 0.05801712 0.20864812 0.051721796
0002f0 e3 5b 6a 3d b5 33 44 3e ed 80 e6 bc 2a 63 cc bd
       0.057216536 0.1916035 -0.028137648 -0.099798515
000300 70 b0 d0 3d b4 49 f6 3d 6b 1c c5 bd 4b da 1c be
       0.10189903 0.120257765 -0.09624561 -0.15317647
000310 54 ba 09 be 5b 2b df 3c c3 9d b9 bc ed 70 22 bd
       -0.13449985 0.027242353 -0.022658234 -0.039658476
000320 51 0c 54 3d 96 1b 2b be ca 81 32 bd d8 e4 d7 3d
       0.05176956 -0.16709742 -0.043580808 0.10541695
000330 4f 06 28 bd 62 7f 2d 3e 73 8e ca bd c1 02 dd 3d
       -0.04102164 0.16943124 -0.09890451 0.10791541
000340 ba 1c 1d be 9e b0 ab 3d 4a b9 5b be 6a e3 ce 3d
       -0.1534299 0.083832964 -0.21457401 0.101019695
000350 03 a3 6e 3d 26 95 bd 3d 5d e7 48 3d 42 35 96 3d
       0.05826093 0.092569634 0.04904877 0.07334377
000360 82 33 82 3d ef e5 5c bd de c5 51 3c a4 db 39 bc
       0.063574806 -0.05393022 0.012803523 -0.01134387
000370 0d c6 ea 3c 79 3f 05 be 31 48 b0 3d 33 e2 1f be
       0.028658891 -0.13012494 0.086075194 -0.15613632
000380 6c 41 ba 3d 56 03 e6 3b 6b 1a bf bd f5 b8 d2 3d
       0.090945095 0.0070194406 -0.09331211 0.10289184
000390 ce fc 8f 3d 96 32 a6 3d fc c1 58 3d fc dd 35 be
       0.070306405 0.08115117 0.052919373 -0.17760462
0003a0 08 f3 b4 3d 9b a7 a4 bd 39 20 c5 3c c5 37 87 bd
       0.08835417 -0.08039781 0.024063217 -0.06602434
0003b0 96 21 11 3e b9 19 1b 3d 28 fc b2 3d 24 05 4e 3c
       0.14172968 0.037866328 0.08739501 0.012574468
0003c0 fd 71 d4 bd fb 46 92 bd 68 83 64 bd 4c d0 b6 bc
       -0.10373304 -0.07142445 -0.05578938 -0.02231612
0003d0 63 89 5b 3d 94 17 54 bc 88 04 d5 bc 22 e3 d2 3d
       0.05359782 -0.012945075 -0.026003137 0.102972284
0003e0 97 5f 17 3d 8f 1d 2c 3d 1c 75 0e 3c bb 3e 8b bd
       0.036956396 0.042020377 0.008694913 -0.06799074
0003f0 81 ef 16 be 76 71 0f 3e e3 24 bd bd 14 00 ff 3c
       -0.14739801 0.14008126 -0.09235551 0.031127967

network_body._body_endoder.seq_layers.2.bias f4 [128]
000000 be 00 04 3b 3a 7f 29 bc f4 7a 71 3b 40 05 2a 3a
       0.0020142044 -0.010345275 0.0036846967 0.00064857677
000010 81 a9 38 39 f6 34 ae ba 2d e3 79 b8 46 45 d8 3a
       0.00017610753 -0.001329093 -5.95778e-05 0.0016500137
000020 fc cc 58 3b 74 d4 24 3b 77 91 2d bb 47 89 d3 bb
       0.0033081165 0.0025151046 -0.002648441 -0.0064555737
000030 08 b6 95 3b 69 2c e0 ba 6b 41 ce 39 d5 60 c6 3b
       0.004568819 -0.0017103079 0.00039340122 0.0060540237
000040 eb c4 b8 3a ff 34 41 bb b1 84 f2 3a cc 11 21 39
       0.0014096772 -0.002948105 0.001850268 0.00015360786
000050 da 0e 8e ba 95 53 26 3b 8d a2 64 ba dc 1b 07 bb
       -0.0010838166 0.0025379409 -0.0008721732 -0.002061597
000060 49 42 12 bb 7e 1a 6b bb 83 d2 06 3b 43 d9 a6 bb
       -0.002231734 -0.0035873945 0.0020572252 -0.0050918176
000070 c6 e5 42 3a c8 01 70 3b 62 61 17 3b 84 20 b2 3b
       0.00074347516 0.0036622155 0.0023098816 0.005436005
000080 12 c7 05 bb bc 05 27 bb 2c 31 d2 ba 37 8b 21 3b
       -0.0020412845 -0.0025485596 -0.0016036383 0.002464963
000090 ea a8 f0 3a 4f c4 4c bb 13 6c 9b 3b 32 9d ee ba
       0.0018360887 -0.0031244939 0.004743108 -0.0018204807
0000a0 bb fb 1a 3b dc b5 0a bb ef 17 37 ba a8 28 a4 bb
       0.0023648578 -0.0021165526 -0.00069844624 -0.0050097294
0000b0 87 aa 14 39 9c ea 97 b9 6d 92 89 3a 8a 4c 87 3a
       0.00014177906 -0.00028975762 0.0010495909 0.0010322493
0000c0 cc 91 74 3a c1 e5 20 bb a5 8f 84 3b ac 16 04 bb
       0.0009329587 -0.0024551006 0.004045444 -0.0020155115
0000d0 e1 99 21 bb 9f 40 ad 3a 4b 47 05 3b b5 25 82 38
       -0.002465837 0.0013218111 0.0020336683 6.2059065e-05
0000e0 42 06 f3 ba bf 1f ba ba de 98 39 3c c9 61 06 3b
       -0.0018541294 -0.0014200135 0.01132795 0.0020505062
0000f0 2e 98 3e bb 06 fd 52 39 5f 2a 0c 3b ee 96 cc 3a
       -0.0029082405 0.00020121419 0.002138756 0.0015608945
000100 6d a4 5c bb 58 e6 cd bb 40 ab 31 bb c1 39 95 bb
       -0.0033667341 -0.0062835626 -0.002711013 -0.004554004
000110 1f 17 a5 3b 7b 2c a1 ba 71 6b 3b bb 42 e1 1b bb
       0.0050381566 -0.0012296581 -0.0028597976 -0.0023785387
000120 74 fb c9 b6 81 14 d5 ba 6d 48 2f 3a ab 79 29 3b
       -6.01954e-06 -0.0016256721 0.00066865125 0.0025859873
000130 fe 02 7c 3a dd c1 44 3b 06 cc a1 3b fa bd 33 3b
       0.0009613483 0.0030022778 0.0049376516 0.0027426467
000140 53 5b 32 3b 7f b6 9d bb 6e 16 21 3b 8d de 4b 3a
       0.0027215078 -0.004813015 0.002458002 0.0007776998
000150 51 16 02 3a 69 c5 52 3b 22 51 e6 3a 72 44 4b bb
       0.0004962432 0.0032161123 0.0017571787 -0.0031016138
000160 33 2f 34 3b a6 68 5b ba cf 82 ac ba dc cd f6 3a
       0.0027493953 -0.0008369781 -0.0013161543 0.0018829661
000170 1f b4 21 3a 37 23 f7 bb 7d 0b f7 3a 84 0e 06 3a
       0.0006168503 -0.0075420397 0.0018848028 0.00051138573
000180 1c ca 1b bb fd ed 6e 3a ce e8 8c 3b 48 c2 91 bb
       -0.002377159 0.00091144425 0.0043002134 -0.004448209
000190 ff ec 14 bb 9c 37 16 3a 3a 63 68 3b 0e cd ca bb
       -0.0022724268 0.00057303323 0.0035459534 -0.006188995
0001a0 1f 8b e6 3a 44 bf 40 bb 2c 37 80 3b 31 bf 92 3a
       0.0017589069 -0.0029410878 0.003912827 0.0011195895
0001b0 8e dd 2b bb bb ce 4d bb 58 5e 4f 3b c3 84 00 3a
       -0.0026224586 -0.0031403739 0.0031641927 0.00049025955
0001c0 68 6d 86 3a ca 61 1a 3b d9 0e 24 3b b7 a1 37 3a
       0.0010255994 0.0023556822 0.0025033264 0.00070049934
0001d0 db 9e fd 3a 05 8b 42 bb 2e ce 3b 3b 91 7e d7 3a
       0.0019349711 -0.0029684913 0.0028656828 0.0016440918
0001e0 96 ad 02 bb ae 39 8d 3b 89 b1 8d 3a 7b d7 96 3b
       -0.001993989 0.0043098545 0.0010810356 0.004603324
0001f0 16 52 54 ba 68 77 c9 bb a6 87 71 3a b0 5b 4f bb
       -0.000809939 -0.0061482675 0.00092136336 -0.0031640343

action_model._continuous_distribution.log_sigma f4 [1, 2]
000000 4f aa f6 3b 41 0b 49 bc
       0.0075276266 -0.01227075

action_model._continuous_distribution.mu.weight f4 [2, 128]
000000 97 de c6 bc d5 41 31 bc fe d4 1f bb 69 21 e7 bc
       -0.024276061 -0.010818918 -0.0024388428 -0.028214173
000010 f6 f2 58 3c 60 ec ec bc ad 33 f9 bc 08 8d 8a 3c
       0.01324152 -0.028921306 -0.030420149 0.016912952
000020 2f 02 8f 3c 18 46 5b 3c a2 a6 3c 3c 82 26 f0 bb
       0.017457096 0.013383411 0.011514338 -0.0073288092
000030 89 87 00 3b ee ff b9 bb 78 51 d4 bc 2f 9b 8d bb
       0.0019612035 -0.005676261 -0.025917754 -0.004321478
000040 f2 bc d1 bc af 5a c3 bc b8 2d 3c bc c1 0b a5 bc
       -0.025602791 -0.023846952 -0.01148551 -0.020147206
000050 06 dc cf bc 4f a5 13 3c fd 88 37 bc 17 fd 8a bc
       -0.02537347 0.009011581 -0.011202094 -0.016966386
000060 b7 c3 f0 3a 6a b7 84 ba d4 79 fb 3a ad 0f e7 bb
       0.0018368874 -0.0010125462 0.0019186088 -0.0070514292
000070 4c 2f ec bc db 3b 2d 3c b9 d4 f7 3b d3 36 ba 3c
       -0.028831147 0.010573353 0.0075632003 0.02273122
000080 e3 58 19 3c 4d 4b 8c 3b 47 48 61 3c b3 d8 cc 3b
       0.009359571 0.0042814375 0.013750142 0.0062514185
000090 af 65 23 3c 3c 55 f5 3b 11 83 eb 3b 74 31 be 3c
       0.009972974 0.0074869674 0.007187255 0.02321694
0000a0 48 23 5d 3c 75 da 16 3b 20 7f 0c bd 55 85 8a ba
       0.013497181 0.0023018394 -0.034300923 -0.00105683
0000b0 85 7c d0 3a 1c f7 68 bc 12 f1 0b 3c 68 b8 af 3b
       0.001590625 -0.014219072 0.008541362 0.005362559
0000c0 cd 45 b3 bc 94 80 dd 3b d4 a5 6c 3c 87 83 a0 bb
       -0.02188387 0.0067597125 0.014443833 -0.004898492
0000d0 2b 25 b8 bb f9 99 90 bb 52 40 af ba b8 db fb 3b
       -0.005619665 -0.004412886 -0.0013370609 0.0076861046
0000e0 e2 2f 1b bc e6 c1 92 3c ba af bb 3c b8 09 20 bc
       -0.009471865 0.017914724 0.022910941 -0.009767942
0000f0 f2 84 a6 bb bb a1 ce 3c 9d 8f 8e 3c d1 8c dc 3b
       -0.0050817663 0.025223603 0.017402465 0.006730654
000100 60 b5 e7 bc fb 04 2c bb 5a 06 c1 ba 98 9e d9 bc
       -0.028284729 -0.0026248086 -0.0014726624 -0.026564881
000110 04 d4 6e 3c 33 8d 0c 3c 71 40 f7 bb 66 f6 63 3c
       0.014576916 0.008578586 -0.007545524 0.013913726
000120 26 7f af 3c f3 1b a1 3c 56 0c 38 bc 2e 6b e3 bc
       0.021422934 0.019666648 -0.01123341 -0.027761068
000130 b1 11 ca bc 15 b1 2c 3c a8 40 8f 3c ef 5a 14 3c
       -0.024666639 0.0105402665 0.017486885 0.009054883
000140 52 f7 41 3c ed 75 e2 bb 4b 16 2e 3d 8f 9c 78 3c
       0.011838751 -0.0069110305 0.04250173 0.015174045
000150 b1 09 cc bc 5c dc ce 3c 39 b1 c1 3c 20 1b eb 3b
       -0.024906965 0.02525156 0.023644077 0.0071748644
000160 d5 d1 28 3c ad 4f 65 bb 34 7d a7 3b 6d dc 9c bc
       0.010303934 -0.0034990117 0.005111361 -0.019148076
000170 c6 38 cc 3c 72 c9 06 bd c7 ba 97 3c df 0c aa bb
       0.024929415 -0.032906957 0.01852168 -0.0051895226
000180 55 45 c2 3b f9 22 04 bc c4 b6 04 3c 67 33 0c bd
       0.005928675 -0.008064979 0.008100215 -0.03422871
000190 93 62 16 3c ff a2 1b bd b4 ec 7c bc c8 b5 be bc
       0.009178775 -0.037997242 -0.015437294 -0.02328004
0001a0 3f 73 44 bb 09 5c e8 bb 51 53 92 3c 67 2f 18 39
       -0.0029975919 -0.0070910496 0.017861994 0.00014513508
0001b0 a7 63 92 3b b4 e8 77 bc b4 0a 9d bc 9f a4 fb 3c
       0.004467446 -0.015131164 -0.019170143 0.030718146
0001c0 8b 16 3f bc b9 cb 22 3c 13 cf 7f 3b e1 1a 7b 3c
       -0.0116630895 0.009936267 0.0039033338 0.015326233
0001d0 0a 02 68 bb b9 cf 45 bc 8c 0c 7f bb 4c e7 d4 3b
       -0.0035401606 -0.012073451 -0.003891739 0.0064972993
0001e0 f2 1b 10 3d 7b 71 67 bc bb f8 82 bd 87 ac 06 3d
       0.0351829 -0.014126177 -0.06395098 0.03287938
0001f0 4e 2e cd bc cf 13 54 3c e7 bb 8d bc c6 cf 12 3c
       -0.025046494 0.012944176 -0.017301513 0.00896067
000200 ed 4f 97 bc 2c 67 d1 bb ca 21 a9 bb 83 62 d2 3c
       -0.018470729 -0.006390473 -0.0051614987 0.02568174
000210 26 c3 2f bc 8b 31 86 bb d9 eb a7 3b 9e ca 64 3c
       -0.010727679 -0.0040952615 0.005124551 0.013964323
000220 6a d8 b8 bc 18 71 67 3d f6 0a 4c bc ce 88 10 bc
       -0.022564132 0.05650434 -0.012453785 -0.008821679
000230 94 87 9d 3c dd be 57 bc 38 12 82 bc 99 d9 ba bc
       0.019229688 -0.013168064 -0.015877828 -0.022808837
000240 a1 af 9a ba 11 ec 9b bc 95 9d 9a 3c 46 aa b0 bc
       -0.0011801609 -0.019033464 0.01887397 -0.021565568
000250 b8 df a5 bb 3a 79 f4 3c 7e 92 f0 3a b9 5b 0d 3a
       -0.0050620697 0.029842962 0.0018354205 0.0005392391
000260 df 1b 8f bc 3e 70 7e bb 7c 79 b0 3c 4a da 6a 3c
       -0.017469345 -0.0038824226 0.021542303 0.014334271
000270 15 f0 9f 3b aa 2d a5 bc 2c dd 69 3c 2f bb 92 3c
       0.004880915 -0.020163376 0.014273923 0.017911522
000280 5d 01 4b 3b 79 96 ee bc 84 b9 9f bc ec 71 d9 3c
       0.0030976154 -0.029124485 -0.01949764 0.02654358
000290 bc 8b 84 3c 2c 6b 29 bc 16 50 63 bc 05 65 36 bc
       0.016179912 -0.010340493 -0.013874074 -0.011132483
0002a0 f2 51 d7 3c d0 cc cd 3a 6d f3 16 bc 88 52 96 bb
       0.026284192 0.0015701298 -0.009213311 -0.004587475
0002b0 7d bc 58 3b 50 f8 92 ba 03 2f 20 3c ea 30 84 3c
       0.0033071332 -0.0011212919 0.0097768335 0.016136605
0002c0 26 b3 14 bc b8 53 98 bb 92 98 46 3c ae ea 96 bb
       -0.009075915 -0.004648652 0.012121337 -0.0046056127
0002d0 1d da e4 bc 31 cb 87 3b 3c 65 65 3c 4a 0e e1 ba
       -0.027936036 0.0041440954 0.014001187 -0.0017170396
0002e0 dd 7d 7c ba d8 0f 1a 3b 48 b9 1e 3c d4 7a 8b bb
       -0.0009631792 0.0023507979 0.009687729 -0.0042565856
0002f0 c9 df b2 bb 85 9a d9 3b fa 44 ef bc f4 09 21 3d
       -0.005458806 0.0066407346 -0.029207695 0.039316133
000300 ee 08 e4 bb cb cf 35 bc ed 7d 94 bc 90 e6 21 3c
       -0.0069590723 -0.011096905 -0.018126452 0.009881631
000310 5a 81 17 bd 08 0e 48 bd 06 73 92 bc bd 35 b9 bc
       -0.036988594 -0.048841506 -0.017877113 -0.022608632
000320 76 d0 2c bc e9 cb 53 bc 47 f4 a0 39 46 c1 d0 3c
       -0.010547748 -0.012927034 0.0003069958 0.025482785
000330 67 0d 3b 3c af 67 ea bb 06 fd f2 bc ac a8 95 3c
       0.01141677 -0.0071534733 -0.029661667 0.018268906
000340 f0 56 3c 3c 7a c3 a0 3b fd d4 fe 3c 7a f6 f0 3a
       0.011495337 0.004906115 0.03110742 0.0018384003
000350 b1 cf 92 bb e9 f3 8d 3b 84 f9 29 3d 27 d3 1b bc
       -0.004480325 0.004332055 0.041497722 -0.009510792
000360 e6 11 9b 3c f1 c9 a1 bc 24 d3 4f bd 81 47 a9 3c
       0.018929433 -0.019749613 -0.05073847 0.020663979
000370 a1 c9 89 3b c7 0d 40 bb 10 47 4c 3c fc 01 ba 3b
       0.0042049442 -0.0029305087 0.0124681145 0.005676506
000380 d2 ca b3 bc f6 2a e2 3b 43 1b b7 bc ff e0 26 bd
       -0.021947298 0.006902094 -0.022351867 -0.040741917
000390 2c 89 e7 bc c8 0b 00 bb 2c e4 ea bc af 07 f2 3a
       -0.02826365 -0.0019538272 -0.028673254 0.0018465425
0003a0 d3 e6 b0 3c a6 60 7e bc ef 23 6f 3c 08 4e 42 3c
       0.02159444 -0.0155259725 0.01459597 0.011859424
0003b0 2a f0 d3 bc 01 13 8d bc 57 35 a9 3c b8 24 db 3b
       -0.025871355 -0.017220976 0.020655317 0.006687727
0003c0 5f 20 6f 3c e6 db 0c 3c 8e 30 16 3c dc 5c 93 bc
       0.01459512 0.00859735 0.00916685 -0.017988615
0003d0 7b a8 aa 3c b7 ef 11 bc e9 f6 c3 bb 26 2a 0f 3c
       0.02083229 -0.00890725 -0.0059803617 0.008738076
0003e0 bd ce e0 bc d2 73 9c 39 c6 2b ac 3c fd 34 40 3d
       -0.02744233 0.00029840932 0.021016967 0.046925534
0003f0 da 46 b5 bc ba 10 2a 3d ba b8 19 3c ba bb 43 bc
       -0.022128511 0.041519858 0.009382421 -0.011946613

action_model._continuous_distribution.mu.bias f4 [2]
000000 38 dc 3f b8 1c 98 1e 3b
       -4.5743043e-05 0.002419955
