CS455_PR1/results/ppo/ShootTargetAgent/ShootTargetAgent-476.onnx (onnx, 490268 bytes, 18 tensors)

discrete_act_size_vector f4 [1, 2]
0	0x42480000	50.0
1	0x42480000	50.0

network_body.observation_encoder.processors.0.conv_layers.0.weight f4 [16, 1, 8, 8]
0	0x3d8cd1bc	0.06875941
1	0xbd83e00d	-0.06439219
2	0x3db653aa	0.089026764
3	0x3ddc2168	0.10748559
4	0xbd656ace	-0.05601006
5	0x3de076f6	0.1096019
6	0x3d05d778	0.03267619
7	0xbddccd16	-0.107813045
8	0x3d090cd8	0.033459514
9	0x3d03fe04	0.03222467
10	0xbdf93af8	-0.121694505
11	0xbd655b8c	-0.05599551
12	0xbdf04b42	-0.11733104
13	0x3d6e5a30	0.05819148
14	0xbda1cf0c	-0.07900819
15	0x3d9934a8	0.074807465
16	0x3d11983c	0.035545573
17	0x3dc79eac	0.09747061
18	0xbd5c0c80	-0.05372286
19	0x3dbd8322	0.09253527
20	0x3dd91eca	0.10601576
21	0x3d610698	0.05493793
22	0x3d632a20	0.055460095
23	0x3deb2682	0.11481954
24	0xbcfdeff8	-0.030998215
25	0xbdadc73a	-0.08485265
26	0xbd3d7980	-0.04625845
27	0x3d097950	0.03356296
28	0x3ba0ece0	0.00491105
29	0x3d6e83e0	0.058231235
30	0x3d377ecc	0.044798657
31	0xbd9506f9	-0.072767206
32	0x3c7ad140	0.015308678
33	0x3df64ebc	0.12026736
34	0x3d6b47c0	0.057441473
35	0xbca5174c	-0.02015271
36	0x3cfd9208	0.030953422
37	0x3c835208	0.016030326
38	0xbd999112	-0.07498373
39	0xbde559b4	-0.1119875
40	0xbd18f568	-0.037343413
41	0x3de285ec	0.110607
42	0xbd922580	-0.07136059
43	0x3dd75364	0.105139524
44	0xbdd93588	-0.106059134
45	0xbca0b8d4	-0.019619383
46	0x3d010c48	0.031505853
47	0xbd96a22c	-0.073551506
48	0x3da73090	0.081635594
49	0xbddfcff6	-0.10928337
50	0x3c900838	0.017582044
51	0xbca53d58	-0.020170853
52	0x3db90a4c	0.09035167
53	0x3d82e3d4	0.06391111
54	0xbdcdb115	-0.10043541
55	0xbcf77df8	-0.030211434
56	0x3dea543a	0.11441846
57	0x3bf30360	0.007416174
58	0xbd9e19a7	-0.077197365
59	0xbde8c898	-0.11366385
60	0xbdcf0eb7	-0.101102285
61	0x3db9ad58	0.09066266
62	0x3d1463b4	0.036227897
63	0xbda260a6	-0.079285905
64	0x3dc642a0	0.096806765
65	0xbdc3a2e8	-0.09552556
66	0x3c08fdb0	0.008361265
67	0xbcde0ef0	-0.027106732
68	0x3be184e0	0.006882295
69	0x3d356040	0.044281244
70	0xbb62b540	-0.0034592897
71	0x3d60806c	0.054809973
72	0x3de6be44	0.11266759
73	0x3dd78c68	0.10524827
74	0xbdabe276	-0.08392803
75	0x3d766b48	0.060160905
76	0xbcccbeb0	-0.02499327
77	0xbd98d89a	-0.074631885
78	0xbd2865a4	-0.041112557
79	0xbc988368	-0.018617347
80	0x3c00e920	0.007868081
81	0x3d545a84	0.051844135
82	0x3da0af36	0.07845919
83	0x3da25e20	0.07928109
84	0xbd7293ca	-0.059222974
85	0xbc0dc930	-0.008653924
86	0x3deb2a66	0.11482696
87	0x3d87c1e0	0.066287756
88	0xbc4ea978	-0.012613647
89	0x3c7e2cb0	0.015513584
90	0xbdd66414	-0.10468307
91	0xbc64cd28	-0.013964929
92	0x3c275c50	0.01021488
93	0x3c2e8c60	0.010653585
94	0xbbb47ee0	-0.0055082887
95	0xbd305da4	-0.043058053
96	0x3d5383d0	0.051639378
97	0x3dc49170	0.095980525
98	0xbd578020	-0.052612424
99	0x3da9362c	0.082622856
100	0x3dd51466	0.10404281
101	0xbd8f5243	-0.06998112
102	0x3bfa3840	0.0076361
103	0xbbb08ea0	-0.005388096
104	0xbd88f51c	-0.06687376
105	0xbdf066c2	-0.117383495
106	0xbdf6cfc3	-0.12051346
107	0xbab69400	-0.0013929605
108	0xbdbb9dea	-0.09160979
109	0x3d9cf628	0.07664138
110	0xbda7e5a3	-0.081980966
111	0x3dd4d566	0.10392265
112	0x3d58a4bc	0.052891478
113	0xbd882e1b	-0.06649419
114	0x3d36aa20	0.044595838
115	0x3d74dc40	0.05978036
116	0x3de37648	0.11106545
117	0xbde6b3ec	-0.11264786
118	0xbd8a613f	-0.067568295
119	0xbdba8376	-0.091071054
120	0x3d098468	0.033573538
121	0x3d5bce08	0.053663284
122	0xbc9b1ec4	-0.018935569
123	0x3d068f70	0.032851636
124	0x3cc08e30	0.0235053
125	0xbd5f8ac4	-0.054575697
126	0x3ddf1340	0.108923435
127	0x3d134804	0.03595735
128	0xbc1a46f8	-0.009416334
129	0xbd84af32	-0.06478728
130	0xbdb8189e	-0.0898907
131	0xbc5e7308	-0.01357723
132	0x3d730c9c	0.059338197
133	0x3d98d560	0.07462573
134	0xbccc5420	-0.024942458
135	0x3d0919a4	0.03347172
136	0xbd719b1a	-0.058985807
137	0xbdf13a0f	-0.11778652
138	0x3ac31f80	0.0014886707
139	0xbd977884	-0.073960334
140	0x3d380fb4	0.04493685
141	0xbc18f4c0	-0.009335697
142	0xbb34cb00	-0.0027586818
143	0xbd70a9a4	-0.058755532
144	0xbdfb0b09	-0.12257964
145	0x3dcbab08	0.09944731
146	0x3d2e9c50	0.04262954
147	0xbd05f7d8	-0.032707065
148	0xbc7597d0	-0.014989808
149	0xbc1e40f8	-0.009659044
150	0x3dd5f556	0.10447185
151	0x3cfa25e8	0.030535653
152	0x3dba6aee	0.091024265
153	0x3cbe50c8	0.023231879
154	0x3dbb1b3e	0.091360554
155	0x3d699740	0.05702901
156	0x3ca606d0	0.02026692
157	0x3ded9684	0.11600974
158	0xbd00bc8e	-0.03142982
159	0xbc5ec100	-0.0135958195
160	0x3ce8c568	0.028414443
161	0xbd64f154	-0.05589421
162	0x389fa000	7.611513e-05
163	0xbdc9bd9f	-0.098506205
164	0x3ded0244	0.11572698
165	0x3d83d8f0	0.06437862
166	0xbdac5a62	-0.08415677
167	0xbda81502	-0.08207132
168	0xbdd50dfe	-0.104030594
169	0x3ceed328	0.029153422
170	0x3c9ecd48	0.019384995
171	0xbdfe93c2	-0.12430526
172	0x3d5b2878	0.05350539
173	0xbc199888	-0.009374745
174	0xbdb62356	-0.088934585
175	0xbde91f90	-0.11382973
176	0x3de83e52	0.11340012
177	0x3d31027c	0.04321526
178	0xbd90155d	-0.07035325
179	0x3d62a52c	0.0553333
180	0x3cc34258	0.023835346
181	0xbdb050b6	-0.086091444
182	0xbd2a0416	-0.041507803
183	0x3d06415c	0.032777175
184	0xbc6ad0e0	-0.014332026
185	0x3d2da494	0.042393282
186	0x3cacbfc0	0.021087527
187	0xbd13f8ee	-0.03612607
188	0xbdf9382f	-0.12168919
189	0xbcfee524	-0.031115122
190	0xbdc3967e	-0.095501885
191	0x3dffa11a	0.124818996
192	0x3d2e1bd0	0.042506993
193	0x3cd53e28	0.026030615
194	0xbd95efc6	-0.07321124
195	0xbd91fe8e	-0.071286306
196	0x3d62f05c	0.055405006
197	0x3db98a0a	0.09059532
198	0x3c698b60	0.014254421
199	0x3d58b564	0.052907363
200	0xbd1ec09c	-0.038757905
201	0xbd45cf24	-0.048293248
202	0x3de22d84	0.11043838
203	0xbdb80479	-0.08985228
204	0xbdaecbd2	-0.085349694
205	0xbdba610f	-0.09100544
206	0xbde9ebfd	-0.11421964
207	0x3d3b1fb4	0.04568453
208	0xbdd97756	-0.10618465
209	0x3aa32b00	0.0012448728
210	0x3dad30e2	0.08456589
211	0x3dfa354e	0.12217198
212	0x3da50bda	0.08058901
213	0xbd10f5c8	-0.035390645
214	0x3b949740	0.004534632
215	0xbde68a56	-0.11256854
216	0xbb80f530	-0.0039354786
217	0x3d8a7846	0.067612216
218	0xbcb55468	-0.022134975
219	0xbd0a05d4	-0.033696964
220	0xbda6a6bb	-0.0813727
221	0x3b3288c0	0.0027242154
222	0x3da8aeba	0.082364514
223	0x3dba681c	0.091018885
224	0x3d229464	0.039692298
225	0x3c86d280	0.016457796
226	0xbdf75ac5	-0.1207786
227	0x3df51c04	0.11968234
228	0x3df283bc	0.118415326
229	0x3d9b0c1c	0.07570669
230	0xbdf277c8	-0.11839253
231	0xbdf2b63b	-0.11851164
232	0xbd53dd4e	-0.051724724
233	0x3d8f9308	0.07010466
234	0x3dff79e2	0.12474419
235	0xbca18850	-0.01971832
236	0x3cd10830	0.0255166
237	0x3cf9a9f8	0.030476555
238	0xbd8db918	-0.069200695
239	0xbdc01f1e	-0.09380935
240	0x3ddaa4b0	0.10675943
241	0xbcf7f78c	-0.030269407
242	0x3d915e52	0.07098068
243	0xbd81bc6e	-0.06334768
244	0xbd11f6a6	-0.035635613
245	0x3d80719a	0.06271668
246	0x3c1a61c0	0.0094227195
247	0xbd9d1f44	-0.07671979
248	0xbdd9a018	-0.106262386
249	0xbda81970	-0.08207977
250	0x3c57a9d0	0.013163045
251	0x3d5fcb4c	0.05463724
252	0xbd7f44ee	-0.062321596
253	0x3adb5f00	0.0016736686
254	0xbce0796c	-0.027401648
255	0xbdb8a67e	-0.09016131

network_body.observation_encoder.processors.0.conv_layers.0.bias f4 [16]
0	0xbc919900	-0.017773151
1	0x3d005d24	0.031338826
2	0xbdb89ac1	-0.09013892
3	0x3d8e1fee	0.06939684
4	0x3d03992c	0.032128498
5	0xbc035f68	-0.008018352
6	0xbd851994	-0.06499019
7	0xbdae187b	-0.08500763
8	0x3d8f571e	0.06999038
9	0x3baa9aa0	0.005206421
10	0x3d53912c	0.05165212
11	0x3df7068e	0.12061797
12	0x3d80903c	0.062775105
13	0xbd2f3942	-0.042779215
14	0x3cd38348	0.025819436
15	0xbd932884	-0.07185462

network_body.observation_encoder.processors.0.conv_layers.2.weight f4 [32, 16, 4, 4]
0	0xbc00cca0	-0.007861286
1	0xbc3ae2c8	-0.011406608
2	0x3d2e8436	0.042606555
3	0x3c971378	0.0184419
4	0x3d28bbca	0.041194715
5	0x3c74ab40	0.014933407
6	0x3ca50fd0	0.020149142
7	0xbc94637e	-0.018113848
8	0x3d2ae084	0.04171802
9	0x3d367890	0.04454857
10	0x3cba7a54	0.022763409
11	0xbce9cf84	-0.028541334
12	0x3cd0ee40	0.025504231
13	0xbd54b912	-0.05193431
14	0xbc534354	-0.01289447
15	0xbb51a940	-0.003199175
16	0xbd56deff	-0.05245876
17	0xbd023a82	-0.03179408
18	0x3ce5cec8	0.028052703
19	0x3ce80908	0.028324619
20	0xbc5c1e58	-0.013434969
21	0xbceb8e8c	-0.028754495
22	0xbd06f014	-0.0329438
23	0xbd44b2d5	-0.04802211
24	0xbd652ce1	-0.055951003
25	0xbcd5eba4	-0.026113339
26	0x3d6b20de	0.05740439
27	0x3d5623c6	0.05228021
28	0xbcf213d0	-0.029550463
29	0xbd5020d0	-0.050812542
30	0xbd6fd954	-0.05855687
31	0x3ca328c8	0.019916907
32	0xbd43cec8	-0.047804624
33	0x3c99b848	0.01876463
34	0xbd1035f8	-0.03520772
35	0xbc1cde80	-0.0095745325
36	0xbc84d3c6	-0.016214263
37	0x3d687cd8	0.056759685
38	0x3b841b20	0.004031554
39	0xbbeb8478	-0.0071874224
40	0x3d521ed0	0.051298916
41	0xbd4da5fc	-0.050207123
42	0xbd1a1107	-0.037613895
43	0xbd6ebe68	-0.058287054
44	0xbd0e563f	-0.03475022
45	0x3d799de4	0.06094159
46	0x3d2138ac	0.039360687
47	0xbd354738	-0.044257373
48	0xbd4a682d	-0.049415756
49	0x3d49309a	0.049118616
50	0xbb1c1aa0	-0.002381958
51	0xbc7efc20	-0.015563041
52	0x3cc46508	0.023973957
53	0x3cfe0b64	0.03101129
54	0xbcbe3c44	-0.023222096
55	0xbc0a5220	-0.008442432
56	0xbd09de1b	-0.033659082
57	0xbd10893b	-0.035287123
58	0xbd7033e4	-0.058643237
59	0x3c5653b0	0.013081476
60	0x3d440da4	0.04786457
61	0xbbd2dd60	-0.0064350814
62	0x3d0cf784	0.034415737
63	0x3cd5221c	0.026017241
64	0xbd07928a	-0.033098735
65	0xbcc1eb90	-0.023671895
66	0x3cc0085c	0.023441486
67	0x3bcc08a0	0.006226614
68	0x3d7360cc	0.059418485
69	0xbc841ffc	-0.016128533
70	0x3ca8ec30	0.020620435
71	0x3d04255c	0.03226219
72	0xbcb978c8	-0.0226406
73	0x3b8b7fd0	0.00425718
74	0x3d0bf202	0.034166344
75	0xbd29e812	-0.041481085
76	0xbd1ddbbe	-0.03853964
77	0xbcae4ef0	-0.021277875
78	0xbc406440	-0.011742651
79	0x3d6f0d7e	0.058362477
80	0xbbda4048	-0.006660495
81	0x3ca53ccc	0.020170592
82	0xbd39e23a	-0.045381762
83	0xbc96fd96	-0.018431466
84	0xbd1275d2	-0.035756893
85	0xbd3de6fa	-0.046362855
86	0x3939e600	0.00017728657
87	0x3d239dda	0.03994546
88	0xbc8af3aa	-0.016961891
89	0x3d4c0bea	0.04981605
90	0x3b3a0900	0.0028386712
91	0xbd76ea6d	-0.06028216
92	0xbc9bcc6c	-0.019018374
93	0xbcc58ae6	-0.024114083
94	0x3afd9440	0.001934655
95	0x3d1d0744	0.038337007
96	0x3d629012	0.055313177
97	0xbc673df4	-0.014113892
98	0x3d2415cc	0.04005985
99	0x3cb2dcf8	0.021833882
100	0xbd069fe0	-0.032867312
101	0xbac1df60	-0.0014791302
102	0x3cb9e3f8	0.022691712
103	0xbd47230b	-0.048617404
104	0xbd45c78c	-0.048286006
105	0x3cc80ba4	0.024419613
106	0x3ce700fc	0.028198712
107	0xbc848d66	-0.016180705
108	0xbc9df28e	-0.019280698
109	0xbd29cae8	-0.041453272
110	0xbd0580c8	-0.03259352
111	0x3b9d5c60	0.0048022717
112	0xbb452330	-0.0030080788
113	0xbb934a80	-0.004494965
114	0xbcf122f6	-0.029435616
115	0xbd505a93	-0.05086763
116	0xbcb148ce	-0.021641161
117	0x3c4785f0	0.012177929
118	0x3d4b9e5a	0.049711563
119	0xbd476808	-0.048683196
120	0xbcaafdd6	-0.020872992
121	0x3ce03820	0.027370512
122	0x3c0ccf58	0.0085943565
123	0x3ca4d924	0.020123072
124	0xbd2eb142	-0.042649515
125	0xbd1e8298	-0.038698763
126	0x3cee5e5c	0.029097728
127	0xbd42d4cd	-0.047566224
128	0xbc629dfc	-0.013831612
129	0x3a280600	0.00064095855
130	0x3d201d78	0.039090604
131	0xb7e39800	-2.713129e-05
132	0x3d0fa6d4	0.03507121
133	0xbb056d80	-0.0020359457
134	0x3c0b6380	0.008507609
135	0xbd55d622	-0.052206166
136	0xbc290124	-0.010315213
137	0xbd689e47	-0.05679157
138	0x3cf6ee80	0.030143023
139	0xbce50916	-0.027958434
140	0x3cd2f28c	0.025750421
141	0x3d7d84c2	0.061894186
142	0x3c2347a8	0.009965815
143	0x3bf358f0	0.0074263737
144	0x3cda4864	0.026645847
145	0x3ce4f9c4	0.027951129
146	0xbd6b726d	-0.05748217
147	0x3c4f82b0	0.012665436
148	0xbd07346f	-0.03300899
149	0x3d760392	0.060062
150	0x3d39d6d8	0.045370907
151	0xbcc2aeba	-0.023764957
152	0x3d085462	0.0332836
153	0x3c6fd2c8	0.0146376565
154	0x3ccb697c	0.024830572
155	0xbbcae928	-0.006192345
156	0x3d16042e	0.03662508
157	0xbcc9e24a	-0.024644036
158	0x3d6d8ddc	0.057996616
159	0x3c809bc4	0.015699275
160	0xbd71fbb1	-0.059077922
161	0x3d37eb30	0.044902027
162	0xbd50ddd0	-0.050992787
163	0x3c5a17a0	0.013311297
164	0xbcfebf30	-0.031097025
165	0xbc79efb8	-0.015254907
166	0xbd6101dc	-0.054933414
167	0xbc43d6d8	-0.011953078
168	0x3d589598	0.05287704
169	0xbce8e362	-0.028428737
170	0xbd79f40a	-0.06102375
171	0x3d6a35ce	0.05718022
172	0xbd1e785e	-0.03868901
173	0xbd172c27	-0.03690734
174	0xbd61a4d6	-0.05508884
175	0xbc2fc160	-0.010727257
176	0xbd5bf7a5	-0.05370297
177	0x3d64dbd0	0.055873692
178	0x3d7ebdae	0.06219261
179	0xbc874a0a	-0.016514797
180	0xbca4e3a8	-0.020128086
181	0xbd50088e	-0.05078941
182	0xbc8adb5c	-0.016950302
183	0xbb95f890	-0.00457675
184	0xbbfb8378	-0.0076755844
185	0xbd048ee8	-0.03236285
186	0x3d41e17a	0.04733417
187	0xbd18df98	-0.03732261
188	0xbbb9fc68	-0.005675841
189	0x3d7ea088	0.062164813
190	0xbd6fbb2c	-0.05852811
191	0x3d50b55e	0.050954215
192	0xbc5970f8	-0.013271563
193	0x3c986854	0.018604435
194	0xbc9dc250	-0.019257694
195	0x3d4a70b2	0.04942388
196	0xbd6f8ae2	-0.05848206
197	0xbc81b93c	-0.015835397
198	0x3b530d60	0.0032204017
199	0x3cc76f44	0.024345048
200	0xbae84840	-0.0017721727
201	0x3d38c3fc	0.04510878
202	0x3bdf42b0	0.0068133697
203	0x3d7a8b86	0.061168216
204	0x3b30dae0	0.0026985928
205	0xbba7b1e0	-0.00511764
206	0xbd3d600b	-0.04623417
207	0xbcea0906	-0.028568756
208	0xbd0a9868	-0.033836752
209	0xbd6fc630	-0.058538616
210	0x3d348732	0.044074245
211	0x3c529dc8	0.012855001
212	0xbc93c914	-0.018040217
213	0x3d6935c0	0.056936026
214	0xbd7a4776	-0.061103307
215	0xbc262b48	-0.010142155
216	0xbd75f159	-0.06004462
217	0x3c2ca378	0.010537021
218	0x3c330608	0.010926731
219	0xbd0a7b68	-0.033809096
220	0xbcb3ba00	-0.021939278
221	0x39787200	0.00023693591
222	0x3a77dd80	0.00094553083
223	0x3d5a99c6	0.053369306
224	0xbd1b8d3e	-0.037976496
225	0xbc6a1f54	-0.014289696
226	0xbd17e675	-0.037085015
227	0xbd4ecf61	-0.05049074
228	0xbc168f00	-0.009189367
229	0x3d7f3694	0.06230791
230	0x3c62dab8	0.013846092
231	0xbd25f22c	-0.040514156
232	0xbcb213a0	-0.021737874
233	0xbd1ff274	-0.03904958
234	0xbcf5b498	-0.02999334
235	0x3d2dc5a6	0.04242482
236	0x3d7657e4	0.060142413
237	0x3c8b02f8	0.016969189
238	0x3d3b4f6e	0.045730047
239	0x3d034e86	0.032057308
240	0x3b25c8c0	0.0025296658
241	0xbcc6cadc	-0.024266653
242	0x3ce54f78	0.027991995
243	0xbd73fa45	-0.059564847
244	0xbd2b8fb0	-0.041885078
245	0xbd774399	-0.0603672
246	0x3b43e240	0.0029889494
247	0xba997ce0	-0.0011710189
248	0x3c8869f0	0.016652077
249	0xbd3eba60	-0.04656446
250	0x3c8757f4	0.016521432
251	0xbc762b58	-0.015024982
252	0x3d0b1abe	0.03396105
253	0xbc6f7134	-0.014614392
254	0xbd250ecf	-0.040297326
255	0xbca751c4	-0.020424731

network_body.observation_encoder.processors.0.conv_layers.2.bias f4 [32]
0	0xbcf27d0e	-0.029600646
1	0x3d001628	0.03127113
2	0x3d19cbc2	0.037547834
3	0x3c06d4f8	0.008229487
4	0x3bef0000	0.007293701
5	0x3d5eb2ee	0.05436986
6	0xbd319a72	-0.04336018
7	0x3b87d0e0	0.004144773
8	0x3d3c371c	0.045950994
9	0x3cf7d3bc	0.03025233
10	0x3d7ef22a	0.062242664
11	0xbb9dbdb8	-0.004813876
12	0x3c14e248	0.009087153
13	0xbd6434f8	-0.055714577
14	0x3d02f856	0.031975113
15	0xbca463ba	-0.020067085
16	0xbbf46688	-0.0074585117
17	0x3b8c9dd0	0.0042912737
18	0x3c6883f0	0.014191613
19	0x3d228824	0.039680615
20	0x3b8ad270	0.004236512
21	0x3d461e0a	0.04836849
22	0xbd641624	-0.055685177
23	0x3d338b86	0.04383423
24	0x3c9587d0	0.018253237
25	0xbd2a59d1	-0.04158956
26	0x3ce42ab0	0.027852386
27	0xbd429286	-0.047503017
28	0x3cc9c190	0.02462843
29	0xbce497c4	-0.027904399
30	0x3d153bc4	0.03643395
31	0xbd1e66e1	-0.03867233

network_body.observation_encoder.processors.0.dense.0.weight f4 [128, 512]
0	0xbd98f63e	-0.07468842
1	0xbdbf1ce6	-0.09331684
2	0xbc3d2087	-0.0115434
3	0x3d4ddead	0.05026119
4	0x3af9516c	0.0019021458
5	0x3c56faae	0.01312129
6	0xbd2874b0	-0.041126907
7	0xbdcbc976	-0.09950535
8	0xbdef40d4	-0.11682287
9	0xbd1c35fc	-0.03813742
10	0xbce1e5b0	-0.027575344
11	0xbb79adaf	-0.0038097908
12	0x3b2797a5	0.0025572565
13	0xbd867eed	-0.06567178
14	0xbd2ea20a	-0.042635
15	0xbd74a8ca	-0.059731282
16	0x3de0503f	0.10952806
17	0x3cf940f4	0.03042648
18	0x3d54cd3d	0.051953543
19	0x3ce773eb	0.028253516
20	0xbd39082c	-0.04517381
21	0xbd4bffa1	-0.049804334
22	0x3e08e87d	0.13369937
23	0xbba271ea	-0.0049574273
24	0x3bdafb08	0.0066827573
25	0xbc4e3659	-0.0125862
26	0x3d0364fa	0.03207872
27	0x3adf7b09	0.0017050217
28	0xbdb42cbd	-0.08797596
29	0xbd88346c	-0.06650624
30	0xbd055018	-0.032547086
31	0xbc1b1b78	-0.009466998
32	0xbd2b9a20	-0.041895032
33	0xbd7e3fa3	-0.062072407
34	0xbd6d3de9	-0.05792037
35	0xbdae0607	-0.084972434
36	0x3dada59c	0.08478853
37	0x3d53d75a	0.051719047
38	0x3dc5165d	0.09623406
39	0x3d901ad3	0.07036366
40	0x3bf97b4c	0.007613575
41	0x3d9fc473	0.078011416
42	0xbce99627	-0.028513981
43	0x3dfbb735	0.12290803
44	0xbd6892c9	-0.05678061
45	0xbdef03c6	-0.116706416
46	0xbd9a040b	-0.075203024
47	0xbd409042	-0.047012575
48	0xbc95a32d	-0.018266285
49	0x3cc814dc	0.024424009
50	0xbd0b7646	-0.03404834
51	0xbd00e0fc	-0.03146456
52	0xbc1b041c	-0.009461429
53	0x3c722e40	0.014781535
54	0x3a4df3f2	0.000785648
55	0xbd9a63d1	-0.0753857
56	0x3d4944d2	0.049137898
57	0x3db4911f	0.08816742
58	0xbdb74bc3	-0.08949997
59	0x3c47b7e0	0.012189835
60	0xbe08b929	-0.13351883
61	0xbd59452f	-0.053044494
62	0xbd1c09e9	-0.03809539
63	0xbceea0ca	-0.029129405
64	0x3d9d42c0	0.07678747
65	0x3dfd76cb	0.123761736
66	0xbd8acbed	-0.06777177
67	0x3d5290b6	0.05140754
68	0x3d060908	0.032723457
69	0xbd4221a0	-0.04739535
70	0xbccb609d	-0.024826342
71	0xbce73c18	-0.028226897
72	0xbcd0b244	-0.025475629
73	0x3e4ff2fd	0.20307536
74	0x3d0e026a	0.03467027
75	0xbd1e8594	-0.03870161
76	0xbc3a7598	-0.011380576
77	0x3df20566	0.11817436
78	0x3cf4f3fb	0.029901495
79	0x3dacf0f0	0.08444393
80	0xbcbe3c63	-0.023222154
81	0xbdda7677	-0.106671266
82	0x3dae104f	0.08499204
83	0xbd917e76	-0.07104199
84	0x3d5b4c89	0.053539786
85	0xbd9e6b84	-0.07735351
86	0x3d8b71b7	0.06808799
87	0x3df01774	0.11723223
88	0x3b88cfad	0.0041751475
89	0x3d7e8939	0.062142584
90	0xbd8121a3	-0.06305244
91	0xbd8f9056	-0.07009952
92	0xbc22b147	-0.0099299615
93	0xbd8b03fa	-0.06787868
94	0x3c752ae5	0.01496384
95	0x3d2a86fd	0.04163264
96	0x3ca4bba2	0.020109002
97	0x3b987340	0.0046524107
98	0x3dbb1d6b	0.091364704
99	0x3c56f00b	0.013118754
100	0xbd8595fb	-0.06522747
101	0xbd1b4ab6	-0.037913047
102	0x3dbb7b87	0.0915442
103	0xbcb30e44	-0.021857388
104	0x3c7ba3f4	0.015358914
105	0xbc356e75	-0.011073698
106	0x3d823ee7	0.06359654
107	0x3e249c74	0.16075307
108	0xbd323841	-0.04351068
109	0xbdf90ee3	-0.121610425
110	0x3da1fe2c	0.079098076
111	0xbda65de3	-0.08123376
112	0x3d8c5d00	0.06853676
113	0x3cb23c98	0.021757409
114	0x3dcbbc0b	0.09947976
115	0xbd3ac956	-0.045602165
116	0x3c79a0dc	0.015236106
117	0x3d310312	0.04321582
118	0xbdc0f261	-0.0942123
119	0xbb12aa06	-0.0022379174
120	0xbd48d553	-0.049031567
121	0xbd5ff82f	-0.054680046
122	0xbcdc6041	-0.026901366
123	0xbba6a477	-0.0050855237
124	0x3c08b399	0.008343601
125	0xbd8717a2	-0.065963045
126	0x3d287761	0.041129474
127	0x3a88da62	0.001044106
128	0x3db51c48	0.08843285
129	0xbd50b46c	-0.050953314
130	0x3df75def	0.12078463
131	0xbdcb8fc2	-0.09939529
132	0xbd172056	-0.036896072
133	0x3d881472	0.06644525
134	0xbd03ec9c	-0.03220807
135	0xbd8765fe	-0.0661125
136	0xbda6e34f	-0.081488244
137	0x3cffee5f	0.031241594
138	0x3d0a50ec	0.03376858
139	0x3e3c0507	0.18361293
140	0x3d9ec998	0.07753295
141	0xbd737941	-0.05944181
142	0xbd662acc	-0.056193158
143	0x3cdf6b24	0.027272768
144	0x3d4f667c	0.050634846
145	0x3dd0345a	0.10166235
146	0x3c22e98a	0.009943375
147	0x3d2bcf37	0.041945662
148	0x3ca932a2	0.020654026
149	0x3b02159a	0.0019849301
150	0x3d75eab5	0.060038287
151	0x3d50c7b8	0.050971717
152	0x3d94d41a	0.07267018
153	0x3d35cd92	0.0443855
154	0x3e31cb9b	0.17362826
155	0x3da5074d	0.08058033
156	0x3db1d535	0.08683244
157	0xbc6be913	-0.014398831
158	0x3dabab08	0.08382231
159	0xbd74c953	-0.05976231
160	0xbb5c80f7	-0.0033646205
161	0xbd3f115d	-0.04664742
162	0x3d634ccc	0.05549316
163	0xbc27c40b	-0.010239611
164	0x3dbf01c8	0.093265116
165	0xbc1df72b	-0.009641449
166	0x3b7ce35c	0.0038587665
167	0x3cadedd9	0.021231579
168	0x3cdc3d46	0.026884686
169	0x3c97083e	0.018436547
170	0x3d7b9b92	0.06142766
171	0xbd2267ab	-0.039649647
172	0xbc2cac2e	-0.010539098
173	0xbdacc8c2	-0.08436729
174	0xbd5a6786	-0.053321384
175	0xbdbd2551	-0.09235633
176	0xbd8f8b48	-0.07008988
177	0x3ceed74b	0.029155394
178	0x3cca2f7c	0.024680845
179	0x3d6aa62c	0.05728738
180	0x3daf8d39	0.08571858
181	0x3d97e4ca	0.07416685
182	0xbd65d5bd	-0.05611204
183	0xbc9bb706	-0.01900817
184	0xbd9eb88a	-0.07750042
185	0xbc23221a	-0.009956861
186	0x3dbdd8f5	0.09269897
187	0xbc2fc1b8	-0.0107273385
188	0x3d3c2004	0.04592897
189	0xbce7ce66	-0.02829666
190	0x3cedfc33	0.029050922
191	0xbe08675d	-0.1332068
192	0xbcd2be88	-0.025725618
193	0x3d9cde42	0.0765958
194	0x3cf126e5	0.029437492
195	0xbd63927a	-0.055559613
196	0xbcc8d750	-0.024516732
197	0x3c666d97	0.014064214
198	0xbbb5f71f	-0.005553141
199	0xbcc59ae6	-0.024121713
200	0xbcb80e57	-0.022467775
201	0x3c299ad6	0.010351857
202	0x3db306a4	0.08741501
203	0xbdcbca0a	-0.09950645
204	0xbd7c261a	-0.061559774
205	0xbdad053b	-0.08448263
206	0xbc74b6c4	-0.014936153
207	0xbccbc030	-0.024871916
208	0xbd420784	-0.04737045
209	0x3e27ac8a	0.16374412
210	0xbdc0f86e	-0.09422384
211	0x3ccab6bf	0.024745343
212	0x3c16221a	0.009163404
213	0x3d3ea708	0.046546012
214	0xbd4f880e	-0.05066686
215	0xba3facda	-0.00073118287
216	0xbd2b7b4f	-0.041865643
217	0xbc9a842d	-0.018861854
218	0x3d4f2fe3	0.050582778
219	0x3e0a01cc	0.13477248
220	0x3bf9883c	0.0076151174
221	0x3db9c1b1	0.09070147
222	0xbd46ea1c	-0.048563108
223	0x3d639269	0.05555955
224	0xbca7a3f2	-0.020463917
225	0xbdab9f95	-0.08380047
226	0xbddc3a5c	-0.10753319
227	0x3dc4f6a1	0.09617353
228	0x3b554abd	0.0032545768
229	0x3d62b368	0.055346876
230	0x3cfb4a34	0.030675031
231	0xbcbc6776	-0.022998553
232	0xbd9c2713	-0.0762464
233	0x3d00d82f	0.03145617
234	0x3ce49ad9	0.027905868
235	0x3dcf3af8	0.10118669
236	0xbb895a6b	-0.004191687
237	0x3d66482c	0.056221172
238	0x3dd6ceda	0.104886726
239	0x3d9afc8a	0.07567699
240	0xbc5c1aa6	-0.013434088
241	0xbd0945b8	-0.033513755
242	0x3d83826a	0.06421359
243	0x3bc6c6d4	0.0060661826
244	0x3d7aed5d	0.061261524
245	0x3d49c145	0.04925658
246	0x3aa98fd7	0.0012936544
247	0x3bb40774	0.0054940525
248	0x3cfb2a6f	0.030659882
249	0xbd1ae39d	-0.037814725
250	0xbd85a280	-0.06525135
251	0x3d008a1a	0.031381704
252	0xbd4c7d50	-0.049924195
253	0x3d8a6052	0.06756653
254	0x3d1c5f27	0.03817668
255	0x3ccaae7c	0.024741404

network_body.observation_encoder.processors.0.dense.0.bias f4 [128]
0	0x00000000	0.0
1	0x00000000	0.0
2	0x00000000	0.0
3	0x00000000	0.0
4	0x00000000	0.0
5	0x00000000	0.0
6	0x00000000	0.0
7	0x00000000	0.0
8	0x00000000	0.0
9	0x00000000	0.0
10	0x00000000	0.0
11	0x00000000	0.0
12	0x00000000	0.0
13	0x00000000	0.0
14	0x00000000	0.0
15	0x00000000	0.0
16	0x00000000	0.0
17	0x00000000	0.0
18	0x00000000	0.0
19	0x00000000	0.0
20	0x00000000	0.0
21	0x00000000	0.0
22	0x00000000	0.0
23	0x00000000	0.0
24	0x00000000	0.0
25	0x00000000	0.0
26	0x00000000	0.0
27	0x00000000	0.0
28	0x00000000	0.0
29	0x00000000	0.0
30	0x00000000	0.0
31	0x00000000	0.0
32	0x00000000	0.0
33	0x00000000	0.0
34	0x00000000	0.0
35	0x00000000	0.0
36	0x00000000	0.0
37	0x00000000	0.0
38	0x00000000	0.0
39	0x00000000	0.0
40	0x00000000	0.0
41	0x00000000	0.0
42	0x00000000	0.0
43	0x00000000	0.0
44	0x00000000	0.0
45	0x00000000	0.0
46	0x00000000	0.0
47	0x00000000	0.0
48	0x00000000	0.0
49	0x00000000	0.0
50	0x00000000	0.0
51	0x00000000	0.0
52	0x00000000	0.0
53	0x00000000	0.0
54	0x00000000	0.0
55	0x00000000	0.0
56	0x00000000	0.0
57	0x00000000	0.0
58	0x00000000	0.0
59	0x00000000	0.0
60	0x00000000	0.0
61	0x00000000	0.0
62	0x00000000	0.0
63	0x00000000	0.0
64	0x00000000	0.0
65	0x00000000	0.0
66	0x00000000	0.0
67	0x00000000	0.0
68	0x00000000	0.0
69	0x00000000	0.0
70	0x00000000	0.0
71	0x00000000	0.0
72	0x00000000	0.0
73	0x00000000	0.0
74	0x00000000	0.0
75	0x00000000	0.0
76	0x00000000	0.0
77	0x00000000	0.0
78	0x00000000	0.0
79	0x00000000	0.0
80	0x00000000	0.0
81	0x00000000	0.0
82	0x00000000	0.0
83	0x00000000	0.0
84	0x00000000	0.0
85	0x00000000	0.0
86	0x00000000	0.0
87	0x00000000	0.0
88	0x00000000	0.0
89	0x00000000	0.0
90	0x00000000	0.0
91	0x00000000	0.0
92	0x00000000	0.0
93	0x00000000	0.0
94	0x00000000	0.0
95	0x00000000	0.0
96	0x00000000	0.0
97	0x00000000	0.0
98	0x00000000	0.0
99	0x00000000	0.0
100	0x00000000	0.0
101	0x00000000	0.0
102	0x00000000	0.0
103	0x00000000	0.0
104	0x00000000	0.0
105	0x00000000	0.0
106	0x00000000	0.0
107	0x00000000	0.0
108	0x00000000	0.0
109	0x00000000	0.0
110	0x00000000	0.0
111	0x00000000	0.0
112	0x00000000	0.0
113	0x00000000	0.0
114	0x00000000	0.0
115	0x00000000	0.0
116	0x00000000	0.0
117	0x00000000	0.0
118	0x00000000	0.0
119	0x00000000	0.0
120	0x00000000	0.0
121	0x00000000	0.0
122	0x00000000	0.0
123	0x00000000	0.0
124	0x00000000	0.0
125	0x00000000	0.0
126	0x00000000	0.0
127	0x00000000	0.0

network_body._body_endoder.seq_layers.0.weight f4 [128, 128]
0	0xbad44d1f	-0.00161973
1	0xbdbc64f2	-0.09198941
2	0x3d860202	0.06543352
3	0xbd8a273b	-0.06745764
4	0x3baa42ab	0.0051959357
5	0x3d8577bd	0.06516979
6	0x3d6dfc8f	0.058102187
7	0x3d1cfa19	0.03832445
8	0xbc5ba06f	-0.01340495
9	0xbcc3e77b	-0.02391409
10	0x3d691e6e	0.056913786
11	0x3c673439	0.014111572
12	0xbc94c0d4	-0.018158354
13	0xbdbb69e5	-0.09151057
14	0x3c8fe770	0.017566413
15	0x3d8b0e26	0.06789808
16	0x3ddbafd0	0.10726893
17	0x3d9cda39	0.0765881
18	0xbc8bef6a	-0.017081935
19	0x3d2afaaf	0.041742977
20	0xbbfc8cf1	-0.007707231
21	0x3c756ce6	0.014979577
22	0xbc862de6	-0.016379308
23	0xbc928cbc	-0.017889373
24	0x3dcfc2a6	0.10144548
25	0xbe0d4b63	-0.13798289
26	0x3d93e89a	0.072220996
27	0x3e32ce1d	0.17461438
28	0x3e2ab62a	0.16671053
29	0xbe5a5c7c	-0.21324342
30	0x3d588c14	0.052867964
31	0xbd01edfe	-0.031721108
32	0x3ca4f4b2	0.020136211
33	0x3b60319c	0.0034209257
34	0xbd89eef4	-0.0673503
35	0x3d56ec01	0.052471165
36	0xbdc35c1b	-0.09539052
37	0x3c8fea3e	0.01756775
38	0xbde8eb05	-0.113729514
39	0xbd0f689e	-0.03501188
40	0x3bf2abdc	0.007405741
41	0xbd169c78	-0.036770314
42	0x3ccf8c4d	0.025335455
43	0xbc2241a4	-0.009903345
44	0xbb915803	-0.0044355406
45	0xbe062673	-0.13100605
46	0x3e170891	0.14749362
47	0x3d57c7ed	0.0526809
48	0x3cc760e9	0.024338203
49	0x3e1d1bfd	0.15342708
50	0xbe324f6f	-0.17413114
51	0x3e1f6993	0.15567617
52	0xbe028116	-0.12744555
53	0xbd0aeff3	-0.03392024
54	0xbdeba9be	-0.11506985
55	0x3d0ff996	0.035150133
56	0xbd475c22	-0.04867185
57	0x3c35a62b	0.011086981
58	0x3c148795	0.009065528
59	0x3dcfca30	0.10145986
60	0xbdd73340	-0.10507822
61	0x3e0fb480	0.14033699
62	0x3b8e8ade	0.0043500504
63	0x3b9497da	0.0045347037
64	0xbd87e7e8	-0.066360295
65	0xbd8473f1	-0.064674266
66	0x3d8539d3	0.0650517
67	0xbd090b44	-0.03345801
68	0xbddaf4f9	-0.10691256
69	0x3c5c000b	0.013427745
70	0x3d3ebcfd	0.046566952
71	0xbd61aae5	-0.05509462
72	0xbd151848	-0.03640011
73	0xbd9ec953	-0.07753243
74	0x3d633dd8	0.0554789
75	0xbd2af743	-0.041739713
76	0xbcddcd85	-0.027075538
77	0xbe0ae9f2	-0.13565806
78	0x3db6ae98	0.0892002
79	0xbe23a883	-0.15982251
80	0x3cec26e5	0.02882714
81	0x3e6c5081	0.23077585
82	0xbe1ef71f	-0.15523957
83	0x3cb48cf2	0.022039864
84	0x3d9d5144	0.07681516
85	0x3d8b01c9	0.0678745
86	0x3d5d7c5f	0.054073688
87	0xbb85bd31	-0.0040813913
88	0xbdc13927	-0.09434729
89	0x3dd7f4cb	0.105447374
90	0xbda23cba	-0.07921739
91	0x3bc6fad8	0.0060723834
92	0x3c59a76f	0.013284548
93	0xbd6af508	-0.057362586
94	0x3ddac988	0.1068297
95	0xbc37ce29	-0.011218586
96	0x3ddb1f43	0.10699322
97	0xbba41b1c	-0.0050081145
98	0xbd824afc	-0.063619584
99	0x3d6fff20	0.058592916
100	0x3e0eaea2	0.13933805
101	0x3d751dfc	0.05984305
102	0xbdc4d3fe	-0.09610747
103	0x3e3d60d2	0.18493965
104	0x3de194f6	0.1101474
105	0xbdff7511	-0.124735005
106	0xbb08e685	-0.0020889353
107	0x3c2dd3f7	0.010609618
108	0x3dadf3e9	0.08493788
109	0xbdfa6c16	-0.12227647
110	0x3d897734	0.06712189
111	0xbb40ac9d	-0.002939976
112	0x3e0d0b5c	0.13773865
113	0x3d92ef7c	0.07174584
114	0x3e04cbb4	0.12968332
115	0x3d635b31	0.05550689
116	0x3ddb1f9f	0.106993906
117	0x3e01e28c	0.12684077
118	0x3bfa8145	0.0076448047
119	0x3da51f99	0.080626674
120	0xbc549754	-0.012975533
121	0x3daf261e	0.08552192
122	0xbc0bf1d1	-0.00854154
123	0xbb8e6ca4	-0.004346447
124	0xbd47c8db	-0.048775535
125	0xbc6b421e	-0.014359025
126	0x3df41aa2	0.11919142
127	0x3d85c71b	0.06532117
128	0x3d242da0	0.040082574
129	0x3d906b77	0.07051747
130	0x3df985a2	0.121836916
131	0xbda242f6	-0.07922928
132	0xbd0c7cb8	-0.03429863
133	0xbd5912cc	-0.05299644
134	0x3d64ad29	0.0558292
135	0xbd0d01e6	-0.03442564
136	0x3d9b161d	0.07572577
137	0xbc4d842b	-0.012543718
138	0x3e0f67b3	0.14004402
139	0x3d98aef7	0.07455247
140	0x3e130376	0.14356789
141	0xbcb27e33	-0.021788692
142	0xbc8b16e8	-0.016978696
143	0x3b87499a	0.004128647
144	0x3bd752a8	0.0065711327
145	0xbc8502f0	-0.016236752
146	0xbcf5d600	-0.03000927
147	0x3d8dce23	0.06924083
148	0x3d710850	0.058845818
149	0xbdaa8bd4	-0.08327451
150	0xbe305d5a	-0.17223111
151	0x3dde412b	0.108522736
152	0x3d245aa4	0.040125504
153	0x3de2407b	0.11047455
154	0x3ddb5187	0.107089095
155	0xbbba3169	-0.0056821597
156	0xbde36689	-0.111035414
157	0xbd982840	-0.07429552
158	0x3d467f46	0.04846122
159	0x3da224bf	0.07917165
160	0xbc6e5d86	-0.014548665
161	0xbe273f55	-0.16332753
162	0x3de20893	0.11036792
163	0xbbe874db	-0.0070940084
164	0xbc3ff349	-0.011715719
165	0xbc1633f5	-0.009167661
166	0xbe114e8f	-0.14190124
167	0x3ded0282	0.11572744
168	0xbdad6eab	-0.08468374
169	0xbd952baa	-0.07283719
170	0xbd6f9fc3	-0.05850197
171	0x3d433a3b	0.047662955
172	0xbd23bde4	-0.039976016
173	0x3dca3392	0.098731175
174	0x3d75639c	0.059909448
175	0x3ce3eea5	0.027823756
176	0xbdc588e9	-0.09645254
177	0xbd1b593b	-0.037926894
178	0xbd941e9a	-0.07232399
179	0xbdc1c367	-0.09461098
180	0x3e03544b	0.12825124
181	0xbd8af393	-0.06784739
182	0xbd6a9671	-0.05727238
183	0xbd8a5758	-0.06754941
184	0x3de58e73	0.11208811
185	0x3e5dd025	0.21661432
186	0xbe06b5be	-0.13155267
187	0x3df0a36a	0.11749919
188	0xbe4b23d6	-0.19837889
189	0xbcf8a378	-0.030351385
190	0x3d72383a	0.059135653
191	0xbcab64f0	-0.020922154
192	0x3dcd95da	0.100383475
193	0xbd9618cf	-0.073289506
194	0xbe24612d	-0.16052695
195	0xbe891e2c	-0.26780832
196	0xbc47086b	-0.012148003
197	0xbdccd525	-0.100015916
198	0x3d4addb3	0.049527835
199	0xbdc8a027	-0.09796172
200	0x3e6b3a34	0.22971421
201	0xbcf0ba0d	-0.02938559
202	0x3bf2c8e2	0.007409201
203	0xbd18503d	-0.037185896
204	0xbaaae16a	-0.0013037149
205	0x3cc58821	0.024112763
206	0xbd1d1546	-0.038350366
207	0x3d581c41	0.05276132
208	0xbcfeda7a	-0.031110037
209	0x3913711a	0.00014061146
210	0x3ce76c6f	0.028249947
211	0x3cd3bd1f	0.025847016
212	0xbd80dc86	-0.062920615
213	0x3d3a96de	0.045554034
214	0x3b8d0eef	0.0043047587
215	0x3c91b2dd	0.017785484
216	0xbb448ed8	-0.0029992368
217	0x3d99effe	0.07516478
218	0x3d614e2f	0.055006202
219	0x3c13180b	0.0089779
220	0xbe271038	-0.1631478
221	0x3c8a5c36	0.016889673
222	0x3d3cc4d5	0.04608615
223	0xbdaf6138	-0.08563465
224	0xbd8bcf6c	-0.06826672
225	0x3e6c91af	0.23102449
226	0xbd14459e	-0.036199205
227	0xbdae383b	-0.08506819
228	0x3e0c9486	0.13728532
229	0x3d4755fb	0.04866598
230	0x3cc95d95	0.024580756
231	0x3c4c4d80	0.012469649
232	0xbd85ed7a	-0.06539436
233	0x3dedb8c3	0.11607506
234	0xbd978175	-0.07397739
235	0xbdf4299a	-0.11921997
236	0xbca5dfef	-0.020248381
237	0x3d81bd4f	0.06334936
238	0xbdc78cde	-0.09743665
239	0x3d73d6a7	0.05953088
240	0x3dba6588	0.09101397
241	0xbda8ef59	-0.08248777
242	0x3e22fbc1	0.15916349
243	0xbd14846b	-0.036259096
244	0x3cfb8871	0.030704709
245	0xbc925951	-0.017864855
246	0xbd4495a8	-0.047994286
247	0x3bac2907	0.0052539143
248	0x3c20e51d	0.00982025
249	0xbdad5e5b	-0.084652625
250	0xbd13d3cd	-0.03609066
251	0x3d9e22c0	0.07721472
252	0xbd6f2609	-0.058385883
253	0x3d93bde6	0.07213955
254	0xbe3bfecf	-0.1835892
255	0xbd656a91	-0.056009833

network_body._body_endoder.seq_layers.0.bias f4 [128]
0	0x00000000	0.0
1	0x00000000	0.0
2	0x00000000	0.0
3	0x00000000	0.0
4	0x00000000	0.0
5	0x00000000	0.0
6	0x00000000	0.0
7	0x00000000	0.0
8	0x00000000	0.0
9	0x00000000	0.0
10	0x00000000	0.0
11	0x00000000	0.0
12	0x00000000	0.0
13	0x00000000	0.0
14	0x00000000	0.0
15	0x00000000	0.0
16	0x00000000	0.0
17	0x00000000	0.0
18	0x00000000	0.0
19	0x00000000	0.0
20	0x00000000	0.0
21	0x00000000	0.0
22	0x00000000	0.0
23	0x00000000	0.0
24	0x00000000	0.0
25	0x00000000	0.0
26	0x00000000	0.0
27	0x00000000	0.0
28	0x00000000	0.0
29	0x00000000	0.0
30	0x00000000	0.0
31	0x00000000	0.0
32	0x00000000	0.0
33	0x00000000	0.0
34	0x00000000	0.0
35	0x00000000	0.0
36	0x00000000	0.0
37	0x00000000	0.0
38	0x00000000	0.0
39	0x00000000	0.0
40	0x00000000	0.0
41	0x00000000	0.0
42	0x00000000	0.0
43	0x00000000	0.0
44	0x00000000	0.0
45	0x00000000	0.0
46	0x00000000	0.0
47	0x00000000	0.0
48	0x00000000	0.0
49	0x00000000	0.0
50	0x00000000	0.0
51	0x00000000	0.0
52	0x00000000	0.0
53	0x00000000	0.0
54	0x00000000	0.0
55	0x00000000	0.0
56	0x00000000	0.0
57	0x00000000	0.0
58	0x00000000	0.0
59	0x00000000	0.0
60	0x00000000	0.0
61	0x00000000	0.0
62	0x00000000	0.0
63	0x00000000	0.0
64	0x00000000	0.0
65	0x00000000	0.0
66	0x00000000	0.0
67	0x00000000	0.0
68	0x00000000	0.0
69	0x00000000	0.0
70	0x00000000	0.0
71	0x00000000	0.0
72	0x00000000	0.0
73	0x00000000	0.0
74	0x00000000	0.0
75	0x00000000	0.0
76	0x00000000	0.0
77	0x00000000	0.0
78	0x00000000	0.0
79	0x00000000	0.0
80	0x00000000	0.0
81	0x00000000	0.0
82	0x00000000	0.0
83	0x00000000	0.0
84	0x00000000	0.0
85	0x00000000	0.0
86	0x00000000	0.0
87	0x00000000	0.0
88	0x00000000	0.0
89	0x00000000	0.0
90	0x00000000	0.0
91	0x00000000	0.0
92	0x00000000	0.0
93	0x00000000	0.0
94	0x00000000	0.0
95	0x00000000	0.0
96	0x00000000	0.0
97	0x00000000	0.0
98	0x00000000	0.0
99	0x00000000	0.0
100	0x00000000	0.0
101	0x00000000	0.0
102	0x00000000	0.0
103	0x00000000	0.0
104	0x00000000	0.0
105	0x00000000	0.0
106	0x00000000	0.0
107	0x00000000	0.0
108	0x00000000	0.0
109	0x00000000	0.0
110	0x00000000	0.0
111	0x00000000	0.0
112	0x00000000	0.0
113	0x00000000	0.0
114	0x00000000	0.0
115	0x00000000	0.0
116	0x00000000	0.0
117	0x00000000	0.0
118	0x00000000	0.0
119	0x00000000	0.0
120	0x00000000	0.0
121	0x00000000	0.0
122	0x00000000	0.0
123	0x00000000	0.0
124	0x00000000	0.0
125	0x00000000	0.0
126	0x00000000	0.0
127	0x00000000	0.0

network_body._body_endoder.seq_layers.2.weight f4 [128, 128]
0	0xbcd1e711	-0.025622876
1	0xbe3eddb4	-0.1863926
2	0xbdcb86c8	-0.09937817
3	0xbd468488	-0.048466235
4	0x3dcee32d	0.10101924
5	0x3d8c1a78	0.06840986
6	0x3c53b7e1	0.012922258
7	0xbdb91986	-0.09038071
8	0x3df345d4	0.11878553
9	0xbd496a50	-0.049173653
10	0xbd94018e	-0.07226859
11	0xbbc3b3e5	-0.005972373
12	0xbdd8841e	-0.10572074
13	0xbcf3ff8b	-0.029784938
14	0xbdf64e54	-0.12026659
15	0xbd15fb99	-0.036616895
16	0xbe3ee099	-0.18640365
17	0xbc58b066	-0.01322565
18	0x3d2d1947	0.042260434
19	0x3bf6c1eb	0.007530441
20	0x3d8ea437	0.06964915
21	0xbd299d08	-0.041409522
22	0x3c17b432	0.0092592705
23	0xbdbb3edb	-0.09142848
24	0x3da7fd24	0.082025796
25	0x3e2b5752	0.16732529
26	0xbd2520bc	-0.04031442
27	0xbde45754	-0.11149469
28	0xbcd8133c	-0.02637636
29	0x3d2b4bc0	0.041820288
30	0xbda11b85	-0.07866577
31	0xbe0d8bd9	-0.13822879
32	0xbdff3aa0	-0.12462354
33	0x3dc56cd1	0.09639896
34	0xbca2c057	-0.019867105
35	0xbd5093d9	-0.05092225
36	0x3d3e8aa1	0.046518926
37	0x3e2da9a9	0.16959251
38	0x3c33514b	0.010944675
39	0xbcdf851b	-0.02728515
40	0x3e0cdd11	0.13756205
41	0xbe0bd6e5	-0.13656195
42	0x3dae764d	0.08518658
43	0x3dae1c8b	0.08501538
44	0x3dc07030	0.09396398
45	0x3e55ee0d	0.2089159
46	0x3e381e66	0.17980346
47	0xbd93044f	-0.07178556
48	0x3e17082e	0.14749214
49	0x3cc28a45	0.023747573
50	0x3c2769f7	0.010218135
51	0xbe0b10a8	-0.13580573
52	0xbc90ce1d	-0.017676407
53	0x3dcc5405	0.09976963
54	0x3dd0bb34	0.10191956
55	0x3dba81f7	0.0910682
56	0x3bac3d07	0.0052562985
57	0xbddadb08	-0.10686308
58	0x3d43accd	0.047772218
59	0xbc430bd0	-0.011904672
60	0xbe27a80c	-0.16372699
61	0x3b0179b5	0.001975638
62	0x3dfd4e75	0.1236848
63	0xbd39feab	-0.045408886
64	0xbdce0e2a	-0.10061295
65	0xbdfe1db9	-0.12408013
66	0xbdd95f63	-0.10613897
67	0x3d7a796e	0.06115096
68	0xbd94fe8b	-0.07275113
69	0x3e21ff3e	0.15820023
70	0xbdbe85e6	-0.09302883
71	0xbd3084e8	-0.0430955
72	0x3cc9ebf9	0.024648653
73	0x3dafbab1	0.085805304
74	0x3ce4dcef	0.02793738
75	0x3dcfa09c	0.10138056
76	0x3bc622fd	0.0060466514
77	0x3e253742	0.1613436
78	0xbcc754f9	-0.02433251
79	0x3d2e07de	0.04248797
80	0x3d6576b8	0.056021422
81	0x3d209fb5	0.03921481
82	0xbd56dae1	-0.052454833
83	0xbd7b32df	-0.06132781
84	0xbcb598ca	-0.022167582
85	0xbdb01628	-0.08597976
86	0xbb7cfa34	-0.003860128
87	0x3ccaf6f5	0.024775961
88	0x3d288946	0.04114654
89	0xbc8eef11	-0.01744798
90	0x3d783146	0.060593866
91	0xbd9f6a9a	-0.077840045
92	0xbdf35e1f	-0.118831865
93	0xbd8cb27c	-0.06869981
94	0x3d08fcbe	0.03344416
95	0x3e0d7ba8	0.13816702
96	0xbd41430d	-0.047183085
97	0xbd8b3855	-0.06797854
98	0xbdb86473	-0.09003534
99	0xbd087f6e	-0.03332465
100	0xbdcc5e1d	-0.09978888
101	0xbdcf147c	-0.10111329
102	0xbcadb597	-0.021204753
103	0xbd43263f	-0.047643896
104	0xbc7af658	-0.015317522
105	0xbe0d985d	-0.13827653
106	0xbd581673	-0.052755784
107	0xbbc026f3	-0.005864018
108	0x3df60a5a	0.12013693
109	0x3e392bb7	0.18083082
110	0x3d995d71	0.07488526
111	0xbde3efc7	-0.11129718
112	0x3c261d8d	0.010138881
113	0x3df01e14	0.11724487
114	0x3d4fc7d2	0.050727673
115	0x3d764c2a	0.06013123
116	0xbc4bf1ed	-0.012447816
117	0x3d1afbdc	0.037837848
118	0xbd1a0178	-0.037599057
119	0xbe715660	-0.23568106
120	0x3d17eb11	0.03708941
121	0xbd9fe3e3	-0.07807138
122	0xbd3066f9	-0.043066952
123	0x3d5aa597	0.053380575
124	0x3e348fc5	0.17632969
125	0xbdb94427	-0.09046202
126	0x3d33a755	0.043860752
127	0xbd901098	-0.07034415
128	0x3d616609	0.05502895
129	0x3dc92287	0.09821039
130	0xbe1f59bd	-0.15561576
131	0xb89e34c4	-7.5438555e-05
132	0x3db7fb1b	0.089834414
133	0xbe075f90	-0.13220048
134	0xbd4ef37e	-0.05052518
135	0xbd83d360	-0.06436801
136	0xbc05ad73	-0.008159029
137	0xbdacb1d1	-0.08432353
138	0xbd91004a	-0.07080133
139	0x3cbbe5ae	0.022936668
140	0x3d7faaf6	0.0624189
141	0xbd14023c	-0.036134943
142	0xbce8baf3	-0.028409457
143	0xbdc46cbe	-0.095910534
144	0x3ca2db4e	0.019879963
145	0x3d5fa4d0	0.054600537
146	0xbd87b35a	-0.066260055
147	0xbd923d70	-0.071406245
148	0x3d2100af	0.039307293
149	0x3d1a32c8	0.037646085
150	0xbde3573c	-0.11100623
151	0x3d0287bc	0.031867728
152	0x3e4017b4	0.18759042
153	0x3c6df66d	0.0145240845
154	0xbd5fc877	-0.054634538
155	0x3bd07d53	0.006362596
156	0xbdaa37b8	-0.08311409
157	0xbd328754	-0.04358609
158	0xbdae8c56	-0.08522861
159	0x3d09dce4	0.033657923
160	0xbdf172bc	-0.11789462
161	0xbabf9a92	-0.0014618209
162	0x3cefb3c9	0.029260533
163	0x3bb27ef6	0.005447264
164	0x3e533742	0.20626548
165	0xbcec4c09	-0.02884485
166	0xbbe1bcf7	-0.0068889814
167	0xbe4e4025	-0.20141657
168	0x3ce013bd	0.027353162
169	0xbc04358f	-0.00806941
170	0xbd396e59	-0.04527125
171	0x3e16e028	0.14733946
172	0xbdf16120	-0.11786103
173	0x3dd000c9	0.101564
174	0xbd985e8a	-0.07439907
175	0x3de94b3d	0.11391304
176	0xbc835227	-0.016030384
177	0x3da14baa	0.0787576
178	0x3d7f4981	0.06232596
179	0xbe272a49	-0.16324724
180	0x3e1e976d	0.15487452
181	0xbcbc80ce	-0.023010638
182	0xbdc1fc91	-0.09472001
183	0x3c991957	0.01868884
184	0xbe52a4d0	-0.20570683
185	0x3d24df49	0.040252004
186	0x3de5da29	0.112232514
187	0x3d98e90f	0.074663274
188	0x3d8e7080	0.069550514
189	0x3d2fb4d0	0.042897046
190	0xbd2cf9e1	-0.04223049
191	0x3df9c90d	0.121965505
192	0xbdc700a8	-0.09716922
193	0x3e155a39	0.14585198
194	0x3dba5fd5	0.0910031
195	0xbdf26156	-0.118349716
196	0xbe1a568a	-0.15072075
197	0xbe134cba	-0.14384738
198	0xbd9c6519	-0.0763647
199	0xbe3d1327	-0.18464337
200	0x3dff09b6	0.12453024
201	0x3cd225a6	0.025652718
202	0x3ce35c4e	0.027753975
203	0xbdc680a9	-0.09692509
204	0xbb43698d	-0.0029817552
205	0xbe32308a	-0.17401329
206	0x3e0f2d07	0.1398202
207	0xbdaefffa	-0.085449174
208	0x3cb3bf39	0.021941768
209	0xbda5be2c	-0.08092913
210	0xbc2068a3	-0.009790572
211	0x3e45ad0d	0.19304295
212	0x3e087aac	0.13328046
213	0x3db15d70	0.086604
214	0x3cf3ba3a	0.029751886
215	0xbe409a9f	-0.18808983
216	0xbd67900f	-0.05653387
217	0x3c9707f9	0.018436419
218	0xbe125359	-0.14289607
219	0x3a9c71f4	0.0011935816
220	0x3db3f9a6	0.08787851
221	0xb96e55c5	-0.000227294
222	0xbd54e4a3	-0.051975857
223	0x3deb4f29	0.11489708
224	0xbc8b6617	-0.017016454
225	0xbd5f757c	-0.0545554
226	0x3d2cd842	0.042198427
227	0x3dee503c	0.11636397
228	0x3e24cf54	0.16094714
229	0xbd9edacc	-0.07756576
230	0xbdb058d7	-0.08610695
231	0xbd455ce4	-0.04818429
232	0x3db57d67	0.08861809
233	0x3d7133ce	0.058887295
234	0x3cd3d736	0.025859457
235	0xbd63a84e	-0.05558043
236	0x3cb2932a	0.021798689
237	0xbd0e9382	-0.034808643
238	0xbc82ddb5	-0.015974859
239	0x3d2b393d	0.041802634
240	0x3e01cd5c	0.12675995
241	0xbe0bcbec	-0.13652009
242	0xbdb3c744	-0.08778241
243	0x3cdafda0	0.026732266
244	0x3dc92005	0.0982056
245	0x3c91ab48	0.017781869
246	0x3d92dce2	0.07171036
247	0x3d64dc15	0.05587395
248	0x3da6e241	0.08148623
249	0xbd7dcff1	-0.061965887
250	0x3cf0be78	0.029387698
251	0x3d1ae5b9	0.037816737
252	0x3d8eb9b2	0.06969012
253	0x3d9a7c6b	0.07543262
254	0x3c2ea63a	0.010659749
255	0x3d0ccd19	0.034375284

network_body._body_endoder.seq_layers.2.bias f4 [128]
0	0x00000000	0.0
1	0x00000000	0.0
2	0x00000000	0.0
3	0x00000000	0.0
4	0x00000000	0.0
5	0x00000000	0.0
6	0x00000000	0.0
7	0x00000000	0.0
8	0x00000000	0.0
9	0x00000000	0.0
10	0x00000000	0.0
11	0x00000000	0.0
12	0x00000000	0.0
13	0x00000000	0.0
14	0x00000000	0.0
15	0x00000000	0.0
16	0x00000000	0.0
17	0x00000000	0.0
18	0x00000000	0.0
19	0x00000000	0.0
20	0x00000000	0.0
21	0x00000000	0.0
22	0x00000000	0.0
23	0x00000000	0.0
24	0x00000000	0.0
25	0x00000000	0.0
26	0x00000000	0.0
27	0x00000000	0.0
28	0x00000000	0.0
29	0x00000000	0.0
30	0x00000000	0.0
31	0x00000000	0.0
32	0x00000000	0.0
33	0x00000000	0.0
34	0x00000000	0.0
35	0x00000000	0.0
36	0x00000000	0.0
37	0x00000000	0.0
38	0x00000000	0.0
39	0x00000000	0.0
40	0x00000000	0.0
41	0x00000000	0.0
42	0x00000000	0.0
43	0x00000000	0.0
44	0x00000000	0.0
45	0x00000000	0.0
46	0x00000000	0.0
47	0x00000000	0.0
48	0x00000000	0.0
49	0x00000000	0.0
50	0x00000000	0.0
51	0x00000000	0.0
52	0x00000000	0.0
53	0x00000000	0.0
54	0x00000000	0.0
55	0x00000000	0.0
56	0x00000000	0.0
57	0x00000000	0.0
58	0x00000000	0.0
59	0x00000000	0.0
60	0x00000000	0.0
61	0x00000000	0.0
62	0x00000000	0.0
63	0x00000000	0.0
64	0x00000000	0.0
65	0x00000000	0.0
66	0x00000000	0.0
67	0x00000000	0.0
68	0x00000000	0.0
69	0x00000000	0.0
70	0x00000000	0.0
71	0x00000000	0.0
72	0x00000000	0.0
73	0x00000000	0.0
74	0x00000000	0.0
75	0x00000000	0.0
76	0x00000000	0.0
77	0x00000000	0.0
78	0x00000000	0.0
79	0x00000000	0.0
80	0x00000000	0.0
81	0x00000000	0.0
82	0x00000000	0.0
83	0x00000000	0.0
84	0x00000000	0.0
85	0x00000000	0.0
86	0x00000000	0.0
87	0x00000000	0.0
88	0x00000000	0.0
89	0x00000000	0.0
90	0x00000000	0.0
91	0x00000000	0.0
92	0x00000000	0.0
93	0x00000000	0.0
94	0x00000000	0.0
95	0x00000000	0.0
96	0x00000000	0.0
97	0x00000000	0.0
98	0x00000000	0.0
99	0x00000000	0.0
100	0x00000000	0.0
101	0x00000000	0.0
102	0x00000000	0.0
103	0x00000000	0.0
104	0x00000000	0.0
105	0x00000000	0.0
106	0x00000000	0.0
107	0x00000000	0.0
108	0x00000000	0.0
109	0x00000000	0.0
110	0x00000000	0.0
111	0x00000000	0.0
112	0x00000000	0.0
113	0x00000000	0.0
114	0x00000000	0.0
115	0x00000000	0.0
116	0x00000000	0.0
117	0x00000000	0.0
118	0x00000000	0.0
119	0x00000000	0.0
120	0x00000000	0.0
121	0x00000000	0.0
122	0x00000000	0.0
123	0x00000000	0.0
124	0x00000000	0.0
125	0x00000000	0.0
126	0x00000000	0.0
127	0x00000000	0.0

action_model._continuous_distribution.log_sigma f4 [1, 2]
0	0x00000000	0.0
1	0x00000000	0.0

action_model._continuous_distribution.mu.weight f4 [2, 128]
0	0xbb41cd69	-0.0029571897
1	0x3bf0d015	0.007349024
2	0xbc5dd2b8	-0.013539009
3	0xbba83873	-0.0051336824
4	0xbcab326e	-0.02089807
5	0x3c802eb4	0.01564727
6	0xbc0c0be7	-0.00854776
7	0xbcb28790	-0.021793157
8	0xbbdaa083	-0.0066719665
9	0xbc5d29df	-0.013498752
10	0x3ca7d42f	0.02048692
11	0xb98affd6	-0.00026512024
12	0x3c599560	0.013280243
13	0xbcb235ec	-0.021754228
14	0x3c0b9b80	0.008520961
15	0x3c0f457e	0.008744596
16	0x3ca6a0f4	0.02034042
17	0xbc092acb	-0.008372019
18	0x3bd52175	0.0065042325
19	0x3cb29404	0.021799095
20	0xbca40798	-0.020023152
21	0xbcb66438	-0.022264585
22	0xbbc22508	-0.0059248246
23	0x3c91bc1e	0.017789897
24	0x3bc40057	0.005981486
25	0xbc5db122	-0.013531001
26	0x3c87b344	0.016564973
27	0x3cb2b991	0.021817
28	0x3c41ff8d	0.011840713
29	0xbc35863c	-0.011079367
30	0xbb0b07ef	-0.0021214446
31	0x3c943484	0.018091448
32	0x3c6971f0	0.014248356
33	0x3bcaf7d0	0.0061940923
34	0xbc0cb2e2	-0.008587571
35	0xbcc31389	-0.023813026
36	0x3c7f00d7	0.015564165
37	0x3cc3aab9	0.023885118
38	0x3cafa858	0.021442577
39	0xbc7fa247	-0.015602655
40	0x3d06ccfa	0.032910325
41	0x3c343e7f	0.011001228
42	0x3c9954e3	0.018717235
43	0x3d336ea3	0.043806683
44	0xbc4e44bf	-0.0125896325
45	0xbce6c605	-0.028170595
46	0x3c7ce453	0.015435296
47	0x3c2fdb90	0.0107335
48	0xbb73f267	-0.003722334
49	0x3bd6f9d7	0.006560545
50	0xbbc17c90	-0.0059047416
51	0x3ca789bc	0.020451419
52	0x3d0b0bc7	0.03394678
53	0x3c744eb8	0.014911346
54	0xbbb83fca	-0.0056228386
55	0x3b1b6f1d	0.0023717352
56	0x3c307755	0.0107706385
57	0x3a310657	0.0006752959
58	0xbc12e98c	-0.008966815
59	0x3ca44707	0.0200534
60	0x3c0dfa1c	0.008665588
61	0xbc899893	-0.016796386
62	0x3cbbe58e	0.022936609
63	0x3c8e6674	0.017382838
64	0x3ca0a61a	0.019610453
65	0x3c002d1c	0.007823255
66	0x3b2721bb	0.0025502283
67	0x3c922900	0.017841816
68	0xbcb61596	-0.02222709
69	0xbb3a3869	-0.002841497
70	0x3b54a50a	0.0032447004
71	0xbaacb588	-0.0013176659
72	0x3ad1cd8b	0.0016006691
73	0x3c91d288	0.017800584
74	0xbc4b8adf	-0.012423246
75	0xbb61ab53	-0.0034434393
76	0xbca52bae	-0.02016243
77	0xbc8ccbcb	-0.01718702
78	0xbd051866	-0.03249397
79	0xbc5be9eb	-0.01342247
80	0x3bddcfca	0.006769155
81	0x3c156cd2	0.009120183
82	0xbc1f9ef5	-0.009742488
83	0x3c89ee3d	0.016837234
84	0xbcb6191b	-0.022228768
85	0xbc272da9	-0.010203757
86	0xbd0e5d07	-0.034756687
87	0x3caf3b68	0.021390632
88	0x3bd719c7	0.006564352
89	0x3b8d5453	0.0043130307
90	0x3be72a28	0.007054586
91	0xbc8d32db	-0.017236164
92	0xbc0a8ec2	-0.008456888
93	0xbba70415	-0.005096922
94	0x3b99274e	0.004673875
95	0x3c1cfe78	0.009582154
96	0x3ccb7d48	0.024840012
97	0xba02f9fe	-0.0004996358
98	0x3c4a89dc	0.01236197
99	0x3a8308de	0.000999715
100	0x3b3ec772	0.0029110578
101	0x3b3c6aa3	0.0028750084
102	0xbc040368	-0.008057453
103	0xbce05c87	-0.02738787
104	0x3cfb51cb	0.03067865
105	0xbbc65ead	-0.0060537667
106	0x3cedd8b3	0.029033994
107	0x3d14bd67	0.03631344
108	0xbc01c5da	-0.007920707
109	0x3c3c358b	0.011487375
110	0xbca387c7	-0.019962205
111	0x3b74fdbb	0.003738268
112	0x3b5bdb2f	0.0033547392
113	0xbc82fcc3	-0.015989667
114	0x3c9c89ff	0.01910877
115	0xba330d81	-0.00068303203
116	0x3b2e96d4	0.0026640194
117	0xbcb4a5c0	-0.022051692
118	0xbca1bd89	-0.019743698
119	0x3c9a33ee	0.01882359
120	0xbbf88457	-0.0075841355
121	0xb91ecda1	-0.00015144657
122	0x3c23ea28	0.010004558
123	0xbb664050	-0.0035133548
124	0xbc126f6b	-0.008937697
125	0xbb2f7499	-0.0026772378
126	0x3b5beea2	0.0033558984
127	0xbc8554dd	-0.016275818
128	0x3cbaa44d	0.022783423
129	0xbbaa4a48	-0.0051968433
130	0xbcc0f49d	-0.02355414
131	0xbc9a6857	-0.018848581
132	0x3c505b47	0.012717075
133	0xbcd65257	-0.02616231
134	0xbba837b4	-0.0051335935
135	0x397d93f2	0.00024183074
136	0xbc96147b	-0.018320313
137	0xbd3c894d	-0.046029378
138	0x3c833513	0.016016519
139	0x3cd9a31f	0.02656704
140	0x3bfaf1d2	0.0076582218
141	0xbc43757f	-0.011929869
142	0xbbc9d9a3	-0.0061599775
143	0xbcabe037	-0.020980937
144	0x3c398cbe	0.011325059
145	0x3ba7368d	0.0051029385
146	0x3a727e32	0.0009250372
147	0xbc642bf2	-0.013926493
148	0x3ced9e50	0.029006153
149	0x3c14a333	0.009072113
150	0x3c79fd00	0.015258074
151	0x3bbe17e7	0.005801189
152	0xb76746db	-1.378517e-05
153	0xbb5d6fb3	-0.0033788502
154	0xbc06dcdd	-0.008231369
155	0x3b1d73db	0.0024025354
156	0x3b97b26c	0.004629424
157	0x3c7fa48a	0.015603194
158	0xbca2822f	-0.019837467
159	0x3c497eb7	0.012298278
160	0x3bdbe8fa	0.0067111226
161	0xbbeaf97b	-0.0071708537
162	0x3cb18b51	0.021672877
163	0x3b2ec610	0.0026668347
164	0x3b9313af	0.0044884305
165	0xbc853af7	-0.016263468
166	0xbb8f77d5	-0.0043782988
167	0x3b33187c	0.0027327826
168	0x3ccd5d8d	0.025069023
169	0x3b90e7ca	0.0044221627
170	0xbb7c32ed	-0.0038482503
171	0xbd165d86	-0.036710285
172	0xbd448efe	-0.04798793
173	0xbc2783a0	-0.010224253
174	0x3c8988be	0.016788837
175	0x3c27017f	0.010193228
176	0x3c5b01ab	0.013367097
177	0xbb4f2050	-0.0031604953
178	0x3c9ac0f4	0.018890835
179	0x3cc40a28	0.023930624
180	0x3b87e16f	0.004146747
181	0x3bdf7ef7	0.0068205553
182	0xbd057dc7	-0.032590654
183	0xbc0f1a47	-0.008734292
184	0x3b275451	0.0025532434
185	0xbc2029b6	-0.00977557
186	0x3bb63f6b	0.005561759
187	0xbcb4df00	-0.022078991
188	0xbd0073be	-0.03136038
189	0x3aea07fa	0.001785516
190	0x37b9482b	2.2087324e-05
191	0x3a11b8ae	0.00055588305
192	0xbc1958b7	-0.00935953
193	0x3c65153d	0.013982114
194	0x3c80f203	0.0157404
195	0xbbbd83fc	-0.005783556
196	0x3b9ee474	0.004849011
197	0x3c93a55b	0.018023184
198	0xbc910289	-0.017701404
199	0xbc8cbea8	-0.017180756
200	0x3c502b53	0.012705642
201	0x3cb783b0	0.02240166
202	0xba4b045e	-0.0007744486
203	0x3b9a9ead	0.0047186227
204	0x3b4c6839	0.0031190051
205	0xbcb77776	-0.02239583
206	0xbc6b4bea	-0.014361361
207	0xbcff794f	-0.031185774
208	0x3cb0a177	0.021561367
209	0xbbe3e385	-0.0069546127
210	0x3b2c915d	0.002633176
211	0xbc7e7c9d	-0.01553264
212	0xbca6e963	-0.02037496
213	0xbc4db8d3	-0.012556273
214	0xbc223b46	-0.009901827
215	0x3bb8a17d	0.0056344853
216	0x3d116aad	0.035502125
217	0x3ca86550	0.020556122
218	0xbca7e173	-0.020493245
219	0xbc79616b	-0.01522098
220	0xbc37b234	-0.0112119205
221	0x3bd3b54a	0.0064608203
222	0x3ce53af0	0.027982205
223	0xbc8bb9db	-0.017056396
224	0x3ba528ee	0.0050402796
225	0x3bdf53d3	0.0068154125
226	0x3c3d8c2e	0.011569066
227	0x3ba5e988	0.0050632395
228	0x3b8f9a44	0.0043824036
229	0x3cbad2f4	0.022805668
230	0x3c411b5d	0.011786309
231	0x3d32bd25	0.043637414
232	0x3cb7ceb9	0.02243744
233	0x3bb2e361	0.0054592346
234	0xbc72f975	-0.014829983
235	0xbb34aa04	-0.0027567158
236	0x3c3ee5ad	0.011651439
237	0xba8d8caf	-0.0010799373
238	0x3c317368	0.010830738
239	0x3c61f358	0.013790928
240	0x3c6622f0	0.014046416
241	0xbc57021f	-0.013123064
242	0x3c800991	0.015629562
243	0xbca67c4b	-0.02032294
244	0xbcdd30db	-0.027000835
245	0x3d0f7010	0.03501898
246	0x3c9fb257	0.019494219
247	0xbc2215f1	-0.009892927
248	0x3cae2868	0.021259502
249	0x3b07ec14	0.0020740079
250	0x3cd5fb22	0.026120726
251	0x3b79a547	0.0038092898
252	0xbb892dfe	-0.004186391
253	0x3c8e425c	0.017365627
254	0x3c8afbff	0.016965864
255	0xbb93ab48	-0.0045065023

action_model._continuous_distribution.mu.bias f4 [2]
0	0x00000000	0.0
1	0x00000000	0.0
