CS455_PR1/results/ppo/ShootTargetAgent/ShootTargetAgent-476.pt (torch, 934585 bytes, 37 tensors)

discrete_act_size_vector f4 [1, 2]
00000000: 0000 4842 0000 4842
50.0 50.0

network_body.observation_encoder.processors.0.conv_layers.0.bias f4 [16]
00000000: 0099 91bc 245d 003d c19a b8bd ee1f 8e3d
00000010: 2c99 033d 685f 03bc 9419 85bd 7b18 aebd
00000020: 1e57 8f3d a09a aa3b 2c91 533d 8e06 f73d
00000030: 3c90 803d 4239 2fbd 4883 d33c 8428 93bd
-0.017773151 0.031338826 -0.09013892 0.06939684 0.032128498 -0.008018352 -0.06499019 -0.08500763
0.06999038 0.005206421 0.05165212 0.12061797 0.062775105 -0.042779215 0.025819436 -0.07185462

network_body.observation_encoder.processors.0.conv_layers.2.weight f4 [32, 16, 4, 4]
00000000: a0cc 00bc c8e2 3abc 3684 2e3d 7813 973c
00000010: cabb 283d 40ab 743c d00f a53c 7e63 94bc
00000020: 84e0 2a3d 9078 363d 547a ba3c 84cf e9bc
00000030: 40ee d03c 12b9 54bd 5443 53bc 40a9 51bb
00000040: ffde 56bd 823a 02bd c8ce e53c 0809 e83c
00000050: 581e 5cbc 8c8e ebbc 14f0 06bd d5b2 44bd
00000060: e12c 65bd a4eb d5bc de20 6b3d c623 563d
00000070: d013 f2bc d020 50bd 54d9 6fbd c828 a33c
00000080: c8ce 43bd 48b8 993c f835 10bd 80de 1cbc
00000090: c6d3 84bc d87c 683d 201b 843b 7884 ebbb
000000a0: d01e 523d fca5 4dbd 0711 1abd 68be 6ebd
000000b0: 3f56 0ebd e49d 793d ac38 213d 3847 35bd
000000c0: 2d68 4abd 9a30 493d a01a 1cbb 20fc 7ebc
000000d0: 0865 c43c 640b fe3c 443c bebc 2052 0abc
000000e0: 1bde 09bd 3b89 10bd e433 70bd b053 563c
000000f0: a40d 443d 60dd d2bb 84f7 0c3d 1c22 d53c
00000100: 8a92 07bd 90eb c1bc 5c08 c03c a008 cc3b
00000110: cc60 733d fc1f 84bc 30ec a83c 5c25 043d
00000120: c878 b9bc d07f 8b3b 02f2 0b3d 12e8 29bd
00000130: bedb 1dbd f04e aebc 4064 40bc 7e0d 6f3d
00000140: 4840 dabb cc3c a53c 3ae2 39bd 96fd 96bc
00000150: d275 12bd fae6 3dbd 00e6 3939 da9d 233d
00000160: aaf3 8abc ea0b 4c3d 0009 3a3b 6dea 76bd
00000170: 6ccc 9bbc e68a c5bc 4094 fd3a 4407 1d3d
00000180: 1290 623d f43d 67bc cc15 243d f8dc b23c
00000190: e09f 06bd 60df c1ba f8e3 b93c 0b23 47bd
000001a0: 8cc7 45bd a40b c83c fc00 e73c 668d 84bc
000001b0: 8ef2 9dbc e8ca 29bd c880 05bd 605c 9d3b
000001c0: 3023 45bb 804a 93bb f622 f1bc 935a 50bd
000001d0: ce48 b1bc f085 473c 5a9e 4b3d 0868 47bd
000001e0: d6fd aabc 2038 e03c 58cf 0c3c 24d9 a43c
000001f0: 42b1 2ebd 9882 1ebd 5c5e ee3c cdd4 42bd
00000200: fc9d 62bc 0006 283a 781d 203d 0098 e3b7
00000210: d4a6 0f3d 806d 05bb 8063 0b3c 22d6 55bd
00000220: 2401 29bc 479e 68bd 80ee f63c 1609 e5bc
00000230: 8cf2 d23c c284 7d3d a847 233c f058 f33b
00000240: 6448 da3c c4f9 e43c 6d72 6bbd b082 4f3c
00000250: 6f34 07bd 9203 763d d8d6 393d baae c2bc
00000260: 6254 083d c8d2 6f3c 7c69 cb3c 28e9 cabb
00000270: 2e04 163d 4ae2 c9bc dc8d 6d3d c49b 803c
00000280: b1fb 71bd 30eb 373d d0dd 50bd a017 5a3c
00000290: 30bf febc b8ef 79bc dc01 61bd d8d6 43bc
000002a0: 9895 583d 62e3 e8bc 0af4 79bd ce35 6a3d
000002b0: 5e78 1ebd 272c 17bd d6a4 61bd 60c1 2fbc
000002c0: a5f7 5bbd d0db 643d aebd 7e3d 0a4a 87bc
000002d0: a8e3 a4bc 8e08 50bd 5cdb 8abc 90f8 95bb
000002e0: 7883 fbbb e88e 04bd 7ae1 413d 98df 18bd
000002f0: 68fc b9bb 88a0 7e3d 2cbb 6fbd 5eb5 503d
00000300: f870 59bc 5468 983c 50c2 9dbc b270 4a3d
00000310: e28a 6fbd 3cb9 81bc 600d 533b 446f c73c
00000320: 4048 e8ba fcc3 383d b042 df3b 868b 7a3d
00000330: e0da 303b e0b1 a7bb 0b60 3dbd 0609 eabc
00000340: 6898 0abd 30c6 6fbd 3287 343d c89d 523c
00000350: 14c9 93bc c035 693d 7647 7abd 482b 26bc
00000360: 59f1 75bd 78a3 2c3c 0806 333c 687b 0abd
00000370: 00ba b3bc 0072 7839 80dd 773a c699 5a3d
00000380: 3e8d 1bbd 541f 6abc 75e6 17bd 61cf 4ebd
00000390: 008f 16bc 9436 7f3d b8da 623c 2cf2 25bd
000003a0: a013 b2bc 74f2 1fbd 98b4 f5bc a6c5 2d3d
000003b0: e457 763d f802 8b3c 6e4f 3b3d 864e 033d
000003c0: c0c8 253b dcca c6bc 784f e53c 45fa 73bd
000003d0: b08f 2bbd 9943 77bd 40e2 433b e07c 99ba
000003e0: f069 883c 60ba 3ebd f457 873c 582b 76bc
000003f0: be1a 0b3d 3471 6fbc cf0e 25bd c451 a7bc
-0.007861286 -0.011406608 0.042606555 0.0184419 0.041194715 0.014933407 0.020149142 -0.018113848
0.04171802 0.04454857 0.022763409 -0.028541334 0.025504231 -0.05193431 -0.01289447 -0.003199175
-0.05245876 -0.03179408 0.028052703 0.028324619 -0.013434969 -0.028754495 -0.0329438 -0.04802211
-0.055951003 -0.026113339 0.05740439 0.05228021 -0.029550463 -0.050812542 -0.05855687 0.019916907
-0.047804624 0.01876463 -0.03520772 -0.0095745325 -0.016214263 0.056759685 0.004031554 -0.0071874224
0.051298916 -0.050207123 -0.037613895 -0.058287054 -0.03475022 0.06094159 0.039360687 -0.044257373
-0.049415756 0.049118616 -0.002381958 -0.015563041 0.023973957 0.03101129 -0.023222096 -0.008442432
-0.033659082 -0.035287123 -0.058643237 0.013081476 0.04786457 -0.0064350814 0.034415737 0.026017241
-0.033098735 -0.023671895 0.023441486 0.006226614 0.059418485 -0.016128533 0.020620435 0.03226219
-0.0226406 0.00425718 0.034166344 -0.041481085 -0.03853964 -0.021277875 -0.011742651 0.058362477
-0.006660495 0.020170592 -0.045381762 -0.018431466 -0.035756893 -0.046362855 0.00017728657 0.03994546
-0.016961891 0.04981605 0.0028386712 -0.06028216 -0.019018374 -0.024114083 0.001934655 0.038337007
0.055313177 -0.014113892 0.04005985 0.021833882 -0.032867312 -0.0014791302 0.022691712 -0.048617404
-0.048286006 0.024419613 0.028198712 -0.016180705 -0.019280698 -0.041453272 -0.03259352 0.0048022717
-0.0030080788 -0.004494965 -0.029435616 -0.05086763 -0.021641161 0.012177929 0.049711563 -0.048683196
-0.020872992 0.027370512 0.0085943565 0.020123072 -0.042649515 -0.038698763 0.029097728 -0.047566224
-0.013831612 0.00064095855 0.039090604 -2.713129e-05 0.03507121 -0.0020359457 0.008507609 -0.052206166
-0.010315213 -0.05679157 0.030143023 -0.027958434 0.025750421 0.061894186 0.009965815 0.0074263737
0.026645847 0.027951129 -0.05748217 0.012665436 -0.03300899 0.060062 0.045370907 -0.023764957
0.0332836 0.0146376565 0.024830572 -0.006192345 0.03662508 -0.024644036 0.057996616 0.015699275
-0.059077922 0.044902027 -0.050992787 0.013311297 -0.031097025 -0.015254907 -0.054933414 -0.011953078
0.05287704 -0.028428737 -0.06102375 0.05718022 -0.03868901 -0.03690734 -0.05508884 -0.010727257
-0.05370297 0.055873692 0.06219261 -0.016514797 -0.020128086 -0.05078941 -0.016950302 -0.00457675
-0.0076755844 -0.03236285 0.04733417 -0.03732261 -0.005675841 0.062164813 -0.05852811 0.050954215
-0.013271563 0.018604435 -0.019257694 0.04942388 -0.05848206 -0.015835397 0.0032204017 0.024345048
-0.0017721727 0.04510878 0.0068133697 0.061168216 0.0026985928 -0.00511764 -0.04623417 -0.028568756
-0.033836752 -0.058538616 0.044074245 0.012855001 -0.018040217 0.056936026 -0.061103307 -0.010142155
-0.06004462 0.010537021 0.010926731 -0.033809096 -0.021939278 0.00023693591 0.00094553083 0.053369306
-0.037976496 -0.014289696 -0.037085015 -0.05049074 -0.009189367 0.06230791 0.013846092 -0.040514156
-0.021737874 -0.03904958 -0.02999334 0.04242482 0.060142413 0.016969189 0.045730047 0.032057308
0.0025296658 -0.024266653 0.027991995 -0.059564847 -0.041885078 -0.0603672 0.0029889494 -0.0011710189
0.016652077 -0.04656446 0.016521432 -0.015024982 0.03396105 -0.014614392 -0.040297326 -0.020424731

network_body.observation_encoder.processors.0.conv_layers.2.bias f4 [32]
00000000: 0e7d f2bc 2816 003d c2cb 193d f8d4 063c
00000010: 0000 ef3b eeb2 5e3d 729a 31bd e0d0 873b
00000020: 1c37 3c3d bcd3 f73c 2af2 7e3d b8bd 9dbb
00000030: 48e2 143c f834 64bd 56f8 023d ba63 a4bc
00000040: 8866 f4bb d09d 8c3b f083 683c 2488 223d
00000050: 70d2 8a3b 0a1e 463d 2416 64bd 868b 333d
00000060: d087 953c d159 2abd b02a e43c 8692 42bd
00000070: 90c1 c93c c497 e4bc c43b 153d e166 1ebd
-0.029600646 0.03127113 0.037547834 0.008229487 0.007293701 0.05436986 -0.04336018 0.004144773
0.045950994 0.03025233 0.062242664 -0.004813876 0.009087153 -0.055714577 0.031975113 -0.020067085
-0.0074585117 0.0042912737 0.014191613 0.039680615 0.004236512 0.04836849 -0.055685177 0.04383423
0.018253237 -0.04158956 0.027852386 -0.047503017 0.02462843 -0.027904399 0.03643395 -0.03867233

network_body.observation_encoder.processors.0.dense.0.weight f4 [128, 512]
00000000: 3ef6 98bd e61c bfbd 8720 3dbc adde 4d3d
00000010: 6c51 f93a aefa 563c b074 28bd 76c9 cbbd
00000020: d440 efbd fc35 1cbd b0e5 e1bc afad 79bb
00000030: a597 273b ed7e 86bd 0aa2 2ebd caa8 74bd
00000040: 3f50 e03d f440 f93c 3dcd 543d eb73 e73c
00000050: 2c08 39bd a1ff 4bbd 7de8 083e ea71 a2bb
00000060: 08fb da3b 5936 4ebc fa64 033d 097b df3a
00000070: bd2c b4bd 6c34 88bd 1850 05bd 781b 1bbc
00000080: 209a 2bbd a33f 7ebd e93d 6dbd 0706 aebd
00000090: 9ca5 ad3d 5ad7 533d 5d16 c53d d31a 903d
000000a0: 4c7b f93b 73c4 9f3d 2796 e9bc 35b7 fb3d
000000b0: c992 68bd c603 efbd 0b04 9abd 4290 40bd
000000c0: 2da3 95bc dc14 c83c 4676 0bbd fce0 00bd
000000d0: 1c04 1bbc 402e 723c f2f3 4d3a d163 9abd
000000e0: d244 493d 1f91 b43d c34b b7bd e0b7 473c
000000f0: 29b9 08be 2f45 59bd e909 1cbd caa0 eebc
00000100: c042 9d3d cb76 fd3d edcb 8abd b690 523d
00000110: 0809 063d a021 42bd 9d60 cbbc 183c e7bc
00000120: 44b2 d0bc fdf2 4f3e 6a02 0e3d 9485 1ebd
00000130: 9875 3abc 6605 f23d fbf3 f43c f0f0 ac3d
00000140: 633c bebc 7776 dabd 4f10 ae3d 767e 91bd
00000150: 894c 5b3d 846b 9ebd b771 8b3d 7417 f03d
00000160: adcf 883b 3989 7e3d a321 81bd 5690 8fbd
00000170: 47b1 22bc fa03 8bbd e52a 753c fd86 2a3d
00000180: a2bb a43c 4073 983b 6b1d bb3d 0bf0 563c
00000190: fb95 85bd b64a 1bbd 877b bb3d 440e b3bc
000001a0: f4a3 7b3c 756e 35bc e73e 823d 749c 243e
000001b0: 4138 32bd e30e f9bd 2cfe a13d e35d a6bd
000001c0: 005d 8c3d 983c b23c 0bbc cb3d 56c9 3abd
000001d0: dca0 793c 1203 313d 61f2 c0bd 06aa 12bb
000001e0: 53d5 48bd 2ff8 5fbd 4160 dcbc 77a4 a6bb
000001f0: 99b3 083c a217 87bd 6177 283d 62da 883a
00000200: 481c b53d 6cb4 50bd ef5d f73d c28f cbbd
00000210: 5620 17bd 7214 883d 9cec 03bd fe65 87bd
00000220: 4fe3 a6bd 5fee ff3c ec50 0a3d 0705 3c3e
00000230: 98c9 9e3d 4179 73bd cc2a 66bd 246b df3c
00000240: 7c66 4f3d 5a34 d03d 8ae9 223c 37cf 2b3d
00000250: a232 a93c 9a15 023b b5ea 753d b8c7 503d
00000260: 1ad4 943d 92cd 353d 9bcb 313e 4d07 a53d
00000270: 35d5 b13d 13e9 6bbc 08ab ab3d 53c9 74bd
00000280: f780 5cbb 5d11 3fbd cc4c 633d 0bc4 27bc
00000290: c801 bf3d 2bf7 1dbc 5ce3 7c3b d9ed ad3c
000002a0: 463d dc3c 3e08 973c 929b 7b3d ab67 22bd
000002b0: 2eac 2cbc c2c8 acbd 8667 5abd 5125 bdbd
000002c0: 488b 8fbd 4bd7 ee3c 7c2f ca3c 2ca6 6a3d
000002d0: 398d af3d cae4 973d bdd5 65bd 06b7 9bbc
000002e0: 8ab8 9ebd 1a22 23bc f5d8 bd3d b8c1 2fbc
000002f0: 0420 3c3d 66ce e7bc 33fc ed3c 5d67 08be
00000300: 88be d2bc 42de 9c3d e526 f13c 7a92 63bd
00000310: 50d7 c8bc 976d 663c 1ff7 b5bb e69a c5bc
00000320: 570e b8bc d69a 293c a406 b33d 0aca cbbd
00000330: 1a26 7cbd 3b05 adbd c4b6 74bc 30c0 cbbc
00000340: 8407 42bd 8aac 273e 6ef8 c0bd bfb6 ca3c
00000350: 1a22 163c 08a7 3e3d 0e88 4fbd daac 3fba
00000360: 4f7b 2bbd 2d84 9abc e32f 4f3d cc01 0a3e
00000370: 3c88 f93b b1c1 b93d 1cea 46bd 6992 633d
00000380: f2a3 a7bc 959f abbd 5c3a dcbd a1f6 c43d
00000390: bd4a 553b 68b3 623d 344a fb3c 7667 bcbc
000003a0: 1327 9cbd 2fd8 003d d99a e43c f83a cf3d
000003b0: 6b5a 89bb 2c48 663d dace d63d 8afc 9a3d
000003c0: a61a 5cbc b845 09bd 6a82 833d d4c6 c63b
000003d0: 5ded 7a3d 45c1 493d d78f a93a 7407 b43b
000003e0: 6f2a fb3c 9de3 1abd 80a2 85bd 1a8a 003d
000003f0: 507d 4cbd 5260 8a3d 275f 1c3d 7cae ca3c
-0.07468842 -0.09331684 -0.0115434 0.05026119 0.0019021458 0.01312129 -0.041126907 -0.09950535
-0.11682287 -0.03813742 -0.027575344 -0.0038097908 0.0025572565 -0.06567178 -0.042635 -0.059731282
0.10952806 0.03042648 0.051953543 0.028253516 -0.04517381 -0.049804334 0.13369937 -0.0049574273
0.0066827573 -0.0125862 0.03207872 0.0017050217 -0.08797596 -0.06650624 -0.032547086 -0.009466998
-0.041895032 -0.062072407 -0.05792037 -0.084972434 0.08478853 0.051719047 0.09623406 0.07036366
0.007613575 0.078011416 -0.028513981 0.12290803 -0.05678061 -0.116706416 -0.075203024 -0.047012575
-0.018266285 0.024424009 -0.03404834 -0.03146456 -0.009461429 0.014781535 0.000785648 -0.0753857
0.049137898 0.08816742 -0.08949997 0.012189835 -0.13351883 -0.053044494 -0.03809539 -0.029129405
0.07678747 0.123761736 -0.06777177 0.05140754 0.032723457 -0.04739535 -0.024826342 -0.028226897
-0.025475629 0.20307536 0.03467027 -0.03870161 -0.011380576 0.11817436 0.029901495 0.08444393
-0.023222154 -0.106671266 0.08499204 -0.07104199 0.053539786 -0.07735351 0.06808799 0.11723223
0.0041751475 0.062142584 -0.06305244 -0.07009952 -0.0099299615 -0.06787868 0.01496384 0.04163264
0.020109002 0.0046524107 0.091364704 0.013118754 -0.06522747 -0.037913047 0.0915442 -0.021857388
0.015358914 -0.011073698 0.06359654 0.16075307 -0.04351068 -0.121610425 0.079098076 -0.08123376
0.06853676 0.021757409 0.09947976 -0.045602165 0.015236106 0.04321582 -0.0942123 -0.0022379174
-0.049031567 -0.054680046 -0.026901366 -0.0050855237 0.008343601 -0.065963045 0.041129474 0.001044106
0.08843285 -0.050953314 0.12078463 -0.09939529 -0.036896072 0.06644525 -0.03220807 -0.0661125
-0.081488244 0.031241594 0.03376858 0.18361293 0.07753295 -0.05944181 -0.056193158 0.027272768
0.050634846 0.10166235 0.009943375 0.041945662 0.020654026 0.0019849301 0.060038287 0.050971717
0.07267018 0.0443855 0.17362826 0.08058033 0.08683244 -0.014398831 0.08382231 -0.05976231
-0.0033646205 -0.04664742 0.05549316 -0.010239611 0.093265116 -0.009641449 0.0038587665 0.021231579
0.026884686 0.018436547 0.06142766 -0.039649647 -0.010539098 -0.08436729 -0.053321384 -0.09235633
-0.07008988 0.029155394 0.024680845 0.05728738 0.08571858 0.07416685 -0.05611204 -0.01900817
-0.07750042 -0.009956861 0.09269897 -0.0107273385 0.04592897 -0.02829666 0.029050922 -0.1332068
-0.025725618 0.0765958 0.029437492 -0.055559613 -0.024516732 0.014064214 -0.005553141 -0.024121713
-0.022467775 0.010351857 0.08741501 -0.09950645 -0.061559774 -0.08448263 -0.014936153 -0.024871916
-0.04737045 0.16374412 -0.09422384 0.024745343 0.009163404 0.046546012 -0.05066686 -0.00073118287
-0.041865643 -0.018861854 0.050582778 0.13477248 0.0076151174 0.09070147 -0.048563108 0.05555955
-0.020463917 -0.08380047 -0.10753319 0.09617353 0.0032545768 0.055346876 0.030675031 -0.022998553
-0.0762464 0.03145617 0.027905868 0.10118669 -0.004191687 0.056221172 0.104886726 0.07567699
-0.013434088 -0.033513755 0.06421359 0.0060661826 0.061261524 0.04925658 0.0012936544 0.0054940525
0.030659882 -0.037814725 -0.06525135 0.031381704 -0.049924195 0.06756653 0.03817668 0.024741404

network_body.observation_encoder.processors.0.dense.0.bias f4 [128]
00000000: 0000 0000 0000 0000 0000 0000 0000 0000
00000010: 0000 0000 0000 0000 0000 0000 0000 0000
00000020: 0000 0000 0000 0000 0000 0000 0000 0000
00000030: 0000 0000 0000 0000 0000 0000 0000 0000
00000040: 0000 0000 0000 0000 0000 0000 0000 0000
00000050: 0000 0000 0000 0000 0000 0000 0000 0000
00000060: 0000 0000 0000 0000 0000 0000 0000 0000
00000070: 0000 0000 0000 0000 0000 0000 0000 0000
00000080: 0000 0000 0000 0000 0000 0000 0000 0000
00000090: 0000 0000 0000 0000 0000 0000 0000 0000
000000a0: 0000 0000 0000 0000 0000 0000 0000 0000
000000b0: 0000 0000 0000 0000 0000 0000 0000 0000
000000c0: 0000 0000 0000 0000 0000 0000 0000 0000
000000d0: 0000 0000 0000 0000 0000 0000 0000 0000
000000e0: 0000 0000 0000 0000 0000 0000 0000 0000
000000f0: 0000 0000 0000 0000 0000 0000 0000 0000
00000100: 0000 0000 0000 0000 0000 0000 0000 0000
00000110: 0000 0000 0000 0000 0000 0000 0000 0000
00000120: 0000 0000 0000 0000 0000 0000 0000 0000
00000130: 0000 0000 0000 0000 0000 0000 0000 0000
00000140: 0000 0000 0000 0000 0000 0000 0000 0000
00000150: 0000 0000 0000 0000 0000 0000 0000 0000
00000160: 0000 0000 0000 0000 0000 0000 0000 0000
00000170: 0000 0000 0000 0000 0000 0000 0000 0000
00000180: 0000 0000 0000 0000 0000 0000 0000 0000
00000190: 0000 0000 0000 0000 0000 0000 0000 0000
000001a0: 0000 0000 0000 0000 0000 0000 0000 0000
000001b0: 0000 0000 0000 0000 0000 0000 0000 0000
000001c0: 0000 0000 0000 0000 0000 0000 0000 0000
000001d0: 0000 0000 0000 0000 0000 0000 0000 0000
000001e0: 0000 0000 0000 0000 0000 0000 0000 0000
000001f0: 0000 0000 0000 0000 0000 0000 0000 0000
0.0 0.0 0.0 0.0 0.0 0.0 0.0 0.0
0.0 0.0 0.0 0.0 0.0 0.0 0.0 0.0
0.0 0.0 0.0 0.0 0.0 0.0 0.0 0.0
0.0 0.0 0.0 0.0 0.0 0.0 0.0 0.0
0.0 0.0 0.0 0.0 0.0 0.0 0.0 0.0
0.0 0.0 0.0 0.0 0.0 0.0 0.0 0.0
0.0 0.0 0.0 0.0 0.0 0.0 0.0 0.0
0.0 0.0 0.0 0.0 0.0 0.0 0.0 0.0
0.0 0.0 0.0 0.0 0.0 0.0 0.0 0.0
0.0 0.0 0.0 0.0 0.0 0.0 0.0 0.0
0.0 0.0 0.0 0.0 0.0 0.0 0.0 0.0
0.0 0.0 0.0 0.0 0.0 0.0 0.0 0.0
0.0 0.0 0.0 0.0 0.0 0.0 0.0 0.0
0.0 0.0 0.0 0.0 0.0 0.0 0.0 0.0
0.0 0.0 0.0 0.0 0.0 0.0 0.0 0.0
0.0 0.0 0.0 0.0 0.0 0.0 0.0 0.0

network_body.processors.0.conv_layers.0.bias f4 [16]
00000000: 0099 91bc 245d 003d c19a b8bd ee1f 8e3d
00000010: 2c99 033d 685f 03bc 9419 85bd 7b18 aebd
00000020: 1e57 8f3d a09a aa3b 2c91 533d 8e06 f73d
00000030: 3c90 803d 4239 2fbd 4883 d33c 8428 93bd
-0.017773151 0.031338826 -0.09013892 0.06939684 0.032128498 -0.008018352 -0.06499019 -0.08500763
0.06999038 0.005206421 0.05165212 0.12061797 0.062775105 -0.042779215 0.025819436 -0.07185462

network_body.processors.0.conv_layers.2.weight f4 [32, 16, 4, 4]
00000000: a0cc 00bc c8e2 3abc 3684 2e3d 7813 973c
00000010: cabb 283d 40ab 743c d00f a53c 7e63 94bc
00000020: 84e0 2a3d 9078 363d 547a ba3c 84cf e9bc
00000030: 40ee d03c 12b9 54bd 5443 53bc 40a9 51bb
00000040: ffde 56bd 823a 02bd c8ce e53c 0809 e83c
00000050: 581e 5cbc 8c8e ebbc 14f0 06bd d5b2 44bd
00000060: e12c 65bd a4eb d5bc de20 6b3d c623 563d
00000070: d013 f2bc d020 50bd 54d9 6fbd c828 a33c
00000080: c8ce 43bd 48b8 993c f835 10bd 80de 1cbc
00000090: c6d3 84bc d87c 683d 201b 843b 7884 ebbb
000000a0: d01e 523d fca5 4dbd 0711 1abd 68be 6ebd
000000b0: 3f56 0ebd e49d 793d ac38 213d 3847 35bd
000000c0: 2d68 4abd 9a30 493d a01a 1cbb 20fc 7ebc
000000d0: 0865 c43c 640b fe3c 443c bebc 2052 0abc
000000e0: 1bde 09bd 3b89 10bd e433 70bd b053 563c
000000f0: a40d 443d 60dd d2bb 84f7 0c3d 1c22 d53c
00000100: 8a92 07bd 90eb c1bc 5c08 c03c a008 cc3b
00000110: cc60 733d fc1f 84bc 30ec a83c 5c25 043d
00000120: c878 b9bc d07f 8b3b 02f2 0b3d 12e8 29bd
00000130: bedb 1dbd f04e aebc 4064 40bc 7e0d 6f3d
00000140: 4840 dabb cc3c a53c 3ae2 39bd 96fd 96bc
00000150: d275 12bd fae6 3dbd 00e6 3939 da9d 233d
00000160: aaf3 8abc ea0b 4c3d 0009 3a3b 6dea 76bd
00000170: 6ccc 9bbc e68a c5bc 4094 fd3a 4407 1d3d
00000180: 1290 623d f43d 67bc cc15 243d f8dc b23c
00000190: e09f 06bd 60df c1ba f8e3 b93c 0b23 47bd
000001a0: 8cc7 45bd a40b c83c fc00 e73c 668d 84bc
000001b0: 8ef2 9dbc e8ca 29bd c880 05bd 605c 9d3b
000001c0: 3023 45bb 804a 93bb f622 f1bc 935a 50bd
000001d0: ce48 b1bc f085 473c 5a9e 4b3d 0868 47bd
000001e0: d6fd aabc 2038 e03c 58cf 0c3c 24d9 a43c
000001f0: 42b1 2ebd 9882 1ebd 5c5e ee3c cdd4 42bd
00000200: fc9d 62bc 0006 283a 781d 203d 0098 e3b7
00000210: d4a6 0f3d 806d 05bb 8063 0b3c 22d6 55bd
00000220: 2401 29bc 479e 68bd 80ee f63c 1609 e5bc
00000230: 8cf2 d23c c284 7d3d a847 233c f058 f33b
00000240: 6448 da3c c4f9 e43c 6d72 6bbd b082 4f3c
00000250: 6f34 07bd 9203 763d d8d6 393d baae c2bc
00000260: 6254 083d c8d2 6f3c 7c69 cb3c 28e9 cabb
00000270: 2e04 163d 4ae2 c9bc dc8d 6d3d c49b 803c
00000280: b1fb 71bd 30eb 373d d0dd 50bd a017 5a3c
00000290: 30bf febc b8ef 79bc dc01 61bd d8d6 43bc
000002a0: 9895 583d 62e3 e8bc 0af4 79bd ce35 6a3d
000002b0: 5e78 1ebd 272c 17bd d6a4 61bd 60c1 2fbc
000002c0: a5f7 5bbd d0db 643d aebd 7e3d 0a4a 87bc
000002d0: a8e3 a4bc 8e08 50bd 5cdb 8abc 90f8 95bb
000002e0: 7883 fbbb e88e 04bd 7ae1 413d 98df 18bd
000002f0: 68fc b9bb 88a0 7e3d 2cbb 6fbd 5eb5 503d
00000300: f870 59bc 5468 983c 50c2 9dbc b270 4a3d
00000310: e28a 6fbd 3cb9 81bc 600d 533b 446f c73c
00000320: 4048 e8ba fcc3 383d b042 df3b 868b 7a3d
00000330: e0da 303b e0b1 a7bb 0b60 3dbd 0609 eabc
00000340: 6898 0abd 30c6 6fbd 3287 343d c89d 523c
00000350: 14c9 93bc c035 693d 7647 7abd 482b 26bc
00000360: 59f1 75bd 78a3 2c3c 0806 333c 687b 0abd
00000370: 00ba b3bc 0072 7839 80dd 773a c699 5a3d
00000380: 3e8d 1bbd 541f 6abc 75e6 17bd 61cf 4ebd
00000390: 008f 16bc 9436 7f3d b8da 623c 2cf2 25bd
000003a0: a013 b2bc 74f2 1fbd 98b4 f5bc a6c5 2d3d
000003b0: e457 763d f802 8b3c 6e4f 3b3d 864e 033d
000003c0: c0c8 253b dcca c6bc 784f e53c 45fa 73bd
000003d0: b08f 2bbd 9943 77bd 40e2 433b e07c 99ba
000003e0: f069 883c 60ba 3ebd f457 873c 582b 76bc
000003f0: be1a 0b3d 3471 6fbc cf0e 25bd c451 a7bc
-0.007861286 -0.011406608 0.042606555 0.0184419 0.041194715 0.014933407 0.020149142 -0.018113848
0.04171802 0.04454857 0.022763409 -0.028541334 0.025504231 -0.05193431 -0.01289447 -0.003199175
-0.05245876 -0.03179408 0.028052703 0.028324619 -0.013434969 -0.028754495 -0.0329438 -0.04802211
-0.055951003 -0.026113339 0.05740439 0.05228021 -0.029550463 -0.050812542 -0.05855687 0.019916907
-0.047804624 0.01876463 -0.03520772 -0.0095745325 -0.016214263 0.056759685 0.004031554 -0.0071874224
0.051298916 -0.050207123 -0.037613895 -0.058287054 -0.03475022 0.06094159 0.039360687 -0.044257373
-0.049415756 0.049118616 -0.002381958 -0.015563041 0.023973957 0.03101129 -0.023222096 -0.008442432
-0.033659082 -0.035287123 -0.058643237 0.013081476 0.04786457 -0.0064350814 0.034415737 0.026017241
-0.033098735 -0.023671895 0.023441486 0.006226614 0.059418485 -0.016128533 0.020620435 0.03226219
-0.0226406 0.00425718 0.034166344 -0.041481085 -0.03853964 -0.021277875 -0.011742651 0.058362477
-0.006660495 0.020170592 -0.045381762 -0.018431466 -0.035756893 -0.046362855 0.00017728657 0.03994546
-0.016961891 0.04981605 0.0028386712 -0.06028216 -0.019018374 -0.024114083 0.001934655 0.038337007
0.055313177 -0.014113892 0.04005985 0.021833882 -0.032867312 -0.0014791302 0.022691712 -0.048617404
-0.048286006 0.024419613 0.028198712 -0.016180705 -0.019280698 -0.041453272 -0.03259352 0.0048022717
-0.0030080788 -0.004494965 -0.029435616 -0.05086763 -0.021641161 0.012177929 0.049711563 -0.048683196
-0.020872992 0.027370512 0.0085943565 0.020123072 -0.042649515 -0.038698763 0.029097728 -0.047566224
-0.013831612 0.00064095855 0.039090604 -2.713129e-05 0.03507121 -0.0020359457 0.008507609 -0.052206166
-0.010315213 -0.05679157 0.030143023 -0.027958434 0.025750421 0.061894186 0.009965815 0.0074263737
0.026645847 0.027951129 -0.05748217 0.012665436 -0.03300899 0.060062 0.045370907 -0.023764957
0.0332836 0.0146376565 0.024830572 -0.006192345 0.03662508 -0.024644036 0.057996616 0.015699275
-0.059077922 0.044902027 -0.050992787 0.013311297 -0.031097025 -0.015254907 -0.054933414 -0.011953078
0.05287704 -0.028428737 -0.06102375 0.05718022 -0.03868901 -0.03690734 -0.05508884 -0.010727257
-0.05370297 0.055873692 0.06219261 -0.016514797 -0.020128086 -0.05078941 -0.016950302 -0.00457675
-0.0076755844 -0.03236285 0.04733417 -0.03732261 -0.005675841 0.062164813 -0.05852811 0.050954215
-0.013271563 0.018604435 -0.019257694 0.04942388 -0.05848206 -0.015835397 0.0032204017 0.024345048
-0.0017721727 0.04510878 0.0068133697 0.061168216 0.0026985928 -0.00511764 -0.04623417 -0.028568756
-0.033836752 -0.058538616 0.044074245 0.012855001 -0.018040217 0.056936026 -0.061103307 -0.010142155
-0.06004462 0.010537021 0.010926731 -0.033809096 -0.021939278 0.00023693591 0.00094553083 0.053369306
-0.037976496 -0.014289696 -0.037085015 -0.05049074 -0.009189367 0.06230791 0.013846092 -0.040514156
-0.021737874 -0.03904958 -0.02999334 0.04242482 0.060142413 0.016969189 0.045730047 0.032057308
0.0025296658 -0.024266653 0.027991995 -0.059564847 -0.041885078 -0.0603672 0.0029889494 -0.0011710189
0.016652077 -0.04656446 0.016521432 -0.015024982 0.03396105 -0.014614392 -0.040297326 -0.020424731

network_body.processors.0.conv_layers.2.bias f4 [32]
00000000: 0e7d f2bc 2816 003d c2cb 193d f8d4 063c
00000010: 0000 ef3b eeb2 5e3d 729a 31bd e0d0 873b
00000020: 1c37 3c3d bcd3 f73c 2af2 7e3d b8bd 9dbb
00000030: 48e2 143c f834 64bd 56f8 023d ba63 a4bc
00000040: 8866 f4bb d09d 8c3b f083 683c 2488 223d
00000050: 70d2 8a3b 0a1e 463d 2416 64bd 868b 333d
00000060: d087 953c d159 2abd b02a e43c 8692 42bd
00000070: 90c1 c93c c497 e4bc c43b 153d e166 1ebd
-0.029600646 0.03127113 0.037547834 0.008229487 0.007293701 0.05436986 -0.04336018 0.004144773
0.045950994 0.03025233 0.062242664 -0.004813876 0.009087153 -0.055714577 0.031975113 -0.020067085
-0.0074585117 0.0042912737 0.014191613 0.039680615 0.004236512 0.04836849 -0.055685177 0.04383423
0.018253237 -0.04158956 0.027852386 -0.047503017 0.02462843 -0.027904399 0.03643395 -0.03867233

network_body.processors.0.dense.0.weight f4 [128, 512]
00000000: 3ef6 98bd e61c bfbd 8720 3dbc adde 4d3d
00000010: 6c51 f93a aefa 563c b074 28bd 76c9 cbbd
00000020: d440 efbd fc35 1cbd b0e5 e1bc afad 79bb
00000030: a597 273b ed7e 86bd 0aa2 2ebd caa8 74bd
00000040: 3f50 e03d f440 f93c 3dcd 543d eb73 e73c
00000050: 2c08 39bd a1ff 4bbd 7de8 083e ea71 a2bb
00000060: 08fb da3b 5936 4ebc fa64 033d 097b df3a
00000070: bd2c b4bd 6c34 88bd 1850 05bd 781b 1bbc
00000080: 209a 2bbd a33f 7ebd e93d 6dbd 0706 aebd
00000090: 9ca5 ad3d 5ad7 533d 5d16 c53d d31a 903d
000000a0: 4c7b f93b 73c4 9f3d 2796 e9bc 35b7 fb3d
000000b0: c992 68bd c603 efbd 0b04 9abd 4290 40bd
000000c0: 2da3 95bc dc14 c83c 4676 0bbd fce0 00bd
000000d0: 1c04 1bbc 402e 723c f2f3 4d3a d163 9abd
000000e0: d244 493d 1f91 b43d c34b b7bd e0b7 473c
000000f0: 29b9 08be 2f45 59bd e909 1cbd caa0 eebc
00000100: c042 9d3d cb76 fd3d edcb 8abd b690 523d
00000110: 0809 063d a021 42bd 9d60 cbbc 183c e7bc
00000120: 44b2 d0bc fdf2 4f3e 6a02 0e3d 9485 1ebd
00000130: 9875 3abc 6605 f23d fbf3 f43c f0f0 ac3d
00000140: 633c bebc 7776 dabd 4f10 ae3d 767e 91bd
00000150: 894c 5b3d 846b 9ebd b771 8b3d 7417 f03d
00000160: adcf 883b 3989 7e3d a321 81bd 5690 8fbd
00000170: 47b1 22bc fa03 8bbd e52a 753c fd86 2a3d
00000180: a2bb a43c 4073 983b 6b1d bb3d 0bf0 563c
00000190: fb95 85bd b64a 1bbd 877b bb3d 440e b3bc
000001a0: f4a3 7b3c 756e 35bc e73e 823d 749c 243e
000001b0: 4138 32bd e30e f9bd 2cfe a13d e35d a6bd
000001c0: 005d 8c3d 983c b23c 0bbc cb3d 56c9 3abd
000001d0: dca0 793c 1203 313d 61f2 c0bd 06aa 12bb
000001e0: 53d5 48bd 2ff8 5fbd 4160 dcbc 77a4 a6bb
000001f0: 99b3 083c a217 87bd 6177 283d 62da 883a
00000200: 481c b53d 6cb4 50bd ef5d f73d c28f cbbd
00000210: 5620 17bd 7214 883d 9cec 03bd fe65 87bd
00000220: 4fe3 a6bd 5fee ff3c ec50 0a3d 0705 3c3e
00000230: 98c9 9e3d 4179 73bd cc2a 66bd 246b df3c
00000240: 7c66 4f3d 5a34 d03d 8ae9 223c 37cf 2b3d
00000250: a232 a93c 9a15 023b b5ea 753d b8c7 503d
00000260: 1ad4 943d 92cd 353d 9bcb 313e 4d07 a53d
00000270: 35d5 b13d 13e9 6bbc 08ab ab3d 53c9 74bd
00000280: f780 5cbb 5d11 3fbd cc4c 633d 0bc4 27bc
00000290: c801 bf3d 2bf7 1dbc 5ce3 7c3b d9ed ad3c
000002a0: 463d dc3c 3e08 973c 929b 7b3d ab67 22bd
000002b0: 2eac 2cbc c2c8 acbd 8667 5abd 5125 bdbd
000002c0: 488b 8fbd 4bd7 ee3c 7c2f ca3c 2ca6 6a3d
000002d0: 398d af3d cae4 973d bdd5 65bd 06b7 9bbc
000002e0: 8ab8 9ebd 1a22 23bc f5d8 bd3d b8c1 2fbc
000002f0: 0420 3c3d 66ce e7bc 33fc ed3c 5d67 08be
00000300: 88be d2bc 42de 9c3d e526 f13c 7a92 63bd
00000310: 50d7 c8bc 976d 663c 1ff7 b5bb e69a c5bc
00000320: 570e b8bc d69a 293c a406 b33d 0aca cbbd
00000330: 1a26 7cbd 3b05 adbd c4b6 74bc 30c0 cbbc
00000340: 8407 42bd 8aac 273e 6ef8 c0bd bfb6 ca3c
00000350: 1a22 163c 08a7 3e3d 0e88 4fbd daac 3fba
00000360: 4f7b 2bbd 2d84 9abc e32f 4f3d cc01 0a3e
00000370: 3c88 f93b b1c1 b93d 1cea 46bd 6992 633d
00000380: f2a3 a7bc 959f abbd 5c3a dcbd a1f6 c43d
00000390: bd4a 553b 68b3 623d 344a fb3c 7667 bcbc
000003a0: 1327 9cbd 2fd8 003d d99a e43c f83a cf3d
000003b0: 6b5a 89bb 2c48 663d dace d63d 8afc 9a3d
000003c0: a61a 5cbc b845 09bd 6a82 833d d4c6 c63b
000003d0: 5ded 7a3d 45c1 493d d78f a93a 7407 b43b
000003e0: 6f2a fb3c 9de3 1abd 80a2 85bd 1a8a 003d
000003f0: 507d 4cbd 5260 8a3d 275f 1c3d 7cae ca3c
-0.07468842 -0.09331684 -0.0115434 0.05026119 0.0019021458 0.01312129 -0.041126907 -0.09950535
-0.11682287 -0.03813742 -0.027575344 -0.0038097908 0.0025572565 -0.06567178 -0.042635 -0.059731282
0.10952806 0.03042648 0.051953543 0.028253516 -0.04517381 -0.049804334 0.13369937 -0.0049574273
0.0066827573 -0.0125862 0.03207872 0.0017050217 -0.08797596 -0.06650624 -0.032547086 -0.009466998
-0.041895032 -0.062072407 -0.05792037 -0.084972434 0.08478853 0.051719047 0.09623406 0.07036366
0.007613575 0.078011416 -0.028513981 0.12290803 -0.05678061 -0.116706416 -0.075203024 -0.047012575
-0.018266285 0.024424009 -0.03404834 -0.03146456 -0.009461429 0.014781535 0.000785648 -0.0753857
0.049137898 0.08816742 -0.08949997 0.012189835 -0.13351883 -0.053044494 -0.03809539 -0.029129405
0.07678747 0.123761736 -0.06777177 0.05140754 0.032723457 -0.04739535 -0.024826342 -0.028226897
-0.025475629 0.20307536 0.03467027 -0.03870161 -0.011380576 0.11817436 0.029901495 0.08444393
-0.023222154 -0.106671266 0.08499204 -0.07104199 0.053539786 -0.07735351 0.06808799 0.11723223
0.0041751475 0.062142584 -0.06305244 -0.07009952 -0.0099299615 -0.06787868 0.01496384 0.04163264
0.020109002 0.0046524107 0.091364704 0.013118754 -0.06522747 -0.037913047 0.0915442 -0.021857388
0.015358914 -0.011073698 0.06359654 0.16075307 -0.04351068 -0.121610425 0.079098076 -0.08123376
0.06853676 0.021757409 0.09947976 -0.045602165 0.015236106 0.04321582 -0.0942123 -0.0022379174
-0.049031567 -0.054680046 -0.026901366 -0.0050855237 0.008343601 -0.065963045 0.041129474 0.001044106
0.08843285 -0.050953314 0.12078463 -0.09939529 -0.036896072 0.06644525 -0.03220807 -0.0661125
-0.081488244 0.031241594 0.03376858 0.18361293 0.07753295 -0.05944181 -0.056193158 0.027272768
0.050634846 0.10166235 0.009943375 0.041945662 0.020654026 0.0019849301 0.060038287 0.050971717
0.07267018 0.0443855 0.17362826 0.08058033 0.08683244 -0.014398831 0.08382231 -0.05976231
-0.0033646205 -0.04664742 0.05549316 -0.010239611 0.093265116 -0.009641449 0.0038587665 0.021231579
0.026884686 0.018436547 0.06142766 -0.039649647 -0.010539098 -0.08436729 -0.053321384 -0.09235633
-0.07008988 0.029155394 0.024680845 0.05728738 0.08571858 0.07416685 -0.05611204 -0.01900817
-0.07750042 -0.009956861 0.09269897 -0.0107273385 0.04592897 -0.02829666 0.029050922 -0.1332068
-0.025725618 0.0765958 0.029437492 -0.055559613 -0.024516732 0.014064214 -0.005553141 -0.024121713
-0.022467775 0.010351857 0.08741501 -0.09950645 -0.061559774 -0.08448263 -0.014936153 -0.024871916
-0.04737045 0.16374412 -0.09422384 0.024745343 0.009163404 0.046546012 -0.05066686 -0.00073118287
-0.041865643 -0.018861854 0.050582778 0.13477248 0.0076151174 0.09070147 -0.048563108 0.05555955
-0.020463917 -0.08380047 -0.10753319 0.09617353 0.0032545768 0.055346876 0.030675031 -0.022998553
-0.0762464 0.03145617 0.027905868 0.10118669 -0.004191687 0.056221172 0.104886726 0.07567699
-0.013434088 -0.033513755 0.06421359 0.0060661826 0.061261524 0.04925658 0.0012936544 0.0054940525
0.030659882 -0.037814725 -0.06525135 0.031381704 -0.049924195 0.06756653 0.03817668 0.024741404

network_body.processors.0.dense.0.bias f4 [128]
00000000: 0000 0000 0000 0000 0000 0000 0000 0000
00000010: 0000 0000 0000 0000 0000 0000 0000 0000
00000020: 0000 0000 0000 0000 0000 0000 0000 0000
00000030: 0000 0000 0000 0000 0000 0000 0000 0000
00000040: 0000 0000 0000 0000 0000 0000 0000 0000
00000050: 0000 0000 0000 0000 0000 0000 0000 0000
00000060: 0000 0000 0000 0000 0000 0000 0000 0000
00000070: 0000 0000 0000 0000 0000 0000 0000 0000
00000080: 0000 0000 0000 0000 0000 0000 0000 0000
00000090: 0000 0000 0000 0000 0000 0000 0000 0000
000000a0: 0000 0000 0000 0000 0000 0000 0000 0000
000000b0: 0000 0000 0000 0000 0000 0000 0000 0000
000000c0: 0000 0000 0000 0000 0000 0000 0000 0000
000000d0: 0000 0000 0000 0000 0000 0000 0000 0000
000000e0: 0000 0000 0000 0000 0000 0000 0000 0000
000000f0: 0000 0000 0000 0000 0000 0000 0000 0000
00000100: 0000 0000 0000 0000 0000 0000 0000 0000
00000110: 0000 0000 0000 0000 0000 0000 0000 0000
00000120: 0000 0000 0000 0000 0000 0000 0000 0000
00000130: 0000 0000 0000 0000 0000 0000 0000 0000
00000140: 0000 0000 0000 0000 0000 0000 0000 0000
00000150: 0000 0000 0000 0000 0000 0000 0000 0000
00000160: 0000 0000 0000 0000 0000 0000 0000 0000
00000170: 0000 0000 0000 0000 0000 0000 0000 0000
00000180: 0000 0000 0000 0000 0000 0000 0000 0000
00000190: 0000 0000 0000 0000 0000 0000 0000 0000
000001a0: 0000 0000 0000 0000 0000 0000 0000 0000
000001b0: 0000 0000 0000 0000 0000 0000 0000 0000
000001c0: 0000 0000 0000 0000 0000 0000 0000 0000
000001d0: 0000 0000 0000 0000 0000 0000 0000 0000
000001e0: 0000 0000 0000 0000 0000 0000 0000 0000
000001f0: 0000 0000 0000 0000 0000 0000 0000 0000
0.0 0.0 0.0 0.0 0.0 0.0 0.0 0.0
0.0 0.0 0.0 0.0 0.0 0.0 0.0 0.0
0.0 0.0 0.0 0.0 0.0 0.0 0.0 0.0
0.0 0.0 0.0 0.0 0.0 0.0 0.0 0.0
0.0 0.0 0.0 0.0 0.0 0.0 0.0 0.0
0.0 0.0 0.0 0.0 0.0 0.0 0.0 0.0
0.0 0.0 0.0 0.0 0.0 0.0 0.0 0.0
0.0 0.0 0.0 0.0 0.0 0.0 0.0 0.0
0.0 0.0 0.0 0.0 0.0 0.0 0.0 0.0
0.0 0.0 0.0 0.0 0.0 0.0 0.0 0.0
0.0 0.0 0.0 0.0 0.0 0.0 0.0 0.0
0.0 0.0 0.0 0.0 0.0 0.0 0.0 0.0
0.0 0.0 0.0 0.0 0.0 0.0 0.0 0.0
0.0 0.0 0.0 0.0 0.0 0.0 0.0 0.0
0.0 0.0 0.0 0.0 0.0 0.0 0.0 0.0
0.0 0.0 0.0 0.0 0.0 0.0 0.0 0.0

network_body._body_endoder.seq_layers.0.weight f4 [128, 128]
00000000: 1f4d d4ba f264 bcbd 0202 863d 3b27 8abd
00000010: ab42 aa3b bd77 853d 8ffc 6d3d 19fa 1c3d
00000020: 6fa0 5bbc 7be7 c3bc 6e1e 693d 3934 673c
00000030: d4c0 94bc e569 bbbd 70e7 8f3c 260e 8b3d
00000040: d0af db3d 39da 9c3d 6aef 8bbc affa 2a3d
00000050: f18c fcbb e66c 753c e62d 86bc bc8c 92bc
00000060: a6c2 cf3d 634b 0dbe 9ae8 933d 1dce 323e
00000070: 2ab6 2a3e 7c5c 5abe 148c 583d feed 01bd
00000080: b2f4 a43c 9c31 603b f4ee 89bd 01ec 563d
00000090: 1b5c c3bd 3eea 8f3c 05eb e8bd 9e68 0fbd
000000a0: dcab f23b 789c 16bd 4d8c cf3c a441 22bc
000000b0: 0358 91bb 7326 06be 9108 173e edc7 573d
000000c0: e960 c73c fd1b 1d3e 6f4f 32be 9369 1f3e
000000d0: 1681 02be f3ef 0abd bea9 ebbd 96f9 0f3d
000000e0: 225c 47bd 2ba6 353c 9587 143c 30ca cf3d
000000f0: 4033 d7bd 80b4 0f3e de8a 8e3b da97 943b
00000100: e8e7 87bd f173 84bd d339 853d 440b 09bd
00000110: f9f4 dabd 0b00 5c3c fdbc 3e3d e5aa 61bd
00000120: 4818 15bd 53c9 9ebd d83d 633d 43f7 2abd
00000130: 85cd ddbc f2e9 0abe 98ae b63d 83a8 23be
00000140: e526 ec3c 8150 6c3e 1ff7 1ebe f28c b43c
00000150: 4451 9d3d c901 8b3d 5f7c 5d3d 31bd 85bb
00000160: 2739 c1bd cbf4 d73d ba3c a2bd d8fa c63b
00000170: 6fa7 593c 08f5 6abd 88c9 da3d 29ce 37bc
00000180: 431f db3d 1c1b a4bb fc4a 82bd 20ff 6f3d
00000190: a2ae 0e3e fc1d 753d fed3 c4bd d260 3d3e
000001a0: f694 e13d 1175 ffbd 85e6 08bb f7d3 2d3c
000001b0: e9f3 ad3d 166c fabd 3477 893d 9dac 40bb
000001c0: 5c0b 0d3e 7cef 923d b4cb 043e 315b 633d
000001d0: 9f1f db3d 8ce2 013e 4581 fa3b 991f a53d
000001e0: 5497 54bc 1e26 af3d d1f1 0bbc a46c 8ebb
000001f0: dbc8 47bd 1e42 6bbc a21a f43d 1bc7 853d
00000200: a02d 243d 776b 903d a285 f93d f642 a2bd
00000210: b87c 0cbd cc12 59bd 29ad 643d e601 0dbd
00000220: 1d16 9b3d 2b84 4dbc b367 0f3e f7ae 983d
00000230: 7603 133e 337e b2bc e816 8bbc 9a49 873b
00000240: a852 d73b f002 85bc 00d6 f5bc 23ce 8d3d
00000250: 5008 713d d48b aabd 5a5d 30be 2b41 de3d
00000260: a45a 243d 7b40 e23d 8751 db3d 6931 babb
00000270: 8966 e3bd 4028 98bd 467f 463d bf24 a23d
00000280: 865d 6ebc 553f 27be 9308 e23d db74 e8bb
00000290: 49f3 3fbc f533 16bc 8f4e 11be 8202 ed3d
000002a0: ab6e adbd aa2b 95bd c39f 6fbd 3b3a 433d
000002b0: e4bd 23bd 9233 ca3d 9c63 753d a5ee e33c
000002c0: e988 c5bd 3b59 1bbd 9a1e 94bd 67c3 c1bd
000002d0: 4b54 033e 93f3 8abd 7196 6abd 5857 8abd
000002e0: 738e e53d 25d0 5d3e beb5 06be 6aa3 f03d
000002f0: d623 4bbe 78a3 f8bc 3a38 723d f064 abbc
00000300: da95 cd3d cf18 96bd 2d61 24be 2c1e 89be
00000310: 6b08 47bc 25d5 ccbd b3dd 4a3d 27a0 c8bd
00000320: 343a 6b3e 0dba f0bc e2c8 f23b 3d50 18bd
00000330: 6ae1 aaba 2188 c53c 4615 1dbd 411c 583d
00000340: 7ada febc 1a71 1339 6f6c e73c 1fbd d33c
00000350: 86dc 80bd de96 3a3d ef0e 8d3b ddb2 913c
00000360: d88e 44bb feef 993d 2f4e 613d 0b18 133c
00000370: 3810 27be 365c 8a3c d5c4 3c3d 3861 afbd
00000380: 6ccf 8bbd af91 6c3e 9e45 14bd 3b38 aebd
00000390: 8694 0c3e fb55 473d 955d c93c 804d 4c3c
000003a0: 7aed 85bd c3b8 ed3d 7581 97bd 9a29 f4bd
000003b0: efdf a5bc 4fbd 813d de8c c7bd a7d6 733d
000003c0: 8865 ba3d 59ef a8bd c1fb 223e 6b84 14bd
000003d0: 7188 fb3c 5159 92bc a895 44bd 0729 ac3b
000003e0: 1de5 203c 5b5e adbd cdd3 13bd c022 9e3d
000003f0: 0926 6fbd e6bd 933d cffe 3bbe 916a 65bd
-0.00161973 -0.09198941 0.06543352 -0.06745764 0.0051959357 0.06516979 0.058102187 0.03832445
-0.01340495 -0.02391409 0.056913786 0.014111572 -0.018158354 -0.09151057 0.017566413 0.06789808
0.10726893 0.0765881 -0.017081935 0.041742977 -0.007707231 0.014979577 -0.016379308 -0.017889373
0.10144548 -0.13798289 0.072220996 0.17461438 0.16671053 -0.21324342 0.052867964 -0.031721108
0.020136211 0.0034209257 -0.0673503 0.052471165 -0.09539052 0.01756775 -0.113729514 -0.03501188
0.007405741 -0.036770314 0.025335455 -0.009903345 -0.0044355406 -0.13100605 0.14749362 0.0526809
0.024338203 0.15342708 -0.17413114 0.15567617 -0.12744555 -0.03392024 -0.11506985 0.035150133
-0.04867185 0.011086981 0.009065528 0.10145986 -0.10507822 0.14033699 0.0043500504 0.0045347037
-0.066360295 -0.064674266 0.0650517 -0.03345801 -0.10691256 0.013427745 0.046566952 -0.05509462
-0.03640011 -0.07753243 0.0554789 -0.041739713 -0.027075538 -0.13565806 0.0892002 -0.15982251
0.02882714 0.23077585 -0.15523957 0.022039864 0.07681516 0.0678745 0.054073688 -0.0040813913
-0.09434729 0.105447374 -0.07921739 0.0060723834 0.013284548 -0.057362586 0.1068297 -0.011218586
0.10699322 -0.0050081145 -0.063619584 0.058592916 0.13933805 0.05984305 -0.09610747 0.18493965
0.1101474 -0.124735005 -0.0020889353 0.010609618 0.08493788 -0.12227647 0.06712189 -0.002939976
0.13773865 0.07174584 0.12968332 0.05550689 0.106993906 0.12684077 0.0076448047 0.080626674
-0.012975533 0.08552192 -0.00854154 -0.004346447 -0.048775535 -0.014359025 0.11919142 0.06532117
0.040082574 0.07051747 0.121836916 -0.07922928 -0.03429863 -0.05299644 0.0558292 -0.03442564
0.07572577 -0.012543718 0.14004402 0.07455247 0.14356789 -0.021788692 -0.016978696 0.004128647
0.0065711327 -0.016236752 -0.03000927 0.06924083 0.058845818 -0.08327451 -0.17223111 0.108522736
0.040125504 0.11047455 0.107089095 -0.0056821597 -0.111035414 -0.07429552 0.04846122 0.07917165
-0.014548665 -0.16332753 0.11036792 -0.0070940084 -0.011715719 -0.009167661 -0.14190124 0.11572744
-0.08468374 -0.07283719 -0.05850197 0.047662955 -0.039976016 0.098731175 0.059909448 0.027823756
-0.09645254 -0.037926894 -0.07232399 -0.09461098 0.12825124 -0.06784739 -0.05727238 -0.06754941
0.11208811 0.21661432 -0.13155267 0.11749919 -0.19837889 -0.030351385 0.059135653 -0.020922154
0.100383475 -0.073289506 -0.16052695 -0.26780832 -0.012148003 -0.100015916 0.049527835 -0.09796172
0.22971421 -0.02938559 0.007409201 -0.037185896 -0.0013037149 0.024112763 -0.038350366 0.05276132
-0.031110037 0.00014061146 0.028249947 0.025847016 -0.062920615 0.045554034 0.0043047587 0.017785484
-0.0029992368 0.07516478 0.055006202 0.0089779 -0.1631478 0.016889673 0.04608615 -0.08563465
-0.06826672 0.23102449 -0.036199205 -0.08506819 0.13728532 0.04866598 0.024580756 0.012469649
-0.06539436 0.11607506 -0.07397739 -0.11921997 -0.020248381 0.06334936 -0.09743665 0.05953088
0.09101397 -0.08248777 0.15916349 -0.036259096 0.030704709 -0.017864855 -0.047994286 0.0052539143
0.00982025 -0.084652625 -0.03609066 0.07721472 -0.058385883 0.07213955 -0.1835892 -0.056009833

network_body._body_endoder.seq_layers.0.bias f4 [128]
00000000: 0000 0000 0000 0000 0000 0000 0000 0000
00000010: 0000 0000 0000 0000 0000 0000 0000 0000
00000020: 0000 0000 0000 0000 0000 0000 0000 0000
00000030: 0000 0000 0000 0000 0000 0000 0000 0000
00000040: 0000 0000 0000 0000 0000 0000 0000 0000
00000050: 0000 0000 0000 0000 0000 0000 0000 0000
00000060: 0000 0000 0000 0000 0000 0000 0000 0000
00000070: 0000 0000 0000 0000 0000 0000 0000 0000
00000080: 0000 0000 0000 0000 0000 0000 0000 0000
00000090: 0000 0000 0000 0000 0000 0000 0000 0000
000000a0: 0000 0000 0000 0000 0000 0000 0000 0000
000000b0: 0000 0000 0000 0000 0000 0000 0000 0000
000000c0: 0000 0000 0000 0000 0000 0000 0000 0000
000000d0: 0000 0000 0000 0000 0000 0000 0000 0000
000000e0: 0000 0000 0000 0000 0000 0000 0000 0000
000000f0: 0000 0000 0000 0000 0000 0000 0000 0000
00000100: 0000 0000 0000 0000 0000 0000 0000 0000
00000110: 0000 0000 0000 0000 0000 0000 0000 0000
00000120: 0000 0000 0000 0000 0000 0000 0000 0000
00000130: 0000 0000 0000 0000 0000 0000 0000 0000
00000140: 0000 0000 0000 0000 0000 0000 0000 0000
00000150: 0000 0000 0000 0000 0000 0000 0000 0000
00000160: 0000 0000 0000 0000 0000 0000 0000 0000
00000170: 0000 0000 0000 0000 0000 0000 0000 0000
00000180: 0000 0000 0000 0000 0000 0000 0000 0000
00000190: 0000 0000 0000 0000 0000 0000 0000 0000
000001a0: 0000 0000 0000 0000 0000 0000 0000 0000
000001b0: 0000 0000 0000 0000 0000 0000 0000 0000
000001c0: 0000 0000 0000 0000 0000 0000 0000 0000
000001d0: 0000 0000 0000 0000 0000 0000 0000 0000
000001e0: 0000 0000 0000 0000 0000 0000 0000 0000
000001f0: 0000 0000 0000 0000 0000 0000 0000 0000
0.0 0.0 0.0 0.0 0.0 0.0 0.0 0.0
0.0 0.0 0.0 0.0 0.0 0.0 0.0 0.0
0.0 0.0 0.0 0.0 0.0 0.0 0.0 0.0
0.0 0.0 0.0 0.0 0.0 0.0 0.0 0.0
0.0 0.0 0.0 0.0 0.0 0.0 0.0 0.0
0.0 0.0 0.0 0.0 0.0 0.0 0.0 0.0
0.0 0.0 0.0 0.0 0.0 0.0 0.0 0.0
0.0 0.0 0.0 0.0 0.0 0.0 0.0 0.0
0.0 0.0 0.0 0.0 0.0 0.0 0.0 0.0
0.0 0.0 0.0 0.0 0.0 0.0 0.0 0.0
0.0 0.0 0.0 0.0 0.0 0.0 0.0 0.0
0.0 0.0 0.0 0.0 0.0 0.0 0.0 0.0
0.0 0.0 0.0 0.0 0.0 0.0 0.0 0.0
0.0 0.0 0.0 0.0 0.0 0.0 0.0 0.0
0.0 0.0 0.0 0.0 0.0 0.0 0.0 0.0
0.0 0.0 0.0 0.0 0.0 0.0 0.0 0.0

network_body._body_endoder.seq_layers.2.weight f4 [128, 128]
00000000: 11e7 d1bc b4dd 3ebe c886 cbbd 8884 46bd
00000010: 2de3 ce3d 781a 8c3d e1b7 533c 8619 b9bd
00000020: d445 f33d 506a 49bd 8e01 94bd e5b3 c3bb
00000030: 1e84 d8bd 8bff f3bc 544e f6bd 99fb 15bd
00000040: 99e0 3ebe 66b0 58bc 4719 2d3d ebc1 f63b
00000050: 37a4 8e3d 089d 29bd 32b4 173c db3e bbbd
00000060: 24fd a73d 5257 2b3e bc20 25bd 5457 e4bd
00000070: 3c13 d8bc c04b 2b3d 851b a1bd d98b 0dbe
00000080: a03a ffbd d16c c53d 57c0 a2bc d993 50bd
00000090: a18a 3e3d a9a9 2d3e 4b51 333c 1b85 dfbc
000000a0: 11dd 0c3e e5d6 0bbe 4d76 ae3d 8b1c ae3d
000000b0: 3070 c03d 0dee 553e 661e 383e 4f04 93bd
000000c0: 2e08 173e 458a c23c f769 273c a810 0bbe
000000d0: 1dce 90bc 0554 cc3d 34bb d03d f781 ba3d
000000e0: 073d ac3b 08db dabd cdac 433d d00b 43bc
000000f0: 0ca8 27be b579 013b 754e fd3d abfe 39bd
00000100: 2a0e cebd b91d febd 635f d9bd 6e79 7a3d
00000110: 8bfe 94bd 3eff 213e e685 bebd e884 30bd
00000120: f9eb c93c b1ba af3d efdc e43c 9ca0 cf3d
00000130: fd22 c63b 4237 253e f954 c7bc de07 2e3d
00000140: b876 653d b59f 203d e1da 56bd df32 7bbd
00000150: ca98 b5bc 2816 b0bd 34fa 7cbb f5f6 ca3c
00000160: 4689 283d 11ef 8ebc 4631 783d 9a6a 9fbd
00000170: 1f5e f3bd 7cb2 8cbd befc 083d a87b 0d3e
00000180: 0d43 41bd 5538 8bbd 7364 b8bd 6e7f 08bd
00000190: 1d5e ccbd 7c14 cfbd 97b5 adbc 3f26 43bd
000001a0: 58f6 7abc 5d98 0dbe 7316 58bd f326 c0bb
000001b0: 5a0a f63d b72b 393e 715d 993d c7ef e3bd
000001c0: 8d1d 263c 141e f03d d2c7 4f3d 2a4c 763d
000001d0: edf1 4bbc dcfb 1a3d 7801 1abd 6056 71be
000001e0: 11eb 173d e3e3 9fbd f966 30bd 97a5 5a3d
000001f0: c58f 343e 2744 b9bd 55a7 333d 9810 90bd
00000200: 0966 613d 8722 c93d bd59 1fbe c434 9eb8
00000210: 1bfb b73d 905f 07be 7ef3 4ebd 60d3 83bd
00000220: 73ad 05bc d1b1 acbd 4a00 91bd aee5 bb3c
00000230: f6aa 7f3d 3c02 14bd f3ba e8bc be6c c4bd
00000240: 4edb a23c d0a4 5f3d 5ab3 87bd 703d 92bd
00000250: af00 213d c832 1a3d 3c57 e3bd bc87 023d
00000260: b417 403e 6df6 6d3c 77c8 5fbd 537d d03b
00000270: b837 aabd 5487 32bd 568c aebd e4dc 093d
00000280: bc72 f1bd 929a bfba c9b3 ef3c f67e b23b
00000290: 4237 533e 094c ecbc f7bc e1bb 2540 4ebe
000002a0: bd13 e03c 8f35 04bc 596e 39bd 28e0 163e
000002b0: 2061 f1bd c900 d03d 8a5e 98bd 3d4b e93d
000002c0: 2752 83bc aa4b a13d 8149 7f3d 492a 27be
000002d0: 6d97 1e3e ce80 bcbc 91fc c1bd 5719 993c
000002e0: d0a4 52be 49df 243d 29da e53d 0fe9 983d
000002f0: 8070 8e3d d0b4 2f3d e1f9 2cbd 0dc9 f93d
00000300: a800 c7bd 395a 153e d55f ba3d 5661 f2bd
00000310: 8a56 1abe ba4c 13be 1965 9cbd 2713 3dbe
00000320: b609 ff3d a625 d23c 4e5c e33c a980 c6bd
00000330: 8d69 43bb 8a30 32be 072d 0f3e faff aebd
00000340: 39bf b33c 2cbe a5bd a368 20bc 0dad 453e
00000350: ac7a 083e 705d b13d 3aba f33c 9f9a 40be
00000360: 0f90 67bd f907 973c 5953 12be f471 9c3a
00000370: a6f9 b33d c555 6eb9 a3e4 54bd 294f eb3d
00000380: 1766 8bbc 7c75 5fbd 42d8 2c3d 3c50 ee3d
00000390: 54cf 243e ccda 9ebd d758 b0bd e45c 45bd
000003a0: 677d b53d ce33 713d 36d7 d33c 4ea8 63bd
000003b0: 2a93 b23c 8293 0ebd b5dd 82bc 3d39 2b3d
000003c0: 5ccd 013e eccb 0bbe 44c7 b3bd a0fd da3c
000003d0: 0520 c93d 48ab 913c e2dc 923d 15dc 643d
000003e0: 41e2 a63d f1cf 7dbd 78be f03c b9e5 1a3d
000003f0: b2b9 8e3d 6b7c 9a3d 3aa6 2e3c 19cd 0c3d
-0.025622876 -0.1863926 -0.09937817 -0.048466235 0.10101924 0.06840986 0.012922258 -0.09038071
0.11878553 -0.049173653 -0.07226859 -0.005972373 -0.10572074 -0.029784938 -0.12026659 -0.036616895
-0.18640365 -0.01322565 0.042260434 0.007530441 0.06964915 -0.041409522 0.0092592705 -0.09142848
0.082025796 0.16732529 -0.04031442 -0.11149469 -0.02637636 0.041820288 -0.07866577 -0.13822879
-0.12462354 0.09639896 -0.019867105 -0.05092225 0.046518926 0.16959251 0.010944675 -0.02728515
0.13756205 -0.13656195 0.08518658 0.08501538 0.09396398 0.2089159 0.17980346 -0.07178556
0.14749214 0.023747573 0.010218135 -0.13580573 -0.017676407 0.09976963 0.10191956 0.0910682
0.0052562985 -0.10686308 0.047772218 -0.011904672 -0.16372699 0.001975638 0.1236848 -0.045408886
-0.10061295 -0.12408013 -0.10613897 0.06115096 -0.07275113 0.15820023 -0.09302883 -0.0430955
0.024648653 0.085805304 0.02793738 0.10138056 0.0060466514 0.1613436 -0.02433251 0.04248797
0.056021422 0.03921481 -0.052454833 -0.06132781 -0.022167582 -0.08597976 -0.003860128 0.024775961
0.04114654 -0.01744798 0.060593866 -0.077840045 -0.118831865 -0.06869981 0.03344416 0.13816702
-0.047183085 -0.06797854 -0.09003534 -0.03332465 -0.09978888 -0.10111329 -0.021204753 -0.047643896
-0.015317522 -0.13827653 -0.052755784 -0.005864018 0.12013693 0.18083082 0.07488526 -0.11129718
0.010138881 0.11724487 0.050727673 0.06013123 -0.012447816 0.037837848 -0.037599057 -0.23568106
0.03708941 -0.07807138 -0.043066952 0.053380575 0.17632969 -0.09046202 0.043860752 -0.07034415
0.05502895 0.09821039 -0.15561576 -7.5438555e-05 0.089834414 -0.13220048 -0.05052518 -0.06436801
-0.008159029 -0.08432353 -0.07080133 0.022936668 0.0624189 -0.036134943 -0.028409457 -0.095910534
0.019879963 0.054600537 -0.066260055 -0.071406245 0.039307293 0.037646085 -0.11100623 0.031867728
0.18759042 0.0145240845 -0.054634538 0.006362596 -0.08311409 -0.04358609 -0.08522861 0.033657923
-0.11789462 -0.0014618209 0.029260533 0.005447264 0.20626548 -0.02884485 -0.0068889814 -0.20141657
0.027353162 -0.00806941 -0.04527125 0.14733946 -0.11786103 0.101564 -0.07439907 0.11391304
-0.016030384 0.0787576 0.06232596 -0.16324724 0.15487452 -0.023010638 -0.09472001 0.01868884
-0.20570683 0.040252004 0.112232514 0.074663274 0.069550514 0.042897046 -0.04223049 0.121965505
-0.09716922 0.14585198 0.0910031 -0.118349716 -0.15072075 -0.14384738 -0.0763647 -0.18464337
0.12453024 0.025652718 0.027753975 -0.09692509 -0.0029817552 -0.17401329 0.1398202 -0.085449174
0.021941768 -0.08092913 -0.009790572 0.19304295 0.13328046 0.086604 0.029751886 -0.18808983
-0.05653387 0.018436419 -0.14289607 0.0011935816 0.08787851 -0.000227294 -0.051975857 0.11489708
-0.017016454 -0.0545554 0.042198427 0.11636397 0.16094714 -0.07756576 -0.08610695 -0.04818429
0.08861809 0.058887295 0.025859457 -0.05558043 0.021798689 -0.034808643 -0.015974859 0.041802634
0.12675995 -0.13652009 -0.08778241 0.026732266 0.0982056 0.017781869 0.07171036 0.05587395
0.08148623 -0.061965887 0.029387698 0.037816737 0.06969012 0.07543262 0.010659749 0.034375284

network_body._body_endoder.seq_layers.2.bias f4 [128]
00000000: 0000 0000 0000 0000 0000 0000 0000 0000
00000010: 0000 0000 0000 0000 0000 0000 0000 0000
00000020: 0000 0000 0000 0000 0000 0000 0000 0000
00000030: 0000 0000 0000 0000 0000 0000 0000 0000
00000040: 0000 0000 0000 0000 0000 0000 0000 0000
00000050: 0000 0000 0000 0000 0000 0000 0000 0000
00000060: 0000 0000 0000 0000 0000 0000 0000 0000
00000070: 0000 0000 0000 0000 0000 0000 0000 0000
00000080: 0000 0000 0000 0000 0000 0000 0000 0000
00000090: 0000 0000 0000 0000 0000 0000 0000 0000
000000a0: 0000 0000 0000 0000 0000 0000 0000 0000
000000b0: 0000 0000 0000 0000 0000 0000 0000 0000
000000c0: 0000 0000 0000 0000 0000 0000 0000 0000
000000d0: 0000 0000 0000 0000 0000 0000 0000 0000
000000e0: 0000 0000 0000 0000 0000 0000 0000 0000
000000f0: 0000 0000 0000 0000 0000 0000 0000 0000
00000100: 0000 0000 0000 0000 0000 0000 0000 0000
00000110: 0000 0000 0000 0000 0000 0000 0000 0000
00000120: 0000 0000 0000 0000 0000 0000 0000 0000
00000130: 0000 0000 0000 0000 0000 0000 0000 0000
00000140: 0000 0000 0000 0000 0000 0000 0000 0000
00000150: 0000 0000 0000 0000 0000 0000 0000 0000
00000160: 0000 0000 0000 0000 0000 0000 0000 0000
00000170: 0000 0000 0000 0000 0000 0000 0000 0000
00000180: 0000 0000 0000 0000 0000 0000 0000 0000
00000190: 0000 0000 0000 0000 0000 0000 0000 0000
000001a0: 0000 0000 0000 0000 0000 0000 0000 0000
000001b0: 0000 0000 0000 0000 0000 0000 0000 0000
000001c0: 0000 0000 0000 0000 0000 0000 0000 0000
000001d0: 0000 0000 0000 0000 0000 0000 0000 0000
000001e0: 0000 0000 0000 0000 0000 0000 0000 0000
000001f0: 0000 0000 0000 0000 0000 0000 0000 0000
0.0 0.0 0.0 0.0 0.0 0.0 0.0 0.0
0.0 0.0 0.0 0.0 0.0 0.0 0.0 0.0
0.0 0.0 0.0 0.0 0.0 0.0 0.0 0.0
0.0 0.0 0.0 0.0 0.0 0.0 0.0 0.0
0.0 0.0 0.0 0.0 0.0 0.0 0.0 0.0
0.0 0.0 0.0 0.0 0.0 0.0 0.0 0.0
0.0 0.0 0.0 0.0 0.0 0.0 0.0 0.0
0.0 0.0 0.0 0.0 0.0 0.0 0.0 0.0
0.0 0.0 0.0 0.0 0.0 0.0 0.0 0.0
0.0 0.0 0.0 0.0 0.0 0.0 0.0 0.0
0.0 0.0 0.0 0.0 0.0 0.0 0.0 0.0
0.0 0.0 0.0 0.0 0.0 0.0 0.0 0.0
0.0 0.0 0.0 0.0 0.0 0.0 0.0 0.0
0.0 0.0 0.0 0.0 0.0 0.0 0.0 0.0
0.0 0.0 0.0 0.0 0.0 0.0 0.0 0.0
0.0 0.0 0.0 0.0 0.0 0.0 0.0 0.0

action_model._continuous_distribution.log_sigma f4 [1, 2]
00000000: 0000 0000 0000 0000
0.0 0.0
