CS455_PR1/results/ppo/ShootTargetAgent/ShootTargetAgent-1459.pt (torch, 935865 bytes, 37 tensors)

discrete_act_size_vector f4 [1, 2]
000000 00 00 48 42 00 00 48 42
       50.0 50.0

network_body.observation_encoder.processors.0.conv_layers.0.bias f4 [16]
000000 42 e1 45 bd e0 47 65 bc 88 f6 b5 3c b8 d6 62 bc
       -0.048310526 -0.013994187 0.022212282 -0.013845138
000010 74 7e 05 3d c8 c6 69 3d 40 c7 94 bd e6 81 ed bd
       0.0325913 0.05707434 -0.072645664 -0.11597042
000020 72 0c f8 3d 70 0a 46 bd 31 1f e0 bd 10 93 8a 3d
       0.12111749 -0.048349798 -0.10943449 0.06766331
000030 e8 28 d2 3c fa 08 a7 3d d2 f0 a6 3d 00 3d ae b9
       0.025654271 0.08156009 0.081514016 -0.00033233315

network_body.observation_encoder.processors.0.conv_layers.2.weight f4 [32, 16, 4, 4]
000000 86 6b 15 3d 4e 1a 49 bd 88 c1 f9 bc 1c d0 e5 bc
       0.036479495 -0.04909735 -0.03048779 -0.028053336
000010 10 62 2d 3c 0e b9 40 3d d0 24 80 3b 5a 8d 38 bd
       0.010582462 0.047051482 0.0039106384 -0.04505668
000020 68 14 96 3c e8 da b2 3c 04 f0 94 3c 5a c1 25 3d
       0.018320277 0.021832898 0.018180855 0.040467598
000030 86 a6 68 3d 8c 0c 2c bd da 03 02 3d f0 bb 07 3d
       0.056799434 -0.042004153 0.031741954 0.033138216
000040 14 63 36 bd fd a3 7b bd 38 04 22 3c 7e d9 24 3d
       -0.044528082 -0.06143569 0.009888701 0.04024648
000050 aa a9 21 3d 2e 02 74 3d 1e f3 6e 3d 10 dc 90 bc
       0.039468445 0.05957239 0.058337323 -0.017683059
000060 2a d1 a1 bc 86 88 1b bd 34 a8 2d 3d 04 49 90 3c
       -0.019753058 -0.037971996 0.04239674 0.017612942
000070 f0 c5 7e 3c 2e 59 7c bd 28 d2 88 3c 5a 45 0e 3d
       0.015550122 -0.061608486 0.016701773 0.034734108
000080 44 63 c9 3c 1c 05 39 3d e0 4e ee 3b 80 99 fd bc
       0.024583466 0.04517089 0.007272586 -0.030956984
000090 7c 54 7a 3d a1 b8 5a bd 68 6d 84 bc ea 90 c6 bc
       0.061115727 -0.053398732 -0.01616545 -0.024239022
0000a0 5c 35 94 3c 58 b5 d1 3c b0 19 36 bc 38 11 0b 3c
       0.01809185 0.025599167 -0.011114523 0.008487992
0000b0 ce cc aa bc 62 c2 6b 3d e6 24 74 bd ed 01 67 bd
       -0.020849612 0.057558425 -0.0596055 -0.05639832
0000c0 0e 46 08 3d b6 b7 54 3d c0 17 65 3c 0e 07 0a bd
       0.033269934 0.051933013 0.013982713 -0.033698134
0000d0 d6 85 4b 3d 00 1e 7d 3d 20 20 44 3c 0a 67 4b 3d
       0.049688183 0.06179619 0.01197055 0.049658813
0000e0 12 17 53 3d 40 e2 2f ba 21 71 31 bd 10 db 27 3d
       0.051535673 -0.0006709434 -0.04332078 0.0409804
0000f0 b4 be 7f 3d d0 e7 02 bd 36 e0 02 bd 10 95 cf 3b
       0.062437728 -0.031959355 -0.031952105 0.0063349083
000100 80 d6 ba bb 5f 83 0c bd 38 9a 78 3c d0 0a ab 3c
       -0.00570184 -0.034304973 0.015173487 0.02087918
000110 bc 50 72 bc d4 53 9b 3c 12 b5 4e 3d 5c 2c 6a 3d
       -0.014789756 0.01896087 0.05046565 0.05717121
000120 c4 55 79 3d 2c 97 7c bd 20 c5 91 bc 18 06 fb bb
       0.060872808 -0.061667606 -0.017794192 -0.0076606385
000130 4c 3a 19 3d a4 41 88 3c 26 6f 22 3d b4 45 45 bc
       0.03740911 0.016632862 0.03965678 -0.012040544
000140 ec 95 79 bc 14 41 be bc 50 cc 77 bd c4 57 e5 bc
       -0.015233498 -0.023224391 -0.060497582 -0.027995951
000150 c0 29 83 3a c0 0d a3 3a 2b 55 26 bd c2 88 11 3d
       0.0010006949 0.0012440011 -0.040608566 0.035530813
000160 ce a6 72 3d 78 56 7a 3c 48 22 60 bd b4 9c 9a 3c
       0.05924111 0.015279405 -0.054720193 0.01887355
000170 b7 e1 3d bd 80 f4 ac bc 1c b1 fe 3c c8 01 b0 bc
       -0.046357837 -0.02111268 0.031090312 -0.021485224
000180 e0 f4 03 bb c8 0e a8 bb fd da 65 bd c0 b0 0b 3d
       -0.002013497 -0.005128715 -0.056117047 0.03410411
000190 b6 1b 6a 3d 8a f1 7c bd 60 f6 ff ba 53 f4 47 bd
       0.057155333 -0.061753787 -0.0019528382 -0.04881699
0001a0 98 56 51 bd a0 73 68 bc 3e 13 90 bc e2 29 fd bc
       -0.051107973 -0.014187723 -0.0175873 -0.03090376
0001b0 8c 44 e2 bc 17 41 03 bd 42 01 2a 3d 98 84 1a 3d
       -0.027620576 -0.032044496 0.041505106 0.037724108
0001c0 7c 89 ce bc 24 04 28 3d ec b7 d6 3c 80 ad 02 bd
       -0.025212042 0.041019574 0.026210748 -0.031903744
0001d0 47 c3 68 bd d4 f7 1c 3d cc 77 e1 3c 62 d4 3f 3d
       -0.056826856 0.038322285 0.027522944 0.046833403
0001e0 94 34 ab 3c 38 9d 4a bc 3a 9f 60 3d 58 67 4a bc
       0.020899095 -0.012366585 0.05483935 -0.012353741
0001f0 80 15 a7 3c 00 e2 2b 39 b6 e7 68 3d d8 56 52 bd
       0.020395994 0.00016392022 0.0568616 -0.051352352
000200 e4 33 67 3d e0 69 0c 3b 6c 46 3e 3d d0 e7 1f bd
       0.05644597 0.002142541 0.04645388 -0.039039433
000210 58 c8 78 bc 44 ef ad 3c 98 eb 76 3d d5 96 5f bd
       -0.015184484 0.021232255 0.060283273 -0.054587204
000220 d0 51 55 bd e2 3b a7 bc f8 81 51 3d 6c 9f 76 bd
       -0.052079976 -0.020414297 0.05114934 -0.06021063
000230 a8 7d 1c 3c e0 2f f9 3c e4 3b 8c 3c c8 25 0c 3c
       0.009551443 0.030418336 0.017118402 0.00855393
000240 bc eb 70 bc b6 fc 13 3d 8a 14 48 3d 2e 37 65 3d
       -0.014704641 0.036129676 0.048847713 0.055960827
000250 e2 28 2a bd dd b2 4c bd 34 f7 1b 3d 00 4d a8 3b
       -0.041542895 -0.049975265 0.03807755 0.0051361322
000260 e0 f5 aa bc c0 f1 b9 3c 98 6b 1b bc 00 a5 c7 3b
       -0.020869195 0.022698283 -0.009486102 0.0060926676
000270 18 63 15 3d f0 c1 ed bc 00 06 ae 3b 20 4e 00 bd
       0.036471456 -0.02902314 0.005310774 -0.031324506
000280 88 ba 4b bc 34 27 9e 3c 4a b6 e8 bc f8 21 17 bd
       -0.012434609 0.019305803 -0.028407235 -0.03689763
000290 84 c0 09 bd e4 3d ea 3c a4 67 1d 3d c6 36 c2 bc
       -0.033630863 0.028593965 0.038428918 -0.023707759
0002a0 42 7e 4a 3d c8 bd 1c 3d d6 15 6c bd 00 af 99 bc
       0.049436815 0.038266927 -0.057638012 -0.018760204
0002b0 fd 08 7e bd d0 64 5a 3c 0e 69 6e 3d 54 0d f1 3c
       -0.06202029 0.0133297 0.058205657 0.0294253
0002c0 ea 0b 4f 3d 52 75 0e 3d 14 65 a6 3c 36 31 a8 bc
       0.05054847 0.034779854 0.02031187 -0.020531278
0002d0 20 d8 e7 3b 88 03 63 3d b0 8a e6 bc fa b6 bb bc
       0.0070753247 0.05542329 -0.028142303 -0.022914398
0002e0 21 62 78 bd cc c6 f6 3c 58 b9 d9 bb 6c 4f b6 3c
       -0.060640458 0.03012409 -0.006644409 0.022254668
0002f0 94 5d 07 bc d8 a4 0b bd 1c 9e 32 3d 5a e2 0c 3d
       -0.008262057 -0.034092754 0.043607816 0.034395553
000300 5c ac eb 3c 9c c4 b2 bc 6a 71 d4 bc a2 03 a8 bc
       0.02876871 -0.021822266 -0.025932986 -0.020509545
000310 66 a1 00 3d f0 e1 fa 3c 68 dc 07 bd fe bf 66 bd
       0.03140392 0.030625314 -0.03316918 -0.05633544
000320 34 4b 6e bc c8 77 3f bc e0 2a e0 3c 08 c4 65 bd
       -0.014544297 -0.011686273 0.027364194 -0.056095153
000330 28 33 0d bd 1a b5 3e bd 88 5c 2e 3d 40 c8 60 3d
       -0.034472615 -0.04655943 0.042568713 0.054878473
000340 d8 ec 1e 3d b8 e4 aa 3c 94 11 58 bc fe 17 75 3d
       0.03880009 0.020861015 -0.013187785 0.059837334
000350 00 16 a1 3b 55 aa 39 bd b0 0e a9 3b 78 3e f6 bc
       0.0049159527 -0.045328457 0.0051592216 -0.030059084
000360 6e 10 1a bd 40 ac 75 3d 90 39 54 bb 74 4a 2e bd
       -0.037613325 0.059978724 -0.0032382943 -0.042551473
000370 6c be 31 bd 08 d8 3e bd 36 5b 3b 3d 1f 25 36 bd
       -0.04339449 -0.046592742 0.045741282 -0.044468995
000380 d8 69 7d bc d8 a8 68 bd 7e 90 1b 3d 3c 53 20 bd
       -0.01546713 -0.056801647 0.037979595 -0.03914188
000390 32 ee 5b 3d 28 08 83 bb 28 b7 8a 3c 30 77 87 bb
       0.053693958 -0.003998775 0.016933039 -0.0041340813
0003a0 46 1c 79 3d 4c 70 04 bd fe 79 05 3d 3c ff 12 3d
       0.06081798 -0.032333657 0.032587044 0.03588794
0003b0 30 5f 8a bb ac 42 a8 3c 20 36 70 3b 72 19 ea bc
       -0.004222773 0.020539604 0.0036653355 -0.028576586
0003c0 f4 64 5c 3d 30 b9 a0 3c d0 c2 95 bc f8 44 7c 3d
       0.053807214 0.019619554 -0.01828137 0.06158921
0003d0 90 61 b5 3c e0 8a 99 bb d0 4a 01 bd 00 bc 65 3a
       0.022141248 -0.0046857446 -0.031565487 0.0008763671
0003e0 c0 72 97 3c 90 d2 f4 3b 10 b0 e7 3b 62 bd 51 3d
       0.018487334 0.00747139 0.007070549 0.051206
0003f0 2b 67 7f bd 30 35 43 3d 50 db ea bb 0c 95 d9 bc
       -0.062354248 0.047658145 -0.0071672574 -0.026560329

network_body.observation_encoder.processors.0.conv_layers.2.bias f4 [32]
000000 ca f7 0e 3d 96 6a 73 3d 18 6f e6 bc 9d 99 09 bd
       0.03490428 0.05942782 -0.028129146 -0.033593763
000010 e0 33 0a 3b d6 86 35 3d 5f 8d 7e bd d8 e6 49 3c
       0.0021088049 0.044318043 -0.06214654 0.012323104
000020 b6 f4 3e bd d8 9e 3b 3c f2 ce 00 3d c8 8c 5e 3d
       -0.046620093 0.0114514455 0.03144736 0.05433348
000030 e4 fc 59 3d 6c 41 6b 3d a0 cc 23 3c 78 bc 1a 3d
       0.05321969 0.057435438 0.009997517 0.037777394
000040 26 f9 47 bd 1c f7 b0 3c b0 dd 05 bd a4 a9 36 bd
       -0.04882159 0.021602206 -0.03268212 -0.044595376
000050 8c e6 6e bd 20 c6 e2 bc 5c d3 3c bd d6 a7 03 bd
       -0.058325335 -0.027682364 -0.046100006 -0.032142483
000060 c4 2c 7c bd 58 40 a7 3c e2 ec bb bc 7e 2b 79 bd
       -0.06156613 0.020416424 -0.022940103 -0.060832493
000070 c8 95 f0 bc 86 59 78 3d 22 c0 80 bc 60 db b2 bc
       -0.029368296 0.06063225 -0.015716616 -0.021833122

network_body.observation_encoder.processors.0.dense.0.weight f4 [128, 512]
000000 a0 0c 43 bd d9 31 3f 3d b2 24 5a 3d 69 1c c6 bc
       -0.047619462 0.046678398 0.05325765 -0.024183469
000010 52 49 ca 3c 84 72 ee bd b6 e0 4c 3d 06 7c 1e 3d
       0.024693165 -0.11642936 0.05001899 0.038692497
000020 49 01 c5 bc 72 31 9a 3d e0 f1 b0 bd 71 f6 46 3d
       -0.024048464 0.07528962 -0.08639884 0.04857487
000030 19 d8 7c bd 1f 21 3c 3d ae 57 5a 3d 51 fb 11 3d
       -0.061729524 0.045930024 0.053306274 0.035640065
000040 90 a8 02 be 24 eb 3f bd ac 7b 5e 3a 82 01 db 3c
       -0.12759614 -0.046855107 0.00084870565 0.026734117
000050 87 a2 ba bc 43 2d 18 3d d4 aa b5 bc a6 a3 8e 3d
       -0.022782577 0.03715254 -0.022176184 0.06964807
000060 9f 6e ae 3c 52 f1 e6 3c cb e9 0d bd 7f a7 ef bc
       0.021292983 0.028191242 -0.03464679 -0.029254673
000070 db 77 2a 3d 1a ed 15 3b 3c 63 1a 3d 95 2c be bd
       0.04161821 0.002287692 0.037692294 -0.09285847
000080 e8 a7 ab bd 14 16 81 bc 80 7e e4 bd 1c c5 88 bd
       -0.08381635 -0.015757598 -0.111569405 -0.06678221
000090 8c d3 5c bc df f4 7c bd da a5 6f bc 34 4a bd 3d
       -0.013478171 -0.061756965 -0.014626944 0.09242669
0000a0 af b7 3a bd 86 83 2e bc 42 cd fc 3d 4c 8e df bd
       -0.04558533 -0.010651475 0.12343837 -0.10915813
0000b0 97 18 8b 3d 21 44 73 3d 78 ec 5c 3b 0f 32 3c bd
       0.067917995 0.059391145 0.0033710282 -0.045946177
0000c0 19 9e 08 3d 1b cd ad 3d 93 bd 5b 3a e3 2c 17 bd
       0.0333539 0.084863864 0.0008382436 -0.03690804
0000d0 25 3f b8 39 ae 79 42 bd 3b bd 25 bc 5d b9 3c 3d
       0.0003514226 -0.047479324 -0.010115917 0.046075214
0000e0 94 5b b7 bd 2b f7 e0 bb f1 21 df bb 54 56 a0 bd
       -0.08953014 -0.006865402 -0.006809466 -0.07828966
0000f0 8b f1 07 3d b5 8d a9 bd 37 40 ee bc 64 b1 d8 bc
       0.033189338 -0.082789816 -0.029083354 -0.026451774
000100 fd d8 19 bd 42 aa 9b 3d 8c 9e cd 3d f2 95 4b 3d
       -0.03756045 0.076008335 0.10040006 0.049703546
000110 17 d2 c7 bd c3 45 f2 bc 6a 68 aa ba cf 7b 65 3d
       -0.09756868 -0.02957428 -0.0013001089 0.056026276
000120 f7 72 ee bd 3b ba ac bb bd c5 a2 3c f7 e7 80 3c
       -0.116430216 -0.005271224 0.01986968 0.01573561
000130 a2 c2 ac 3c 28 e8 c3 3d 57 5e 2e 3e 99 be 12 3d
       0.021088902 0.09565765 0.17028175 0.0358263
000140 34 0d 54 3d 49 39 28 bc b7 67 d5 bc 28 90 94 3d
       0.051770404 -0.010267564 -0.026050432 0.07254058
000150 bf d3 84 3d c7 ed 55 bc 0e 11 99 bd 57 61 27 bc
       0.064857 -0.013057179 -0.07473956 -0.010216079
000160 ee 2c a3 bc f2 26 59 bd de 7e 1a bd f6 71 88 bc
       -0.019918885 -0.053015657 -0.037718646 -0.016655903
000170 e8 6f b9 3c 4f 3b 8e 3d 4d 36 37 3c 63 6e 81 3c
       0.022636369 0.06944906 0.01118238 0.015799707
000180 20 f5 bd bc 91 bf 80 3c 33 f7 05 3d 2c 66 b7 3d
       -0.023188174 0.015716346 0.03270645 0.089550346
000190 a5 16 51 3d b9 92 b0 bb f0 3a 07 3e 09 68 68 bc
       0.051046986 -0.0053885845 0.13206077 -0.01418496
0001a0 09 6d 86 3c 50 61 8e 3c 0b ae bd 3c 11 97 75 3d
       0.016409414 0.017380387 0.02315428 0.05995852
0001b0 c0 a8 be bd 90 eb 71 bd b2 32 08 3c ed 6a aa bb
       -0.0930953 -0.05906254 0.008312868 -0.005200735
0001c0 eb b2 93 bd c4 2b 4a 3d b0 1a ea bc 9a b1 6b 3d
       -0.0721186 0.049358144 -0.028577179 0.05754242
0001d0 13 b3 a5 bd ae cb b3 3b c5 80 ed 3d 4c 44 b9 3d
       -0.08090796 0.005486927 0.115968265 0.0904623
0001e0 8a 67 3b 3c 71 1c b9 3b 2e 41 b2 bc 4a d1 35 bd
       0.01143826 0.0056491424 -0.021759596 -0.044389047
0001f0 7a 1d 09 3c 1f 13 21 3c 48 e3 98 3d 70 d2 3d 3c
       0.008368844 0.009831219 0.074652255 0.011585817
000200 93 ae c5 bc ff 66 ce bc 32 f8 07 3e 2c 8a ca bc
       -0.024131095 -0.025195597 0.13278273 -0.024724089
000210 3e 24 95 3c 50 ee cb bb 0c 1e 21 3c aa 04 81 bc
       0.018205758 -0.0062234774 0.009833824 -0.015749294
000220 93 3d 3a 3d 54 1a 15 3e 62 4b 8b b9 b4 66 92 bd
       0.045468878 0.14560825 -0.0002656831 -0.07148495
000230 fd 37 c4 3d dc 8e 1b 3d f1 b9 ee bc fb a4 17 3d
       0.095809914 0.03797804 -0.029141398 0.037022572
000240 09 59 86 3c 1a 26 ac 3d 88 d5 70 bd 7a 3d 59 3d
       0.016399877 0.08405705 -0.05879739 0.053037144
000250 1e bd f0 bc 9f 8e f2 bc 5c f4 c0 bd f0 31 1d bd
       -0.029387053 -0.029609023 -0.09421608 -0.038377702
000260 4a 3d fe 3b 32 85 ae 3c c4 2d 2b bd a6 8b be bd
       0.007758771 0.021303747 -0.041791692 -0.093039796
000270 4d 6c 10 3d ed 75 52 bb 20 15 fc 3c 47 66 14 bd
       0.035259534 -0.0032113746 0.030771792 -0.03623035
000280 ce 60 1d bd 80 80 48 3d c4 ed a9 bd e8 b4 9e 3d
       -0.0384224 0.048950672 -0.08297303 0.07749349
000290 0b b8 20 3d 9d b2 0e 3e ae 5c 40 3c 46 c2 99 bd
       0.039238017 0.13935323 0.011740847 -0.07507758
0002a0 b6 ae df 3c 02 98 f1 bc 16 c1 0d be b3 78 83 3d
       0.027304988 -0.029491428 -0.13843188 0.06419506
0002b0 fd d4 27 bd 97 f1 96 bd 01 ff 98 bd ee 9a 9b 3a
       -0.040974606 -0.07370298 -0.07470513 0.0011871734
0002c0 e8 28 f7 3b 63 cc ac bc 92 3e 17 bd bd a5 27 bd
       0.007542718 -0.021093553 -0.036924906 -0.040929545
0002d0 17 f9 08 be 71 25 89 bd c8 8a b1 bd 49 fa 62 3d
       -0.1337627 -0.066965945 -0.086690485 0.05541447
0002e0 f5 9f e0 b9 2b ef 9d bc 8a bb 93 3d e0 5d d6 bd
       -0.00042843787 -0.019279083 0.072135046 -0.10467124
0002f0 c4 19 c6 bd 18 a4 21 bc fd b9 cb bd 7a e4 d6 3c
       -0.09672883 -0.009865783 -0.09947584 0.026231993
000300 5f a5 84 3c 42 8a 9e bd cf 41 19 bd f1 b8 6e bd
       0.016192136 -0.07741214 -0.037416276 -0.058281843
000310 80 b9 0f 3d 29 9e ba 3c 49 e3 91 bc d5 e6 d2 bc
       0.035089016 0.022780495 -0.017808573 -0.025744835
000320 1f e5 0e bc fa 3d b7 3c 99 95 99 3c b5 88 1f bd
       -0.008721619 0.02236842 0.018748092 -0.038948733
000330 5b a6 ee bc ae 6e 66 bd bc 27 cc 3d c1 3e 4b 3d
       -0.029132059 -0.056257896 0.09968516 0.049620394
000340 db 01 25 3c 03 90 9c bd a7 3c 12 be ac b5 b5 3c
       0.010071243 -0.076446556 -0.1428095 0.022181354
000350 2d 2a 28 3e 13 c0 ab bd c8 3b db bc 57 7d 2a 3d
       0.16422339 -0.083862446 -0.026761904 0.04162344
000360 ff 47 86 bd 2f a4 21 bd 8e f0 82 3c c9 eb 8a bc
       -0.06556701 -0.03946322 0.015983846 -0.016958134
000370 52 5c b7 bd 2e 91 e7 bc cb 5d 46 bd 49 29 75 bd
       -0.089531556 -0.02826747 -0.04842929 -0.059853826
000380 d2 a3 71 39 3a a6 94 3b b0 bd dc 3c 21 cd 54 bd
       0.00023044579 0.0045364173 0.026945919 -0.05195344
000390 3c 44 e9 bc 8a 06 bf 3d a6 3a f2 bb cb b6 09 bd
       -0.02847492 0.09327419 -0.0073922453 -0.03362159
0003a0 f2 af 80 3d b5 fd a9 bd 06 31 9d bd fa c5 4b bd
       0.06283559 -0.08300344 -0.07675366 -0.049749352
0003b0 78 2e a0 3d cc 00 7a bd f0 57 11 bc da 93 6d 3d
       0.07821363 -0.061035916 -0.008871064 0.05800233
0003c0 ec 5e 44 3b 5c d6 8f 3d 20 58 ae bd 52 66 05 be
       0.0029963804 0.07023308 -0.08512902 -0.13027313
0003d0 c4 d0 aa 3c 5a 1e 8f 3d ca 9e b4 3d d7 40 be bd
       0.0208515 0.06988211 0.08819349 -0.09289711
0003e0 fa 2b 07 bd bc 1a 47 3d f0 29 30 bc f7 b5 ca ba
       -0.033000924 0.04860948 -0.010752186 -0.0015465607
0003f0 98 2d 12 bc 90 5f 02 bd 70 07 b0 3d c6 b8 6c 3c
       -0.008922003 -0.031829417 0.085951686 0.01444835

network_body.observation_encoder.processors.0.dense.0.bias f4 [128]
000000 00 00 00 00 00 00 00 00 00 00 00 00 00 00 00 00
       0.0 0.0 0.0 0.0
000010 00 00 00 00 00 00 00 00 00 00 00 00 00 00 00 00
       0.0 0.0 0.0 0.0
000020 00 00 00 00 00 00 00 00 00 00 00 00 00 00 00 00
       0.0 0.0 0.0 0.0
000030 00 00 00 00 00 00 00 00 00 00 00 00 00 00 00 00
       0.0 0.0 0.0 0.0
000040 00 00 00 00 00 00 00 00 00 00 00 00 00 00 00 00
       0.0 0.0 0.0 0.0
000050 00 00 00 00 00 00 00 00 00 00 00 00 00 00 00 00
       0.0 0.0 0.0 0.0
000060 00 00 00 00 00 00 00 00 00 00 00 00 00 00 00 00
       0.0 0.0 0.0 0.0
000070 00 00 00 00 00 00 00 00 00 00 00 00 00 00 00 00
       0.0 0.0 0.0 0.0
000080 00 00 00 00 00 00 00 00 00 00 00 00 00 00 00 00
       0.0 0.0 0.0 0.0
000090 00 00 00 00 00 00 00 00 00 00 00 00 00 00 00 00
       0.0 0.0 0.0 0.0
0000a0 00 00 00 00 00 00 00 00 00 00 00 00 00 00 00 00
       0.0 0.0 0.0 0.0
0000b0 00 00 00 00 00 00 00 00 00 00 00 00 00 00 00 00
       0.0 0.0 0.0 0.0
0000c0 00 00 00 00 00 00 00 00 00 00 00 00 00 00 00 00
       0.0 0.0 0.0 0.0
0000d0 00 00 00 00 00 00 00 00 00 00 00 00 00 00 00 00
       0.0 0.0 0.0 0.0
0000e0 00 00 00 00 00 00 00 00 00 00 00 00 00 00 00 00
       0.0 0.0 0.0 0.0
0000f0 00 00 00 00 00 00 00 00 00 00 00 00 00 00 00 00
       0.0 0.0 0.0 0.0
000100 00 00 00 00 00 00 00 00 00 00 00 00 00 00 00 00
       0.0 0.0 0.0 0.0
000110 00 00 00 00 00 00 00 00 00 00 00 00 00 00 00 00
       0.0 0.0 0.0 0.0
000120 00 00 00 00 00 00 00 00 00 00 00 00 00 00 00 00
       0.0 0.0 0.0 0.0
000130 00 00 00 00 00 00 00 00 00 00 00 00 00 00 00 00
       0.0 0.0 0.0 0.0
000140 00 00 00 00 00 00 00 00 00 00 00 00 00 00 00 00
       0.0 0.0 0.0 0.0
000150 00 00 00 00 00 00 00 00 00 00 00 00 00 00 00 00
       0.0 0.0 0.0 0.0
000160 00 00 00 00 00 00 00 00 00 00 00 00 00 00 00 00
       0.0 0.0 0.0 0.0
000170 00 00 00 00 00 00 00 00 00 00 00 00 00 00 00 00
       0.0 0.0 0.0 0.0
000180 00 00 00 00 00 00 00 00 00 00 00 00 00 00 00 00
       0.0 0.0 0.0 0.0
000190 00 00 00 00 00 00 00 00 00 00 00 00 00 00 00 00
       0.0 0.0 0.0 0.0
0001a0 00 00 00 00 00 00 00 00 00 00 00 00 00 00 00 00
       0.0 0.0 0.0 0.0
0001b0 00 00 00 00 00 00 00 00 00 00 00 00 00 00 00 00
       0.0 0.0 0.0 0.0
0001c0 00 00 00 00 00 00 00 00 00 00 00 00 00 00 00 00
       0.0 0.0 0.0 0.0
0001d0 00 00 00 00 00 00 00 00 00 00 00 00 00 00 00 00
       0.0 0.0 0.0 0.0
0001e0 00 00 00 00 00 00 00 00 00 00 00 00 00 00 00 00
       0.0 0.0 0.0 0.0
0001f0 00 00 00 00 00 00 00 00 00 00 00 00 00 00 00 00
       0.0 0.0 0.0 0.0

network_body.processors.0.conv_layers.0.bias f4 [16]
000000 42 e1 45 bd e0 47 65 bc 88 f6 b5 3c b8 d6 62 bc
       -0.048310526 -0.013994187 0.022212282 -0.013845138
000010 74 7e 05 3d c8 c6 69 3d 40 c7 94 bd e6 81 ed bd
       0.0325913 0.05707434 -0.072645664 -0.11597042
000020 72 0c f8 3d 70 0a 46 bd 31 1f e0 bd 10 93 8a 3d
       0.12111749 -0.048349798 -0.10943449 0.06766331
000030 e8 28 d2 3c fa 08 a7 3d d2 f0 a6 3d 00 3d ae b9
       0.025654271 0.08156009 0.081514016 -0.00033233315

network_body.processors.0.conv_layers.2.weight f4 [32, 16, 4, 4]
000000 86 6b 15 3d 4e 1a 49 bd 88 c1 f9 bc 1c d0 e5 bc
       0.036479495 -0.04909735 -0.03048779 -0.028053336
000010 10 62 2d 3c 0e b9 40 3d d0 24 80 3b 5a 8d 38 bd
       0.010582462 0.047051482 0.0039106384 -0.04505668
000020 68 14 96 3c e8 da b2 3c 04 f0 94 3c 5a c1 25 3d
       0.018320277 0.021832898 0.018180855 0.040467598
000030 86 a6 68 3d 8c 0c 2c bd da 03 02 3d f0 bb 07 3d
       0.056799434 -0.042004153 0.031741954 0.033138216
000040 14 63 36 bd fd a3 7b bd 38 04 22 3c 7e d9 24 3d
       -0.044528082 -0.06143569 0.009888701 0.04024648
000050 aa a9 21 3d 2e 02 74 3d 1e f3 6e 3d 10 dc 90 bc
       0.039468445 0.05957239 0.058337323 -0.017683059
000060 2a d1 a1 bc 86 88 1b bd 34 a8 2d 3d 04 49 90 3c
       -0.019753058 -0.037971996 0.04239674 0.017612942
000070 f0 c5 7e 3c 2e 59 7c bd 28 d2 88 3c 5a 45 0e 3d
       0.015550122 -0.061608486 0.016701773 0.034734108
000080 44 63 c9 3c 1c 05 39 3d e0 4e ee 3b 80 99 fd bc
       0.024583466 0.04517089 0.007272586 -0.030956984
000090 7c 54 7a 3d a1 b8 5a bd 68 6d 84 bc ea 90 c6 bc
       0.061115727 -0.053398732 -0.01616545 -0.024239022
0000a0 5c 35 94 3c 58 b5 d1 3c b0 19 36 bc 38 11 0b 3c
       0.01809185 0.025599167 -0.011114523 0.008487992
0000b0 ce cc aa bc 62 c2 6b 3d e6 24 74 bd ed 01 67 bd
       -0.020849612 0.057558425 -0.0596055 -0.05639832
0000c0 0e 46 08 3d b6 b7 54 3d c0 17 65 3c 0e 07 0a bd
       0.033269934 0.051933013 0.013982713 -0.033698134
0000d0 d6 85 4b 3d 00 1e 7d 3d 20 20 44 3c 0a 67 4b 3d
       0.049688183 0.06179619 0.01197055 0.049658813
0000e0 12 17 53 3d 40 e2 2f ba 21 71 31 bd 10 db 27 3d
       0.051535673 -0.0006709434 -0.04332078 0.0409804
0000f0 b4 be 7f 3d d0 e7 02 bd 36 e0 02 bd 10 95 cf 3b
       0.062437728 -0.031959355 -0.031952105 0.0063349083
000100 80 d6 ba bb 5f 83 0c bd 38 9a 78 3c d0 0a ab 3c
       -0.00570184 -0.034304973 0.015173487 0.02087918
000110 bc 50 72 bc d4 53 9b 3c 12 b5 4e 3d 5c 2c 6a 3d
       -0.014789756 0.01896087 0.05046565 0.05717121
000120 c4 55 79 3d 2c 97 7c bd 20 c5 91 bc 18 06 fb bb
       0.060872808 -0.061667606 -0.017794192 -0.0076606385
000130 4c 3a 19 3d a4 41 88 3c 26 6f 22 3d b4 45 45 bc
       0.03740911 0.016632862 0.03965678 -0.012040544
000140 ec 95 79 bc 14 41 be bc 50 cc 77 bd c4 57 e5 bc
       -0.015233498 -0.023224391 -0.060497582 -0.027995951
000150 c0 29 83 3a c0 0d a3 3a 2b 55 26 bd c2 88 11 3d
       0.0010006949 0.0012440011 -0.040608566 0.035530813
000160 ce a6 72 3d 78 56 7a 3c 48 22 60 bd b4 9c 9a 3c
       0.05924111 0.015279405 -0.054720193 0.01887355
000170 b7 e1 3d bd 80 f4 ac bc 1c b1 fe 3c c8 01 b0 bc
       -0.046357837 -0.02111268 0.031090312 -0.021485224
000180 e0 f4 03 bb c8 0e a8 bb fd da 65 bd c0 b0 0b 3d
       -0.002013497 -0.005128715 -0.056117047 0.03410411
000190 b6 1b 6a 3d 8a f1 7c bd 60 f6 ff ba 53 f4 47 bd
       0.057155333 -0.061753787 -0.0019528382 -0.04881699
0001a0 98 56 51 bd a0 73 68 bc 3e 13 90 bc e2 29 fd bc
       -0.051107973 -0.014187723 -0.0175873 -0.03090376
0001b0 8c 44 e2 bc 17 41 03 bd 42 01 2a 3d 98 84 1a 3d
       -0.027620576 -0.032044496 0.041505106 0.037724108
0001c0 7c 89 ce bc 24 04 28 3d ec b7 d6 3c 80 ad 02 bd
       -0.025212042 0.041019574 0.026210748 -0.031903744
0001d0 47 c3 68 bd d4 f7 1c 3d cc 77 e1 3c 62 d4 3f 3d
       -0.056826856 0.038322285 0.027522944 0.046833403
0001e0 94 34 ab 3c 38 9d 4a bc 3a 9f 60 3d 58 67 4a bc
       0.020899095 -0.012366585 0.05483935 -0.012353741
0001f0 80 15 a7 3c 00 e2 2b 39 b6 e7 68 3d d8 56 52 bd
       0.020395994 0.00016392022 0.0568616 -0.051352352
000200 e4 33 67 3d e0 69 0c 3b 6c 46 3e 3d d0 e7 1f bd
       0.05644597 0.002142541 0.04645388 -0.039039433
000210 58 c8 78 bc 44 ef ad 3c 98 eb 76 3d d5 96 5f bd
       -0.015184484 0.021232255 0.060283273 -0.054587204
000220 d0 51 55 bd e2 3b a7 bc f8 81 51 3d 6c 9f 76 bd
       -0.052079976 -0.020414297 0.05114934 -0.06021063
000230 a8 7d 1c 3c e0 2f f9 3c e4 3b 8c 3c c8 25 0c 3c
       0.009551443 0.030418336 0.017118402 0.00855393
000240 bc eb 70 bc b6 fc 13 3d 8a 14 48 3d 2e 37 65 3d
       -0.014704641 0.036129676 0.048847713 0.055960827
000250 e2 28 2a bd dd b2 4c bd 34 f7 1b 3d 00 4d a8 3b
       -0.041542895 -0.049975265 0.03807755 0.0051361322
000260 e0 f5 aa bc c0 f1 b9 3c 98 6b 1b bc 00 a5 c7 3b
       -0.020869195 0.022698283 -0.009486102 0.0060926676
000270 18 63 15 3d f0 c1 ed bc 00 06 ae 3b 20 4e 00 bd
       0.036471456 -0.02902314 0.005310774 -0.031324506
000280 88 ba 4b bc 34 27 9e 3c 4a b6 e8 bc f8 21 17 bd
       -0.012434609 0.019305803 -0.028407235 -0.03689763
000290 84 c0 09 bd e4 3d ea 3c a4 67 1d 3d c6 36 c2 bc
       -0.033630863 0.028593965 0.038428918 -0.023707759
0002a0 42 7e 4a 3d c8 bd 1c 3d d6 15 6c bd 00 af 99 bc
       0.049436815 0.038266927 -0.057638012 -0.018760204
0002b0 fd 08 7e bd d0 64 5a 3c 0e 69 6e 3d 54 0d f1 3c
       -0.06202029 0.0133297 0.058205657 0.0294253
0002c0 ea 0b 4f 3d 52 75 0e 3d 14 65 a6 3c 36 31 a8 bc
       0.05054847 0.034779854 0.02031187 -0.020531278
0002d0 20 d8 e7 3b 88 03 63 3d b0 8a e6 bc fa b6 bb bc
       0.0070753247 0.05542329 -0.028142303 -0.022914398
0002e0 21 62 78 bd cc c6 f6 3c 58 b9 d9 bb 6c 4f b6 3c
       -0.060640458 0.03012409 -0.006644409 0.022254668
0002f0 94 5d 07 bc d8 a4 0b bd 1c 9e 32 3d 5a e2 0c 3d
       -0.008262057 -0.034092754 0.043607816 0.034395553
000300 5c ac eb 3c 9c c4 b2 bc 6a 71 d4 bc a2 03 a8 bc
       0.02876871 -0.021822266 -0.025932986 -0.020509545
000310 66 a1 00 3d f0 e1 fa 3c 68 dc 07 bd fe bf 66 bd
       0.03140392 0.030625314 -0.03316918 -0.05633544
000320 34 4b 6e bc c8 77 3f bc e0 2a e0 3c 08 c4 65 bd
       -0.014544297 -0.011686273 0.027364194 -0.056095153
000330 28 33 0d bd 1a b5 3e bd 88 5c 2e 3d 40 c8 60 3d
       -0.034472615 -0.04655943 0.042568713 0.054878473
000340 d8 ec 1e 3d b8 e4 aa 3c 94 11 58 bc fe 17 75 3d
       0.03880009 0.020861015 -0.013187785 0.059837334
000350 00 16 a1 3b 55 aa 39 bd b0 0e a9 3b 78 3e f6 bc
       0.0049159527 -0.045328457 0.0051592216 -0.030059084
000360 6e 10 1a bd 40 ac 75 3d 90 39 54 bb 74 4a 2e bd
       -0.037613325 0.059978724 -0.0032382943 -0.042551473
000370 6c be 31 bd 08 d8 3e bd 36 5b 3b 3d 1f 25 36 bd
       -0.04339449 -0.046592742 0.045741282 -0.044468995
000380 d8 69 7d bc d8 a8 68 bd 7e 90 1b 3d 3c 53 20 bd
       -0.01546713 -0.056801647 0.037979595 -0.03914188
000390 32 ee 5b 3d 28 08 83 bb 28 b7 8a 3c 30 77 87 bb
       0.053693958 -0.003998775 0.016933039 -0.0041340813
0003a0 46 1c 79 3d 4c 70 04 bd fe 79 05 3d 3c ff 12 3d
       0.06081798 -0.032333657 0.032587044 0.03588794
0003b0 30 5f 8a bb ac 42 a8 3c 20 36 70 3b 72 19 ea bc
       -0.004222773 0.020539604 0.0036653355 -0.028576586
0003c0 f4 64 5c 3d 30 b9 a0 3c d0 c2 95 bc f8 44 7c 3d
       0.053807214 0.019619554 -0.01828137 0.06158921
0003d0 90 61 b5 3c e0 8a 99 bb d0 4a 01 bd 00 bc 65 3a
       0.022141248 -0.0046857446 -0.031565487 0.0008763671
0003e0 c0 72 97 3c 90 d2 f4 3b 10 b0 e7 3b 62 bd 51 3d
       0.018487334 0.00747139 0.007070549 0.051206
0003f0 2b 67 7f bd 30 35 43 3d 50 db ea bb 0c 95 d9 bc
       -0.062354248 0.047658145 -0.0071672574 -0.026560329

network_body.processors.0.conv_layers.2.bias f4 [32]
000000 ca f7 0e 3d 96 6a 73 3d 18 6f e6 bc 9d 99 09 bd
       0.03490428 0.05942782 -0.028129146 -0.033593763
000010 e0 33 0a 3b d6 86 35 3d 5f 8d 7e bd d8 e6 49 3c
       0.0021088049 0.044318043 -0.06214654 0.012323104
000020 b6 f4 3e bd d8 9e 3b 3c f2 ce 00 3d c8 8c 5e 3d
       -0.046620093 0.0114514455 0.03144736 0.05433348
000030 e4 fc 59 3d 6c 41 6b 3d a0 cc 23 3c 78 bc 1a 3d
       0.05321969 0.057435438 0.009997517 0.037777394
000040 26 f9 47 bd 1c f7 b0 3c b0 dd 05 bd a4 a9 36 bd
       -0.04882159 0.021602206 -0.03268212 -0.044595376
000050 8c e6 6e bd 20 c6 e2 bc 5c d3 3c bd d6 a7 03 bd
       -0.058325335 -0.027682364 -0.046100006 -0.032142483
000060 c4 2c 7c bd 58 40 a7 3c e2 ec bb bc 7e 2b 79 bd
       -0.06156613 0.020416424 -0.022940103 -0.060832493
000070 c8 95 f0 bc 86 59 78 3d 22 c0 80 bc 60 db b2 bc
       -0.029368296 0.06063225 -0.015716616 -0.021833122

network_body.processors.0.dense.0.weight f4 [128, 512]
000000 a0 0c 43 bd d9 31 3f 3d b2 24 5a 3d 69 1c c6 bc
       -0.047619462 0.046678398 0.05325765 -0.024183469
000010 52 49 ca 3c 84 72 ee bd b6 e0 4c 3d 06 7c 1e 3d
       0.024693165 -0.11642936 0.05001899 0.038692497
000020 49 01 c5 bc 72 31 9a 3d e0 f1 b0 bd 71 f6 46 3d
       -0.024048464 0.07528962 -0.08639884 0.04857487
000030 19 d8 7c bd 1f 21 3c 3d ae 57 5a 3d 51 fb 11 3d
       -0.061729524 0.045930024 0.053306274 0.035640065
000040 90 a8 02 be 24 eb 3f bd ac 7b 5e 3a 82 01 db 3c
       -0.12759614 -0.046855107 0.00084870565 0.026734117
000050 87 a2 ba bc 43 2d 18 3d d4 aa b5 bc a6 a3 8e 3d
       -0.022782577 0.03715254 -0.022176184 0.06964807
000060 9f 6e ae 3c 52 f1 e6 3c cb e9 0d bd 7f a7 ef bc
       0.021292983 0.028191242 -0.03464679 -0.029254673
000070 db 77 2a 3d 1a ed 15 3b 3c 63 1a 3d 95 2c be bd
       0.04161821 0.002287692 0.037692294 -0.09285847
000080 e8 a7 ab bd 14 16 81 bc 80 7e e4 bd 1c c5 88 bd
       -0.08381635 -0.015757598 -0.111569405 -0.06678221
000090 8c d3 5c bc df f4 7c bd da a5 6f bc 34 4a bd 3d
       -0.013478171 -0.061756965 -0.014626944 0.09242669
0000a0 af b7 3a bd 86 83 2e bc 42 cd fc 3d 4c 8e df bd
       -0.04558533 -0.010651475 0.12343837 -0.10915813
0000b0 97 18 8b 3d 21 44 73 3d 78 ec 5c 3b 0f 32 3c bd
       0.067917995 0.059391145 0.0033710282 -0.045946177
0000c0 19 9e 08 3d 1b cd ad 3d 93 bd 5b 3a e3 2c 17 bd
       0.0333539 0.084863864 0.0008382436 -0.03690804
0000d0 25 3f b8 39 ae 79 42 bd 3b bd 25 bc 5d b9 3c 3d
       0.0003514226 -0.047479324 -0.010115917 0.046075214
0000e0 94 5b b7 bd 2b f7 e0 bb f1 21 df bb 54 56 a0 bd
       -0.08953014 -0.006865402 -0.006809466 -0.07828966
0000f0 8b f1 07 3d b5 8d a9 bd 37 40 ee bc 64 b1 d8 bc
       0.033189338 -0.082789816 -0.029083354 -0.026451774
000100 fd d8 19 bd 42 aa 9b 3d 8c 9e cd 3d f2 95 4b 3d
       -0.03756045 0.076008335 0.10040006 0.049703546
000110 17 d2 c7 bd c3 45 f2 bc 6a 68 aa ba cf 7b 65 3d
       -0.09756868 -0.02957428 -0.0013001089 0.056026276
000120 f7 72 ee bd 3b ba ac bb bd c5 a2 3c f7 e7 80 3c
       -0.116430216 -0.005271224 0.01986968 0.01573561
000130 a2 c2 ac 3c 28 e8 c3 3d 57 5e 2e 3e 99 be 12 3d
       0.021088902 0.09565765 0.17028175 0.0358263
000140 34 0d 54 3d 49 39 28 bc b7 67 d5 bc 28 90 94 3d
       0.051770404 -0.010267564 -0.026050432 0.07254058
000150 bf d3 84 3d c7 ed 55 bc 0e 11 99 bd 57 61 27 bc
       0.064857 -0.013057179 -0.07473956 -0.010216079
000160 ee 2c a3 bc f2 26 59 bd de 7e 1a bd f6 71 88 bc
       -0.019918885 -0.053015657 -0.037718646 -0.016655903
000170 e8 6f b9 3c 4f 3b 8e 3d 4d 36 37 3c 63 6e 81 3c
       0.022636369 0.06944906 0.01118238 0.015799707
000180 20 f5 bd bc 91 bf 80 3c 33 f7 05 3d 2c 66 b7 3d
       -0.023188174 0.015716346 0.03270645 0.089550346
000190 a5 16 51 3d b9 92 b0 bb f0 3a 07 3e 09 68 68 bc
       0.051046986 -0.0053885845 0.13206077 -0.01418496
0001a0 09 6d 86 3c 50 61 8e 3c 0b ae bd 3c 11 97 75 3d
       0.016409414 0.017380387 0.02315428 0.05995852
0001b0 c0 a8 be bd 90 eb 71 bd b2 32 08 3c ed 6a aa bb
       -0.0930953 -0.05906254 0.008312868 -0.005200735
0001c0 eb b2 93 bd c4 2b 4a 3d b0 1a ea bc 9a b1 6b 3d
       -0.0721186 0.049358144 -0.028577179 0.05754242
0001d0 13 b3 a5 bd ae cb b3 3b c5 80 ed 3d 4c 44 b9 3d
       -0.08090796 0.005486927 0.115968265 0.0904623
0001e0 8a 67 3b 3c 71 1c b9 3b 2e 41 b2 bc 4a d1 35 bd
       0.01143826 0.0056491424 -0.021759596 -0.044389047
0001f0 7a 1d 09 3c 1f 13 21 3c 48 e3 98 3d 70 d2 3d 3c
       0.008368844 0.009831219 0.074652255 0.011585817
000200 93 ae c5 bc ff 66 ce bc 32 f8 07 3e 2c 8a ca bc
       -0.024131095 -0.025195597 0.13278273 -0.024724089
000210 3e 24 95 3c 50 ee cb bb 0c 1e 21 3c aa 04 81 bc
       0.018205758 -0.0062234774 0.009833824 -0.015749294
000220 93 3d 3a 3d 54 1a 15 3e 62 4b 8b b9 b4 66 92 bd
       0.045468878 0.14560825 -0.0002656831 -0.07148495
000230 fd 37 c4 3d dc 8e 1b 3d f1 b9 ee bc fb a4 17 3d
       0.095809914 0.03797804 -0.029141398 0.037022572
000240 09 59 86 3c 1a 26 ac 3d 88 d5 70 bd 7a 3d 59 3d
       0.016399877 0.08405705 -0.05879739 0.053037144
000250 1e bd f0 bc 9f 8e f2 bc 5c f4 c0 bd f0 31 1d bd
       -0.029387053 -0.029609023 -0.09421608 -0.038377702
000260 4a 3d fe 3b 32 85 ae 3c c4 2d 2b bd a6 8b be bd
       0.007758771 0.021303747 -0.041791692 -0.093039796
000270 4d 6c 10 3d ed 75 52 bb 20 15 fc 3c 47 66 14 bd
       0.035259534 -0.0032113746 0.030771792 -0.03623035
000280 ce 60 1d bd 80 80 48 3d c4 ed a9 bd e8 b4 9e 3d
       -0.0384224 0.048950672 -0.08297303 0.07749349
000290 0b b8 20 3d 9d b2 0e 3e ae 5c 40 3c 46 c2 99 bd
       0.039238017 0.13935323 0.011740847 -0.07507758
0002a0 b6 ae df 3c 02 98 f1 bc 16 c1 0d be b3 78 83 3d
       0.027304988 -0.029491428 -0.13843188 0.06419506
0002b0 fd d4 27 bd 97 f1 96 bd 01 ff 98 bd ee 9a 9b 3a
       -0.040974606 -0.07370298 -0.07470513 0.0011871734
0002c0 e8 28 f7 3b 63 cc ac bc 92 3e 17 bd bd a5 27 bd
       0.007542718 -0.021093553 -0.036924906 -0.040929545
0002d0 17 f9 08 be 71 25 89 bd c8 8a b1 bd 49 fa 62 3d
       -0.1337627 -0.066965945 -0.086690485 0.05541447
0002e0 f5 9f e0 b9 2b ef 9d bc 8a bb 93 3d e0 5d d6 bd
       -0.00042843787 -0.019279083 0.072135046 -0.10467124
0002f0 c4 19 c6 bd 18 a4 21 bc fd b9 cb bd 7a e4 d6 3c
       -0.09672883 -0.009865783 -0.09947584 0.026231993
000300 5f a5 84 3c 42 8a 9e bd cf 41 19 bd f1 b8 6e bd
       0.016192136 -0.07741214 -0.037416276 -0.058281843
000310 80 b9 0f 3d 29 9e ba 3c 49 e3 91 bc d5 e6 d2 bc
       0.035089016 0.022780495 -0.017808573 -0.025744835
000320 1f e5 0e bc fa 3d b7 3c 99 95 99 3c b5 88 1f bd
       -0.008721619 0.02236842 0.018748092 -0.038948733
000330 5b a6 ee bc ae 6e 66 bd bc 27 cc 3d c1 3e 4b 3d
       -0.029132059 -0.056257896 0.09968516 0.049620394
000340 db 01 25 3c 03 90 9c bd a7 3c 12 be ac b5 b5 3c
       0.010071243 -0.076446556 -0.1428095 0.022181354
000350 2d 2a 28 3e 13 c0 ab bd c8 3b db bc 57 7d 2a 3d
       0.16422339 -0.083862446 -0.026761904 0.04162344
000360 ff 47 86 bd 2f a4 21 bd 8e f0 82 3c c9 eb 8a bc
       -0.06556701 -0.03946322 0.015983846 -0.016958134
000370 52 5c b7 bd 2e 91 e7 bc cb 5d 46 bd 49 29 75 bd
       -0.089531556 -0.02826747 -0.04842929 -0.059853826
000380 d2 a3 71 39 3a a6 94 3b b0 bd dc 3c 21 cd 54 bd
       0.00023044579 0.0045364173 0.026945919 -0.05195344
000390 3c 44 e9 bc 8a 06 bf 3d a6 3a f2 bb cb b6 09 bd
       -0.02847492 0.09327419 -0.0073922453 -0.03362159
0003a0 f2 af 80 3d b5 fd a9 bd 06 31 9d bd fa c5 4b bd
       0.06283559 -0.08300344 -0.07675366 -0.049749352
0003b0 78 2e a0 3d cc 00 7a bd f0 57 11 bc da 93 6d 3d
       0.07821363 -0.061035916 -0.008871064 0.05800233
0003c0 ec 5e 44 3b 5c d6 8f 3d 20 58 ae bd 52 66 05 be
       0.0029963804 0.07023308 -0.08512902 -0.13027313
0003d0 c4 d0 aa 3c 5a 1e 8f 3d ca 9e b4 3d d7 40 be bd
       0.0208515 0.06988211 0.08819349 -0.09289711
0003e0 fa 2b 07 bd bc 1a 47 3d f0 29 30 bc f7 b5 ca ba
       -0.033000924 0.04860948 -0.010752186 -0.0015465607
0003f0 98 2d 12 bc 90 5f 02 bd 70 07 b0 3d c6 b8 6c 3c
       -0.008922003 -0.031829417 0.085951686 0.01444835

network_body.processors.0.dense.0.bias f4 [128]
000000 00 00 00 00 00 00 00 00 00 00 00 00 00 00 00 00
       0.0 0.0 0.0 0.0
000010 00 00 00 00 00 00 00 00 00 00 00 00 00 00 00 00
       0.0 0.0 0.0 0.0
000020 00 00 00 00 00 00 00 00 00 00 00 00 00 00 00 00
       0.0 0.0 0.0 0.0
000030 00 00 00 00 00 00 00 00 00 00 00 00 00 00 00 00
       0.0 0.0 0.0 0.0
000040 00 00 00 00 00 00 00 00 00 00 00 00 00 00 00 00
       0.0 0.0 0.0 0.0
000050 00 00 00 00 00 00 00 00 00 00 00 00 00 00 00 00
       0.0 0.0 0.0 0.0
000060 00 00 00 00 00 00 00 00 00 00 00 00 00 00 00 00
       0.0 0.0 0.0 0.0
000070 00 00 00 00 00 00 00 00 00 00 00 00 00 00 00 00
       0.0 0.0 0.0 0.0
000080 00 00 00 00 00 00 00 00 00 00 00 00 00 00 00 00
       0.0 0.0 0.0 0.0
000090 00 00 00 00 00 00 00 00 00 00 00 00 00 00 00 00
       0.0 0.0 0.0 0.0
0000a0 00 00 00 00 00 00 00 00 00 00 00 00 00 00 00 00
       0.0 0.0 0.0 0.0
0000b0 00 00 00 00 00 00 00 00 00 00 00 00 00 00 00 00
       0.0 0.0 0.0 0.0
0000c0 00 00 00 00 00 00 00 00 00 00 00 00 00 00 00 00
       0.0 0.0 0.0 0.0
0000d0 00 00 00 00 00 00 00 00 00 00 00 00 00 00 00 00
       0.0 0.0 0.0 0.0
0000e0 00 00 00 00 00 00 00 00 00 00 00 00 00 00 00 00
       0.0 0.0 0.0 0.0
0000f0 00 00 00 00 00 00 00 00 00 00 00 00 00 00 00 00
       0.0 0.0 0.0 0.0
000100 00 00 00 00 00 00 00 00 00 00 00 00 00 00 00 00
       0.0 0.0 0.0 0.0
000110 00 00 00 00 00 00 00 00 00 00 00 00 00 00 00 00
       0.0 0.0 0.0 0.0
000120 00 00 00 00 00 00 00 00 00 00 00 00 00 00 00 00
       0.0 0.0 0.0 0.0
000130 00 00 00 00 00 00 00 00 00 00 00 00 00 00 00 00
       0.0 0.0 0.0 0.0
000140 00 00 00 00 00 00 00 00 00 00 00 00 00 00 00 00
       0.0 0.0 0.0 0.0
000150 00 00 00 00 00 00 00 00 00 00 00 00 00 00 00 00
       0.0 0.0 0.0 0.0
000160 00 00 00 00 00 00 00 00 00 00 00 00 00 00 00 00
       0.0 0.0 0.0 0.0
000170 00 00 00 00 00 00 00 00 00 00 00 00 00 00 00 00
       0.0 0.0 0.0 0.0
000180 00 00 00 00 00 00 00 00 00 00 00 00 00 00 00 00
       0.0 0.0 0.0 0.0
000190 00 00 00 00 00 00 00 00 00 00 00 00 00 00 00 00
       0.0 0.0 0.0 0.0
0001a0 00 00 00 00 00 00 00 00 00 00 00 00 00 00 00 00
       0.0 0.0 0.0 0.0
0001b0 00 00 00 00 00 00 00 00 00 00 00 00 00 00 00 00
       0.0 0.0 0.0 0.0
0001c0 00 00 00 00 00 00 00 00 00 00 00 00 00 00 00 00
       0.0 0.0 0.0 0.0
0001d0 00 00 00 00 00 00 00 00 00 00 00 00 00 00 00 00
       0.0 0.0 0.0 0.0
0001e0 00 00 00 00 00 00 00 00 00 00 00 00 00 00 00 00
       0.0 0.0 0.0 0.0
0001f0 00 00 00 00 00 00 00 00 00 00 00 00 00 00 00 00
       0.0 0.0 0.0 0.0

network_body._body_endoder.seq_layers.0.weight f4 [128, 129]
000000 d4 19 1d 3d df 14 5e bd be 07 90 bd 11 c8 17 3d
       0.03835471 -0.054219123 -0.07032727 0.037056033
000010 d0 ed 6f 3c 36 e2 b8 bd fc 35 37 be 5e e1 18 bd
       0.014644101 -0.09027521 -0.17891687 -0.037324302
000020 60 e7 b0 3d eb cb 44 3b 90 5d 8e ba e3 db 07 3e
       0.08637881 0.003002877 -0.0010861624 0.13267474
000030 5c a9 22 3e 5c 7f 31 bc 1f ed 33 3e 52 8e 81 bd
       0.15884918 -0.0108335875 0.17570923 -0.063259736
000040 bd 89 7d 3d 05 29 0d bd f8 f7 1c 3d bf 12 ec bd
       0.061898936 -0.034462947 0.03832242 -0.11527013
000050 a3 54 09 3e e4 9d 50 3d 11 b3 9d 3c d0 f3 56 bc
       0.13411193 0.050931826 0.019250425 -0.013119653
000060 75 6c 12 bd fa c2 b7 bd 5b 10 81 bd 74 ba fe 3b
       -0.035747964 -0.08972736 -0.06301948 0.007773692
000070 14 cf 16 be 1e 4a 2e 3e ad 2f 88 bb 3c c3 9b 3d
       -0.14727432 0.17020461 -0.004156074 0.076055974
000080 14 42 51 3d 86 fc 63 bd bf 08 b7 3d 6e ad 77 3b
       0.051088408 -0.055660747 0.08937215 0.003779258
000090 52 59 4e be ac 07 4e 3e 39 d0 b3 bd 40 7e 8e bb
       -0.2015126 0.20120114 -0.0877995 -0.0043485463
0000a0 a1 21 e1 3d 5f ce d3 3d 0e 02 85 bd 3d e4 1a 3d
       0.10992742 0.103420965 -0.064945325 0.03781532
0000b0 7c d4 cd b8 1e 5a 30 3c e4 ed 0a be a1 d5 88 3d
       -9.81474e-05 0.010763673 -0.1356731 0.066813715
0000c0 77 56 d9 3d 04 07 d6 bc 22 8d 38 bd 1f 3d 9a bd
       0.10612195 -0.026126392 -0.04505647 -0.07531189
0000d0 ba ae 6b bc da 51 43 be f8 6f 26 bd 00 15 f8 3d
       -0.01438492 -0.19074193 -0.040634125 0.121133804
0000e0 80 5d 84 bd 6d 81 ce 3d 07 b8 93 3d ec ee d3 bd
       -0.06463146 0.1008328 0.07212835 -0.10348305
0000f0 8c b6 d7 3d ea 2c aa bd ad fb b3 bc 83 a5 11 be
       0.10532865 -0.08309348 -0.021970594 -0.14223294
000100 de cf 63 3e 4b a8 fe bd 53 86 b5 3c f5 a8 9a bc
       0.22247264 -0.12434443 0.022158777 -0.018879393
000110 b3 b8 df 3d c4 c5 aa bd 35 e0 92 3d 02 db b0 3c
       0.109239005 -0.08338502 0.0717167 0.021588806
000120 83 4d 1a 3e a7 a2 31 be 21 09 32 be 46 e4 d8 bd
       0.15068631 -0.17347203 -0.17386295 -0.10590415
000130 45 bb 34 3d 10 96 f6 bd b8 04 33 bc 11 d4 4b 3d
       0.044123907 -0.12040341 -0.010926418 0.04976279
000140 fe 92 d2 3b 07 af a9 3d 89 7a d1 3c 26 ee ea 3c
       0.0064262142 0.08285337 0.025571125 0.028678011
000150 5d fc 80 3d 4b be 20 be 6d 20 d3 3d 10 10 b2 bd
       0.062981345 -0.15697591 0.10308919 -0.0869447
000160 43 e4 36 3e fd 2b 33 bd bc a4 3d bd 39 2e c8 bd
       0.17860512 -0.043743122 -0.04629968 -0.09774441
000170 22 85 68 bc a5 2a 64 bc 59 b8 57 3e bd 44 83 bd
       -0.014191898 -0.013926183 0.21066417 -0.06409595
000180 4a d0 2c 3e dc bd 97 bd b5 41 c5 bd 1d 51 1d 3b
       0.16876331 -0.0740926 -0.09631673 0.0024004646
000190 ff 3d b5 bd 7d 58 a1 bd 45 72 58 3e 29 c1 1b 3e
       -0.088497154 -0.07878206 0.2113734 0.15210404
0001a0 dd a4 a1 bc 25 dc 43 bd 21 71 c2 3c 58 bb e3 3c
       -0.019731933 -0.047817368 0.023735585 0.027799293
0001b0 74 91 8d 3c 96 c6 07 be cd cd d6 3d 34 80 94 3d
       0.017281272 -0.13259348 0.10488472 0.07251015
0001c0 c6 be 9e bd 76 52 29 bd f8 8a af bd be 59 a6 3d
       -0.07751231 -0.041338407 -0.08571428 0.08122586
0001d0 54 b9 b9 3d 3c 8a 06 3e 4f 54 02 3e 7b 7a e1 bc
       0.09068552 0.1313867 0.12727474 -0.027524224
0001e0 3d b3 53 bd 7d 78 1e 3d 2a c9 46 bd b8 52 68 bd
       -0.051684607 0.038689125 -0.04853169 -0.05671951
0001f0 d3 5f 1a bd 50 30 28 3d 11 0a b7 3c 3d ec 18 3e
       -0.03768904 0.0410617 0.022343667 0.14933868
000200 7f 1f 9f bc bf 56 96 bb 70 5f 77 3d 62 ca d4 bd
       -0.019424198 -0.0045879777 0.06039375 -0.10390164
000210 2f 66 f1 bb 15 83 d3 bd 78 65 a9 bc 0d e3 c9 3d
       -0.0073669176 -0.10327736 -0.020678267 0.098577596
000220 a4 c2 70 bd 91 d8 cb bc c7 c7 0e 3e 7a e4 16 bd
       -0.058779374 -0.02488354 0.13943397 -0.036838986
000230 82 17 b5 3c 18 d5 f5 3c 4a 0c 1a 3d 3f 99 62 3e
       0.022105936 0.030008838 0.037609376 0.22128771
000240 27 6c e9 3d 74 f1 c4 bd b9 fe 87 3d 9d 12 ce bd
       0.113975815 -0.09616366 0.06640381 -0.10062144
000250 0d 79 7a 3d bc 4e 8f 3c 98 f4 9e bd f3 7c 7a 3d
       0.0611506 0.017493598 -0.07761496 0.061154317
000260 f2 91 be bd 57 60 17 be b5 12 6a 3d 0d 4e 2f be
       -0.093051806 -0.14782844 0.057146747 -0.17119618
000270 85 23 40 bc b7 d0 41 3d f3 3b e7 3d ef fb 1f 3c
       -0.0117272185 0.047318187 0.11290731 0.0097646555
000280 2f 97 62 bd f6 53 d4 bd 43 ae b8 3c 38 a3 a5 3d
       -0.05531996 -0.10367577 0.022544032 0.08087772
000290 c1 ee 29 be 99 f6 24 be f9 80 16 be 2d da 13 be
       -0.16594984 -0.16109695 -0.14697637 -0.14438696
0002a0 b0 da 58 bd 18 01 96 3d a0 0e 8e bb dd 23 fc 3c
       -0.05294293 0.07324427 -0.0043352395 0.03077882
0002b0 ae 3c 32 3c 80 1c 11 3b d1 ab 64 3d 8c bc d6 3d
       0.010878725 0.0022142231 0.05582792 0.10485181
0002c0 e1 a6 60 3d 7d 87 0a be 0b 04 fa bd f1 3e f3 bb
       0.054846648 -0.13528247 -0.122078024 -0.0074232747
0002d0 de f1 4c bd d2 05 67 3b cc 41 1f 3c 40 a6 e2 3b
       -0.05003535 0.0035251272 0.009720277 0.006916791
0002e0 63 e6 1b be 54 6d 1f 3e 74 29 b1 bc 50 67 ac bd
       -0.15224604 0.15569049 -0.021626212 -0.08418143
0002f0 ed 4c 9f bb 71 a9 c9 3c a7 1f bc 3d 0b 95 82 bc
       -0.004861465 0.024616929 0.09185725 -0.01594021
000300 07 ad 8f 3c 04 4c 13 be c1 2f d9 3c 5d f2 7d 3c
       0.01753856 -0.14384466 0.026512029 0.015499678
000310 bf 03 d6 bd cb 2c cf 3c f2 3a 33 bd 74 54 83 3d
       -0.10449933 0.025289914 -0.043757387 0.064125925
000320 ee 58 75 bc 5e 34 f6 3c ff 31 26 3e 2a 36 6b 3d
       -0.014974816 0.030054267 0.1623001 0.0574247
000330 34 de 8d 3d 53 1c ab bd e3 2d a1 bd 24 f1 4f bc
       0.069271475 -0.08355012 -0.0787008 -0.01269177
000340 6c c2 66 3d b9 9f 03 3d c7 5d 67 3d 6c 12 fa bc
       0.05633776 0.032134745 0.056485917 -0.030526362
000350 d7 e5 63 be 24 90 99 bd 1d 90 97 bc 12 cc 63 3d
       -0.22255646 -0.07498196 -0.018501336 0.05561454
000360 6d af bf bd f1 a8 29 bd a5 18 ef 3d 97 fc 1f be
       -0.09359632 -0.04142088 0.116746224 -0.15623699
000370 f0 9a 82 be f9 c8 60 bd 65 76 22 be 5c 34 81 3d
       -0.25508833 -0.054879162 -0.15865476 0.06308815
000380 70 75 fe 3c e1 2e 67 bc 7a 0b 9b bc 38 df ed 39
       0.031061858 -0.014110298 -0.01892637 0.00045370474
000390 06 df c2 bd 57 9d f0 bd b9 cd f0 3d 19 56 ec 3d
       -0.095151946 -0.1174876 0.117579885 0.11539859
0003a0 6a 55 05 3c 14 96 61 bd 00 c1 54 bd 37 cb de 3c
       0.00813804 -0.055074766 -0.05194187 0.02719651
0003b0 05 5b e3 3d 24 cd bc 3b 2f 73 b4 bd 7b ab a2 3c
       0.11101345 0.0057617594 -0.08811032 0.019857159
0003c0 78 b2 ea bd 42 a3 92 3d 43 ac 25 be 70 d0 79 bd
       -0.114598215 0.07160045 -0.16178994 -0.060989797
0003d0 39 fa af 3d c3 f5 c6 bd c5 0c 04 3e 96 95 35 bd
       0.08592648 -0.09714844 0.12895496 -0.04433211
0003e0 a0 63 dc bc 2e c6 0b 3e 76 d9 8a 3d dc 70 29 be
       -0.026902974 0.13649818 0.06779759 -0.16546959
0003f0 7d a0 d8 3d 15 b6 fb bd f8 74 05 be d5 cd 96 bc
       0.10577486 -0.12290589 -0.13032901 -0.018408695

network_body._body_endoder.seq_layers.0.bias f4 [128]
000000 00 00 00 00 00 00 00 00 00 00 00 00 00 00 00 00
       0.0 0.0 0.0 0.0
000010 00 00 00 00 00 00 00 00 00 00 00 00 00 00 00 00
       0.0 0.0 0.0 0.0
000020 00 00 00 00 00 00 00 00 00 00 00 00 00 00 00 00
       0.0 0.0 0.0 0.0
000030 00 00 00 00 00 00 00 00 00 00 00 00 00 00 00 00
       0.0 0.0 0.0 0.0
000040 00 00 00 00 00 00 00 00 00 00 00 00 00 00 00 00
       0.0 0.0 0.0 0.0
000050 00 00 00 00 00 00 00 00 00 00 00 00 00 00 00 00
       0.0 0.0 0.0 0.0
000060 00 00 00 00 00 00 00 00 00 00 00 00 00 00 00 00
       0.0 0.0 0.0 0.0
000070 00 00 00 00 00 00 00 00 00 00 00 00 00 00 00 00
       0.0 0.0 0.0 0.0
000080 00 00 00 00 00 00 00 00 00 00 00 00 00 00 00 00
       0.0 0.0 0.0 0.0
000090 00 00 00 00 00 00 00 00 00 00 00 00 00 00 00 00
       0.0 0.0 0.0 0.0
0000a0 00 00 00 00 00 00 00 00 00 00 00 00 00 00 00 00
       0.0 0.0 0.0 0.0
0000b0 00 00 00 00 00 00 00 00 00 00 00 00 00 00 00 00
       0.0 0.0 0.0 0.0
0000c0 00 00 00 00 00 00 00 00 00 00 00 00 00 00 00 00
       0.0 0.0 0.0 0.0
0000d0 00 00 00 00 00 00 00 00 00 00 00 00 00 00 00 00
       0.0 0.0 0.0 0.0
0000e0 00 00 00 00 00 00 00 00 00 00 00 00 00 00 00 00
       0.0 0.0 0.0 0.0
0000f0 00 00 00 00 00 00 00 00 00 00 00 00 00 00 00 00
       0.0 0.0 0.0 0.0
000100 00 00 00 00 00 00 00 00 00 00 00 00 00 00 00 00
       0.0 0.0 0.0 0.0
000110 00 00 00 00 00 00 00 00 00 00 00 00 00 00 00 00
       0.0 0.0 0.0 0.0
000120 00 00 00 00 00 00 00 00 00 00 00 00 00 00 00 00
       0.0 0.0 0.0 0.0
000130 00 00 00 00 00 00 00 00 00 00 00 00 00 00 00 00
       0.0 0.0 0.0 0.0
000140 00 00 00 00 00 00 00 00 00 00 00 00 00 00 00 00
       0.0 0.0 0.0 0.0
000150 00 00 00 00 00 00 00 00 00 00 00 00 00 00 00 00
       0.0 0.0 0.0 0.0
000160 00 00 00 00 00 00 00 00 00 00 00 00 00 00 00 00
       0.0 0.0 0.0 0.0
000170 00 00 00 00 00 00 00 00 00 00 00 00 00 00 00 00
       0.0 0.0 0.0 0.0
000180 00 00 00 00 00 00 00 00 00 00 00 00 00 00 00 00
       0.0 0.0 0.0 0.0
000190 00 00 00 00 00 00 00 00 00 00 00 00 00 00 00 00
       0.0 0.0 0.0 0.0
0001a0 00 00 00 00 00 00 00 00 00 00 00 00 00 00 00 00
       0.0 0.0 0.0 0.0
0001b0 00 00 00 00 00 00 00 00 00 00 00 00 00 00 00 00
       0.0 0.0 0.0 0.0
0001c0 00 00 00 00 00 00 00 00 00 00 00 00 00 00 00 00
       0.0 0.0 0.0 0.0
0001d0 00 00 00 00 00 00 00 00 00 00 00 00 00 00 00 00
       0.0 0.0 0.0 0.0
0001e0 00 00 00 00 00 00 00 00 00 00 00 00 00 00 00 00
       0.0 0.0 0.0 0.0
0001f0 00 00 00 00 00 00 00 00 00 00 00 00 00 00 00 00
       0.0 0.0 0.0 0.0
