CS455_PR1/results/ppo/ShootTargetAgent/ShootTargetAgent-10635.onnx (onnx, 490268 bytes, 18 tensors)

discrete_act_size_vector f4 [1, 2]
000000 00 00 48 42 00 00 48 42
       50.0 50.0

network_body.observation_encoder.processors.0.conv_layers.0.weight f4 [16, 1, 8, 8]
000000 46 fe 92 3c 69 05 e7 3d cc 09 62 bd cc a5 d5 bd
       0.017943513 0.11280329 -0.055185124 -0.10432014
000010 fc 12 f9 bc 40 d9 ee 3d d5 81 d3 3d 56 29 55 3c
       -0.03040456 0.11662531 0.10327498 0.013010344
000020 af 42 39 bc 62 0f 30 bd 7c 99 cc 3d 5c af ac bd
       -0.0113074025 -0.04298342 0.09990212 -0.08431885
000030 fc 4c f0 bb 8b f3 51 3d 4e 87 cd bd 63 27 c8 bc
       -0.007333396 0.05125765 -0.10035573 -0.024432844
000040 51 ba 95 3c 3e 65 44 3c 5b 43 80 3d 15 b9 13 bd
       0.01827732 0.011987029 0.06262847 -0.03606518
000050 eb 84 c3 3d 03 be 91 3d 6a c8 9d bd 71 81 e4 3d
       0.095468365 0.0711632 -0.077042416 0.111575015
000060 26 4e b5 3d d9 01 8a 3d a3 1a eb 3d e4 29 85 3d
       0.08852796 0.06738634 0.1147969 0.06502131
000070 4c b7 82 3d 4c fd f7 3d de 85 56 bd 48 8a bc bd
       0.06382617 0.121088594 -0.05237376 -0.092060626
000080 5d cc 2c bd 9b a1 9c 39 31 38 ec 3d 18 be 28 3d
       -0.042187084 0.00029875044 0.11534155 0.041196913
000090 82 65 77 3d 18 85 e9 3d 52 0c e4 bd f9 0a ae bd
       0.06039954 0.11402339 -0.111351624 -0.084981866
0000a0 82 01 30 ba dc 5a dc 3d b0 8f c1 bd 89 9d ef 3d
       -0.0006714092 0.107595176 -0.09451234 0.11699969
0000b0 bd 87 8f 3d db b9 bd 3d 83 c5 fc 3d 35 95 1c 3d
       0.07008312 0.09263965 0.1234236 0.038228232
0000c0 9a c0 07 3d 55 cd b5 bc dc 7b 72 3d 3e d3 de bd
       0.033142664 -0.022192637 0.059200153 -0.10880135
0000d0 72 21 7c bc 87 9e d6 bd a0 4f 25 3c 22 88 d9 3c
       -0.015388833 -0.104794554 0.010089785 0.026554171
0000e0 ff fe b9 bc b8 50 20 3d 74 66 02 bd 3b 47 81 3d
       -0.0227046 0.03913948 -0.03183599 0.06312414
0000f0 c3 24 f5 3d 77 8c 4a bd e3 d6 01 3e 71 70 ee 3d
       0.11969902 -0.049450364 0.12679629 0.1164254
000100 ef c3 ac 3d fa eb 9d 3d 96 dd 98 3c a2 5d da 3d
       0.08435809 0.077110246 0.018660348 0.1066239
000110 df 25 05 3d e6 03 d8 3b 67 54 b2 3d 18 36 6f 3d
       0.03250682 0.0065922616 0.08707505 0.058401197
000120 bd d7 a1 3d 92 eb 7b 38 a1 e5 f7 3d 17 5c d0 3b
       0.07902477 6.0062455e-05 0.12104345 0.006358634
000130 e0 ba 16 3c 99 ea af bd 18 c4 b4 bd f8 e1 9e 3c
       0.009199828 -0.08589668 -0.088264644 0.01939486
000140 3b 4b f2 bd 1c 34 77 3c 0f 46 f4 3d e4 59 cc 3d
       -0.11830755 0.015088107 0.11927425 0.09978083
000150 4a 24 74 3c dd 15 c1 3c 00 fa 02 bd bb 07 32 3c
       0.01490123 0.023569996 -0.0319767 0.010866101
000160 25 11 88 3d 75 9a d8 bd 12 c2 74 3d ff dd d4 bd
       0.06643895 -0.10576335 0.059755392 -0.10393905
000170 cf bb c2 bd 00 5b 88 3b 8f bc 20 3d 2c 35 71 3d
       -0.09508478 0.0041612387 0.039242323 0.0588886
000180 0c 0f d1 bc 21 d2 8c 3d e7 ea b7 3d d6 b0 42 3d
       -0.02551987 0.068760164 0.08980351 0.047531925
000190 40 2a 7a bc 7a 00 1e 3d 60 e6 5a 3d 6e b7 c3 3c
       -0.015268862 0.038574673 0.05344236 0.023891177
0001a0 f9 bb 3e 3c 64 45 8e 3d df 02 66 bc ba 69 fd 3d
       0.011641496 0.06946829 -0.01403877 0.12373681
0001b0 d4 b0 54 bd 0c e5 8a bd a5 c7 12 3d 15 2a 20 3b
       -0.05192645 -0.067819685 0.035834927 0.0024439145
0001c0 36 d1 ad bd f2 bd 84 bd 09 05 af bd a0 4e 13 3d
       -0.084871694 -0.06481542 -0.08545882 0.035963655
0001d0 8c 25 af bd 01 04 58 bd 11 58 00 be 40 27 7b bd
       -0.085520834 -0.052738193 -0.12533595 -0.06131673
0001e0 8b 8c b2 3d 98 be 3c 3d 38 a1 28 3d 1a 70 74 3d
       0.08718213 0.046080202 0.041169375 0.05967722
0001f0 51 cc 74 bd ea 77 99 bd f5 9a fc bc 62 b3 c9 bd
       -0.059765164 -0.07493575 -0.030835608 -0.09848668
000200 03 58 9d 3d 79 33 4d bc 20 c9 63 3d 12 71 d8 bd
       0.076828025 -0.012524479 0.05561173 -0.105684415
000210 cf ce e9 bd a8 a6 b4 3c 70 0e 03 be e0 48 ec bc
       -0.11416399 0.022052124 -0.12798476 -0.028843343
000220 48 00 25 3d 55 4a ae bd a0 7d 25 3d c5 9d f5 3c
       0.04028347 -0.085102715 0.04040301 0.029982457
000230 d6 61 2d bc 36 19 7f 3d c4 71 7e ba 3b da 32 bc
       -0.010582408 0.062279902 -0.00097062835 -0.010916288
000240 21 70 c9 3c fc d1 d8 3d 41 0c 23 3d ae 67 c6 3d
       0.0245896 0.10586926 0.039806608 0.09687744
000250 ef f9 c2 bc 8f 99 75 3c 59 6a 99 bd e3 93 3b 3d
       -0.023800818 0.0149902245 -0.07490987 0.045795333
000260 79 0e f7 bd 93 df d5 bd 52 de 80 3a 16 84 c1 3d
       -0.12063307 -0.10443034 0.0009831882 0.094490215
000270 90 ae aa 3d 68 06 b2 bd 7b 6a 4a bd dc 47 dd bd
       0.083340764 -0.08692628 -0.049417954 -0.10804722
000280 38 25 76 bd be b5 5e 3d 69 20 91 3d 76 a9 49 3d
       -0.06009409 0.05437254 0.0708626 0.049233876
000290 56 18 ce bd 27 5e bd bd 29 ce b9 3d cc db f1 bc
       -0.100632355 -0.09246474 0.09072525 -0.029523753
0002a0 5e 85 59 bd 7b 0c 71 3d 4c 93 d3 3d de 43 85 3d
       -0.053105704 0.058849793 0.10330829 0.06507085
0002b0 d2 69 f5 bd f8 78 77 bd 0c 81 d6 3c 09 7c dd 3d
       -0.11983074 -0.0604181 0.026184581 0.108146735
0002c0 db 4f ed 3c 23 d4 66 bd 71 7e 40 bc fe 51 21 bd
       0.028968742 -0.056354653 -0.011748896 -0.039384834
0002d0 7c a7 a8 bc d4 98 9d 3d c4 c2 83 bd 87 bd fc bd
       -0.020587675 0.07695165 -0.06433633 -0.12340837
0002e0 98 d4 44 3c 9e ea b7 bd 95 88 d0 bd 86 6f a1 3d
       0.012013577 -0.089802966 -0.10182301 0.078825995
0002f0 45 c1 ea bc fa f9 4c bc 70 98 92 bd 1e d9 c3 3c
       -0.028656611 -0.012510771 -0.071579814 0.02390724
000300 b1 9d f6 3d e5 02 0b 3d a8 4d b8 bd 7c bb 7d bd
       0.12041796 0.033938307 -0.08999187 -0.061946377
000310 2b a8 85 bd 94 59 87 3d 2e da a2 bc f6 ce 43 bd
       -0.06526216 0.066088825 -0.019879427 -0.047804795
000320 57 a4 22 bd 65 52 ab 3b b8 f2 53 bc fe c9 93 bd
       -0.039707508 0.005228328 -0.012936287 -0.07216261
000330 83 27 e3 bd a8 01 97 3c f2 e9 d3 3d 9c 53 ad 3d
       -0.11091521 0.018433407 0.10347356 0.08463213
000340 ba f8 fc bd 00 4d ae 3d fd a4 47 3b d3 90 9a 3d
       -0.12352128 0.0851078 0.003046333 0.07547154
000350 aa 4b 9b 3d 76 49 70 bd c4 32 04 3e e2 ca 46 3b
       0.07582791 -0.058663808 0.1290999 0.003033333
000360 d1 49 b6 3d 04 d7 73 bd 75 a9 4a bd 97 43 09 3d
       0.08900798 -0.059531227 -0.049478013 0.033511724
000370 1c a8 49 3d 4d ea 84 3d b8 ac 1d bd db 10 ad bc
       0.049232587 0.06490002 -0.038494796 -0.021126201
000380 87 66 f2 bd f5 cf e1 3c c5 f2 60 bd 8c 81 aa 3d
       -0.11835962 0.027564982 -0.054919023 0.0832549
000390 d7 da 9e bd 39 e3 f2 3d e9 f7 99 3d 8c b0 73 bb
       -0.07756584 0.118597455 0.07517988 -0.0037184088
0003a0 4f 83 95 bd b3 ba 93 3d 00 7b 98 bc 03 af 97 bd
       -0.07300436 0.072133444 -0.018613338 -0.07406428
0003b0 9f 26 a5 bd 02 f2 97 3d bf 79 d8 3d 64 63 0d 3d
       -0.08064007 0.07419206 0.10570096 0.034518614
0003c0 0b 2c 79 bd f5 0f bd 3b a4 7f 23 bc 5b 66 8f bd
       -0.06083302 0.0057697245 -0.009979162 -0.07001945
0003d0 50 e1 5e 3c 35 d1 bb 3d 81 cd b3 3d 67 71 e9 3d
       0.013603523 0.091707624 0.08779431 0.11398583
0003e0 cb a1 df 3d 26 e4 c7 3d 3c 51 88 bd 77 09 39 3c
       0.109195314 0.09760313 -0.06656119 0.0112937605
0003f0 71 b4 b3 bd a3 91 59 bd 85 13 a0 bd 0a 81 cb bd
       -0.08774651 -0.053117406 -0.07816223 -0.099367216

network_body.observation_encoder.processors.0.conv_layers.0.bias f4 [16]
000000 58 51 90 ba 58 f2 e4 3d 92 d8 82 bc 85 a7 21 bd
       -0.001101057 0.11179036 -0.01597241 -0.0394664
000010 61 f7 d7 bd 7a fe aa 3c 0e 94 ef 3d 9c f9 cd bb
       -0.10545231 0.020873297 0.11698161 -0.0062858593
000020 73 fa f9 3d 83 2f ef bc 02 1f 81 3d af 68 93 bd
       0.122059725 -0.02919746 0.063047424 -0.07197701
000030 de ff 4f bd e5 34 6c 3a 58 b4 9c 3d 6e 3d 2e bd
       -0.050781123 0.00090105674 0.07651585 -0.042539053

network_body.observation_encoder.processors.0.conv_layers.2.weight f4 [32, 16, 4, 4]
000000 e5 35 ef bc cc c4 95 3c b7 0c ca 3c 9a a1 bb 3c
       -0.029200504 0.018282317 0.024664266 0.022904206
000010 3f 12 2f 3c 51 3e 31 bd 5e a3 33 3d 1c e8 62 bd
       0.010685503 -0.04327232 0.04385697 -0.055397138
000020 dd d9 c0 3c 29 15 13 bd 8c c0 76 bc 63 f3 db 3c
       0.023541385 -0.03590885 -0.015060555 0.026849454
000030 98 3d 4b bd 13 77 a8 bc 28 30 d9 3a 04 9c 3f bd
       -0.049619287 -0.020564592 0.0016570138 -0.046779647
000040 91 18 1e bd f5 bb 90 3c 70 5f b7 bc 97 0e 57 bd
       -0.038597647 0.01766775 -0.022384375 -0.05250415
000050 0c 2d 23 3d a1 4b e6 bc 85 40 47 3d a5 e0 9d 3c
       0.039837882 -0.028112235 0.048645515 0.019272158
000060 53 f5 c4 3b ff 9b 27 bd b6 f4 71 3d b9 b6 2d 3d
       0.0060106902 -0.040920254 0.059071265 0.042410586
000070 e4 30 1a bc 05 4a ce 3b 39 37 3f bd 56 7e 59 bd
       -0.0094110705 0.006295445 -0.046683524 -0.053099
000080 cb 71 0e bd cf 07 d8 3c 89 21 46 b8 48 1a de 3c
       -0.03477649 0.02637091 -4.723811e-05 0.027112141
000090 a2 00 0b 3d da 4e 07 3c b4 03 06 3c 61 93 18 bd
       0.03393615 0.008258546 0.008179594 -0.037249926
0000a0 b3 d1 93 3c 28 09 7a bd 90 ee 23 bd 21 ef 22 bd
       0.018044328 -0.06104389 -0.040022433 -0.039778832
0000b0 9d 69 56 bc 45 67 3f bd ac ba 36 bd d7 67 10 bd
       -0.013086704 -0.046729345 -0.044611618 -0.03525528
0000c0 73 7f 61 bd e7 88 93 bc ba 34 6f 3d 74 7a 2f 3d
       -0.055053186 -0.018009616 0.058399893 0.04284139
0000d0 df b8 3f bd 88 fc 46 bc 78 82 17 bd 82 b0 1f 3d
       -0.046807166 -0.012145169 -0.03698966 0.03898669
0000e0 6b d6 69 3d 63 46 ff 3c a1 85 21 3d 6f 42 23 bd
       0.05708925 0.031161493 0.03943408 -0.039858278
0000f0 ed ea 6a 3d 5b 8c 58 bd 45 bb 31 bd 93 2c 2a 3d
       0.05735295 -0.05286823 -0.043391485 0.041546416
000100 b2 d2 c2 3a b8 0a 10 3d 9f 7f de bc 47 cf d4 3c
       0.0014863817 0.035166472 -0.027160464 0.025977744
000110 07 31 37 3d 6f ea 32 3d f3 89 11 bb cb 20 4a 3d
       0.04472449 0.043680605 -0.0022207468 0.04934768
000120 db 48 74 3d de 97 43 3d e1 80 19 3d b7 bf 94 3c
       0.059639793 0.047752254 0.037476424 0.018157823
000130 ad 94 41 3d bf e4 40 bd a8 af 04 3d e0 da c9 bc
       0.04726093 -0.04709315 0.03239408 -0.0246405
000140 0b 9c 5d 3d ea 74 bc 3c 6b 40 e9 bc 75 2d 73 bd
       0.054103892 0.023004968 -0.0284731 -0.059369523
000150 e3 32 7a 3d 21 7a b2 bb ca 31 44 bc 59 ba 24 bd
       0.061083686 -0.005446688 -0.011974761 -0.040216777
000160 dc e5 21 3b 42 c5 61 3d 1e a6 75 3d 63 43 1a bb
       0.0024703657 0.05511976 0.059972875 -0.00235387
000170 8a 99 01 3d 46 c0 2e 3d 7c 22 29 bd 7d 28 45 bd
       0.031640567 0.042663835 -0.041292652 -0.048134316
000180 1d 2a ae bc 80 f1 09 3d e9 6d 94 3b 97 4e 00 bd
       -0.021260316 0.033677578 0.004529704 -0.03132495
000190 7d 91 ed bc ea 30 0e 3c 3a 9d 63 bd 52 76 b6 3c
       -0.029000038 0.008678654 -0.055569865 0.022273216
0001a0 39 9d 66 bc 5a 4f 77 b8 6e 31 9b bc df 56 45 3d
       -0.014075571 -5.896329e-05 -0.018944468 0.04817855
0001b0 13 4a 76 bd 32 ea 3c 3d 61 b7 d8 bb 71 bf b3 3c
       -0.060129236 0.046121784 -0.0066136573 0.021941872
0001c0 88 79 7b bd 1c 5a 3b 3d 13 d9 37 3d e1 f6 69 3d
       -0.061395198 0.045740232 0.044884752 0.057120208
0001d0 6c b5 f4 ba fa 0f 42 bd b0 fb 05 3d ca 01 ef bb
       -0.0018669791 -0.047378518 0.03271073 -0.0072939144
0001e0 94 79 0b bd a9 9d 35 3d a7 54 43 bd 30 2d 2d 3d
       -0.034051493 0.04433981 -0.047688153 0.042279422
0001f0 3d 1e 89 3c 60 e9 92 3c 06 33 f5 bc 90 0c 47 3d
       0.016738052 0.017933547 -0.029931556 0.048595965
000200 26 1a 6a bd 84 9f 43 3d 86 f4 7c 3d 45 76 a8 3a
       -0.057153843 0.047759548 0.061756633 0.001285263
000210 ec bf ce 3c e7 ca 04 bc e3 9c 8e bc fe d8 00 bc
       0.025238 -0.008105016 -0.017408794 -0.007864235
000220 60 d9 6b bd 80 6d 5d bc 19 20 82 3d 3b f3 18 bd
       -0.05758035 -0.013514876 0.063537784 -0.037341338
000230 82 14 b5 bc 06 91 22 3d f2 59 95 3c 62 9a 62 3d
       -0.022104505 0.039689086 0.018231366 0.055323012
000240 37 08 5f 3d c3 2f 6f bb bc 02 1e 3d 35 52 e3 3c
       0.054451194 -0.0036496974 0.038576826 0.02774916
000250 1c 04 bc 3b e8 03 e5 3c 2f 65 52 3d 51 b7 5d bd
       0.0057377946 0.027955964 0.051366027 -0.054129902
000260 42 ad 98 bc a9 a6 97 bc d2 0e f4 bc eb 46 30 3c
       -0.018637303 -0.018512087 -0.029792223 0.010759096
000270 74 6c 79 3d 4e 18 68 3d 63 5d 04 bd 77 56 2d 3c
       0.060894445 0.056663804 -0.032315623 0.010579697
000280 94 d1 03 bd 6b bd e9 bc 7f 33 55 3c 3a f1 78 3d
       -0.03218229 -0.028532704 0.013012766 0.060776927
000290 5f a8 f0 3c e3 d7 7a 3d c5 0a 81 3c da 6d a4 3c
       0.02937716 0.061241042 0.015752206 0.020071913
0002a0 6c bc e5 bc 3b 95 8d bc ff 1f 50 3c 60 ab ce 3c
       -0.028043948 -0.017283073 0.012702941 0.025228202
0002b0 22 94 11 bd 2e cf ca bc cd 26 57 3d 72 a0 3c 3d
       -0.03554166 -0.024756994 0.052527238 0.04605145
0002c0 7f d9 78 bd 11 a5 73 3d 7d 5e b5 bc fa 95 8b bc
       -0.060754295 0.05948359 -0.022139782 -0.017039288
0002d0 8f e8 66 bc 2f 25 00 3d 3c 72 46 3c 7e e2 5e bd
       -0.014093532 0.03128546 0.012112197 -0.05441522
0002e0 a6 bf 43 bd 80 54 cb 3c b3 21 4b 3d 4e 83 13 bd
       -0.047790192 0.024820566 0.049592685 -0.036013894
0002f0 6c a3 b9 3a 1d 05 34 bd f3 8d 37 3c e0 77 09 bd
       0.0014163083 -0.04395019 0.011203277 -0.033561587
000300 8d 43 59 3d 82 80 bb bc eb cd 86 3a 13 41 9a 3c
       0.053042937 -0.022888426 0.0010284757 0.018829858
000310 3f d7 1b 3c 40 58 ae 3c 50 7c c3 bb de 53 5a bc
       0.009511768 0.021282315 -0.005965747 -0.01332566
000320 7c e7 af bc e6 66 79 bd d8 80 14 bd ad f6 f7 bc
       -0.021472685 -0.060889147 -0.036255687 -0.030268991
000330 09 c5 b0 bc 38 20 47 bd ac 53 46 bd 34 73 36 3c
       -0.021578329 -0.04861471 -0.04841964 0.011135865
000340 f3 27 18 3d 84 da 4b 3d 41 2f 5c 3d f5 87 fc 3c
       0.037147474 0.04976894 0.053756002 0.030826548
000350 0c 59 d7 3b 0a c2 d0 3c c6 97 5d 3d 8d b3 1a 3d
       0.0065718945 0.02548315 0.05409982 0.03776889
000360 7c 39 7b 3d 73 b5 87 3c 95 b1 d9 3b cb e4 30 bd
       0.06133412 0.016566014 0.006643484 -0.043186944
000370 50 4f 74 bd 78 35 75 bd 53 02 01 bb c0 d6 90 3c
       -0.05964595 -0.059865445 -0.0019685223 0.017680526
000380 e1 a7 57 3b 95 e4 03 3d 8d fd 5c bd 61 19 55 bd
       0.003290646 0.032200415 -0.053952742 -0.052026156
000390 c8 32 14 3c b9 9a ac bc 7f be 0a bd df 27 ee 3c
       0.00904531 -0.021069871 -0.033873077 0.029071746
0003a0 20 aa 48 bc 4c fd 9c 3c 39 6e 5f 3c 0e 34 3d bc
       -0.012247592 0.01916375 0.013637119 -0.011548055
0003b0 42 c5 42 3b 95 bd f5 bc 00 39 67 bd 11 c2 30 3d
       0.0029719626 -0.029997626 -0.056450844 0.043153826
0003c0 89 e6 97 3c 09 60 36 bd 13 31 c9 3c 1d ce 27 3d
       0.018542545 -0.04452518 0.024559533 0.04096805
0003d0 67 a7 0b 3d e7 d3 49 bb b2 2c 48 bd 2e 32 f2 3c
       0.034095194 -0.003079647 -0.04887075 0.029564943
0003e0 81 79 c9 bb 11 a3 f4 3c b3 8e 4f 3c 9b 00 30 3d
       -0.0061485176 0.029862912 0.0126682995 0.042969327
0003f0 5b 41 7a 3d 52 e9 df bb ef 47 82 3d 8f 04 6a bc
       0.061097484 -0.006833234 0.063613765 -0.014283313

network_body.observation_encoder.processors.0.conv_layers.2.bias f4 [32]
000000 6e 25 84 bb bb 43 86 39 ae b1 b4 bc 3b 51 16 bd
       -0.0040327823 0.00025608935 -0.02205738 -0.03669856
000010 91 cc 8f bc 10 44 52 3c 6a 45 80 bd 60 b0 47 3d
       -0.0175536 0.01283361 -0.0626324 0.04875219
000020 e6 59 18 3d 70 79 50 bd c1 50 2f 3b 8b c2 d4 b9
       0.03719511 -0.05089706 0.0026751014 -0.00040580737
000030 5f ac 57 3d 7b 22 c9 ba 13 ad 79 3d 80 e6 ac bc
       0.05265462 -0.0015345359 0.060956072 -0.021106005
000040 04 63 84 bc 96 34 40 bb 36 1a 68 3d c4 32 66 bd
       -0.016160496 -0.0029328219 0.05666562 -0.056200758
000050 82 54 37 bb a4 74 80 b9 65 cd 52 3d 58 03 d9 ba
       -0.0027973955 -0.00024500967 0.05146541 -0.0016556783
000060 e6 c7 50 3d c8 8d 5e bd ef e5 e7 3c 13 f1 6a 3d
       0.050971888 -0.054334432 0.028307883 0.057358813
000070 d1 5c 99 bc f8 1e 7b 3d 74 80 76 bd f5 87 c0 bc
       -0.018721016 0.06130883 -0.060181096 -0.02350233

network_body.observation_encoder.processors.0.dense.0.weight f4 [128, 512]
000000 53 04 a6 3c 94 fb 51 3b 88 de b5 bc 13 6e 40 3d
       0.020265734 0.0032040821 -0.022200838 0.046979975
000010 0c 9c 75 bd b9 fb f8 3d bf f3 47 bd 1c 0b b6 3d
       -0.05996327 0.12157387 -0.04881644 0.08888838
000020 9c 8d 8c 3d 18 ba 18 3d 71 56 15 bb 13 27 f8 bb
       0.06862947 0.037286848 -0.0022787119 -0.0075730174
000030 d7 0b ee 3b 22 70 76 bd 1b 98 09 bd 81 f9 59 bc
       0.007264595 -0.060165532 -0.033592325 -0.013304115
000040 da f5 87 bd d5 fc c6 bc 9f ff d9 bc 74 f7 8d 3b
       -0.06638689 -0.024290482 -0.026611147 0.004332477
000050 0d e5 d2 3d ae af 39 bd ce 8d 07 3e ec 50 fd bd
       0.10297594 -0.045333557 0.13237688 -0.1236895
000060 89 33 8e 3d c3 3e c9 3b 53 54 5c bd c4 38 9b bc
       0.06943423 0.006141515 -0.053791355 -0.018947966
000070 5f 73 bf 3c ea 8d 36 3c 0b 71 4a bd 84 fd 8c 3d
       0.023370443 0.011142233 -0.049424212 0.06884292
000080 5d cd d7 3c 2e eb 56 bd 05 4b 35 3c ff ea 92 bc
       0.026343042 -0.05247038 0.011065249 -0.01793432
000090 0e 93 47 bd 4c 61 8e bd d2 4f 06 39 a9 b5 96 3c
       -0.048724227 -0.06952152 0.00012808971 0.01839717
0000a0 02 89 76 3d 41 e5 0f bd b1 23 ea bc 17 ed f3 bd
       0.060189255 -0.035130743 -0.028581472 -0.11910456
0000b0 83 41 c0 3c 67 47 1d bd 51 a1 a9 bd e4 a3 1e be
       0.023468738 -0.038398173 -0.08282722 -0.15492207
0000c0 7d 01 af 3d 9e c5 f5 bd 59 db 6b bd 2d 19 2a 3d
       0.08545206 -0.12000583 -0.057582233 0.041527916
0000d0 77 b4 db bd fb f9 b4 bd 68 b9 b8 bd 05 f9 b3 3c
       -0.1072778 -0.088367425 -0.090197384 0.021969328
0000e0 1c 96 19 3d 1c cf 18 3d 2c 50 b8 bd f2 0e 4f 3c
       0.03749667 0.03730689 -0.089996666 0.012637841
0000f0 46 f5 b3 3c 08 0d ee 3d eb 40 9a bc 33 29 73 3d
       0.021967541 0.11623579 -0.018829783 0.059365463
000100 19 34 90 3c a0 59 59 3b 17 4b b1 3c 99 37 9b bc
       0.017602967 0.0033164993 0.021642251 -0.01894741
000110 66 04 cf bb 26 c7 ac 3d dc cf d7 3b 88 68 c7 bb
       -0.006317663 0.08436422 0.006586058 -0.006085459
000120 cf 45 17 3c 9e 84 e9 bd b8 e6 f1 3c fd ce 36 bc
       0.009232952 -0.11402248 0.02952896 -0.011157748
000130 fe f0 f2 3d 09 e5 18 bc 4c f1 58 bd 3a c4 91 bd
       0.11862372 -0.00933195 -0.052964494 -0.07117505
000140 89 20 71 bc 72 ec f7 bd 9f 60 c0 3c 71 bc 11 bd
       -0.01471723 -0.12105645 0.023483573 -0.035580102
000150 bb 8a 6c 3d 64 b1 a3 bc 9e 75 0a bd 74 21 d4 3c
       0.05774949 -0.019982047 -0.033803575 0.025894858
000160 ba 89 03 3e ae e4 64 3c 59 8d ce bc 22 09 9d bb
       0.12845507 0.013970537 -0.025213884 -0.0047923485
000170 2f 89 f6 bb 29 fa 83 bd 04 c5 f1 bb b3 42 1c be
       -0.007523678 -0.06444199 -0.0073782224 -0.15259819
000180 8b 7a 02 3d de 14 f1 bb 18 23 b5 bd 7b b4 01 3e
       0.031855147 -0.007357224 -0.08844584 0.12666504
000190 bd 24 87 3d b7 d5 c8 bc 1d a5 02 3b f3 56 80 3d
       0.06598804 -0.02451597 0.001993484 0.06266584
0001a0 73 51 9a bd 83 81 0d bd 05 79 a8 3c d1 12 81 3d
       -0.075350665 -0.03454734 0.02056552 0.06302417
0001b0 e7 74 68 3d 3d 5d 29 3e 17 04 25 bd 1e aa 3e 3d
       0.05675211 0.16539474 -0.040287104 0.046548955
0001c0 d7 53 26 bd 5c 84 09 be a4 80 c3 3c 93 87 27 3d
       -0.0406073 -0.13429397 0.023865052 0.040900778
0001d0 b1 45 96 bd a4 2c bc bd 8f 9a c3 3d 8c 2c 1f bc
       -0.07337511 -0.09188202 0.09550964 -0.009715211
0001e0 69 19 ed 3c d8 9c f9 3c 02 37 bc bc 48 36 0d bd
       0.02894278 0.030470297 -0.022975449 -0.034475595
0001f0 39 e8 d2 bd df 34 d4 bd 4c 10 b8 bc a3 ec 29 bd
       -0.10298199 -0.10361647 -0.022468708 -0.04148544
000200 e4 fc f0 bc b5 fa b6 bd d4 14 7b bc ba 51 97 bd
       -0.029417463 -0.08934537 -0.01532479 -0.07388635
000210 a1 fa 24 bd d1 8e 8b bd a2 b0 dd bd 88 12 7d 3d
       -0.04027808 -0.068143494 -0.10824706 0.06178525
000220 ea 23 80 bd a8 06 9d bd 39 c8 aa 3b 03 c6 db bd
       -0.0625685 -0.07667285 0.0052118567 -0.10731127
000230 2f 07 8f 3c 51 a8 3f 3d 5f 92 1e bd 28 38 23 3d
       0.01745948 0.04679138 -0.03871381 0.039848477
000240 29 b4 3e be c4 b9 7d 3d 26 9f 93 bd 7e 8b 12 bc
       -0.18623413 0.061944738 -0.072080895 -0.00894439
000250 67 15 f0 3d 92 3a 87 bd 23 35 25 bd ee 23 a6 3d
       0.11722832 -0.06602968 -0.04033388 0.08112322
000260 34 1c 8c 3d 68 9b be bd ad c7 ca bc 97 42 49 3e
       0.06841317 -0.09306985 -0.024753416 0.19654308
000270 35 c1 a0 bd b1 7f 74 3d dc 12 62 3d 1d 91 a2 bd
       -0.07849351 0.05969209 0.055193767 -0.079378344
000280 73 47 e5 3d e2 2f db bc 05 b4 0a be 7b 38 81 bd
       0.111952685 -0.02675623 -0.13545235 -0.06309601
000290 50 aa 74 3d fb f1 5f 3d d8 ef bb 3d 1f 9a fd bc
       0.059732735 0.05467413 0.09176606 -0.03095728
0002a0 17 b3 9d b9 1a 18 d5 3d bd 70 2a bd 45 2b dc 3d
       -0.00030078806 0.10404988 -0.04161142 0.107504405
0002b0 3d a8 b6 3c e6 cd 5c bc 30 92 ea 3c d5 77 fc 3c
       0.02229702 -0.013476824 0.02863416 0.03081886
0002c0 f5 ec 8f bd 07 9e 2a 3d 45 06 33 bd 90 af dc bd
       -0.07027618 0.041654613 -0.04370715 -0.107756734
0002d0 8d e8 ce 3c fc f2 89 3d 40 0b 2f bd 5d 3b a5 3d
       0.025257373 0.06735799 -0.04273534 0.08067963
0002e0 5a ec 91 3d 8e 47 f9 3c d9 0a 86 3d 44 6d 94 3c
       0.071251586 0.030429628 0.06545038 0.018118508
0002f0 52 36 49 3d 8f 82 ad bd 8c 65 a8 3c 32 f7 20 bd
       0.04912407 -0.08472168 0.020556234 -0.039298244
000300 d4 0c 78 3d d9 0d b8 3c bd b3 e3 bc 6c df 26 3d
       0.06055911 0.02246754 -0.027795667 0.040740415
000310 d9 0b 40 3d 79 52 6c 3d 15 fb 01 3d b9 05 0b bd
       0.0468863 0.05769584 0.03173359 -0.033941004
000320 1e c4 43 bd b9 2f 09 bb 82 b8 aa bc 87 6d a7 bd
       -0.047794454 -0.0020932986 -0.020839933 -0.081751876
000330 5a 0a e6 bd c2 bc 58 3d 09 b1 62 3d 99 28 9d 3b
       -0.11232443 0.05291439 0.055344615 0.0047960994
000340 f7 e3 a7 3d 59 aa 1e bc b6 f1 a2 bd b9 08 d2 bc
       0.08197778 -0.009684169 -0.07956259 -0.025638925
000350 fb 38 6e 3c 58 74 da bd c0 c2 1a 3c c2 99 ce bd
       0.014539952 -0.10666722 0.009445846 -0.10087921
000360 d4 d0 59 bc e8 57 35 3d 73 46 7f bd 9c 7b 21 3d
       -0.013294417 0.044273287 -0.062323045 0.039424524
000370 03 8f 94 3d 21 3a 91 bd d1 0b 7f bd 5f eb 96 bd
       0.0725384 -0.07091165 -0.06226713 -0.07369112
000380 82 bd b0 3d b2 fc 7d 3d 45 61 ac bd b1 ea 8e bd
       0.08629896 0.062008567 -0.0841699 -0.069783576
000390 46 87 01 3d bf 56 54 bc af ce 60 bc 7a 49 15 3d
       0.031623147 -0.012960135 -0.013721152 0.036447026
0003a0 4a 07 c3 38 20 2c 1a 3c 36 f5 17 3d 81 60 50 bc
       9.299682e-05 0.009409934 0.037099086 -0.012718321
0003b0 9b 75 7a bd d2 a9 20 bc 80 a3 11 be 1e 51 0a 3e
       -0.061147314 -0.009806113 -0.14222527 0.13507506
0003c0 32 d8 0c 3d 1a df f4 3b 35 56 cc bd 5a 7b 72 3d
       0.034385867 0.007472885 -0.0997738 0.05919967
0003d0 b5 0a b9 3d a2 bc c4 3d 1b be 02 be 04 12 94 bd
       0.09035245 0.09606291 -0.12767832 -0.07229999
0003e0 00 d1 26 bd de 56 f7 3c 21 0a 3b bc 6d 5c 0f bd
       -0.04072666 0.030192789 -0.011415989 -0.035000253
0003f0 81 df ec bc e4 a9 32 3d 3f 70 df 3c cc 99 d4 bd
       -0.028915169 0.04361905 0.027275203 -0.10380897

network_body.observation_encoder.processors.0.dense.0.bias f4 [128]
000000 0f 17 17 bb de da 17 ba ae 17 6e ba ac 59 87 bb
       -0.0023054515 -0.00057928066 -0.0009082508 -0.004130563
000010 6d d2 30 3b c9 db 46 bb 58 c9 44 bb 51 a7 85 ba
       0.0026980892 -0.0030343405 -0.0030027237 -0.0010196959
000020 25 fe f1 ba 36 c5 00 3a 20 8f 11 bb 6d 5a ec ba
       -0.0018462582 0.0004912199 -0.0022210553 -0.001803232
000030 9c 4c 5d bb 39 ad bf 3a 58 b7 a4 3a d8 17 7b 3b
       -0.0033767587 0.0014623768 0.0012566848 0.0038313773
000040 bb 13 36 bb a0 14 8f ba 63 1f 07 3b 61 78 32 3b
       -0.0027782756 -0.0010916181 0.0020618073 0.0027232396
000050 b1 d9 05 bb d9 56 a3 3b 40 a2 8e ba 9f d1 66 ba
       -0.0020423944 0.0049847183 -0.0010882095 -0.00088050397
000060 99 76 33 3b 81 9c 85 ba af 37 6b bb 4d 3a 8e 3a
       0.0027383922 -0.0010193737 -0.0035891344 0.0010851115
000070 cb 36 7c 3b 51 30 da ba 7a f5 a3 bb f1 72 3b 3b
       0.0038484808 -0.001664648 -0.0050036283 0.0028602446
000080 ce a5 ff ba ac 9a ac 3b df 93 9a 39 c6 38 01 3b
       -0.001950437 0.0052674618 0.00029483341 0.0019717677
000090 75 b5 9a 3a 76 6a 8e 3b d5 d9 d0 ba d5 e7 ab bb
       0.0011803346 0.004346187 -0.001593406 -0.0052461424
0000a0 23 60 58 3b 5d 4c 31 3b 64 37 27 3b 63 4c 6b bb
       0.0033016286 0.0027053573 0.0025515193 -0.0035903684
0000b0 f7 12 08 3b 02 64 8d 3b 3a 2a 44 3b 7b fb e1 3a
       0.0020763257 0.0043149004 0.0029932396 0.0017241085
0000c0 37 2c 40 3a 66 d5 a0 3b 99 fd 1a bb ec 0c c0 b9
       0.0007330807 0.0049082516 -0.002364969 -0.0003663072
0000d0 a5 a1 96 3a ac 6c 1f 38 6a b8 36 3b 55 e3 15 bb
       0.0011492266 3.8009763e-05 0.0027880915 -0.0022871096
0000e0 cf 75 18 bb 44 e1 82 ba 13 44 4e b9 e0 52 31 3b
       -0.0023263579 -0.0009985347 -0.0001967105 0.0027057454
0000f0 3b 05 15 3a 75 7b 8e 39 53 d4 2b bb 7a ba 8a 3b
       0.00056846783 0.00027176333 -0.0026219084 0.0042336555
000100 68 22 7c ba 72 17 56 39 a8 03 20 bb 31 7d 63 3b
       -0.0009618164 0.00020417364 -0.0024416242 0.003471207
000110 d8 e1 56 ba ec ae 1a bb 13 88 77 bb 2c 3c 4e bb
       -0.00081971055 -0.0023602797 -0.0037770316 -0.003146897
000120 b9 46 aa bb c4 5e a7 ba a5 f1 f5 ba ec 2b 64 3b
       -0.005196419 -0.0012769331 -0.0018764032 0.0034816219
000130 94 95 8a bb e8 79 80 bb 93 29 70 3b 55 55 e1 36
       -0.004229257 -0.0039207824 0.0036645874 6.7154565e-06
000140 e5 ad 30 3b 77 f1 d1 ba 3e 78 4f 3b cc 01 ae 3a
       0.0026959118 -0.0016017397 0.0031657363 0.0013275682
000150 f5 c5 2a bb f1 dd 84 3b 77 37 1f 3b 29 79 be 38
       -0.0026057933 0.004054778 0.0024294534 9.082474e-05
000160 12 cd a3 3b bf d5 ca 3a a6 a3 c9 3a 7b 0a 18 bb
       0.0049988115 0.0015475078 0.0015383854 -0.0023199606
000170 77 4c a4 ba 01 2c 32 3a 87 47 18 bb ba 22 f1 ba
       -0.0012534995 0.0006796718 -0.0023235993 -0.001839719
000180 c3 08 8d 3a 95 c5 27 bb f4 b4 df ba 1c 75 99 ba
       0.0010760057 -0.0025599946 -0.0017067478 -0.0011707875
000190 71 43 0b bb 55 e5 44 3b 39 13 62 bb d4 6a 16 bb
       -0.0021249915 0.003004392 -0.003449632 -0.0022951858
0001a0 7e c7 5b 3b 62 ef c2 ba 69 09 9f 3b 2c a6 6a 3a
       0.0033535655 -0.0014872367 0.0048534167 0.0008951153
0001b0 fc aa 37 ba bf c4 e9 3a a5 2f 3d 3a b8 c7 b2 ba
       -0.00070063747 0.0017835124 0.00072168774 -0.0013639843
0001c0 01 00 e5 b8 ac 98 f9 ba 20 e2 0c bb a8 50 e6 ba
       -0.00010919572 -0.0019042692 -0.0021497086 -0.0017571645
0001d0 83 33 57 39 eb 12 ab bb ae fd 60 bb 14 fe 72 bb
       0.00020523187 -0.005220761 -0.0034330892 -0.0037077712
0001e0 3d ce 36 bb f6 95 74 3b d7 07 0e bb 35 39 3d 3b
       -0.0027893924 0.003732083 -0.0021672153 0.002887321
0001f0 70 8f ee 3a f2 af c2 3a f4 4c ee ba 40 7a fe b8
       0.0018200707 0.0014853461 -0.0018180893 -0.00012134435

network_body._body_endoder.seq_layers.0.weight f4 [128, 128]
000000 d6 d2 0c be ea 9d 00 3e 85 b8 8b 3d cb 5d a7 bd
       -0.13752303 0.1256024 0.06822304 -0.081721865
000010 e7 20 04 3c f1 58 05 bd ef 9a 62 bd 29 b0 b8 bd
       0.008064485 -0.032555524 -0.055323537 -0.09017975
000020 fc 21 17 3e 9a 61 c6 3d 40 28 d4 bb 71 61 e1 bd
       0.14759058 0.09686585 -0.0064745247 -0.110049136
000030 03 59 99 3b 09 77 b5 3d 8b 60 6f 3d 88 45 96 bd
       0.0046798005 0.08860595 0.05844168 -0.07337481
000040 2c 9c 03 3e b7 ba 93 bb ed b5 70 bc a7 58 fb 3b
       0.12852544 -0.004508342 -0.014691812 0.0076704803
000050 07 f6 ae bb fe f0 e9 3d 4e 1b a1 bd e4 af 14 bd
       -0.0053393873 0.11422919 -0.07866536 -0.036300555
000060 71 b4 05 3e 0a 5d a0 bd c8 8b 92 bd e6 7d 99 3d
       0.13057114 -0.07830246 -0.071555674 0.07494716
000070 70 13 ba bd 75 86 01 be a1 a2 ae 3c e8 a0 60 bd
       -0.09085739 -0.12648948 0.021317782 -0.054840952
000080 4d f9 08 bd 7e c2 e1 3c 66 4c fc 3d 8e d0 1b 3e
       -0.033440877 0.027558561 0.12319259 0.15216276
000090 59 9d 7c 3d c0 79 9b 3d c5 31 13 3d 15 2a 1c 3d
       0.061673496 0.07591581 0.035936136 0.03812607
0000a0 e4 64 b0 b9 61 88 dd 3d d3 ab 4f 3d c5 7a 21 3e
       -0.00033644505 0.10817028 0.050700974 0.15769489
0000b0 32 d2 21 be a3 f5 3e bd 4e 13 d0 3d 87 7c 3a 3b
       -0.1580284 -0.046620976 0.10159932 0.0028455572
0000c0 4b 74 68 bd 38 62 c0 3d 86 59 93 3c f4 91 b0 bd
       -0.05675153 0.09393734 0.017987024 -0.08621588
0000d0 cf fc bd 3c f0 8d fc 3d 93 93 8f bd ea 46 a9 bc
       0.023191838 0.1233176 -0.070105694 -0.020663697
0000e0 d3 aa 25 be 03 3f 1a 3c 08 d6 3a bd 4a 24 b5 bd
       -0.16178446 0.009414437 -0.045614272 -0.08844812
0000f0 c2 50 53 bd fd 17 57 3d 37 24 f2 bc 78 24 28 ba
       -0.05159069 0.05251311 -0.029558284 -0.00064141257
000100 bc 23 a2 3c f0 5a c0 bc d2 e7 c5 3c a9 93 78 bd
       0.01979243 -0.023480862 0.024158392 -0.060687695
000110 c6 f0 ef bd e4 42 fa 3c 41 82 87 3d cd 1d f1 bd
       -0.11715846 0.030549474 0.06616641 -0.11773262
000120 57 25 d9 bb f7 18 91 bc f3 3a 09 3d 9f 60 6c be
       -0.0066267657 -0.0177121 0.033503484 -0.23083733
000130 89 a1 c8 3d 2f 2c 84 3d c9 4b 88 3d 82 eb 72 3d
       0.097964354 0.0645374 0.0665508 0.05930663
000140 26 98 90 3d d5 9f 05 3e 03 bd 80 bd ad f1 a1 bd
       0.0706027 0.13049252 -0.06286051 -0.07907424
000150 1e 47 80 3d 0b 38 0b 3d 99 52 18 bd d7 57 48 bb
       0.062635645 0.033988994 -0.037188146 -0.0030569935
000160 53 bd 85 bd 93 b4 ad 3d f2 ba 88 3d fe ab 46 3e
       -0.06530251 0.084817074 0.06676282 0.19401547
000170 2b 9a 38 be 83 8c c9 3d 88 33 51 3d ba 1f b5 bd
       -0.1802756 0.098412536 0.051074535 -0.08843942
000180 07 70 0b bd fd a3 23 3e 1a cc 44 3b f2 7f 09 3e
       -0.034042384 0.15980525 0.003002888 0.13427714
000190 0d fc 03 3d 64 92 b9 3c 55 91 90 bd 02 51 a2 3d
       0.032222796 0.022652812 -0.0705897 0.07925607
0001a0 0a 44 e6 3b 09 36 bd 3d 05 b4 9a bd 5a 5f 68 3d
       0.007027154 0.09238822 -0.07553867 0.05673156
0001b0 51 04 ad bd 31 aa e6 3d 3e 75 d7 bd 16 b0 2d bc
       -0.08448089 0.1126293 -0.10520409 -0.010601064
0001c0 23 d3 f6 bc 74 e0 87 3c d1 28 26 bc 03 4b 27 3d
       -0.030129975 0.01658652 -0.010141567 0.04084302
0001d0 da 1c 8e bc 32 1c a3 3d 13 00 f6 ba 5c a0 ec bd
       -0.017347742 0.07964362 -0.0018768333 -0.115540236
0001e0 98 d1 af bd 5a 06 1d bc 36 89 86 bd c4 de c5 bd
       -0.08584899 -0.009584034 -0.0656914 -0.0966163
0001f0 e3 d8 e9 3c 97 3f 83 bc 67 98 d0 3d 78 3b 37 bd
       0.028545802 -0.016021533 0.101853184 -0.04473445
000200 7c 73 76 3d ef ba 83 3b 80 df 50 3e ac c9 0e 3e
       0.06016873 0.004020087 0.20397758 0.13944119
000210 ed 24 c6 bd 4e a9 73 3c 10 31 1f bd ca 79 7a bd
       -0.09675012 0.014871908 -0.03886515 -0.061151303
000220 8a b3 1e bd ca c8 fd bc 42 13 fa bd 42 ea da bd
       -0.03874544 -0.030979533 -0.122107044 -0.106892124
000230 c7 bf d9 3b 37 54 02 3e 8c cb 4c bd af 45 aa bd
       0.006645176 0.12727438 -0.049998805 -0.08314072
000240 15 2a a3 3d e8 9d dc 3d 05 82 62 bd 03 02 eb 3d
       0.07967011 0.10772306 -0.055299778 0.11474993
000250 6b b6 32 be 35 a6 01 be 83 22 d3 bc 47 fa 7a bd
       -0.174524 -0.12661059 -0.025773292 -0.06127384
000260 1f 9e 3e bd de 66 ba bd 18 c2 a3 bc b0 f8 e7 bc
       -0.046537515 -0.091016516 -0.019990012 -0.028316826
000270 3e d1 54 3d 9d 37 94 bc 16 07 6e 3d 3d eb c3 3d
       0.05195736 -0.018092925 0.058112226 0.095663525
000280 53 e1 c7 3c f8 e6 2c 3d 70 90 b2 3b ce 12 90 3d
       0.024399435 0.042212456 0.005449347 0.07034837
000290 d8 75 03 be 31 c2 23 bd f1 b8 1f 3d 4e f0 da 3d
       -0.12837923 -0.039980117 0.038994733 0.10690366
0002a0 47 e5 b9 3d 98 a7 3b 3e 64 f7 69 3c 09 6b 43 be
       0.09076934 0.1832565 0.014280174 -0.190838
0002b0 c5 47 c3 3c f6 f2 21 bd ca 2b 86 3d fb ed 93 bb
       0.023837933 -0.039538346 0.06551321 -0.0045144535
0002c0 06 43 c0 3c 41 2f be 3b 6a 11 bf bd 43 04 65 3d
       0.02346946 0.005803973 -0.09329493 0.055912267
0002d0 0c 92 8c bb 1f 1c ce 3d 17 ae 0f bd d0 3f bb bd
       -0.004289871 0.100639574 -0.035078134 -0.09143031
0002e0 ff 67 8d 3d 40 1f 3e be 6e 6f db bd cf 46 f7 3d
       0.06904601 -0.18566608 -0.10714613 0.120740525
0002f0 76 60 02 3e 8a 65 d0 3d 80 a1 1b 3e 22 d1 36 3e
       0.1273211 0.10175617 0.15198326 0.17853215
000300 72 8b 14 3b 30 f1 1f 3d 99 67 7b 3d c6 ae 9f 3c
       0.0022666124 0.039048374 0.061378095 0.019492518
000310 eb 68 50 bd a7 41 6b 3d 15 48 e0 bc 6a ac 7e bc
       -0.050881308 0.057435658 -0.027378121 -0.015544036
000320 f6 61 b3 3d 15 eb 8b 3d 54 9d 78 3c fc 15 22 bc
       0.08758919 0.06831948 0.015174229 -0.009892937
000330 e6 8c 3e bd fb 59 7c bd dd 70 ba 3d 8c d2 99 3d
       -0.04652109 -0.06160925 0.09103558 0.07510862
000340 85 7c ae bd 6b 1b be bd 47 3d a9 bc 91 29 89 3c
       -0.08519844 -0.09282573 -0.020659102 0.016743453
000350 df 1b 7e bd eb 1b 2b bc 73 6b c5 3d 86 e0 5d bd
       -0.0620383 -0.010443668 0.09639635 -0.0541692
000360 e3 4a 17 be 52 bd 21 3e 9b ae c2 bc b2 b9 b2 3d
       -0.14774661 0.15794876 -0.023764899 0.08726825
000370 cf f2 66 3d 56 91 1a 3c b7 1e 91 bb e9 8d 1c bd
       0.056383904 0.009434065 -0.0044287103 -0.038221274
000380 0e 00 1b be 50 81 03 3b 0d 01 0a 3e 42 5a 62 3d
       -0.1513674 0.002006609 0.13476963 0.055261858
000390 cc 38 b2 3d 2a 08 6b 3d e1 26 e8 bc d6 95 0d bc
       0.087022394 0.057380833 -0.028338851 -0.008641681
0003a0 b4 db 03 3d 68 73 70 bd 5d b0 17 bc 07 81 12 3d
       0.032191947 -0.05870381 -0.009258357 0.03576758
0003b0 16 ee 86 bd 11 44 9c 3d 4b 75 c8 3d 53 9e 48 bd
       -0.0658838 0.0763017 0.09787997 -0.048979115
0003c0 4e a3 51 3d 04 67 ea ba 19 bb c7 3d a0 c6 09 bd
       0.05118113 -0.0017883484 0.09752483 -0.03363669
0003d0 a3 14 0c 3d 70 7a 30 be 75 33 54 3c 52 c1 1b 3e
       0.03419937 -0.17234206 0.012951721 0.15210465
0003e0 f2 42 d5 3d ce 0b 8a 3d 7a e5 ae bd af 41 86 bc
       0.104131594 0.06740533 -0.08539863 -0.016388742
0003f0 9e 07 33 bd 88 fa fa bd ad 7e 8f 3b 3d bc 95 3d
       -0.043708436 -0.12254816 0.0043791146 0.07311294

network_body._body_endoder.seq_layers.0.bias f4 [128]
000000 ef 7b 5f 3a 78 43 07 3b 97 40 1a bb 79 29 81 3b
       0.00085252424 0.002063958 -0.0023537034 0.0039417115
000010 e3 e9 e7 3a 78 d4 c7 3a 82 37 6c 3b 84 16 90 3a
       0.0017693605 0.0015245816 0.0036043827 0.0010993038
000020 ae 28 4e 3b e5 8d 89 ba d5 26 02 3b ff 97 eb b7
       0.0031457352 -0.0010494558 0.0019859571 -2.8084962e-05
000030 ea 8d 08 bb 4b 53 4a 3b da 68 93 3b dc 17 36 bb
       -0.002083654 0.00308724 0.0044985833 -0.0027785217
000040 3b b9 e9 39 50 54 15 3b 98 13 bf 39 09 18 17 bb
       0.0004457923 0.002278585 0.00036444957 -0.0023055098
000050 fe 0c 99 ba 3e 61 a1 3a 29 a3 44 ba c6 b5 07 bb
       -0.0011676846 0.0012312306 -0.00075011194 -0.002070771
000060 2f 21 fe 3a 41 aa b7 3b 5b 41 17 3a 6c f1 ff ba
       0.0019388552 0.0056050126 0.00057699316 -0.0019526905
000070 81 75 95 bb df d5 4b 3b 0d 15 93 39 e0 0e e4 3a
       -0.0045611267 0.003110282 0.0002805371 0.0017399453
000080 dc af 11 bb 63 2c 83 39 d8 65 3b bb 6e 38 89 bb
       -0.0022230064 0.00025019338 -0.002859464 -0.004187635
000090 94 c2 b2 3a af be 1e 39 37 77 2e 3b c7 d1 42 3b
       0.0013638311 0.0001513909 0.002662135 0.0029727088
0000a0 b2 fc dc b9 03 83 9d 3a d9 82 17 bb 1a 0b fe 3a
       -0.00042149943 0.0012017194 -0.0023118763 0.0019381971
0000b0 3b 29 51 ba 17 34 cf b9 d2 4e 1c bb 4c 2a 6b bb
       -0.0007978861 -0.00039520927 -0.0023850692 -0.0035883365
0000c0 37 4d 15 3b b7 3a 20 ba b9 3a 44 3b a1 d1 89 bb
       0.002278162 -0.0006112265 0.0029942228 -0.004205898
0000d0 91 e9 58 ba 9f 8f 84 38 5c 4e 30 3b 25 95 b0 ba
       -0.000827455 6.321002e-05 0.0026902175 -0.0013472183
0000e0 43 40 8d 3a 47 61 0b bb bb b1 c7 bb 0a b7 26 bb
       0.0010776598 -0.0021267699 -0.006094185 -0.002543869
0000f0 b2 e2 63 bb 8f fb 54 3b 30 ed 0a 3b 7d 6d ca b9
       -0.0034772572 0.0032498573 0.0021198504 -0.00038610018
000100 2d 1c 60 3a 4a e9 50 b9 5a 4d 8f ba 15 af a4 3a
       0.00085491204 -0.00019923333 -0.0010933087 0.0012564386
000110 e9 45 4a bb a2 8b 98 3b 3e 33 c4 ba 16 ff d5 3a
       -0.0030864424 0.0046553174 -0.0014968885 0.0016326632
000120 cb f9 84 3b f8 6b 54 3b f8 3b 0a bb 78 d1 56 bb
       0.004058098 0.0032412987 -0.0021092873 -0.0032778662
000130 4d fd 14 3b b7 3f 5a 3b cc cc 22 3b 0e cd 70 bb
       0.0022733987 0.0033302137 0.0024841307 -0.0036743316
000140 52 0a 2b 3b 8d a0 2e bb d3 7d bb ba 8d b2 df ba
       0.002609868 -0.0026645989 -0.0014304466 -0.0017066762
000150 63 fe 34 bb 29 d6 14 bb 0d 94 20 3b dd c9 b1 b9
       -0.0027617447 -0.0022710657 0.0024502308 -0.0003391047
000160 e7 51 33 bb bc 9d 90 bb 87 28 85 b9 97 df 39 bb
       -0.002736205 -0.0044133347 -0.00025397932 -0.002836203
000170 ff b0 b5 b8 7c 38 83 3a 54 aa c1 ba 8c 9a 53 b9
       -8.663721e-05 0.001001134 -0.0014775493 -0.00020180101
000180 96 c6 07 3b da 75 ec ba 07 e7 30 bb 65 eb 38 bb
       0.0020717732 -0.0018040494 -0.0026993172 -0.0028216478
000190 f0 44 00 bb e2 3f d3 3a 01 8f 3a bb 5f 12 c1 ba
       -0.001957234 0.0016117061 -0.0028466585 -0.0014730206
0001a0 7c f5 a8 3a 05 83 04 bb d8 1e b1 3a cc 1c 09 bb
       0.0012890543 -0.0020219695 0.001351322 -0.0020921705
0001b0 32 5a fc b9 3f b4 aa 3a f7 a5 86 b7 28 f7 a7 3a
       -0.00048132386 0.0013023688 -1.6051328e-05 0.0012814747
0001c0 0e 72 2f bb e4 c5 80 3a 48 e3 8f 3b 8f c9 28 ba
       -0.0026770863 0.0009824601 0.0043911077 -0.0006438726
0001d0 55 b8 7a 3b dd b7 50 bb 95 d3 61 39 18 59 67 ba
       0.0038256843 -0.0031847872 0.00021536493 -0.00088252267
0001e0 6d 92 28 3b b5 c1 08 39 48 73 20 bb 5a 15 37 bb
       0.0025722042 0.00013042132 -0.0024482775 -0.002793631
0001f0 06 a2 be 3a e0 f2 76 3a b0 b9 c3 ba 59 1c 58 3b
       0.0014544136 0.00094203465 -0.0014932659 0.003297588

network_body._body_endoder.seq_layers.2.weight f4 [128, 128]
000000 38 af 27 be 41 78 16 be ab 8a ed bd 40 64 da bd
       -0.16375434 -0.1469431 -0.115987144 -0.106636524
000010 b4 12 68 3d 02 61 c6 bc 17 9d 18 bd 90 f3 10 be
       0.05665846 -0.024216179 -0.037259188 -0.14155412
000020 39 c9 c8 3d 4b 5c 19 be 67 5f 10 bc 7a ff c8 bc
       0.09804005 -0.14976613 -0.008811808 -0.024535883
000030 30 6f 21 be 3a 11 74 3d b6 55 46 3d 48 cf 5b be
       -0.15765071 0.05958674 0.048421584 -0.2146579
000040 1f c0 df bd bb f7 32 3d 7c 4c fd bd 81 40 b7 bd
       -0.10925316 0.043693285 -0.12368104 -0.0894785
000050 f3 8a 36 bc 46 ad 82 3d 26 41 47 be 81 a1 27 3e
       -0.0111415265 0.063807055 -0.19458446 0.16370203
000060 89 27 0e bd ab 8a f4 3d c3 38 d6 bd db 0c be ba
       -0.034705672 0.11940511 -0.10460045 -0.0014499681
000070 ef 88 da bc f6 2a ae 3d 5c 8d 05 bd 19 27 0c bd
       -0.026676623 0.08504288 -0.032605514 -0.034216974
000080 83 dd b5 bd f1 a0 dc bd d1 27 97 3d 92 ee 98 bd
       -0.08880141 -0.10772885 0.07380641 -0.07467379
000090 08 e6 31 3d b8 f3 66 3c 9d bf 5e bb 71 04 74 bd
       0.043432266 0.014096193 -0.0033988722 -0.05957455
0000a0 1c df b1 bd d2 3f f6 bc 11 c8 ab 3d 18 b9 95 bc
       -0.08685133 -0.030059729 0.08387769 -0.018276736
0000b0 35 8d db bd 64 7e 9f 3c b0 ef 97 bd 72 22 50 be
       -0.107202925 0.019469447 -0.07418764 -0.2032564
0000c0 ec e0 2f 3d 64 3a d4 3c 33 51 26 3d 31 05 9e bd
       0.04293911 0.02590675 0.04060478 -0.07715834
0000d0 26 42 35 3d e6 b0 24 3d 3e 5d d3 3d e0 f5 07 3d
       0.044252537 0.040207766 0.10320519 0.03319347
0000e0 3a 81 83 3c 66 f0 bb bd 29 92 3b be 59 64 13 3d
       0.016052831 -0.09176712 -0.18317474 0.03598437
0000f0 9c 99 e8 bd 27 39 46 be fa 17 2a 3d 07 f6 d9 bd
       -0.11357424 -0.1935774 0.041526772 -0.10642629
000100 ee 03 0e be a5 2b 55 3d 0c 50 58 bc 9f 53 0e be
       -0.13868687 0.052043576 -0.013202678 -0.13899086
000110 f3 52 8e bc 53 d1 7a 3d 00 68 a5 3d 2f a6 1a bd
       -0.017373538 0.061234783 0.08076477 -0.03775614
000120 cb 1e 8b bd f1 14 98 bc 29 e4 9a 3d f3 d9 54 bd
       -0.06792983 -0.018564673 0.07563049 -0.051965665
000130 02 81 ba bc 97 e0 0b be c0 f1 9f 3c c1 f0 32 3e
       -0.022766594 -0.13659893 0.019524455 0.17474653
000140 0a 5d 85 3b d7 ad 91 bd 6d 93 e1 bd e8 d7 ea bc
       0.004069929 -0.071132354 -0.11014447 -0.028667405
000150 b7 93 a6 3d 94 c9 f4 bd 50 37 ff bd 5d e6 81 3c
       0.08133643 -0.119525105 -0.12461722 0.015856916
000160 78 c4 d9 bc ab c5 37 bd 14 08 af 3c 99 d9 ff bc
       -0.026582941 -0.044866245 0.021366157 -0.031231688
000170 68 d1 ac 3b f9 63 3d bd e2 82 eb bc 89 90 bb 3d
       0.0052739866 -0.04623792 -0.028748933 0.09158427
000180 3f ef 89 3d 29 f6 53 3c cd bf 76 3d cf b2 00 be
       0.06735086 0.012937107 0.06024151 -0.1256821
000190 d3 9f 40 be 60 06 23 3d ab 50 fa bc 8c cd b3 bd
       -0.18810968 0.039801 -0.030556044 -0.08779439
0001a0 39 be e7 bd a7 09 6d 3d 6f eb 67 3d 6f ff 9a 3d
       -0.11315579 0.057870533 0.05662101 0.07568251
0001b0 c4 cf 38 be 5c fc ea bd 8a 4e 8e bd 28 bc 1f be
       -0.18048006 -0.11473915 -0.06948574 -0.1559912
0001c0 4d 97 d9 bd f3 bb 40 3e c9 c4 32 3e b1 5c 4e 3e
       -0.106245615 0.18821697 0.1745788 0.20152546
0001d0 3f a7 97 bd b0 cc 9f bd cf 9b 2a bd 2a 88 ba bc
       -0.074049465 -0.07802713 -0.041652497 -0.022770006
0001e0 0a b6 1f 3d 7b a1 92 3a 6b a8 e2 bd e0 b1 76 bd
       0.038991965 0.0011187041 -0.110672794 -0.06022823
0001f0 62 5c 1d 3e 06 a6 00 3c 97 98 4f bd a5 c0 6b bc
       0.15367272 0.007852083 -0.05068263 -0.014389192
000200 09 34 09 bd 50 6a 16 3e 8e 3d 3a bd 4f 65 ac 3d
       -0.03349689 0.14688993 -0.04546886 0.084177606
000210 34 46 fe bd 37 8f fe bd 34 b5 c5 bd a0 0b 0e be
       -0.12415734 -0.1242966 -0.096537024 -0.13871622
000220 8f b7 0e 3e 9f cb be bd 24 96 dc bd e2 04 39 3d
       0.1393721 -0.093161814 -0.107708246 0.045170672
000230 fc 64 ea bd ae 95 46 3d 51 bf 2d bd 31 d1 94 bd
       -0.114450425 0.04848259 -0.04241878 -0.072664626
000240 93 0d 85 3d 9a 70 83 3d 9d 3c ad bd 27 ab f5 bc
       0.0649673 0.064179614 -0.08458827 -0.029988838
000250 f9 2c 0a be e4 40 50 3d cd 41 e5 3b 92 47 24 3d
       -0.13493718 0.050843135 0.0069963695 0.040107317
000260 09 fa 47 3c 92 cf 42 bd 56 3c 89 be 6d 7a 39 bd
       0.012205609 -0.047561236 -0.26803845 -0.04528277
000270 e2 18 1d 3c 6a f4 2d bd 00 8d 48 3c 7a 03 a5 3d
       0.009588452 -0.04246942 0.012240648 0.08057304
000280 43 fd 34 3d 93 bd 1f 3e 9c 0d 4b 3d a1 28 53 bd
       0.04418684 0.1559966 0.049573526 -0.05155242
000290 92 d4 64 3a d9 70 2f 3e 0b 27 c5 bc d3 f1 b9 3c
       0.0008729185 0.17132892 -0.024066469 0.022698319
0002a0 da f3 47 bd 5b eb f3 3d d2 24 cf 3d 98 73 25 bd
       -0.04881654 0.11910125 0.10114445 -0.040393442
0002b0 a0 9d 1e be 9c 2f 03 3e 14 92 91 bd d4 db f2 bd
       -0.15489817 0.1281113 -0.0710794 -0.11858335
0002c0 e0 2b 1f bc b1 36 c3 bd 17 02 74 3d 8d f5 06 3e
       -0.00971505 -0.09531916 0.059572306 0.13179608
0002d0 d4 33 c1 3d 27 11 99 bd 68 29 83 bc f8 53 3c 3e
       0.094337136 -0.07473975 -0.016010955 0.18391407
0002e0 b2 bc f0 bd b6 12 ef bc 5b 9d 02 3e 7a 74 ab 3d
       -0.11754741 -0.029183727 0.12755339 0.083718255
0002f0 1d 8f c1 bd 81 f0 63 bc ea ee ba bd b0 74 7a 3d
       -0.09451125 -0.013912321 -0.091276005 0.061146438
000300 57 37 95 bd a7 f2 2e 3c 20 e2 58 3e 9d 94 94 3d
       -0.07285946 0.01067797 0.2118001 0.07254908
000310 d0 83 be 3d e3 6b 8b 3d 09 bd 04 be 90 dd 0c 3e
       0.09302485 0.06807687 -0.12962736 0.13756394
000320 8c 23 bf bd b0 b8 1a 3d b1 a3 73 bd 83 27 a0 3d
       -0.09332952 0.037773788 -0.05948228 0.07820036
000330 5b e2 31 3d 9c 50 38 3e d8 d6 13 3d 9a 5e 98 3d
       0.04342876 0.179995 0.036093563 0.07439919
000340 29 12 13 be 39 cc 57 3d 11 f5 1c 3e 1f 0a 0f 3e
       -0.14362396 0.052684996 0.1532786 0.13968705
000350 62 88 92 bd 3a 04 be 3d 71 c8 b9 3d bd 57 a9 3d
       -0.07154919 0.0927815 0.09071434 0.08268688
000360 e6 28 20 be 89 4d 0e be 3d 8b bf bd af 2f a2 3d
       -0.15640602 -0.13896765 -0.093527295 0.07919251
000370 3e 7c 8e bd 7b 23 10 bd db 2c 93 bd 31 8f 9d bc
       -0.06957291 -0.035190087 -0.0718629 -0.019233318
000380 78 2a 62 3e 22 95 0a 3d ed bd 41 3e 9b 6a a3 bd
       0.22086513 0.03383363 0.18920107 -0.07979318
000390 f7 8f e3 3c 8d 3e 0f 3d 13 0e a7 bd ad 97 83 bd
       0.027778609 0.034971762 -0.08156981 -0.06425414
0003a0 92 ae ef bd 74 c0 eb bd 40 b6 89 3d 02 f4 31 be
       -0.117032185 -0.11511317 0.067242146 -0.17378238
0003b0 6e 5a 1a 3d 74 23 af bc 72 1d 7c be 96 4a 10 3d
       0.037683897 -0.02137921 -0.24620607 0.03522738
0003c0 18 fd bd 3d e7 00 15 bd 14 2c 48 3d 34 8c 3f bd
       0.092767894 -0.036377814 0.04887016 -0.046764567
0003d0 1e 33 0a 3e 8b 2d a9 3c 07 4c 62 3d 49 fc 7a ba
       0.13496062 0.0206516 0.055248287 -0.00095743366
0003e0 39 7a d0 bd bb 16 2a bd ef 61 16 bd bc 8f 7d bb
       -0.10179562 -0.041525584 -0.03671449 -0.0038690409
0003f0 b5 1c 1d 3e 85 b0 12 bd 7f 93 de bd fc b7 00 3d
       0.15342982 -0.035812873 -0.108679764 0.03142546

network_body._body_endoder.seq_layers.2.bias f4 [128]
000000 77 32 ff 39 c7 d9 1b b8 6c ab 68 3a 46 08 87 39
       0.0004867499 -3.71577e-05 0.00088756415 0.0002575537
000010 2c 21 3e 3a 09 59 b7 3a 6c de 99 bb d3 cd 41 3b
       0.0007252868 0.0013988327 -0.004695704 0.0029572144
000020 a4 7c c9 3a ec 0e 07 bb e1 a9 41 bb 43 5f bb 3a
       0.0015372229 -0.002060826 -0.0029550719 0.0014295358
000030 cc 34 12 ba 08 2e 04 3b da a8 4e 3b 03 be 82 ba
       -0.00055773254 0.0020169038 0.003153375 -0.0009974841
000040 fd 3d 8a 3b c5 81 23 3b ab 8e 3d ba 91 fb 8f 3a
       0.0042188154 0.0024949175 -0.0007231037 0.0010985007
000050 dd 7a 0a bb d7 c8 34 3b 69 28 97 bb 7b db f5 ba
       -0.002113036 0.002758553 -0.0046129716 -0.0018757427
000060 75 69 6a 3b 78 23 ea ba 19 91 c9 39 3b 27 c1 ba
       0.0035768424 -0.0017863354 0.00038445814 -0.0014736423
000070 67 e4 ec 3a 8b ad 26 bb 03 3d 36 bb ba 3f d2 ba
       0.001807344 -0.002543303 -0.0027807362 -0.001604072
000080 ff a1 30 bb 86 ae 3f ba 28 6f dd bb bd 52 9c 3a
       -0.0026952026 -0.0007312078 -0.0067576356 0.0011926513
000090 3f 0f 82 3b 14 47 ed 3a 67 36 e8 3a 9e e2 07 3b
       0.0039691026 0.0018102848 0.0017716408 0.002073444
0000a0 e1 a2 1b bb 3b 79 fe 39 9d 2f 20 bb 64 0f 29 3b
       -0.0023748206 0.0004853698 -0.0024442442 0.0025796527
0000b0 bf 7d 8e ba 82 8f 12 bb f3 58 55 3b 6b 8a c4 ba
       -0.0010871215 -0.002236337 0.0032554239 -0.0014994865
0000c0 be 9b 9c 3a 15 af 19 bb 5b e1 39 bb 9f 6d 0c bb
       0.001194827 -0.0023450304 -0.0028363082 -0.0021427644
0000d0 f9 bb 89 bb c6 3a 0a 3b da 2a 02 3b b3 22 9c ba
       -0.0042033163 0.002109216 0.0019861967 -0.0011912197
0000e0 55 a0 18 3b 90 9a 64 3a 1b 87 3c ba 4b b4 82 3b
       0.0023288925 0.00087205414 -0.0007191763 0.0039887778
0000f0 0b 3d 8e 3a 49 bb 1f 3b e8 62 c6 39 15 31 4e bb
       0.0010851932 0.0024373105 0.00037839194 -0.003146236
000100 6d b5 8b bb 4f 7f 32 3b 3a 7e e7 b7 af ce 16 3b
       -0.004263571 0.0027236526 -2.7596125e-05 0.0023011377
000110 63 29 5d 3a 09 39 71 bb e4 24 29 3b 83 68 28 3a
       0.0008436648 -0.0036807677 0.0025809342 0.0006424265
000120 be cc ed ba 8b 55 76 39 cc 9e 9f 3a e5 dc 07 bb
       -0.0018142683 0.00023492255 0.0012178062 -0.0020731029
000130 c5 5c 88 b9 b8 2c 6c bb 52 d4 89 ba 41 95 08 bb
       -0.0002600906 -0.0036037397 -0.0010515547 -0.0020840915
000140 09 a2 4f 3b 02 3e 80 bb 03 ec 37 3b 65 97 ba ba
       0.0031682274 -0.003913642 0.0028064258 -0.0014235793
000150 c0 81 0e bb d3 56 08 3b 5e a3 8d 39 8b 60 b5 3a
       -0.0021744817 0.0020803704 0.00027015334 0.0013837976
000160 cf e1 47 ba 38 87 14 bb 1f 48 d0 ba c8 dc 9a 3a
       -0.00076248957 -0.0022663604 -0.0015890634 0.0011815066
000170 77 bf 55 3b 1f 1d 86 bb 3c d1 d9 3a df 46 02 3b
       0.0032615343 -0.004092827 0.0016618143 0.0019878668
000180 d0 49 f8 b9 83 7d c7 bb 26 6d b0 bb ce 58 9d b9
       -0.0004735724 -0.00608796 -0.0053841053 -0.00030011538
000190 63 75 8f 3a b5 d7 d9 39 7e 10 09 3b 2a 69 12 3b
       0.0010945018 0.0004155018 0.002091437 0.0022340515
0001a0 59 b9 4b bb c5 66 36 bb 54 54 45 bb 2f f1 2d 3a
       -0.0031085818 -0.0027832252 -0.0030110078 0.00066353654
0001b0 77 fa 83 bb 1a 50 1c bb 6a 18 f9 ba 36 33 7b 3a
       -0.0040276605 -0.0023851455 -0.0019004468 0.0009582521
0001c0 cc 53 40 bb 59 11 48 3b 7d 3f cf 3a 07 12 18 3b
       -0.0029346822 0.0030527918 0.0015811768 0.0023204105
0001d0 58 d6 f4 39 f2 82 12 3b c5 79 73 3a 7d 71 b0 39
       0.00046699005 0.0022355882 0.00092878594 0.0003365389
0001e0 f9 fe 52 3a 8a 12 5e ba 7a ca 33 bb f5 a7 d7 38
       0.0008048858 -0.00084713905 -0.0027433918 0.00010283283
0001f0 c5 ca 16 bb 0e 6d 05 3a 82 62 7b 3b bc a7 87 3b
       -0.0023009044 0.0005089798 0.0038358276 0.0041398685

action_model._continuous_distribution.log_sigma f4 [1, 2]
000000 f9 f1 0e bc 79 32 10 bc
       -0.008724683 -0.008801096
