CS455_PR1/results/ppo/ShootTargetAgent/ShootTargetAgent-7352.pt (torch, 934585 bytes, 37 tensors)

discrete_act_size_vector f4 [1, 2]
00000000: 0000 4842 0000 4842
50.0 50.0

network_body.observation_encoder.processors.0.conv_layers.0.bias f4 [16]
00000000: a6cf acbd 882f 39bc fe44 82bd bc67 b1bc
00000010: 84ef 90bd 2288 de3d 824a d6bd 1e61 b03d
00000020: 9416 3d3d 6f52 cfbd 4078 8a3d 48ff ffbc
00000030: ced5 a5bd 58e6 403d 3aa8 7ebd 7ea7 d6bd
-0.08438043 -0.011302836 -0.063608155 -0.02165591 -0.07076934 0.10865809 -0.1046343 0.08612274
0.04616411 -0.10123145 0.06761217 -0.031249657 -0.08097421 0.047094673 -0.062172152 -0.10481165

network_body.observation_encoder.processors.0.conv_layers.2.weight f4 [32, 16, 4, 4]
00000000: a155 49bd 00ea f4bc 4859 443c 3680 353d
00000010: f4ec b03c a57a 4cbd aebd 263d f4eb 2bbc
00000020: 44e7 7abc f043 6e3c d02c c73b d357 68bd
00000030: 10f3 c1bb 8031 03ba fad5 653d 3003 44bb
00000040: e645 5d3d 503e 3abc dc64 c63c f824 683c
00000050: 3617 3b3d e290 70bd c004 833a 7253 e1bc
00000060: c096 5a3d 5a8a 1bbd 4cc9 593d a658 d2bc
00000070: a888 1e3d fc99 4dbc 6693 153d 74a8 803c
00000080: 3ecf a1bc e06a d13b d478 443d 4025 3b3d
00000090: 9304 0ebd 006e 663a 340d ee3c 6388 05bd
000000a0: 4e6d 20bd 4ce5 673d 6e9d 7e3d d200 093d
000000b0: 8f22 3dbd 389f 1dbc dc45 18bd d64c 4cbd
000000c0: e295 663d e761 44bd 19af 14bd d006 213c
000000d0: e0ed 033b b0f9 d23c 4e36 373d 70cb 2ebb
000000e0: d882 5bbc 5079 693c a043 85bc fe52 4ebd
000000f0: cdf1 4abd 1cff 113d 201e 89ba 385c f2bc
00000100: 804c 653b 628d 4a3d 7691 513d 85c4 70bd
00000110: 8a07 01bd c7ac 5fbd a43b 3e3d 1eba 70bd
00000120: f050 a33b 16e9 02bd c053 f8bb 8049 9d3a
00000130: b4f3 28bc c816 20bd 600f ebbc 883b 8dbb
00000140: fee9 103d e87c 30bc 6810 4d3d ec33 1ebc
00000150: 2030 333d 9e87 29bd 3b26 74bd 3652 003d
00000160: 16f7 0abd d6b6 393d cf24 2cbd cab0 613d
00000170: ac84 263d 18c0 eb3c 6815 01bc e0bb 6c3b
00000180: bcae 523d 87ed 22bd ba5e 3b3d a85b 463d
00000190: e066 2dbb 1407 42bd 1e85 723d 0073 a1bb
000001a0: 4f1f 1fbd 5248 0abd 3474 f23c e844 4dbd
000001b0: 6f16 5cbd 23fd 57bd 60b0 113d 2633 313d
000001c0: 7852 82bc 08c7 823c ac12 05bd 600a 833c
000001d0: e0c4 3bbb 656f 7abd 7a8f 8dbc a0d9 603c
000001e0: f0d4 b13b a869 fcbc 8287 1c3d 043d ed3c
000001f0: dce7 11bd 90e9 f93b 3076 6e3c 805a a53c
00000200: 4864 2e3c 1a5a afbc a08e 04bd bcd6 3cbd
00000210: a041 3d3c 22ab 40bd c43a f23c 13b1 7abd
00000220: ece0 b5bc 5d7c 41bd 1449 26bd 5eae 1f3d
00000230: f6be 38bd 3060 0abd 242d 67bd cccd 653d
00000240: 54ef 423d 7060 963c a15c 0cbd 3e69 9bbc
00000250: 2a1e 97bc 80d0 183c b869 963c 2a76 593d
00000260: f024 0ebb b40d 78bd 2cc6 c93c f05f 663c
00000270: 2e86 5e3d 1ca5 46bd 6c39 1cbc 64f8 3dbd
00000280: 7f3e 75bd 9454 833c 786c a9bc 9872 263c
00000290: c82f 473c ec1e a03c 784e 173d f1b4 6dbd
000002a0: be2f 5ebd fc37 903c 7889 5ebc 2a26 3e3d
000002b0: ae84 b0bc 667b 623d 01d6 15bd e8c8 35bd
000002c0: 6ade abbc 6d7b 14bd 355d 52bd 2e1c b6bc
000002d0: 7ff8 11bd ac69 51bc 00eb 46b9 105d 19bb
000002e0: aa8f 793d a6ed 05bd b829 a23c 00fc af3c
000002f0: 403e 9bba 0022 e0b8 5c55 59bd 525e 83bc
00000300: 08fb 4b3c 088c cfbb d8c6 b5bc 1efa d8bc
00000310: c0ae 083b 2472 393d 9e44 61bd 5018 fbbb
00000320: 7676 71bd b88f c43c 1cde d83c 4642 4a3d
00000330: 8011 283a 2c57 2e3d 0005 14bb 88f8 023d
00000340: b055 f83b c2ee 6bbd 38eb 6abd 3625 083d
00000350: e4a9 0fbc b0fc 03bd 94be 4b3d 4c37 623d
00000360: c047 653c 3c74 2b3d 2c54 d7bc 505a 393c
00000370: d87a 92bc f82f 933c 5815 1b3d 541e d23c
00000380: 1eb9 c4bc 9642 04bd 60e8 733d eb7a 4bbd
00000390: 9888 af3c 7428 4d3d 1426 96bc 1cfc e03c
000003a0: 6aaf e9bc 286e ea3c aa33 33bd 28b1 c8bb
000003b0: 7c14 9bbc 087b c4bc 02b1 693d 802d 8eba
000003c0: c8ab 093c c8a0 a93c cc79 5abc 7837 443d
000003d0: 9651 7dbd 200d 0ebb 88f2 b9bc 88ed 0a3c
000003e0: 3342 2dbd fa8a aebc e340 41bd f283 8fbc
000003f0: eab2 2f3d 1035 f7bc 2631 233d c406 04bc
-0.049153928 -0.029896736 0.011984177 0.044311725 0.021597363 -0.04992165 0.040708236 -0.010493267
-0.015313927 0.014542565 0.00607834 -0.05672438 -0.005918868 -0.00050046295 0.056112267 -0.0029909126
0.05402174 -0.0113673955 0.024218015 0.01416897 0.045676433 -0.05873192 0.0009995922 -0.02750561
0.053366423 -0.03797374 0.053170487 -0.025677036 0.038704544 -0.01254892 0.036517523 0.015705325
-0.019752141 0.0063909143 0.047966793 0.04568982 -0.03467233 0.0008790195 0.02905903 -0.03260077
-0.03916674 0.05661516 0.062161855 0.033448048 -0.046175536 -0.00962048 -0.037175998 -0.049877964
0.056295283 -0.04794493 -0.0362998 0.009828284 0.0020130798 0.025753826 0.044729523 -0.0026671551
-0.013397895 0.014250115 -0.016267598 -0.050372116 -0.049547005 0.035643682 -0.0010461248 -0.029584989
0.0034988225 0.04945124 0.051164113 -0.058781166 -0.03150133 -0.054608133 0.046443596 -0.058771245
0.0049840137 -0.03196057 -0.007578343 0.0012000054 -0.01031201 -0.039084226 -0.028693855 -0.004310075
0.035379402 -0.0107719675 0.050064474 -0.009655934 0.043747067 -0.0413891 -0.059606772 0.031328402
-0.033927046 0.04534038 -0.04202729 0.05510024 0.04065387 0.02877812 -0.007878639 0.0036122724
0.05143617 -0.039777305 0.045744635 0.048427254 -0.0026459023 -0.04737003 0.05920898 -0.004927039
-0.038848218 -0.033760376 0.029596426 -0.050114542 -0.05373233 -0.052731644 0.035568595 0.04326167
-0.015908465 0.015964046 -0.03248851 0.015996158 -0.0028651282 -0.06114139 -0.017280329 0.013723761
0.0054269955 -0.0308121 0.038215168 0.028959759 -0.03562151 0.00762672 0.014554545 0.020184755
0.010644026 -0.021405268 -0.03236258 -0.046103224 0.011551291 -0.047038205 0.029569037 -0.061204027
-0.022201978 -0.047237743 -0.040597036 0.03898465 -0.04510399 -0.033783138 -0.056439534 0.056104466
0.047591522 0.018356532 -0.034268025 -0.018971082 -0.018447 0.009327054 0.018360958 0.053091206
-0.0021689497 -0.060559943 0.024630629 0.014060959 0.054327182 -0.048497304 -0.009535175 -0.046379462
-0.059874054 0.01603154 -0.020681605 0.010159157 0.012157388 0.019545995 0.036940068 -0.058033887
-0.05424475 0.01760482 -0.01358258 0.046423115 -0.021547642 0.055293463 -0.036581043 -0.044381052
-0.020980079 -0.03625052 -0.05135842 -0.022230234 -0.035637375 -0.012781542 -0.00018970296 -0.0023401417
0.060928024 -0.032697342 0.019795284 0.021482468 -0.0011844113 -0.00010687485 -0.05305992 -0.016036186
0.012449987 -0.0063338317 -0.022189543 -0.026486453 0.0020856112 0.04527487 -0.05499708 -0.0076628104
-0.058950864 0.023994312 0.026473098 0.04937961 0.0006411299 0.042563602 -0.0022585988 0.0319753
0.007578574 -0.057600744 -0.05735323 0.033238612 -0.008768532 -0.032223403 0.049742296 0.055228516
0.013994157 0.041858897 -0.026285253 0.011313036 -0.017880842 0.01796721 0.03786215 0.025649227
-0.024014052 -0.032290064 0.059547782 -0.04967777 0.021427438 0.050087407 -0.018328704 0.027463965
-0.028526027 0.02861698 -0.043750443 -0.0061246343 -0.018930666 -0.023984447 0.057053573 -0.00108473
0.008402772 0.02070655 -0.013334703 0.04790446 -0.061845385 -0.0021675304 -0.022698656 0.008479483
-0.04229946 -0.021306504 -0.04718102 -0.017518971 0.042895235 -0.03017667 0.039841793 -0.008058254

network_body.observation_encoder.processors.0.conv_layers.2.bias f4 [32]
00000000: 00a7 543c 2ab9 0cbd 8211 2bbd c424 32bd
00000010: 8d6a 7ebd c479 f43c fa5b bcbc a014 a2bc
00000020: e035 e73c a039 cdba 9067 043c 9075 25bd
00000030: c8f4 b1bc 738e 7bbd b29b 593d 08ee edbc
00000040: d899 073d cce8 fc3c 1814 573d 7e5f 093d
00000050: 141a f53c 7048 97bb 9476 b2bc b820 2abc
00000060: d61d 39bd b8c4 7d3d d8db 7f3c 7c8f 6d3d
00000070: c1c2 6fbd b456 9d3c c096 673d 3051 4b3d
0.012979269 -0.034356274 -0.041764744 -0.043492094 -0.062113333 0.029843219 -0.022993077 -0.019785225
0.028223932 -0.0015657432 0.008081332 -0.04039532 -0.021723166 -0.061415147 0.053127 -0.029044166
0.0331057 0.030872725 0.052509397 0.033538334 0.029919662 -0.0046167895 -0.021785058 -0.010383777
-0.04519447 0.061955184 0.01561638 0.057998165 -0.05853534 0.019206382 0.05654025 0.049637973

network_body.observation_encoder.processors.0.dense.0.weight f4 [128, 512]
00000000: 276b ec3d c01a 693c 4efc ce3d abbe bebd
00000010: 4f8e 28bb daa5 b13d 11cc a8bc 3bcc 1dbd
00000020: 66c6 cb3d d17d 2ebd 8a54 c63d 3474 0b3c
00000030: 756f cabc 1b59 9f3c eea4 793b 889f 7d3d
00000040: 8a0f 7a3d 713d 90bd d36f e53c 256a 073e
00000050: 7ee3 61bd d78f 90bd e14b f73c aeb0 e73d
00000060: cf7e 933c a399 0fb9 b52e 4bbc b73d 233b
00000070: 83c9 dc3c f297 8e3d 2681 a6bd 7b5d 4f3c
00000080: 0e1f db3c e3e7 2bbd 4172 e63c e80e c0bc
00000090: d9dd 983d 1962 5ebb 1cf9 803c 4fd0 1bbd
000000a0: 71db 73bc 420d 1c3d b087 5d3d 5513 fe3c
000000b0: 58e0 cebc ca02 0a3d 8537 383d 5e5b a33c
000000c0: 0b00 c73b aa10 81bc 3190 c1bc b681 c83b
000000d0: ac7e cebd 544b 18bb 7427 2bbd 9319 20bc
000000e0: e7b9 b93d 0f1c c43b 6309 4bbb f634 8dbd
000000f0: 40cc 4ebc 0df5 4839 7235 53bd 02c7 1abd
00000100: 2a8c 27be 7f92 42bd 767a 003d ba31 fb3c
00000110: a009 ed3d 17e8 dbbc 6fe2 b0bd 1e93 9a3c
00000120: 70b1 80bc 34bc ba3b cff7 1d3d 9918 fbbc
00000130: ac57 0ebd 50c4 2b3d 5c2d adbd a447 3f3d
00000140: 85af c33b ff68 e4bc 18b4 67bd 1c91 863b
00000150: e460 9a3d 30f6 833d a2e8 c73d a60d 463d
00000160: 1aa3 8cbb ba67 e8bc 9359 98bc b727 963d
00000170: af23 69bd cd70 02be a985 92bd d987 8b3c
00000180: 3c8a 0e3e b33d f8bc a97c 6dbd e242 3fbc
00000190: 0017 213d 5702 f03d 6ee1 eebb 3646 01be
000001a0: bebe 45bc 6bfd 04bd 9042 02be ce7c cc3b
000001b0: 58fd 0d3c 5be2 0e3d 3a73 8ebd 6c47 6c3d
000001c0: c0db 69bd 4e04 86bc df26 ecbd 37fe 853c
000001d0: dc70 9ebc 2a2d c1bd 77fe 333d 3df6 ddbc
000001e0: 4e02 9139 f999 083e de0a eeba def4 17bd
000001f0: 4229 c73d 6312 dbbd 91aa 753d 5e93 f73c
00000200: 00f0 00bd 0c3a a03c a2ce 9ebd 1a17 4fbc
00000210: 9754 6dbc e294 10be aec1 92bc 2379 b93c
00000220: 5ea3 92bd c4a0 83bc 51bb 61bd 01bb c0bb
00000230: 94ab 86bc 8133 ad3c e2ee a43d 5f71 c33d
00000240: d190 9e3c e7ea 1bbc 2d16 853d 68ac e73c
00000250: b38e aa3c c608 40bd b53e 3a3d 91d9 48bd
00000260: 530c 91bd fe32 25bd f19c edbc 5ec3 74bd
00000270: 1cdf 14be 187a 743d cb56 0fbd 1015 ba3c
00000280: eead d3bc 9774 4a3c 5f00 b0bd 81e8 043e
00000290: 8bdf a43d ddd7 9d3c dd5c 85bd 8a4e 0dbd
000002a0: 325c d8bb d7b2 17bd 37c8 9cbc 5623 efbd
000002b0: 654b 873d d0b5 8bbb d254 053e 8f59 21bd
000002c0: 36a7 db3d 8a02 70bc a7bb e4bb 3a80 9f3d
000002d0: 44a4 b4bd b874 133d 6a08 3a3d 9649 adbc
000002e0: 5c92 863d 9c04 823d 2af2 f4bc 3599 bc3d
000002f0: 5213 26bd f3c8 c53c 3613 0dbc 49fc 653a
00000300: 1545 493d 87b5 c63d 3b72 b13c 2dcd 8fbd
00000310: 1ecb 8dbd c892 de3a d85f 1bbd 46f3 013d
00000320: 67fa 13be 0fea c53c 8e56 733d 513d 33bc
00000330: 7dbf 67bc 8779 53bd 7e39 0abd 5af4 423d
00000340: 32af 07bd 82b6 9cbd ee24 f7bb ed43 5cbd
00000350: 982c dd39 410e e939 85ed 41bd 9942 6fbd
00000360: 6592 303d 8aee b43d 92a0 e63b c928 59bc
00000370: 7061 d7bd 7617 61bb a139 e03d 7cec f63c
00000380: 2560 203d fdef 86bd 9147 e5bd 223a 633d
00000390: 194b 193e 1fdd ee3c fe3f 153e 6648 833d
000003a0: cd1d babc 8a52 f03d 116c 24bd d48c 1e3d
000003b0: a610 69bd 5bb3 6b3d 64b0 b23d 8f5b efbc
000003c0: c584 6abd 1392 efbc 5496 acbd e2ac 15bb
000003d0: 8458 393d 1e3f 7e3d 7c5e 2bbd eb6f 373d
000003e0: 0808 1dba b876 b33c 6ea3 513d 5421 42bc
000003f0: 3586 b4bd 405f 243e 29f7 a93c 3c3d 9a3c
0.11543875 0.014227569 0.10106717 -0.09313711 -0.0025719588 0.08674212 -0.020605119 -0.038524847
0.09949951 -0.042600457 0.09684093 0.008511592 -0.02471135 0.019451668 0.003809269 0.06191972
0.061049975 -0.07042969 0.028007424 0.13224085 -0.055148594 -0.07058685 0.03018755 0.11312996
0.018004803 -0.00013694777 -0.012401273 0.002490861 0.026951557 0.06962575 -0.08130102 0.012656565
0.026748206 -0.04196919 0.028130652 -0.023444608 0.07464189 -0.0033932982 0.015743785 -0.038040455
-0.014883862 0.03809858 0.05408448 0.031015078 -0.02525346 0.033694066 0.044974823 0.019941028
0.006073003 -0.015755016 -0.023628326 0.0061189784 -0.100827545 -0.0023238258 -0.041785672 -0.009771722
0.09068661 0.00598479 -0.0030980937 -0.06894867 -0.012621939 0.00019164775 -0.05156464 -0.037787445
-0.16362062 -0.04750299 0.031366788 0.03066336 0.115741014 -0.026844067 -0.08636939 0.018868979
-0.015709609 0.005698705 0.038566407 -0.030651378 -0.03475158 0.041935265 -0.08455917 0.04669918
0.0059718513 -0.027882097 -0.056568235 0.004106654 0.07538012 0.06443441 0.09761168 0.04835286
-0.004291904 -0.028369773 -0.0185974 0.07331794 -0.056918796 -0.12738343 -0.071544 0.01703255
0.1391992 -0.030302858 -0.057980213 -0.011673661 0.039328575 0.11719196 -0.007290057 -0.1262444
-0.012069402 -0.03246824 -0.12720704 0.006240464 0.008666359 0.03488384 -0.069555715 0.0576853
-0.057094336 -0.016359475 -0.115308516 0.01635657 -0.019340925 -0.094324425 0.04394385 -0.027094955
0.00027658272 0.13339986 -0.0018161198 -0.037098758 0.09724666 -0.10696866 0.059977118 0.030221637
-0.03147888 0.019558929 -0.07754256 -0.012639785 -0.0144855 -0.14119294 -0.01791462 0.02264077
-0.07160066 -0.01606787 -0.05511028 -0.0058816676 -0.016439237 0.021142723 0.08053376 0.09543108
0.019356163 -0.009516454 0.0649837 0.028280452 0.020819997 -0.046883367 0.04546996 -0.049035612
-0.07082429 -0.040331833 -0.0290055 -0.05975663 -0.14538234 0.05968675 -0.03499488 0.022715122
-0.025839772 0.012356899 -0.08593821 0.12979318 0.0805045 0.01926797 -0.06511853 -0.03449873
-0.0066027874 -0.03703579 -0.019138439 -0.11676662 0.06606177 -0.004263617 0.13020638 -0.03939205
0.10725252 -0.014649043 -0.0069803777 0.07788129 -0.08820394 0.035999984 0.04541818 -0.021153253
0.065708846 0.063485354 -0.02990063 0.092089094 -0.04054577 0.024143672 -0.008610537 0.000877325
0.049138147 0.09702592 0.021660915 -0.07021556 -0.06923507 0.0016981 -0.0379332 0.031726144
-0.1445099 0.02415946 0.059408717 -0.010939912 -0.014144775 -0.05162957 -0.033746235 0.047596313
-0.033126064 -0.07651998 -0.007542244 -0.053775717 0.0004218563 0.00044451843 -0.047345657 -0.05841312
0.043108363 0.0883456 0.0070381844 -0.013254353 -0.105166316 -0.003434626 0.10948492 0.030142061
0.03915419 -0.06588743 -0.11195291 0.05547536 0.14970054 0.029158173 0.14575192 0.06410293
-0.022719288 0.11734493 -0.040142123 0.038708523 -0.056900643 0.057544094 0.0872505 -0.029218463
-0.057255525 -0.029244458 -0.0842711 -0.0022838642 0.04525043 0.062071912 -0.041838154 0.044784468
-0.00059902715 0.021907195 0.05118125 -0.011848766 -0.088146605 0.1605196 0.020747738 0.018828027

network_body.observation_encoder.processors.0.dense.0.bias f4 [128]
00000000: 0000 0000 0000 0000 0000 0000 0000 0000
00000010: 0000 0000 0000 0000 0000 0000 0000 0000
00000020: 0000 0000 0000 0000 0000 0000 0000 0000
00000030: 0000 0000 0000 0000 0000 0000 0000 0000
00000040: 0000 0000 0000 0000 0000 0000 0000 0000
00000050: 0000 0000 0000 0000 0000 0000 0000 0000
00000060: 0000 0000 0000 0000 0000 0000 0000 0000
00000070: 0000 0000 0000 0000 0000 0000 0000 0000
00000080: 0000 0000 0000 0000 0000 0000 0000 0000
00000090: 0000 0000 0000 0000 0000 0000 0000 0000
000000a0: 0000 0000 0000 0000 0000 0000 0000 0000
000000b0: 0000 0000 0000 0000 0000 0000 0000 0000
000000c0: 0000 0000 0000 0000 0000 0000 0000 0000
000000d0: 0000 0000 0000 0000 0000 0000 0000 0000
000000e0: 0000 0000 0000 0000 0000 0000 0000 0000
000000f0: 0000 0000 0000 0000 0000 0000 0000 0000
00000100: 0000 0000 0000 0000 0000 0000 0000 0000
00000110: 0000 0000 0000 0000 0000 0000 0000 0000
00000120: 0000 0000 0000 0000 0000 0000 0000 0000
00000130: 0000 0000 0000 0000 0000 0000 0000 0000
00000140: 0000 0000 0000 0000 0000 0000 0000 0000
00000150: 0000 0000 0000 0000 0000 0000 0000 0000
00000160: 0000 0000 0000 0000 0000 0000 0000 0000
00000170: 0000 0000 0000 0000 0000 0000 0000 0000
00000180: 0000 0000 0000 0000 0000 0000 0000 0000
00000190: 0000 0000 0000 0000 0000 0000 0000 0000
000001a0: 0000 0000 0000 0000 0000 0000 0000 0000
000001b0: 0000 0000 0000 0000 0000 0000 0000 0000
000001c0: 0000 0000 0000 0000 0000 0000 0000 0000
000001d0: 0000 0000 0000 0000 0000 0000 0000 0000
000001e0: 0000 0000 0000 0000 0000 0000 0000 0000
000001f0: 0000 0000 0000 0000 0000 0000 0000 0000
0.0 0.0 0.0 0.0 0.0 0.0 0.0 0.0
0.0 0.0 0.0 0.0 0.0 0.0 0.0 0.0
0.0 0.0 0.0 0.0 0.0 0.0 0.0 0.0
0.0 0.0 0.0 0.0 0.0 0.0 0.0 0.0
0.0 0.0 0.0 0.0 0.0 0.0 0.0 0.0
0.0 0.0 0.0 0.0 0.0 0.0 0.0 0.0
0.0 0.0 0.0 0.0 0.0 0.0 0.0 0.0
0.0 0.0 0.0 0.0 0.0 0.0 0.0 0.0
0.0 0.0 0.0 0.0 0.0 0.0 0.0 0.0
0.0 0.0 0.0 0.0 0.0 0.0 0.0 0.0
0.0 0.0 0.0 0.0 0.0 0.0 0.0 0.0
0.0 0.0 0.0 0.0 0.0 0.0 0.0 0.0
0.0 0.0 0.0 0.0 0.0 0.0 0.0 0.0
0.0 0.0 0.0 0.0 0.0 0.0 0.0 0.0
0.0 0.0 0.0 0.0 0.0 0.0 0.0 0.0
0.0 0.0 0.0 0.0 0.0 0.0 0.0 0.0

network_body.processors.0.conv_layers.0.bias f4 [16]
00000000: a6cf acbd 882f 39bc fe44 82bd bc67 b1bc
00000010: 84ef 90bd 2288 de3d 824a d6bd 1e61 b03d
00000020: 9416 3d3d 6f52 cfbd 4078 8a3d 48ff ffbc
00000030: ced5 a5bd 58e6 403d 3aa8 7ebd 7ea7 d6bd
-0.08438043 -0.011302836 -0.063608155 -0.02165591 -0.07076934 0.10865809 -0.1046343 0.08612274
0.04616411 -0.10123145 0.06761217 -0.031249657 -0.08097421 0.047094673 -0.062172152 -0.10481165

network_body.processors.0.conv_layers.2.weight f4 [32, 16, 4, 4]
00000000: a155 49bd 00ea f4bc 4859 443c 3680 353d
00000010: f4ec b03c a57a 4cbd aebd 263d f4eb 2bbc
00000020: 44e7 7abc f043 6e3c d02c c73b d357 68bd
00000030: 10f3 c1bb 8031 03ba fad5 653d 3003 44bb
00000040: e645 5d3d 503e 3abc dc64 c63c f824 683c
00000050: 3617 3b3d e290 70bd c004 833a 7253 e1bc
00000060: c096 5a3d 5a8a 1bbd 4cc9 593d a658 d2bc
00000070: a888 1e3d fc99 4dbc 6693 153d 74a8 803c
00000080: 3ecf a1bc e06a d13b d478 443d 4025 3b3d
00000090: 9304 0ebd 006e 663a 340d ee3c 6388 05bd
000000a0: 4e6d 20bd 4ce5 673d 6e9d 7e3d d200 093d
000000b0: 8f22 3dbd 389f 1dbc dc45 18bd d64c 4cbd
000000c0: e295 663d e761 44bd 19af 14bd d006 213c
000000d0: e0ed 033b b0f9 d23c 4e36 373d 70cb 2ebb
000000e0: d882 5bbc 5079 693c a043 85bc fe52 4ebd
000000f0: cdf1 4abd 1cff 113d 201e 89ba 385c f2bc
00000100: 804c 653b 628d 4a3d 7691 513d 85c4 70bd
00000110: 8a07 01bd c7ac 5fbd a43b 3e3d 1eba 70bd
00000120: f050 a33b 16e9 02bd c053 f8bb 8049 9d3a
00000130: b4f3 28bc c816 20bd 600f ebbc 883b 8dbb
00000140: fee9 103d e87c 30bc 6810 4d3d ec33 1ebc
00000150: 2030 333d 9e87 29bd 3b26 74bd 3652 003d
00000160: 16f7 0abd d6b6 393d cf24 2cbd cab0 613d
00000170: ac84 263d 18c0 eb3c 6815 01bc e0bb 6c3b
00000180: bcae 523d 87ed 22bd ba5e 3b3d a85b 463d
00000190: e066 2dbb 1407 42bd 1e85 723d 0073 a1bb
000001a0: 4f1f 1fbd 5248 0abd 3474 f23c e844 4dbd
000001b0: 6f16 5cbd 23fd 57bd 60b0 113d 2633 313d
000001c0: 7852 82bc 08c7 823c ac12 05bd 600a 833c
000001d0: e0c4 3bbb 656f 7abd 7a8f 8dbc a0d9 603c
000001e0: f0d4 b13b a869 fcbc 8287 1c3d 043d ed3c
000001f0: dce7 11bd 90e9 f93b 3076 6e3c 805a a53c
00000200: 4864 2e3c 1a5a afbc a08e 04bd bcd6 3cbd
00000210: a041 3d3c 22ab 40bd c43a f23c 13b1 7abd
00000220: ece0 b5bc 5d7c 41bd 1449 26bd 5eae 1f3d
00000230: f6be 38bd 3060 0abd 242d 67bd cccd 653d
00000240: 54ef 423d 7060 963c a15c 0cbd 3e69 9bbc
00000250: 2a1e 97bc 80d0 183c b869 963c 2a76 593d
00000260: f024 0ebb b40d 78bd 2cc6 c93c f05f 663c
00000270: 2e86 5e3d 1ca5 46bd 6c39 1cbc 64f8 3dbd
00000280: 7f3e 75bd 9454 833c 786c a9bc 9872 263c
00000290: c82f 473c ec1e a03c 784e 173d f1b4 6dbd
000002a0: be2f 5ebd fc37 903c 7889 5ebc 2a26 3e3d
000002b0: ae84 b0bc 667b 623d 01d6 15bd e8c8 35bd
000002c0: 6ade abbc 6d7b 14bd 355d 52bd 2e1c b6bc
000002d0: 7ff8 11bd ac69 51bc 00eb 46b9 105d 19bb
000002e0: aa8f 793d a6ed 05bd b829 a23c 00fc af3c
000002f0: 403e 9bba 0022 e0b8 5c55 59bd 525e 83bc
00000300: 08fb 4b3c 088c cfbb d8c6 b5bc 1efa d8bc
00000310: c0ae 083b 2472 393d 9e44 61bd 5018 fbbb
00000320: 7676 71bd b88f c43c 1cde d83c 4642 4a3d
00000330: 8011 283a 2c57 2e3d 0005 14bb 88f8 023d
00000340: b055 f83b c2ee 6bbd 38eb 6abd 3625 083d
00000350: e4a9 0fbc b0fc 03bd 94be 4b3d 4c37 623d
00000360: c047 653c 3c74 2b3d 2c54 d7bc 505a 393c
00000370: d87a 92bc f82f 933c 5815 1b3d 541e d23c
00000380: 1eb9 c4bc 9642 04bd 60e8 733d eb7a 4bbd
00000390: 9888 af3c 7428 4d3d 1426 96bc 1cfc e03c
000003a0: 6aaf e9bc 286e ea3c aa33 33bd 28b1 c8bb
000003b0: 7c14 9bbc 087b c4bc 02b1 693d 802d 8eba
000003c0: c8ab 093c c8a0 a93c cc79 5abc 7837 443d
000003d0: 9651 7dbd 200d 0ebb 88f2 b9bc 88ed 0a3c
000003e0: 3342 2dbd fa8a aebc e340 41bd f283 8fbc
000003f0: eab2 2f3d 1035 f7bc 2631 233d c406 04bc
-0.049153928 -0.029896736 0.011984177 0.044311725 0.021597363 -0.04992165 0.040708236 -0.010493267
-0.015313927 0.014542565 0.00607834 -0.05672438 -0.005918868 -0.00050046295 0.056112267 -0.0029909126
0.05402174 -0.0113673955 0.024218015 0.01416897 0.045676433 -0.05873192 0.0009995922 -0.02750561
0.053366423 -0.03797374 0.053170487 -0.025677036 0.038704544 -0.01254892 0.036517523 0.015705325
-0.019752141 0.0063909143 0.047966793 0.04568982 -0.03467233 0.0008790195 0.02905903 -0.03260077
-0.03916674 0.05661516 0.062161855 0.033448048 -0.046175536 -0.00962048 -0.037175998 -0.049877964
0.056295283 -0.04794493 -0.0362998 0.009828284 0.0020130798 0.025753826 0.044729523 -0.0026671551
-0.013397895 0.014250115 -0.016267598 -0.050372116 -0.049547005 0.035643682 -0.0010461248 -0.029584989
0.0034988225 0.04945124 0.051164113 -0.058781166 -0.03150133 -0.054608133 0.046443596 -0.058771245
0.0049840137 -0.03196057 -0.007578343 0.0012000054 -0.01031201 -0.039084226 -0.028693855 -0.004310075
0.035379402 -0.0107719675 0.050064474 -0.009655934 0.043747067 -0.0413891 -0.059606772 0.031328402
-0.033927046 0.04534038 -0.04202729 0.05510024 0.04065387 0.02877812 -0.007878639 0.0036122724
0.05143617 -0.039777305 0.045744635 0.048427254 -0.0026459023 -0.04737003 0.05920898 -0.004927039
-0.038848218 -0.033760376 0.029596426 -0.050114542 -0.05373233 -0.052731644 0.035568595 0.04326167
-0.015908465 0.015964046 -0.03248851 0.015996158 -0.0028651282 -0.06114139 -0.017280329 0.013723761
0.0054269955 -0.0308121 0.038215168 0.028959759 -0.03562151 0.00762672 0.014554545 0.020184755
0.010644026 -0.021405268 -0.03236258 -0.046103224 0.011551291 -0.047038205 0.029569037 -0.061204027
-0.022201978 -0.047237743 -0.040597036 0.03898465 -0.04510399 -0.033783138 -0.056439534 0.056104466
0.047591522 0.018356532 -0.034268025 -0.018971082 -0.018447 0.009327054 0.018360958 0.053091206
-0.0021689497 -0.060559943 0.024630629 0.014060959 0.054327182 -0.048497304 -0.009535175 -0.046379462
-0.059874054 0.01603154 -0.020681605 0.010159157 0.012157388 0.019545995 0.036940068 -0.058033887
-0.05424475 0.01760482 -0.01358258 0.046423115 -0.021547642 0.055293463 -0.036581043 -0.044381052
-0.020980079 -0.03625052 -0.05135842 -0.022230234 -0.035637375 -0.012781542 -0.00018970296 -0.0023401417
0.060928024 -0.032697342 0.019795284 0.021482468 -0.0011844113 -0.00010687485 -0.05305992 -0.016036186
0.012449987 -0.0063338317 -0.022189543 -0.026486453 0.0020856112 0.04527487 -0.05499708 -0.0076628104
-0.058950864 0.023994312 0.026473098 0.04937961 0.0006411299 0.042563602 -0.0022585988 0.0319753
0.007578574 -0.057600744 -0.05735323 0.033238612 -0.008768532 -0.032223403 0.049742296 0.055228516
0.013994157 0.041858897 -0.026285253 0.011313036 -0.017880842 0.01796721 0.03786215 0.025649227
-0.024014052 -0.032290064 0.059547782 -0.04967777 0.021427438 0.050087407 -0.018328704 0.027463965
-0.028526027 0.02861698 -0.043750443 -0.0061246343 -0.018930666 -0.023984447 0.057053573 -0.00108473
0.008402772 0.02070655 -0.013334703 0.04790446 -0.061845385 -0.0021675304 -0.022698656 0.008479483
-0.04229946 -0.021306504 -0.04718102 -0.017518971 0.042895235 -0.03017667 0.039841793 -0.008058254

network_body.processors.0.conv_layers.2.bias f4 [32]
00000000: 00a7 543c 2ab9 0cbd 8211 2bbd c424 32bd
00000010: 8d6a 7ebd c479 f43c fa5b bcbc a014 a2bc
00000020: e035 e73c a039 cdba 9067 043c 9075 25bd
00000030: c8f4 b1bc 738e 7bbd b29b 593d 08ee edbc
00000040: d899 073d cce8 fc3c 1814 573d 7e5f 093d
00000050: 141a f53c 7048 97bb 9476 b2bc b820 2abc
00000060: d61d 39bd b8c4 7d3d d8db 7f3c 7c8f 6d3d
00000070: c1c2 6fbd b456 9d3c c096 673d 3051 4b3d
0.012979269 -0.034356274 -0.041764744 -0.043492094 -0.062113333 0.029843219 -0.022993077 -0.019785225
0.028223932 -0.0015657432 0.008081332 -0.04039532 -0.021723166 -0.061415147 0.053127 -0.029044166
0.0331057 0.030872725 0.052509397 0.033538334 0.029919662 -0.0046167895 -0.021785058 -0.010383777
-0.04519447 0.061955184 0.01561638 0.057998165 -0.05853534 0.019206382 0.05654025 0.049637973

network_body.processors.0.dense.0.weight f4 [128, 512]
00000000: 276b ec3d c01a 693c 4efc ce3d abbe bebd
00000010: 4f8e 28bb daa5 b13d 11cc a8bc 3bcc 1dbd
00000020: 66c6 cb3d d17d 2ebd 8a54 c63d 3474 0b3c
00000030: 756f cabc 1b59 9f3c eea4 793b 889f 7d3d
00000040: 8a0f 7a3d 713d 90bd d36f e53c 256a 073e
00000050: 7ee3 61bd d78f 90bd e14b f73c aeb0 e73d
00000060: cf7e 933c a399 0fb9 b52e 4bbc b73d 233b
00000070: 83c9 dc3c f297 8e3d 2681 a6bd 7b5d 4f3c
00000080: 0e1f db3c e3e7 2bbd 4172 e63c e80e c0bc
00000090: d9dd 983d 1962 5ebb 1cf9 803c 4fd0 1bbd
000000a0: 71db 73bc 420d 1c3d b087 5d3d 5513 fe3c
000000b0: 58e0 cebc ca02 0a3d 8537 383d 5e5b a33c
000000c0: 0b00 c73b aa10 81bc 3190 c1bc b681 c83b
000000d0: ac7e cebd 544b 18bb 7427 2bbd 9319 20bc
000000e0: e7b9 b93d 0f1c c43b 6309 4bbb f634 8dbd
000000f0: 40cc 4ebc 0df5 4839 7235 53bd 02c7 1abd
00000100: 2a8c 27be 7f92 42bd 767a 003d ba31 fb3c
00000110: a009 ed3d 17e8 dbbc 6fe2 b0bd 1e93 9a3c
00000120: 70b1 80bc 34bc ba3b cff7 1d3d 9918 fbbc
00000130: ac57 0ebd 50c4 2b3d 5c2d adbd a447 3f3d
00000140: 85af c33b ff68 e4bc 18b4 67bd 1c91 863b
00000150: e460 9a3d 30f6 833d a2e8 c73d a60d 463d
00000160: 1aa3 8cbb ba67 e8bc 9359 98bc b727 963d
00000170: af23 69bd cd70 02be a985 92bd d987 8b3c
00000180: 3c8a 0e3e b33d f8bc a97c 6dbd e242 3fbc
00000190: 0017 213d 5702 f03d 6ee1 eebb 3646 01be
000001a0: bebe 45bc 6bfd 04bd 9042 02be ce7c cc3b
000001b0: 58fd 0d3c 5be2 0e3d 3a73 8ebd 6c47 6c3d
000001c0: c0db 69bd 4e04 86bc df26 ecbd 37fe 853c
000001d0: dc70 9ebc 2a2d c1bd 77fe 333d 3df6 ddbc
000001e0: 4e02 9139 f999 083e de0a eeba def4 17bd
000001f0: 4229 c73d 6312 dbbd 91aa 753d 5e93 f73c
00000200: 00f0 00bd 0c3a a03c a2ce 9ebd 1a17 4fbc
00000210: 9754 6dbc e294 10be aec1 92bc 2379 b93c
00000220: 5ea3 92bd c4a0 83bc 51bb 61bd 01bb c0bb
00000230: 94ab 86bc 8133 ad3c e2ee a43d 5f71 c33d
00000240: d190 9e3c e7ea 1bbc 2d16 853d 68ac e73c
00000250: b38e aa3c c608 40bd b53e 3a3d 91d9 48bd
00000260: 530c 91bd fe32 25bd f19c edbc 5ec3 74bd
00000270: 1cdf 14be 187a 743d cb56 0fbd 1015 ba3c
00000280: eead d3bc 9774 4a3c 5f00 b0bd 81e8 043e
00000290: 8bdf a43d ddd7 9d3c dd5c 85bd 8a4e 0dbd
000002a0: 325c d8bb d7b2 17bd 37c8 9cbc 5623 efbd
000002b0: 654b 873d d0b5 8bbb d254 053e 8f59 21bd
000002c0: 36a7 db3d 8a02 70bc a7bb e4bb 3a80 9f3d
000002d0: 44a4 b4bd b874 133d 6a08 3a3d 9649 adbc
000002e0: 5c92 863d 9c04 823d 2af2 f4bc 3599 bc3d
000002f0: 5213 26bd f3c8 c53c 3613 0dbc 49fc 653a
00000300: 1545 493d 87b5 c63d 3b72 b13c 2dcd 8fbd
00000310: 1ecb 8dbd c892 de3a d85f 1bbd 46f3 013d
00000320: 67fa 13be 0fea c53c 8e56 733d 513d 33bc
00000330: 7dbf 67bc 8779 53bd 7e39 0abd 5af4 423d
00000340: 32af 07bd 82b6 9cbd ee24 f7bb ed43 5cbd
00000350: 982c dd39 410e e939 85ed 41bd 9942 6fbd
00000360: 6592 303d 8aee b43d 92a0 e63b c928 59bc
00000370: 7061 d7bd 7617 61bb a139 e03d 7cec f63c
00000380: 2560 203d fdef 86bd 9147 e5bd 223a 633d
00000390: 194b 193e 1fdd ee3c fe3f 153e 6648 833d
000003a0: cd1d babc 8a52 f03d 116c 24bd d48c 1e3d
000003b0: a610 69bd 5bb3 6b3d 64b0 b23d 8f5b efbc
000003c0: c584 6abd 1392 efbc 5496 acbd e2ac 15bb
000003d0: 8458 393d 1e3f 7e3d 7c5e 2bbd eb6f 373d
000003e0: 0808 1dba b876 b33c 6ea3 513d 5421 42bc
000003f0: 3586 b4bd 405f 243e 29f7 a93c 3c3d 9a3c
0.11543875 0.014227569 0.10106717 -0.09313711 -0.0025719588 0.08674212 -0.020605119 -0.038524847
0.09949951 -0.042600457 0.09684093 0.008511592 -0.02471135 0.019451668 0.003809269 0.06191972
0.061049975 -0.07042969 0.028007424 0.13224085 -0.055148594 -0.07058685 0.03018755 0.11312996
0.018004803 -0.00013694777 -0.012401273 0.002490861 0.026951557 0.06962575 -0.08130102 0.012656565
0.026748206 -0.04196919 0.028130652 -0.023444608 0.07464189 -0.0033932982 0.015743785 -0.038040455
-0.014883862 0.03809858 0.05408448 0.031015078 -0.02525346 0.033694066 0.044974823 0.019941028
0.006073003 -0.015755016 -0.023628326 0.0061189784 -0.100827545 -0.0023238258 -0.041785672 -0.009771722
0.09068661 0.00598479 -0.0030980937 -0.06894867 -0.012621939 0.00019164775 -0.05156464 -0.037787445
-0.16362062 -0.04750299 0.031366788 0.03066336 0.115741014 -0.026844067 -0.08636939 0.018868979
-0.015709609 0.005698705 0.038566407 -0.030651378 -0.03475158 0.041935265 -0.08455917 0.04669918
0.0059718513 -0.027882097 -0.056568235 0.004106654 0.07538012 0.06443441 0.09761168 0.04835286
-0.004291904 -0.028369773 -0.0185974 0.07331794 -0.056918796 -0.12738343 -0.071544 0.01703255
0.1391992 -0.030302858 -0.057980213 -0.011673661 0.039328575 0.11719196 -0.007290057 -0.1262444
-0.012069402 -0.03246824 -0.12720704 0.006240464 0.008666359 0.03488384 -0.069555715 0.0576853
-0.057094336 -0.016359475 -0.115308516 0.01635657 -0.019340925 -0.094324425 0.04394385 -0.027094955
0.00027658272 0.13339986 -0.0018161198 -0.037098758 0.09724666 -0.10696866 0.059977118 0.030221637
-0.03147888 0.019558929 -0.07754256 -0.012639785 -0.0144855 -0.14119294 -0.01791462 0.02264077
-0.07160066 -0.01606787 -0.05511028 -0.0058816676 -0.016439237 0.021142723 0.08053376 0.09543108
0.019356163 -0.009516454 0.0649837 0.028280452 0.020819997 -0.046883367 0.04546996 -0.049035612
-0.07082429 -0.040331833 -0.0290055 -0.05975663 -0.14538234 0.05968675 -0.03499488 0.022715122
-0.025839772 0.012356899 -0.08593821 0.12979318 0.0805045 0.01926797 -0.06511853 -0.03449873
-0.0066027874 -0.03703579 -0.019138439 -0.11676662 0.06606177 -0.004263617 0.13020638 -0.03939205
0.10725252 -0.014649043 -0.0069803777 0.07788129 -0.08820394 0.035999984 0.04541818 -0.021153253
0.065708846 0.063485354 -0.02990063 0.092089094 -0.04054577 0.024143672 -0.008610537 0.000877325
0.049138147 0.09702592 0.021660915 -0.07021556 -0.06923507 0.0016981 -0.0379332 0.031726144
-0.1445099 0.02415946 0.059408717 -0.010939912 -0.014144775 -0.05162957 -0.033746235 0.047596313
-0.033126064 -0.07651998 -0.007542244 -0.053775717 0.0004218563 0.00044451843 -0.047345657 -0.05841312
0.043108363 0.0883456 0.0070381844 -0.013254353 -0.105166316 -0.003434626 0.10948492 0.030142061
0.03915419 -0.06588743 -0.11195291 0.05547536 0.14970054 0.029158173 0.14575192 0.06410293
-0.022719288 0.11734493 -0.040142123 0.038708523 -0.056900643 0.057544094 0.0872505 -0.029218463
-0.057255525 -0.029244458 -0.0842711 -0.0022838642 0.04525043 0.062071912 -0.041838154 0.044784468
-0.00059902715 0.021907195 0.05118125 -0.011848766 -0.088146605 0.1605196 0.020747738 0.018828027

network_body.processors.0.dense.0.bias f4 [128]
00000000: 0000 0000 0000 0000 0000 0000 0000 0000
00000010: 0000 0000 0000 0000 0000 0000 0000 0000
00000020: 0000 0000 0000 0000 0000 0000 0000 0000
00000030: 0000 0000 0000 0000 0000 0000 0000 0000
00000040: 0000 0000 0000 0000 0000 0000 0000 0000
00000050: 0000 0000 0000 0000 0000 0000 0000 0000
00000060: 0000 0000 0000 0000 0000 0000 0000 0000
00000070: 0000 0000 0000 0000 0000 0000 0000 0000
00000080: 0000 0000 0000 0000 0000 0000 0000 0000
00000090: 0000 0000 0000 0000 0000 0000 0000 0000
000000a0: 0000 0000 0000 0000 0000 0000 0000 0000
000000b0: 0000 0000 0000 0000 0000 0000 0000 0000
000000c0: 0000 0000 0000 0000 0000 0000 0000 0000
000000d0: 0000 0000 0000 0000 0000 0000 0000 0000
000000e0: 0000 0000 0000 0000 0000 0000 0000 0000
000000f0: 0000 0000 0000 0000 0000 0000 0000 0000
00000100: 0000 0000 0000 0000 0000 0000 0000 0000
00000110: 0000 0000 0000 0000 0000 0000 0000 0000
00000120: 0000 0000 0000 0000 0000 0000 0000 0000
00000130: 0000 0000 0000 0000 0000 0000 0000 0000
00000140: 0000 0000 0000 0000 0000 0000 0000 0000
00000150: 0000 0000 0000 0000 0000 0000 0000 0000
00000160: 0000 0000 0000 0000 0000 0000 0000 0000
00000170: 0000 0000 0000 0000 0000 0000 0000 0000
00000180: 0000 0000 0000 0000 0000 0000 0000 0000
00000190: 0000 0000 0000 0000 0000 0000 0000 0000
000001a0: 0000 0000 0000 0000 0000 0000 0000 0000
000001b0: 0000 0000 0000 0000 0000 0000 0000 0000
000001c0: 0000 0000 0000 0000 0000 0000 0000 0000
000001d0: 0000 0000 0000 0000 0000 0000 0000 0000
000001e0: 0000 0000 0000 0000 0000 0000 0000 0000
000001f0: 0000 0000 0000 0000 0000 0000 0000 0000
0.0 0.0 0.0 0.0 0.0 0.0 0.0 0.0
0.0 0.0 0.0 0.0 0.0 0.0 0.0 0.0
0.0 0.0 0.0 0.0 0.0 0.0 0.0 0.0
0.0 0.0 0.0 0.0 0.0 0.0 0.0 0.0
0.0 0.0 0.0 0.0 0.0 0.0 0.0 0.0
0.0 0.0 0.0 0.0 0.0 0.0 0.0 0.0
0.0 0.0 0.0 0.0 0.0 0.0 0.0 0.0
0.0 0.0 0.0 0.0 0.0 0.0 0.0 0.0
0.0 0.0 0.0 0.0 0.0 0.0 0.0 0.0
0.0 0.0 0.0 0.0 0.0 0.0 0.0 0.0
0.0 0.0 0.0 0.0 0.0 0.0 0.0 0.0
0.0 0.0 0.0 0.0 0.0 0.0 0.0 0.0
0.0 0.0 0.0 0.0 0.0 0.0 0.0 0.0
0.0 0.0 0.0 0.0 0.0 0.0 0.0 0.0
0.0 0.0 0.0 0.0 0.0 0.0 0.0 0.0
0.0 0.0 0.0 0.0 0.0 0.0 0.0 0.0

network_body._body_endoder.seq_layers.0.weight f4 [128, 128]
00000000: 6969 1dbb dbdf 403d 8fe7 0cbe f96d 12bd
00000010: 298f 05bc 5868 e83d 255b ee3d 7cc8 273e
00000020: 1611 04bd 8059 e73b f202 48bd 5733 e63d
00000030: 6eee 3ebd 9114 353d c177 303e 0598 c7bd
00000040: 07cf f53d ff45 e93d b491 813d cebb 933d
00000050: aff6 c8bd a68a 65bd e7e1 2fbd 45d4 0d3e
00000060: 67c2 c7bd e61d a0bd 96bf 08bc af55 383e
00000070: 241e 673c 2c35 0bbe 6b1a 223d 7161 9a3d
00000080: 8d6e eabc fa45 163d 78ec 133c c557 773c
00000090: 2d0e d3bd 155e 433d ab06 4a3e 8aea b33c
000000a0: ea65 323d 5d8a e8bd 4df4 d33d a9fd 61bd
000000b0: eac9 7f3d 5e48 d83c b13a e7bd 3d32 cbbc
000000c0: c6f7 94bd 83a3 0f3e 3844 3abe c224 713d
000000d0: 168a 18be c0ee d1bd 5cb8 81ba a054 e0bc
000000e0: 530a c2bc c04e 9b3c 17b8 2dbe b2aa 833d
000000f0: 8bb7 c4b7 8d55 7ebc 5875 0dbe bbb8 4bbd
00000100: bff7 37be 8e19 ef3c 43c2 163e d6f4 cd3c
00000110: 363c 57bd 91c9 be3d f170 aabd 3b12 bc3d
00000120: 8cab f8bd 0fb7 a3bb ef90 21bd db16 613d
00000130: 3fc4 973c e84e e6bc 6908 0ebd 1c6c 6dbd
00000140: ee00 05be 271e 02be f000 9b3d 19c8 1dbd
00000150: 5914 34be 741f 8a3b 0d51 4cbd 4fdf d0bc
00000160: 87e3 2cbe 64eb fbbd 6082 03bd 526f 7abc
00000170: 9d51 92bd ce64 293e 712f d93d 3d3c 4bbe
00000180: 155f 73bc da88 44bd 4f04 8abc 8de2 93ba
00000190: 2e01 82bd da99 2b3d 1883 a9bd 2852 58bc
000001a0: f63a e63b 4dcf 8a3d 18fc 05be 4741 c43d
000001b0: d7b2 63bd 0ce7 78bd 7ef8 c43c 26d9 8abd
000001c0: b7e9 07be dbad b63b 4303 9ebc 2e2a b9bd
000001d0: 5345 89bd 3c28 c23d 1d0c fe3d 5c07 adbd
000001e0: b546 973d cd02 6d3c b0a3 3fbd 9b69 1ebd
000001f0: 8cd3 073d 8e5b 20bd 7243 edbd 4626 1f3d
00000200: b4be 6c3e eea7 bc3c 2b62 b63d 6424 84bd
00000210: 715d 60bd 9b6a a4bd ef5e adbc 2d90 b2bc
00000220: e026 c03d 36f7 babd e818 7abd 283d b4bc
00000230: 2910 2dbd e2f1 bd3d 69d1 6b3c d7d1 3cbd
00000240: 809d c93d 1040 dcbd a724 56bd 0cb5 493d
00000250: 777c 6f3d 8d45 63bd 559c f0bc 868c fb3d
00000260: 563d 953d 6a95 903c e9cf de3d 9b73 0f3d
00000270: 5ccc 8abd 4a51 62bd 6b72 1bb9 5677 153d
00000280: f203 b6bd 171c 2cbe 91ac 753d a0ef 0e3e
00000290: a32e e13c b5d8 71bd f393 033d 5895 cd3c
000002a0: 164d 53bd 266a 92bd 4ace 4dbd e683 b7bd
000002b0: b733 27bc ad74 bcbc 9ca6 c7bd 3036 9a3c
000002c0: 73c7 b23d bf3c 1a3d 9ee0 a7bd a379 0dbd
000002d0: 6a93 87bd 1e3d 073e ab8c 07be 53e6 2b3d
000002e0: 5a12 f73d b5c8 2ebd af6d 8b3d 8c3e ca3d
000002f0: bba4 1b3e 926c 863c aadb e6bd 0b3a d0bd
00000300: b470 69bd 4642 193d 0157 093d e929 48bb
00000310: 0c85 13be d173 bd3c 5849 edbd d750 1dbd
00000320: 0107 5f3a 56d9 3b3c 4920 393d 8263 b9bd
00000330: 4d75 833d 9415 72bd 3c5d 6a3e 2e1a 84bc
00000340: b836 2bbd ebfb 1bba bc88 dabc aedb a5bd
00000350: 0e08 05bd 0255 373c 1ca4 a7bd f509 173d
00000360: 0451 3dbe 6844 adbd 2ff4 783c 6ba3 1b3d
00000370: f5ff d23b c800 e33c a03d d43b 9a51 e9bd
00000380: 9400 56bd b96f 2e3d 153b 12bc 16de 2cbc
00000390: 9674 3dbd 481d c0bd 0d93 1bbe f682 683c
000003a0: f7d3 ec3d b181 a23c 6fd8 293d 22cd 373d
000003b0: 60ef 053e f1bc 4f3e 61e8 d03b 89bf c83d
000003c0: d0b2 253e 640b 763c 850e 3f3e b3d7 363e
000003d0: 9662 80bc 9065 df3d f8cf 6dbd 1f44 983c
000003e0: 17ea 38bd 5528 db3c a218 4dbd 80da cc3d
000003f0: 1af6 8d3c 6865 30be 8575 bbbd 4896 1abe
-0.0024019128 0.047088485 -0.13760208 -0.03574941 -0.008151808 0.11348027 0.11638478 0.16385072
-0.032242857 0.00706023 -0.048830934 0.11240261 -0.046614103 0.044209067 0.17233182 -0.09745792
0.12002378 0.11390304 0.06326619 0.07213555 -0.09812676 -0.05604043 -0.042940047 0.13850506
-0.09753876 -0.07818203 -0.008346459 0.18001436 0.014106307 -0.13594502 0.039575975 0.07538117
-0.028617168 0.03668783 0.0090285465 0.0150966095 -0.10305438 0.047697145 0.19729106 0.021962423
0.043554224 -0.11354516 0.10349331 -0.05517355 0.06244842 0.026401695 -0.11290491 -0.024804229
-0.072738215 0.14027219 -0.18190086 0.058872946 -0.14896426 -0.10250616 -0.0009896862 -0.027384102
-0.023686564 0.01895845 -0.16964756 0.06429042 -2.345049e-05 -0.015523327 -0.13814294 -0.04973672
-0.17965601 0.02918699 0.14722542 0.025141161 -0.052547656 0.093157895 -0.08322323 0.09183165
-0.12142095 -0.0049961875 -0.03944486 0.054953437 0.018526195 -0.028113797 -0.03467599 -0.05796443
-0.12988636 -0.12706815 0.07568538 -0.038520906 -0.17585887 0.0042151753 -0.049881984 -0.025497107
-0.1688367 -0.123007566 -0.032106757 -0.01528533 -0.07144473 0.1654236 0.10604752 -0.19847198
-0.014854212 -0.047982074 -0.016847758 -0.0011282727 -0.06347881 0.04189477 -0.08276957 -0.013203181
0.0070260717 0.06777821 -0.13084447 0.09582763 -0.055590477 -0.06076722 0.024044272 -0.06779699
-0.13272749 0.0055749244 -0.019288665 -0.09041248 -0.06702676 0.0948033 0.12404654 -0.08448669
0.07386533 0.014466 -0.046786964 -0.038674932 0.03316073 -0.039149813 -0.1158513 0.03885486
0.23119622 0.023029294 0.08905443 -0.064522535 -0.054776613 -0.08028146 -0.021163432 -0.021797264
0.09382415 -0.09129183 -0.06105891 -0.022001818 -0.04225174 0.09274651 0.014393189 -0.046098556
0.09844494 -0.107544065 -0.05228105 0.049244925 0.05846831 -0.05548625 -0.02937142 0.12282662
0.072870895 0.017649371 0.108794995 0.03502236 -0.0677726 -0.055253305 -0.00014824576 0.03649076
-0.08887471 -0.1680759 0.059979025 0.13958597 0.027488058 -0.05904456 0.032123517 0.025095627
-0.051587187 -0.071491525 -0.05024556 -0.089607045 -0.010205201 -0.023004854 -0.09748575 0.018824667
0.08729448 0.03765559 -0.08197139 -0.03453983 -0.06619914 0.13206908 -0.13237254 0.0419677
0.12064047 -0.042671878 0.0680803 0.09875211 0.15199558 0.016409192 -0.11272366 -0.10167321
-0.056992248 0.03741672 0.03353024 -0.0030542559 -0.14406222 0.023126515 -0.11586255 -0.038407173
0.00085078186 0.011465391 0.045196805 -0.09052183 0.06418858 -0.05910261 0.22887129 -0.016125765
-0.04180023 -0.00059503195 -0.026676528 -0.08098541 -0.032478385 0.011189701 -0.08185598 0.03687473
-0.18487936 -0.08460313 0.015194937 0.037997644 0.006439204 0.027710333 0.006477073 -0.113925174
-0.052246645 0.042587016 -0.008925219 -0.010550996 -0.046253763 -0.09380585 -0.15192814 0.01419138
0.115638666 0.019837232 0.041466173 0.044873364 0.13079596 0.20286919 0.006375358 0.098021574
0.16181493 0.015017364 0.18657883 0.1785572 -0.01567201 0.109080434 -0.058059663 0.01858717
-0.04514512 0.02675263 -0.05007232 0.10002613 0.017329264 -0.17226183 -0.091532744 -0.1509639

network_body._body_endoder.seq_layers.0.bias f4 [128]
00000000: 0000 0000 0000 0000 0000 0000 0000 0000
00000010: 0000 0000 0000 0000 0000 0000 0000 0000
00000020: 0000 0000 0000 0000 0000 0000 0000 0000
00000030: 0000 0000 0000 0000 0000 0000 0000 0000
00000040: 0000 0000 0000 0000 0000 0000 0000 0000
00000050: 0000 0000 0000 0000 0000 0000 0000 0000
00000060: 0000 0000 0000 0000 0000 0000 0000 0000
00000070: 0000 0000 0000 0000 0000 0000 0000 0000
00000080: 0000 0000 0000 0000 0000 0000 0000 0000
00000090: 0000 0000 0000 0000 0000 0000 0000 0000
000000a0: 0000 0000 0000 0000 0000 0000 0000 0000
000000b0: 0000 0000 0000 0000 0000 0000 0000 0000
000000c0: 0000 0000 0000 0000 0000 0000 0000 0000
000000d0: 0000 0000 0000 0000 0000 0000 0000 0000
000000e0: 0000 0000 0000 0000 0000 0000 0000 0000
000000f0: 0000 0000 0000 0000 0000 0000 0000 0000
00000100: 0000 0000 0000 0000 0000 0000 0000 0000
00000110: 0000 0000 0000 0000 0000 0000 0000 0000
00000120: 0000 0000 0000 0000 0000 0000 0000 0000
00000130: 0000 0000 0000 0000 0000 0000 0000 0000
00000140: 0000 0000 0000 0000 0000 0000 0000 0000
00000150: 0000 0000 0000 0000 0000 0000 0000 0000
00000160: 0000 0000 0000 0000 0000 0000 0000 0000
00000170: 0000 0000 0000 0000 0000 0000 0000 0000
00000180: 0000 0000 0000 0000 0000 0000 0000 0000
00000190: 0000 0000 0000 0000 0000 0000 0000 0000
000001a0: 0000 0000 0000 0000 0000 0000 0000 0000
000001b0: 0000 0000 0000 0000 0000 0000 0000 0000
000001c0: 0000 0000 0000 0000 0000 0000 0000 0000
000001d0: 0000 0000 0000 0000 0000 0000 0000 0000
000001e0: 0000 0000 0000 0000 0000 0000 0000 0000
000001f0: 0000 0000 0000 0000 0000 0000 0000 0000
0.0 0.0 0.0 0.0 0.0 0.0 0.0 0.0
0.0 0.0 0.0 0.0 0.0 0.0 0.0 0.0
0.0 0.0 0.0 0.0 0.0 0.0 0.0 0.0
0.0 0.0 0.0 0.0 0.0 0.0 0.0 0.0
0.0 0.0 0.0 0.0 0.0 0.0 0.0 0.0
0.0 0.0 0.0 0.0 0.0 0.0 0.0 0.0
0.0 0.0 0.0 0.0 0.0 0.0 0.0 0.0
0.0 0.0 0.0 0.0 0.0 0.0 0.0 0.0
0.0 0.0 0.0 0.0 0.0 0.0 0.0 0.0
0.0 0.0 0.0 0.0 0.0 0.0 0.0 0.0
0.0 0.0 0.0 0.0 0.0 0.0 0.0 0.0
0.0 0.0 0.0 0.0 0.0 0.0 0.0 0.0
0.0 0.0 0.0 0.0 0.0 0.0 0.0 0.0
0.0 0.0 0.0 0.0 0.0 0.0 0.0 0.0
0.0 0.0 0.0 0.0 0.0 0.0 0.0 0.0
0.0 0.0 0.0 0.0 0.0 0.0 0.0 0.0

network_body._body_endoder.seq_layers.2.weight f4 [128, 128]
00000000: 1f09 dc3d 70b7 b7bc cf9f 9dbd 8d59 d9bc
00000010: 30f8 a0bd d5da f13d ecfb 5c3d 023b 5dbd
00000020: b01b 1f3e cb91 26be 819d adbc cffe 23bd
00000030: 6443 fbbd d844 01be 7f7e 7f3e bc82 06bd
00000040: 3798 0cbd 9037 133d 68d2 1fbc 636c cf3d
00000050: 400a 6f3d e2e7 98bd 7341 66bd ab64 94bb
00000060: c753 d2bc 898b 7d3d 902e 8d3c b61c 913d
00000070: 0a2c 6ebd 3715 c3bd 44d5 debc a174 80bd
00000080: 6461 a2bd 099a 753d 819a 1b3e a99e 3fbe
00000090: 35e0 a33a 67f4 9fbd 8b55 45bd e01f a53d
000000a0: 9aab 60bd 6404 aebd ca26 ec3d 42f7 a0bc
000000b0: bc97 e3bd 83ec 963c 5bd1 0abc 1d6a 09bd
000000c0: b42d 0d3d 7737 ba3c 6c01 4fbe a4b1 ba3d
000000d0: 4b3f f53d 9009 803d 7c44 9d3c abe9 95bd
000000e0: f70c 00be fb0c 673d 54c3 ddbb db53 10be
000000f0: 9819 b5ba e2dc 743d 34ba 443d ea10 c6bd
00000100: 3e31 963d 7858 a03d 59c0 b6bd 97c3 1c3e
00000110: 193e a5bc ea04 803d 68d3 e9bb e317 0b3e
00000120: caa0 d8b9 d454 5bbd 138a ba3d e612 45bd
00000130: 543b ec3d 4381 323e 4801 e3bc c2f0 063d
00000140: 7c6d de3d 2e4c b0bc f2d9 803d 39a5 63bd
00000150: 7c79 95be 61cc 40bd b924 d8bd 3892 d4bd
00000160: 2104 57bd 5ce9 d53c 698e f2bb b615 643d
00000170: 5b62 813d 08ed afbd 492d 69bc 37e7 57bd
00000180: 368b a9bc c658 cbba cd4c 3dbe 02e7 aebd
00000190: 58f6 db3d b2fa ec3d 41f4 83bd 18e0 1a3d
000001a0: d1ad 13be 1576 97bb 603e aebd bcaa f2bd
000001b0: 4c04 f03b 4a5b 673c ab61 c73c 07ef 2dbe
000001c0: d4c0 dbba 5385 64bd 263e 94bd 3806 73bd
000001d0: 3fa4 b1bd 529e 023e 6ac2 c6bd 6ba0 dabc
000001e0: e658 123d 4e79 0f3e 6350 7fbd 5966 883d
000001f0: 295e 053d cf27 94bc 821d f0ba 1681 1fbc
00000200: 8880 c2bd 64c2 453e f13a a03c 7e87 5fbc
00000210: 9b66 893d 8e61 adbc 30d8 83bd db50 ec3a
00000220: 8651 6bbc f78d 07be 464b eeba 5e1c 483c
00000230: 15ce 9fbd 1263 42be 10d0 833d 87aa 853d
00000240: af96 c9bc c064 a23d 78d2 bc3d 3be7 2d3d
00000250: 5646 f1bc 767a dfbc 75cf 9a3d 424f a3bd
00000260: 2dab 70bb 5a39 1fbe 7ad9 7bbc 11bc f43c
00000270: c201 223c 06f3 d8bd b44f dabc 2f29 20bd
00000280: 3ce0 403c 277e d9bc 57ae 983d 017d e73d
00000290: 7b1a 80bb 7c3a 373e e08e fcbc 01ed 963e
000002a0: 8547 1cbd 7e21 c33d c99c 15bc 002e 813d
000002b0: fe0c 3a3d a942 1bbe f45e 503d a90f 573c
000002c0: 6ec5 5a3d 93c2 e73a 5a6d 823b af96 02be
000002d0: 4dd1 313e 8b05 6dbc 5442 06be 0dc9 27bd
000002e0: f9bd 6a3c 6aa4 f4bd 6c1a 813d dd59 893d
000002f0: 67cb 273e 9bfb 8739 ab54 30bc d8e4 943d
00000300: 3df1 b63c a4f2 953d 94af f1bc 5fe2 22bc
00000310: 788b bebc 325e 69bc 8af3 3ebe 7049 033d
00000320: fdd6 4bbd 7e1f 253d 017c 0bbe e818 273d
00000330: 4394 bbbd db96 713d 14bb 803d 448a 703d
00000340: 34c1 20bc f949 da3c f757 42be 9cd8 58bd
00000350: 164e 66bd 414c a83d 0b53 873b 1dec 2fbd
00000360: 8e85 ca3d 5c1b ad3d bca6 813d fc51 c53d
00000370: ec2a 063e a1ff c13c 52df ad3d 8fec a0bc
00000380: 77a9 ce3d 7284 773d d895 813d ed58 283c
00000390: c58a 1f3e 5865 b9bd 4939 153d 4e08 54bc
000003a0: c295 5fbd fc9d aa3d 1b6b bebd 274e 733d
000003b0: 1fa5 03be 0055 913d 304d 523d 4437 a23d
000003c0: 3486 d0bd e06a a93c 71c0 c3bd 0050 89bd
000003d0: cec9 0f3e 61ae 103d 7a0d 003d c0eb e53d
000003e0: 4257 8fbd 1892 563c de28 ecbc c4a7 2e3d
000003f0: 2cdc 843c 665e 31bd a329 893d 28d9 9fbd
0.10743927 -0.022426337 -0.07696497 -0.026531959 -0.07859838 0.11809317 0.05395119 -0.054011352
0.15537906 -0.16266553 -0.021193268 -0.040037926 -0.12268713 -0.12623918 0.24950598 -0.03283952
-0.03432485 0.03594166 -0.009754755 0.10128095 0.058359385 -0.07466103 -0.05621476 -0.004528602
-0.025674714 0.06190065 0.017234117 0.07085554 -0.058147468 -0.09525531 -0.027201302 -0.06272245
-0.07928732 0.059961352 0.15195657 -0.18712868 0.0012502732 -0.07810288 -0.048177283 0.0806272
-0.054851152 -0.08496931 0.11530836 -0.019649152 -0.111129254 0.018423324 -0.008472766 -0.033548463
0.034467414 0.022731526 -0.20215386 0.091159135 0.11974963 0.06251824 0.019197695 -0.07319959
-0.12504946 0.056408864 -0.0067676697 -0.14094488 -0.0013816832 0.059780963 0.04802914 -0.09671195
0.07333611 0.07829374 -0.08923406 0.15308987 -0.020171212 0.06250937 -0.0071357973 0.13583331
-0.00041318528 -0.053547695 0.09108367 -0.048113726 0.115347534 0.17432122 -0.027710572 0.03294445
0.10860726 -0.0215207 0.0629157 -0.05557749 -0.29194248 -0.04706991 -0.10553879 -0.103794515
-0.052494172 0.026112251 -0.0074022305 0.055684768 0.06317588 -0.08590132 -0.014231988 -0.052710738
-0.020696264 -0.0015514127 -0.18486328 -0.08540155 0.10740346 0.11571254 -0.06443072 0.03781137
-0.14421774 -0.004622231 -0.08507991 -0.11848971 0.007324731 0.014120886 0.024338564 -0.16985713
-0.0016765841 -0.05579121 -0.072384164 -0.059332103 -0.086739056 0.12755707 -0.0970505 -0.026687821
0.03572931 0.14011118 -0.062332522 0.06660146 0.0325605 -0.018085388 -0.0018319341 -0.009735366
-0.09497172 0.19312435 0.019559355 -0.013643144 0.067090236 -0.021164682 -0.06437719 0.0018029468
-0.014362698 -0.13237749 -0.0018180392 0.0122137945 -0.07802979 -0.18983105 0.06436169 0.06526666
-0.024607984 0.07929373 0.09219831 0.042456847 -0.029452484 -0.027280074 0.075591005 -0.079741016
-0.0036723122 -0.15549222 -0.015371675 0.029874833 0.009888114 -0.10593228 -0.026649334 -0.039101776
0.011772212 -0.026549412 0.07455128 0.113031395 -0.0039094067 0.17893404 -0.030829847 0.29477695
-0.038154144 0.095278725 -0.009131619 0.06307602 0.045422547 -0.15162148 0.050871804 0.013126292
0.05341094 0.0017681889 0.003980321 -0.12752794 0.17364998 -0.014466654 -0.1311124 -0.04096322
0.01432752 -0.11945422 0.06303868 0.06706593 0.16386186 0.00025936667 -0.010762374 0.07270211
0.022331828 0.07321671 -0.029502667 -0.009941666 -0.023259863 -0.014243649 -0.1864759 0.032052457
-0.049765576 0.040313236 -0.13621522 0.040795237 -0.09159138 0.058981758 0.06285682 0.05872561
-0.009811688 0.026646601 -0.18978868 -0.05294095 -0.056226812 0.08217669 0.0041297725 -0.042949785
0.09888755 0.08452484 0.0633063 0.09634778 0.13102311 0.023681464 0.084898606 -0.01964405
0.100909166 0.060429044 0.063274086 0.010275108 0.1558028 -0.09052533 0.036431585 -0.012941433
-0.05458618 0.083309144 -0.092977725 0.059400704 -0.12855957 0.070962906 0.051343143 0.07920697
-0.10181847 0.020680845 -0.0955819 -0.06704712 0.14041826 0.03532255 0.031262852 0.11226606
-0.06999065 0.013096355 -0.02882808 0.042640463 0.016218267 -0.043302916 0.06697395 -0.07805091

network_body._body_endoder.seq_layers.2.bias f4 [128]
00000000: 0000 0000 0000 0000 0000 0000 0000 0000
00000010: 0000 0000 0000 0000 0000 0000 0000 0000
00000020: 0000 0000 0000 0000 0000 0000 0000 0000
00000030: 0000 0000 0000 0000 0000 0000 0000 0000
00000040: 0000 0000 0000 0000 0000 0000 0000 0000
00000050: 0000 0000 0000 0000 0000 0000 0000 0000
00000060: 0000 0000 0000 0000 0000 0000 0000 0000
00000070: 0000 0000 0000 0000 0000 0000 0000 0000
00000080: 0000 0000 0000 0000 0000 0000 0000 0000
00000090: 0000 0000 0000 0000 0000 0000 0000 0000
000000a0: 0000 0000 0000 0000 0000 0000 0000 0000
000000b0: 0000 0000 0000 0000 0000 0000 0000 0000
000000c0: 0000 0000 0000 0000 0000 0000 0000 0000
000000d0: 0000 0000 0000 0000 0000 0000 0000 0000
000000e0: 0000 0000 0000 0000 0000 0000 0000 0000
000000f0: 0000 0000 0000 0000 0000 0000 0000 0000
00000100: 0000 0000 0000 0000 0000 0000 0000 0000
00000110: 0000 0000 0000 0000 0000 0000 0000 0000
00000120: 0000 0000 0000 0000 0000 0000 0000 0000
00000130: 0000 0000 0000 0000 0000 0000 0000 0000
00000140: 0000 0000 0000 0000 0000 0000 0000 0000
00000150: 0000 0000 0000 0000 0000 0000 0000 0000
00000160: 0000 0000 0000 0000 0000 0000 0000 0000
00000170: 0000 0000 0000 0000 0000 0000 0000 0000
00000180: 0000 0000 0000 0000 0000 0000 0000 0000
00000190: 0000 0000 0000 0000 0000 0000 0000 0000
000001a0: 0000 0000 0000 0000 0000 0000 0000 0000
000001b0: 0000 0000 0000 0000 0000 0000 0000 0000
000001c0: 0000 0000 0000 0000 0000 0000 0000 0000
000001d0: 0000 0000 0000 0000 0000 0000 0000 0000
000001e0: 0000 0000 0000 0000 0000 0000 0000 0000
000001f0: 0000 0000 0000 0000 0000 0000 0000 0000
0.0 0.0 0.0 0.0 0.0 0.0 0.0 0.0
0.0 0.0 0.0 0.0 0.0 0.0 0.0 0.0
0.0 0.0 0.0 0.0 0.0 0.0 0.0 0.0
0.0 0.0 0.0 0.0 0.0 0.0 0.0 0.0
0.0 0.0 0.0 0.0 0.0 0.0 0.0 0.0
0.0 0.0 0.0 0.0 0.0 0.0 0.0 0.0
0.0 0.0 0.0 0.0 0.0 0.0 0.0 0.0
0.0 0.0 0.0 0.0 0.0 0.0 0.0 0.0
0.0 0.0 0.0 0.0 0.0 0.0 0.0 0.0
0.0 0.0 0.0 0.0 0.0 0.0 0.0 0.0
0.0 0.0 0.0 0.0 0.0 0.0 0.0 0.0
0.0 0.0 0.0 0.0 0.0 0.0 0.0 0.0
0.0 0.0 0.0 0.0 0.0 0.0 0.0 0.0
0.0 0.0 0.0 0.0 0.0 0.0 0.0 0.0
0.0 0.0 0.0 0.0 0.0 0.0 0.0 0.0
0.0 0.0 0.0 0.0 0.0 0.0 0.0 0.0

action_model._continuous_distribution.log_sigma f4 [1, 2]
00000000: 0000 0000 0000 0000
0.0 0.0
