CS455_PR1/results/ppo/ShootTargetAgent/ShootTargetAgent-7352.onnx (onnx, 490268 bytes, 18 tensors)

discrete_act_size_vector f4 [1, 2]
0	0x42480000	50.0
1	0x42480000	50.0

network_body.observation_encoder.processors.0.conv_layers.0.weight f4 [16, 1, 8, 8]
0	0xbd98d03c	-0.074615926
1	0x3df3739e	0.118872866
2	0xbdc89c4f	-0.097954385
3	0xbcc44908	-0.023960605
4	0xbdb2d949	-0.0873285
5	0xbd1334d0	-0.035939038
6	0x3d6050f0	0.054764688
7	0x3d73af44	0.05949332
8	0xbdf9f2d8	-0.12204522
9	0x3d9b97fa	0.075973466
10	0xbd6f7696	-0.0584627
11	0xbddb3038	-0.10702556
12	0x3db60e40	0.08889437
13	0x3b72f140	0.0037070066
14	0xbd9798ec	-0.074022144
15	0x3c99d098	0.018776223
16	0xbc929f80	-0.017898321
17	0x3d759fa8	0.059966713
18	0x3d2d9cec	0.04238598
19	0x3d58d6fc	0.0529394
20	0xbbcad9c0	-0.0061905086
21	0x3cb157b0	0.021648258
22	0xbdb01ea0	-0.08599591
23	0x3c146520	0.009057313
24	0xbd5a11e2	-0.05323971
25	0x3da45c06	0.080253646
26	0xbdf58692	-0.11988558
27	0xbcd1055c	-0.02551525
28	0xbd96c064	-0.07360914
29	0x3d9f9602	0.077922836
30	0x3d5c1d74	0.053739026
31	0x3ded6d40	0.115931034
32	0xbd272cf8	-0.04081437
33	0xbdbc68f8	-0.09199709
34	0xbdbe9bdf	-0.09307074
35	0x3dee35ba	0.11631341
36	0xbde89445	-0.11356405
37	0x3ddd7194	0.10812679
38	0x3de4b738	0.11167759
39	0xbd949d24	-0.07256535
40	0x3d5f2934	0.054482654
41	0xbd8da29a	-0.069157794
42	0x3c9f4fe8	0.019447282
43	0x3d8dd6b4	0.06925717
44	0x3ad72900	0.0016415417
45	0xbd36a94e	-0.044595055
46	0x3dc45b44	0.0958772
47	0xbdfa67c4	-0.12226823
48	0x3dcc36e6	0.099714085
49	0xbde50826	-0.11183195
50	0x3cf02f68	0.02931948
51	0x3cbabcf0	0.02279517
52	0x3dbcd86e	0.09220968
53	0x3d14a374	0.036288694
54	0x3c688080	0.014190793
55	0x3c05f2b0	0.008175537
56	0x3d76b9f8	0.060235947
57	0x3d224794	0.039619043
58	0xbddc4594	-0.107554585
59	0xbd044876	-0.032295667
60	0x3dbeebb2	0.09322299
61	0x3b9d3020	0.0047969967
62	0xbd7e088c	-0.06201987
63	0xbdb58684	-0.088635474
64	0x3c0d9bc0	0.008643091
65	0xbd82fe1d	-0.063961245
66	0xbd3dbab2	-0.046320625
67	0x3de600b8	0.11230606
68	0x3d3fa340	0.046786547
69	0xbdef28d0	-0.11677706
70	0xbd2681be	-0.040651076
71	0xbbb61fb0	-0.0055579767
72	0x3cae5150	0.021279007
73	0xbc4a9980	-0.012365699
74	0x3dba16bc	0.090863675
75	0xbce8af84	-0.028404005
76	0x3c4e3480	0.012585759
77	0xbcba6fec	-0.022758447
78	0x3dba8fcc	0.09109458
79	0x3b67b740	0.0035357028
80	0x3db506ba	0.088391736
81	0xbdeca1d4	-0.11554304
82	0x3de0b1c4	0.10971406
83	0x3d05d298	0.03267154
84	0xba8ea140	-0.0010881796
85	0x3ddefcac	0.10888037
86	0x3d147bac	0.036250755
87	0x3d0d77d0	0.03453809
88	0xbdca621e	-0.098819956
89	0x3d8cc84c	0.06874141
90	0x3de351ec	0.1109961
91	0x3cdff108	0.027336612
92	0x3dcd327e	0.10019396
93	0x3cdfca98	0.027318284
94	0xbc72e5a8	-0.014825262
95	0xbdbcccca	-0.09218748
96	0xbd9e7c8d	-0.077386
97	0x3d322288	0.043489963
98	0xbde01356	-0.10941188
99	0xbd5ea202	-0.05435372
100	0xbdb845c2	-0.0899768
101	0xbdde9637	-0.10868495
102	0xbdffb668	-0.12485963
103	0xbd5c4862	-0.053779967
104	0x3df6ec20	0.12056756
105	0xbda67ca2	-0.081292406
106	0x3d8de092	0.06927599
107	0x3c9f92f8	0.01947926
108	0xbdd71dd3	-0.105037354
109	0xbdff87c3	-0.12477066
110	0x3dc62ec6	0.0967689
111	0xbde6a47c	-0.11261842
112	0x3ca65968	0.020306304
113	0xbc27f358	-0.010250889
114	0xbdbd954a	-0.0925699
115	0xbda5aff4	-0.08090201
116	0x3df6692e	0.1203178
117	0x3d056b40	0.032572985
118	0xbde8b06a	-0.11361773
119	0xbdd1c2fd	-0.10242269
120	0x3d9741dc	0.073856086
121	0xbd587c36	-0.05285283
122	0x3cedcee0	0.02902931
123	0xbc4b98f8	-0.012426607
124	0x3dba1f3a	0.09087987
125	0x3dbdc582	0.09266187
126	0xbdf04c13	-0.1173326
127	0xbdd5e357	-0.10443752
128	0xbd0b2bca	-0.033977307
129	0x3d719320	0.0589782
130	0xbd9d8388	-0.07691103
131	0xbd913bf6	-0.07091515
132	0xbd9938dc	-0.07481548
133	0xbc2f0890	-0.010683194
134	0x3da10b24	0.07863453
135	0xbd38ac16	-0.04508599
136	0xbcc14f8c	-0.023597501
137	0xbd87fd4c	-0.066401094
138	0x3db6b286	0.089207694
139	0xbda888e8	-0.08229238
140	0xbd8d197b	-0.06889626
141	0xbc47bdd8	-0.012191258
142	0xbcc12438	-0.02357684
143	0x3de7fa88	0.11327082
144	0x3dd4baf6	0.103872225
145	0x3af51f00	0.0018701255
146	0xbdedad9f	-0.11605381
147	0xbd2c28a6	-0.042030953
148	0xbdf49482	-0.11942388
149	0xbd38283a	-0.044960238
150	0xbc80af80	-0.015708685
151	0xbdcc44a4	-0.0997403
152	0x3cbc3010	0.022972137
153	0x3ddfb642	0.10923435
154	0xbd842853	-0.06453004
155	0x3d7725c4	0.06033875
156	0x3ddc43d4	0.10755125
157	0x3dcbff28	0.099607766
158	0xbb985420	-0.0046487004
159	0x3d94ec0c	0.07271585
160	0x3d2dcf3c	0.042433962
161	0xbdeb84bd	-0.11499927
162	0x3d87a3a8	0.06623012
163	0xbc73d2d8	-0.014881812
164	0xbda09d81	-0.078425415
165	0xbd493c8a	-0.04913
166	0x3d976328	0.073919594
167	0x3c81ef98	0.015861318
168	0x3d673f28	0.056456715
169	0x3cbe6c48	0.023244992
170	0x3d5fbe04	0.054624572
171	0xbd299696	-0.041403376
172	0x3c92e4d8	0.017931387
173	0x3dea5db6	0.11443655
174	0xbd97c22a	-0.07410081
175	0x3d8c5564	0.068522245
176	0xbdceefa1	-0.10104299
177	0x3da9f8c0	0.082993984
178	0xbca4a0d0	-0.020096213
179	0x3afe2f00	0.0019392669
180	0x3d2e6490	0.042576373
181	0x3a9c6200	0.0011931062
182	0x3ced47f0	0.028964967
183	0xbc9dc7a8	-0.019260243
184	0x3de06ed4	0.10958639
185	0x3dacd8ce	0.0843979
186	0x3c8bc938	0.017063722
187	0xbd5ea8a4	-0.054360047
188	0x3d9a5bbe	0.0753703
189	0x3dd269ac	0.102740616
190	0xbcdd9a84	-0.027051218
191	0x3c2d1f10	0.010566488
192	0xbd40a932	-0.047036357
193	0x3d7a74c0	0.061146498
194	0x3b1ddc40	0.0024087578
195	0xbdd21079	-0.10257048
196	0x3dc27b60	0.09496188
197	0xbca05c80	-0.019575357
198	0xbd82044a	-0.06348474
199	0xbca8625c	-0.020554714
200	0xbdbd5da6	-0.09246378
201	0xbd636444	-0.055515543
202	0xbd47553c	-0.04866527
203	0x3c129a10	0.008947864
204	0x3c40fbd0	0.011778787
205	0x3d9f2838	0.07771343
206	0xbc38c370	-0.011277065
207	0x3df35d9c	0.11883089
208	0xbdc267ca	-0.094924524
209	0xbd620a44	-0.05518557
210	0xbdbe0fd0	-0.0928036
211	0xbdbb2768	-0.091383755
212	0x3d36618c	0.04452662
213	0xbd186e28	-0.03721443
214	0x3dc469c2	0.09590484
215	0xbc869ef4	-0.016433217
216	0xbccd3f10	-0.025054485
217	0x3d498a10	0.049203932
218	0x3dc94efa	0.09829517
219	0x3df6e2ba	0.120549634
220	0x3dab06c2	0.08350898
221	0xbdbc9004	-0.09207156
222	0xbde49b34	-0.11162415
223	0x3d8c78e2	0.06858994
224	0xbbbaa8a0	-0.005696371
225	0xbdc6fc4e	-0.09716092
226	0x3d3e0d10	0.046399176
227	0x3d82945e	0.06375955
228	0x3d0277d0	0.031852543
229	0xbd6b19f8	-0.057397813
230	0xbdc79d2f	-0.09746777
231	0xbd81a51f	-0.063303225
232	0xbd04d36c	-0.03242819
233	0x3de27c5e	0.110588774
234	0x3c9d7f90	0.019225866
235	0x3d2946c0	0.041327238
236	0xbc186b88	-0.009302981
237	0xbd18d46c	-0.037311956
238	0x3dc1ea16	0.094684765
239	0xbd9c0e8e	-0.076199636
240	0xbdec3e16	-0.115352795
241	0x3dfde742	0.123976246
242	0x3dd32516	0.10309808
243	0x3da4d888	0.080491126
244	0x3de6839c	0.11255571
245	0xbdd8cb58	-0.1058566
246	0x3dd8d874	0.1058816
247	0xbdedccb4	-0.1161131
248	0xbd404e72	-0.04694981
249	0xbd314f60	-0.04328859
250	0x3d042ae4	0.032267466
251	0xbda90fea	-0.082549885
252	0x3cd152f8	0.025552258
253	0x3c949e10	0.018141776
254	0x3dd0e50a	0.10199936
255	0xbdc6b336	-0.097021505

network_body.observation_encoder.processors.0.conv_layers.0.bias f4 [16]
0	0xbdaccfa6	-0.08438043
1	0xbc392f88	-0.011302836
2	0xbd8244fe	-0.063608155
3	0xbcb167bc	-0.02165591
4	0xbd90ef84	-0.07076934
5	0x3dde8822	0.10865809
6	0xbdd64a82	-0.1046343
7	0x3db0611e	0.08612274
8	0x3d3d1694	0.04616411
9	0xbdcf526f	-0.10123145
10	0x3d8a7840	0.06761217
11	0xbcffff48	-0.031249657
12	0xbda5d5ce	-0.08097421
13	0x3d40e658	0.047094673
14	0xbd7ea83a	-0.062172152
15	0xbdd6a77e	-0.10481165

network_body.observation_encoder.processors.0.conv_layers.2.weight f4 [32, 16, 4, 4]
0	0xbd4955a1	-0.049153928
1	0xbcf4ea00	-0.029896736
2	0x3c445948	0.011984177
3	0x3d358036	0.044311725
4	0x3cb0ecf4	0.021597363
5	0xbd4c7aa5	-0.04992165
6	0x3d26bdae	0.040708236
7	0xbc2bebf4	-0.010493267
8	0xbc7ae744	-0.015313927
9	0x3c6e43f0	0.014542565
10	0x3bc72cd0	0.00607834
11	0xbd6857d3	-0.05672438
12	0xbbc1f310	-0.005918868
13	0xba033180	-0.00050046295
14	0x3d65d5fa	0.056112267
15	0xbb440330	-0.0029909126
16	0x3d5d45e6	0.05402174
17	0xbc3a3e50	-0.0113673955
18	0x3cc664dc	0.024218015
19	0x3c6824f8	0.01416897
20	0x3d3b1736	0.045676433
21	0xbd7090e2	-0.05873192
22	0x3a8304c0	0.0009995922
23	0xbce15372	-0.02750561
24	0x3d5a96c0	0.053366423
25	0xbd1b8a5a	-0.03797374
26	0x3d59c94c	0.053170487
27	0xbcd258a6	-0.025677036
28	0x3d1e88a8	0.038704544
29	0xbc4d99fc	-0.01254892
30	0x3d159366	0.036517523
31	0x3c80a874	0.015705325
32	0xbca1cf3e	-0.019752141
33	0x3bd16ae0	0.0063909143
34	0x3d4478d4	0.047966793
35	0x3d3b2540	0.04568982
36	0xbd0e0493	-0.03467233
37	0x3a666e00	0.0008790195
38	0x3cee0d34	0.02905903
39	0xbd058863	-0.03260077
40	0xbd206d4e	-0.03916674
41	0x3d67e54c	0.05661516
42	0x3d7e9d6e	0.062161855
43	0x3d0900d2	0.033448048
44	0xbd3d228f	-0.046175536
45	0xbc1d9f38	-0.00962048
46	0xbd1845dc	-0.037175998
47	0xbd4c4cd6	-0.049877964
48	0x3d6695e2	0.056295283
49	0xbd4461e7	-0.04794493
50	0xbd14af19	-0.0362998
51	0x3c2106d0	0.009828284
52	0x3b03ede0	0.0020130798
53	0x3cd2f9b0	0.025753826
54	0x3d37364e	0.044729523
55	0xbb2ecb70	-0.0026671551
56	0xbc5b82d8	-0.013397895
57	0x3c697950	0.014250115
58	0xbc8543a0	-0.016267598
59	0xbd4e52fe	-0.050372116
60	0xbd4af1cd	-0.049547005
61	0x3d11ff1c	0.035643682
62	0xba891e20	-0.0010461248
63	0xbcf25c38	-0.029584989
64	0x3b654c80	0.0034988225
65	0x3d4a8d62	0.04945124
66	0x3d519176	0.051164113
67	0xbd70c485	-0.058781166
68	0xbd01078a	-0.03150133
69	0xbd5facc7	-0.054608133
70	0x3d3e3ba4	0.046443596
71	0xbd70ba1e	-0.058771245
72	0x3ba350f0	0.0049840137
73	0xbd02e916	-0.03196057
74	0xbbf853c0	-0.007578343
75	0x3a9d4980	0.0012000054
76	0xbc28f3b4	-0.01031201
77	0xbd2016c8	-0.039084226
78	0xbceb0f60	-0.028693855
79	0xbb8d3b88	-0.004310075
80	0x3d10e9fe	0.035379402
81	0xbc307ce8	-0.0107719675
82	0x3d4d1068	0.050064474
83	0xbc1e33ec	-0.009655934
84	0x3d333020	0.043747067
85	0xbd29879e	-0.0413891
86	0xbd74263b	-0.059606772
87	0x3d005236	0.031328402
88	0xbd0af716	-0.033927046
89	0x3d39b6d6	0.04534038
90	0xbd2c24cf	-0.04202729
91	0x3d61b0ca	0.05510024
92	0x3d2684ac	0.04065387
93	0x3cebc018	0.02877812
94	0xbc011568	-0.007878639
95	0x3b6cbbe0	0.0036122724
96	0x3d52aebc	0.05143617
97	0xbd22ed87	-0.039777305
98	0x3d3b5eba	0.045744635
99	0x3d465ba8	0.048427254
100	0xbb2d66e0	-0.0026459023
101	0xbd420714	-0.04737003
102	0x3d72851e	0.05920898
103	0xbba17300	-0.004927039
104	0xbd1f1f4f	-0.038848218
105	0xbd0a4852	-0.033760376
106	0x3cf27434	0.029596426
107	0xbd4d44e8	-0.050114542
108	0xbd5c166f	-0.05373233
109	0xbd57fd23	-0.052731644
110	0x3d11b060	0.035568595
111	0x3d313326	0.04326167
112	0xbc825278	-0.015908465
113	0x3c82c708	0.015964046
114	0xbd0512ac	-0.03248851
115	0x3c830a60	0.015996158
116	0xbb3bc4e0	-0.0028651282
117	0xbd7a6f65	-0.06114139
118	0xbc8d8f7a	-0.017280329
119	0x3c60d9a0	0.013723761
120	0x3bb1d4f0	0.0054269955
121	0xbcfc69a8	-0.0308121
122	0x3d1c8782	0.038215168
123	0x3ced3d04	0.028959759
124	0xbd11e7dc	-0.03562151
125	0x3bf9e990	0.00762672
126	0x3c6e7630	0.014554545
127	0x3ca55a80	0.020184755
128	0x3c2e6448	0.010644026
129	0xbcaf5a1a	-0.021405268
130	0xbd048ea0	-0.03236258
131	0xbd3cd6bc	-0.046103224
132	0x3c3d41a0	0.011551291
133	0xbd40ab22	-0.047038205
134	0x3cf23ac4	0.029569037
135	0xbd7ab113	-0.061204027
136	0xbcb5e0ec	-0.022201978
137	0xbd417c5d	-0.047237743
138	0xbd264914	-0.040597036
139	0x3d1fae5e	0.03898465
140	0xbd38bef6	-0.04510399
141	0xbd0a6030	-0.033783138
142	0xbd672d24	-0.056439534
143	0x3d65cdcc	0.056104466
144	0x3d42ef54	0.047591522
145	0x3c966070	0.018356532
146	0xbd0c5ca1	-0.034268025
147	0xbc9b693e	-0.018971082
148	0xbc971e2a	-0.018447
149	0x3c18d080	0.009327054
150	0x3c9669b8	0.018360958
151	0x3d59762a	0.053091206
152	0xbb0e24f0	-0.0021689497
153	0xbd780db4	-0.060559943
154	0x3cc9c62c	0.024630629
155	0x3c665ff0	0.014060959
156	0x3d5e862e	0.054327182
157	0xbd46a51c	-0.048497304
158	0xbc1c396c	-0.009535175
159	0xbd3df864	-0.046379462
160	0xbd753e7f	-0.059874054
161	0x3c835494	0.01603154
162	0xbca96c78	-0.020681605
163	0x3c267298	0.010159157
164	0x3c472fc8	0.012157388
165	0x3ca01eec	0.019545995
166	0x3d174e78	0.036940068
167	0xbd6db4f1	-0.058033887
168	0xbd5e2fbe	-0.05424475
169	0x3c9037fc	0.01760482
170	0xbc5e8978	-0.01358258
171	0x3d3e262a	0.046423115
172	0xbcb084ae	-0.021547642
173	0x3d627b66	0.055293463
174	0xbd15d601	-0.036581043
175	0xbd35c8e8	-0.044381052
176	0xbcabde6a	-0.020980079
177	0xbd147b6d	-0.03625052
178	0xbd525d35	-0.05135842
179	0xbcb61c2e	-0.022230234
180	0xbd11f87f	-0.035637375
181	0xbc5169ac	-0.012781542
182	0xb946eb00	-0.00018970296
183	0xbb195d10	-0.0023401417
184	0x3d798faa	0.060928024
185	0xbd05eda6	-0.032697342
186	0x3ca229b8	0.019795284
187	0x3caffc00	0.021482468
188	0xba9b3e40	-0.0011844113
189	0xb8e02200	-0.00010687485
190	0xbd59555c	-0.05305992
191	0xbc835e52	-0.016036186
192	0x3c4bfb08	0.012449987
193	0xbbcf8c08	-0.0063338317
194	0xbcb5c6d8	-0.022189543
195	0xbcd8fa1e	-0.026486453
196	0x3b08aec0	0.0020856112
197	0x3d397224	0.04527487
198	0xbd61449e	-0.05499708
199	0xbbfb1850	-0.0076628104
200	0xbd717676	-0.058950864
201	0x3cc48fb8	0.023994312
202	0x3cd8de1c	0.026473098
203	0x3d4a4246	0.04937961
204	0x3a281180	0.0006411299
205	0x3d2e572c	0.042563602
206	0xbb140500	-0.0022585988
207	0x3d02f888	0.0319753
208	0x3bf855b0	0.007578574
209	0xbd6beec2	-0.057600744
210	0xbd6aeb38	-0.05735323
211	0x3d082536	0.033238612
212	0xbc0fa9e4	-0.008768532
213	0xbd03fcb0	-0.032223403
214	0x3d4bbe94	0.049742296
215	0x3d62374c	0.055228516
216	0x3c6547c0	0.013994157
217	0x3d2b743c	0.041858897
218	0xbcd7542c	-0.026285253
219	0x3c395a50	0.011313036
220	0xbc927ad8	-0.017880842
221	0x3c932ff8	0.01796721
222	0x3d1b1558	0.03786215
223	0x3cd21e54	0.025649227
224	0xbcc4b91e	-0.024014052
225	0xbd044296	-0.032290064
226	0x3d73e860	0.059547782
227	0xbd4b7aeb	-0.04967777
228	0x3caf8898	0.021427438
229	0x3d4d2874	0.050087407
230	0xbc962614	-0.018328704
231	0x3ce0fc1c	0.027463965
232	0xbce9af6a	-0.028526027
233	0x3cea6e28	0.02861698
234	0xbd3333aa	-0.043750443
235	0xbbc8b128	-0.0061246343
236	0xbc9b147c	-0.018930666
237	0xbcc47b08	-0.023984447
238	0x3d69b102	0.057053573
239	0xba8e2d80	-0.00108473
240	0x3c09abc8	0.008402772
241	0x3ca9a0c8	0.02070655
242	0xbc5a79cc	-0.013334703
243	0x3d443778	0.04790446
244	0xbd7d5196	-0.061845385
245	0xbb0e0d20	-0.0021675304
246	0xbcb9f288	-0.022698656
247	0x3c0aed88	0.008479483
248	0xbd2d4233	-0.04229946
249	0xbcae8afa	-0.021306504
250	0xbd4140e3	-0.04718102
251	0xbc8f83f2	-0.017518971
252	0x3d2fb2ea	0.042895235
253	0xbcf73510	-0.03017667
254	0x3d233126	0.039841793
255	0xbc0406c4	-0.008058254

network_body.observation_encoder.processors.0.conv_layers.2.bias f4 [32]
0	0x3c54a700	0.012979269
1	0xbd0cb92a	-0.034356274
2	0xbd2b1182	-0.041764744
3	0xbd3224c4	-0.043492094
4	0xbd7e6a8d	-0.062113333
5	0x3cf479c4	0.029843219
6	0xbcbc5bfa	-0.022993077
7	0xbca214a0	-0.019785225
8	0x3ce735e0	0.028223932
9	0xbacd39a0	-0.0015657432
10	0x3c046790	0.008081332
11	0xbd257590	-0.04039532
12	0xbcb1f4c8	-0.021723166
13	0xbd7b8e73	-0.061415147
14	0x3d599bb2	0.053127
15	0xbcedee08	-0.029044166
16	0x3d0799d8	0.0331057
17	0x3cfce8cc	0.030872725
18	0x3d571418	0.052509397
19	0x3d095f7e	0.033538334
20	0x3cf51a14	0.029919662
21	0xbb974870	-0.0046167895
22	0xbcb27694	-0.021785058
23	0xbc2a20b8	-0.010383777
24	0xbd391dd6	-0.04519447
25	0x3d7dc4b8	0.061955184
26	0x3c7fdbd8	0.01561638
27	0x3d6d8f7c	0.057998165
28	0xbd6fc2c1	-0.05853534
29	0x3c9d56b4	0.019206382
30	0x3d6796c0	0.05654025
31	0x3d4b5130	0.049637973

network_body.observation_encoder.processors.0.dense.0.weight f4 [128, 512]
0	0x3dec6b27	0.11543875
1	0x3c691ac0	0.014227569
2	0x3dcefc4e	0.10106717
3	0xbdbebeab	-0.09313711
4	0xbb288e4f	-0.0025719588
5	0x3db1a5da	0.08674212
6	0xbca8cc11	-0.020605119
7	0xbd1dcc3b	-0.038524847
8	0x3dcbc666	0.09949951
9	0xbd2e7dd1	-0.042600457
10	0x3dc6548a	0.09684093
11	0x3c0b7434	0.008511592
12	0xbcca6f75	-0.02471135
13	0x3c9f591b	0.019451668
14	0x3b79a4ee	0.003809269
15	0x3d7d9f88	0.06191972
16	0x3d7a0f8a	0.061049975
17	0xbd903d71	-0.07042969
18	0x3ce56fd3	0.028007424
19	0x3e076a25	0.13224085
20	0xbd61e37e	-0.055148594
21	0xbd908fd7	-0.07058685
22	0x3cf74be1	0.03018755
23	0x3de7b0ae	0.11312996
24	0x3c937ecf	0.018004803
25	0xb90f99a3	-0.00013694777
26	0xbc4b2eb5	-0.012401273
27	0x3b233db7	0.002490861
28	0x3cdcc983	0.026951557
29	0x3d8e97f2	0.06962575
30	0xbda68126	-0.08130102
31	0x3c4f5d7b	0.012656565
32	0x3cdb1f0e	0.026748206
33	0xbd2be7e3	-0.04196919
34	0x3ce67241	0.028130652
35	0xbcc00ee8	-0.023444608
36	0x3d98ddd9	0.07464189
37	0xbb5e6219	-0.0033932982
38	0x3c80f91c	0.015743785
39	0xbd1bd04f	-0.038040455
40	0xbc73db71	-0.014883862
41	0x3d1c0d42	0.03809858
42	0x3d5d87b0	0.05408448
43	0x3cfe1355	0.031015078
44	0xbccee058	-0.02525346
45	0x3d0a02ca	0.033694066
46	0x3d383785	0.044974823
47	0x3ca35b5e	0.019941028
48	0x3bc7000b	0.006073003
49	0xbc8110aa	-0.015755016
50	0xbcc19031	-0.023628326
51	0x3bc881b6	0.0061189784
52	0xbdce7eac	-0.100827545
53	0xbb184b54	-0.0023238258
54	0xbd2b2774	-0.041785672
55	0xbc201993	-0.009771722
56	0x3db9b9e7	0.09068661
57	0x3bc41c0f	0.00598479
58	0xbb4b0963	-0.0030980937
59	0xbd8d34f6	-0.06894867
60	0xbc4ecc40	-0.012621939
61	0x3948f50d	0.00019164775
62	0xbd533572	-0.05156464
63	0xbd1ac702	-0.037787445
64	0xbe278c2a	-0.16362062
65	0xbd42927f	-0.04750299
66	0x3d007a76	0.031366788
67	0x3cfb31ba	0.03066336
68	0x3ded09a0	0.115741014
69	0xbcdbe817	-0.026844067
70	0xbdb0e26f	-0.08636939
71	0x3c9a931e	0.018868979
72	0xbc80b170	-0.015709609
73	0x3bbabc34	0.005698705
74	0x3d1df7cf	0.038566407
75	0xbcfb1899	-0.030651378
76	0xbd0e57ac	-0.03475158
77	0x3d2bc450	0.041935265
78	0xbdad2d5c	-0.08455917
79	0x3d3f47a4	0.04669918
80	0x3bc3af85	0.0059718513
81	0xbce468ff	-0.027882097
82	0xbd67b418	-0.056568235
83	0x3b86911c	0.004106654
84	0x3d9a60e4	0.07538012
85	0x3d83f630	0.06443441
86	0x3dc7e8a2	0.09761168
87	0x3d460da6	0.04835286
88	0xbb8ca31a	-0.004291904
89	0xbce867ba	-0.028369773
90	0xbc985993	-0.0185974
91	0x3d9627b7	0.07331794
92	0xbd6923af	-0.056918796
93	0xbe0270cd	-0.12738343
94	0xbd9285a9	-0.071544
95	0x3c8b87d9	0.01703255
96	0x3e0e8a3c	0.1391992
97	0xbcf83db3	-0.030302858
98	0xbd6d7ca9	-0.057980213
99	0xbc3f42e2	-0.011673661
100	0x3d211700	0.039328575
101	0x3df00257	0.11719196
102	0xbbeee16e	-0.007290057
103	0xbe014636	-0.1262444
104	0xbc45bebe	-0.012069402
105	0xbd04fd6b	-0.03246824
106	0xbe024290	-0.12720704
107	0x3bcc7cce	0.006240464
108	0x3c0dfd58	0.008666359
109	0x3d0ee25b	0.03488384
110	0xbd8e733a	-0.069555715
111	0x3d6c476c	0.0576853
112	0xbd69dbc0	-0.057094336
113	0xbc86044e	-0.016359475
114	0xbdec26df	-0.115308516
115	0x3c85fe37	0.01635657
116	0xbc9e70dc	-0.019340925
117	0xbdc12d2a	-0.094324425
118	0x3d33fe77	0.04394385
119	0xbcddf63d	-0.027094955
120	0x3991024e	0.00027658272
121	0x3e0899f9	0.13339986
122	0xbaee0ade	-0.0018161198
123	0xbd17f4de	-0.037098758
124	0x3dc72942	0.09724666
125	0xbddb1263	-0.10696866
126	0x3d75aa91	0.059977118
127	0x3cf7935e	0.030221637
128	0xbd00f000	-0.03147888
129	0x3ca03a0c	0.019558929
130	0xbd9ecea2	-0.07754256
131	0xbc4f171a	-0.012639785
132	0xbc6d5497	-0.0144855
133	0xbe1094e2	-0.14119294
134	0xbc92c1ae	-0.01791462
135	0x3cb97923	0.02264077
136	0xbd92a35e	-0.07160066
137	0xbc83a0c4	-0.01606787
138	0xbd61bb51	-0.05511028
139	0xbbc0bb01	-0.0058816676
140	0xbc86ab94	-0.016439237
141	0x3cad3381	0.021142723
142	0x3da4eee2	0.08053376
143	0x3dc3715f	0.09543108
144	0x3c9e90d1	0.019356163
145	0xbc1beae7	-0.009516454
146	0x3d85162d	0.0649837
147	0x3ce7ac68	0.028280452
148	0x3caa8eb3	0.020819997
149	0xbd4008c6	-0.046883367
150	0x3d3a3eb5	0.04546996
151	0xbd48d991	-0.049035612
152	0xbd910c53	-0.07082429
153	0xbd2532fe	-0.040331833
154	0xbced9cf1	-0.0290055
155	0xbd74c35e	-0.05975663
156	0xbe14df1c	-0.14538234
157	0x3d747a18	0.05968675
158	0xbd0f56cb	-0.03499488
159	0x3cba1510	0.022715122
160	0xbcd3adee	-0.025839772
161	0x3c4a7497	0.012356899
162	0xbdb0005f	-0.08593821
163	0x3e04e881	0.12979318
164	0x3da4df8b	0.0805045
165	0x3c9dd7dd	0.01926797
166	0xbd855cdd	-0.06511853
167	0xbd0d4e8a	-0.03449873
168	0xbbd85c32	-0.0066027874
169	0xbd17b2d7	-0.03703579
170	0xbc9cc837	-0.019138439
171	0xbdef2356	-0.11676662
172	0x3d874b65	0.06606177
173	0xbb8bb5d0	-0.004263617
174	0x3e0554d2	0.13020638
175	0xbd21598f	-0.03939205
176	0x3ddba736	0.10725252
177	0xbc70028a	-0.014649043
178	0xbbe4bba7	-0.0069803777
179	0x3d9f803a	0.07788129
180	0xbdb4a444	-0.08820394
181	0x3d1374b8	0.035999984
182	0x3d3a086a	0.04541818
183	0xbcad4996	-0.021153253
184	0x3d86925c	0.065708846
185	0x3d82049c	0.063485354
186	0xbcf4f22a	-0.02990063
187	0x3dbc9935	0.092089094
188	0xbd261352	-0.04054577
189	0x3cc5c8f3	0.024143672
190	0xbc0d1336	-0.008610537
191	0x3a65fc49	0.000877325
192	0x3d494515	0.049138147
193	0x3dc6b587	0.09702592
194	0x3cb1723b	0.021660915
195	0xbd8fcd2d	-0.07021556
196	0xbd8dcb1e	-0.06923507
197	0x3ade92c8	0.0016981
198	0xbd1b5fd8	-0.0379332
199	0x3d01f346	0.031726144
200	0xbe13fa67	-0.1445099
201	0x3cc5ea0f	0.02415946
202	0x3d73568e	0.059408717
203	0xbc333d51	-0.010939912
204	0xbc67bf7d	-0.014144775
205	0xbd537987	-0.05162957
206	0xbd0a397e	-0.033746235
207	0x3d42f45a	0.047596313
208	0xbd07af32	-0.033126064
209	0xbd9cb682	-0.07651998
210	0xbbf724ee	-0.007542244
211	0xbd5c43ed	-0.053775717
212	0x39dd2c98	0.0004218563
213	0x39e90e41	0.00044451843
214	0xbd41ed85	-0.047345657
215	0xbd6f4299	-0.05841312
216	0x3d309265	0.043108363
217	0x3db4ee8a	0.0883456
218	0x3be6a092	0.0070381844
219	0xbc5928c9	-0.013254353
220	0xbdd76170	-0.105166316
221	0xbb611776	-0.003434626
222	0x3de039a1	0.10948492
223	0x3cf6ec7c	0.030142061
224	0x3d206025	0.03915419
225	0xbd86effd	-0.06588743
226	0xbde54791	-0.11195291
227	0x3d633a22	0.05547536
228	0x3e194b19	0.14970054
229	0x3ceedd1f	0.029158173
230	0x3e153ffe	0.14575192
231	0x3d834866	0.06410293
232	0xbcba1dcd	-0.022719288
233	0x3df0528a	0.11734493
234	0xbd246c11	-0.040142123
235	0x3d1e8cd4	0.038708523
236	0xbd6910a6	-0.056900643
237	0x3d6bb35b	0.057544094
238	0x3db2b064	0.0872505
239	0xbcef5b8f	-0.029218463
240	0xbd6a84c5	-0.057255525
241	0xbcef9213	-0.029244458
242	0xbdac9654	-0.0842711
243	0xbb15ace2	-0.0022838642
244	0x3d395884	0.04525043
245	0x3d7e3f1e	0.062071912
246	0xbd2b5e7c	-0.041838154
247	0x3d376feb	0.044784468
248	0xba1d0808	-0.00059902715
249	0x3cb376b8	0.021907195
250	0x3d51a36e	0.05118125
251	0xbc422154	-0.011848766
252	0xbdb48635	-0.088146605
253	0x3e245f40	0.1605196
254	0x3ca9f729	0.020747738
255	0x3c9a3d3c	0.018828027

network_body.observation_encoder.processors.0.dense.0.bias f4 [128]
0	0x00000000	0.0
1	0x00000000	0.0
2	0x00000000	0.0
3	0x00000000	0.0
4	0x00000000	0.0
5	0x00000000	0.0
6	0x00000000	0.0
7	0x00000000	0.0
8	0x00000000	0.0
9	0x00000000	0.0
10	0x00000000	0.0
11	0x00000000	0.0
12	0x00000000	0.0
13	0x00000000	0.0
14	0x00000000	0.0
15	0x00000000	0.0
16	0x00000000	0.0
17	0x00000000	0.0
18	0x00000000	0.0
19	0x00000000	0.0
20	0x00000000	0.0
21	0x00000000	0.0
22	0x00000000	0.0
23	0x00000000	0.0
24	0x00000000	0.0
25	0x00000000	0.0
26	0x00000000	0.0
27	0x00000000	0.0
28	0x00000000	0.0
29	0x00000000	0.0
30	0x00000000	0.0
31	0x00000000	0.0
32	0x00000000	0.0
33	0x00000000	0.0
34	0x00000000	0.0
35	0x00000000	0.0
36	0x00000000	0.0
37	0x00000000	0.0
38	0x00000000	0.0
39	0x00000000	0.0
40	0x00000000	0.0
41	0x00000000	0.0
42	0x00000000	0.0
43	0x00000000	0.0
44	0x00000000	0.0
45	0x00000000	0.0
46	0x00000000	0.0
47	0x00000000	0.0
48	0x00000000	0.0
49	0x00000000	0.0
50	0x00000000	0.0
51	0x00000000	0.0
52	0x00000000	0.0
53	0x00000000	0.0
54	0x00000000	0.0
55	0x00000000	0.0
56	0x00000000	0.0
57	0x00000000	0.0
58	0x00000000	0.0
59	0x00000000	0.0
60	0x00000000	0.0
61	0x00000000	0.0
62	0x00000000	0.0
63	0x00000000	0.0
64	0x00000000	0.0
65	0x00000000	0.0
66	0x00000000	0.0
67	0x00000000	0.0
68	0x00000000	0.0
69	0x00000000	0.0
70	0x00000000	0.0
71	0x00000000	0.0
72	0x00000000	0.0
73	0x00000000	0.0
74	0x00000000	0.0
75	0x00000000	0.0
76	0x00000000	0.0
77	0x00000000	0.0
78	0x00000000	0.0
79	0x00000000	0.0
80	0x00000000	0.0
81	0x00000000	0.0
82	0x00000000	0.0
83	0x00000000	0.0
84	0x00000000	0.0
85	0x00000000	0.0
86	0x00000000	0.0
87	0x00000000	0.0
88	0x00000000	0.0
89	0x00000000	0.0
90	0x00000000	0.0
91	0x00000000	0.0
92	0x00000000	0.0
93	0x00000000	0.0
94	0x00000000	0.0
95	0x00000000	0.0
96	0x00000000	0.0
97	0x00000000	0.0
98	0x00000000	0.0
99	0x00000000	0.0
100	0x00000000	0.0
101	0x00000000	0.0
102	0x00000000	0.0
103	0x00000000	0.0
104	0x00000000	0.0
105	0x00000000	0.0
106	0x00000000	0.0
107	0x00000000	0.0
108	0x00000000	0.0
109	0x00000000	0.0
110	0x00000000	0.0
111	0x00000000	0.0
112	0x00000000	0.0
113	0x00000000	0.0
114	0x00000000	0.0
115	0x00000000	0.0
116	0x00000000	0.0
117	0x00000000	0.0
118	0x00000000	0.0
119	0x00000000	0.0
120	0x00000000	0.0
121	0x00000000	0.0
122	0x00000000	0.0
123	0x00000000	0.0
124	0x00000000	0.0
125	0x00000000	0.0
126	0x00000000	0.0
127	0x00000000	0.0

network_body._body_endoder.seq_layers.0.weight f4 [128, 128]
0	0xbb1d6969	-0.0024019128
1	0x3d40dfdb	0.047088485
2	0xbe0ce78f	-0.13760208
3	0xbd126df9	-0.03574941
4	0xbc058f29	-0.008151808
5	0x3de86858	0.11348027
6	0x3dee5b25	0.11638478
7	0x3e27c87c	0.16385072
8	0xbd041116	-0.032242857
9	0x3be75980	0.00706023
10	0xbd4802f2	-0.048830934
11	0x3de63357	0.11240261
12	0xbd3eee6e	-0.046614103
13	0x3d351491	0.044209067
14	0x3e3077c1	0.17233182
15	0xbdc79805	-0.09745792
16	0x3df5cf07	0.12002378
17	0x3de945ff	0.11390304
18	0x3d8191b4	0.06326619
19	0x3d93bbce	0.07213555
20	0xbdc8f6af	-0.09812676
21	0xbd658aa6	-0.05604043
22	0xbd2fe1e7	-0.042940047
23	0x3e0dd445	0.13850506
24	0xbdc7c267	-0.09753876
25	0xbda01de6	-0.07818203
26	0xbc08bf96	-0.008346459
27	0x3e3855af	0.18001436
28	0x3c671e24	0.014106307
29	0xbe0b352c	-0.13594502
30	0x3d221a6b	0.039575975
31	0x3d9a6171	0.07538117
32	0xbcea6e8d	-0.028617168
33	0x3d1645fa	0.03668783
34	0x3c13ec78	0.0090285465
35	0x3c7757c5	0.0150966095
36	0xbdd30e2d	-0.10305438
37	0x3d435e15	0.047697145
38	0x3e4a06ab	0.19729106
39	0x3cb3ea8a	0.021962423
40	0x3d3265ea	0.043554224
41	0xbde88a5d	-0.11354516
42	0x3dd3f44d	0.10349331
43	0xbd61fda9	-0.05517355
44	0x3d7fc9ea	0.06244842
45	0x3cd8485e	0.026401695
46	0xbde73ab1	-0.11290491
47	0xbccb323d	-0.024804229
48	0xbd94f7c6	-0.072738215
49	0x3e0fa383	0.14027219
50	0xbe3a4438	-0.18190086
51	0x3d7124c2	0.058872946
52	0xbe188a16	-0.14896426
53	0xbdd1eec0	-0.10250616
54	0xba81b85c	-0.0009896862
55	0xbce054a0	-0.027384102
56	0xbcc20a53	-0.023686564
57	0x3c9b4ec0	0.01895845
58	0xbe2db817	-0.16964756
59	0x3d83aab2	0.06429042
60	0xb7c4b78b	-2.345049e-05
61	0xbc7e558d	-0.015523327
62	0xbe0d7558	-0.13814294
63	0xbd4bb8bb	-0.04973672
64	0xbe37f7bf	-0.17965601
65	0x3cef198e	0.02918699
66	0x3e16c243	0.14722542
67	0x3ccdf4d6	0.025141161
68	0xbd573c36	-0.052547656
69	0x3dbec991	0.093157895
70	0xbdaa70f1	-0.08322323
71	0x3dbc123b	0.09183165
72	0xbdf8ab8c	-0.12142095
73	0xbba3b70f	-0.0049961875
74	0xbd2190ef	-0.03944486
75	0x3d6116db	0.054953437
76	0x3c97c43f	0.018526195
77	0xbce64ee8	-0.028113797
78	0xbd0e0869	-0.03467599
79	0xbd6d6c1c	-0.05796443
80	0xbe0500ee	-0.12988636
81	0xbe021e27	-0.12706815
82	0x3d9b00f0	0.07568538
83	0xbd1dc819	-0.038520906
84	0xbe341459	-0.17585887
85	0x3b8a1f74	0.0042151753
86	0xbd4c510d	-0.049881984
87	0xbcd0df4f	-0.025497107
88	0xbe2ce387	-0.1688367
89	0xbdfbeb64	-0.123007566
90	0xbd038260	-0.032106757
91	0xbc7a6f52	-0.01528533
92	0xbd92519d	-0.07144473
93	0x3e2964ce	0.1654236
94	0x3dd92f71	0.10604752
95	0xbe4b3c3d	-0.19847198
96	0xbc735f15	-0.014854212
97	0xbd4488da	-0.047982074
98	0xbc8a044f	-0.016847758
99	0xba93e28d	-0.0011282727
100	0xbd82012e	-0.06347881
101	0x3d2b99da	0.04189477
102	0xbda98318	-0.08276957
103	0xbc585228	-0.013203181
104	0x3be63af6	0.0070260717
105	0x3d8acf4d	0.06777821
106	0xbe05fc18	-0.13084447
107	0x3dc44147	0.09582763
108	0xbd63b2d7	-0.055590477
109	0xbd78e70c	-0.06076722
110	0x3cc4f87e	0.024044272
111	0xbd8ad926	-0.06779699
112	0xbe07e9b7	-0.13272749
113	0x3bb6addb	0.0055749244
114	0xbc9e0343	-0.019288665
115	0xbdb92a2e	-0.09041248
116	0xbd894553	-0.06702676
117	0x3dc2283c	0.0948033
118	0x3dfe0c1d	0.12404654
119	0xbdad075c	-0.08448669
120	0x3d9746b5	0.07386533
121	0x3c6d02cd	0.014466
122	0xbd3fa3b0	-0.046786964
123	0xbd1e699b	-0.038674932
124	0x3d07d38c	0.03316073
125	0xbd205b8e	-0.039149813
126	0xbded4372	-0.1158513
127	0x3d1f2646	0.03885486
128	0x3e6cbeb4	0.23119622
129	0x3cbca7ee	0.023029294
130	0x3db6622b	0.08905443
131	0xbd842464	-0.064522535
132	0xbd605d71	-0.054776613
133	0xbda46a9b	-0.08028146
134	0xbcad5eef	-0.021163432
135	0xbcb2902d	-0.021797264
136	0x3dc026e0	0.09382415
137	0xbdbaf736	-0.09129183
138	0xbd7a18e8	-0.06105891
139	0xbcb43d28	-0.022001818
140	0xbd2d1029	-0.04225174
141	0x3dbdf1e2	0.09274651
142	0x3c6bd169	0.014393189
143	0xbd3cd1d7	-0.046098556
144	0x3dc99d80	0.09844494
145	0xbddc4010	-0.107544065
146	0xbd5624a7	-0.05228105
147	0x3d49b50c	0.049244925
148	0x3d6f7c77	0.05846831
149	0xbd63458d	-0.05548625
150	0xbcf09c55	-0.02937142
151	0x3dfb8c86	0.12282662
152	0x3d953d56	0.072870895
153	0x3c90956a	0.017649371
154	0x3ddecfe9	0.108794995
155	0x3d0f739b	0.03502236
156	0xbd8acc5c	-0.0677726
157	0xbd62514a	-0.055253305
158	0xb91b726b	-0.00014824576
159	0x3d157756	0.03649076
160	0xbdb603f2	-0.08887471
161	0xbe2c1c17	-0.1680759
162	0x3d75ac91	0.059979025
163	0x3e0eefa0	0.13958597
164	0x3ce12ea3	0.027488058
165	0xbd71d8b5	-0.05904456
166	0x3d0393f3	0.032123517
167	0x3ccd9558	0.025095627
168	0xbd534d16	-0.051587187
169	0xbd926a26	-0.071491525
170	0xbd4dce4a	-0.05024556
171	0xbdb783e6	-0.089607045
172	0xbc2733b7	-0.010205201
173	0xbcbc74ad	-0.023004854
174	0xbdc7a69c	-0.09748575
175	0x3c9a3630	0.018824667
176	0x3db2c773	0.08729448
177	0x3d1a3cbf	0.03765559
178	0xbda7e09e	-0.08197139
179	0xbd0d79a3	-0.03453983
180	0xbd87936a	-0.06619914
181	0x3e073d1e	0.13206908
182	0xbe078cab	-0.13237254
183	0x3d2be653	0.0419677
184	0x3df7125a	0.12064047
185	0xbd2ec8b5	-0.042671878
186	0x3d8b6daf	0.0680803
187	0x3dca3e8c	0.09875211
188	0x3e1ba4bb	0.15199558
189	0x3c866c92	0.016409192
190	0xbde6dbaa	-0.11272366
191	0xbdd03a0b	-0.10167321
192	0xbd6970b4	-0.056992248
193	0x3d194246	0.03741672
194	0x3d095701	0.03353024
195	0xbb4829e9	-0.0030542559
196	0xbe13850c	-0.14406222
197	0x3cbd73d1	0.023126515
198	0xbded4958	-0.11586255
199	0xbd1d50d7	-0.038407173
200	0x3a5f0701	0.00085078186
201	0x3c3bd956	0.011465391
202	0x3d392049	0.045196805
203	0xbdb96382	-0.09052183
204	0x3d83754d	0.06418858
205	0xbd721594	-0.05910261
206	0x3e6a5d3c	0.22887129
207	0xbc841a2e	-0.016125765
208	0xbd2b36b8	-0.04180023
209	0xba1bfbeb	-0.00059503195
210	0xbcda88bc	-0.026676528
211	0xbda5dbae	-0.08098541
212	0xbd05080e	-0.032478385
213	0x3c375502	0.011189701
214	0xbda7a41c	-0.08185598
215	0x3d1709f5	0.03687473
216	0xbe3d5104	-0.18487936
217	0xbdad4468	-0.08460313
218	0x3c78f42f	0.015194937
219	0x3d1ba36b	0.037997644
220	0x3bd2fff5	0.006439204
221	0x3ce300c8	0.027710333
222	0x3bd43da0	0.006477073
223	0xbde9519a	-0.113925174
224	0xbd560094	-0.052246645
225	0x3d2e6fb9	0.042587016
226	0xbc123b15	-0.008925219
227	0xbc2cde16	-0.010550996
228	0xbd3d7496	-0.046253763
229	0xbdc01d48	-0.09380585
230	0xbe1b930d	-0.15192814
231	0x3c6882f6	0.01419138
232	0x3decd3f7	0.115638666
233	0x3ca281b1	0.019837232
234	0x3d29d86f	0.041466173
235	0x3d37cd22	0.044873364
236	0x3e05ef60	0.13079596
237	0x3e4fbcf1	0.20286919
238	0x3bd0e861	0.006375358
239	0x3dc8bf89	0.098021574
240	0x3e25b2d0	0.16181493
241	0x3c760b64	0.015017364
242	0x3e3f0e85	0.18657883
243	0x3e36d7b3	0.1785572
244	0xbc806296	-0.01567201
245	0x3ddf6590	0.109080434
246	0xbd6dcff8	-0.058059663
247	0x3c98441f	0.01858717
248	0xbd38ea17	-0.04514512
249	0x3cdb2855	0.02675263
250	0xbd4d18a2	-0.05007232
251	0x3dccda80	0.10002613
252	0x3c8df61a	0.017329264
253	0xbe306568	-0.17226183
254	0xbdbb7585	-0.091532744
255	0xbe1a9648	-0.1509639

network_body._body_endoder.seq_layers.0.bias f4 [128]
0	0x00000000	0.0
1	0x00000000	0.0
2	0x00000000	0.0
3	0x00000000	0.0
4	0x00000000	0.0
5	0x00000000	0.0
6	0x00000000	0.0
7	0x00000000	0.0
8	0x00000000	0.0
9	0x00000000	0.0
10	0x00000000	0.0
11	0x00000000	0.0
12	0x00000000	0.0
13	0x00000000	0.0
14	0x00000000	0.0
15	0x00000000	0.0
16	0x00000000	0.0
17	0x00000000	0.0
18	0x00000000	0.0
19	0x00000000	0.0
20	0x00000000	0.0
21	0x00000000	0.0
22	0x00000000	0.0
23	0x00000000	0.0
24	0x00000000	0.0
25	0x00000000	0.0
26	0x00000000	0.0
27	0x00000000	0.0
28	0x00000000	0.0
29	0x00000000	0.0
30	0x00000000	0.0
31	0x00000000	0.0
32	0x00000000	0.0
33	0x00000000	0.0
34	0x00000000	0.0
35	0x00000000	0.0
36	0x00000000	0.0
37	0x00000000	0.0
38	0x00000000	0.0
39	0x00000000	0.0
40	0x00000000	0.0
41	0x00000000	0.0
42	0x00000000	0.0
43	0x00000000	0.0
44	0x00000000	0.0
45	0x00000000	0.0
46	0x00000000	0.0
47	0x00000000	0.0
48	0x00000000	0.0
49	0x00000000	0.0
50	0x00000000	0.0
51	0x00000000	0.0
52	0x00000000	0.0
53	0x00000000	0.0
54	0x00000000	0.0
55	0x00000000	0.0
56	0x00000000	0.0
57	0x00000000	0.0
58	0x00000000	0.0
59	0x00000000	0.0
60	0x00000000	0.0
61	0x00000000	0.0
62	0x00000000	0.0
63	0x00000000	0.0
64	0x00000000	0.0
65	0x00000000	0.0
66	0x00000000	0.0
67	0x00000000	0.0
68	0x00000000	0.0
69	0x00000000	0.0
70	0x00000000	0.0
71	0x00000000	0.0
72	0x00000000	0.0
73	0x00000000	0.0
74	0x00000000	0.0
75	0x00000000	0.0
76	0x00000000	0.0
77	0x00000000	0.0
78	0x00000000	0.0
79	0x00000000	0.0
80	0x00000000	0.0
81	0x00000000	0.0
82	0x00000000	0.0
83	0x00000000	0.0
84	0x00000000	0.0
85	0x00000000	0.0
86	0x00000000	0.0
87	0x00000000	0.0
88	0x00000000	0.0
89	0x00000000	0.0
90	0x00000000	0.0
91	0x00000000	0.0
92	0x00000000	0.0
93	0x00000000	0.0
94	0x00000000	0.0
95	0x00000000	0.0
96	0x00000000	0.0
97	0x00000000	0.0
98	0x00000000	0.0
99	0x00000000	0.0
100	0x00000000	0.0
101	0x00000000	0.0
102	0x00000000	0.0
103	0x00000000	0.0
104	0x00000000	0.0
105	0x00000000	0.0
106	0x00000000	0.0
107	0x00000000	0.0
108	0x00000000	0.0
109	0x00000000	0.0
110	0x00000000	0.0
111	0x00000000	0.0
112	0x00000000	0.0
113	0x00000000	0.0
114	0x00000000	0.0
115	0x00000000	0.0
116	0x00000000	0.0
117	0x00000000	0.0
118	0x00000000	0.0
119	0x00000000	0.0
120	0x00000000	0.0
121	0x00000000	0.0
122	0x00000000	0.0
123	0x00000000	0.0
124	0x00000000	0.0
125	0x00000000	0.0
126	0x00000000	0.0
127	0x00000000	0.0

network_body._body_endoder.seq_layers.2.weight f4 [128, 128]
0	0x3ddc091f	0.10743927
1	0xbcb7b770	-0.022426337
2	0xbd9d9fcf	-0.07696497
3	0xbcd9598d	-0.026531959
4	0xbda0f830	-0.07859838
5	0x3df1dad5	0.11809317
6	0x3d5cfbec	0.05395119
7	0xbd5d3b02	-0.054011352
8	0x3e1f1bb0	0.15537906
9	0xbe2691cb	-0.16266553
10	0xbcad9d81	-0.021193268
11	0xbd23fecf	-0.040037926
12	0xbdfb4364	-0.12268713
13	0xbe0144d8	-0.12623918
14	0x3e7f7e7f	0.24950598
15	0xbd0682bc	-0.03283952
16	0xbd0c9837	-0.03432485
17	0x3d133790	0.03594166
18	0xbc1fd268	-0.009754755
19	0x3dcf6c63	0.10128095
20	0x3d6f0a40	0.058359385
21	0xbd98e7e2	-0.07466103
22	0xbd664173	-0.05621476
23	0xbb9464ab	-0.004528602
24	0xbcd253c7	-0.025674714
25	0x3d7d8b89	0.06190065
26	0x3c8d2e90	0.017234117
27	0x3d911cb6	0.07085554
28	0xbd6e2c0a	-0.058147468
29	0xbdc31537	-0.09525531
30	0xbcded544	-0.027201302
31	0xbd8074a1	-0.06272245
32	0xbda26164	-0.07928732
33	0x3d759a09	0.059961352
34	0x3e1b9a81	0.15195657
35	0xbe3f9ea9	-0.18712868
36	0x3aa3e035	0.0012502732
37	0xbd9ff467	-0.07810288
38	0xbd45558b	-0.048177283
39	0x3da51fe0	0.0806272
40	0xbd60ab9a	-0.054851152
41	0xbdae0464	-0.08496931
42	0x3dec26ca	0.11530836
43	0xbca0f742	-0.019649152
44	0xbde397bc	-0.111129254
45	0x3c96ec83	0.018423324
46	0xbc0ad15b	-0.008472766
47	0xbd096a1d	-0.033548463
48	0x3d0d2db4	0.034467414
49	0x3cba3777	0.022731526
50	0xbe4f016c	-0.20215386
51	0x3dbab1a4	0.091159135
52	0x3df53f4b	0.11974963
53	0x3d800990	0.06251824
54	0x3c9d447c	0.019197695
55	0xbd95e9ab	-0.07319959
56	0xbe000cf7	-0.12504946
57	0x3d670cfb	0.056408864
58	0xbbddc354	-0.0067676697
59	0xbe1053db	-0.14094488
60	0xbab51998	-0.0013816832
61	0x3d74dce2	0.059780963
62	0x3d44ba34	0.04802914
63	0xbdc610ea	-0.09671195
64	0x3d96313e	0.07333611
65	0x3da05878	0.07829374
66	0xbdb6c059	-0.08923406
67	0x3e1cc397	0.15308987
68	0xbca53e19	-0.020171212
69	0x3d8004ea	0.06250937
70	0xbbe9d368	-0.0071357973
71	0x3e0b17e3	0.13583331
72	0xb9d8a0ca	-0.00041318528
73	0xbd5b54d4	-0.053547695
74	0x3dba8a13	0.09108367
75	0xbd4512e6	-0.048113726
76	0x3dec3b54	0.115347534
77	0x3e328143	0.17432122
78	0xbce30148	-0.027710572
79	0x3d06f0c2	0.03294445
80	0x3dde6d7c	0.10860726
81	0xbcb04c2e	-0.0215207
82	0x3d80d9f2	0.0629157
83	0xbd63a539	-0.05557749
84	0xbe95797c	-0.29194248
85	0xbd40cc61	-0.04706991
86	0xbdd824b9	-0.10553879
87	0xbdd49238	-0.103794515
88	0xbd570421	-0.052494172
89	0x3cd5e95c	0.026112251
90	0xbbf28e69	-0.0074022305
91	0x3d6415b6	0.055684768
92	0x3d81625b	0.06317588
93	0xbdafed08	-0.08590132
94	0xbc692d49	-0.014231988
95	0xbd57e737	-0.052710738
96	0xbca98b36	-0.020696264
97	0xbacb58c6	-0.0015514127
98	0xbe3d4ccd	-0.18486328
99	0xbdaee702	-0.08540155
100	0x3ddbf658	0.10740346
101	0x3decfab2	0.11571254
102	0xbd83f441	-0.06443072
103	0x3d1ae018	0.03781137
104	0xbe13add1	-0.14421774
105	0xbb977615	-0.004622231
106	0xbdae3e60	-0.08507991
107	0xbdf2aabc	-0.11848971
108	0x3bf0044c	0.007324731
109	0x3c675b4a	0.014120886
110	0x3cc761ab	0.024338564
111	0xbe2def07	-0.16985713
112	0xbadbc0d4	-0.0016765841
113	0xbd648553	-0.05579121
114	0xbd943e26	-0.072384164
115	0xbd730638	-0.059332103
116	0xbdb1a43f	-0.086739056
117	0x3e029e52	0.12755707
118	0xbdc6c26a	-0.0970505
119	0xbcdaa06b	-0.026687821
120	0x3d1258e6	0.03572931
121	0x3e0f794e	0.14011118
122	0xbd7f5063	-0.062332522
123	0x3d886659	0.06660146
124	0x3d055e29	0.0325605
125	0xbc9427cf	-0.018085388
126	0xbaf01d82	-0.0018319341
127	0xbc1f8116	-0.009735366
128	0xbdc28088	-0.09497172
129	0x3e45c264	0.19312435
130	0x3ca03af1	0.019559355
131	0xbc5f877e	-0.013643144
132	0x3d89669b	0.067090236
133	0xbcad618e	-0.021164682
134	0xbd83d830	-0.06437719
135	0x3aec50db	0.0018029468
136	0xbc6b5186	-0.014362698
137	0xbe078df7	-0.13237749
138	0xbaee4b46	-0.0018180392
139	0x3c481c5e	0.0122137945
140	0xbd9fce15	-0.07802979
141	0xbe426312	-0.18983105
142	0x3d83d010	0.06436169
143	0x3d85aa87	0.06526666
144	0xbcc996af	-0.024607984
145	0x3da264c0	0.07929373
146	0x3dbcd278	0.09219831
147	0x3d2de73b	0.042456847
148	0xbcf14656	-0.029452484
149	0xbcdf7a76	-0.027280074
150	0x3d9acf75	0.075591005
151	0xbda34f42	-0.079741016
152	0xbb70ab2d	-0.0036723122
153	0xbe1f395a	-0.15549222
154	0xbc7bd97a	-0.015371675
155	0x3cf4bc11	0.029874833
156	0x3c2201c2	0.009888114
157	0xbdd8f306	-0.10593228
158	0xbcda4fb4	-0.026649334
159	0xbd20292f	-0.039101776
160	0x3c40e03c	0.011772212
161	0xbcd97e27	-0.026549412
162	0x3d98ae57	0.07455128
163	0x3de77d01	0.113031395
164	0xbb801a7b	-0.0039094067
165	0x3e373a7c	0.17893404
166	0xbcfc8ee0	-0.030829847
167	0x3e96ed01	0.29477695
168	0xbd1c4785	-0.038154144
169	0x3dc3217e	0.095278725
170	0xbc159cc9	-0.009131619
171	0x3d812e00	0.06307602
172	0x3d3a0cfe	0.045422547
173	0xbe1b42a9	-0.15162148
174	0x3d505ef4	0.050871804
175	0x3c570fa9	0.013126292
176	0x3d5ac56e	0.05341094
177	0x3ae7c293	0.0017681889
178	0x3b826d5a	0.003980321
179	0xbe0296af	-0.12752794
180	0x3e31d14d	0.17364998
181	0xbc6d058b	-0.014466654
182	0xbe064254	-0.1311124
183	0xbd27c90d	-0.04096322
184	0x3c6abdf9	0.01432752
185	0xbdf4a46a	-0.11945422
186	0x3d811a6c	0.06303868
187	0x3d8959dd	0.06706593
188	0x3e27cb67	0.16386186
189	0x3987fb9b	0.00025936667
190	0xbc3054ab	-0.010762374
191	0x3d94e4d8	0.07270211
192	0x3cb6f13d	0.022331828
193	0x3d95f2a4	0.07321671
194	0xbcf1af94	-0.029502667
195	0xbc22e25f	-0.009941666
196	0xbcbe8b78	-0.023259863
197	0xbc695e32	-0.014243649
198	0xbe3ef38a	-0.1864759
199	0x3d034970	0.032052457
200	0xbd4bd6fd	-0.049765576
201	0x3d251f7e	0.040313236
202	0xbe0b7c01	-0.13621522
203	0x3d2718e8	0.040795237
204	0xbdbb9443	-0.09159138
205	0x3d7196db	0.058981758
206	0x3d80bb14	0.06285682
207	0x3d708a44	0.05872561
208	0xbc20c134	-0.009811688
209	0x3cda49f9	0.026646601
210	0xbe4257f7	-0.18978868
211	0xbd58d89c	-0.05294095
212	0xbd664e16	-0.056226812
213	0x3da84c41	0.08217669
214	0x3b87530b	0.0041297725
215	0xbd2fec1d	-0.042949785
216	0x3dca858e	0.09888755
217	0x3dad1b5c	0.08452484
218	0x3d81a6bc	0.0633063
219	0x3dc551fc	0.09634778
220	0x3e062aec	0.13102311
221	0x3cc1ffa1	0.023681464
222	0x3daddf52	0.084898606
223	0xbca0ec8f	-0.01964405
224	0x3dcea977	0.100909166
225	0x3d778472	0.060429044
226	0x3d8195d8	0.063274086
227	0x3c2858ed	0.010275108
228	0x3e1f8ac5	0.1558028
229	0xbdb96558	-0.09052533
230	0x3d153949	0.036431585
231	0xbc54084e	-0.012941433
232	0xbd5f95c2	-0.05458618
233	0x3daa9dfc	0.083309144
234	0xbdbe6b1b	-0.092977725
235	0x3d734e27	0.059400704
236	0xbe03a51f	-0.12855957
237	0x3d915500	0.070962906
238	0x3d524d30	0.051343143
239	0x3da23744	0.07920697
240	0xbdd08634	-0.10181847
241	0x3ca96ae0	0.020680845
242	0xbdc3c071	-0.0955819
243	0xbd895000	-0.06704712
244	0x3e0fc9ce	0.14041826
245	0x3d10ae61	0.03532255
246	0x3d000d7a	0.031262852
247	0x3de5ebc0	0.11226606
248	0xbd8f5742	-0.06999065
249	0x3c569218	0.013096355
250	0xbcec28de	-0.02882808
251	0x3d2ea7c4	0.042640463
252	0x3c84dc2c	0.016218267
253	0xbd315e66	-0.043302916
254	0x3d8929a3	0.06697395
255	0xbd9fd928	-0.07805091

network_body._body_endoder.seq_layers.2.bias f4 [128]
0	0x00000000	0.0
1	0x00000000	0.0
2	0x00000000	0.0
3	0x00000000	0.0
4	0x00000000	0.0
5	0x00000000	0.0
6	0x00000000	0.0
7	0x00000000	0.0
8	0x00000000	0.0
9	0x00000000	0.0
10	0x00000000	0.0
11	0x00000000	0.0
12	0x00000000	0.0
13	0x00000000	0.0
14	0x00000000	0.0
15	0x00000000	0.0
16	0x00000000	0.0
17	0x00000000	0.0
18	0x00000000	0.0
19	0x00000000	0.0
20	0x00000000	0.0
21	0x00000000	0.0
22	0x00000000	0.0
23	0x00000000	0.0
24	0x00000000	0.0
25	0x00000000	0.0
26	0x00000000	0.0
27	0x00000000	0.0
28	0x00000000	0.0
29	0x00000000	0.0
30	0x00000000	0.0
31	0x00000000	0.0
32	0x00000000	0.0
33	0x00000000	0.0
34	0x00000000	0.0
35	0x00000000	0.0
36	0x00000000	0.0
37	0x00000000	0.0
38	0x00000000	0.0
39	0x00000000	0.0
40	0x00000000	0.0
41	0x00000000	0.0
42	0x00000000	0.0
43	0x00000000	0.0
44	0x00000000	0.0
45	0x00000000	0.0
46	0x00000000	0.0
47	0x00000000	0.0
48	0x00000000	0.0
49	0x00000000	0.0
50	0x00000000	0.0
51	0x00000000	0.0
52	0x00000000	0.0
53	0x00000000	0.0
54	0x00000000	0.0
55	0x00000000	0.0
56	0x00000000	0.0
57	0x00000000	0.0
58	0x00000000	0.0
59	0x00000000	0.0
60	0x00000000	0.0
61	0x00000000	0.0
62	0x00000000	0.0
63	0x00000000	0.0
64	0x00000000	0.0
65	0x00000000	0.0
66	0x00000000	0.0
67	0x00000000	0.0
68	0x00000000	0.0
69	0x00000000	0.0
70	0x00000000	0.0
71	0x00000000	0.0
72	0x00000000	0.0
73	0x00000000	0.0
74	0x00000000	0.0
75	0x00000000	0.0
76	0x00000000	0.0
77	0x00000000	0.0
78	0x00000000	0.0
79	0x00000000	0.0
80	0x00000000	0.0
81	0x00000000	0.0
82	0x00000000	0.0
83	0x00000000	0.0
84	0x00000000	0.0
85	0x00000000	0.0
86	0x00000000	0.0
87	0x00000000	0.0
88	0x00000000	0.0
89	0x00000000	0.0
90	0x00000000	0.0
91	0x00000000	0.0
92	0x00000000	0.0
93	0x00000000	0.0
94	0x00000000	0.0
95	0x00000000	0.0
96	0x00000000	0.0
97	0x00000000	0.0
98	0x00000000	0.0
99	0x00000000	0.0
100	0x00000000	0.0
101	0x00000000	0.0
102	0x00000000	0.0
103	0x00000000	0.0
104	0x00000000	0.0
105	0x00000000	0.0
106	0x00000000	0.0
107	0x00000000	0.0
108	0x00000000	0.0
109	0x00000000	0.0
110	0x00000000	0.0
111	0x00000000	0.0
112	0x00000000	0.0
113	0x00000000	0.0
114	0x00000000	0.0
115	0x00000000	0.0
116	0x00000000	0.0
117	0x00000000	0.0
118	0x00000000	0.0
119	0x00000000	0.0
120	0x00000000	0.0
121	0x00000000	0.0
122	0x00000000	0.0
123	0x00000000	0.0
124	0x00000000	0.0
125	0x00000000	0.0
126	0x00000000	0.0
127	0x00000000	0.0

action_model._continuous_distribution.log_sigma f4 [1, 2]
0	0x00000000	0.0
1	0x00000000	0.0

action_model._continuous_distribution.mu.weight f4 [2, 128]
0	0xbbb963e0	-0.005657658
1	0xbbdef4aa	-0.0068040686
2	0x3b352eb9	0.0027646257
3	0xbb5ed4a3	-0.0034001253
4	0x3b43319b	0.0029784206
5	0x3ce76d12	0.028250251
6	0xbc277b9a	-0.01022234
7	0x3ab358eb	0.0013683116
8	0xbc18f0f1	-0.009334789
9	0x3b57b5db	0.003291479
10	0xbc4336ec	-0.01191495
11	0xbc8860e9	-0.016647773
12	0x3c611417	0.0137377
13	0x3c23724a	0.009975979
14	0xbc19cbc1	-0.009386958
15	0xbc286d7f	-0.010280012
16	0xbcc0833d	-0.02350008
17	0xbc6232eb	-0.013806085
18	0x3c07efce	0.00829692
19	0x3bb25fca	0.005443548
20	0xbbe134e8	-0.006872762
21	0x3c8256c3	0.015910512
22	0xbc8f6863	-0.01750583
23	0xbc8d597a	-0.01725458
24	0x3caff25e	0.021477874
25	0xbc24713f	-0.010036766
26	0x3b2b4a59	0.0026136844
27	0xbc1cb881	-0.0095654735
28	0x3c792750	0.015207127
29	0x3c417e2f	0.01180987
30	0xbc670f32	-0.014102744
31	0xb8a59c36	-7.89691e-05
32	0xbcc7cab4	-0.024388649
33	0xbc5aab37	-0.013346485
34	0xbcaa0872	-0.02075598
35	0xbca0535f	-0.019571004
36	0xbbc6c463	-0.0060658916
37	0x3c8459b9	0.016156064
38	0x3c740d0b	0.014895688
39	0xbcbfce3d	-0.023413772
40	0x3c175944	0.009237591
41	0x3caa1eac	0.020766579
42	0xbd1f821b	-0.038942438
43	0x3bc4c934	0.0060054306
44	0xbc0caa2b	-0.008585493
45	0xbc2e4b60	-0.010638088
46	0x3d176c6d	0.036968637
47	0x3d0fb8a0	0.03508818
48	0xb986f336	-0.00025739678
49	0xbc73a15d	-0.014870015
50	0x3cd65d05	0.026167402
51	0x3d00c316	0.03143605
52	0xbc8e3371	-0.017358514
53	0x3afebfd3	0.001943583
54	0xbc4bc9b2	-0.012438225
55	0xbc3126ee	-0.010812504
56	0x3c55167d	0.01300585
57	0x3c9769f2	0.018483136
58	0x3d23ce4a	0.039991654
59	0x3aee12c7	0.0018163555
60	0xbcba887f	-0.022770165
61	0xbc0149e6	-0.007891154
62	0x3d0fc4ff	0.03509998
63	0x3c390542	0.0112927575
64	0x3cb7d74f	0.022441534
65	0x3d04a5f9	0.032384846
66	0x3a0b076d	0.0005303536
67	0x3d06f427	0.032947686
68	0x3ba13190	0.0049192384
69	0x39c7ac83	0.0003808477
70	0xbc916df3	-0.017752623
71	0xbcca9588	-0.024729505
72	0xbb89a914	-0.004201064
73	0xbc843730	-0.016139597
74	0xbc206d83	-0.009791735
75	0x3c95a8af	0.018268911
76	0x3c08ae03	0.008342269
77	0xb85339d8	-5.036019e-05
78	0x3be909a0	0.007111743
79	0xbb41fa3d	-0.0029598617
80	0x3ca4e54b	0.020128867
81	0x3b49e6fb	0.003080784
82	0x3c452fcd	0.012035322
83	0xbbc8f436	-0.006132628
84	0x3bce1400	0.0062890053
85	0xbc5b883a	-0.013399178
86	0xbcafc537	-0.021456344
87	0x3b60710b	0.0034247066
88	0xbb35f021	-0.0027761536
89	0x3c1aa13a	0.0094378535
90	0x3c4428c3	0.011972609
91	0x3c3516ff	0.011052846
92	0x3b9adf29	0.00472631
93	0x3c965150	0.01834932
94	0xbca11be0	-0.019666612
95	0x3c3863f9	0.011254304
96	0xbcf4187d	-0.029796833
97	0x3bc0e194	0.005886266
98	0x3c2d134f	0.010563686
99	0x3b7ab257	0.0038253271
100	0x3c72ce70	0.014819726
101	0xbca71d5c	-0.020399742
102	0x3bc8cce7	0.006127942
103	0x3c9a4cdd	0.01883548
104	0x3c3db654	0.011579115
105	0x3bdba033	0.006702447
106	0xbaa29b83	-0.0012405965
107	0xbbe7b447	-0.0070710513
108	0xbbd70f20	-0.0065630823
109	0x3c93290b	0.017963907
110	0x3d14d1a3	0.036332738
111	0xbb94dc11	-0.0045428355
112	0xbca13363	-0.019677823
113	0x39e449ba	0.0004354248
114	0xbb86db2c	-0.004115483
115	0x3c911ecb	0.017714879
116	0xbb099607	-0.0020993964
117	0x3c46cab4	0.012133289
118	0x3c3ea0e2	0.011635037
119	0xbc9c287c	-0.019062273
120	0x3ab5f1e7	0.0013881297
121	0x3adb0e4b	0.0016712634
122	0xbc637deb	-0.013885002
123	0xbc13b6ff	-0.009015798
124	0xbcd5361a	-0.026026774
125	0x3c9819b6	0.018566947
126	0xbcd99d7a	-0.026564348
127	0x3b9a8f21	0.0047167693
128	0xbc8a4aa6	-0.016881298
129	0xbbe6b660	-0.0070407838
130	0xbbb472ff	-0.0055068727
131	0x3d137206	0.035997413
132	0xbbeef188	-0.0072919764
133	0xbc987c20	-0.018613875
134	0xbc46d7d9	-0.012136423
135	0xbbfbdbe2	-0.007686124
136	0x3cf9aaf5	0.030477026
137	0xbcc1d346	-0.023660313
138	0x3c02880e	0.007967008
139	0x3c23317f	0.009960531
140	0xbcf7c418	-0.030244872
141	0xbc2689a9	-0.010164657
142	0x3c34d2c9	0.011036583
143	0x3c9f842a	0.0194722
144	0xbccaa073	-0.024734711
145	0xbc19ef19	-0.009395384
146	0xb9e05383	-0.0004278683
147	0x3c986803	0.018604284
148	0xba239ff9	-0.00062417943
149	0xbcdb930f	-0.026803521
150	0x3d5b3005	0.053512592
151	0xbc97a81b	-0.018512776
152	0x3c9261ec	0.017868958
153	0x3ca67fa9	0.020324545
154	0x3c63e488	0.013909467
155	0xbbe79bc2	-0.0070681283
156	0xbb82aa71	-0.0039876034
157	0xbd175220	-0.036943555
158	0xbb8b26ff	-0.004246592
159	0x3bd54308	0.006508235
160	0xbbfe5bfa	-0.0077624293
161	0x3d13851b	0.03601561
162	0xbca52c9c	-0.020162873
163	0x3a68ed98	0.0008885502
164	0xbcf656ef	-0.03007075
165	0x3c62357a	0.013806695
166	0x3b40ca26	0.0029417365
167	0x3d1df17f	0.038560387
168	0x3c12da36	0.008963158
169	0xbcda6df0	-0.02666375
170	0x3d024a13	0.031808924
171	0xbcce5fb7	-0.025192125
172	0x3b661125	0.0035105434
173	0xbc0a237f	-0.0084313145
174	0xbc892a24	-0.016743727
175	0x38eddb8a	0.00011341933
176	0xbbd59317	-0.0065177786
177	0xbc63cc1f	-0.013903647
178	0xbc9b8f8f	-0.018989353
179	0x3ce021ba	0.027359832
180	0xbc4ce175	-0.012504925
181	0x3c85ccc9	0.016333
182	0xbca548d5	-0.02017633
183	0x37c94cda	2.3996854e-05
184	0x3c0081a5	0.00784341
185	0xbca3e44e	-0.020006325
186	0xbc9b12fe	-0.018929955
187	0x3cc48b68	0.023992255
188	0x3ab070f0	0.0013461392
189	0xbba06f6d	-0.0048960955
190	0x3c43133a	0.011906439
191	0x3b3ffa56	0.00292935
192	0xbc91df07	-0.017806543
193	0xbacb4609	-0.0015508543
194	0xbcad2f64	-0.021140762
195	0xbc338bbf	-0.010958611
196	0xba49d180	-0.00076987594
197	0xbce7b748	-0.028285637
198	0x3bf6b43a	0.007528809
199	0x3c9f952c	0.01948031
200	0xbcb34827	-0.02188499
201	0x3c278ff3	0.010227191
202	0xbc93800e	-0.018005397
203	0x3c9e86e5	0.019351432
204	0xbbf26b67	-0.0073980573
205	0x3c278b67	0.010226107
206	0xbc8766dc	-0.01652854
207	0x3c8ffade	0.017575677
208	0xbba6e8bf	-0.0050936635
209	0x3c793a8d	0.0152117135
210	0xbce3d56f	-0.027811734
211	0xbd11c1de	-0.035585277
212	0xbc0550a4	-0.008136902
213	0xbcca79ba	-0.024716247
214	0xbcae891f	-0.021305619
215	0x3b448acf	0.0029989963
216	0x3b99faff	0.0046991105
217	0x3c3c0ba9	0.011477389
218	0x3ba47980	0.0050193667
219	0xbccaf923	-0.024777
220	0x3ccd1013	0.025032079
221	0x3c4aa4a3	0.012368354
222	0xbbb9b1c3	-0.005666943
223	0xbb13b938	-0.002254082
224	0xbae3d200	-0.001738131
225	0xbc68ef6d	-0.01421724
226	0x3cd340bf	0.02578771
227	0xbc883154	-0.016625084
228	0xbb6e687f	-0.0036378202
229	0xbbf6b618	-0.0075290315
230	0xbc338ea1	-0.010959298
231	0x3c7d4c87	0.01546014
232	0x3c9a4280	0.018830538
233	0xbc3bd82e	-0.0114651155
234	0xbb3b9687	-0.0028623657
235	0x3ba2d0f8	0.0049687587
236	0x3bfc96d8	0.0077084117
237	0xbb96e7ed	-0.0046052844
238	0xba9475d7	-0.0011326623
239	0xbbc1c445	-0.0059132897
240	0x3a90bf51	0.0011043345
241	0xbc0c9e8a	-0.0085827205
242	0xbc20a59c	-0.009805109
243	0x3c194bd9	0.009356462
244	0xbc4ebf45	-0.012618844
245	0xbce44808	-0.027866378
246	0xbbe27570	-0.0069109723
247	0x3ce3c97b	0.027806034
248	0xbbf8cc97	-0.0075927484
249	0xbbeb3dc7	-0.0071789953
250	0xba9b3fe1	-0.0011844599
251	0x3b457edf	0.0030135436
252	0x3bae14b7	0.005312528
253	0xbc534418	-0.012894653
254	0xbc035387	-0.00801552
255	0xbc40f587	-0.011777288

action_model._continuous_distribution.mu.bias f4 [2]
0	0x00000000	0.0
1	0x00000000	0.0
