results/ppo/My Behavior.onnx (onnx, 72851 bytes, 7 tensors)

network_body._body_endoder.seq_layers.0.weight f4 [128, 6]
000000 46 6d 02 bd 26 d6 14 3e 78 fc ca bd 8c 12 5e be
       -0.031842493 0.14534816 -0.09911436 -0.21686763
000010 a3 d9 64 be 11 a0 c5 3e f0 f9 5a 3d 20 0a b7 be
       -0.22348647 0.38598683 0.053461015 -0.35749912
000020 d2 3c 88 3e ab b6 df 3d e2 a8 89 be b3 e9 b9 3e
       0.26608902 0.10923513 -0.2688666 0.3631111
000030 9a 6e 8d be 88 6a 9d 3e e7 37 b6 be 78 d3 00 3f
       -0.27623445 0.3074534 -0.35589525 0.50322676
000040 c9 da ea be 7b 83 a0 bd e1 b3 14 3f dd 8f b4 3c
       -0.45870045 -0.07837578 0.58086973 0.022041256
000050 27 4c 49 3e c7 ff 71 be 80 94 da 3e b1 c4 eb 3e
       0.19657956 -0.23632728 0.42691422 0.460485
000060 b8 1e 11 bf a1 13 95 3e fb 0d a3 3e b7 5e 13 bd
       -0.566875 0.29116538 0.31846604 -0.035979
000070 f0 40 c7 bc c6 ba 12 3f 42 97 76 3c 21 1b 34 be
       -0.024322957 0.57316244 0.015050711 -0.17588474
000080 f6 90 34 3f 60 07 a0 3e 3e d9 ab be b3 cf 26 bf
       0.7053369 0.31255627 -0.3356418 -0.65160674
000090 25 b0 67 3e 59 ec c5 be 17 d7 20 bf 44 9b 23 3f
       0.22625788 -0.3865688 -0.628282 0.6390879
0000a0 ee 2c 15 bf f2 37 d5 be 00 3f 8e 3d 1d de a1 3e
       -0.5827168 -0.41644245 0.0694561 0.3161477
0000b0 29 7a 9c 3d 1d 68 80 be 69 a0 76 be 2c 8d 24 bf
       0.07640488 -0.25079432 -0.24084629 -0.6427791
0000c0 9f cd 0f 3e 2e 5a 17 be c1 83 97 bd 70 35 21 3d
       0.14043282 -0.14780495 -0.07398177 0.039357603
0000d0 98 53 91 bd 98 3d 65 3e bb f4 b5 3e 59 97 57 bb
       -0.07096022 0.22386777 0.35538277 -0.0032896607
0000e0 be a4 8e be c8 c0 0b 3e 68 5e 28 3f 76 78 94 be
       -0.27860063 0.13647759 0.6576905 -0.28998154
0000f0 bc d3 e5 3d cf 7c e6 3e 5c 5a 16 3f d4 2b b5 3e
       0.11222026 0.45017096 0.5873163 0.35385
000100 6c fd cc 3c 30 cf a7 bd 26 d3 d3 3e b8 b7 7c be
       0.025023185 -0.08193815 0.4137203 -0.24679458
000110 bb 10 6e 3e 81 dc e1 be 5e aa 9d be a5 c7 0c bf
       0.2324857 -0.44113544 -0.30794042 -0.54992133
000120 a1 b8 a3 3e ac 09 a0 3e 47 6c 53 be d0 dd 20 3e
       0.31976798 0.3125738 -0.20646773 0.15709615
000130 c5 57 6a bd 3c 9c 05 3d d9 a2 c3 3e 4c 2c 1c be
       -0.05721261 0.0326197 0.3821018 -0.15251273
000140 df 84 a0 3e ae 9d 96 3e 9c d5 a9 be 90 60 6e be
       0.31351373 0.29417175 -0.33170784 -0.23279023
000150 c4 a8 fe be 4e e1 ad 3e 0e 35 ba be 6b be a6 3d
       -0.49738133 0.33960956 -0.36368603 0.08141788
000160 e3 85 a9 bf 34 d8 f9 3e 1a 56 8c be e6 07 35 be
       -1.3243984 0.48797762 -0.2740944 -0.17678794
000170 2b 83 9e be dd 88 08 3f 9f dc a6 3e 6e 3b 0e 3f
       -0.30959448 0.53333837 0.32590196 0.5555943
000180 69 ad 8e 3d fa 39 4d 3e 14 53 68 3d d0 ed 41 bd
       0.06966669 0.20041648 0.056719854 -0.047345936
000190 f3 c0 75 3f d4 5e 11 3f ca 6d 13 3e df bc 24 3f
       0.9599754 0.5678532 0.1439735 0.64350694
0001a0 e8 79 84 be c0 ab 3d 3d 1f 7d 46 bd 37 82 51 bd
       -0.25874257 0.04630637 -0.04845917 -0.051149573
0001b0 3c 4a 73 3e dd bc c9 3d 13 bd 9b be 9a 07 22 3e
       0.23758787 0.09850476 -0.3041769 0.15823212
0001c0 6e 03 e5 3e 84 66 d2 be e9 c6 31 3f 24 8f 9c be
       0.4472918 -0.41093838 0.6944414 -0.30577958
0001d0 08 63 94 3e 69 92 2c 3f 59 7f 87 be 48 54 b3 3e
       0.28981805 0.67410904 -0.26464346 0.3502524
0001e0 8d 6e 37 be c0 f5 2f 3e b2 dd 9a bd db d6 2a be
       -0.17913266 0.1718359 -0.07561816 -0.16683523
0001f0 2b 64 47 be 72 e9 06 3f 45 d5 30 bf 44 33 0c 3e
       -0.19471805 0.5269996 -0.69075423 0.13691431
000200 57 1f f0 bc 69 10 10 bf 07 a1 c7 3e 16 4a 0b 3f
       -0.029311819 -0.5627504 0.38990042 0.5440992
000210 74 3b f1 be 26 d1 e7 bd a9 ea d0 bc 8e 83 d1 be
       -0.47115672 -0.11319189 -0.02550252 -0.4092068
000220 df 3c 50 bf c2 20 4a 3f b1 2a 63 bd 05 e4 aa 3e
       -0.8134288 0.78956234 -0.055460636 0.3337709
000230 ef 9f d2 3e 84 62 24 3e a0 0b 03 3f 4d 5e 13 3f
       0.41137645 0.16053206 0.51189613 0.57565767
000240 b3 9e f6 3d 6a e2 1e bf cb 07 f7 bd 39 2a 22 bf
       0.12041988 -0.6206423 -0.12062033 -0.63345677
000250 5a 86 82 be f5 40 4d 3e c7 e2 02 3f a8 bf 14 be
       -0.25493127 0.2004431 0.51127285 -0.14526236
000260 29 94 63 3e 30 e3 ab 3e 3e 32 32 be 24 6c a9 3e
       0.22224487 0.33571768 -0.17401978 0.33090317
000270 fb 0e 0a 3f 46 9b 86 be ec b9 3d be 51 c1 52 bf
       0.5392911 -0.2629034 -0.18527955 -0.8232623
000280 94 5d 2b 3f 8d 4d c2 be 93 47 12 3f cf 06 43 3e
       0.66939664 -0.37949792 0.57140464 0.19045566
000290 3f b5 ef 3e 52 64 0c bf 3c 94 ee be 55 1f c1 be
       0.46817967 -0.54840577 -0.4659747 -0.37719217
0002a0 44 62 31 3c d9 09 a0 3e e5 3b 1d bf 72 dd 44 bd
       0.010826651 0.31257513 -0.61419517 -0.04806275
0002b0 4b f6 f1 3d 22 7d c5 3e 62 6e 06 3f 68 e1 f3 3e
       0.11814555 0.3857203 0.5251218 0.4763291
0002c0 35 09 6a 3e 8b 7d 23 bf fe 12 2a 3e 2c d9 cd 3e
       0.22855075 -0.6386344 0.16608807 0.40204751
0002d0 25 de 73 3e 95 10 3c 3f 1d 12 84 be 09 bb 33 3e
       0.2381521 0.734628 -0.2579507 0.17551817
0002e0 18 71 39 3f 02 cb 0e 3f da 04 71 bf ac 85 23 bf
       0.7243819 0.55778515 -0.9414803 -0.6387584
0002f0 ba 52 20 3e e0 dc 49 3f e5 3f 67 3f 57 b8 18 bf
       0.15656558 0.78852654 0.9033187 -0.5965628
000300 6f 85 96 bd 7c cb 6e be d9 12 c9 3e 68 35 4f be
       -0.07349669 -0.2331981 0.39272192 -0.20235217
000310 f2 58 ad bd 03 0e 60 be 7e 9b ee 3e 4d b8 9d be
       -0.084642306 -0.21880345 0.46603006 -0.30804673
000320 83 12 62 3d 2b 34 16 be 4d 50 b4 3e 3d 83 94 bd
       0.055193435 -0.14668338 0.35217515 -0.07251594
000330 ea 08 34 3f 53 f2 94 bd ba 24 dc be 6a e4 95 be
       0.703261 -0.07272782 -0.4299677 -0.2927583
000340 e0 32 9e be 0a cc 72 be 32 f7 ef 3d c3 1b 96 bb
       -0.3089819 -0.23710647 0.11717071 -0.004580946
000350 ce 93 f4 be 1e 8e f4 be e2 8a 0e be 23 22 61 3f
       -0.47769016 -0.47764677 -0.13920167 0.87942713
000360 00 50 56 bf 91 28 21 3f 3b 63 2e bf 26 a6 79 be
       -0.8371582 0.62952524 -0.68120164 -0.24379787
000370 67 6f 51 3d 18 c6 48 be 8d 0b 59 bd c3 c8 6e 3d
       0.051131632 -0.19606817 -0.05298953 0.05829693
000380 94 a3 a0 be 01 e1 da 3c 1c 81 ac 3e b7 14 2b be
       -0.313748 0.026718618 0.33692253 -0.16707121
000390 c7 df 1d 3f 9e 84 cd 3d 41 0a 1d 3f b6 79 19 3e
       0.6166958 0.1003506 0.6134377 0.14987835
0003a0 67 f8 4c bf 38 04 24 be db 1a 92 3c eb 74 cb 3e
       -0.8006653 -0.16017234 0.017835071 0.3973764
0003b0 1f fc f0 bd 9f 44 bc be 9b 69 89 3e e8 01 f2 3e
       -0.11766838 -0.36771104 0.26838383 0.4726708
0003c0 66 1a 10 3f 20 ca fe 3d e8 83 35 3e 9d 71 d5 be
       0.5629028 0.12440896 0.177261 -0.41688243
0003d0 b8 b4 1b be 02 94 f4 3d b0 2f 1e bd a6 23 f3 3e
       -0.15205657 0.11942293 -0.038619697 0.47488135
0003e0 57 d3 c8 be d4 f1 7f 3d 40 79 1a bf 8e 88 83 be
       -0.3922374 0.062486485 -0.6034126 -0.2569012
0003f0 4c ad 05 3f d7 89 c4 be 3c 4f 00 bd 6f ef 7d 3e
       0.52217555 -0.38386413 -0.031325564 0.24798368

network_body._body_endoder.seq_layers.0.bias f4 [128]
000000 b7 59 9f bc 84 9d 04 3c 07 76 90 3c 51 ec d5 3a
       -0.019451959 0.008094195 0.017634405 0.0016321038
000010 1c 0a c5 3c 78 2d bd 3c ba 32 d0 3b 81 39 22 bc
       0.024052672 0.02309297 0.0063537033 -0.009901405
000020 6e 33 63 3c 80 9c 86 3c 27 a1 b9 3c fb 2f ee 3c
       0.013867242 0.016432047 0.022659851 0.029075613
000030 9f 9b 6e 3c ee 5e be 3c e7 3e 77 bc d9 67 79 bc
       0.01456347 0.023238625 -0.015090681 -0.015222513
000040 26 e3 ab 3c 16 07 7f 3c 24 30 b3 3c 47 2d e8 3c
       0.020982336 0.015565654 0.021873541 0.028341902
000050 16 14 b9 bc db b2 7d b9 ba 70 bf 3c d5 80 41 3c
       -0.022592586 -0.00024194589 0.023369182 0.011810501
000060 2c 76 95 ba f1 e2 ef 3c 21 05 7a 3c 99 c9 32 3d
       -0.0011403016 0.029283019 0.015260012 0.04364929
000070 b5 95 0c bc b8 ae 6b 3c 44 3d 8d 3c 19 95 a6 bc
       -0.008580615 0.014384918 0.017241128 -0.020334767
000080 1d a5 35 bc 8c 43 6d bc c8 0f 42 3b ef a7 bc bb
       -0.011086729 -0.014481436 0.0029611457 -0.005757324
000090 bf d4 9e bc fd 91 74 3c 5e f0 e8 3c ce fe c9 b9
       -0.019388555 0.014927384 0.028434929 -0.00038527552
0000a0 d3 29 07 3c fa 5a d5 3c 52 79 96 3c 0d e5 69 3c
       0.008249718 0.026044358 0.018368397 0.014275801
0000b0 19 2c 80 bc 16 ef 7c 3c b4 5f 24 bc d8 75 09 3d
       -0.015646027 0.015437862 -0.010032583 0.03355965
0000c0 02 36 52 bc fc 2a aa 3c 5f e2 7c 3c aa 5c 9b 3c
       -0.012830259 0.02077245 0.01543483 0.018965084
0000d0 8f 60 7e bc 9a 63 af bc 2c 64 6c 3c 90 0a 90 bc
       -0.015525951 -0.021409798 0.01442818 -0.017583162
0000e0 9f 75 d0 3c 5e 01 2a bb d9 cf f8 ba 05 a5 2d 3c
       0.025446711 -0.0025940756 -0.0018982842 0.010598426
0000f0 80 1a 93 3b 6f 38 d3 3c e9 35 49 3c 02 bf 8e bb
       0.004489243 0.025783746 0.01228092 -0.004356266
000100 fb cc a3 bc af f1 eb b8 f4 71 0c 3c e6 91 3e 3c
       -0.019995203 -0.0001125069 0.00857209 0.011631465
000110 6e b6 91 3c 16 ac 2c 3c f3 5c aa 3c 86 c2 af bc
       0.017787185 0.010539075 0.020796275 -0.02145506
000120 c1 fc f3 3c 34 46 dd 3c 26 e5 44 bb c3 5b ee 3c
       0.029783608 0.027011015 -0.003004381 0.02909649
000130 7c dd 74 3c 1d 10 ad bc 0c 29 2e 3b 20 53 41 bc
       0.014945384 -0.021125847 0.0026574759 -0.011799604
000140 8f 55 b1 3c 77 05 bb 38 fb 48 35 bc 9d 4a a8 bc
       0.021647243 8.917873e-05 -0.011064763 -0.02054339
000150 cc e5 50 bc d1 bb a2 3c 7f d5 4c 3c fe af e6 3c
       -0.0127501 0.019864948 0.012502073 0.028160091
000160 65 8c c5 3c a3 e5 a6 3c 56 aa c5 3c 93 73 cf bc
       0.024114797 0.020373171 0.024129074 -0.025323665
000170 fe 6b ff bb ae 7d 35 bc 28 65 fc 3c 79 48 00 3c
       -0.007794856 -0.011077328 0.030809954 0.007829779
000180 e2 f6 f9 3b 0c 62 0d 3d bb 36 b8 bc 5d 22 a0 3a
       0.0076283077 0.034517333 -0.022487035 0.0012217272
000190 7f 34 80 bc bb 29 84 3b 73 9a 12 3c 0f 35 7f bc
       -0.015650032 0.004033295 0.008947956 -0.015576615
0001a0 59 cc fc 3b 92 92 e4 bb 44 f4 e0 39 b2 7d 9b 3c
       0.00771479 -0.0069754804 0.000429066 0.018980835
0001b0 05 e5 cc bc 0b 5f 09 3a 52 f7 b4 3c 0f f0 b2 bc
       -0.025011549 0.0005240298 0.022090588 -0.021842984
0001c0 3a bb 2b bc fe 02 31 3c 11 c1 8f 38 d0 31 f9 3b
       -0.01048165 0.010803936 6.854733e-05 0.007604815
0001d0 9f 87 9a 3c 4f 21 c8 bc 3c 30 10 3c cf d6 a0 3b
       0.018863497 -0.024429945 0.0088005625 0.0049084197
0001e0 56 24 2d bb 50 dd 01 bd 5a 24 23 bc ad 74 b5 bc
       -0.0026419363 -0.0317052 -0.009957397 -0.022150362
0001f0 3e 13 c1 bb 18 63 12 bc f5 1b cd 3c 4d b9 8a bb
       -0.0058921864 -0.008934759 0.025037745 -0.0042335154

network_body._body_endoder.seq_layers.2.weight f4 [128, 128]
000000 8a 62 b6 3d 09 d4 72 3c 54 06 21 3d 0c 2d 8c bd
       0.089055136 0.014821061 0.039312676 -0.068445295
000010 db ed 9d bb 80 56 ba 3d 70 4b 0b 3e 1e ab 1c bd
       -0.0048196143 0.0909853 0.13602996 -0.038249128
000020 c9 d5 d6 bd 8e 7d 6f 3d 52 23 30 bd 87 9f 4d 3e
       -0.10489995 0.058469348 -0.043002434 0.20080386
000030 49 9a c7 bd 99 57 17 bd 79 63 9a 3d 33 9b 40 3e
       -0.097462244 -0.036948774 0.07538504 0.18809204
000040 6c ae 06 be 32 6a 40 3d 65 7e 94 3d de e7 c1 bd
       -0.13152474 0.046976276 0.0725067 -0.09468053
000050 ad a5 77 3d 0b 58 0f bb f4 10 a9 bd a3 b6 7f bd
       0.060460735 -0.0021872546 -0.08255187 -0.062430035
000060 3d 43 d3 bd da c8 3f 3d 05 32 02 3e e2 0e 46 3e
       -0.10315559 0.046822406 0.12714393 0.19341615
000070 b6 46 b4 bd 78 70 fa bd ea 41 1f 3d 65 99 86 bc
       -0.088025495 -0.12228483 0.03888122 -0.016430566
000080 7f 19 8c 3d e7 53 84 bd 0c 56 f5 3c 6c 10 3b bd
       0.068408005 -0.064613156 0.029948257 -0.045669958
000090 44 b4 83 bd 33 ff 54 bc d8 58 3b be 27 7c 03 3d
       -0.06430867 -0.013000297 -0.1829561 0.032100823
0000a0 73 63 c1 bd 16 4a c4 bb 39 71 3e be 82 87 ef 3d
       -0.094427966 -0.005990277 -0.18597879 0.11695768
0000b0 a4 a8 7f 3d c7 be 44 3e 7c 28 00 3d 4e db 71 bd
       0.062416688 0.19213401 0.03128861 -0.059047036
0000c0 6a 82 5d 3c d6 f3 3e bd c4 7b 71 3d 37 9e 0a bd
       0.013519863 -0.04661926 0.058955923 -0.03384229
0000d0 75 65 77 bd 1a 35 e2 3d 5f 44 a4 3d 55 ec 5a 3d
       -0.06039949 0.110452846 0.08020853 0.05344804
0000e0 d1 ae 7f bd af b8 91 bd 96 fd 0a 3d b4 00 04 3d
       -0.062422577 -0.07115304 0.033933245 0.032227233
0000f0 e3 c9 44 3d ce 3b 85 bd 08 25 e0 bd 40 33 cc 3c
       0.048044097 -0.065055475 -0.10944563 0.024926782
000100 93 c1 74 3d b1 0e b2 bd 10 2b 50 3c 41 32 0c 3c
       0.05975492 -0.086942084 0.012705579 0.008556903
000110 14 47 3f be 7f 02 88 bd 5c d8 ad 3d 8f d9 0b 3e
       -0.18679458 -0.06641101 0.08488533 0.13657211
000120 33 0d 9d 3d 61 ee c1 3c bd 95 9c be 1b cc 37 3c
       0.07668533 0.023673238 -0.3058299 0.011218096
000130 7d 68 98 bd 7c aa 6a bd 55 dd 41 bc 63 bc 46 be
       -0.074418046 -0.057291493 -0.011832555 -0.19407801
000140 df c2 89 3c 80 76 cc 3d 41 4d 04 3e 8d 05 da 3c
       0.016816555 0.099835396 0.12920095 0.026613975
000150 02 84 f3 3d ce ea b5 3c cf 19 82 bd e5 51 93 bd
       0.11890413 0.02220669 -0.06352579 -0.071933545
000160 68 7d 24 3e a5 19 81 3c 12 9a 8c 3d 8e 67 ab bd
       0.16063464 0.015759299 0.06865324 -0.08369361
000170 69 a3 b6 3d fc 82 5a be cd 65 2b bd e1 1e 8b 3c
       0.08917887 -0.21339029 -0.04184513 0.016982498
000180 40 8c 5e 3d 8c f0 c1 3b 85 67 02 be 9d 64 50 3d
       0.05433297 0.005918568 -0.12734802 0.050877202
000190 03 df cf bc 0a 98 38 3e db 35 44 3e df b6 62 3e
       -0.025374895 0.18026748 0.19161169 0.22140072
0001a0 8e 30 1e be c8 79 25 bc 1e b2 45 bd 75 7a 93 bd
       -0.1544821 -0.010099836 -0.04826557 -0.07201091
0001b0 cc f7 b9 3d fd 16 6d bd 53 a3 56 bb 1b 87 c3 bd
       0.09080467 -0.05788325 -0.0032751157 -0.09547254
0001c0 c6 f3 8c bd af 69 89 3c 2c 21 0a 3d c6 1f fc 3c
       -0.068824336 0.016774027 0.03372304 0.03077687
0001d0 4e ad fa bd 5e 24 96 3d 91 1b 29 be 2a 92 a5 3d
       -0.122400865 0.07331155 -0.16514422 0.08084519
0001e0 4f 5b ed 3d a9 ac 41 bc cf df a7 bd 45 bf 72 bd
       0.11589681 -0.011820951 -0.08196985 -0.05926444
0001f0 bb 24 6b bd 91 a4 e8 3c 59 a9 8c bd d4 b4 0f be
       -0.057408076 0.028398784 -0.06868238 -0.14033824
000200 d9 b3 12 3e e3 eb cd bc 52 03 ba 3d 10 95 37 bd
       0.14326419 -0.025136894 0.090826645 -0.04481989
000210 63 96 1e 3e 48 b1 c6 3d 9f e4 60 bc 67 0a 00 be
       0.15487055 0.097017825 -0.0137263825 -0.12503968
000220 1d f7 fb bd 59 5b 13 be 10 cd 0b 3c 6d bb 9b bc
       -0.123029925 -0.14390315 0.008532777 -0.01901027
000230 3e d7 40 3d 7b d9 9f 3d a6 f7 5e bd c5 fe 20 3e
       0.04708027 0.07805153 -0.054435395 0.15722187
000240 38 85 4f be be aa 08 3e 9d 0b 39 be e1 01 70 3d
       -0.20265663 0.13346383 -0.18070836 0.058595542
000250 56 a0 c0 3d b9 98 01 be fe 49 77 3d a2 03 86 bd
       0.09405582 -0.12655915 0.0603733 -0.06543662
000260 5a 5f 01 3e 34 f5 9b 3d e2 e7 fb 3d 19 f1 37 3c
       0.1263403 0.07615128 0.123000875 0.011226916
000270 b4 43 3e be 2b 99 b7 bd 72 b6 fa bd 3c 4d 90 3d
       -0.18580514 -0.08964761 -0.1224183 0.07045981
000280 19 48 1e bd c0 75 83 3d 87 28 bb bd 85 e7 db 3c
       -0.038642976 0.064189434 -0.09138589 0.026843796
000290 5c a4 b3 3d 65 84 f1 3d 2b 61 a0 bd 99 15 87 bc
       0.087715834 0.117928304 -0.07831033 -0.01648979
0002a0 f6 b8 a2 3d 7b 8c 4c 3b e7 e4 95 3c 2b e8 64 bd
       0.07945435 0.0031211663 0.018297626 -0.055885475
0002b0 3a d4 de bb 38 86 3b 3c c2 b2 11 3d 14 81 71 3d
       -0.0068002017 0.011445574 0.035570867 0.05896099
0002c0 c9 a0 85 3d f3 84 67 bd 6a 9b 9a 3d 19 71 d6 3d
       0.06524808 -0.056523275 0.07549174 0.104707904
0002d0 50 bb fa 3c c2 4b 84 bd 00 e9 f6 bd 2f 79 90 3d
       0.030606896 -0.06459762 -0.1205616 0.07054364
0002e0 4c 2a a1 bd 1d 78 54 bd 92 88 3e bc 5c e3 10 bc
       -0.078693956 -0.05187236 -0.011629241 -0.008843269
0002f0 7b c0 db bd 55 7c 50 3d d4 5e 07 3d c5 9b af bc
       -0.10730072 0.050899822 0.03304942 -0.021436581
000300 e0 6b c7 bd 7b 02 28 bc 80 fa 83 bd d0 6b 5e be
       -0.097373724 -0.010254498 -0.064442635 -0.21720815
000310 fe 64 23 3e 7d 64 0b 3e 04 71 92 bd 62 3e 10 bd
       0.15956494 0.13612552 -0.07150462 -0.035215743
000320 c9 59 2c 3e c1 33 10 3c e8 85 10 bd 69 3b 30 be
       0.16831125 0.008801402 -0.035283953 -0.17210163
000330 b3 15 e0 3c e6 66 29 3e 7e 17 f1 bd 97 8a 04 be
       0.027354097 0.16543159 -0.11772059 -0.12943493
000340 bc fe c1 bd 00 df 09 bd 02 ba 94 3d 78 12 43 3e
       -0.09472415 -0.033659935 0.07262041 0.19050014
000350 a6 dc 61 3d da e9 de 3c ad ee 47 3b c1 ae 6e be
       0.055142067 0.027211118 0.0030507252 -0.23308851
000360 e8 ed f1 3c 57 cd a6 bd 66 f4 42 3d 67 f1 3e 3d
       0.029532388 -0.08144634 0.047596358 0.046616938
000370 46 d0 23 be 65 65 a8 bd b3 54 5d 3d 47 a9 95 bd
       -0.15997419 -0.082224645 0.054035854 -0.07307678
000380 65 4f c8 bd 2a 43 c7 bd 08 53 d8 3d d3 b9 4a 3e
       -0.09780768 -0.097296074 0.10562712 0.19797449
000390 aa cf 45 bc 1d 33 f6 3d 45 a0 0b bd bf 3a c8 3d
       -0.012073437 0.12021468 -0.03408839 0.0977683
0003a0 64 6c 30 3e 16 7c 81 bd 81 fa 91 39 88 88 48 bd
       0.17228848 -0.06322496 0.00027843195 -0.04895833
0003b0 76 5f 8a bc 69 bb 02 3e a9 b4 be 3d 23 6b 97 3d
       -0.016891222 0.12766804 0.09311802 0.073934816
0003c0 d4 ed d1 3d f0 c2 33 bd 91 f7 be bb d6 22 8e 3d
       0.1025044 -0.04388708 -0.005827852 0.06940238
0003d0 66 77 8d bc b3 50 a2 bd 25 24 fb bd 51 a8 6a bd
       -0.017268848 -0.079255484 -0.122627534 -0.057289425
0003e0 4c 94 46 3d 87 0f 4f 3d 98 e5 dd 3d 31 31 97 3d
       0.04848127 0.050551917 0.10834807 0.073824294
0003f0 71 00 b3 bd 94 d4 1f 3e e8 3f 3e 3d cc dc 87 3d
       -0.087403186 0.15608436 0.046447664 0.066339105

network_body._body_endoder.seq_layers.2.bias f4 [128]
000000 74 20 bd bc d0 9b 80 bb 18 03 d0 3c 5b bf de 3c
       -0.023086764 -0.0039248243 0.0253921 0.027190855
000010 dd 76 dc 3b 98 89 6c bc 9c f7 4e 3c 50 9b 57 bb
       0.006728037 -0.014437102 0.012632277 -0.003289897
000020 18 d4 e9 3b 62 61 6d bc e7 d7 00 bb 13 77 2c 3c
       0.0071358792 -0.01448855 -0.0019659938 0.010526436
000030 80 ca 5d bc fb fa c7 bc ab cd a9 3b 08 ee 3e bc
       -0.013537049 -0.024411669 0.0051819882 -0.011653431
000040 a9 6e 83 3c 92 f5 08 bc bf f4 99 bb 2c 74 5e 3c
       0.016043978 -0.00835933 -0.0046983655 0.013577502
000050 09 0a 3c 3c 32 bc 12 bc 6f fe 88 bb d9 47 b7 ba
       0.011477002 -0.008956002 -0.0041807215 -0.0013983204
000060 63 b3 a0 3c 61 6f d4 3c fc 81 2c 3c 8e 01 6f 3c
       0.019616788 0.025932016 0.010529038 0.014587773
000070 34 b1 dd bb 51 40 83 bc eb c8 6b 3c bd 31 34 3c
       -0.006765509 -0.01602188 0.014391164 0.010998187
000080 28 e0 bf 3b 56 7a 46 3c 4b 33 bb bc a3 cc 7c bc
       0.005855579 0.012114128 -0.022851607 -0.015429649
000090 7a ff 13 3d 9a f5 3f bc ef d2 16 3d f3 07 a8 3c
       0.036132313 -0.011716271 0.036822256 0.020511603
0000a0 c0 e7 8f bc 85 d3 a4 3c 70 9c a2 bc 7b 75 dc 3c
       -0.017566562 0.020120392 -0.019849986 0.026911488
0000b0 8b 3c 4f bc 70 fc 7e bc 27 bd 7d bb 76 81 30 3c
       -0.012648712 -0.0155631155 -0.003871748 0.010773053
0000c0 73 7b 69 bc c3 03 54 bb 60 fd 82 bc 01 c2 d8 bb
       -0.014250624 -0.0032350875 -0.01598996 -0.006614924
0000d0 ff e6 b0 3c 99 de 2f 3c 71 27 0f 3d 77 e3 b9 3c
       0.021594523 0.010734224 0.034949724 0.022691472
0000e0 90 c1 a7 3b b6 9a 7f bc f7 3b ac 3c 9a a0 8b bc
       0.00511951 -0.015600851 0.021024687 -0.017044354
0000f0 87 df de 3c b2 9b 9a bc ed 8d b6 3c 10 1a a7 bc
       0.027206196 -0.01887307 0.022284472 -0.02039817
000100 40 ed 90 3c e5 0e 98 3c 45 81 d2 3c 7e 04 78 bb
       0.017691255 0.01856179 0.025696406 -0.0037844474
000110 33 f3 57 3c 03 ea 2a 3c 3d 7f 22 bc 08 bd 32 3b
       0.013180542 0.010431769 -0.009918031 0.0027273316
000120 96 6d a7 bc b3 e4 5a 3c 0a 00 98 3c 5b a8 81 3c
       -0.020437997 0.01336019 0.018554706 0.015827348
000130 12 54 b2 3c 3a a4 65 bc ac 6a d2 bc 88 5b 02 bc
       0.021768603 -0.014016205 -0.02568563 -0.007956393
000140 54 72 02 bc f6 54 45 3c c9 3d ef 3c 65 25 46 3c
       -0.007961828 0.012044182 0.029204266 0.0120938765
000150 97 ed ac 3c 06 03 a7 bc 9b 99 91 bc 44 57 cc bb
       0.021109385 -0.020387184 -0.01777344 -0.006235989
000160 94 6f 5d ba 28 28 c7 3c 25 ca 9d 3c ac 91 9c 3c
       -0.00084471074 0.02431114 0.01926143 0.01911243
000170 c4 52 c1 3c 40 16 17 bb 79 f0 35 3c 51 8f f7 3a
       0.023599036 -0.0023054034 0.011104696 0.0018887316
000180 7d e2 ab 3c a1 2b 07 3c 34 0e 73 3c e6 27 b7 3c
       0.020982021 0.008250148 0.014834929 0.022357892
000190 df 50 9b bc 7f a3 74 3c e9 ad 78 bb 67 ec ba ba
       -0.01895946 0.014931559 -0.0037945455 -0.0014261127
0001a0 b2 ff 9f bb e7 7a 24 3c 75 52 8c 3b 37 7c 7b 3c
       -0.004882776 0.010039068 0.0042822906 0.015349439
0001b0 06 fe 04 bc e8 bb 3c bc c9 60 d0 bb c6 d6 e4 3b
       -0.0081172045 -0.01151941 -0.006359194 0.006983611
0001c0 5c c3 4a 3c 68 af 58 bc a8 0a 71 3c 99 6c 6e 3c
       0.012375679 -0.013225414 0.014712013 0.014552259
0001d0 6c e5 96 3b 04 0a 04 3b d9 7a c2 3b 9d 2d 1c bb
       0.004604986 0.0020147571 0.0059350547 -0.0023830899
0001e0 16 27 d7 3c db ba a4 3b ad 4c ce b7 ca 97 5c 3c
       0.026263755 0.0050271577 -2.4592819e-05 0.013463924
0001f0 d5 9c 8a bc 9c 2c 2f bc 5d 90 bd 3c 35 92 c5 3c
       -0.016920486 -0.010691788 0.023140127 0.024117569

action_model._continuous_distribution.log_sigma f4 [1, 2]
000000 66 30 ec bd 17 70 59 bd
       -0.11532669 -0.053085413

action_model._continuous_distribution.mu.weight f4 [2, 128]
000000 88 bc f6 bc 30 43 37 3b d8 8b 47 3c d5 f6 10 3d
       -0.030119196 0.002796363 0.012179337 0.035391647
000010 7f 3d 43 bd 24 d6 01 bd 45 7d e0 3c 8a c8 24 bd
       -0.04766607 -0.03169836 0.027403483 -0.04023031
000020 a5 57 86 3c 6c 19 b3 bb 45 34 2b bd 4e 01 6d 3c
       0.016399214 -0.005465677 -0.041797895 0.014465643
000030 08 e4 e2 bc 02 5b cb bc 63 4f 94 bc 18 ef 3e bd
       -0.027696624 -0.02482367 -0.01810426 -0.046614736
000040 f2 54 ff 3c e4 bb b3 bc 69 aa 6c bd f6 b4 5b 3c
       0.031168435 -0.02194018 -0.057779703 0.013409844
000050 a0 1b cb bc 75 08 54 bd bc 8f ee bc 1f 8c a8 ba
       -0.024793446 -0.051765878 -0.029121272 -0.0012859142
000060 ef b1 1d 3d 01 67 14 3d b7 40 04 bb 8d 69 29 3d
       0.03849977 0.036231045 -0.0020180175 0.041360427
000070 19 ad 06 bd 89 c3 e7 bc 33 93 3c 3c f1 57 aa 3c
       -0.032879923 -0.02829148 0.011509704 0.020793887
000080 f7 6a 1f bb d8 27 74 3c 1f a6 eb bc cf 21 de bc
       -0.002432523 0.014902078 -0.028765736 -0.02711573
000090 53 4c 8b 3d a0 08 f9 bc c9 d8 51 3d f1 af 0a 3d
       0.06801667 -0.03039962 0.051232133 0.033859197
0000a0 c0 e0 ed bc d1 16 c3 3c 6e 8f 0f bc e1 b1 6d 3d
       -0.029037833 0.02381459 -0.008762224 0.058030967
0000b0 fe cf c0 ba 5c 01 78 bc 7c 02 a6 bc 6b b1 6b 3c
       -0.0014710424 -0.015137043 -0.020264857 0.014385561
0000c0 aa 89 b2 bc 17 08 37 bc b8 75 fa bc 95 98 0d bd
       -0.021794159 -0.011171362 -0.03057371 -0.03456934
0000d0 ce 99 81 3d 35 a4 5c 3c 7a 42 10 3d ec e7 9a 3c
       0.06328164 0.013466884 0.035219647 0.018909417
0000e0 61 8f 73 3c 45 cc d8 bc 4d af 21 3d 61 34 cf bc
       0.014865727 -0.02646459 0.03947382 -0.02529353
0000f0 93 f7 24 3d 6c e0 df bc d4 59 1f 3d bc 5e f6 bc
       0.040275168 -0.027328692 0.038904026 -0.03007447
000100 14 9c cc 3c 89 ea 6d 3d 08 46 49 3d 46 6b 6b bd
       0.024976768 0.058085 0.049139053 -0.05747535
000110 1c 24 9e 3c 36 b6 b5 3c ac ff d3 bc 58 d6 a4 3b
       0.019304328 0.022181612 -0.02587875 0.0050304346
000120 24 8c a8 3c dd b5 c8 3c 00 e1 f4 3c 92 6e 0b 3d
       0.020574637 0.024500782 0.029892445 0.034040995
000130 34 6f b8 3c 50 fb 34 bd 01 84 85 3c 78 dc 55 bd
       0.022513963 -0.044184983 0.016298296 -0.05221221
000140 77 2e 55 bd 4d e7 83 3c 67 75 3b 3d 91 0d 64 3c
       -0.052046265 0.016101504 0.04576626 0.01391925
000150 c7 28 b9 3c 7e 77 f9 bc a6 81 27 bc dc c4 38 3c
       0.022602452 -0.030452486 -0.010223782 0.011277404
000160 42 1a 33 bd 4b 3b 6c 3d 96 54 8b 3c 5a 34 ca 3c
       -0.043726213 0.057673734 0.017008107 0.024683166
000170 7e 10 58 3d 17 14 a6 3a c4 b6 54 3b 75 17 6c bc
       0.052750103 0.0012670782 0.003245757 -0.0144098895
000180 31 a3 89 3c 1e cd 09 3c 12 72 82 3c f1 e0 2c 3d
       0.016801449 0.00841072 0.015923534 0.04220671
000190 c3 25 de bc 5c 12 0b 3d e1 a0 0e bd 12 a0 56 bd
       -0.027117616 0.033953056 -0.034821395 -0.05239875
0001a0 90 70 19 3b e1 c7 b3 3c 1e 96 4d bd d9 aa 85 3c
       0.002341304 0.021945896 -0.05019199 0.016316818
0001b0 db e7 96 bc 05 01 d8 bb d2 c4 59 bc 4b 0c 7f 3c
       -0.018421104 -0.0065919184 -0.0132915545 0.015566896
0001c0 9c e7 bb 3c 98 84 e7 bc 21 ff 15 3d 3f 77 51 3d
       0.022937588 -0.028261468 0.036620263 0.051139113
0001d0 1a 27 1a 3a 94 29 13 bd 6f c5 80 bc be e6 02 bd
       0.00058804604 -0.035928324 -0.015719144 -0.031958334
0001e0 47 95 71 3c 5b 1e 0c 3b 3f b9 00 bd 64 ec c4 3c
       0.014745063 0.0021380398 -0.031426664 0.024038501
0001f0 cd 7c 68 bb 16 da 37 bd 5e 63 4b 3c 2b 2e 16 3d
       -0.0035474778 -0.044885717 0.012413828 0.036665123
000200 19 35 92 3c f6 09 36 bc ad 01 c8 3b 8d 0e 16 bc
       0.017847585 -0.011110773 0.0061037154 -0.009158743
000210 43 bf 1b bc 13 33 b0 bc 21 00 e8 bc ac 2e 45 3b
       -0.00950605 -0.02150873 -0.028320374 0.0030087633
000220 d5 ad 4a 3d 9f 20 18 bc 26 9e 14 bc 4f 19 2f bc
       0.049482185 -0.009285121 -0.009070909 -0.010687186
000230 3b cf d1 bc 67 7f 6a 3c 69 cb 20 3d d6 6e 79 bb
       -0.02561151 0.014312602 0.039256487 -0.0038060448
000240 6e bd ed 3c 8b fe bc 3b 54 b4 b6 3c 59 82 14 3c
       0.029020991 0.0057676486 0.022302784 0.00906428
000250 07 a2 a1 bc 07 b3 74 3c 74 4d e4 3b 2f de dc 3c
       -0.019730581 0.014935262 0.006967241 0.026961414
000260 10 c4 17 3d b0 b7 8a bb 71 3b 3a bc 09 bd 2c 3c
       0.037052214 -0.004233323 -0.011366711 0.010543116
000270 ad 3c aa bc 25 e1 cd 3c 65 8d b9 3c 23 5e 35 3c
       -0.020780886 0.025131771 0.02265043 0.011069807
000280 f3 85 40 3c fb 88 88 3c 52 cd a8 3b ce f7 fb 3c
       0.011750686 0.01666688 0.005151429 0.03075781
000290 ea 98 90 bc 30 4c 5f 3c 9c 87 1e 3b bb ea 17 3c
       -0.01765104 0.013629004 0.0024189716 0.009272273
0002a0 a5 85 b6 3a 28 17 df 3c 6f 7e 52 3a af e1 bc 3c
       0.0013925327 0.027232721 0.00080297043 0.023056833
0002b0 7c c4 06 3c 53 b3 8e 3b d5 fc 9d bc a5 17 c2 bb
       0.008225556 0.004354873 -0.019285599 -0.005923229
0002c0 36 e8 d5 3b 5a 87 91 3c 14 9d a0 3c b2 85 57 3c
       0.006527926 0.017764736 0.01960615 0.013154434
0002d0 8b 78 26 ba 9d 93 b4 3c a4 22 59 ba b7 81 bc bc
       -0.000635036 0.022043044 -0.0008283055 -0.023011072
0002e0 a4 17 99 bc 1b 1f 35 3c 3e 68 57 3c f9 79 a5 3b
       -0.01868803 0.011054779 0.013147412 0.0050499407
0002f0 ae f2 0a 3b 15 e9 f0 3c 1d 9e cd 3b 5c f9 19 bc
       0.0021201777 0.029408017 0.006274952 -0.009397831
000300 2c 01 7c ba 35 a0 09 bd 77 a2 b5 3b 07 10 cb bc
       -0.0009613212 -0.03360005 0.005543049 -0.024787916
000310 7b 7d 15 bc 13 ac 89 bc 5f d3 b3 bc b8 85 29 3d
       -0.009124155 -0.016805684 -0.021951376 0.04138729
000320 8f dd 34 bc fd a2 85 3c fd c8 46 bc a6 41 f8 bb
       -0.011039152 0.01631307 -0.01213288 -0.0075761853
000330 47 52 7e 3b 0f 01 67 bd 4e f8 8f 3c d4 fd b2 3c
       0.0038806365 -0.056397494 0.017574456 0.02184955
000340 b7 a0 76 bc fa e6 95 3d fc 06 41 3c a7 cb 9b 3b
       -0.015052966 0.07319446 0.01178145 0.004754502
000350 7b 68 48 3c 27 2b 9b bc 40 59 d0 3c 29 35 b6 3b
       0.012231941 -0.018941475 0.025433183 0.0055605364
000360 16 93 0a 3b d0 1f 0a bd 06 d1 e7 bc 10 9c 09 3d
       0.00211448 -0.033721745 -0.028297912 0.0335961
000370 bc 26 2f ba 05 3c 6a bc d9 ee 54 3c 50 1b d5 bc
       -0.0006681492 -0.014296536 0.012996399 -0.026014
000380 8b 9b 3f 3d b9 fc 50 3c 3d e6 3c 3c 47 f5 c0 bc
       0.046779197 0.012755566 0.011529502 -0.023554457
000390 86 72 48 bc f4 9f cb bc 30 64 ae bc ac 94 be bc
       -0.012234336 -0.024856545 -0.021288007 -0.023264252
0003a0 56 01 a5 3c 0d 51 ee bc 8b 6b ed bc 8d b1 01 bd
       0.020142239 -0.029091382 -0.028981945 -0.031663466
0003b0 e4 24 90 3c 9e 9f a7 bc 52 f9 39 bc e3 82 c5 3c
       0.017595716 -0.020461854 -0.0113509465 0.024110263
0003c0 c2 c5 e3 ba 79 2d 37 3c 73 50 03 bd 73 73 17 b9
       -0.0017377662 0.011180275 -0.032059144 -0.0001444349
0003d0 e0 d2 88 3c 9c 10 0d 3c ad 39 bb 3c 9d 34 80 bc
       0.016702116 0.008609917 0.02285465 -0.015650088
0003e0 02 53 bd 3c 5b 73 ef 3c 17 91 4e 3b e6 70 ac 3c
       0.02311087 0.02922981 0.0031519586 0.021049928
0003f0 2f 12 e3 bb 79 96 9e 3b 8d eb d4 bb fb 5e c1 3c
       -0.006929658 0.004839715 -0.0064978064 0.02360486

action_model._continuous_distribution.mu.bias f4 [2]
000000 e8 63 a9 3c 97 68 aa 38
       0.020677522 8.125713e-05
