CS455_PR1/results/ShootTargetAgent_T6/ShootTargetAgent/ShootTargetAgent-106455.onnx (onnx, 490788 bytes, 18 tensors)

discrete_act_size_vector f4 [1, 2]
0	0x42480000	50.0
1	0x42480000	50.0

network_body.observation_encoder.processors.0.conv_layers.0.weight f4 [16, 1, 8, 8]
0	0x3d9ce112	0.07660116
1	0xbd8cb269	-0.068699665
2	0x3da1544f	0.07877409
3	0xbd981e18	-0.07427615
4	0xbda38179	-0.07983679
5	0x3d56a3e8	0.052402407
6	0x3c2f0e17	0.010684512
7	0xbc4346fc	-0.011918779
8	0xbc9c0822	-0.019046847
9	0x3c80cd39	0.015722858
10	0xbd743d6c	-0.05962889
11	0xbd418693	-0.04724748
12	0xbdafb792	-0.08579935
13	0xbd3bc642	-0.04584337
14	0xbe0de9a6	-0.13858661
15	0xbd870755	-0.06593195
16	0xbe340276	-0.17579064
17	0xbba62047	-0.0050697657
18	0x3d279d08	0.04092124
19	0xbd2db645	-0.042410154
20	0xbe1163f6	-0.14198288
21	0xbe0d896a	-0.1382195
22	0x3bbebe24	0.0058210064
23	0xbd92a38d	-0.07160101
24	0x3d7ad827	0.061241295
25	0xbe19727e	-0.14985082
26	0x3c4d3e16	0.0125270095
27	0xbcdd0425	-0.026979515
28	0x3dd01c32	0.10161628
29	0xbc1dda6d	-0.009634596
30	0xbd8676bc	-0.065656155
31	0xbd99d7bc	-0.07511851
32	0xbd93148e	-0.07181655
33	0x3da174eb	0.078836285
34	0xbd4a11b4	-0.04933329
35	0x3d383b91	0.044978682
36	0x3dac0044	0.08398488
37	0x3d81bfd9	0.0633542
38	0xbbb42f08	-0.0054987706
39	0xbd8b604f	-0.06805479
40	0x3dd5a68d	0.10432158
41	0x3c862725	0.016376087
42	0xbd8d245e	-0.06891702
43	0x3c7f4147	0.015579528
44	0x3bcf0f88	0.00631899
45	0x3df44d35	0.119287886
46	0xbd10e371	-0.035373155
47	0x3d62240a	0.05521015
48	0xbd4dfa1e	-0.05028736
49	0xbd92ecba	-0.07174058
50	0xbdbcf646	-0.092266604
51	0x3dac8685	0.08424095
52	0xbcac5859	-0.021038221
53	0x3be77706	0.0070637492
54	0xbd297ab4	-0.041376784
55	0x3dc948a6	0.0982831
56	0xbbb9f5ff	-0.005675077
57	0x3dcbab69	0.09944803
58	0xbd9818ee	-0.0742663
59	0x3cf3e818	0.029773757
60	0x3e000256	0.12500891
61	0x3c9a3916	0.018826049
62	0xbb8ee25c	-0.0043604802
63	0xbc6407f1	-0.013917909
64	0xbde05ecb	-0.1095558
65	0x3d5ac7d9	0.053413246
66	0x3d302f78	0.04301402
67	0xbd8fe73e	-0.07026528
68	0x3ce7ed7d	0.028311485
69	0x3d4fb052	0.05070526
70	0x3d565f7a	0.052337147
71	0x3d72d0ca	0.059281148
72	0xbd47597b	-0.04866932
73	0xbd2a8fe1	-0.04164112
74	0xbdf55f3c	-0.11981055
75	0xbcf2d2a9	-0.029641466
76	0x3d722704	0.05911924
77	0x3dde15d5	0.10844008
78	0xbd717a1d	-0.058954347
79	0x3d1894ef	0.03725141
80	0xbd2403e0	-0.040042758
81	0xbcad6e00	-0.021170616
82	0x3d0e1218	0.034685224
83	0xbdefb95b	-0.117052756
84	0x3dd8c898	0.10585135
85	0x3dbb8ad2	0.09157337
86	0x3d7cbe04	0.06170465
87	0xbd74ed77	-0.059796777
88	0xbcf7536f	-0.030191151
89	0x3d0a233c	0.03372501
90	0x3cc45786	0.023967516
91	0x3cfa5c4f	0.030561594
92	0xbbc1260c	-0.005894428
93	0xbc153b5b	-0.00910839
94	0xbce404e4	-0.027834363
95	0x3e03ada8	0.12859213
96	0x3dfc84bc	0.123300046
97	0xbd00cece	-0.031447224
98	0xbafdf945	-0.0019376656
99	0xbd31a1f6	-0.04336735
100	0x3cb24479	0.021761166
101	0x3d675225	0.056474824
102	0x3dcfdcc5	0.1014953
103	0x3d893435	0.06699411
104	0x3d2e66b1	0.042578403
105	0x3e071568	0.1319176
106	0xbd4529d6	-0.0481356
107	0x3dbc4f4d	0.09194813
108	0x3d8192b8	0.063268125
109	0xbd53e2b6	-0.05172988
110	0x3d3761d0	0.044771016
111	0xbb595f9b	-0.0033168558
112	0x3dbceed3	0.092252396
113	0x3e026cac	0.12736768
114	0xbd66c6f3	-0.056342077
115	0x3de397dd	0.1111295
116	0x3e06f06d	0.13177653
117	0x3ddeab08	0.10872465
118	0x3db7aa27	0.08968001
119	0x3bd0a353	0.006367126
120	0xbd540a3b	-0.05176757
121	0x3dba8c16	0.091087505
122	0x3e0677f2	0.13131693
123	0x3e1ba5bf	0.15199946
124	0x3ce556a6	0.027995419
125	0xbd47fd70	-0.04882568
126	0xbd87625a	-0.06610556
127	0x3e0e900e	0.1392214
128	0xbc8358f7	-0.016033633
129	0xbd7a6707	-0.06113341
130	0x39496fc7	0.00019210494
131	0xbd09cbb3	-0.03364153
132	0xbd9d39dd	-0.07677052
133	0x3dacb665	0.084332265
134	0x3dc4e684	0.0961428
135	0x3bfaea21	0.007657305
136	0x3ca3de9e	0.020003613
137	0x3d479d34	0.048733905
138	0x3d1aafe6	0.037765406
139	0xbcc71eea	-0.024306733
140	0x3cf7cb7a	0.030248392
141	0x3db4ca18	0.08827609
142	0xbda0afcc	-0.078460306
143	0x3d5a4a8b	0.053293746
144	0x3ca8fd01	0.020628454
145	0xbd99d96b	-0.07512172
146	0xbc1c569d	-0.009542135
147	0xbdbfa2c0	-0.09357214
148	0x3dbe603d	0.092957
149	0xbd914973	-0.070940875
150	0xbcdc36b3	-0.026881551
151	0x3df9bb4b	0.121939264
152	0x3dd1f37f	0.10251521
153	0x3cca229e	0.02467471
154	0xbd456a8d	-0.048197318
155	0x3c2be19a	0.010490799
156	0xbde14894	-0.11000171
157	0x3d51666a	0.05112306
158	0x3b9c6ab2	0.0047734613
159	0x3dd395a2	0.103312746
160	0x3d252b8b	0.04032473
161	0x3ce5ecfd	0.028067106
162	0x3da7c466	0.08191757
163	0x3bda1071	0.006654792
164	0xbd9810cd	-0.074250795
165	0x3cff14d9	0.03113787
166	0xbd3bce86	-0.045851253
167	0x3dc51c39	0.09624524
168	0xbd14fd13	-0.036374163
169	0xbcb0c3c6	-0.021577727
170	0xbcac778d	-0.0210531
171	0xbdaadafe	-0.08342551
172	0x3d4d36ad	0.05010097
173	0x3de35889	0.11100871
174	0x3d6e64f3	0.05820174
175	0x3d93250a	0.07184799
176	0x3cd3340a	0.02578165
177	0xbd0e3cbc	-0.03472589
178	0x3d872dd7	0.0660054
179	0xbd2914aa	-0.041279472
180	0xbd0a9ff9	-0.033843968
181	0xbb496e58	-0.0030735936
182	0x3d9477b0	0.07249391
183	0x3e05b43a	0.13057032
184	0x3d987114	0.07443443
185	0x3dcf2ac4	0.10115579
186	0x3d2ad7e6	0.041709803
187	0xbdd25b69	-0.10271341
188	0xbde28762	-0.110609785
189	0x3bab4543	0.0052267625
190	0x3c603a5e	0.013685791
191	0x3dc4fd66	0.096186444
192	0xbe072824	-0.13198906
193	0xbe0afe43	-0.13573556
194	0x3d3b4eb4	0.045729354
195	0xbd81bca1	-0.06334806
196	0x3cb2f35b	0.021844557
197	0xbcd3e04e	-0.025863793
198	0xbdbab081	-0.09115697
199	0x3d9c36cb	0.076276384
200	0xbdd13079	-0.102143236
201	0x3b9be31e	0.004757299
202	0xbcba1b0f	-0.02271798
203	0x3de64a11	0.11244596
204	0xbde48361	-0.11157871
205	0x3ba024fb	0.004887221
206	0xbdd2e785	-0.10298065
207	0x3d6d4e1a	0.05793581
208	0x3d9fee64	0.07809141
209	0x3d812c84	0.06307319
210	0x3db93fa1	0.090453394
211	0xbd9e2cb9	-0.07723374
212	0x3db1aacf	0.08675157
213	0xbcea62ac	-0.028611504
214	0xbdc6e12e	-0.09710918
215	0x3ddd0d82	0.10793592
216	0xbd88ade4	-0.06673792
217	0x3be5901d	0.007005705
218	0x3dc4d086	0.09610085
219	0xbd2c4e84	-0.042067066
220	0x3d1c4713	0.03815372
221	0xbdae2f6f	-0.08505141
222	0xbd8cdc74	-0.068779856
223	0x3d05e5c5	0.03268983
224	0xbd368bbc	-0.044566855
225	0xbdf05582	-0.11735059
226	0xbe29af98	-0.1657089
227	0x3dc0ee89	0.09420497
228	0x3d425ba2	0.04745067
229	0x3ba621ad	0.0050699324
230	0xbddc8ece	-0.10769425
231	0x3dc3dbf6	0.095634386
232	0xbdfe3d98	-0.12414092
233	0xbd77c1bc	-0.060487494
234	0xbdc000b9	-0.09375138
235	0xbe0e918e	-0.13922712
236	0xbd4ebeb0	-0.050474823
237	0xbdced41f	-0.10099053
238	0x3cb3ded3	0.021956837
239	0xbd008d48	-0.031384736
240	0xbd956f00	-0.07296562
241	0xbd86f189	-0.06589038
242	0x3a233480	0.00062257797
243	0xbd72c696	-0.059271418
244	0xbd5979b3	-0.053094577
245	0xbde7b207	-0.11313253
246	0x3ded99aa	0.11601575
247	0xbd9924f5	-0.07477752
248	0xbda7fef4	-0.08202925
249	0x3c624279	0.013809794
250	0x3d2dff61	0.042479876
251	0x3d97951f	0.074014895
252	0x3cdc5569	0.026896195
253	0x3cf971be	0.030449744
254	0x3d904242	0.07043888
255	0x3dbc7635	0.09202234

network_body.observation_encoder.processors.0.conv_layers.0.bias f4 [16]
0	0xbd6ed84a	-0.058311738
1	0x3becec90	0.007230349
2	0xbcd3dda3	-0.02586252
3	0xbd2cd734	-0.04219742
4	0xbd841e1a	-0.06451054
5	0xbd0aed17	-0.033917513
6	0xbd141c79	-0.036159966
7	0x3d8aacde	0.06771253
8	0xbd031e8b	-0.03201155
9	0x3d9c9bce	0.07646905
10	0xbce293ff	-0.02765846
11	0xbd013fe8	-0.031555086
12	0xbd8f2b06	-0.06990628
13	0xbd526a14	-0.051370695
14	0x3a53de5b	0.0008082145
15	0x3c9a0e51	0.018805655

network_body.observation_encoder.processors.0.conv_layers.2.weight f4 [32, 16, 4, 4]
0	0x3d0f2ffc	0.03495787
1	0x3d259960	0.040429473
2	0x3c06ea3b	0.008234556
3	0xbd54e5dd	-0.051977027
4	0xbc8de7bc	-0.017322414
5	0xbc3cd520	-0.011525422
6	0xbd1710ad	-0.036881138
7	0xbd0983e8	-0.03357306
8	0xbd92a507	-0.07160383
9	0xbd692fb1	-0.056930248
10	0x3d112661	0.03543699
11	0xbde2c845	-0.11073355
12	0xbcdb8afb	-0.02679967
13	0xbc9053db	-0.01761811
14	0xbd1410ac	-0.036148712
15	0xbd3d0472	-0.046146818
16	0x3ca63808	0.02029039
17	0xbcbfd853	-0.023418581
18	0xbc337b92	-0.010954754
19	0xbd302868	-0.043007284
20	0xbc926380	-0.01786971
21	0xbbc1d4f7	-0.00591528
22	0xbd98e4fa	-0.07465549
23	0xbd6d98a4	-0.058006898
24	0xbd000aea	-0.03126041
25	0xbcfadde8	-0.030623391
26	0xbd030266	-0.03198471
27	0xbce93bb1	-0.028470846
28	0xbcecd1e8	-0.028908685
29	0xbbd2e3ab	-0.0064358315
30	0xbdd80167	-0.105471425
31	0xbd15d8b6	-0.036583625
32	0x3c982dbc	0.018576495
33	0x3d1da6c1	0.038489107
34	0xbd4686fa	-0.048468567
35	0xbd9d7f5a	-0.07690306
36	0xbd226ab0	-0.039652526
37	0x3d2cc78f	0.0421825
38	0xbcd10d87	-0.025519146
39	0xbbd16cfd	-0.0063911662
40	0xbcec80a1	-0.028869929
41	0xbce3556b	-0.027750691
42	0xbdc4fb7b	-0.096182786
43	0xbcc108a7	-0.023563696
44	0xbbdb004d	-0.0066833855
45	0xbda8e222	-0.082462564
46	0xbb796737	-0.0038055906
47	0x3d223aae	0.039606743
48	0xbd1a39eb	-0.03765289
49	0xbd024dd7	-0.031812515
50	0xbc01eb2c	-0.0079296045
51	0xbd955f0b	-0.07293519
52	0x3d4d9b35	0.050196845
53	0xbc931597	-0.01795463
54	0xbcb2b123	-0.021812981
55	0x3cb8a86c	0.022541247
56	0xbc8017f4	-0.015636422
57	0xbc8cccbc	-0.017187469
58	0x3c16e14a	0.009208987
59	0xbbf78640	-0.0075538456
60	0xbd49f222	-0.04930318
61	0xbdaa0e1e	-0.08303474
62	0xbd2b2490	-0.041782916
63	0x3c113e23	0.008864912
64	0xbcb8c8a1	-0.022556605
65	0x3a9d3df4	0.0011996613
66	0xbd958d7a	-0.07302375
67	0xbc6dec88	-0.0145217255
68	0x3c2e1953	0.010626155
69	0xbd856953	-0.065142296
70	0xbd2580e4	-0.040406123
71	0x3c529028	0.012851752
72	0x3d072235	0.032991607
73	0x3c9052ae	0.01761755
74	0xbcb0430b	-0.021516344
75	0xbb88990c	-0.0041686352
76	0xbd465ea5	-0.048430104
77	0xbcbf45f0	-0.023348778
78	0xbd354ac7	-0.044260766
79	0x3d9f64a9	0.07782871
80	0xbc74d8fe	-0.014944313
81	0x37a263d5	1.9358393e-05
82	0xbd58bbb3	-0.05291338
83	0xbd828f24	-0.06374958
84	0x3d486382	0.048923023
85	0x3d2ae587	0.0417228
86	0xbd835908	-0.06413466
87	0xbd31767a	-0.04332588
88	0x3cc95cdb	0.02458041
89	0x3d2f1b71	0.04275078
90	0xbd8026d7	-0.06257408
91	0xbdfef6ce	-0.12449418
92	0xbd191e0d	-0.037382174
93	0xbce64ecb	-0.028113743
94	0xbd20178f	-0.039084967
95	0xbd34a134	-0.044099048
96	0x3d955e4f	0.072933786
97	0x3d1dcf12	0.038527556
98	0x3c9df863	0.01928348
99	0x3d1b0b42	0.037852533
100	0x3cd94ce3	0.02652592
101	0x3c99ab1f	0.018758355
102	0x3b6fdbbb	0.0036599475
103	0xbd20b35d	-0.039233554
104	0x3db10857	0.08644169
105	0xbdc5296a	-0.0962704
106	0xbd014af2	-0.031565614
107	0x3d1c6df2	0.03819079
108	0xbccbd5cb	-0.024882218
109	0xbd707cc1	-0.058712725
110	0x3bc9fbc7	0.0061640474
111	0xbc7310f0	-0.014835581
112	0xbd1107a7	-0.03540769
113	0xbd0d127b	-0.034441452
114	0x3ce8da09	0.02842428
115	0x3d3f6006	0.046722434
116	0x3d1e8675	0.038702447
117	0xbd0ca6dc	-0.034338817
118	0xbd3a870a	-0.04553894
119	0xbd6468cc	-0.055764005
120	0xbd058d35	-0.03260537
121	0x3d253275	0.040331323
122	0x3c5d8147	0.013519592
123	0x3bb61a80	0.0055573583
124	0xbc57af90	-0.013164416
125	0x3c855aaf	0.016278593
126	0xbb9a800c	-0.0047149714
127	0xbc885d71	-0.016646119
128	0x3d60427a	0.054750897
129	0x3d051336	0.032489024
130	0xbd903eff	-0.070432656
131	0x3cd6014b	0.026123663
132	0x3ce198d7	0.0275387
133	0x3da8a3d5	0.082343735
134	0xbcf71ebe	-0.030166026
135	0xbd14d3a6	-0.036334656
136	0xbae4c7fb	-0.0017454618
137	0x3cd677f9	0.026180254
138	0xbd4111fd	-0.047136296
139	0xbd04e7db	-0.032447677
140	0xbb6e2e8b	-0.003634366
141	0xbd0f46da	-0.03497968
142	0xbd640a5f	-0.055673953
143	0xbc85e471	-0.01634428
144	0xbd8cbbbc	-0.06871745
145	0x3d7674f5	0.060170133
146	0xbd07ce51	-0.033155743
147	0xbd5d6d7e	-0.054059498
148	0x3bb6bd72	0.005576783
149	0xbd053db9	-0.032529566
150	0x3cc9ecd4	0.024649061
151	0x3c2b088d	0.01043905
152	0x3c225624	0.009908233
153	0xbcab53fb	-0.020914068
154	0xbd4959f3	-0.049158048
155	0x3bbf6329	0.0058406782
156	0xb9f20967	-0.00046164842
157	0xbcfca63f	-0.030840991
158	0x3c1c1a3e	0.009527741
159	0xbd99b8a8	-0.075059235
160	0xbd088b72	-0.03333611
161	0xbc93b8d6	-0.018032473
162	0xbd0a4ba7	-0.033763554
163	0xbd069be1	-0.0328635
164	0x3ce96473	0.02849028
165	0xbd6dd545	-0.058064718
166	0xbcf8e9ea	-0.030384976
167	0x3c36027f	0.011108994
168	0xbc9bd9e3	-0.019024795
169	0xbcc545e0	-0.02408117
170	0xbca867f6	-0.020557385
171	0x3d2f4757	0.042792644
172	0x3cdb5c06	0.026777279
173	0x3c59ea13	0.013300437
174	0x3d57f1dd	0.052720893
175	0xbd4e79a2	-0.050408967
176	0xbc8994db	-0.016794613
177	0xbcf20e46	-0.029547822
178	0x3b4ec286	0.003154905
179	0xbc701c5f	-0.014655202
180	0x3c1b1431	0.009465263
181	0xbbb22469	-0.0054364693
182	0x3cf713b4	0.030160762
183	0xbc5cb073	-0.013469803
184	0x3cc66a3b	0.024220577
185	0x3c3d6170	0.011558875
186	0xbd672046	-0.056427263
187	0x3c75914a	0.014988253
188	0xbdcbccfe	-0.099512085
189	0xbdc017c2	-0.093795314
190	0xbb429fd3	-0.0029697313
191	0xbdbe69b6	-0.092975065
192	0xbd06ac60	-0.032879233
193	0x3d3db65d	0.046316493
194	0x3d362d7c	0.04447697
195	0x3b6e6903	0.003637851
196	0x3d98b5c8	0.07456547
197	0xbb762d80	-0.0037563741
198	0xbb325f44	-0.0027217427
199	0xbd8d02f3	-0.06885328
200	0xbc55d166	-0.013050413
201	0x3d36a05d	0.044586528
202	0xbd392275	-0.045198876
203	0xbe19ea23	-0.15030722
204	0xbc86a236	-0.01643477
205	0xbd1317a5	-0.03591122
206	0x3d760015	0.060058672
207	0x3d08671f	0.03330147
208	0x3ce55795	0.027995864
209	0x3c9bbd53	0.019011175
210	0xbc8bc66a	-0.017062385
211	0xbddc6ac3	-0.10762551
212	0x3d80cb02	0.06288721
213	0xbd12839b	-0.03577004
214	0xbd631f15	-0.055449564
215	0xbd0920d4	-0.033478573
216	0xbd52208e	-0.051300578
217	0xbd8184b4	-0.06324139
218	0xbd1a81dd	-0.037721504
219	0xbd13ebae	-0.036113434
220	0xbd4cc6a3	-0.049994122
221	0xbd78c639	-0.060735915
222	0xbd1044a8	-0.035221726
223	0xbd2b8eff	-0.04188442
224	0x3dc4e3da	0.09613772
225	0x3ca6835b	0.020326307
226	0xbd34f9e9	-0.044183645
227	0x3c5415b0	0.012944624
228	0x3c9deeaa	0.019278843
229	0xbb1c85cb	-0.0023883458
230	0xbd649560	-0.055806518
231	0xbd84d796	-0.06486432
232	0x3c5808ee	0.013185723
233	0x3d047b8c	0.032344386
234	0xbcbdda68	-0.023175433
235	0xbd4d5def	-0.05013841
236	0xbd5bb032	-0.05363483
237	0xbd44f496	-0.048084818
238	0x3d40eb82	0.047099598
239	0x3c9abe34	0.018889524
240	0x3cc365a5	0.023852179
241	0x3d541274	0.05177541
242	0xbd2d450a	-0.04230217
243	0xbca69c9c	-0.020338349
244	0x3cc2d411	0.023782762
245	0x3ce0c1c0	0.027436137
246	0x3c4765af	0.012170239
247	0xbd3d7e38	-0.04626295
248	0xbd813eb6	-0.06310789
249	0xbc8ca9c4	-0.017170794
250	0x3c9c1de3	0.01905722
251	0xbdb0ac6d	-0.086266376
252	0xbc6cd81d	-0.014455822
253	0xbd917b29	-0.07103569
254	0xbb480813	-0.003052239
255	0x3c96f7af	0.018428652

network_body.observation_encoder.processors.0.conv_layers.2.bias f4 [32]
0	0x3d541697	0.051779356
1	0xbcac27c8	-0.021015063
2	0x3d1d5203	0.03840829
3	0xbbb8c2e7	-0.0056384685
4	0xbc18b7e9	-0.009321191
5	0xbbba61ec	-0.0056879427
6	0x3c5605fc	0.01306295
7	0x3cd0e75c	0.025500946
8	0xbca97d9c	-0.020689778
9	0x3c9293ae	0.017892685
10	0x3d19e28f	0.03756958
11	0xbd70403f	-0.05865502
12	0xbd9ae0c8	-0.07562405
13	0x3c0abdd2	0.008468108
14	0xbc778124	-0.015106473
15	0x3d0d4332	0.03448791
16	0xbb85f85c	-0.0040884446
17	0xbd56fae5	-0.052485365
18	0xbcc9cf62	-0.02463502
19	0xbc43db96	-0.011954209
20	0xbd3c7cac	-0.046017334
21	0x3c565f81	0.013084293
22	0xbd8d1783	-0.0688925
23	0x3c817f8f	0.015807895
24	0xbcd06d50	-0.02544275
25	0x3ba758bb	0.005107013
26	0x3cc1f97a	0.02367853
27	0x3d474d8c	0.04865794
28	0xbd1b2ab2	-0.037882514
29	0xbcc60bac	-0.024175487
30	0xbd4efacd	-0.05053215
31	0xbd5a6ab2	-0.05332441

network_body.observation_encoder.processors.0.dense.0.weight f4 [128, 512]
0	0xbd2972e5	-0.041369338
1	0x3df7f813	0.12107863
2	0x3d315281	0.043291572
3	0x3c37209b	0.011177207
4	0xbd082bf8	-0.033245057
5	0x3c9c5c98	0.01908712
6	0xbc8c4a41	-0.01712525
7	0x3d5d52f5	0.054034192
8	0xbd2366db	-0.039893012
9	0x3d7af9ab	0.06127326
10	0xbb36f029	-0.0027914143
11	0xba8abaea	-0.0010584269
12	0x3da4d8da	0.08049174
13	0x3d641dda	0.05569253
14	0xbd0d45b0	-0.034490287
15	0xbd815268	-0.06314546
16	0xbdf8b4b1	-0.12143839
17	0x3cd4051f	0.025881348
18	0xbd7347f8	-0.059394807
19	0xbdf04344	-0.1173158
20	0xbe290bd8	-0.16508424
21	0xbbf2492f	-0.007393978
22	0xbdd94b80	-0.106101036
23	0xbd3ff6f6	-0.04686638
24	0xbe189ad3	-0.14902811
25	0xbd3c2a90	-0.04593903
26	0xbd8c4ae5	-0.068502225
27	0xbd9e93ac	-0.0774301
28	0xbc72c5ec	-0.014817696
29	0xbdb1fbde	-0.08690618
30	0x3dd93187	0.1060515
31	0x3ce780a1	0.028259577
32	0x3c0a188f	0.008428707
33	0x3b2f8455	0.0026781757
34	0xbc2d0fb5	-0.010562827
35	0xbd406f33	-0.046981048
36	0x3d82374d	0.06358204
37	0x3dbdd077	0.09268277
38	0x3dc7b8bd	0.09752033
39	0xbd52820b	-0.05139355
40	0x3dd69fa8	0.10479671
41	0xbd1d2f88	-0.038375407
42	0xbd1a4791	-0.037665907
43	0x3ca1671a	0.019702483
44	0xbd256089	-0.040375266
45	0x3d6388d8	0.055550426
46	0xbd820803	-0.06349184
47	0xbcacfd9c	-0.021117024
48	0xbd3f3dad	-0.046689678
49	0x3d355175	0.044267137
50	0x3d04bb33	0.03240509
51	0x3dc8b2db	0.09799739
52	0xbdb8526a	-0.09000094
53	0xbc555d53	-0.0130227385
54	0xbda4eefc	-0.08053395
55	0x3c111f34	0.008857537
56	0x3ca962af	0.020676939
57	0xbc0ac2e3	-0.008469316
58	0x3e0b0d3f	0.13579272
59	0xbbbea119	-0.005817544
60	0xbe1a9bf5	-0.15098555
61	0xbd30ccb4	-0.04316397
62	0xbe03068b	-0.12795465
63	0x3d9f734a	0.077856615
64	0xbdd14023	-0.10217311
65	0x3d8796f8	0.06620592
66	0xbcfa5532	-0.030558202
67	0xbd29eff7	-0.041488614
68	0xbc163406	-0.009167677
69	0x3dcc11e8	0.09964353
70	0x3bf502bc	0.0074771326
71	0xbc308a51	-0.010775165
72	0xbc153f71	-0.009109364
73	0xbc9cc57b	-0.019137135
74	0xbcb0cc77	-0.021581871
75	0x3da6c06d	0.08142171
76	0x3d32e223	0.043672692
77	0x3d382c25	0.044963975
78	0xbc0aa76d	-0.008462769
79	0x3daed9b8	0.0853762
80	0x3d1c33f9	0.038135502
81	0xbd8afd34	-0.06786576
82	0x3c56ec8d	0.013117922
83	0xbe176c30	-0.14787364
84	0xbd68e200	-0.056856155
85	0x3d814fcf	0.063140504
86	0xbcadf92c	-0.021236978
87	0xbd54579a	-0.051841356
88	0xbda183ca	-0.07886465
89	0xbc1c3208	-0.009533413
90	0xbda042e2	-0.07825257
91	0xbc8a6971	-0.016895982
92	0xbdc7e621	-0.097606905
93	0xbd77f508	-0.060536414
94	0x3dbaf762	0.09129216
95	0xbd3dd729	-0.04634777
96	0x3c52f9e7	0.012876964
97	0x3db4f449	0.08835656
98	0x3e260b95	0.16215356
99	0x3cb58570	0.022158355
100	0x3de3a3ef	0.11115252
101	0x3dc4b424	0.096046716
102	0x3d1b2123	0.0378734
103	0x3dad84ef	0.08472621
104	0x3e0e15f8	0.13875568
105	0x3df65edb	0.12029811
106	0x3d5aa1b4	0.05337687
107	0x3d3ae577	0.04562899
108	0x3dbe3841	0.09288073
109	0x3d7942a1	0.060854558
110	0x3d5c5d19	0.053799722
111	0x3c4bd2a1	0.012440355
112	0x3cced62d	0.025248611
113	0x3d0c890b	0.03431038
114	0x3de21adc	0.11040279
115	0xbd8380e6	-0.0642107
116	0xb666b832	-3.4379887e-06
117	0x3d6b4eda	0.057448246
118	0xbe022234	-0.1270836
119	0xbcbc3e1d	-0.022978837
120	0x3d2558a1	0.040367726
121	0xbd5e0047	-0.054199483
122	0xbdcf5dc6	-0.10125308
123	0xbd20e5e6	-0.03928175
124	0xbc100f0b	-0.008792649
125	0xbd3ad8ab	-0.045616787
126	0xbd2f1831	-0.04274768
127	0x3dcc24b8	0.09967941
128	0xbcf679dd	-0.030087406
129	0xbd63a557	-0.055577602
130	0xbe420db9	-0.18950547
131	0xbd1d2aca	-0.038370885
132	0xbc27e36d	-0.010247094
133	0xbc44cf62	-0.012012335
134	0xbd2a4343	-0.041568052
135	0xbd2175db	-0.039419036
136	0x3c083ab9	0.008314782
137	0xbdda5b5c	-0.10661957
138	0xbd137c71	-0.03600735
139	0xbd9033a0	-0.07041097
140	0xbd820670	-0.06348884
141	0x3e1aa240	0.15100956
142	0x3e0351d2	0.1282418
143	0x3db60cf7	0.088891916
144	0x3d4952d6	0.049151264
145	0x3d8c4473	0.06848993
146	0xbdbf30d3	-0.09335484
147	0x3cc3539b	0.023843577
148	0xbb4d6d82	-0.003134579
149	0x3d99be97	0.07507055
150	0xb9b8b3d8	-0.0003522921
151	0x3c060a20	0.008181125
152	0x3e0463eb	0.1292874
153	0x3cd653a5	0.026162932
154	0xbdd57ad2	-0.10423817
155	0x3cded262	0.027199928
156	0x3c6d566b	0.014485936
157	0x3d95e710	0.07319462
158	0xbcbd066d	-0.023074353
159	0x3db6f138	0.089327276
160	0x3a9c7eac	0.0011939607
161	0x3c8b739f	0.017022906
162	0x3e14876b	0.14504783
163	0xbd604f94	-0.05476339
164	0x3cd6ee80	0.026236773
165	0x3dba1dd2	0.09087719
166	0x3d1ffb27	0.039057877
167	0x3dba2eda	0.090909675
168	0x3db80120	0.089845896
169	0x3de610fd	0.11233709
170	0x3d5c1932	0.053734966
171	0x3dbccda5	0.09218911
172	0xbd679903	-0.056542408
173	0xbce3e6e5	-0.02782006
174	0xbd6885ef	-0.056768354
175	0x3d30fcb8	0.04320976
176	0xbcad0645	-0.021121154
177	0x3d7779c0	0.060418844
178	0xbd388626	-0.04504981
179	0xbc0be9ea	-0.008539656
180	0xbd80a313	-0.06281104
181	0xbd7258b0	-0.05916661
182	0xbd916207	-0.07098775
183	0x3d19fe90	0.037596285
184	0xbddde81b	-0.10835286
185	0x3d910735	0.07081453
186	0xbcb79544	-0.022410043
187	0xbd16ddff	-0.036832806
188	0x3cdc4beb	0.02689167
189	0xbc62cdae	-0.013842983
190	0x3c9e9d4d	0.019362116
191	0x3b4db9f6	0.003139136
192	0xbde1ef6f	-0.110319965
193	0xbbf35d4e	-0.0074268943
194	0x3b8cd9ce	0.0042984253
195	0x3bc3bb90	0.005973287
196	0xbc205f27	-0.009788311
197	0x3ca3c643	0.019992
198	0x3d278e8b	0.040907424
199	0xbdc91a1b	-0.09819432
200	0xbd73f626	-0.059560917
201	0x3d99850d	0.074960805
202	0xbd8fdd47	-0.07024627
203	0xbd8626b5	-0.065503515
204	0xbd32455d	-0.04352318
205	0x3b488e99	0.0030602573
206	0x3c0bde1f	0.0085368445
207	0x3e0cc630	0.13747478
208	0x3dc8b859	0.098007865
209	0xbcb39059	-0.021919416
210	0x3d518aff	0.051157948
211	0xbcff5330	-0.031167597
212	0x3ce57160	0.028008163
213	0x3e2ca3d1	0.16859366
214	0x3db85f7a	0.09002586
215	0x3d899dd2	0.06719555
216	0x3e0dbe7f	0.138422
217	0x3d2d900e	0.04237371
218	0xbd3ca03a	-0.04605124
219	0x3c03e36a	0.008049825
220	0xbd395002	-0.045242317
221	0x3d075e32	0.033048816
222	0x3d2ef7d4	0.042716816
223	0x3cd2b838	0.025722608
224	0xbca4832b	-0.020082077
225	0xbdeac495	-0.11463276
226	0xbcef0b1f	-0.029180108
227	0x3d47b065	0.048752207
228	0xbbee6046	-0.0072746603
229	0xbe1026af	-0.14077257
230	0xbdace035	-0.084412016
231	0xbd80fc15	-0.06298081
232	0x3debdfa3	0.11517265
233	0xbdc3e9dc	-0.095660895
234	0x3d628ceb	0.05531017
235	0xbd88b602	-0.0667534
236	0xbba98742	-0.0051735947
237	0x3d23d39b	0.039996725
238	0x3db10ac7	0.08644634
239	0xbd016ac1	-0.03159595
240	0xbe03a5f6	-0.12856278
241	0x3d27b57b	0.040944558
242	0xbce2d17f	-0.027687786
243	0xbc8dbec4	-0.017302878
244	0xbcdd33ce	-0.027002241
245	0x3ca46259	0.020066427
246	0xbd2f8b1c	-0.042857274
247	0x3cc5c111	0.024139913
248	0x3cd06237	0.025437457
249	0xbd4855b5	-0.04890986
250	0xbbb3e687	-0.0054901275
251	0xbddeb318	-0.10874003
252	0xbd827658	-0.063702285
253	0x3cf9a154	0.030472435
254	0xbb5d267a	-0.0033744858
255	0x3d6baa36	0.057535373

network_body.observation_encoder.processors.0.dense.0.bias f4 [128]
0	0x3d50b104	0.050950065
1	0x3ceed35e	0.029153522
2	0x3d336c44	0.043804422
3	0x386d44b1	5.6569177e-05
4	0x3c558940	0.013033211
5	0x3cae4848	0.0212747
6	0x3d17dc49	0.037075315
7	0x3c1b75d8	0.009488545
8	0x3dac2de0	0.084071875
9	0x3bf3f5e4	0.007445084
10	0x3c073882	0.008253219
11	0xba1c6822	-0.0005966445
12	0x3bf3932d	0.007433316
13	0xbcc17813	-0.023616826
14	0x3cbd3500	0.023096561
15	0x3c8a49fa	0.016880978
16	0x3a6d5196	0.000905299
17	0x3b4b4b6e	0.0031020301
18	0x3d325a19	0.043542955
19	0x3d683025	0.05668654
20	0x3d0c26a8	0.034216553
21	0x3d90d5ad	0.070720054
22	0x3d367060	0.044540763
23	0xbccc5d63	-0.024946874
24	0x3d3de993	0.04636533
25	0xbd1997de	-0.037498347
26	0x3bfad09f	0.007654264
27	0xbc17b7c5	-0.009260123
28	0x3c4526d1	0.01203318
29	0x3d77383f	0.060356375
30	0x3d176d73	0.036969613
31	0x3d738ad5	0.059458572
32	0x3d6f2436	0.058384143
33	0x3d1fb8d3	0.03899462
34	0x3d706b9f	0.058696385
35	0x3d06fe77	0.03295752
36	0x3d11a86d	0.035561014
37	0xbce5ea9e	-0.028065976
38	0x3c65975e	0.0140131395
39	0x3da546b0	0.08070123
40	0x3d0f1e1c	0.034940824
41	0x3ce394fa	0.027780998
42	0x3acedc28	0.0015782164
43	0x3cd1c9b9	0.025608884
44	0x3d4a4caf	0.049389537
45	0xbc902db5	-0.01759992
46	0x3d525777	0.051352944
47	0x3d0ef0f9	0.03489778
48	0x3cbcea5c	0.02306097
49	0xbce27788	-0.027644888
50	0xbc09903a	-0.008396203
51	0x3d86ae3f	0.065762036
52	0x3d2b2074	0.041778997
53	0x3c5688e0	0.013094157
54	0xbcadd91f	-0.021221695
55	0x3d0ef4b7	0.034901347
56	0x3d09fe7a	0.033689953
57	0x3c14332f	0.009045406
58	0x3d14151f	0.036152955
59	0x3cab3abe	0.020902034
60	0xbd523ebb	-0.051329356
61	0x3c907d68	0.017637923
62	0x3cd1578e	0.025554445
63	0x3cbcc566	0.023043346
64	0x3be58ca4	0.007005291
65	0x3a066780	0.0005127117
66	0x3ca56c28	0.020193174
67	0x3d878d53	0.06618752
68	0x3cd9822d	0.02655133
69	0x3d235f12	0.039885588
70	0xbc04776d	-0.008085114
71	0x3d1bd731	0.03804702
72	0xbc821e56	-0.015883606
73	0xbc595696	-0.013265273
74	0x3cbc32db	0.022973469
75	0x3c6185b0	0.013764784
76	0xbcc032ac	-0.023461662
77	0x3ce3abe7	0.02779193
78	0x3cfc4efc	0.030799381
79	0x3c595add	0.013266292
80	0xbc38a4f0	-0.011269793
81	0x3bfef43c	0.00778058
82	0x3c921f46	0.017837178
83	0x3cfe6a44	0.03105653
84	0x3d5376af	0.051626857
85	0x3d3a71f2	0.045518823
86	0x3bdf0611	0.006806143
87	0x3d04307d	0.032272805
88	0xbc43b791	-0.011945621
89	0x3d00c07a	0.03143356
90	0x3d053b40	0.03252721
91	0x3cdcdf4d	0.026961947
92	0x3ccc59b2	0.024945114
93	0x3d987552	0.07444252
94	0x3cfe8230	0.031067938
95	0x3bed630e	0.0072444743
96	0x3d03e3c8	0.03219965
97	0xbc49a634	-0.012307692
98	0xbd4ce6b6	-0.05002471
99	0x3cbd7695	0.023127833
100	0x3d2878c7	0.041130807
101	0x3d363574	0.04448457
102	0x3d03bfbe	0.03216528
103	0x3cfec70e	0.031100776
104	0x3d18a202	0.037263878
105	0x3ca68676	0.020327788
106	0x3d020ffd	0.03175353
107	0xbd4d901f	-0.050186273
108	0x3c80ce10	0.015723258
109	0xbc9fd3d0	-0.01951018
110	0xba1b8497	-0.0005932538
111	0xbb3f3b21	-0.002917953
112	0x3b305288	0.0026904661
113	0x3ca34d54	0.019934334
114	0x3d1ae27a	0.03781364
115	0x3cc8b736	0.024501424
116	0x3c908ee1	0.017646255
117	0xbce8fa29	-0.028439598
118	0xbcea78bc	-0.028622024
119	0x3d93ce32	0.07217063
120	0x3cf9b5a3	0.030482119
121	0xbd15d20d	-0.036577273
122	0x3d428a12	0.047494955
123	0xbc6855aa	-0.01418058
124	0x3d41e4e9	0.047337446
125	0x3d1527ab	0.036414783
126	0x3d1eb16c	0.03874342
127	0x3d136234	0.035982326

network_body._body_endoder.seq_layers.0.weight f4 [128, 128]
0	0x3ba2f191	0.0049726446
1	0x3d0f2ed2	0.03495676
2	0x3d9f1d10	0.07769215
3	0xbd30e803	-0.043190014
4	0xbdd17f55	-0.10229365
5	0xbdab8868	-0.08375627
6	0xbcf21895	-0.029552737
7	0x3d95fc11	0.073234685
8	0xbd9dfcc8	-0.0771423
9	0xbd0b9027	-0.03407302
10	0xbcf346d0	-0.029696852
11	0x3dacf86d	0.08445821
12	0x3b8a2d7d	0.0042168484
13	0xbcba56cc	-0.022746466
14	0xbcd67a32	-0.026181314
15	0x3dae35e5	0.08506373
16	0xbda62fd5	-0.08114592
17	0xbe25d047	-0.16192733
18	0x3d60298c	0.054727122
19	0xbd1622bf	-0.03665423
20	0x3d693075	0.056930978
21	0x3ca41a81	0.02003217
22	0x3e01b3f2	0.126663
23	0x3e44966f	0.19198011
24	0xbda3d7f5	-0.08000175
25	0xbd68ce42	-0.056837328
26	0x3e2b1fc0	0.1671133
27	0x3c0ae527	0.008477486
28	0x3e32dfa6	0.17468128
29	0x3dc3ebce	0.095664605
30	0x3daefa04	0.085437804
31	0xbe822d05	-0.25424972
32	0x3e2b235f	0.16712712
33	0x3c28d90d	0.010305655
34	0xbd9112b5	-0.07083646
35	0xbe1b1c45	-0.15147503
36	0x3e2eb57b	0.17061417
37	0xbd9777cd	-0.07395897
38	0xbd2557e1	-0.04036701
39	0xbd06f8a2	-0.03295196
40	0xbd261630	-0.040548503
41	0xbe2fdc66	-0.17173919
42	0xbe3c8677	-0.1841067
43	0x3d875c2a	0.06609376
44	0x3e365213	0.17804746
45	0xbb7687d7	-0.0037617588
46	0xbde673b7	-0.112525396
47	0x3cc0242a	0.023454744
48	0x3e0e085b	0.13870375
49	0x3d934bba	0.07192178
50	0x3e286c6f	0.16447614
51	0xbaa07264	-0.0012241122
52	0xbe18c759	-0.14919795
53	0xbcec70d0	-0.028862387
54	0xbd83d648	-0.06437355
55	0xbe1af0ad	-0.15130873
56	0x3dcc1420	0.09964776
57	0xbe5176bd	-0.20455451
58	0xbddeacb9	-0.10872788
59	0xbddf6355	-0.10907618
60	0x3bc05ef8	0.005870696
61	0xbcde7f64	-0.027160354
62	0xbd04df2e	-0.032439403
63	0x3d82d992	0.063891545
64	0x3dc119b7	0.09428733
65	0x3dab84e2	0.08374955
66	0x3d8eba5a	0.069691375
67	0xbd9d004f	-0.076660745
68	0xbe008ce7	-0.1255375
69	0x3dea69ea	0.11445983
70	0x3da5bf29	0.080931015
71	0xbc8b4034	-0.016998388
72	0xbbd2b40d	-0.006430155
73	0x3cb65838	0.022258863
74	0xbd5fe75c	-0.054664
75	0xbe231b62	-0.15928414
76	0x3db970fa	0.09054752
77	0x3ca2ec1e	0.01988798
78	0x3e0cde39	0.13756646
79	0xbdc77eef	-0.097410075
80	0xba7b6491	-0.00095898757
81	0xbe0ec0dd	-0.13940759
82	0xbd68f4f6	-0.056874238
83	0xbb612869	-0.0034356362
84	0x3e171fdd	0.14758249
85	0xbb881098	-0.0041523688
86	0xba61bf09	-0.00086115353
87	0x3e303e5a	0.17211285
88	0xbd233913	-0.039849352
89	0x3d5a353b	0.05327342
90	0xbd8a6c74	-0.06758967
91	0xbd6481c4	-0.055787817
92	0xbc1b02e9	-0.009461143
93	0xbded18b5	-0.11576978
94	0xbd5ccefe	-0.05390834
95	0xbc5f8b43	-0.013644042
96	0x3bc7422c	0.0060808863
97	0xbd72f1e3	-0.059312712
98	0x3d9458f4	0.07243529
99	0xbd106ee1	-0.035261992
100	0xbc5abf06	-0.013351208
101	0xbcc720fb	-0.024307719
102	0xbe851306	-0.25991076
103	0xbe0303ef	-0.1279447
104	0x3db75441	0.08951617
105	0xbdc5d72f	-0.09660184
106	0xbdb5e52f	-0.08881604
107	0xbe5c801b	-0.21533243
108	0x3da54c48	0.0807119
109	0x3d25d0f8	0.04048249
110	0x3d127666	0.035757445
111	0x3d7f4ba2	0.06232799
112	0x3d90335a	0.070410445
113	0x3dbede49	0.09319741
114	0xbdc4edf4	-0.096156985
115	0x3c0ac444	0.008469645
116	0x3d10250e	0.035191588
117	0x3b598bb1	0.0033194835
118	0xbd704f38	-0.0586693
119	0x3d1a1eec	0.037627146
120	0x3e84daba	0.25948125
121	0x3d76aabb	0.060221415
122	0xbd82375f	-0.063582174
123	0xbcf77572	-0.03020737
124	0xbd4bd5b4	-0.04976435
125	0xbe1ef970	-0.1552484
126	0xbd934734	-0.07191315
127	0xbcd61ce7	-0.026136829
128	0x3d5331c2	0.051561125
129	0xbdb39c4a	-0.08770044
130	0xbe75f04e	-0.2401745
131	0xbe0c0830	-0.13674998
132	0xbc57ed8f	-0.013179197
133	0xbdcdc129	-0.10046608
134	0xbd8ddede	-0.06927274
135	0x3bf74098	0.007545542
136	0xbd855b03	-0.065115
137	0xbe027746	-0.12740812
138	0x3db261f0	0.08710086
139	0x3d52e514	0.051487997
140	0x3dd3dec5	0.10345224
141	0x3c0ad8e2	0.00847456
142	0x3d9864ed	0.07441125
143	0x3dc99148	0.09842163
144	0x3db66c89	0.0890742
145	0x3db5a7cf	0.088698976
146	0x3c6df531	0.01452379
147	0x3dc669a9	0.09688122
148	0x3e2bf24d	0.16791649
149	0x3dab386d	0.08360372
150	0xbd91b253	-0.07114091
151	0xbbe1e956	-0.006894271
152	0xbd436307	-0.04770186
153	0x3d95eff2	0.073211566
154	0x3de58833	0.112076186
155	0xbd904fbd	-0.07046459
156	0xbcfff31d	-0.031243855
157	0xbd246d02	-0.04014302
158	0xbe34955f	-0.17635106
159	0xbe2ab2f3	-0.16669826
160	0xbc8bd47c	-0.017069094
161	0x3d96fe4d	0.07372723
162	0x3d9b34bc	0.07578418
163	0x3e19c141	0.15015127
164	0x3d851780	0.06498623
165	0xbc48c425	-0.012253796
166	0x3c08e270	0.008354768
167	0xbd31110f	-0.04322916
168	0xbd9c075b	-0.076185904
169	0xbd8b908a	-0.06814678
170	0x3d2fc6a3	0.042914044
171	0x3df92306	0.12164883
172	0xbd877a85	-0.066151656
173	0xbd3d3f5d	-0.046203006
174	0xbda57e8a	-0.08080776
175	0xbe39c165	-0.1814018
176	0x3d7cdd43	0.06173445
177	0xbd2a3a43	-0.04155947
178	0xbd3450c5	-0.04402234
179	0xbddb6d7f	-0.10714244
180	0x3dbdebe4	0.09273508
181	0x3ddaaba5	0.1067727
182	0xbda53019	-0.080658145
183	0x3d334625	0.043768067
184	0xbd36d0ed	-0.04463284
185	0x3df599dc	0.11992237
186	0xbcfbd1fd	-0.030739779
187	0xbe88ddf6	-0.26731843
188	0x3d649e66	0.055815123
189	0xbcbba898	-0.02290754
190	0x3c4e7ae5	0.0126025425
191	0x3d8cc144	0.068728
192	0xbe3651cd	-0.17804642
193	0xbd2d9d32	-0.04238624
194	0xbd1e45ba	-0.038640715
195	0xbd241d48	-0.040066987
196	0xba809ef9	-0.0009813003
197	0xbd565035	-0.052322585
198	0x3d84fcbd	0.064935185
199	0x3cbbf8e0	0.022945821
200	0xbdbca5c8	-0.09211308
201	0x3c208512	0.009797351
202	0xbd950f26	-0.0727828
203	0x3de7ddf7	0.11321633
204	0x3dc94faa	0.09829648
205	0xbd81f1c7	-0.063449435
206	0xbddc5245	-0.10757879
207	0x3cb92426	0.022600245
208	0x3d5d0bcc	0.05396633
209	0xbda2d332	-0.079504386
210	0x3e369012	0.17828396
211	0x3e28ac35	0.16471942
212	0x3d41ea36	0.0473425
213	0x3d265728	0.040610462
214	0xbdad24d7	-0.08454292
215	0x3d253b68	0.040339857
216	0xbdb6c12c	-0.08923563
217	0x3d833fe6	0.06408672
218	0xbdbb3ef8	-0.0914287
219	0xbd95a32b	-0.073065124
220	0x3b6646c6	0.00351374
221	0x3c2a2f66	0.010387277
222	0x3da85fcb	0.08221396
223	0x3ded46e6	0.115857884
224	0x3d8bcdc5	0.06826357
225	0x3e12c2aa	0.14332071
226	0xbb778abe	-0.0037771906
227	0x3d63fe0a	0.055662192
228	0xba53df0f	-0.00080822496
229	0x3d28a5ae	0.04117363
230	0xbd015790	-0.031577647
231	0x3e3281f7	0.1743239
232	0x3df301cd	0.11865578
233	0x3c031800	0.0080013275
234	0x3c33f1cc	0.010982942
235	0xbdbebc77	-0.093132906
236	0xbe060d46	-0.13091001
237	0xbcdf27d1	-0.027240666
238	0x3cc1829f	0.023621855
239	0x3d7233de	0.059131496
240	0x3ca86c51	0.020559462
241	0x3c72ffed	0.014831525
242	0xbd16c453	-0.036808323
243	0xbd9d87c2	-0.076919094
244	0x3d31c5bb	0.04340146
245	0x3d4484a5	0.047978062
246	0xbcb0bfe0	-0.021575868
247	0x3e1d7076	0.15374932
248	0xbcb00b86	-0.02148987
249	0x3cdee181	0.027207138
250	0x3d8b0277	0.067875795
251	0x3c29aefa	0.010356659
252	0x3de6d322	0.11270739
253	0xbcb3d6ea	-0.021953065
254	0xbd061e7b	-0.032743912
255	0xbc9c47f0	-0.019077271

network_body._body_endoder.seq_layers.0.bias f4 [128]
0	0x3c848ef6	0.01618145
1	0x3ba53858	0.005042117
2	0x3c8918c0	0.016735435
3	0xbd88f914	-0.06688133
4	0xbc725ec0	-0.014793098
5	0x3bac6101	0.005260587
6	0xbd04ef63	-0.03245486
7	0x3c104017	0.008804343
8	0xbd0bd5e0	-0.034139514
9	0xbd85bd96	-0.06530301
10	0x3cd28c70	0.025701731
11	0xbd5596ea	-0.052145876
12	0x3c4501b8	0.012024336
13	0x3d3e458f	0.046453055
14	0xbab96e3b	-0.0014147231
15	0x3bfd6664	0.007733153
16	0xbdb64e1b	-0.08901616
17	0xbc703eee	-0.014663441
18	0x3d1235d9	0.035695884
19	0xbd7f388d	-0.06230979
20	0xbcdd0230	-0.026978582
21	0x3b121e23	0.0022295795
22	0xbcf2970f	-0.029613046
23	0x3cf4c4d6	0.029879015
24	0x3c386ab2	0.011255907
25	0xbd879bfd	-0.06621549
26	0xbd54e1a3	-0.051972996
27	0x3c8b081a	0.016971637
28	0xbd8990b8	-0.06717056
29	0xbc83a711	-0.016070874
30	0xbd1cd64a	-0.0382903
31	0x3d11a524	0.03555788
32	0xbcbf30d2	-0.023338709
33	0xbd909901	-0.07060433
34	0xbcbc1871	-0.022960873
35	0xbcb9edf2	-0.022696469
36	0xbd6dd07e	-0.05806016
37	0xbc68490f	-0.014177575
38	0xbc0fa14c	-0.0087664835
39	0xbc0c56e7	-0.008565641
40	0xbd857abf	-0.065175526
41	0xbc74440c	-0.014908802
42	0x3cbe2e85	0.023215542
43	0xbbe73513	-0.0070558875
44	0xbd5af73e	-0.053458445
45	0x3c80e790	0.015735418
46	0x3ab30d43	0.0013660569
47	0x3caea2c9	0.021317856
48	0x3d0630e9	0.032761488
49	0xba83f9d9	-0.0010068967
50	0x3c4892d5	0.012242039
51	0xbcf9da45	-0.030499587
52	0xbbfb1c68	-0.0076632984
53	0xbc763bf8	-0.015028946
54	0xbc922e4b	-0.01784434
55	0xbd97a2ac	-0.07404074
56	0xbd35c35a	-0.044375755
57	0xbd10fff9	-0.035400365
58	0xbca6ffa1	-0.020385565
59	0xbbc5c9a9	-0.0060360027
60	0xbdb5ec69	-0.08882982
61	0x398a0bf7	0.00026330326
62	0x3cb73d4b	0.022368094
63	0xbc4e7bd1	-0.012602762
64	0x3bfb6e1d	0.0076730386
65	0xbb9faee7	-0.004873145
66	0x3b8c753d	0.004286437
67	0x3d030bf9	0.03199384
68	0xbc8e31b2	-0.017357681
69	0x3cdbadbc	0.026816241
70	0xbd2ac077	-0.041687455
71	0xbd804b56	-0.06264369
72	0x3b04801b	0.0020217958
73	0xbbd91823	-0.006625192
74	0xbc8cdb7e	-0.017194506
75	0xbd6df5e4	-0.058095828
76	0xbbf6b50f	-0.007528908
77	0xbb9a146b	-0.004702141
78	0xbcdd6d7e	-0.027029749
79	0x3c23f1fd	0.010006425
80	0xbd3fc25a	-0.046816207
81	0xbd98582a	-0.07438691
82	0xbd6695a8	-0.056295067
83	0xbc82f320	-0.015985072
84	0xbd17726d	-0.03697436
85	0xbc3f23d3	-0.011666256
86	0x3c0d87e7	0.008638359
87	0x3cf583ea	0.029970128
88	0xbd2d473d	-0.042304266
89	0x3b659503	0.0035031445
90	0xbcc185e2	-0.02362341
91	0x3c9ad517	0.018900437
92	0x3ccd9a67	0.025098039
93	0x3c81e3b5	0.01585565
94	0x3ceece1c	0.029151015
95	0xbd280030	-0.041015804
96	0x3c0f6913	0.008753079
97	0x3cd27a1b	0.02569299
98	0xbd901f9a	-0.070372775
99	0x3d047751	0.03234035
100	0xbc8a1edc	-0.016860418
101	0x3d333b1c	0.043757543
102	0x3ce49fbb	0.027908197
103	0xbc709d6d	-0.014685971
104	0xbb467ab5	-0.0030285541
105	0xbc86d708	-0.016459957
106	0x3d3424b5	0.04398032
107	0xbc184877	-0.009294621
108	0x3b726a8f	0.0036989783
109	0xbd0edcba	-0.03487847
110	0xbba4a545	-0.0050245845
111	0xbcac437c	-0.021028273
112	0xbca3204e	-0.019912865
113	0xbb9aa19d	-0.004718973
114	0x3bf250b8	0.0073948763
115	0xbcb46b60	-0.022023857
116	0xbda8bd0f	-0.08239185
117	0xbd1f5a30	-0.03890437
118	0xbd13a197	-0.036042776
119	0x3ca748f0	0.020420521
120	0x3b982f30	0.004644297
121	0x3d3c2011	0.04592902
122	0xbc681fd9	-0.014167749
123	0x3cda8428	0.026674345
124	0x3c8057fb	0.015666952
125	0x3c5afd73	0.013366091
126	0x3cd82319	0.026383923
127	0x3d72a8c6	0.059242986

network_body._body_endoder.seq_layers.2.weight f4 [128, 128]
0	0x3d8cdf34	0.0687851
1	0xbcaa3a6f	-0.020779816
2	0x3e069d36	0.13145909
3	0xbe1d2446	-0.15345868
4	0xbd096b1a	-0.033549406
5	0xbcf8a161	-0.030350389
6	0xbdd87805	-0.10569767
7	0xbdcf37e8	-0.10118085
8	0xbe25874b	-0.16164891
9	0xbcbe1095	-0.023201266
10	0x3dc4093f	0.09572076
11	0xbdd2ad35	-0.10286943
12	0xbd4d8a6a	-0.05018083
13	0x3dbeb788	0.093123496
14	0x3d4457f9	0.04793546
15	0x3ca9d701	0.020732405
16	0x3e05391b	0.13010065
17	0x3dd5aaa6	0.10432939
18	0xbe17f2a5	-0.14838655
19	0xbda8d380	-0.082434654
20	0x3e7277d8	0.2367853
21	0xbd870a40	-0.06593752
22	0xbd4c9d72	-0.04995484
23	0x3c9116d3	0.017711079
24	0x3e27ede1	0.16399337
25	0xbe49e374	-0.19715673
26	0xbdb09a34	-0.08623162
27	0xbe0dda04	-0.13852698
28	0xbc263a80	-0.010145783
29	0xbc2484db	-0.010041441
30	0xbe33f19f	-0.1757264
31	0x3dc6221f	0.09674477
32	0x3d49f642	0.049307115
33	0xbc67f477	-0.014157406
34	0x3d13450f	0.03595453
35	0xbda67008	-0.08126837
36	0xbe22e6fd	-0.15908428
37	0x3d7ef8db	0.062249046
38	0x3c5a0828	0.013307609
39	0x3d0d85d7	0.034551468
40	0xbe14a9d5	-0.14517911
41	0xbdb7be70	-0.0897187
42	0xbcce363f	-0.02517235
43	0xbc9c4107	-0.019073976
44	0x3d244308	0.04010299
45	0x3cbc3bd1	0.022977741
46	0x3c9d7530	0.019220918
47	0x3dea8e23	0.11452892
48	0x3cbfc6ef	0.023410289
49	0x3ce5af5d	0.028037721
50	0xbe3c7d5a	-0.18407193
51	0xbd8aae73	-0.06771555
52	0xbd19e532	-0.037572093
53	0xbd5b0f88	-0.05348161
54	0x3e26b1b2	0.16278723
55	0x3c0708ad	0.008241815
56	0xbda9547e	-0.08268069
57	0xbbf6c236	-0.007530476
58	0x3dbd75f4	0.092510134
59	0xbd95b82e	-0.0731052
60	0xbe021c41	-0.1270609
61	0x3c7894be	0.015172182
62	0xbd5ae8c8	-0.053444654
63	0x3d9826db	0.07429286
64	0xbdacf8e2	-0.08445908
65	0x3d42ece0	0.047589183
66	0x3d2d8ba6	0.042369507
67	0xbdd5bb92	-0.10436167
68	0x3d1a427e	0.03766107
69	0xbe3cfb0f	-0.18455146
70	0xbd23dd7e	-0.040006153
71	0xbda436bb	-0.080182515
72	0xbce3e0b5	-0.02781711
73	0xbda9a995	-0.08284298
74	0x3dc2f342	0.09519054
75	0xbdb97a5b	-0.090565406
76	0xbd478054	-0.048706368
77	0x3d85325d	0.06503747
78	0xbd8fe1c6	-0.07025485
79	0x3da2dab0	0.079518676
80	0xbb4e9b85	-0.0031525802
81	0xbc9f2330	-0.019425958
82	0x3d19d643	0.03755785
83	0x3de70e84	0.112820655
84	0x3da4c2c0	0.08044958
85	0xbe3fa923	-0.18716864
86	0x3d3f2e2c	0.046674892
87	0xbce444c3	-0.02786482
88	0xbd9b5e17	-0.075863056
89	0xbd0011be	-0.03126692
90	0x3e590c7f	0.21196173
91	0xbdb1fedc	-0.08691189
92	0xbda8cd6d	-0.08242307
93	0x3caf02e0	0.021363676
94	0x3d9e7faa	0.07739194
95	0xbd0fafad	-0.035079647
96	0x3d19b41a	0.037525274
97	0xbdc40fbb	-0.09573313
98	0xbe034861	-0.12820579
99	0x3d91efe8	0.071258366
100	0x3aabc7e4	0.0013105837
101	0xbd4adee3	-0.049528968
102	0xbc7a1d59	-0.015265786
103	0xbd3dcb3f	-0.04633641
104	0x3cae618a	0.021286745
105	0xbd138dbf	-0.03602385
106	0xbdeda9ec	-0.11604676
107	0xbd9a574a	-0.0753618
108	0xbb25bb2f	-0.0025288572
109	0x3d2b0540	0.041753054
110	0xbe19ec9e	-0.15031669
111	0x3bb424e7	0.005497563
112	0xba6bbc19	-0.00089925673
113	0xbdd4bc59	-0.10387487
114	0x3d81745e	0.063210234
115	0xbd6c2cb6	-0.057659827
116	0xbc5d2954	-0.013498623
117	0xbc69e2fc	-0.014275309
118	0xbe7363bc	-0.23768514
119	0xbccb096d	-0.024784768
120	0x3cafa62d	0.021441543
121	0x3d41788f	0.047234114
122	0xbe2d5a76	-0.1692904
123	0x3d65cf9c	0.056106195
124	0x3e169a7a	0.14707366
125	0x3da2ddb0	0.0795244
126	0xbc904154	-0.017609276
127	0x3cd33c46	0.025785577
128	0xbe09c8df	-0.13455532
129	0x3e2ffdcd	0.17186661
130	0xbe07089a	-0.13186875
131	0xbc8c3760	-0.017116249
132	0xbdc41603	-0.09574511
133	0x3a213e9e	0.0006150993
134	0x3ca456e8	0.020060971
135	0x3cbdfaa3	0.023190802
136	0xbe0412f8	-0.12897861
137	0xbc5f8525	-0.013642584
138	0xbd440f77	-0.04786631
139	0xbbc4c025	-0.0060043507
140	0x3d97db9f	0.07414936
141	0xbe50b42e	-0.20381233
142	0xbe2ab16e	-0.16669247
143	0x3daf53c4	0.08560899
144	0x3cd6fa7a	0.026242483
145	0xbea9b8ba	-0.33148748
146	0xbdf63bbb	-0.120231114
147	0xbd7aba7e	-0.06121301
148	0x3c864dcf	0.016394524
149	0x3d5b9509	0.053608928
150	0xbcf549d6	-0.029942434
151	0xbcb4e26e	-0.022080626
152	0xbde8e354	-0.113714844
153	0x3e00479a	0.12527314
154	0xbd53ae6f	-0.051680025
155	0xbd9e8f97	-0.07742231
156	0x3de4e774	0.11176959
157	0xbd18cd57	-0.037305202
158	0x3dc46da5	0.095912255
159	0xbc9cb569	-0.019129472
160	0x3db9c1ba	0.090701535
161	0x3b534cf2	0.0032241908
162	0xbde27a00	-0.11058426
163	0x3de6ed0a	0.1127568
164	0x3d5ad796	0.053428255
165	0xbdbcb1d4	-0.092136055
166	0xbe299a3f	-0.16562746
167	0xbe3611db	-0.17780249
168	0x3df052f7	0.11734574
169	0x3e8552af	0.26039645
170	0xbd83fe89	-0.06445033
171	0xbca6d08b	-0.020363113
172	0xbcb91993	-0.022595203
173	0x3bab9b30	0.0052370057
174	0xbdb85d35	-0.09002153
175	0x3d23db67	0.04000416
176	0xbda652d2	-0.081212655
177	0xbd993686	-0.07481103
178	0xbe83a158	-0.25709033
179	0x3e23ed51	0.16008498
180	0x3d9637ce	0.07334863
181	0xbe2cb3a9	-0.1686541
182	0x3ddf1623	0.10892894
183	0x3e3e2311	0.18568064
184	0x3dcb3e87	0.099240355
185	0x3dedad73	0.116053484
186	0xbd03f10f	-0.032212313
187	0x3dcfaaf9	0.10140032
188	0xbdeea0f5	-0.11651794
189	0xbd8ba680	-0.06818867
190	0xbdb5f1e1	-0.08884025
191	0x3bfc63aa	0.0077023106
192	0x3d9e7608	0.077373564
193	0xbe16b9f6	-0.14719376
194	0xbdc805af	-0.09766709
195	0xbdd2f7e7	-0.1030119
196	0xbd9b097a	-0.07570167
197	0xbc4d5404	-0.012532238
198	0x3e3bc8a3	0.18338256
199	0x3de3e98b	0.11128529
200	0x3b5d6da9	0.0033787286
201	0xbd97b610	-0.074077725
202	0xbe273e20	-0.16332293
203	0xbe3c2707	-0.18374263
204	0xbe40a012	-0.18811062
205	0x3c533cd3	0.01289292
206	0x3dd999de	0.10625051
207	0x3d739419	0.05946741
208	0x3e53ef54	0.20696765
209	0xbd871699	-0.06596107
210	0x3d0f638d	0.03500705
211	0x3dc8c3a2	0.09802939
212	0xbd946832	-0.07246436
213	0x3d335d5f	0.043790217
214	0x3d0b4087	0.033997085
215	0xbbb9c757	-0.005669515
216	0xbd5f7ac5	-0.05456044
217	0xbe010189	-0.12598242
218	0x3e096fe1	0.13421585
219	0xbdd9cc8d	-0.10634718
220	0xbb9937f6	-0.0046758605
221	0xbce8a932	-0.028400991
222	0xbd69f94e	-0.05712252
223	0x3d53b4b9	0.051686022
224	0xbbda8815	-0.0066690543
225	0xbbcfa763	-0.0063370927
226	0xbd299b9b	-0.041408163
227	0x3d63fd0f	0.055661257
228	0xbe09c821	-0.1345525
229	0x3d79adff	0.06095695
230	0x3d73e270	0.05954212
231	0xbdb0fa4d	-0.08641491
232	0x3ca0855e	0.019594844
233	0xbe6e2570	-0.23256469
234	0xbdd9ed92	-0.10641016
235	0xbda39a5b	-0.07988425
236	0xbdf97594	-0.121806294
237	0xbd61829f	-0.05505621
238	0xbe36b7ac	-0.17843503
239	0xbd755f2b	-0.059905212
240	0x3d3702d9	0.04468045
241	0x3b65852f	0.003502201
242	0xbdae7b4f	-0.08519613
243	0x3d1f3aec	0.03887455
244	0x3bddd89d	0.006770207
245	0x3e3515ed	0.17684145
246	0x3c8d7ab8	0.01727043
247	0xbda1f5f7	-0.07908242
248	0xbd8fb49e	-0.07016872
249	0xbd2e5477	-0.04256102
250	0xbe07f914	-0.1327861
251	0x3dd83b87	0.10558229
252	0xbdd605d4	-0.104503304
253	0xbc52ff27	-0.012878216
254	0x3ca186f7	0.019717677
255	0xbe3aa776	-0.18227944

network_body._body_endoder.seq_layers.2.bias f4 [128]
0	0x3bca2e1d	0.006170048
1	0x3c78ada0	0.015178114
2	0xbdfebde8	-0.124385655
3	0x3cddbf54	0.027068771
4	0xbb7339d8	-0.0037113335
5	0xbd9cd22a	-0.07657273
6	0xbd32b557	-0.04362997
7	0xbbd7270f	-0.0065659354
8	0x3c67d785	0.014150505
9	0x3d106a32	0.035257526
10	0xbd0394c5	-0.0321243
11	0x3d1b5f94	0.037932947
12	0x3d0b9e4d	0.034086514
13	0xbc6f6a72	-0.014612781
14	0xbdd83e8b	-0.10558804
15	0x3d3ec6f2	0.046576448
16	0xbc8d405f	-0.017242609
17	0xbd0377f4	-0.032096818
18	0x3b73f087	0.0037222223
19	0x3d0ce648	0.0343993
20	0x3d1301c3	0.035890352
21	0xbc8c813a	-0.017151464
22	0xbd3b3462	-0.045704253
23	0xbc5f3356	-0.013623079
24	0x3c159ac8	0.009131141
25	0x3ca6b9ad	0.020352209
26	0xbc8acea3	-0.016944235
27	0xbaabc3d7	-0.001310463
28	0xbd6764d5	-0.056492645
29	0x3c93b581	0.018030884
30	0x3bef8b77	0.0073103267
31	0xbda26e70	-0.079312205
32	0x3c4741ac	0.0121616535
33	0xbcf5d939	-0.030010806
34	0xbd007906	-0.031365417
35	0xbd245591	-0.040120665
36	0x3c14e121	0.009086878
37	0xbc40f7d9	-0.0117778415
38	0xbccb7580	-0.024836302
39	0x3d4d689b	0.050148588
40	0xbc436d2c	-0.011927884
41	0xbd0ce7db	-0.034400802
42	0x3d9d05e6	0.07667141
43	0xbd274814	-0.040840223
44	0x3d7aee1a	0.061262228
45	0x3c911642	0.017710809
46	0xbd990b4e	-0.07472859
47	0x3cae4c4a	0.021276612
48	0xbd81b3e4	-0.063331395
49	0x3c0407b6	0.008058479
50	0x3c50c242	0.012741627
51	0xbc8d9e77	-0.017287476
52	0xbd199968	-0.037499815
53	0x3c8be6f2	0.017077897
54	0x3cb04f7c	0.021522276
55	0xbc0f8d85	-0.008761768
56	0x3cb453cf	0.02201262
57	0xb9c4008d	-0.00037384444
58	0xbdb761d3	-0.08954205
59	0x3c669679	0.014073961
60	0xbdeff70d	-0.11717043
61	0x3c8e99da	0.017407347
62	0xbc0ca568	-0.008584358
63	0xbbe3623d	-0.006939201
64	0x3b9c98ac	0.004778942
65	0xbd955f1c	-0.07293531
66	0x3caaf4f0	0.020868748
67	0xbd06e9fc	-0.03293799
68	0xba84d870	-0.0010135304
69	0xbbde2884	-0.006779732
70	0x3cb8e330	0.022569269
71	0x3d025cae	0.031826667
72	0x3cd2d7b9	0.02573763
73	0x39745f36	0.00023305122
74	0x3cc3aad5	0.02388517
75	0x3cc9e49b	0.02464514
76	0x3c9212e7	0.017831279
77	0x3caac203	0.020844465
78	0x3d502046	0.05081203
79	0x3ba8433f	0.0051349695
80	0xbe03f997	-0.1288818
81	0xbc9472b8	-0.018121108
82	0x3c8b03fd	0.016969675
83	0xbd7ffad5	-0.06249507
84	0xbdc6deb1	-0.09710444
85	0x3c260571	0.010133133
86	0xbd124dca	-0.035718717
87	0x3d007c4f	0.03136855
88	0x3cb33ca6	0.021879505
89	0x3d918467	0.07105332
90	0x3c19d61a	0.009389425
91	0x3cde5746	0.027141225
92	0xbd70ff8e	-0.058837466
93	0x3c44899f	0.011995702
94	0x3c6d6671	0.014489756
95	0xbd40c214	-0.047060087
96	0xbd849328	-0.0647338
97	0xbd0b2b4a	-0.03397683
98	0x3d052703	0.032507908
99	0xbdb9a47e	-0.090645775
100	0xbc6ac75c	-0.014329758
101	0x3c9286b9	0.017886506
102	0x3d4bd05d	0.049759258
103	0x3c1041d9	0.008804762
104	0x3d07e37e	0.033175938
105	0xbcbd7d78	-0.023131117
106	0xbd32ed78	-0.0436835
107	0x3cc4ea16	0.024037402
108	0xbd043f1e	-0.032286756
109	0xbc9971e9	-0.018731074
110	0x3cf9367d	0.03042149
111	0x3d622759	0.055213306
112	0xbcba27df	-0.02272409
113	0xbd7c03a4	-0.06152691
114	0xbd0a0823	-0.033699166
115	0xbcb29230	-0.021798223
116	0x3d5454cb	0.051838677
117	0xbc0cb039	-0.008586937
118	0xbce1c3f5	-0.02755926
119	0x3d5baf9f	0.053634282
120	0x3d41a9fa	0.047281243
121	0xbbbff828	-0.00585844
122	0xbdc01e6d	-0.09380803
123	0xbb8e2a85	-0.004338565
124	0x3c2166bf	0.009851157
125	0xbde17976	-0.11009495
126	0x3d79ad24	0.060956135
127	0xbc78484e	-0.0151539575

action_model._continuous_distribution.log_sigma f4 [1, 3]
0	0xbfbd6a2c	-1.4798026
1	0xbfb9a970	-1.4504833
2	0xbdd9f986	-0.10643296
