CS455_PR1/results/ShootTargetAgent_T6/ShootTargetAgent/ShootTargetAgent-92516.onnx (onnx, 490788 bytes, 18 tensors)

discrete_act_size_vector f4 [1, 2]
000000 00 00 48 42 00 00 48 42
       50.0 50.0

network_body.observation_encoder.processors.0.conv_layers.0.weight f4 [16, 1, 8, 8]
000000 6e b4 8c bd 85 4b b2 bd 86 db b6 3d 6c 81 fe bd
       -0.06870352 -0.087058105 0.089285895 -0.12427029
000010 c5 fd 5a bd 2c e6 0e 3d 3c dd 06 be 64 eb ec bd
       -0.05346467 0.034887478 -0.13170332 -0.11568335
000020 c3 1e 63 bc ac 09 84 3c 88 55 03 be 1a 16 c5 bc
       -0.013862315 0.016117893 -0.12825596 -0.02405839
000030 43 df 07 be 6f 4b c1 3d 36 1a 38 bd 13 18 5d bd
       -0.13268761 0.09438216 -0.04494687 -0.053978037
000040 2e 79 ed bc e3 41 ed bd bc 9b cd 3d 00 c1 fa 3c
       -0.028988447 -0.115848325 0.100394696 0.030609608
000050 96 e2 15 3d 80 c9 e4 bd b9 fd c2 3b cb 85 86 3d
       0.036593042 -0.111712456 0.0059506563 0.06568488
000060 a6 3a 02 be 3a d1 66 bd c8 6d d1 bd 3f df 33 3d
       -0.12717685 -0.056351878 -0.10226017 0.043914076
000070 99 19 bd bd 27 36 9d bc 27 5f 62 bc 0c 92 78 3d
       -0.09233398 -0.01919086 -0.013816631 0.060686156
000080 f7 f2 f2 bd 93 06 e5 bd dc 46 ae bd 82 4f a3 3d
       -0.11862748 -0.111828946 -0.08509609 0.07974149
000090 ad 82 a7 ba 58 61 d7 bd 79 25 70 bd 10 14 6c 3c
       -0.0012780033 -0.10516614 -0.058629487 0.01440908
0000a0 34 dd d5 bd 1b 12 84 3c 87 e6 e5 3b 14 6a 70 bd
       -0.10442582 0.016121915 0.0070160064 -0.058694914
0000b0 07 f1 5a 3d f9 71 18 be a9 d2 92 bd a6 ab 07 be
       0.053452518 -0.14887227 -0.071690865 -0.13249072
0000c0 f8 cc a0 bd 8b 61 93 3d 97 88 06 be 26 87 cc bb
       -0.07851595 0.07196339 -0.13138042 -0.006241697
0000d0 86 22 b2 bc 2b e0 8c 3d 2d d0 c2 3c 62 b6 ac bd
       -0.021744978 0.06878694 0.023780907 -0.08433224
0000e0 f9 72 86 bd 28 13 27 3d 34 6f 0d be 3f cf 02 be
       -0.06564898 0.040789753 -0.13811952 -0.1277437
0000f0 e4 ce 01 be 07 af 12 be bb ac c7 bd 96 7f c7 bd
       -0.12676579 -0.1432458 -0.097497426 -0.09741132
000100 9f 91 44 3c 3d 75 06 3e e8 e6 34 bd 45 5f e1 bd
       0.011997609 0.1313066 -0.04416552 -0.11004499
000110 45 0f 56 3c 24 4e 27 3c df 26 1b be ce 28 1d 3d
       0.013065164 0.010211501 -0.15151547 0.038368993
000120 bd 18 81 bd fe 9c 07 3e 48 4f b0 3d aa bd ac bd
       -0.063035466 0.13243482 0.08608872 -0.08434613
000130 96 87 93 3d 6c b0 9c bd 13 7d 49 be a7 48 57 be
       0.07203595 -0.07650837 -0.19676618 -0.21023808
000140 d9 a6 be 3d 25 64 d2 3d 09 9b 23 bc 67 bf d1 bc
       0.093091674 0.10273007 -0.009985694 -0.025603963
000150 23 65 cc 3d 54 4a 31 be c8 07 2f be 27 3d 20 be
       0.09980228 -0.1731351 -0.17092812 -0.15648328
000160 3b ed d4 3c c6 cb 98 bd ff a9 5d 3c 42 4f bf 3c
       0.025992027 -0.07460742 0.0135293 0.023353223
000170 b5 d7 e3 3d b0 a8 a7 3a 51 7f c5 bd 9d 7e 44 bd
       0.11125127 0.0012791362 -0.09643424 -0.04797231
000180 50 c1 90 3d ff 4b 73 bd 9b a5 d4 bd 5a 11 23 bc
       0.070681214 -0.059398647 -0.10383149 -0.009952867
000190 28 76 00 3d 9c b8 b4 bd c7 18 39 be c0 a4 48 bd
       0.031362683 -0.08824274 -0.18075858 -0.048985243
0001a0 5b e1 f6 3d 3e 77 aa 3c 62 6a d6 bc 18 92 f5 bd
       0.12054702 0.020808812 -0.026173774 -0.11990756
0001b0 d0 ce 72 3d d5 1b 33 be 85 6e 0e be 1e 0b 6a bd
       0.059279263 -0.17491086 -0.13909347 -0.05713951
0001c0 46 a2 cf 3d 98 7a 06 be f6 6c 1b be a7 9f 8d bc
       0.10138373 -0.13132703 -0.15178284 -0.017288042
0001d0 be c7 96 bd 8c 92 27 be 0e f3 2a be 7f b0 c9 bd
       -0.073623165 -0.16364497 -0.1669428 -0.09848117
0001e0 16 44 87 3d d7 24 0b 3c 2f 09 95 3d d2 9f 5e bb
       0.06604783 0.00849267 0.07277142 -0.0033969772
0001f0 9b e7 fd 3c 8f fa c0 bd 66 de 0f be 2f 2f 29 3d
       0.030994227 -0.0942279 -0.14049682 0.041304763
000200 b9 bb c6 3d be 47 48 ba 74 38 ee 3d 6a 0c a3 bb
       0.09703774 -0.0007640085 0.11631861 -0.004975845
000210 84 3f dc 3d f6 40 1b 3e dd 37 3c 3c 8e 17 a9 3d
       0.10754302 0.151615 0.011487928 0.08256446
000220 f4 76 0f 3e a8 f2 20 3e aa 2d 68 3d 4b af 89 bd
       0.14010221 0.15717566 0.056684174 -0.067228876
000230 75 ea 5d 3d b9 b0 2f 3e ae 89 c4 3c bd c0 c9 3d
       0.054178674 0.17157258 0.023991432 0.09851215
000240 a4 e1 90 bd 93 96 0e bd 2d 28 4e 3d 73 95 c6 3d
       -0.070742875 -0.034811568 0.050331283 0.09696474
000250 46 e7 20 3e d9 67 31 3e d9 2d a5 3d 7a c7 41 bd
       0.15713224 0.17324771 0.08065385 -0.047309376
000260 b5 76 29 bd 18 b3 36 3c 1a 36 c3 bd 71 b6 63 3d
       -0.041372973 0.011151098 -0.095318034 0.05559391
000270 8f 24 0e 3e 1c 11 90 3d 2f bd 12 3e a9 d6 dc 3d
       0.13881133 0.07034513 0.1432998 0.10783131
000280 9d 70 f5 bd 15 1b b1 ba 3f ed 00 3e c0 49 89 3d
       -0.1198437 -0.0013512099 0.12590502 0.0670352
000290 d8 01 73 3c 87 57 e2 3d e3 87 bf bc d5 4d 11 3e
       0.014831983 0.11051851 -0.023380226 0.14189847
0002a0 7e 10 3a 3d 66 2a cd 3d 0d c8 a7 bd ce 53 9f bd
       0.045425884 0.100178525 -0.081924535 -0.07779656
0002b0 fc b1 18 3e b6 fb 00 3e 24 68 c7 bc 80 64 05 3d
       0.14911646 0.1259602 -0.02434165 0.032566547
0002c0 ee df db 3d 24 4d cd 3d 24 7f 00 3d 99 bd 0b 3e
       0.107360706 0.10024479 0.03137125 0.13646545
0002d0 eb 5d ff bc af 1a 05 3e 6a 70 11 3d 10 6f d2 3d
       -0.031172713 0.1299846 0.035507597 0.1027509
0002e0 83 36 b0 bd b5 46 cb 3c 17 c2 bf 3d 73 13 16 3c
       -0.08604147 0.02481399 0.093631916 0.0091599105
0002f0 6f 2c 35 bd 77 d6 9b bd 10 07 17 3e 36 a5 19 bd
       -0.04423183 -0.07609265 0.14748788 -0.037511073
000300 4d 55 97 bc 9c 7c d1 bd 98 53 a0 bd e6 06 05 3d
       -0.018473292 -0.102288455 -0.07828444 0.032477282
000310 7e 80 c6 3c ab 41 1d 3d 13 ca d4 bd b6 d1 86 bd
       0.024231192 0.038392704 -0.10390105 -0.06582968
000320 77 64 74 bc 3c a2 82 bd 6d 7b b1 3c 90 26 0a 3c
       -0.014916531 -0.063786 0.0216653 0.008432046
000330 0f 12 8f bc 34 d8 8b bd 9b bf eb bd a9 3d b6 bc
       -0.017464666 -0.06828347 -0.11511155 -0.022246199
000340 c0 2e eb bc c9 ad fa bb 9b 69 1f be cd 5e 0b be
       -0.028708816 -0.0076501113 -0.15567629 -0.13610382
000350 83 86 5b 3d 7e 49 7e 3d 93 c8 03 bd 90 bf 82 3c
       0.053595077 0.062081806 -0.032173704 0.015960485
000360 e9 b4 c4 bc fc 41 27 be f9 cb c0 3b e4 79 36 bd
       -0.024012046 -0.16333765 0.0058836904 -0.044549838
000370 e4 7b ad 3d 6a 89 9a bd ce 48 e1 bd 64 04 1f be
       0.08470896 -0.07545741 -0.110002145 -0.15529019
000380 73 9a 9b bd e5 3b dc bd c5 21 83 bd 7e 3f ea 3c
       -0.07597818 -0.107536115 -0.064029254 0.028594729
000390 c7 fc 66 3d ac ba e4 bd f9 3d c7 3c 4a ce 5c 3c
       0.05639341 -0.11168417 0.024321543 0.0134769175
0003a0 d2 06 06 bd fe 07 96 bd 5e 5d 2d be 40 8e a0 bd
       -0.032721348 -0.07325743 -0.16930148 -0.07839632
0003b0 f2 22 3d 3d 84 5f 0c 3d 6e 6d 06 be 74 48 b4 bc
       0.046175905 0.03427078 -0.13127682 -0.022007205
0003c0 a0 63 75 3d 6b cf 11 be 73 98 02 3d 75 0b f8 bd
       0.059909463 -0.1423928 0.03188367 -0.1211156
0003d0 48 6f ca 3c 07 cb 22 be f9 3c 2b be 1a da ec bd
       0.024711266 -0.15897761 -0.16722478 -0.11565037
0003e0 af 2a 0c 3d 0c 8a c3 bd 41 89 f3 bd 7b 01 30 be
       0.034220394 -0.09547815 -0.118914135 -0.17188065
0003f0 b6 0f 82 bd ed bb f5 bd 23 69 4c 3d f6 ff c1 bd
       -0.06350653 -0.119987346 0.049904954 -0.09472649

network_body.observation_encoder.processors.0.conv_layers.0.bias f4 [16]
000000 fa 10 ae 3b 8b ad 82 bd 5b ad a5 bc c3 91 0e 3c
       0.0053120824 -0.06380757 -0.020224264 0.0087017445
000010 d6 20 e3 3c 45 06 fd bc 47 10 4c bc d7 12 45 bc
       0.027725618 -0.030886779 -0.012455053 -0.012028418
000020 0a 21 96 bd 47 a2 20 3c f5 2c a2 3b 67 3e e4 3c
       -0.073305205 0.009804315 0.004949207 0.027861787
000030 cb 78 fc b9 f9 3d 7b bb 04 d7 95 3c 13 c7 27 bc
       -0.00048155183 -0.00383365 0.018291004 -0.010240334

network_body.observation_encoder.processors.0.conv_layers.2.weight f4 [32, 16, 4, 4]
000000 6f e6 34 bb 8f 58 70 3c dd 7a 40 bb 63 7f d1 3c
       -0.002760317 0.0146695515 -0.0029370107 0.025573438
000010 2b da f4 3c a0 21 4a 3d 12 c5 71 3d ed ad ad 3d
       0.029889187 0.049348474 0.05902583 0.08480439
000020 c9 0a 2d bd 06 b1 93 3d 72 53 53 3d cc f3 ca 3d
       -0.042246614 0.07211499 0.05159325 0.09909782
000030 1a d9 22 bd 45 98 4f bd 7b 60 89 3d fa e5 75 3d
       -0.039757825 -0.050682325 0.06707855 0.060033776
000040 e0 25 88 bb c1 6e c2 3d 9d 00 16 bd b6 1f 2a 3d
       -0.0041549057 0.09493781 -0.03662168 0.04153415
000050 c7 69 ac 3c 73 6d ad 3d da 17 85 3d f2 ee cd 3d
       0.021046532 0.084681414 0.0649869 0.10055341
000060 81 f0 ce 3d 52 db ef 3c 1d 2d bf 3d 59 e6 d9 ba
       0.10104466 0.029279385 0.093347766 -0.0016624435
000070 6f 83 f9 3c 2c 0b d5 3c c7 8b 21 3d c9 43 64 3d
       0.03045818 0.026006304 0.039439943 0.055728707
000080 55 24 17 3d 64 c2 93 3c be cc c4 3b 4d a0 a2 bc
       0.036899883 0.018037029 0.0060058525 -0.019851828
000090 99 46 ba 3d c5 8b 54 bc 99 01 52 bd 84 24 99 bd
       0.09095497 -0.012972777 -0.051271055 -0.07477668
0000a0 2b de 6d 3d cd 97 4f 3d 49 4e 4e bd a1 d0 20 3d
       0.058073204 0.050681878 -0.050367627 0.039261464
0000b0 a0 3e 48 3c 37 3b 4e bd 4b 21 e3 3c 79 d4 81 3a
       0.012221962 -0.05034944 0.027725836 0.0009905241
0000c0 7f 6a 5b 3c 9e 5b 40 bc 0d 0e eb 3c 0c f9 25 3d
       0.01339209 -0.011740593 0.028693223 0.040520713
0000d0 5f 29 ac bd d1 2c 3c bd 75 2b 17 bd 72 e9 3b bc
       -0.084063284 -0.045941178 -0.03690668 -0.011469232
0000e0 62 d0 78 bd 1e be a5 3a 6e e3 12 3d 36 c4 a7 3d
       -0.060745604 0.001264516 0.035861425 0.08191721
0000f0 86 ed 46 bc 86 fd 63 bd 3a 8a 78 3d 17 d7 9c bc
       -0.012141591 -0.0556617 0.060678698 -0.019145532
000100 17 94 48 bd fd 19 ca 3b 55 80 c3 bc f4 c0 31 3d
       -0.048969354 0.006167649 -0.023864904 0.043396905
000110 fc c3 5f bd f5 95 62 bd d9 c6 f8 bc 8b 2e 2c 3d
       -0.054630265 -0.05531879 -0.030368255 0.042036574
000120 cc 23 d6 3c b9 57 14 3d 23 d2 89 bd 6e 0e 8e bd
       0.026140116 0.03621647 -0.067295335 -0.06936346
000130 c9 37 51 bd 20 26 ae bd 9c bc 92 bd 0c 5d 7e 3c
       -0.05107859 -0.085033655 -0.07164881 0.015525114
000140 3f 4a 79 bd 74 6c 99 bc 3d df 17 3d 57 43 16 3d
       -0.060861822 -0.018728472 0.03707813 0.036685314
000150 c6 36 be bd ae b6 1a bd 17 99 97 3d c7 3a 97 3d
       -0.09287791 -0.037771873 0.074022464 0.07384258
000160 ae 04 cf bd b6 82 4d bd 01 8b 0f bd 51 dd b3 3d
       -0.101083145 -0.050173484 -0.035044674 0.08782447
000170 9c 9c d5 bd 07 11 95 3d 6a c1 f8 3c cb 01 57 bd
       -0.104302615 0.07278638 0.030365665 -0.052491944
000180 ba 7a cc bd 08 16 99 bc 9a 3c b6 bd 4b 53 a1 bc
       -0.09984346 -0.018687263 -0.088982776 -0.019693037
000190 68 8d 5f bd 85 bb ce bb 26 be 3d 3d ef 9b 08 3d
       -0.054578215 -0.006308975 0.046323918 0.033351835
0001a0 63 bb 98 bd 23 8f 80 3d 29 1b 00 bd 2e 73 ca bc
       -0.07457616 0.06277301 -0.031275902 -0.024713125
0001b0 96 27 cc 3d 16 0f f4 3d 3f d9 47 3d e2 20 06 bc
       0.09968488 0.1191694 0.048791166 -0.008186551
0001c0 f9 d2 da bd c6 b6 e4 3d 9c 8a 2f 3d 15 ab 66 39
       -0.10684771 0.11167674 0.042856798 0.00021998242
0001d0 a5 56 3d bc 93 bf c6 3d cb 59 87 3d 87 81 6c 3d
       -0.011556302 0.09704509 0.066089235 0.057740714
0001e0 ee b4 7d bd 65 d3 31 3d d4 b3 3b bd c7 0a ba 3d
       -0.061940126 0.043414492 -0.045825794 0.09084087
0001f0 21 84 64 3c d4 23 9c 3d 5b 23 68 bd 05 c4 9d 3d
       0.013947518 0.07624021 -0.056674343 0.077034034
000200 a5 e4 5c 3d a3 58 a0 bc b7 b0 60 bc a7 52 06 bd
       0.05392899 -0.019573515 -0.013714007 -0.032793667
000210 66 d1 e8 ba f6 8e 07 3d 3e 1b 4f 3d 16 9c 0c bd
       -0.0017762601 0.033095323 0.05056309 -0.034328543
000220 40 e6 52 3d 12 40 2c 3a 01 b5 66 3d 8a af 6a bd
       0.051489115 0.00065708265 0.056324963 -0.057296313
000230 ce 92 13 3c 95 81 c3 3d 01 bf ed bc 0e 2e 3f bc
       0.009007169 0.095462 -0.029021742 -0.011668695
000240 8a 1f 30 bc ed 9a 5b 3c 26 53 f1 3c 5b 1e 43 bd
       -0.010749707 0.013403636 0.029458594 -0.04763637
000250 8b 16 aa bd 80 4b cd 3b fc 25 6a 3c 4c 5c c7 bc
       -0.08305081 0.006265104 0.014291283 -0.024336003
000260 87 81 5b bd 4f e1 fd bb 6f 96 87 bd cf e1 5f bd
       -0.053590324 -0.007747806 -0.0662049 -0.054658707
000270 94 4c 60 bd 85 22 3e bd 39 0e 80 bd db f8 55 bd
       -0.05476053 -0.04641964 -0.06252713 -0.05223928
000280 b4 ff 1f 3b 8a b3 cf 3c 7e 4c a2 bc e4 14 20 bd
       0.0024413886 0.025354166 -0.019811865 -0.039082423
000290 32 b4 0b bc bf a2 46 bd 28 ec f5 bb b6 7a 15 bd
       -0.008526849 -0.04849505 -0.0075049587 -0.03649398
0002a0 61 6f 8f bc 51 df 8b 3d 10 e5 a5 bd bb 92 fc bc
       -0.017509164 0.068297036 -0.08100331 -0.030831685
0002b0 fb b2 d9 bb 70 37 9d bb ca e0 8b 3b 4e af ea bb
       -0.0066436506 -0.0047978684 0.0042687403 -0.007162011
0002c0 ef 6c 59 bd 8b 8c a5 bd 37 40 4a bd 1b 47 04 bd
       -0.053082403 -0.08083447 -0.049377646 -0.032294374
0002d0 7b b1 5e bd 01 a9 4b 3d 37 3a b2 bc 12 74 d0 bb
       -0.054368477 0.04972172 -0.021756275 -0.006361493
0002e0 b6 93 e7 3c 0f d6 bb 3b 6b ed 09 bb 33 eb b9 3d
       0.028268676 0.005732305 -0.0021046053 0.09078064
0002f0 f4 63 a9 bc 02 9d 57 3c 7c 69 4c 3d d7 30 a3 3c
       -0.020677544 0.013159992 0.049905285 0.01992075
000300 37 83 11 bd e4 8b 96 bd 06 6e 19 3d 57 46 b4 bd
       -0.035525527 -0.07350901 0.037458442 -0.08802479
000310 ad e4 5a bb 2c 4a ef 3c 46 00 48 bd d3 67 8a bd
       -0.0033400462 0.029210173 -0.048828386 -0.06758084
000320 6b 49 97 bd 24 20 8a 3d 40 a0 07 3d e6 0d 45 bd
       -0.0738705 0.067444116 0.03311181 -0.048108958
000330 da a7 1e 3b d8 ed 3c bd 51 60 86 3c e8 38 85 bd
       0.0024208934 -0.046125263 0.01640335 -0.06504995
000340 55 5d c9 bc a5 07 fb 3c d7 66 30 bd cf 3c 9d 3c
       -0.024580637 0.030643294 -0.043066826 0.019194035
000350 6d e6 a3 bc 14 0c 63 bd a8 a8 a5 3c 60 2e 1d bc
       -0.020007337 -0.05543144 0.020222023 -0.009593576
000360 e2 a7 bd 3d 96 57 7a 3d 67 b6 17 3d 6f a2 26 bd
       0.09260537 0.061118685 0.037039187 -0.040682252
000370 eb f8 59 bd be 88 ee 3c dc d8 2d bd 0c 82 db bc
       -0.053215902 0.029117938 -0.04244314 -0.02679541
000380 2c ab 1e bd 29 dd 67 bd a2 04 c7 3b 23 44 e7 3c
       -0.03873746 -0.0566074 0.0060735503 0.028230732
000390 90 59 44 bc 74 1c 50 bd c9 81 3c 3d af 61 50 3d
       -0.011984244 -0.050808385 0.04602221 0.05087441
0003a0 12 a5 3a 3d 40 b4 07 3d fb ad 7f 37 95 46 0e 3d
       0.04556758 0.033130884 1.5239692e-05 0.03473528
0003b0 67 61 9d 3b 0c 45 57 bc 67 06 0a 3d c2 f6 4c 3c
       0.004802871 -0.013139021 0.033697512 0.0125100035
0003c0 99 4b 00 3d c7 84 a6 bb de 3b 48 bd ca 47 11 3d
       0.031322096 -0.0050817463 -0.04888522 0.035468854
0003d0 ec 76 a6 3c 3f c9 9f 3d 04 36 1f 3b 31 f2 44 3d
       0.020320378 0.078020565 0.002429367 0.048082534
0003e0 ae ab d8 3c 2f 0c e8 bb 27 98 31 bd d3 f4 fc 3b
       0.02644905 -0.0070815305 -0.043357994 0.007719615
0003f0 16 59 17 3d 80 bf a4 3c 9e 4a e6 bc 6c f9 87 3d
       0.036950193 0.020110846 -0.028111752 0.0663937

network_body.observation_encoder.processors.0.conv_layers.2.bias f4 [32]
000000 9b fc 81 bd fb 1b 8b 3a 03 a6 3d bd dd 19 d0 bb
       -0.06347009 0.0010613197 -0.0463009 -0.0063507394
000010 10 0b e8 bd 45 de 8f bc 57 a9 74 bc ef 95 19 3c
       -0.11330235 -0.017562041 -0.014932952 0.009374126
000020 bb 01 e0 bb 50 13 00 be bf ba 3b bd ec 39 4a 3d
       -0.006836144 -0.12507367 -0.04583239 0.049371645
000030 19 d1 34 bb 47 0c d7 bc 83 91 fa bc 60 2c 11 bd
       -0.0027590452 -0.026250971 -0.030586964 -0.03544271
000040 d0 cd 0e 3d 43 46 8f bc 71 5b 49 bd 6f a8 0d bd
       0.034864247 -0.017489558 -0.04915947 -0.03458446
000050 7c 5a 93 bb 66 a5 05 bd f8 c9 44 3b 61 0c 4c bb
       -0.0044968706 -0.03262844 0.003002761 -0.0031135308
000060 a6 88 47 3c 8c a3 a6 3c b9 bf 05 bd 94 11 f0 3c
       0.012178576 0.020341657 -0.032653544 0.029305257
000070 ef b2 63 3d 4d eb c2 bc 30 b7 67 3a 9f 93 e4 3b
       0.055590566 -0.02379384 0.0008839248 0.0069756056

network_body.observation_encoder.processors.0.dense.0.weight f4 [128, 512]
000000 3d 40 db bc 95 0e 81 3d 49 d9 b6 3d d6 c2 93 bb
       -0.02676403 0.063016094 0.089281626 -0.0045093102
000010 b4 38 03 3d be 74 74 bd dc 9e 34 bd a5 af 0a bc
       0.0320365 -0.059681647 -0.044096813 -0.0084647285
000020 e8 5e 4d 3d e2 e9 3b bc 6a 5a 3a 3d 5f a8 c3 3d
       0.050139338 -0.011469336 0.04549638 0.095535986
000030 94 c7 14 3e a4 e4 0f 3d 78 90 0a 3b b5 9d c0 3c
       0.14529258 0.035130158 0.002114324 0.0235127
000040 05 35 26 3d ae d0 06 be 7c e5 db bc 45 ed e3 bd
       0.040577907 -0.13165542 -0.026842825 -0.1112924
000050 bf 83 b3 bd 3e 1a 5c 3d 68 9b b9 3c 2d a4 b0 bd
       -0.08765363 0.053735964 0.022657111 -0.08625064
000060 fc 1a 10 3c ad 5d 1c 3d d9 64 6e 3d a0 b2 ca bc
       0.008795496 0.038175274 0.058201645 -0.024743378
000070 23 8f 36 3d a0 c9 81 be 1e 58 0f bc 21 fb 27 bc
       0.0445701 -0.2534914 -0.008749036 -0.010252745
000080 26 ba d9 bc 57 85 17 be f2 f4 02 bd 73 55 32 3c
       -0.02657802 -0.14796959 -0.03197188 0.0108846305
000090 cb 56 05 bd 0e c2 cb bd 53 f8 43 3c b6 b0 0e bd
       -0.032553475 -0.09949122 0.011961061 -0.034836493
0000a0 46 18 1b 3d df 16 aa bd 47 b9 51 3b f8 24 f8 bd
       0.037864946 -0.083051436 0.0032001303 -0.12116426
0000b0 c0 23 e6 3d e9 0b 36 bc 55 31 a3 bd e3 76 e8 3c
       0.112372875 -0.011111238 -0.07968394 0.028377002
0000c0 17 04 fd 3c 95 44 af 3c 2d 8f 88 3d b5 2f 1d bc
       0.03088574 0.021395007 0.066679336 -0.009593894
0000d0 87 80 93 3c 18 ba de bd 27 d4 b4 3b 1f df ca bc
       0.018005623 -0.10875338 0.0055184546 -0.024764596
0000e0 d2 73 11 3d 41 cf b4 bc be 10 fd bd b2 b0 00 3e
       0.035510845 -0.022071483 -0.12356709 0.12567404
0000f0 f2 f8 6b bd a9 81 c9 bd 31 4a ea 3d 91 20 02 be
       -0.05761046 -0.09839184 0.11439932 -0.12707736
000100 ab 10 38 ba 1e 0b 4d bd d2 ab 7b 3d d4 89 1c bd
       -0.00070215267 -0.05005943 0.061443157 -0.03821738
000110 55 94 54 3b 27 40 02 3e 00 7b 0d 3d 2d 72 24 3c
       0.0032437046 0.12719785 0.03454113 0.010036987
000120 0c b4 4c bd 4c cd ea bd 0e 91 23 bd 9d d2 41 3d
       -0.049976394 -0.114649385 -0.039933257 0.047319997
000130 2e a4 12 3e 11 4f d2 bd b8 3b 00 3e e1 cf 44 3d
       0.14320442 -0.10268987 0.12522781 0.04804981
000140 4b e7 fa bd 33 f5 7c 3d 84 6c 10 3d a7 74 69 bd
       -0.12251147 0.061757278 0.03525974 -0.056996014
000150 27 02 4f bd 19 d1 3b 3c 93 e4 d9 3d 53 9c 30 be
       -0.050539162 0.011463427 0.106393 -0.17247133
000160 0c f6 1d 3d 63 67 22 bd 3e 78 57 bd dd 17 62 bb
       0.038564727 -0.03964938 -0.052604906 -0.0034499087
000170 00 1d 18 bd 84 81 e6 bc 92 9e 0f 3e bc ee 9c 3d
       -0.03713703 -0.02813793 0.14025334 0.076627225
000180 ef b8 13 be 25 3d 21 bd 2a 37 92 bd 78 46 d3 bd
       -0.14426015 -0.039364953 -0.07139428 -0.10316175
000190 c6 7a 96 bd 57 7e 04 3e 88 f8 5c bd 64 2d 65 3d
       -0.07347636 0.1293882 -0.053947955 0.05595149
0001a0 b2 ae 15 3e 71 2e ea 3b 70 80 35 be 73 97 e3 bc
       0.14617422 0.0071466495 -0.17724776 -0.027782178
0001b0 93 4d 1c 3e f4 14 24 bd d3 3b 8d 3d 65 37 a1 bc
       0.15263967 -0.040059045 0.06896176 -0.019679734
0001c0 cd ef e1 3a 6c 0c 88 3d 9d 30 a4 3d 46 8b 1c bd
       0.0017237604 0.06642994 0.08017085 -0.03821876
0001d0 4d 62 6d bd f8 37 ae 3c 9a 51 ca 3d 40 ec 93 bd
       -0.057955075 0.021266922 0.098788455 -0.072227955
0001e0 83 65 c2 bc d5 e6 89 bb 44 f0 2a 3e f5 7e a9 bd
       -0.023730045 -0.0042084255 0.16693217 -0.08276168
0001f0 df 06 a3 bc 3e db 1e 3b 62 a4 96 bc 20 5c 92 bb
       -0.019900737 0.0024239565 -0.01838893 -0.0044665486
000200 9f 40 1c bd 84 a5 dc bc cb ee 65 bc fd e7 e6 3c
       -0.038147565 -0.026934393 -0.014033983 0.028186793
000210 a3 a5 f8 3c 1f 2b 3f be f3 fe 1f 3d c7 6b 2b be
       0.03035242 -0.18668793 0.039061498 -0.16740333
000220 78 21 37 3e 4f 30 f8 bc ee 51 95 bd 54 27 80 3d
       0.17883861 -0.030296473 -0.072910175 0.06257501
000230 56 e8 93 bc 0d 54 e9 3d c6 72 07 3d d6 30 32 bd
       -0.018055122 0.113929845 0.03306844 -0.043503605
000240 62 23 1a 3d 84 52 c0 3c 41 33 cd 3d 37 3d 3e 3c
       0.0376314 0.023476847 0.100195415 0.011611274
000250 db 2a 50 3b 7e f5 f5 3c 8e 91 c1 3d b5 30 ea bd
       0.0031763825 0.030024286 0.094515905 -0.114350714
000260 09 24 c3 3d d7 59 90 bd 99 ea b8 bc 36 39 fa bc
       0.095283575 -0.070483856 -0.022572802 -0.030544858
000270 1e 05 c8 bd c9 c2 14 3d 63 f9 d4 bb c7 d2 3a 3a
       -0.09766601 0.036318574 -0.006499456 0.0007126745
000280 8e 82 26 bd 6c 98 b6 bd 69 2c 92 3d 06 83 e4 bd
       -0.04065185 -0.08915791 0.07137377 -0.11157803
000290 56 6b b5 bc 04 d0 3a be 81 b0 a3 bd d6 b6 98 3c
       -0.022145908 -0.18243414 -0.0799265 0.01864187
0002a0 2e a2 a9 3c e0 30 ed 3b f6 ba 3c bd 1e 86 c0 bb
       0.020707216 0.0072384924 -0.046076737 -0.005875363
0002b0 e4 df 82 bd 3e 9b 9e 3d 03 1a 2a 3d 64 a4 3a 3c
       -0.0639036 0.07744454 0.041528713 0.011391733
0002c0 1a 06 06 bd e9 21 9d bc de 77 2c bb ad ac 7a 3d
       -0.032720663 -0.019181209 -0.0026316564 0.061199833
0002d0 ba 9a 0a 3d 14 de ba bd 07 7c f0 bd e7 d9 dc bc
       0.033838965 -0.09124389 -0.11742406 -0.026959373
0002e0 8c dc b5 bd c9 07 e7 3d c6 59 18 bd 23 40 80 3d
       -0.088799566 0.11280782 -0.03719499 0.06262233
0002f0 76 32 a3 bc 8d 7d db bc 4f 47 ad bd 58 49 8e bd
       -0.019921523 -0.026793266 -0.08460867 -0.06947583
000300 6d 18 d2 bc 30 98 ac bd 69 e0 8c 3d 4f 0d f4 3c
       -0.025646413 -0.08427465 0.0687874 0.029791502
000310 13 f1 e0 3a 75 99 44 bc 32 c1 b2 3a 57 92 9d 3b
       0.001716169 -0.011999478 0.0013637899 0.004808705
000320 76 e0 d9 bd e1 57 82 3d 06 fd a3 bd 77 ff 3f bc
       -0.10638516 0.06364418 -0.08007245 -0.011718622
000330 6a 4b ce bd 1c 0c 6c bb 1e c7 23 be 22 90 1f bd
       -0.10072978 -0.003601796 -0.15993926 -0.038955815
000340 49 6e 8c bd cb 87 f7 bb e4 39 b6 bd 5f 0a 32 3e
       -0.06856973 -0.0075540296 -0.088977605 0.17386769
000350 fa 80 97 bd 35 60 21 3d 2c 81 83 bd 9a 82 ec bc
       -0.07397647 0.03939839 -0.06421122 -0.02887087
000360 54 de 9f bd 66 51 14 3d 7d ed 7c 3c 5b a7 fa 3d
       -0.078060776 0.03621044 0.015437481 0.12238952
000370 bb f6 c7 3d 38 5e c1 3d 0a 20 56 3d 88 ac 48 39
       0.09763857 0.09441799 0.05227665 0.00019137759
000380 ab 5e 9e bc 43 14 16 be 64 66 c2 3d f8 7a 51 bd
       -0.01933225 -0.14656167 0.09492186 -0.051142663
000390 38 bf 8e 3d c6 a0 a2 bb ba 3c 9a 3d 0d 7a 60 bd
       0.06970066 -0.0049630133 0.07531114 -0.054803897
0003a0 ca 4c 94 bc b8 8a a2 3d 25 36 6d bb fd 49 8b 3d
       -0.018103022 0.07936615 -0.0036195603 0.068012215
0003b0 b1 cf e0 3b 04 b1 8b 3d 9d 56 85 3d cd da 05 be
       0.0068606962 0.068208724 0.06510661 -0.13071747
0003c0 4b 2d f1 bd 4b 4f 06 be 11 9a e0 3c ff 0c c8 bd
       -0.11776217 -0.13116185 0.027417215 -0.09768104
0003d0 2b 59 05 3e af 24 88 3d e3 a8 e4 3d ed 8c ea bd
       0.13022296 0.06647622 0.11165025 -0.11452661
0003e0 c9 db cc bc 64 e5 2b 3d 1b 72 f1 3b 31 dc 25 3e
       -0.025007145 0.04196681 0.0073683388 0.16197278
0003f0 10 13 c0 3d 27 e8 06 3e be 97 84 bd 56 46 e1 bd
       0.09378636 0.13174497 -0.06474255 -0.10999744

network_body.observation_encoder.processors.0.dense.0.bias f4 [128]
000000 a2 93 65 bd f6 ba 12 3d c1 43 48 3d 55 91 99 3c
       -0.056048997 0.03582283 0.04889274 0.018746058
000010 b2 b9 78 3d 3a 0d 9c 3d 78 75 d0 3c b2 10 7a 3d
       0.060723968 0.0761971 0.025446638 0.06105108
000020 17 23 07 3d 6d 2c b4 3a b0 7f 85 3d 06 7f 3c 3b
       0.03299245 0.001374615 0.06518495 0.0028762235
000030 7b e4 28 3d 16 50 b3 3c 65 89 b2 bc 2d c4 8c 3d
       0.04123352 0.021888774 -0.02179403 0.06873355
000040 1c e4 20 3d 33 7b 38 3d af bb 96 3d 98 be 5a bd
       0.039280042 0.045039367 0.073600166 -0.05340442
000050 3c 8a 11 3d 42 7a 02 3c fc 4e 50 3d d2 3f 01 3d
       0.03553222 0.007963719 0.050856575 0.031555004
000060 9d 62 01 3c d1 b8 ee 3c e9 04 c4 3c ba 0c 34 3d
       0.007897046 0.029140862 0.023928123 0.04395745
000070 fa 47 75 3d 7c 0d 3b 3d 45 4e 95 3c bc 06 16 3d
       0.059883095 0.045667157 0.018225798 0.036627516
000080 cd f3 e0 bc 21 ec fa 3c a6 3c 2b 3d 61 21 ab 3c
       -0.027460003 0.030630173 0.041805886 0.02088994
000090 24 3c a4 3d aa 48 53 3d cd 00 8e 3c 5f 3b e7 bc
       0.080192834 0.05158297 0.017334366 -0.028226553
0000a0 12 9c 69 bd b0 a7 87 3d f2 22 1d 3d 42 56 15 bd
       -0.057033606 0.06623781 0.038363405 -0.036459215
0000b0 20 a8 28 bd 49 b9 ad bc ee 21 86 3d 62 83 5b 3d
       -0.04117596 -0.021206515 0.0654944 0.053592093
0000c0 58 4b 59 3d 3f 47 b0 bc 59 e8 1e 3d 1b b8 83 3d
       0.05305037 -0.021518348 0.038795803 0.064316
0000d0 88 cf 80 bd bd 93 01 bc 51 71 19 3d 3e e3 a3 bd
       -0.062895834 -0.007908759 0.037461583 -0.080023274
0000e0 0d b2 a3 3d 6e a1 80 3d 07 80 51 3d e1 0b 27 3d
       0.07992945 0.0628079 0.051147487 0.040782813
0000f0 30 fe 1a bd c5 54 9a bd f5 09 55 3d e5 d6 b7 3c
       -0.03784007 -0.075357 0.05201145 0.022441337
000100 ae e2 73 3d 3c 84 b3 3c 6a 84 9e 3d ae 7e 66 3c
       0.05954235 0.02191364 0.077401 0.014068289
000110 69 11 1c 3d 3f f8 f9 3b 2a 81 13 bd 58 c6 31 3c
       0.03810254 0.00762847 -0.036011852 0.0108505115
000120 7d 36 7e bb ad 18 9f bc 86 14 3f 3d 8f 8f b0 bd
       -0.0038789802 -0.019420946 0.046650432 -0.08621132
000130 de 91 2b 3d 72 06 af 3d a8 f2 e0 3b b1 6a a2 3d
       0.041887157 0.08546151 0.0068648644 0.07930506
000140 56 a1 d7 3c e9 ba 10 bd 93 2d 20 b9 a2 50 ff bb
       0.026322048 -0.0353345 -0.00015275767 -0.0077915946
000150 ac 46 6f 3d aa 42 38 bc f5 34 1a 3d 85 fa 6c 3b
       0.058417007 -0.011246363 0.03764816 0.0036160063
000160 2d 46 bd 3c cc 80 7a 3d b7 6d 28 3d a3 32 e9 bc
       0.023104751 0.061157987 0.041120257 -0.028466528
000170 68 57 16 bd e9 e2 1c bc e3 bf d9 3b d5 73 be bc
       -0.03670445 -0.009575584 0.006645189 -0.023248592
000180 23 05 0b 3b d8 fd 94 3d f4 61 1f 3d 8a 26 3b 3c
       0.0021212779 0.07274979 0.038911775 0.011422763
000190 9b a6 e2 3c f3 8c 4c 3d 1d c1 a7 3c 53 a9 a3 3d
       0.027667334 0.049939107 0.020477826 0.079912804
0001a0 4f d6 59 3c 9b 2a 9f 3d 2b 86 25 3d ad 4e 0c 3c
       0.013295724 0.07771798 0.040411156 0.00856368
0001b0 86 10 58 3d 9d 40 f7 bc bc 67 86 bd 18 b5 c3 3d
       0.052750133 -0.030182177 -0.065627545 0.09556025
0001c0 4f 95 a0 bd 40 c6 82 3c 30 3b d4 3c b2 09 d5 3c
       -0.07840978 0.015963674 0.025907129 0.0260056
0001d0 c9 64 b4 3b 98 01 93 3d bc 3a b9 3c 2a 72 67 3d
       0.0055051786 0.07178038 0.022611015 0.05650536
0001e0 64 e2 32 3d 47 c1 81 3d dd 03 90 bc 88 86 8d bc
       0.043672934 0.06335693 -0.017579967 -0.017276064
0001f0 85 1f ca 3a 3f a1 42 3c f2 2e 90 3c d1 11 48 3d
       0.001542077 0.011879264 0.01760051 0.048845116

network_body._body_endoder.seq_layers.0.weight f4 [128, 128]
000000 1f 69 3d bd 26 c7 aa bc ba 99 69 bd 7a d8 5e be
       -0.04624283 -0.020846914 -0.05703137 -0.21762267
000010 4b 62 41 bd 66 66 ec 3c 66 e3 92 bd 36 97 3a bd
       -0.04721288 0.028857421 -0.07172279 -0.045554362
000020 8c 23 01 bd 69 a1 ac 3d b3 9b f3 bd a8 09 66 bd
       -0.03152804 0.08429224 -0.11894932 -0.056161553
000030 51 10 04 3e 78 8f 07 bd 9f 74 de bd 39 7f 3f 3e
       0.12896849 -0.033095807 -0.108620875 0.18700875
000040 e8 e1 55 bd db 2e 63 bd c4 8b 33 3d 62 1f 81 3b
       -0.052217394 -0.055464607 0.043834463 0.0039405087
000050 aa b7 04 3d 77 ca 59 3d 51 d7 9f bb a6 30 ad bd
       0.03240172 0.0531716 -0.0048779626 -0.084565446
000060 93 75 d1 3d 82 2b ad 3c df 88 a2 3e 68 a4 bd bd
       0.10227504 0.02113891 0.3174505 -0.09259874
000070 62 d2 5e 3e 54 8a 89 3d e8 39 ab 3d 21 05 64 3d
       0.21759942 0.06715837 0.08360654 0.055668954
000080 81 86 ad bd 80 31 e6 bd a1 e7 2f be 4c 2c 5a 3c
       -0.0847292 -0.1123991 -0.17178203 0.013316225
000090 47 69 98 bd f7 e4 12 be 10 bc a0 3e 45 1c 73 bc
       -0.07441955 -0.14345156 0.3139348 -0.014838283
0000a0 b0 20 3b 3e 3b f2 1a 3d d3 4e 1d be b5 f8 74 3b
       0.18274188 0.037828665 -0.153621 0.0037379686
0000b0 f2 57 c7 bd 4b e4 b4 3b 96 77 69 bd 05 90 00 3e
       -0.09733571 0.0055203787 -0.05699881 0.12554939
0000c0 d5 b8 e0 3d 6e b3 83 bd 7b f6 61 be 8d 88 22 be
       0.10972754 -0.06430708 -0.22066681 -0.15872402
0000d0 98 92 2c be 1b 50 f2 3d 4e e6 96 3d 1f ef 9f 3d
       -0.16852796 0.11831685 0.07368146 0.078092806
0000e0 e7 73 86 bd 74 6d d4 bd d9 0d a7 bd 5e 00 3e bd
       -0.06565075 -0.10372439 -0.08156938 -0.04638707
0000f0 db a0 48 ba b6 81 a0 3a 14 d8 91 ba 50 24 20 bc
       -0.0007653364 0.0012245688 -0.0011127018 -0.009774283
000100 49 52 b0 bd 7b ac 66 bd de 4e 9e bd e0 0f 92 3d
       -0.08609445 -0.056316834 -0.077298865 0.07131934
000110 f9 3a 1f bd 5c 09 a8 bd 48 69 53 3e 23 2d 24 3d
       -0.0388746 -0.0820491 0.2064563 0.04008211
000120 ef 79 bc 3d bd bd 2a 3d 43 ac 05 3e 30 1a 4c bb
       0.092029445 0.041684855 0.13053994 -0.0031143539
000130 ae 83 34 bd 9e 88 e8 bd 91 83 55 3d 66 82 4f be
       -0.044070892 -0.11354183 0.052127425 -0.20264587
000140 e9 64 2d bd 5e 7d 2f 3e 70 cd 9c 3d 61 b9 38 be
       -0.042332564 0.17137668 0.076563716 -0.18039466
000150 a6 a4 4e 3e bf b5 81 3d e5 49 ac 3c d6 98 91 bd
       0.20179996 0.063334934 0.02103133 -0.07109229
000160 30 a7 d8 3d 44 ee 17 be 35 f3 db 3d 78 25 d7 3d
       0.105787635 -0.14836985 0.107397474 0.105051935
000170 af 49 2c be a0 0a ed 3c cc 3d 13 3e ff ae 8f b8
       -0.16824983 0.02893573 0.14379042 -6.851367e-05
000180 6c de 12 bd 5b 54 35 be a4 56 ae bd 5b b5 01 be
       -0.03585665 -0.1770796 -0.08512619 -0.12666838
000190 40 7b 99 bd 29 a6 85 3c e7 75 c7 3d ee 15 c8 bd
       -0.07494211 0.016314583 0.09739285 -0.09769808
0001a0 88 36 49 be 1a 56 0a 3e 5e 13 59 3d 2d 96 38 3c
       -0.19649708 0.13509408 0.052996986 0.011266273
0001b0 ad 40 31 be 9c 03 2f bd c2 17 04 3e 56 a8 ea bb
       -0.17309828 -0.04272805 0.12899688 -0.0071611805
0001c0 ee ce af 3d f6 6b 4c bd 56 97 9c 3d 6e 49 78 3e
       0.085843906 -0.049907647 0.076460525 0.24246761
0001d0 28 e7 a8 bd 99 11 d3 bd 81 84 20 bd 58 bb 6a bd
       -0.082472146 -0.10306091 -0.039188866 -0.05730757
0001e0 66 a0 5b 3d 1a 00 f5 bd 17 41 9e 3d 48 98 de bd
       0.053619765 -0.1196291 0.07727259 -0.10868889
0001f0 9e 2d 12 3e 09 b4 d2 3d d5 20 b0 3d b1 34 d1 bc
       0.14275214 0.10288245 0.08600012 -0.02553782
000200 74 fa 34 be 85 91 a5 bd 45 02 8b 3e 44 81 be bb
       -0.17673665 -0.08084396 0.2715017 -0.0058137495
000210 cd 5e ad 3c a5 e2 a1 bc 71 c7 a7 3d 77 08 70 be
       0.021163369 -0.019761393 0.08192337 -0.23440729
000220 80 b0 96 3d 23 fb 07 3c 27 31 97 3b 84 a3 a9 bd
       0.073578835 0.008299622 0.0046140137 -0.08283141
000230 0e 27 0a 3e 91 85 d5 3d 4d 31 88 3d ca 4e 56 3e
       0.1349146 0.104258664 0.066500284 0.20928493
000240 16 75 e6 bd 62 d8 23 bd 37 8f 0f 3d 04 fa 44 bd
       -0.11252801 -0.04000128 0.03504869 -0.048089996
000250 9f f7 13 3e f5 9b 02 3e 4e 6e 88 3c 91 09 9b 3d
       0.14449929 0.12754805 0.01665416 0.07570184
000260 30 6c c9 bd 82 f9 42 bd df 47 c9 3c b1 91 8c 3d
       -0.09835088 -0.04760123 0.024570404 0.06863726
000270 b2 31 1d 3e bc 2a ca bd a1 1f fa 3d a0 d3 63 bd
       0.15350989 -0.09871432 0.12213064 -0.055621743
000280 69 bd c6 3b eb d0 53 be 5f ad 33 3c 3b 69 3e bd
       0.00606506 -0.20685165 0.010966628 -0.046487074
000290 ff 24 17 3c 04 f6 23 3e fd e0 f1 bd bb cb 08 be
       0.009225129 0.16011816 -0.11810491 -0.13358967
0002a0 8a 49 5c 3c 0b b7 03 3e 45 eb ee 3d 0e 42 38 bd
       0.013445267 0.12862794 0.11665968 -0.04498487
0002b0 78 45 4f bd 84 51 97 bd 8b 1a c9 3d 00 b6 6d 3d
       -0.05060336 -0.07388595 0.09819516 0.058034897
0002c0 33 b6 9b bd 56 4f 14 bd 7e b9 12 bd dd 58 8a bc
       -0.07603111 -0.036208473 -0.03582143 -0.016888076
0002d0 40 a2 0f be 01 11 c8 bd c9 f1 a0 bd df cd 49 bd
       -0.14026737 -0.09768868 -0.07858617 -0.0492686
0002e0 f3 a2 84 3d 76 5e 16 be 92 16 7a bc 67 c9 d7 3d
       0.064763926 -0.14684471 -0.01526417 0.10536461
0002f0 9b e1 e0 bd 21 a8 41 be d1 06 3b bd 8f d2 9c 3d
       -0.10980531 -0.18911792 -0.045660798 0.07657348
000300 32 05 36 be 58 2f b5 3c fb 1b e9 3d f0 96 fd bd
       -0.1777542 0.022117302 0.1138229 -0.12382305
000310 ac 83 32 be 78 d4 19 be 5c 57 4f be a8 c1 1d 3d
       -0.17433041 -0.15022457 -0.20248169 0.038514763
000320 5c dd 52 3d 0a 77 c8 3d 8a 30 0b 3e 27 e8 18 bd
       0.051480636 0.0978833 0.13592735 -0.037330773
000330 92 b0 8c 3d 6f 87 8a bc c7 72 39 3e bc 4c 19 3d
       0.068696156 -0.016910283 0.1811019 0.037426695
000340 7d 16 22 bd a6 07 aa bd 1f 88 99 bb 69 b4 15 be
       -0.039572228 -0.0830224 -0.0046854164 -0.14619602
000350 06 18 a6 3d 4d 4c ec 3d a8 2c e7 bd cf 82 89 bd
       0.08110051 0.11537991 -0.112878144 -0.06714403
000360 fb dd bc 3b ce 66 d6 bd 3b c5 df 3d 11 63 c7 3b
       0.005763767 -0.10468827 0.109262906 0.0060848077
000370 39 80 50 3b 7f bc 9b 3d f0 f2 55 be 1e 69 44 bd
       0.0031814708 0.07604312 -0.20893455 -0.04795181
000380 77 e8 95 bd d4 bb ec bd aa 85 a7 bd 07 ef 23 bd
       -0.0731973 -0.11559263 -0.08179791 -0.040022876
000390 b6 fa b5 bd 20 fb 8e bd 40 0e 53 be 31 12 99 3d
       -0.0888571 -0.06981492 -0.20610905 0.07474173
0003a0 15 a5 8f 3d 06 13 58 bd d2 d8 09 be ca 58 75 bd
       0.07013909 -0.052752517 -0.13461617 -0.05989913
0003b0 9e 87 0d 3d 6b 18 f8 bd ee 2c e7 3d 5f 0b 29 3e
       0.034553163 -0.12114032 0.112878665 0.16508244
0003c0 9f 3e ed bd 02 e8 44 be 69 21 29 bc 02 13 b2 3c
       -0.1158421 -0.19229129 -0.010322907 0.02173758
0003d0 7b be 9b bd 48 19 0e be 19 94 85 3d df 52 3c 3d
       -0.07604691 -0.13876832 0.06522388 0.04597747
0003e0 4e d9 54 3e d0 e3 8d 3d b4 ef 1f be c0 de 62 3c
       0.2078602 0.069282174 -0.15618783 0.013847053
0003f0 25 90 8d bd 7a 12 f8 bb 10 6e 1d bd 12 af fe bd
       -0.06912259 -0.007570562 -0.038435042 -0.12435736

network_body._body_endoder.seq_layers.0.bias f4 [128]
000000 24 72 84 bd 0d 75 21 3d b0 a6 bb 3c b6 28 d5 bd
       -0.06467083 0.03941827 0.022906631 -0.104081556
000010 09 dc 08 bd db bf 9f 3c 47 f6 17 3d 5e 9b 1e 3c
       -0.033412967 0.019500664 0.037100103 0.009680597
000020 95 5f 52 3d 5d 44 f7 3c 41 e8 aa bc 82 7c 8d bd
       0.051360685 0.030183965 -0.0208627 -0.069085136
000030 8e 59 09 3d 10 74 49 b9 d8 34 fd 3b 16 24 1d 3d
       0.03353267 -0.0001921209 0.0077272467 0.038364492
000040 45 1e 7a bd 13 2e 9c 3a bf 75 cd bd 65 a3 25 3b
       -0.061064024 0.0011915587 -0.10032224 0.0025274393
000050 19 99 f5 bd 38 a4 27 bb 0d 3a 3c 3d 77 da 7e 39
       -0.11992092 -0.002558006 0.0459538 0.00024304712
000060 30 98 97 3a 71 5b 91 bc 87 8e ea bd 5c 2a 12 be
       0.0011565741 -0.017743798 -0.11452966 -0.14273971
000070 be 01 16 be 24 5d ba bd 2a 1b e5 bd f1 17 fe bd
       -0.14649102 -0.090997964 -0.11186822 -0.1240691
000080 00 66 46 bd c9 ff b7 bd 74 5e 2f bd be f3 67 bd
       -0.04843712 -0.08984334 -0.042814687 -0.056628935
000090 bf ad 56 bc 58 ab 84 3d 9c 8a 8c 3c 32 3c 46 3c
       -0.013102948 0.06477994 0.017155938 0.012099313
0000a0 ec 13 1f be 08 33 be 3c 32 3f 96 3c 6f 75 87 bd
       -0.15534943 0.023217693 0.01834068 -0.066141956
0000b0 a6 a5 85 3c 80 09 3c bd dd 5c 06 bb ce eb a9 bc
       0.016314339 -0.045907497 -0.0020502128 -0.020742323
0000c0 ec e8 96 3d e3 94 1c be b4 72 35 3c 43 ff fd 3c
       0.07368645 -0.15291171 0.011074711 0.031005507
0000d0 3e f7 5d be 95 a0 b0 bd cd 69 05 3d 98 e3 50 3c
       -0.21676347 -0.086243786 0.032571603 0.012749575
0000e0 eb 10 11 be a4 9e c9 ba 3a 53 22 bd ce c7 bb bd
       -0.1416661 -0.0015382362 -0.039630152 -0.09168969
0000f0 dd 02 ef bc ab 3d 04 3d a1 37 97 bc 65 b9 dc bd
       -0.02917617 0.032285374 -0.018459143 -0.10777549
000100 c8 49 30 3d 36 12 06 be a2 57 bf bc f5 7e c0 3c
       0.043039113 -0.13092884 -0.023357216 0.023498038
000110 3a f4 1f be 0a 54 44 3d 16 e4 52 3c 43 40 1f 3d
       -0.15620509 0.04793171 0.012871763 0.038879644
000120 09 ed 18 3d d3 52 da ba af 7f b8 3c 4b 79 1a be
       0.03733543 -0.0016656764 0.022521822 -0.15085332
000130 c3 e3 13 be 17 da 27 3d a0 5e 7e bd af 9b 5a 3c
       -0.14442353 0.04097947 -0.06210196 0.013342782
000140 7f d5 58 3b 72 82 00 be a1 61 05 3c 6d 95 d6 bd
       0.0033086238 -0.12549761 0.008140952 -0.104777195
000150 25 2e f5 3c f8 82 0b 3d 29 36 8d bd ca 16 8d bd
       0.02992923 0.03406045 -0.06895096 -0.06889112
000160 e3 15 1c be ba d7 e8 3c a2 dd dd 3c 31 b2 90 3c
       -0.15242724 0.028423179 0.027083222 0.017663093
000170 59 9e 19 3c 59 54 f0 bd 43 dc b6 3b 9e 01 3d bd
       0.009376132 -0.11734838 0.0055804565 -0.04614412
000180 ea e0 03 be a9 9b 26 3d 45 88 24 be a3 31 df bc
       -0.12878767 0.040675793 -0.16067608 -0.027245348
000190 9e 19 d9 3c 50 d8 ef bc f2 45 f6 bd 72 a9 d2 bd
       0.026501473 -0.02927795 -0.1202506 -0.102862254
0001a0 b8 05 36 3d 2c 1a 45 bc 59 69 0d 3d 3a c7 ce bc
       0.044439048 -0.012030166 0.034524295 -0.025241483
0001b0 c2 69 1e bd e6 e3 18 bd 49 cc 9a 3c b8 86 eb ba
       -0.038675077 -0.037326716 0.018896239 -0.0017969226
0001c0 1e ec 41 3d e9 34 0f bc 28 d0 0e be 2c b2 86 3c
       0.04734432 -0.008740642 -0.13946593 0.01644238
0001d0 d0 c4 8e 3c ec ef 33 bd 39 54 d8 bc c2 f5 c3 3c
       0.017427832 -0.04392998 -0.026407348 0.023920897
0001e0 04 ff 06 be a8 6b 4a bd 02 6d 04 be 45 27 00 be
       -0.13183218 -0.049419075 -0.12932208 -0.1251498
0001f0 00 1a 62 3d 03 ba a8 bc 3f 73 74 3d dd 08 ec bc
       0.055200577 -0.02059651 0.05968022 -0.02881282

network_body._body_endoder.seq_layers.2.weight f4 [128, 128]
000000 9c 9c d0 3d fa a3 c1 be 6c 4c ab bd 4a 0f 94 bd
       0.10186121 -0.37820417 -0.08364186 -0.07229479
000010 ec 03 25 3e f2 3b d2 bd 05 8d fa 3d 4f 9e c5 bd
       0.16114777 -0.1026534 0.122339286 -0.096493356
000020 64 a7 b5 bc cc 2e a3 3d 44 f5 62 bd f7 4f 0b bd
       -0.022174545 0.0796791 -0.055409685 -0.034011807
000030 c7 31 d3 bd ec f8 08 be e8 24 c2 bd 2c 6e d7 ba
       -0.10312229 -0.13376206 -0.094796956 -0.0016436032
000040 25 d9 06 3e a4 ef c3 3d 4e d6 48 3c 26 79 e7 3d
       0.13168772 0.09567192 0.0122581255 0.11302404
000050 19 59 4f bc 93 34 bc bd 6e 97 14 be e1 44 bd 3d
       -0.01265552 -0.09189715 -0.14510891 0.09241653
000060 42 96 1f bd 0e 0c 14 be fd f7 0f 3e b6 6b 5a 3d
       -0.038961656 -0.14457723 0.14059444 0.053325377
000070 76 1a 79 3d bb 0e 53 3e 98 60 46 bd b3 46 e3 3b
       0.06081625 0.20611088 -0.048431963 0.0069359182
000080 db 8d 80 3e 9e 5a 1b be 88 8a 40 3e ce 08 6e 3e
       0.25108227 -0.15171286 0.18802845 0.23245546
000090 3d c4 8c bd 8e 45 8c bd a8 60 77 bc d7 f0 c4 3d
       -0.06873367 -0.06849204 -0.015098728 0.09616249
0000a0 c7 e7 c7 bd 39 42 36 bd 47 20 b1 3d e9 ca 3a 3e
       -0.09761005 -0.04449675 0.086487345 0.18241467
0000b0 fe b3 04 bd 05 e7 22 be 69 0c 3c 3d 59 f6 3a bd
       -0.032398216 -0.1590844 0.045910273 -0.04564509
0000c0 e7 96 cf 3d 4a e0 77 3d 61 d8 62 bd ff 4b b7 3d
       0.10136204 0.060516633 -0.055382136 0.08950042
0000d0 75 9c f5 3d 4c 27 c7 bd d1 02 87 bd 56 2e aa bb
       0.119927324 -0.09724292 -0.06592334 -0.005193512
0000e0 b9 60 1b bd 00 1f e3 3d 7a 1e 55 bd bc b6 72 3c
       -0.03793404 0.11089897 -0.052031018 0.014814075
0000f0 fc a8 c9 3d 93 1e ae bd f4 7f 76 bd 1e 10 8d 3d
       0.09846684 -0.08501925 -0.06018062 0.0688784
000100 d3 12 51 bd 98 1c 81 3e 00 fc 5f bd 5e 21 e7 3b
       -0.051043343 0.25217128 -0.054683685 0.007053538
000110 c3 a9 be 3d b5 5a 12 3e c4 1c 85 bd 68 2c f4 bd
       0.09309723 0.14292414 -0.06499627 -0.11922532
000120 e9 64 c3 bd bf cb 4c be 9e ca a6 bd d8 48 a8 3c
       -0.095407315 -0.19999598 -0.08144115 0.020542547
000130 a2 02 d2 bd b2 ac 1a bc 0d 5b 06 3e eb 14 4d be
       -0.102544084 -0.009440588 0.1312067 -0.20027511
000140 4e 7f 91 be 92 89 ad 3d 42 b1 e4 3d 4c d9 f0 3d
       -0.28417438 0.08473505 0.11166622 0.11760196
000150 05 45 bb 3d 27 0f aa bd 80 91 c8 bc 65 b3 18 3d
       0.09144024 -0.08303671 -0.024483442 0.03728046
000160 54 88 15 3d 5a 55 5d 3d b5 55 01 3e 9c ed 4a 3e
       0.036506966 0.054036476 0.12630351 0.19817203
000170 dc 6f 9d bb 52 c6 a9 bd 37 b2 5b bd 73 08 da bd
       -0.0048045944 -0.0828978 -0.053636756 -0.10646143
000180 17 69 2b 3d 99 a0 84 bd 44 9f 1c 3d 7b 47 1d 3e
       0.04184827 -0.06475944 0.038237825 0.15359299
000190 57 78 35 be 25 88 9d 3d f4 13 0f 3c d4 34 50 3e
       -0.17721687 0.07691983 0.008732785 0.20332652
0001a0 57 62 33 bd a7 9c d3 bb ae 47 c3 bc 88 4f 10 3e
       -0.043794956 -0.0064578834 -0.02383789 0.14092839
0001b0 95 be 3d bc 5a 37 7c be 30 08 14 3e 1b ef b7 3d
       -0.011581083 -0.2463049 0.14456248 0.089811526
0001c0 67 a8 80 bc 31 34 3b 3d dd 02 d8 3d e1 59 00 be
       -0.0157053 0.04570407 0.10547421 -0.12534286
0001d0 7f 89 77 3d 18 b5 ad 3d 7a 38 83 bd e7 3e 27 bd
       0.06043386 0.084818065 -0.064072564 -0.040831473
0001e0 6f 9d 09 3e 06 08 26 be 9e f0 71 3d a4 75 ac 3d
       0.13438962 -0.16213998 0.05906736 0.08420876
0001f0 93 3c 11 be 80 ca 9f bd 71 c8 2d bd f7 37 26 bd
       -0.14183263 -0.07802296 -0.042427484 -0.040580716
000200 63 f1 aa bd a5 d4 e1 3b f1 ea f9 3c b3 10 1f be
       -0.08346822 0.0068918043 0.030507537 -0.15533714
000210 16 96 9b bc f3 3b 02 bd 2c 40 8f bd d2 43 5f 3c
       -0.018992465 -0.031795453 -0.06994662 0.0136270095
000220 09 9a 03 be 72 5d ed 3d e0 3b 0a 3e e6 62 0f be
       -0.12851728 0.11590089 0.13499403 -0.1400257
000230 cb 4b 5b 3e f0 35 67 3d 3a ea 32 be f6 14 ab bd
       0.21415631 0.056447923 -0.17472163 -0.08353607
000240 3d 20 97 bc c9 7b 1a 3d 9e d0 3e be 3f 86 e2 3c
       -0.01844799 0.037715707 -0.18634269 0.027651904
000250 e0 77 28 bd aa 78 5f be cb 6a 22 3e 80 c5 9e bc
       -0.041129947 -0.21823373 0.15861051 -0.019381285
000260 08 ac 75 3c fd af 05 3d 54 e7 89 be 93 ae 12 be
       0.014994629 0.03263854 -0.26934302 -0.14324407
000270 9b c2 6a bd f0 f7 9c 3c 9a 7c 63 3d 22 63 8b bd
       -0.057314496 0.019161195 0.05553875 -0.068060175
000280 46 bd 22 bd ce 23 ff bd 1c 40 9d bd 3f ac b3 bd
       -0.039731286 -0.12458001 -0.076782435 -0.08773088
000290 9d f4 84 bd 27 42 25 bc 34 a2 77 3c 18 0c 0b 3d
       -0.06491969 -0.010086573 0.015114356 0.03394708
0002a0 12 2a 28 bb cf 62 ad 3d 4b da 52 bd 7f 0f d0 bd
       -0.0025659841 0.08466112 -0.05147771 -0.10159206
0002b0 0f 52 a5 bd 3f 42 2e be 14 73 f9 bd f4 90 ac bd
       -0.08072292 -0.17017458 -0.121801525 -0.08426085
0002c0 15 38 f6 bb b9 36 c8 bc 72 b0 a5 3d 07 f6 9f be
       -0.0075140097 -0.024440156 0.08090295 -0.3124239
0002d0 4e 2e 46 3a f2 97 fc bd e7 d8 4d bd 34 e1 df bd
       0.00075600005 -0.12333669 -0.050255682 -0.10931626
0002e0 dc dd 93 bd d3 2e 9e bd 56 2d 8d bd 97 d5 cc 3d
       -0.07220051 -0.07723775 -0.06893413 0.100016765
0002f0 9d eb 96 bc f1 7c 99 bd 15 f5 0a be 7d f1 e7 bd
       -0.018422896 -0.07494534 -0.13570054 -0.11325357
000300 d1 bc 9a bd 7b 60 64 bc 2d 66 9a bc e9 5c ee 3c
       -0.07555545 -0.013939018 -0.01884755 0.029097037
000310 bf 74 c6 bc a1 ff d5 3d de 06 bb 3d a1 ea da 3c
       -0.02422559 0.10449148 0.09132169 0.026723208
000320 ce 6f 06 3e f4 23 fa 3c 1e 71 2f bd 92 5d a0 bd
       0.13128588 0.030534722 -0.042832486 -0.07830347
000330 c2 27 6c 3d 78 4a 06 3d d4 91 4f be 6e 52 d2 3d
       0.057655104 0.032785863 -0.20270473 0.102696285
000340 40 f6 f5 3d 35 21 0d be 37 c6 27 be 30 11 03 bd
       0.12009859 -0.13782199 -0.16384207 -0.031998813
000350 a3 88 09 bd 9d 40 a1 bd f0 b1 69 bd 61 99 3a be
       -0.033577573 -0.07873652 -0.05705446 -0.18222572
000360 89 ec 09 be f7 e6 76 bd 1e 73 2b 3d 74 10 93 bc
       -0.13469137 -0.06027886 0.04185783 -0.017952181
000370 42 09 d5 bd 44 57 97 bd 9c f0 d7 bd 96 3f 66 bd
       -0.104021564 -0.073896915 -0.105439395 -0.056212984
000380 63 81 1d be 8d 2a 10 3d fa 7b 64 be 70 94 85 bd
       -0.15381388 0.03519683 -0.22312918 -0.06522453
000390 94 21 f7 bd 11 a9 34 be 4d 10 86 bd 59 82 94 3d
       -0.120669514 -0.17642619 -0.06546078 0.07251424
0003a0 b8 57 d2 3b d0 39 36 be 9e b3 4e 3d 02 54 81 bd
       0.0064191483 -0.17795491 0.050464265 -0.06314851
0003b0 2d 15 0d be 80 e4 90 3b b7 90 80 3b 8c dc 40 3e
       -0.13777609 0.0044217706 0.0039235014 0.18834132
0003c0 66 db 7d 3d 3b 9e 52 bd 24 10 45 be 97 60 12 3e
       0.061976813 -0.05142043 -0.19244438 0.14294659
0003d0 7a be 57 bd 06 37 a6 3a 0c 00 08 3e 64 6c ab 3d
       -0.052671887 0.0012681193 0.13281268 0.08370283
0003e0 0c 47 94 bd 63 f7 ce 3c 8f 74 1d bd 43 88 0e bd
       -0.072401136 0.025264448 -0.038441237 -0.034797918
0003f0 53 10 29 3d 34 d3 2d be ce 1c 1a 3e 8f 08 d8 3d
       0.041275334 -0.16975099 0.1505005 0.105485074

network_body._body_endoder.seq_layers.2.bias f4 [128]
000000 d8 49 20 bd 54 e0 8d 3d 03 54 eb bc f3 f1 2e 3d
       -0.039132923 0.06927553 -0.028726583 0.04271121
000010 f6 92 3e 3c 51 a2 8e bd 02 d3 fc 3b 2b c0 4f bc
       0.011631718 -0.06964553 0.007715584 -0.012680094
000020 44 f4 67 3d 34 d4 a2 3b 49 4b 56 3d 1a 35 85 3d
       0.056629434 0.0049691442 0.05231789 0.06504269
000030 cc d3 54 3d fe 25 59 bd 99 21 a0 bd dc 19 e3 bc
       0.051959798 -0.053014748 -0.07818908 -0.027722292
000040 dc d6 4d 3c 03 37 f2 3c c0 fa de 3c f7 0b 61 bd
       0.0125634335 0.029567247 0.027219176 -0.05494305
000050 1c 1a ab 3c 1d fa 23 3d bd 8e a4 bc 8c 3a 1d 3d
       0.020886473 0.04003345 -0.020087594 0.038385913
000060 b0 d5 78 ba 6e 3f a3 bd 06 87 84 3d 35 6f 91 3c
       -0.0009492291 -0.07971083 0.06471066 0.017753223
000070 ec 2f 8f 3d b0 a2 fb 3b b0 bf ab 3d be cc d3 3c
       0.06991562 0.007679306 0.08386171 0.025854465
000080 b6 d3 0a 3d 25 32 53 3d 6a 2c ae bd b2 5b 3d bd
       0.03389331 0.051561493 -0.08504565 -0.046230026
000090 0d 9f 08 3d 4c 16 01 bd c9 d9 f3 ba 82 92 64 3d
       0.033354808 -0.031515405 -0.0018604334 0.055803783
0000a0 b6 bd 29 bd 23 57 b4 bd 08 79 84 3c b9 04 b0 3c
       -0.041440688 -0.088056825 0.016170993 0.021486627
0000b0 e7 ba 4c bd d6 68 65 3d ba 6b 22 bb 54 86 d6 bd
       -0.04998293 0.056008182 -0.0024783448 -0.1047484
0000c0 81 6d d7 bd eb 39 ad 3d 1e 66 d9 bd 7c b6 43 3d
       -0.10518933 0.084583126 -0.106151804 0.047781453
0000d0 dd 79 3d 3d d3 05 cd bd 52 27 85 3d f9 a0 ac 3c
       0.046258796 -0.100108765 0.065016404 0.021072851
0000e0 35 45 94 bd 2e 54 2d bd 91 03 f4 bd b1 7b ce 3c
       -0.07239763 -0.042316608 -0.11914743 0.025205465
0000f0 93 03 8f bc 28 9c 7c 3d 43 97 60 3d 4c 3c 4c bd
       -0.017457759 0.06167236 0.054831754 -0.04986219
000100 9d a9 ac bd e5 15 b1 bd eb 90 18 3c 42 40 90 3b
       -0.08430789 -0.08646754 0.009311895 0.0044021914
000110 c3 19 70 3d e8 b5 69 3d 24 a5 cd bd 97 c2 0b 3d
       0.05861832 0.057058245 -0.10041264 0.034121122
000120 b3 46 5a 3c d1 4e e6 3d 3d e2 81 bd d6 57 86 bd
       0.01332252 0.11245502 -0.0634198 -0.06559722
000130 e1 16 3e 3d e6 85 62 3c 3e 6d 41 3d e3 35 ad bd
       0.046408538 0.013825869 0.047223322 -0.08457544
000140 ae 24 6c bb ca f6 73 3d de 09 83 bd 44 a6 9e 3c
       -0.0036032605 0.05956153 -0.063983664 0.019366391
000150 21 a5 ce bd 1b 61 69 3d 94 d9 32 3d 7e 6d 24 bd
       -0.100900896 0.056977373 0.04366453 -0.040143482
000160 76 25 84 bc 0b 44 3a 3d 48 53 01 be 7d 07 9b bd
       -0.016131144 0.045475047 -0.12629426 -0.07569788
000170 44 7f ce bd ae 47 a0 3d e4 b1 07 3d 56 dc 92 3a
       -0.10082868 0.07826172 0.033128634 0.0011204581
000180 ef cc 81 3d 05 ae 8c 3a 0d 15 10 3c 0b c5 d7 bd
       0.06337916 0.0010733014 0.008794081 -0.1053563
000190 36 bc 7d 3d 98 7d 4a 3d 3e cd e4 bd 0b 12 09 bd
       0.06194707 0.04943618 -0.11171959 -0.033464473
0001a0 20 36 a0 bd d2 0b 06 bc 5e d8 80 bd 59 d9 3b 3d
       -0.078228235 -0.008181529 -0.06291269 0.045861576
0001b0 19 c1 44 3d 4b bc 17 3d 03 c5 1b 3d df 5b 98 bd
       0.048035715 0.037044805 0.038029682 -0.07439398
0001c0 db e2 ef bd 4e 17 c7 bd 11 69 a1 3d 0b ea 77 3d
       -0.11713191 -0.09721242 0.07881368 0.060525935
0001d0 c8 dc a8 bc 79 5a dc bd d5 55 5f bc 3c f8 1a bd
       -0.02061309 -0.10759444 -0.013631304 -0.03783439
0001e0 3e 16 72 3d 33 ae cc 3d 73 99 d3 bc 42 29 2d bd
       0.059103243 0.09994163 -0.025830006 -0.042275675
0001f0 14 97 93 3d 71 96 74 3d 93 a8 c1 bd 42 0c 83 bd
       0.0720655 0.059713785 -0.09455981 -0.06398822

action_model._continuous_distribution.log_sigma f4 [1, 3]
000000 2d 43 6c bf 14 72 53 bf 3c 30 19 be
       -0.9229 -0.82595944 -0.14959806
