CS455_PR1/results/ShootTargetAgent_T6/ShootTargetAgent/ShootTargetAgent-45333.onnx (onnx, 490788 bytes, 18 tensors)

discrete_act_size_vector f4 [1, 2]
0	0x42480000	50.0
1	0x42480000	50.0

network_body.observation_encoder.processors.0.conv_layers.0.weight f4 [16, 1, 8, 8]
0	0x3daa726d	0.08322606
1	0x3e1c3219	0.15253486
2	0x3e1fc94f	0.15604137
3	0xbd3c045f	-0.045902606
4	0x3d70092f	0.05860251
5	0x3dc344dd	0.09534619
6	0x3cd14741	0.025546672
7	0x3dfc6c8f	0.123253934
8	0x3e31daec	0.17368668
9	0x3cfd0450	0.030885845
10	0x3dea10be	0.114289746
11	0x3dbde012	0.09271254
12	0xbd0e1703	-0.034689914
13	0x3d91070c	0.07081422
14	0x3da19680	0.07890034
15	0x3ddd57f8	0.10807794
16	0x3d7eb33b	0.062182646
17	0x3da4407e	0.080201134
18	0x3e068ae6	0.13138923
19	0x3e13b443	0.14424233
20	0x3db499d1	0.08818401
21	0x3df7b4fd	0.12095068
22	0xbc810a47	-0.015751971
23	0x3dc6c4a5	0.09705476
24	0x3cd4b2c7	0.025964154
25	0x3e390b81	0.18070795
26	0x3dd901d2	0.1059605
27	0x3d6f2625	0.058385987
28	0x3d2aa751	0.04166347
29	0x3d095e6c	0.033537313
30	0x3ddfd381	0.10929013
31	0x3d905b0c	0.07048616
32	0x3cffb78b	0.03121545
33	0x3d9d0ed4	0.07668844
34	0x3e103ab2	0.1408489
35	0x3bf8f782	0.0075978646
36	0x3d83f39c	0.06442949
37	0x3db31449	0.087441035
38	0x3dd3c006	0.1033936
39	0xbd7d75be	-0.061879866
40	0xbd8ea199	-0.06964416
41	0x3dfd248f	0.123604886
42	0x3e1dd6fa	0.15414038
43	0x3da18a97	0.07887762
44	0xbd178955	-0.036996204
45	0x3daf03ef	0.08545672
46	0xbcade812	-0.021228824
47	0xbddb93ac	-0.107215255
48	0x3bc1d2da	0.005915028
49	0xbd50a31a	-0.050936796
50	0x3d29482a	0.041328587
51	0xbd9ecfd9	-0.077544875
52	0xbcb15374	-0.021646239
53	0x3d67f129	0.056626473
54	0x3e12889a	0.14309922
55	0x3d29fe8c	0.04150252
56	0x3dfd74b5	0.12375776
57	0x3de96db5	0.11397878
58	0x3de50d46	0.11184172
59	0xbd6ef30d	-0.05833726
60	0xbd48b4c9	-0.049000535
61	0xbdb8facf	-0.09032213
62	0xbc62ddb0	-0.0138468
63	0x3dbedb7c	0.09319207
64	0xbd2e1d28	-0.042508274
65	0x3d0b16f1	0.033957426
66	0x3dda7751	0.10667289
67	0x3ddf3938	0.108995855
68	0x3e0318dc	0.12802452
69	0x3ccf3b65	0.025296876
70	0xbc6ef588	-0.014584906
71	0x3df6a4b1	0.12043131
72	0xbc9c8bae	-0.019109573
73	0x3cd146f0	0.025546521
74	0xbd8aab99	-0.06771011
75	0xbc8852b0	-0.016640991
76	0x3e01c12c	0.12671345
77	0xbd326919	-0.04355726
78	0x3de57d3d	0.11205528
79	0x3e0429f5	0.1290663
80	0x3d22971d	0.039694894
81	0x3e03d012	0.12872341
82	0x3dab58af	0.083665244
83	0x3dd71898	0.10502738
84	0x3d0cada2	0.034345277
85	0x3e16b5aa	0.14717737
86	0xbc1f5734	-0.009725381
87	0xbb075e8a	-0.0020655715
88	0x3d4f1180	0.0505538
89	0x3daf4ff2	0.0856017
90	0x3e145840	0.1448679
91	0x3c1a14a3	0.009404334
92	0x3d8c019a	0.06836243
93	0xbce5c498	-0.028047845
94	0xbd82b38d	-0.06381903
95	0x3ce630b6	0.028099399
96	0x3e2c4d64	0.16826397
97	0xbb1d103a	-0.002396597
98	0x3e19071a	0.14944115
99	0x3d1873f3	0.037219953
100	0x3d39589d	0.045250524
101	0x3dcfc991	0.101458676
102	0x3e112186	0.14172944
103	0xbd8fcb07	-0.07021146
104	0x3c66c1e5	0.014084314
105	0x3dc22c87	0.09481149
106	0xbcf04177	-0.029328091
107	0x3e13af3d	0.14422317
108	0xbcc7bbbd	-0.024381513
109	0xbd8ab86e	-0.067734584
110	0x3e0ffd6d	0.14061518
111	0xbc23a91f	-0.009989052
112	0x3d2fc4c7	0.04291227
113	0x3ddbe6b4	0.107373625
114	0xbd310414	-0.04321678
115	0xbbf6cfe5	-0.007532107
116	0x3ddd9a45	0.1082044
117	0x3c490194	0.012268443
118	0xbde7cb6a	-0.11318095
119	0xbd2da75a	-0.042395927
120	0x3dca0932	0.09865035
121	0x3cd2000d	0.02563479
122	0x3d8c7872	0.068589106
123	0x3e03bf84	0.12866026
124	0x3e06aca8	0.131518
125	0x3dda9bf3	0.10674276
126	0x3c4caee9	0.012492874
127	0x3d3cd5a0	0.046102166
128	0x3e09794d	0.13425179
129	0x3d010c47	0.03150585
130	0xbd380e4f	-0.04493552
131	0x3db3a41a	0.08771534
132	0x3d396269	0.045259867
133	0x3c5d1738	0.013494305
134	0xbd802f25	-0.06258992
135	0x3cba6ca5	0.022756884
136	0x3cfc82be	0.030824061
137	0x3cca77cf	0.024715332
138	0x3d49bf2b	0.049254578
139	0x3ccc1896	0.024914067
140	0x3d7eda1e	0.06221973
141	0x3dee2cbf	0.116296284
142	0x3baf58cb	0.005351161
143	0x3d763f22	0.060118802
144	0x3e2f6060	0.17126608
145	0xbd0b1445	-0.033954877
146	0x3e08bf8a	0.13354316
147	0x3d893c71	0.067009814
148	0x3e2f62d5	0.17127545
149	0x3d542ec4	0.05180241
150	0x3d49b51b	0.04924498
151	0x3dce0ed7	0.10061424
152	0x3ce920a2	0.028457943
153	0x3cef2f3b	0.029197326
154	0x3ce559d8	0.027996942
155	0x3e0a01f0	0.13477302
156	0x3de41237	0.11136287
157	0x3e066cfb	0.1312751
158	0x3b3d6662	0.0028900136
159	0x3e0a6377	0.13514505
160	0xbcf41381	-0.029794456
161	0x3d06f33d	0.032946814
162	0x3d38c242	0.045107134
163	0x3df41ea9	0.119199105
164	0x3c2f2505	0.0106899785
165	0xbc8e7522	-0.017389838
166	0x3e3a74e6	0.18208656
167	0x3e35eb56	0.17765555
168	0xbc9e98f9	-0.019360052
169	0x3e0cc7b0	0.1374805
170	0x3cc07666	0.023493957
171	0xbd90033c	-0.07031867
172	0x3e40cc8c	0.18828028
173	0xbc00b121	-0.007854731
174	0x3dfc9d4e	0.12334691
175	0x3e3b2344	0.18275172
176	0xbd8bcc16	-0.06826036
177	0xbd394eb6	-0.04524108
178	0x3db63385	0.08896545
179	0x3d19a094	0.037506655
180	0xbd0184cc	-0.031620786
181	0x3e2d147f	0.1690235
182	0x3e02a92b	0.12759845
183	0x3dad0f9b	0.08450242
184	0x3d41135a	0.047137596
185	0x3e0e8c51	0.13920714
186	0x3dc13688	0.09434229
187	0xbd892ecc	-0.06698379
188	0x3dc5daba	0.096608594
189	0x3e2f40a0	0.17114496
190	0xbbbe20bf	-0.0058022435
191	0xbd33faa6	-0.04394021
192	0x3e1d97a1	0.15389873
193	0x3defd869	0.11711199
194	0x3c0d4477	0.00862228
195	0xbd7b265a	-0.06131587
196	0x3c223bb4	0.00990193
197	0x3e2f6ad8	0.17130601
198	0x3dbc03b7	0.09180396
199	0x3d99388d	0.07481489
200	0x3e2aaf91	0.16668536
201	0x3e19d6de	0.15023372
202	0xbd299dc0	-0.041410208
203	0x3e0c8731	0.13723446
204	0x3e0abc70	0.13548446
205	0x3e005cf3	0.12535457
206	0x3e3078e6	0.17233619
207	0x3cd8a551	0.026446017
208	0xbc84490d	-0.016148115
209	0x3e041f07	0.12902461
210	0x3e0584ec	0.13038987
211	0xbd31b955	-0.043389637
212	0xbd09fda4	-0.033689156
213	0x3ddd6f4d	0.108122446
214	0x3e16dfa9	0.14733757
215	0x3e3fbcc6	0.18724355
216	0x3e1c77bb	0.15280049
217	0x3e2aa28c	0.16663569
218	0x3de11088	0.10989481
219	0x3daacb7e	0.08339594
220	0x3cb53976	0.022122126
221	0x3cea0780	0.02856803
222	0xbc614212	-0.013748663
223	0xbc2c3a56	-0.010511955
224	0x3d61c601	0.055120472
225	0x3dd0598b	0.10173329
226	0x3d91de8c	0.071225256
227	0xbd04eef8	-0.03245446
228	0x3e416697	0.18886791
229	0x3dc9e1a3	0.0985749
230	0xbd069ef2	-0.032866426
231	0xbd17cd4f	-0.037061032
232	0xbd0bf9c3	-0.03417374
233	0x3dce53b5	0.100745596
234	0x3dacbf88	0.08434969
235	0x3dee8c66	0.116478726
236	0x3d9ab05c	0.07553169
237	0x3d8e324d	0.06943188
238	0xbcb422bf	-0.021989224
239	0x3e0d94c4	0.13826281
240	0x3da49507	0.08036237
241	0xbd320731	-0.04346389
242	0x3d9b4d7e	0.0758314
243	0x3ddc5694	0.10758701
244	0xbd99f40a	-0.0751725
245	0x3db11c26	0.08647947
246	0xbda2f558	-0.07956952
247	0x3df47584	0.11936477
248	0xbcc3a543	-0.023882514
249	0x3dbb684a	0.09150751
250	0xbd581264	-0.052751914
251	0x3e155aac	0.1458537
252	0xbd489ff5	-0.048980672
253	0xbd1b1cf1	-0.037869398
254	0xbd5054b1	-0.050862018
255	0x3d83517e	0.06412028

network_body.observation_encoder.processors.0.conv_layers.0.bias f4 [16]
0	0xbc2a990a	-0.010412464
1	0xbc17fa61	-0.009276004
2	0xbc0738de	-0.008253304
3	0xb9829b77	-0.00024911363
4	0x3dbbcb0a	0.09169586
5	0x3c16fd06	0.009215599
6	0x3d1caea9	0.038252506
7	0x3c6bc400	0.014389992
8	0x3d440bc3	0.04786278
9	0xbd38d575	-0.045125443
10	0xbd271d6a	-0.040799536
11	0xbd85e3d0	-0.065375924
12	0xbca649b7	-0.020298822
13	0x3c05ccd1	0.008166508
14	0xbc4ccd70	-0.012500152
15	0x3da6d311	0.081457265

network_body.observation_encoder.processors.0.conv_layers.2.weight f4 [32, 16, 4, 4]
0	0xbd000b71	-0.03126091
1	0xbd001a43	-0.031275045
2	0xbd018543	-0.03162123
3	0x3d42d713	0.047568392
4	0xbbdb0bdf	-0.0066847648
5	0xbb445521	-0.0029957967
6	0xbc78caf3	-0.015185106
7	0x3d592126	0.05301013
8	0xbbe524cd	-0.0069929124
9	0x3a8aed72	0.0010599329
10	0xbd0d85b9	-0.034551356
11	0xbcce2ea6	-0.025168728
12	0xbd903059	-0.070404716
13	0x3caa336c	0.020776473
14	0xbc1d99be	-0.0096191745
15	0xbc4f646f	-0.012658223
16	0xbd33f596	-0.04393538
17	0x3d199dd2	0.037504025
18	0xbd2a10f1	-0.041520063
19	0x3d9937c1	0.07481337
20	0xbd4f59b9	-0.050622676
21	0x3be8223f	0.0070841606
22	0xbd275d30	-0.040860355
23	0x3d7d4ae4	0.061839
24	0x3c80b637	0.015711887
25	0xbd894639	-0.06702847
26	0xbc9cc40b	-0.01913645
27	0x3c8f6179	0.017502533
28	0x3a8de265	0.0010824917
29	0x3cf1b6b2	0.029506061
30	0xbac70c1b	-0.0015186103
31	0x3ce053da	0.027383734
32	0xbb744fed	-0.0037279085
33	0xbdb4820f	-0.08813869
34	0xbc06b042	-0.008220734
35	0xbbe013a6	-0.00683828
36	0xbd5f0534	-0.05444832
37	0xbcf39873	-0.02973578
38	0xbbb1a841	-0.0054216688
39	0x3ba0e274	0.004909808
40	0x3af13065	0.0018401264
41	0x3c7418a1	0.01489845
42	0xbd388426	-0.0450479
43	0x3d3d75a6	0.046254776
44	0xba4ab974	-0.0007733323
45	0xbd08ace6	-0.033368014
46	0x3c4d4a07	0.0125298565
47	0x3ca807ef	0.020511596
48	0xbd84f4b0	-0.06491983
49	0xbd4e3216	-0.050340734
50	0xbd1310e1	-0.03590477
51	0x3c54ef02	0.012996437
52	0xbd148ffb	-0.036270123
53	0xbc70d40f	-0.014698996
54	0x3b0becd6	0.0021350882
55	0xbcbe23af	-0.023210375
56	0x3d5e5aca	0.054285802
57	0xbd9a5e65	-0.075375356
58	0xbd04b501	-0.03239918
59	0x3cc178fa	0.023617256
60	0xbdad71c3	-0.08468964
61	0xbd5b8ed1	-0.053602997
62	0x3d6b4bf5	0.057445485
63	0x3cf92837	0.030414684
64	0xbbfbebfe	-0.0076880446
65	0x3cd48541	0.025942447
66	0xbd01f657	-0.03172907
67	0x3d2001f4	0.039064363
68	0x3c8f0b16	0.01746134
69	0xbd61eb7c	-0.055156216
70	0xbcd1f522	-0.025629584
71	0xbc7759bb	-0.015097077
72	0xbd736a80	-0.05942774
73	0x3bc2ddde	0.005946859
74	0xbc06b857	-0.008222661
75	0xbc1bd9b2	-0.009512352
76	0x3d09e2a7	0.03366342
77	0x3cbd328a	0.023095388
78	0xbd1e009a	-0.038574792
79	0x3c958d7a	0.018255938
80	0xbda2c4af	-0.07947671
81	0xbcd2e85f	-0.025745569
82	0xbcec3fc5	-0.028839001
83	0x3cf4b0a6	0.029869389
84	0xbc93aba4	-0.01802618
85	0xbd7fc18d	-0.062440444
86	0xb8c1e397	-9.245349e-05
87	0x3da86f6b	0.08224376
88	0xbba7bade	-0.005118712
89	0x3d7d0b0a	0.061778106
90	0xbbb660cd	-0.005565739
91	0xbcbb967c	-0.022898905
92	0xba830c49	-0.0009998168
93	0xbc502fe4	-0.0127067305
94	0x3cc95ee8	0.024581388
95	0x3d88de7e	0.06683062
96	0x3b700180	0.0036621988
97	0xbd35a460	-0.044346213
98	0xbd8a6256	-0.06757037
99	0x3d332179	0.043733094
100	0x3d58be9f	0.052916165
101	0x3d27da48	0.040979654
102	0x3d057b98	0.03258857
103	0xbc71541b	-0.014729525
104	0xbcc8ec7f	-0.024526833
105	0xbca6d1fc	-0.0203638
106	0xbaa88c7d	-0.0012859252
107	0xbcebb847	-0.028774394
108	0x3d6495b1	0.05580682
109	0x3c1e3976	0.009657254
110	0xbbc3453d	-0.0059591816
111	0xbde14318	-0.10999125
112	0xbd1d3a58	-0.03838572
113	0xbc45ad78	-0.012065284
114	0x3bdb68a7	0.006695825
115	0xbd74c043	-0.059753668
116	0x3b6b6438	0.003591789
117	0xbd953eb5	-0.07287351
118	0x3d5910cc	0.052994534
119	0xbce30851	-0.027713927
120	0xbc530f4c	-0.012882065
121	0xbc375505	-0.011189704
122	0xbcd96747	-0.026538504
123	0x3c6fa9dd	0.014627901
124	0x3c14130c	0.009037744
125	0xbd277a86	-0.04088833
126	0x3c5504eb	0.013001661
127	0xbd28fc50	-0.04125625
128	0xbd7e6168	-0.062104613
129	0xbd1fa084	-0.03897144
130	0xbc5019db	-0.012701477
131	0x3cd80f54	0.026374497
132	0x3ce77234	0.028252698
133	0x3c851613	0.016245877
134	0xbc876256	-0.016526382
135	0x3cff0089	0.031128185
136	0x3c712897	0.01471915
137	0x3cb83c25	0.022489617
138	0x3cd67f61	0.026183786
139	0xbcbf9652	-0.023387108
140	0x3d381cf3	0.044949483
141	0xbd4b84a1	-0.04968703
142	0x3d05c1fe	0.03265571
143	0xbcb52880	-0.022114038
144	0x3cfc9404	0.030832298
145	0xbdcc13b3	-0.09964695
146	0x3cf409d1	0.029789837
147	0x3d931f06	0.071836516
148	0x3cfa1a06	0.030529987
149	0xbd182554	-0.037144974
150	0xbd55b400	-0.052173615
151	0x3d67b8c5	0.056572694
152	0xbda63b75	-0.08116809
153	0xb9d73f62	-0.0004105522
154	0x3d8085b3	0.06275501
155	0x3d97dadf	0.07414793
156	0x3b97b11e	0.0046292683
157	0x3c44cf86	0.012012368
158	0xb8e7d25c	-0.00011054121
159	0x3d251272	0.040300794
160	0xbcab43a0	-0.02090627
161	0x3c1bf501	0.009518863
162	0xbd713d1d	-0.058896173
163	0x3d1fcf8c	0.03901629
164	0xbc937e68	-0.018004611
165	0xb883c32a	-6.282919e-05
166	0xbce73d2a	-0.028227407
167	0x3c4f0caf	0.012637301
168	0xbd91cfc8	-0.07119709
169	0xbd3e0bd1	-0.046397988
170	0x3d8bd982	0.06828596
171	0x3dd350ab	0.103181206
172	0xbb7b94c0	-0.0038388222
173	0x3b3db40e	0.0028946432
174	0x3d6958fe	0.056969635
175	0xbcb23fea	-0.021758992
176	0xbc22aa61	-0.009928317
177	0xbd07c1d0	-0.03314382
178	0x3ceea69d	0.029132182
179	0xbcf94746	-0.030429494
180	0xbd3c47fc	-0.045967087
181	0x3d259788	0.040427715
182	0x3cdb24ef	0.02675101
183	0xbd7798f4	-0.0604486
184	0xbc711f24	-0.014716897
185	0x3d39db19	0.045374963
186	0x3c98f757	0.018672628
187	0x3c35c0f0	0.011093363
188	0xbdb4c4f7	-0.088266306
189	0x3d077712	0.03307254
190	0x3d7795b0	0.060445487
191	0xbae8e0d5	-0.00177672
192	0x3c3f4e1b	0.011676337
193	0xbd3c7da5	-0.04601826
194	0x3d4ff72f	0.050772842
195	0x3cb2822b	0.021790585
196	0xbc745328	-0.014912404
197	0xbd016d1e	-0.031598203
198	0xbca2c711	-0.019870313
199	0x3d8b9435	0.068153776
200	0xbd9e7585	-0.07737259
201	0x3d0da86c	0.034584448
202	0x3d1d4e36	0.038404666
203	0x3d055f83	0.03256179
204	0x3d09e216	0.033662878
205	0x3cdb6c6e	0.026785102
206	0x3cefe1d3	0.029282486
207	0x3c42199f	0.011846929
208	0x3d06abe6	0.03287878
209	0x3cfb895b	0.030705145
210	0xbbc15532	-0.0059000487
211	0xbcf30f14	-0.029670276
212	0xbbf71796	-0.0075406535
213	0x3c123833	0.008924532
214	0xbd6dda5c	-0.05806957
215	0x3d77f869	0.060539637
216	0xbc2281f1	-0.009918676
217	0xbd641589	-0.0556846
218	0x3ba49e05	0.00502372
219	0x3dbd99ce	0.092578515
220	0xbcfd77cd	-0.030940915
221	0x3cde7baa	0.027158577
222	0xbd5f9172	-0.054582067
223	0x3d3443cf	0.04400998
224	0xbdb76915	-0.0895559
225	0xbcf3b5a4	-0.029749699
226	0x3c7370b7	0.014858416
227	0xbd05b670	-0.03264469
228	0xbd14e694	-0.03635271
229	0x3d0ab109	0.03386024
230	0xbd2c145a	-0.042011596
231	0xbdde3e20	-0.10851693
232	0x3d691113	0.05690105
233	0x3db782e5	0.08960513
234	0xbc4531e7	-0.012035823
235	0xbcab5b52	-0.020917568
236	0xbd3336c5	-0.043753404
237	0xbd559007	-0.05213931
238	0x3c20d2af	0.009815856
239	0xbccf4cce	-0.025305178
240	0xbc5de841	-0.013544143
241	0xbcbced08	-0.023062244
242	0xbd5e796b	-0.054315012
243	0x3d344344	0.044009462
244	0x3cd75175	0.026283959
245	0x3b777aeb	0.0037762474
246	0x3d8a4547	0.06751495
247	0xbbdfea71	-0.0068333675
248	0xb9a41ea9	-0.0003130336
249	0x3d099417	0.033588495
250	0xbd1d3d7e	-0.03838872
251	0x3d4c3bf6	0.04986187
252	0x3c17dc13	0.009268778
253	0x3d708b7a	0.058726765
254	0xbcaa7f7b	-0.02081274
255	0x3d3974a4	0.045277253

network_body.observation_encoder.processors.0.conv_layers.2.bias f4 [32]
0	0xbd311ca6	-0.043240212
1	0xbd0adc73	-0.033901643
2	0xbd2242f0	-0.039614618
3	0xbd339159	-0.043839786
4	0xbd8351be	-0.064120755
5	0xbd163641	-0.036672834
6	0x3d44d83b	0.048057776
7	0xbc1a8f1e	-0.009433536
8	0xbc730a9e	-0.014834074
9	0xbd550266	-0.05200424
10	0x3d575cb8	0.052578658
11	0xbcff4ecd	-0.031165505
12	0xbcfc973d	-0.030833835
13	0xbbaaf4cf	-0.0052171717
14	0x3d094312	0.03351123
15	0xbc125e12	-0.008933561
16	0xbc0c38e9	-0.00855849
17	0xbb5803fa	-0.0032961355
18	0xbd91e334	-0.07123414
19	0x3d22995e	0.039697044
20	0xbd62f5ad	-0.055410076
21	0xbce8bc05	-0.028409967
22	0xbd6a03cc	-0.057132527
23	0xbca3f558	-0.02001445
24	0x3b87f00f	0.0041484903
25	0x3d78bc4f	0.06072646
26	0x3d82c5d1	0.06385387
27	0xbd54d5b1	-0.051961605
28	0xbd367da7	-0.044553425
29	0x3cbda8b2	0.02315173
30	0x3cefa5a3	0.029253786
31	0xbcded1e6	-0.027199697

network_body.observation_encoder.processors.0.dense.0.weight f4 [128, 512]
0	0xbc7c9dcd	-0.015418482
1	0x3d78f393	0.060779165
2	0xbe03e585	-0.12880524
3	0xbe0ab606	-0.13545999
4	0x3cc7fdc4	0.024412997
5	0xbd3fa1af	-0.046785053
6	0xbc971bf9	-0.018445956
7	0x3d117159	0.035508487
8	0x3dabb3c8	0.083839
9	0x38ca1dc8	9.637658e-05
10	0x3c2fadc1	0.0107225785
11	0xbb9a76c9	-0.0047138673
12	0x3cf9b25d	0.030480558
13	0xbda50900	-0.08058357
14	0xbd5b551a	-0.053547956
15	0x3d25efa9	0.04051176
16	0xbd153a49	-0.03643254
17	0x3e0a4542	0.13502982
18	0x3d22839d	0.039676297
19	0xbd64f148	-0.055894166
20	0x3b55896a	0.0032583126
21	0x3e1a75c7	0.15083991
22	0xbb979f3a	-0.0046271356
23	0xbcca9b66	-0.024732303
24	0x3c945975	0.018109063
25	0xbdf6f25a	-0.12057944
26	0x3b2593a6	0.0025265007
27	0xbdef5aaa	-0.11687215
28	0xbdb6fdf8	-0.089351594
29	0xbd494d99	-0.04914627
30	0xbdfbff06	-0.12304501
31	0x3c9fc04a	0.01950087
32	0x3d736eff	0.059432026
33	0x3d30372b	0.043021362
34	0x3d83b1d5	0.06430403
35	0xbc6a35ad	-0.014295024
36	0x3b312a94	0.0027033435
37	0x3e243585	0.16036041
38	0xbcf528e5	-0.029926727
39	0xbdd2392e	-0.102648124
40	0xbdcbfa5f	-0.09959864
41	0xbdaa1cfe	-0.08306311
42	0x3da628f4	0.0811328
43	0xbaa2e911	-0.0012429078
44	0x3d9c98b1	0.07646311
45	0xbd8e1eb7	-0.06939452
46	0xbd94ed51	-0.07271827
47	0xbddcfa92	-0.1078998
48	0x3d270ec9	0.040785585
49	0x3dbc72d5	0.0920159
50	0x3df17d47	0.11791473
51	0x3e00e40b	0.12586991
52	0xbcd67594	-0.026179112
53	0x3dc557e2	0.09635903
54	0xbd7cce61	-0.061720256
55	0x3d9b25d0	0.075755715
56	0xbd67be2f	-0.056577858
57	0xbd4396a0	-0.04775107
58	0x3b81fdfb	0.0039670444
59	0x3d286e59	0.04112086
60	0xbd3efe1b	-0.046629053
61	0xbd798de9	-0.06092635
62	0xbddc0e09	-0.107448645
63	0x3ccd44a4	0.025057144
64	0x3daa823c	0.083256215
65	0x3dbc0f11	0.09182561
66	0xbdbb831a	-0.09155865
67	0x3e02471c	0.12722439
68	0x3d8eff2f	0.06982266
69	0xbcccb45b	-0.024988344
70	0x3d806698	0.06269568
71	0x3dbea742	0.09309246
72	0x3d1e8838	0.038704127
73	0xbd53bb9b	-0.051692586
74	0x3d630b4a	0.055430688
75	0x3d5ee7ea	0.05442039
76	0x3cc23922	0.023708884
77	0xbdebf68a	-0.11521633
78	0xbcd535b3	-0.026026582
79	0x3d4142a8	0.04718271
80	0x3d47a3d6	0.04874023
81	0xbd77b8e0	-0.060479045
82	0xbd93002e	-0.07177769
83	0xbb87ba49	-0.00414208
84	0xbce474a1	-0.027887644
85	0xbc70d8a7	-0.014700091
86	0xbc5f78e5	-0.013639663
87	0xbdda19b2	-0.10649432
88	0xbd5add11	-0.05343348
89	0xbd898b17	-0.067159824
90	0x3b2c1354	0.0026256638
91	0xbdf15074	-0.11782923
92	0xbbe04997	-0.00684471
93	0x3d3b1d2a	0.04568211
94	0x3cf4b8d3	0.029873287
95	0xbe059bb2	-0.13047674
96	0xbc0a5769	-0.008443692
97	0x3d8fd2f6	0.070226595
98	0xbca65681	-0.02030492
99	0x3c91b677	0.017787201
100	0x3df9d5a4	0.12198952
101	0x3d97a408	0.07404333
102	0xbdb79ac6	-0.089650676
103	0xbcd87a3e	-0.026425477
104	0x3cb0d89a	0.021587659
105	0x3db537c3	0.08848526
106	0x3dcf9168	0.10135156
107	0xbc5bc942	-0.013414683
108	0xbb4f10cf	-0.0031595712
109	0x3d3fb36f	0.04680198
110	0xbdd76eb1	-0.105191596
111	0xbd942ec4	-0.07235482
112	0x3d902aae	0.070393905
113	0x3e062e48	0.13103592
114	0xbde18e31	-0.11013449
115	0x3e3898ce	0.1802704
116	0x3dd0badf	0.10191893
117	0x3e3c9ded	0.18419619
118	0x3dab2ac9	0.0835777
119	0xbd0f962f	-0.035055336
120	0xbbe95475	-0.0071206638
121	0x3de7c528	0.113169014
122	0x3d633007	0.055465724
123	0xbc863cf2	-0.016386483
124	0xbdb4d3ae	-0.08829437
125	0x3d780727	0.060553696
126	0xbdd42739	-0.10359044
127	0xbdc231e7	-0.09482174
128	0x3cedeb7b	0.02904295
129	0x3d142461	0.036167506
130	0x3cc2c131	0.023773761
131	0x3bba975c	0.005694313
132	0x3d44aabc	0.048014387
133	0xbdd605f5	-0.10450355
134	0x3da2b0a7	0.0794385
135	0xbd6c9dda	-0.057767726
136	0x3b82a347	0.0039867493
137	0x3d3530a1	0.04423583
138	0x3da5397b	0.08067604
139	0xbbc731e1	-0.006078944
140	0x3d2d97a9	0.042380963
141	0xbc8b039e	-0.016969498
142	0x3dfd675a	0.12373228
143	0x3dff6066	0.124695584
144	0xbd859cfb	-0.06524082
145	0x3d2c2838	0.042030543
146	0xbd154d8b	-0.036450904
147	0x3dcec0d2	0.10095371
148	0xbcc19004	-0.023628242
149	0x3db4cbe5	0.08827952
150	0xbce3401a	-0.027740527
151	0x3d5c07af	0.053718265
152	0x3d607221	0.05479634
153	0x38d29519	0.00010041352
154	0xbcd01d77	-0.025404675
155	0x3dc70c7f	0.0971918
156	0xbe029608	-0.12752545
157	0xbdd2943f	-0.10282182
158	0xbd19bc78	-0.037533253
159	0xbe1114ce	-0.14168093
160	0x3d9202b4	0.07129422
161	0xbb5e9197	-0.003396129
162	0x3cddbb77	0.02706693
163	0x3d8ad336	0.067785665
164	0xbd60e8f0	-0.054909647
165	0xbd55fedc	-0.052245006
166	0xba5e6df1	-0.00084850105
167	0x3da59142	0.08084346
168	0x3cec2921	0.028828206
169	0x3d70e950	0.058816254
170	0xbe10f9f3	-0.14157848
171	0xbccaf696	-0.024775784
172	0x3d075cf6	0.03304764
173	0x3b8574fb	0.004072783
174	0x3d37d6c5	0.044882555
175	0xbadb356f	-0.0016724298
176	0xbdc74c40	-0.097313404
177	0x3d882703	0.06648066
178	0xbde69eb3	-0.11260738
179	0x3dc48cca	0.09597166
180	0x3e1d89a4	0.15384537
181	0xbda070a8	-0.078339875
182	0x3d4e41b8	0.050355643
183	0x3d176ecc	0.0369709
184	0x3b771535	0.003770185
185	0xbd123bf9	-0.035701726
186	0xbdc2fca7	-0.09520846
187	0xbc7b518a	-0.015339265
188	0xbd634caf	-0.055493053
189	0x3cc5d761	0.024150552
190	0xbdc87309	-0.09787566
191	0xbc24738c	-0.010037314
192	0x3caf7859	0.02141969
193	0x3d30cca1	0.0431639
194	0x3ce6c19f	0.028168498
195	0x3d6562d0	0.056002438
196	0x3daf4677	0.08558362
197	0x3d99dd22	0.07512881
198	0x3d223ba7	0.03960767
199	0xbd04e662	-0.032446273
200	0x3dc088a9	0.09401066
201	0xbdcc261e	-0.09968208
202	0x3d40ceed	0.04707234
203	0xba9e074d	-0.0012056619
204	0xbcb4d75d	-0.02207535
205	0xbcdfb231	-0.027306648
206	0x3cf17531	0.029474827
207	0xbd0b8628	-0.03406349
208	0xbd98e419	-0.07465381
209	0xbd3dc2a9	-0.04632822
210	0x3d83caf8	0.064351976
211	0xbcd1ca1d	-0.02560907
212	0xbb0792a6	-0.0020686775
213	0x3e12f5e1	0.14351608
214	0x3d36cb79	0.04462764
215	0x3e3017c9	0.17196573
216	0x3cdb5bd9	0.026777195
217	0x3c182282	0.009285571
218	0xbd7b1270	-0.06129688
219	0x3af0b4ff	0.0018364488
220	0xbb16b51c	-0.0022996133
221	0x3d913240	0.070896626
222	0xbc2c25b8	-0.01050704
223	0x3dc12835	0.09431497
224	0xbde48540	-0.11158228
225	0xbd337c9d	-0.043820012
226	0x3cdea016	0.027175944
227	0xbdc91350	-0.09818137
228	0x3d6a7a6c	0.057245657
229	0x3d1a2d72	0.037640996
230	0xbbe620a2	-0.007022933
231	0xbd0b76be	-0.03404879
232	0xbd8dc62a	-0.069225624
233	0xbb88f1f4	-0.0041792337
234	0x3b51b182	0.0031996672
235	0xbd88fee8	-0.066892445
236	0xbbba17b2	-0.005679094
237	0x3db4bf3b	0.08825537
238	0x3b5e7bfc	0.0033948412
239	0xbc56b9ef	-0.013105853
240	0x3e292858	0.16519296
241	0x3d0dba85	0.034601707
242	0x3e357afb	0.17722695
243	0xbcdddb51	-0.027082117
244	0xbc987bbb	-0.018613687
245	0x3daf73f5	0.08567039
246	0x3d10eacf	0.03538018
247	0xbaa212f5	-0.0012365269
248	0x3d884c7f	0.066552155
249	0x3dc18fc4	0.09451249
250	0xbd3f4337	-0.04669496
251	0x3d30e2fe	0.043185227
252	0x3c6e1a79	0.014532679
253	0xbdb981ec	-0.09057984
254	0x3d7c3f7c	0.06158398
255	0xbd123d84	-0.035703197

network_body.observation_encoder.processors.0.dense.0.bias f4 [128]
0	0x3cf37d68	0.029722884
1	0x3c982245	0.018571028
2	0x3c85237c	0.016252272
3	0xbc5cedce	-0.013484431
4	0x3d09ed8b	0.033673804
5	0x3d179d01	0.037014965
6	0xbaa14549	-0.0012303974
7	0x3bdebe3b	0.0067975796
8	0xbb636976	-0.003470031
9	0x3d03a18f	0.032136496
10	0x3b49f51b	0.003081626
11	0xbc92dab0	-0.017926544
12	0xbc4fd78e	-0.01268567
13	0x3d0db7ee	0.034599237
14	0x3cd87da9	0.026427107
15	0x3d210394	0.039310053
16	0x3d058c8e	0.032604747
17	0x3c7adbce	0.015311195
18	0x3ca83178	0.020531401
19	0x3d18d532	0.037312694
20	0x3d0c17e6	0.03420248
21	0x3d326700	0.04355526
22	0xbd481c33	-0.048855018
23	0x3d2837ec	0.041068956
24	0x3b64f1b4	0.0034934105
25	0x3d08ea7b	0.033426743
26	0x3d254b35	0.040354926
27	0x3cfded2c	0.030996881
28	0x3c543c52	0.012953835
29	0x3d3a84cb	0.045536797
30	0x3d205868	0.03914681
31	0xbcddabfa	-0.027059544
32	0x3d3499c6	0.044091962
33	0xbd0e5d5d	-0.034757007
34	0x3d05ae7a	0.032637097
35	0x3cd67a85	0.026181469
36	0x3c8b048b	0.01696994
37	0xbc87269c	-0.016497903
38	0x3d26cb2d	0.040721107
39	0x3cddc7aa	0.027072746
40	0x3d08c61e	0.033392064
41	0x3d1512ad	0.036394764
42	0x3d8a1ffc	0.06744382
43	0x3d18cd40	0.037305117
44	0x3d11b4fb	0.035572987
45	0x3cd225bb	0.025652757
46	0xbc02c014	-0.007980365
47	0x3d307a05	0.043085117
48	0x3c972312	0.01844934
49	0x3d137dae	0.03600853
50	0xbcad9e3e	-0.02119362
51	0xbcf4430c	-0.029817127
52	0x3d347b7d	0.04406308
53	0x3beed307	0.00728834
54	0xbc23caad	-0.009997052
55	0x3d0cfaeb	0.03441898
56	0x3cf5a3bf	0.029985307
57	0xbcaa2b12	-0.02077249
58	0xbb6c75a3	-0.003608086
59	0x3d30ae3d	0.043134917
60	0xbb0ded58	-0.002165636
61	0xbbade730	-0.0053071007
62	0x3cab7583	0.020930057
63	0x3d0c2d96	0.03422316
64	0x3d224bd9	0.039623115
65	0x3d11c932	0.035592265
66	0x3d3f82e1	0.046755675
67	0x3c0f9375	0.008763184
68	0xbbf97adb	-0.0076135225
69	0xbc442943	-0.011972728
70	0x3d1a3559	0.037648533
71	0x3d254177	0.040345635
72	0xbc862da4	-0.016379185
73	0x3cde8012	0.027160678
74	0x3ce795e5	0.028269717
75	0x3cf3bdd2	0.0297536
76	0x3d55858d	0.052129317
77	0x3c1c3187	0.009533293
78	0x3d080113	0.03320415
79	0xbd157120	-0.036484838
80	0xbcd0ec8b	-0.025503417
81	0x3d1b0a9f	0.037851926
82	0x3cfe267f	0.031024216
83	0x3c803c3b	0.01565372
84	0x3d7eb176	0.06218096
85	0x3b6bf600	0.0036004782
86	0x3d444730	0.047919452
87	0x3c72d9b2	0.01482241
88	0x3ca8a5da	0.020586897
89	0x3d45b41d	0.048267473
90	0xbd2e9560	-0.042622924
91	0x3d2afeaa	0.041746773
92	0x3d24a3b8	0.040195197
93	0xbc9b1975	-0.018933037
94	0x3d2159b8	0.039392203
95	0x3cce1a7e	0.025159117
96	0x3cf8d3c2	0.030374411
97	0x3d71a2c5	0.05899312
98	0x3d25262a	0.0403196
99	0x3c548e99	0.012973451
100	0x3cd25810	0.025676757
101	0x3bb34e5f	0.005471989
102	0x3cf069fd	0.029347414
103	0xbc84aed5	-0.016196648
104	0x3c982859	0.018573927
105	0x3c883a1b	0.01662927
106	0x3d00f8bd	0.031487215
107	0x3d4f2291	0.050570074
108	0x3d0dbd60	0.03460443
109	0xbcb63341	-0.022241237
110	0x3d5a9c37	0.053371634
111	0xbd266fb5	-0.040633876
112	0x3bcd8fd6	0.00627325
113	0x3d11491c	0.035470113
114	0x3b1bf312	0.0023796004
115	0x3d67fef1	0.056639615
116	0x3d20b568	0.039235502
117	0x3d361ebb	0.0444629
118	0x3c31cf99	0.010852718
119	0x3c843f0b	0.016143342
120	0x3c976d89	0.018484848
121	0x3d3b7127	0.045762207
122	0x3ce16b85	0.02751709
123	0x3d444ecf	0.04792672
124	0x3d537e8f	0.051634368
125	0x3cf08793	0.029361522
126	0x3cfd7403	0.030939108
127	0x3caf0dc0	0.021368861

network_body._body_endoder.seq_layers.0.weight f4 [128, 128]
0	0xbdae764a	-0.085186556
1	0x3abb12d5	0.001427258
2	0x3ba4aaf0	0.00502526
3	0xbe16eb6a	-0.14738241
4	0x3c63d75a	0.013906324
5	0xbe052360	-0.13001776
6	0xbd06f7ed	-0.032951284
7	0x3daded32	0.08492507
8	0x3bca324c	0.0061705466
9	0x3e90195f	0.28144357
10	0xbdf7fb39	-0.12108464
11	0xbc17feb4	-0.009277035
12	0xbd1e4a42	-0.038645037
13	0x3e170505	0.14748009
14	0x3d8f455a	0.0699565
15	0x3d60fccb	0.054928582
16	0xbc534362	-0.012894483
17	0xbe0101b0	-0.125983
18	0xbd90da3a	-0.070728734
19	0x3dd2e40d	0.102974035
20	0x3ddfa9df	0.10921072
21	0x3d49f547	0.04930618
22	0xbc7db811	-0.015485779
23	0xbca82c03	-0.020528799
24	0x3dba77d4	0.09104887
25	0x3e00a788	0.12563908
26	0xbdb7487b	-0.089493714
27	0x3d6afbe1	0.057369117
28	0xbc8dc4d4	-0.017305769
29	0xbc205b9a	-0.0097874645
30	0x3dc46c55	0.09590975
31	0xbd95b860	-0.07310557
32	0xbd767d9e	-0.06017839
33	0x3db7a681	0.08967305
34	0x3d8ff61b	0.07029363
35	0xbd72c0f9	-0.059266064
36	0xbdead664	-0.11466673
37	0x3c50ddff	0.0127482405
38	0xbd7037f1	-0.0586471
39	0x3d808bb3	0.062766455
40	0x3e1b83cc	0.15186995
41	0xbb597964	-0.0033183927
42	0xbd3d2aac	-0.046183273
43	0xbc437168	-0.011928894
44	0xbe2916c7	-0.16512595
45	0x3cce2e16	0.02516846
46	0x3d2aabae	0.041667633
47	0x3e59dd8d	0.21275921
48	0xbd0bedd6	-0.034162365
49	0x3d7eb0e5	0.06218042
50	0x3df4fe5e	0.11962579
51	0xbd433a82	-0.04766322
52	0x3d18eb4c	0.03733377
53	0xbc730219	-0.014832043
54	0xbdb84a05	-0.08998493
55	0xbc4bdc8a	-0.012442717
56	0xbdab2254	-0.08356157
57	0xbc5f0a4e	-0.013613297
58	0xbda36df3	-0.079799555
59	0xbe239655	-0.15975316
60	0x3d24f417	0.040271845
61	0xbc358b13	-0.011080521
62	0x3e6183a5	0.22022875
63	0xbe0c47d6	-0.13699278
64	0xbe8c9ead	-0.2746481
65	0x3d29eacb	0.04148368
66	0xbc7ffceb	-0.015624265
67	0x3c2ff015	0.010738392
68	0xbbeeeb29	-0.007291217
69	0xbd655749	-0.055991445
70	0x3d80e5a4	0.062938005
71	0xbd256944	-0.040383592
72	0xbc722441	-0.014779151
73	0xbdafd173	-0.08584871
74	0x3d7bce60	0.06147611
75	0xbc4071f9	-0.011745923
76	0xbc7fc526	-0.015610969
77	0xbe20614a	-0.15662113
78	0x3e17fc21	0.14842273
79	0xbe13ffcf	-0.14453052
80	0xbd0dc74a	-0.034613885
81	0x3da18acc	0.078878015
82	0xbcbf7bbc	-0.02337443
83	0xbe016d51	-0.12639357
84	0xbda7f3f9	-0.08200831
85	0x3e5e4480	0.21705818
86	0xbd4761e6	-0.048677348
87	0xbd08343d	-0.033252943
88	0xbd006fb3	-0.031356525
89	0x3dc5d3c5	0.096595325
90	0xbd380f86	-0.04493668
91	0xbd3e07f3	-0.0463943
92	0x3cb35d52	0.021895085
93	0xbc7d2424	-0.015450511
94	0x3d88a5ce	0.0667225
95	0x3d5f40a4	0.054505005
96	0x3de12e52	0.10995163
97	0xbe5ad6d6	-0.21371016
98	0xbddb8e25	-0.10720471
99	0xbc82b5d6	-0.015955847
100	0x3c421bd0	0.011847451
101	0xbd4579fd	-0.04821204
102	0xbe5aaa4e	-0.21354029
103	0xbe233e17	-0.15941654
104	0xbc04049b	-0.008057739
105	0x3c65c41f	0.01402381
106	0xbd5d7a88	-0.054071933
107	0xbdd35825	-0.103195466
108	0xbd831e58	-0.06402272
109	0xbda90484	-0.082528144
110	0xbe0077cb	-0.12545697
111	0x3c02b93a	0.007978732
112	0xbd4d8df9	-0.050184224
113	0xbcab1dc7	-0.020888222
114	0xbd8d9a49	-0.06914193
115	0xbc577f61	-0.013152928
116	0xbe0a6a7f	-0.13517188
117	0xbd994af6	-0.07485001
118	0x3d85b603	0.065288566
119	0x3d7bfe83	0.06152202
120	0x3dd997ef	0.10624682
121	0xbde8ce88	-0.11367518
122	0x3c597fb8	0.013275079
123	0xbda1ef1f	-0.07906937
124	0xbabf81e5	-0.0014610855
125	0x3e728a50	0.23685575
126	0x3d6c0416	0.057621084
127	0x3dc852e7	0.09781437
128	0xbd9af8e1	-0.07567001
129	0xbda3502f	-0.07974278
130	0x3e0cae3d	0.13738342
131	0xbda70cc9	-0.081567355
132	0x3d14bdc7	0.0363138
133	0x3d6fff97	0.05859336
134	0x3ca51391	0.020150932
135	0xbdb0e711	-0.086378224
136	0xbe0e7bc2	-0.13914397
137	0xbdcf6b36	-0.10127871
138	0xbd7da97f	-0.061929222
139	0xbdb99561	-0.09061695
140	0x3dd08ce9	0.101831265
141	0x3d8a03b9	0.06738991
142	0x3dc68bf9	0.096946664
143	0xbd53f5a8	-0.051747948
144	0xbe11a5b1	-0.14223363
145	0xbd526adb	-0.051371437
146	0xba80caf2	-0.0009826107
147	0xbe106c2d	-0.14103766
148	0x3d0963e2	0.03354252
149	0x3dbf136d	0.09329877
150	0xbd7b48a9	-0.06134859
151	0xbb2c3950	-0.0026279278
152	0x3db4b1d0	0.088229775
153	0x3e16b112	0.14715984
154	0x3d9fa769	0.07795603
155	0xbd508647	-0.050909307
156	0x3d28f078	0.041244954
157	0xbc3f3a29	-0.011671581
158	0xbd5cc533	-0.053899
159	0xbd59227e	-0.05301141
160	0x3ddafcde	0.10692762
161	0xbd83480c	-0.06410226
162	0xbe411127	-0.188542
163	0x3e0aa5de	0.13539836
164	0xbc74defc	-0.014945742
165	0x3db6f099	0.08932609
166	0x3dd09a37	0.10185664
167	0x3d85dfe9	0.06536848
168	0x3d83b0c5	0.064302005
169	0x3d743436	0.059620105
170	0x3d254140	0.04034543
171	0x3df3cf9f	0.11904835
172	0x3d74ddb0	0.05978173
173	0x3da0aedd	0.078458525
174	0xbe82e5e2	-0.25566012
175	0xbde6175a	-0.11234923
176	0xbe9f96f1	-0.31169847
177	0x3e2b31ca	0.16718212
178	0xbc86aac9	-0.016438859
179	0xbca8f536	-0.020624738
180	0xbdd9a976	-0.10628025
181	0xbd87c22d	-0.06628833
182	0xbe0a1f20	-0.13488436
183	0x3e0628db	0.13101523
184	0xbc356a5e	-0.011072723
185	0xbd0fd1b4	-0.035112098
186	0xbdc13c9b	-0.09435388
187	0x3dbcfe43	0.09228184
188	0xbe054181	-0.13013269
189	0xbe1e3111	-0.15448405
190	0xbe04e18e	-0.12976667
191	0x3d792ccf	0.06083375
192	0x3c780448	0.0151377395
193	0xbdc44f08	-0.095853865
194	0xbdb3c2e5	-0.087774076
195	0x3cb84eae	0.022498455
196	0xbd279ac4	-0.04091908
197	0xbdc71c9b	-0.09722253
198	0xbe10a056	-0.14123663
199	0x3d5fa3b2	0.05459947
200	0x3d401f1f	0.04690468
201	0xbe623d7c	-0.22093767
202	0x3d3a7b3a	0.045527674
203	0x3da84a6e	0.08217321
204	0x3d584ce9	0.052807722
205	0x3d76773f	0.060172316
206	0xbdbfb8f9	-0.093614526
207	0xbd306497	-0.04306468
208	0xbceded74	-0.02904389
209	0xbcae169c	-0.021251015
210	0x3d223bde	0.039607875
211	0xbc5f0c3d	-0.013613758
212	0xbe7d3469	-0.24727024
213	0xbd93950a	-0.07206161
214	0xbcf6704d	-0.030082846
215	0x3d436705	0.04770567
216	0xbd0e6a24	-0.034769192
217	0xbd31ad39	-0.04337809
218	0x3d6a0cdd	0.057141174
219	0x3dd05bca	0.101737574
220	0x3e18277a	0.14858809
221	0x3a5dd6cd	0.0008462489
222	0xbca2b724	-0.019862719
223	0x3db9fedd	0.090818144
224	0x3e607b56	0.21922049
225	0xbc36aae4	-0.011149142
226	0xbc68d9ac	-0.014212053
227	0xbe21505f	-0.15753315
228	0x3d0f42f8	0.034975976
229	0x3e20a6dc	0.15688652
230	0x3bbc4af7	0.005746241
231	0xbd284917	-0.04108533
232	0x3dda39f7	0.10655587
233	0x3db6b896	0.08921926
234	0x3d1b4203	0.03790475
235	0xbdcfca8f	-0.10146057
236	0x3d75851e	0.059941404
237	0xbddf369a	-0.10899086
238	0xbbf78173	-0.0075532733
239	0xbe63bbbc	-0.22239584
240	0xbdde1011	-0.10842908
241	0xbe0e3fa5	-0.13891466
242	0xbe1697d4	-0.14706355
243	0x3d511998	0.0510498
244	0xbd45342a	-0.04814545
245	0x3cd5bcfe	0.026091095
246	0x3cedd49b	0.029032042
247	0x3e392705	0.18081291
248	0xbbfb1cf2	-0.0076633627
249	0xbd28ce23	-0.041212212
250	0x3bab2861	0.0052233194
251	0xbdc4a1e6	-0.09601192
252	0x3dc6bc31	0.097038634
253	0x3cb02af9	0.021504866
254	0xbdd7903c	-0.105255574
255	0x3b2cf360	0.002639018

network_body._body_endoder.seq_layers.0.bias f4 [128]
0	0x3c8f1162	0.017464343
1	0x3c18998b	0.009313951
2	0x3b93b035	0.0045070895
3	0xbd898103	-0.0671406
4	0x3cc79b60	0.02436608
5	0x3d04b0cd	0.032395173
6	0x3d08fa5d	0.03344189
7	0xbd42707d	-0.04747056
8	0xbc931a6e	-0.017956939
9	0xbb2660de	-0.0025387327
10	0xbdb193e2	-0.086707845
11	0xbd6f5fdf	-0.05844104
12	0xbd623eea	-0.05523578
13	0xbd8fd5ec	-0.07023224
14	0x3c42f846	0.011900013
15	0x3ccde33e	0.025132772
16	0xbc884c40	-0.016637921
17	0xbd097a39	-0.033563826
18	0xb740e291	-1.1496843e-05
19	0x3c9d56b9	0.019206392
20	0xbbb04481	-0.00537926
21	0x3c93bdea	0.018034894
22	0xbd303275	-0.04301687
23	0x3c0537d2	0.008130984
24	0x3cdf2471	0.027239056
25	0xbd529026	-0.051407002
26	0x3d2fbac8	0.042902738
27	0x3c9428fb	0.018085947
28	0x3c0c90eb	0.008579473
29	0x3d1be863	0.038063418
30	0x3d56241b	0.052280527
31	0xbd022bc6	-0.031780027
32	0x3cd4a320	0.02595669
33	0xbc28020a	-0.010254392
34	0xbd6d6361	-0.057956103
35	0x3b8b40c2	0.004249663
36	0xbc8d085d	-0.017215902
37	0x3c5c9572	0.013463365
38	0x3d05ddfb	0.0326824
39	0x3c5c1544	0.0134328045
40	0x3d26cc9d	0.04072248
41	0x3ce7e0da	0.02830546
42	0xbd7b59f1	-0.06136507
43	0xba95cee1	-0.0011429453
44	0x3d200304	0.039065376
45	0x3b7f0bb6	0.0038916892
46	0xbd57ee54	-0.05271752
47	0x3d0a0b11	0.03370196
48	0x3c13edef	0.009028896
49	0xbd4e53b0	-0.05037278
50	0x3bb13b27	0.005408663
51	0x3d2e8840	0.042610407
52	0x3b4ac2ef	0.0030938943
53	0xbc5c9c73	-0.013465035
54	0xbbde1034	-0.006776834
55	0xbd65da4c	-0.056116387
56	0x3ce7bda4	0.02828867
57	0xbd7edcab	-0.062222164
58	0x3d052f96	0.032516085
59	0xbd0a77fa	-0.033805825
60	0x3bb97313	0.00565947
61	0x3cd2d9c4	0.025738604
62	0xbcfd6a6b	-0.030934533
63	0x3ce88794	0.028384961
64	0xbbf9fb12	-0.007628807
65	0xbc33973b	-0.010961349
66	0xbd1be28a	-0.03805784
67	0xbd283898	-0.041069597
68	0xbcb985ca	-0.022646803
69	0xbd03402e	-0.03204363
70	0x3c038ad2	0.008028703
71	0xbb5efdad	-0.0034025714
72	0xbce059bf	-0.027386544
73	0xbc8e4ab0	-0.017369598
74	0xbdb6bf58	-0.08923215
75	0xbd01a18e	-0.03164821
76	0x3d95adda	0.0730855
77	0xbcebdd0c	-0.028791927
78	0x3bf0ec77	0.0073524076
79	0x3cda9f81	0.026687386
80	0x3d44e7b6	0.04807254
81	0x3cb81c28	0.022474363
82	0x3c95803c	0.018249623
83	0xbd3ed704	-0.046591774
84	0xbc9ece87	-0.01938559
85	0x3d01cfdb	0.031692367
86	0x3cc20d66	0.02368803
87	0x3a38ea2a	0.0007053936
88	0x3acf54a4	0.0015818072
89	0x3bc7e34a	0.006100093
90	0xbd4bb349	-0.049731527
91	0x3c1781c4	0.009247247
92	0xba6f0514	-0.0009117883
93	0xbd39bd95	-0.045346815
94	0xbcecfcca	-0.028929133
95	0xbc99772d	-0.018733585
96	0xbd584126	-0.052796505
97	0x3c552ec3	0.013011637
98	0x3ca2f38a	0.01989152
99	0x3cc8e58f	0.024523525
100	0x3c4bfd7c	0.012450572
101	0x3cfd80fd	0.030945295
102	0x3c401c9e	0.011725573
103	0xbd82780b	-0.06370553
104	0x3c8ec97e	0.017430063
105	0x3bb21b67	0.0054353955
106	0xbd28bdc3	-0.041196596
107	0x3c8d52e2	0.017251436
108	0x3d05959d	0.032613385
109	0x3cfb2146	0.030655514
110	0xba008a09	-0.00049033813
111	0x3cf4a818	0.02986531
112	0x3ca74b48	0.02042164
113	0xbccec772	-0.025241587
114	0x3d2ebe4f	0.04266196
115	0xbd4713cd	-0.048602868
116	0x3b0ac784	0.002117605
117	0x3cdc51f7	0.026894553
118	0x3ad5420b	0.0016270293
119	0x3b3ffac0	0.0029293746
120	0xbc04ef4d	-0.008113694
121	0xbc9773f1	-0.018487902
122	0x3d022cd3	0.03178103
123	0x3c9cbf09	0.019134061
124	0x3d11ef0a	0.035628356
125	0xbc1b1cbd	-0.009467301
126	0x3c475319	0.012165808
127	0x3d002ee4	0.03129472

network_body._body_endoder.seq_layers.2.weight f4 [128, 128]
0	0xbda7ac73	-0.08187189
1	0x3dd43953	0.10362496
2	0x3e148140	0.1450243
3	0x3e22977b	0.15878098
4	0x3c916628	0.017748907
5	0x3df66f70	0.12032974
6	0xbdccecaa	-0.100060776
7	0xbdc2a87e	-0.095047936
8	0x3d91ece9	0.07125265
9	0xbdc921aa	-0.09820874
10	0x3db9d87e	0.09074496
11	0xbe1e8cae	-0.15483353
12	0xbda5e67f	-0.08100604
13	0x3d231c75	0.03982206
14	0x3e30cd04	0.17265707
15	0x3d688e02	0.056776054
16	0xbd326cfb	-0.043560963
17	0xbd5ef5be	-0.054433577
18	0x3d6e708a	0.058212794
19	0x3d35873a	0.044318415
20	0x3d87a200	0.06622696
21	0xbcb3a586	-0.021929514
22	0xbce9ee56	-0.02855603
23	0xbdf6f4df	-0.12058424
24	0xbdcea817	-0.10090654
25	0xbcf19cda	-0.029493738
26	0x3db05fcf	0.08612024
27	0x3e400f6a	0.1875588
28	0xbdfa7444	-0.12229207
29	0x3d086e88	0.033308536
30	0x3bf284ec	0.0074010994
31	0xbd631b36	-0.055445872
32	0xbd8d08bb	-0.06886431
33	0xbd5223ae	-0.051303558
34	0xbcfd3b49	-0.030912058
35	0xbd06227f	-0.03274774
36	0xbdaa3bb6	-0.0831217
37	0x3e300f6f	0.17193387
38	0xbc00b2e3	-0.00785515
39	0x3daf1f2b	0.08550867
40	0xbc69070e	-0.014222873
41	0x3cc49b5f	0.023999868
42	0x3ba282d8	0.0049594454
43	0x39a3f863	0.00031274845
44	0x3dc680d5	0.096925415
45	0xbe590055	-0.21191533
46	0x3ce8c43b	0.028413882
47	0xbaed6ef4	-0.0018114732
48	0x3e2db222	0.16962484
49	0x3dbfff7d	0.093749024
50	0x3cbdcb93	0.02316836
51	0xbbc94e73	-0.006143385
52	0xbe90fb3c	-0.28316677
53	0xbd82afbf	-0.06381177
54	0xbb84cb02	-0.0040525207
55	0xbe6580f5	-0.22412474
56	0xbdc6affe	-0.097015366
57	0xbd8ca221	-0.06866861
58	0xbe7d20dd	-0.24719568
59	0xbda93b2a	-0.08263238
60	0xbe75ff5a	-0.2402319
61	0x3df640e2	0.12024094
62	0x3dc341af	0.095340125
63	0x3df3b3a5	0.11899499
64	0xbe128a2a	-0.14310518
65	0x3e0b8aa3	0.13627104
66	0xbe49af43	-0.19695763
67	0xbe0c4027	-0.13696347
68	0x3d783afd	0.06060313
69	0xbdaa1d08	-0.083063185
70	0xbd29b6ff	-0.041434284
71	0xbd826947	-0.06367736
72	0xbdf2fb71	-0.11864365
73	0x3c71a09b	0.014747764
74	0xbd98dc94	-0.07463947
75	0xbd518218	-0.051149458
76	0x3db428f9	0.087968774
77	0x3da87e8c	0.08227262
78	0x3dffe2fa	0.12494464
79	0xbd405600	-0.046957016
80	0x3da17d28	0.078852
81	0xbe04bed6	-0.12963423
82	0xbd2ea35a	-0.042636253
83	0xbc890d6b	-0.016730031
84	0x3db4dfdb	0.088317595
85	0x3d712ff0	0.058883607
86	0x3cb13139	0.021629917
87	0xbd80214d	-0.062563516
88	0xbd8fbee5	-0.07018832
89	0x3ce18c8f	0.027532844
90	0xbdf524a4	-0.11969879
91	0x3e0e0ddf	0.13872479
92	0xbd69b397	-0.057056036
93	0xbd14af79	-0.036300156
94	0xbd5ccf50	-0.053908646
95	0xbe122bc2	-0.14274505
96	0xbd922b44	-0.071371585
97	0x3b5b0821	0.0033421593
98	0xbdf24d80	-0.11831188
99	0xbc7f08ef	-0.015566095
100	0xbd7aaa6e	-0.06119769
101	0xbe0f55aa	-0.13997522
102	0xbd499658	-0.049215645
103	0x3debceb9	0.115140386
104	0x3c20b415	0.00980856
105	0x3d2f67d3	0.042823624
106	0xbd679ecf	-0.056547936
107	0x3db6fe43	0.08935215
108	0xbe1095ba	-0.14119616
109	0x3cdda7bc	0.027057521
110	0xbdf406c5	-0.11915354
111	0x3cc20491	0.023683818
112	0x3e420b03	0.18949513
113	0xbda0c687	-0.07850366
114	0xbdde35ce	-0.10850106
115	0xbdddaf4d	-0.108244516
116	0xbcac54b8	-0.02103649
117	0x3e254da3	0.16142897
118	0xbcacf3fd	-0.021112436
119	0x3e154203	0.14575963
120	0x3d6cab89	0.057780776
121	0x3daa085b	0.08302375
122	0x3df691ec	0.12039551
123	0x3e1bd0c3	0.15216355
124	0xbcb930df	-0.022606311
125	0xbc716bba	-0.014735157
126	0xbe15ef97	-0.14642178
127	0xbe8be590	-0.2732358
128	0xbd53ad20	-0.051678777
129	0xbd710b2b	-0.05884854
130	0x3da862c7	0.08221965
131	0xbe62b123	-0.22137885
132	0x3dd07fea	0.10180648
133	0xbe1bc57f	-0.15212058
134	0xbd2bcee4	-0.041945353
135	0xbc19842b	-0.00936989
136	0x3d7575e1	0.05992687
137	0xbdc1d2cc	-0.094640344
138	0xbdfe69f2	-0.12422551
139	0xbdcc4b4f	-0.099753015
140	0xbd974239	-0.07385678
141	0x3d19f2f5	0.037585218
142	0xbd8448ce	-0.06459199
143	0x3cdf7d71	0.027281495
144	0xbe27fe78	-0.16405666
145	0xbe09f9a7	-0.13474141
146	0xbc57847f	-0.013154148
147	0x3eaff4a4	0.34366333
148	0x3cb1916a	0.021675784
149	0xbd2f1351	-0.04274303
150	0xbd79103e	-0.060806505
151	0xbde7f751	-0.11326469
152	0x3cca5456	0.024698418
153	0xbd0867c4	-0.033302084
154	0xbe67268a	-0.22573295
155	0xbdf5be80	-0.119992256
156	0x3d10c660	0.035345435
157	0xbc358afe	-0.011080502
158	0x3dae3a9f	0.08507275
159	0xbd93a5d3	-0.07209363
160	0xbe2df5b8	-0.16988266
161	0xbd887819	-0.06663532
162	0xbd084c31	-0.033275787
163	0x3d4daa74	0.050211385
164	0xbd4ddad6	-0.050257526
165	0x3deeb38f	0.11655342
166	0x3d1ad4cf	0.037800606
167	0xbd960b60	-0.07326388
168	0x3d23cc7b	0.03998993
169	0x3e0f281a	0.13980141
170	0xbd8aebbd	-0.06783245
171	0xbcc4852e	-0.023989286
172	0xbd460292	-0.048342295
173	0x3d92f6a7	0.071759515
174	0xbc872206	-0.016495716
175	0x3e27ef04	0.16399771
176	0xbdb07738	-0.08616489
177	0xbd2209ce	-0.03956013
178	0xbd6b5275	-0.057451684
179	0xbcead547	-0.028666152
180	0x3d080ae7	0.033213522
181	0xbe1f9047	-0.15582381
182	0x3ddf5f0d	0.109068014
183	0x3de31244	0.11087468
184	0xbe26231e	-0.16224334
185	0xbe45bf90	-0.19311357
186	0x3cea9d2c	0.028639399
187	0xbe6746b2	-0.22585562
188	0xbdc2a72f	-0.09504544
189	0x3e002f2a	0.12517992
190	0x3db57701	0.08860589
191	0x3d43a880	0.047768116
192	0xbd474394	-0.048648432
193	0x3de8b052	0.113617554
194	0x3d1b5171	0.037919465
195	0x3d86001b	0.06542989
196	0x3d5fcb31	0.054637138
197	0xbddc2868	-0.107498944
198	0xbdda48fb	-0.10658451
199	0xbd5329c3	-0.0515535
200	0xbbcfdee2	-0.0063437084
201	0x3d8cc8b2	0.06874217
202	0xbd3c1a4b	-0.045923512
203	0xbdca2b8b	-0.098715864
204	0xbcf73b03	-0.030179506
205	0x3e522ac5	0.20524128
206	0x3d0d6f68	0.034530073
207	0xbd419c09	-0.047267947
208	0x3d90a074	0.07061854
209	0xbcd553cc	-0.026040934
210	0x3dea75ed	0.11448274
211	0xbe24e426	-0.16102657
212	0xbdf31d0a	-0.11870773
213	0x3c5486e3	0.012971613
214	0xbd0cc33c	-0.034365878
215	0xbe09700f	-0.13421653
216	0x3d7d9268	0.061907202
217	0xbd5a0bc9	-0.053233895
218	0xbd8c96f2	-0.06864728
219	0x3e3a30a7	0.18182622
220	0xbd5da689	-0.0541139
221	0xbe08fef0	-0.13378501
222	0xbe0f322d	-0.13983984
223	0x3e11aa63	0.14225154
224	0xbe4d0b26	-0.20023784
225	0x3d5dca5c	0.054148063
226	0x3da24fff	0.07925414
227	0x3e82ec6d	0.25571004
228	0x3c2b0305	0.010437732
229	0x3ca7a47d	0.020464176
230	0x3e062f68	0.13104022
231	0xbdd339a4	-0.103137285
232	0x3d718d75	0.058972795
233	0xbe31eaa9	-0.17374672
234	0xbe6e718a	-0.23285499
235	0x3cd35868	0.025798991
236	0x3bd24669	0.006417085
237	0x3bf44908	0.007454995
238	0xbda4c8a0	-0.08046079
239	0xbd20845a	-0.03918872
240	0x3e0122f1	0.12610985
241	0x3cfa2614	0.030535735
242	0x3da82170	0.08209503
243	0xbdbf1593	-0.09330287
244	0x3cdeb00c	0.027183555
245	0xbd790c34	-0.060802653
246	0xbcdea741	-0.027179362
247	0x3cfd303d	0.03090679
248	0xbe17d563	-0.14827494
249	0xbdc3dccb	-0.09563597
250	0x3e4fbb87	0.2028638
251	0x3b367d72	0.0027845767
252	0xbd867af1	-0.06566418
253	0xbddc57a2	-0.10758902
254	0xbd849614	-0.06473938
255	0x3e18c125	0.14917429

network_body._body_endoder.seq_layers.2.bias f4 [128]
0	0x3d062e2e	0.032758884
1	0x3d3f4c14	0.046703413
2	0x3cf14efb	0.029456606
3	0xbd4cf6b5	-0.050039966
4	0x3d18c0b7	0.037293162
5	0x3c50e03c	0.012748774
6	0x3cf7ee8e	0.030265119
7	0xbd31c7dc	-0.04340349
8	0xbd1f8e7f	-0.038954254
9	0x3d23c7cb	0.03998546
10	0x3c4b2fd3	0.012401539
11	0xbc5efbfb	-0.0136098815
12	0xbcb7e14e	-0.0224463
13	0x3b9f0874	0.0048533026
14	0x3bd8f648	0.006621156
15	0xbd819be5	-0.06328563
16	0x3d0fd691	0.035116736
17	0x3d4fb8dc	0.050713405
18	0x3c2863c0	0.0102776885
19	0x3d0bcd8f	0.034131583
20	0x3d64c871	0.05585522
21	0x3d013d75	0.03155275
22	0x3d9104bc	0.07080981
23	0xbcc6e549	-0.024279254
24	0x3c834eef	0.01602885
25	0x3c8ffffc	0.017578118
26	0xbcdf08e3	-0.027225917
27	0x3bfcc21b	0.007713569
28	0x3bee328b	0.007269209
29	0x3d03c52c	0.03217046
30	0x3cf08c30	0.029363722
31	0x3d34aa3a	0.044107653
32	0xbafd7325	-0.0019336684
33	0x3d1eeab4	0.03879805
34	0x3d046ddb	0.03233133
35	0x3cf70170	0.030152053
36	0xbca4ae49	-0.020102637
37	0x3cfab4ed	0.03060385
38	0x3d5babda	0.053630687
39	0x3caa68d2	0.020801935
40	0x3d4bee12	0.04978759
41	0x3bb79133	0.005602026
42	0xbd57092d	-0.052498985
43	0xbd738764	-0.05945529
44	0xbd496869	-0.04917184
45	0xbcb9b942	-0.022671346
46	0x3d16797a	0.036736943
47	0x3cda8428	0.026674345
48	0x3d48a63a	0.04898665
49	0x3cc880aa	0.024475414
50	0xbd3d5fb2	-0.04623384
51	0x3c93d900	0.01804781
52	0x3d0a5903	0.033776294
53	0x3cf15bd7	0.029462738
54	0x3aabface	0.001312101
55	0xbcedaec0	-0.029013991
56	0x3c5ff00d	0.013668072
57	0xbc7343f9	-0.014847749
58	0x3d6ae943	0.057351362
59	0xbd219cd6	-0.03945621
60	0x3c26b730	0.010175511
61	0x3d52afe1	0.051437262
62	0xbd5e146b	-0.05421869
63	0xbd290f83	-0.04127456
64	0x3d942a47	0.07234626
65	0xbd43330b	-0.0476561
66	0xbd34426d	-0.04400866
67	0x3cd83b71	0.026395531
68	0x3c0c56c0	0.008565605
69	0xbd13278c	-0.035926387
70	0xba14a30d	-0.00056700484
71	0xbc7235b7	-0.014783314
72	0xbd51ac7a	-0.051189877
73	0xbc17b3c6	-0.00925917
74	0xbd88054c	-0.06641635
75	0x3c20100d	0.009769452
76	0xbc3114f0	-0.010808215
77	0x3bc50978	0.0060130917
78	0x3d462b33	0.04838104
79	0x3cad8020	0.021179259
80	0x3d01f654	0.031729057
81	0xbd88aa0e	-0.0667306
82	0x3d6961cd	0.056978036
83	0xbcf8264c	-0.030291699
84	0x3d22b912	0.039727278
85	0x3b6cdf9f	0.003614403
86	0x3caf8845	0.021427283
87	0x3cfd2ec7	0.030906094
88	0x3c1e4242	0.009659352
89	0xbd9a28f7	-0.07527345
90	0x3d1f5736	0.03890153
91	0x3ca22b4e	0.01979604
92	0x3ccaf771	0.024776192
93	0x3c952b3c	0.018209092
94	0xbd4c43b1	-0.049869243
95	0xbd5459d2	-0.05184347
96	0x3ceb87ec	0.028751336
97	0x3d37de8d	0.044889975
98	0x3c0e4f46	0.008685892
99	0xbc8563a6	-0.016282868
100	0x3ce05205	0.02738286
101	0xbce1bbe5	-0.027555415
102	0x3dde901a	0.10867329
103	0x3d05c2b9	0.032656405
104	0xbd511de9	-0.051053915
105	0x3c1b9c57	0.009497724
106	0x3a898715	0.0010492528
107	0x3d033fce	0.03204327
108	0xbdbe5028	-0.09292632
109	0xbc15681c	-0.00911906
110	0x3d5f162e	0.05446451
111	0x3d63a17e	0.055573933
112	0xbc2020cd	-0.009773445
113	0xbd4e8de1	-0.050428275
114	0xbb9781cc	-0.0046236273
115	0xbbdb4986	-0.0066921143
116	0x3d82786f	0.06370627
117	0x3d425294	0.047442034
118	0x3bc42058	0.005985301
119	0x3d087d8b	0.033322852
120	0xbc8799dd	-0.01655286
121	0xbc14f6b4	-0.009092022
122	0x3cefdfb5	0.029281477
123	0x3c590c69	0.013247588
124	0xbd976771	-0.07392777
125	0xbcc49df2	-0.024001095
126	0x3b076e0b	0.0020664956
127	0xba1bcf60	-0.0005943682

action_model._continuous_distribution.log_sigma f4 [1, 3]
0	0xbf963575	-1.1735064
1	0xbf911514	-1.1334558
2	0x3c87c4ed	0.016573394
