results/ppo/MoveToGoal/MoveToGoal-0.pt (torch, 148841 bytes, 12 tensors)

network_body._body_endoder.seq_layers.0.weight f4 [128, 6]
00000000: 5030 0cbf a4f6 6fbe aecc 20be d377 14bf
00000010: 9466 1cbf efa1 943c b5cc 16be 57a7 473e
00000020: 3d73 a03e b6ca 84be 3a0d 903d 9b56 223d
00000030: ffc0 8c3e 9f34 ecbe 1033 30be 374a 70be
00000040: 7451 b6be c7c6 be3e 7161 b93d f8f4 7b3d
00000050: ad36 9c3d a0ad b13e 98a1 c83d 6b95 6dbe
00000060: 0f52 efbc 7952 e8be 7748 4a3f 23b8 08bf
00000070: a0fe 263f 0f44 15be 3f06 e3be b130 4b3f
00000080: c921 5c3d 6bae 09bd edb4 5b3d 8150 243e
00000090: 08f8 11bd 79a4 ba3e 5e32 a53e 9047 523d
000000a0: 1c6e 6a3e 5692 babe 4221 59bd 2cfb 383e
000000b0: 6a1b b1be f963 93bd 2e6f 16be 668a 133f
000000c0: 42d3 023e b3d9 033e 9503 213e 2b24 cf3d
000000d0: 52f0 adbe f1df 223d 98fd 71be cac6 a8bd
000000e0: a341 e73e 6b48 12bd 3433 d23e 35d2 90be
000000f0: b973 0e3e fa50 bc3e 5c3a c03e 5b13 d3be
00000100: 3332 fcbe bc4e bb3e ce7c d4bc 75fe 40bd
00000110: c32d a23e 2af2 833e 9fef 92bd b5f3 543d
00000120: d746 10bd 62a8 4ebf 3ba9 f43e 6c91 b13e
00000130: 3c2d 02bf b581 0abf a408 883e 59f0 433d
00000140: f427 3bbf f7d1 ee3e e0bb b53e 15fe b33e
00000150: 09e8 403e 6057 023e 4a5e 403e 6759 4cbe
00000160: 5cb2 ddbe 2118 8e3e 3634 3c3f 04dd d23e
00000170: c551 3c3e 4791 33bd 3152 0f3e 5df6 a83d
00000180: 96b4 72be b2b6 653d ba33 27be 91ce 663d
00000190: b988 b7be c6c4 13bd 1964 4e3e d0c0 e73d
000001a0: a10a b43d 5861 24bf 7b4b 3d3d 4b36 23be
000001b0: 03da ffbe 3a9f fabe 8277 4c3e 386f 8dbd
000001c0: 154d 36bf de2f 003f e6ff 4a3f 903b 163d
000001d0: 3887 0d3f 1ae0 16bd ed55 7dbe 21b7 98be
000001e0: 0724 c0bd 5a93 5bbe e857 74be 4d08 f53d
000001f0: 53fb 26bf 91f1 9fbf 1fd6 dfbe 63ee d43e
00000200: 0bc8 5fbe ab83 80be 0548 dd3e 566e 21be
00000210: 7124 2dbd 83fe be3e 66bf 363f a8c8 683e
00000220: 7216 40be dcb8 7b3d 6f25 5d3e 7323 c43e
00000230: 31b9 7fbe 7847 25bf 5438 43bf 2371 bd3e
00000240: a007 76bd 8b14 5cbe 787b 923e be6b d53e
00000250: 8dfa 803e 9073 4f3d 6b1c 213f 34e5 363f
00000260: 23f6 16bc d3ca be3e 452f c1be ec08 dcbe
00000270: 20df 06bf ff18 2dbf 6a6f 223e 192d 6ebe
00000280: c62a e0be 9292 e13d c05b 383e 5ae1 26bd
00000290: afc0 473e eec3 953e 5cca 0dbf 94d2 c2be
000002a0: 8d6f 61be ccd9 eebe 1955 813e 7a31 bc3e
000002b0: 52f2 17bf 0324 3dbf 4db9 033f 7156 29bf
000002c0: b19a e0be bae5 2c3e 4b8e 81be d1a3 983e
000002d0: 47d4 7b3e 9243 2dbf 581c d0be f14b 803e
000002e0: 9996 ce3e 5650 fdbe 6f38 99be 1c08 c5bd
000002f0: e1e2 d43c 6e8c cf3e e774 843f 4451 c6be
00000300: 1493 df3e 7a60 18be 9daf 95be 6795 c13d
00000310: d5e7 003e 060e 09be 252b a1bd 1d34 a23f
00000320: 89b7 afbd 0e88 163f 267e 403e fdb1 bebe
00000330: 1c07 70be 2d9f 9fbe a8e5 203e 056b c33d
00000340: 73a6 d4bd e5b8 d0be 4c4b 01bf 6bb6 a1be
00000350: b3c3 183d dadb 083e 9514 69be 660d 29bf
00000360: f059 c03d 0784 a23e 508b cd3e f084 fdbe
00000370: b220 11be c1d4 0ebe fa19 5abf acb5 0abe
00000380: b8d9 cfbe 5d15 02bf 64e6 c53c c177 5a3e
00000390: e4f1 733e af13 e23e 7bca d5be 9084 193f
000003a0: f78d c13e 18df 2c3e 097d f1be 1267 8b3d
000003b0: 16a8 b5bd d52e 34bf 5f56 373d 9130 733e
000003c0: c3b6 073f 1059 8fbd dd32 0dbe 0505 793e
000003d0: ce3d d93c 47af 2abe 0f75 033e 48f9 953e
000003e0: eb3d 533e ddd3 c7bc 566a adbe d3ab 1c3e
000003f0: 476c 7e3f c1fe 41bf 9070 013e e755 123f
-0.5476122 -0.2343393 -0.15703079 -0.5799534 -0.6109402 0.018143622 -0.14726527 0.19497429
0.3133792 -0.25935906 0.07033773 0.039633375 0.27490994 -0.46133897 -0.17206979 -0.2346581
-0.3560902 0.3726103 0.090517886 0.061512917 0.07627616 0.34702778 0.097964466 -0.2320153
-0.029213933 -0.45375422 0.7901682 -0.5340597 0.65232277 -0.14576744 -0.44340703 0.7937117
0.053743158 -0.033613604 0.05363934 0.16046335 -0.03563693 0.36453608 0.3226499 0.05133778
0.22893566 -0.3643977 -0.053010233 0.18064564 -0.34591228 -0.07196803 -0.14690849 0.57633054
0.12775901 0.12876014 0.15724023 0.1011432 -0.33972412 0.03976435 -0.23631895 -0.08241041
0.45167264 -0.035713594 0.4105469 -0.28285375 0.13911332 0.3678053 0.37544525 -0.41225705
-0.4925705 0.36583507 -0.025938418 -0.04711767 0.31675538 0.25770694 -0.0717461 0.05199023
-0.03522381 -0.8072568 0.47785363 0.3468126 -0.5085027 -0.5410417 0.26569092 0.047836635
-0.7310784 0.46644565 0.354949 0.35154787 0.18838514 0.12728643 0.18785968 -0.1995598
-0.4330014 0.27752784 0.7351717 0.41184247 0.18390568 -0.04383972 0.13996197 0.08250115
-0.237017 0.056082435 -0.16328326 0.05634934 -0.358465 -0.03607633 0.20155372 0.11316073
0.0879109 -0.64211035 0.046214562 -0.1593868 -0.49971017 -0.48949605 0.19967464 -0.06905979
-0.7121137 0.5007304 0.7929672 0.036677897 0.5528445 -0.036834814 -0.2473981 -0.29827216
-0.09381872 -0.21442929 -0.23861659 0.11964474 -0.6522724 -1.2495595 -0.4371805 0.41588125
-0.21853654 -0.25100455 0.4321901 -0.15764746 -0.04227108 0.37303552 0.713858 0.22732794
-0.18758562 0.061455593 0.21596311 0.38308296 -0.24972989 -0.6456218 -0.76257825 0.3700038
-0.060065866 -0.21492212 0.28609824 0.41683763 0.25191155 0.05064732 0.6293399 0.71443486
-0.009213957 0.37264118 -0.37731376 -0.42975557 -0.5268421 -0.67616266 0.15862814 -0.23259391
-0.43782634 0.11014284 0.1800375 -0.040742256 0.19507097 0.29251045 -0.553869 -0.38051283
-0.2201521 -0.4665054 0.25260237 0.36756498 -0.59354126 -0.73883075 0.5145462 -0.66147524
-0.4386802 0.16884509 -0.25303873 0.29812482 0.24592696 -0.6768123 -0.40646625 0.2505794
0.40349272 -0.49475354 -0.29925868 -0.09620687 0.02598709 0.40536827 1.0348176 -0.38733876
0.436669 -0.14880553 -0.29235545 0.09452324 0.12588437 -0.13384256 -0.07869557 1.2672154
-0.085799284 0.5880135 0.18798122 -0.3724517 -0.23440212 -0.3117613 0.15712607 0.09541897
-0.1038331 -0.40766063 -0.5050552 -0.31584486 0.03729601 0.13365117 -0.22761758 -0.6603607
0.09392154 0.31741354 0.4014535 -0.49515486 -0.14172629 -0.13948347 -0.8519589 -0.13545865
-0.40595794 -0.5081385 0.02415771 0.21334745 0.23822743 0.44155642 -0.41756043 0.599679
0.37803623 0.16881979 -0.47165707 0.068067685 -0.088699505 -0.7038396 0.044760104 0.23748995
0.5301325 -0.06999409 -0.13788934 0.24318321 0.026518729 -0.16668426 0.12837623 0.2929175
0.20629089 -0.024393016 -0.3387019 0.1529992 0.9938397 -0.7577935 0.12640595 0.57162327

network_body._body_endoder.seq_layers.0.bias f4 [128]
00000000: 0000 0000 0000 0000 0000 0000 0000 0000
00000010: 0000 0000 0000 0000 0000 0000 0000 0000
00000020: 0000 0000 0000 0000 0000 0000 0000 0000
00000030: 0000 0000 0000 0000 0000 0000 0000 0000
00000040: 0000 0000 0000 0000 0000 0000 0000 0000
00000050: 0000 0000 0000 0000 0000 0000 0000 0000
00000060: 0000 0000 0000 0000 0000 0000 0000 0000
00000070: 0000 0000 0000 0000 0000 0000 0000 0000
00000080: 0000 0000 0000 0000 0000 0000 0000 0000
00000090: 0000 0000 0000 0000 0000 0000 0000 0000
000000a0: 0000 0000 0000 0000 0000 0000 0000 0000
000000b0: 0000 0000 0000 0000 0000 0000 0000 0000
000000c0: 0000 0000 0000 0000 0000 0000 0000 0000
000000d0: 0000 0000 0000 0000 0000 0000 0000 0000
000000e0: 0000 0000 0000 0000 0000 0000 0000 0000
000000f0: 0000 0000 0000 0000 0000 0000 0000 0000
00000100: 0000 0000 0000 0000 0000 0000 0000 0000
00000110: 0000 0000 0000 0000 0000 0000 0000 0000
00000120: 0000 0000 0000 0000 0000 0000 0000 0000
00000130: 0000 0000 0000 0000 0000 0000 0000 0000
00000140: 0000 0000 0000 0000 0000 0000 0000 0000
00000150: 0000 0000 0000 0000 0000 0000 0000 0000
00000160: 0000 0000 0000 0000 0000 0000 0000 0000
00000170: 0000 0000 0000 0000 0000 0000 0000 0000
00000180: 0000 0000 0000 0000 0000 0000 0000 0000
00000190: 0000 0000 0000 0000 0000 0000 0000 0000
000001a0: 0000 0000 0000 0000 0000 0000 0000 0000
000001b0: 0000 0000 0000 0000 0000 0000 0000 0000
000001c0: 0000 0000 0000 0000 0000 0000 0000 0000
000001d0: 0000 0000 0000 0000 0000 0000 0000 0000
000001e0: 0000 0000 0000 0000 0000 0000 0000 0000
000001f0: 0000 0000 0000 0000 0000 0000 0000 0000
0.0 0.0 0.0 0.0 0.0 0.0 0.0 0.0
0.0 0.0 0.0 0.0 0.0 0.0 0.0 0.0
0.0 0.0 0.0 0.0 0.0 0.0 0.0 0.0
0.0 0.0 0.0 0.0 0.0 0.0 0.0 0.0
0.0 0.0 0.0 0.0 0.0 0.0 0.0 0.0
0.0 0.0 0.0 0.0 0.0 0.0 0.0 0.0
0.0 0.0 0.0 0.0 0.0 0.0 0.0 0.0
0.0 0.0 0.0 0.0 0.0 0.0 0.0 0.0
0.0 0.0 0.0 0.0 0.0 0.0 0.0 0.0
0.0 0.0 0.0 0.0 0.0 0.0 0.0 0.0
0.0 0.0 0.0 0.0 0.0 0.0 0.0 0.0
0.0 0.0 0.0 0.0 0.0 0.0 0.0 0.0
0.0 0.0 0.0 0.0 0.0 0.0 0.0 0.0
0.0 0.0 0.0 0.0 0.0 0.0 0.0 0.0
0.0 0.0 0.0 0.0 0.0 0.0 0.0 0.0
0.0 0.0 0.0 0.0 0.0 0.0 0.0 0.0

network_body._body_endoder.seq_layers.2.weight f4 [128, 128]
00000000: c208 69be 076c 623d caa3 38bd 794c a7bd
00000010: 8e67 2e3e 24bc 4abe ce1e a7bd 4c5c 20bd
00000020: 2a9e 70bc 19f3 7dbd 31e7 3bbd 74a3 d3bc
00000030: fd9b d7bd 9ef0 b0bd 1dce d0bd 8dea 9a3d
00000040: b813 77bd 0327 1fbe b781 af3d 8c69 b33d
00000050: ed5c bebd 308d e03d 4329 8ebd ab09 94bd
00000060: a1de aabd aa19 ac3d 7ef5 b2bd 4737 3dbd
00000070: 5667 063d 58d8 aebd 2674 acbc 4447 8d3d
00000080: 1a79 f1bd 5d2b 8c3d c9b5 733d 2b52 4a3d
00000090: b512 85bd fff4 643d 7cb1 4dbd fbda ecbd
000000a0: 314b 3fbe 509a 113e fcba 583c 7012 053e
000000b0: 48eb 4ebd 88c6 0bbd e47f 993a d589 ccbc
000000c0: fd72 f93d 3851 553d e095 243d cee7 3bbd
000000d0: 230a 373d cacc ddbd 22a8 683d da84 593b
000000e0: ba2b 42bd 4c8d 4e3e 309a 88bd 37ba 853d
000000f0: 792f 02bd aaac 7d3d 14ec 20bc 85c9 a7bd
00000100: eaf5 68bd e483 d9bc e05e 88bd 8bfa a03d
00000110: f536 09bd d848 8abd 310b b03d 14e5 e73d
00000120: 3b16 85bd 40bb f7bd f6a6 8ebd 5087 e43d
00000130: 1839 3a3d 40b0 0b3e 5297 eebd ca3b 4fbe
00000140: 701d 94bc 93ee 463e bfcb 153c e7cf 6a3c
00000150: 21e8 6bbc 1e1b 0bbe 104a 0dbe 13ee bb3c
00000160: 8560 10be 390c 933d f195 403d 8a81 35bd
00000170: ffb3 dfbd f7b2 a53d 2f32 923d 42b0 233d
00000180: 0585 e03d 56cf 19be 3b34 19be 5cdf 25be
00000190: 888e 933d ee3e 443e c420 e9bc 9f4b 8e3d
000001a0: 34fe d93c d67a 1fbe a5b0 96bd b982 1cbd
000001b0: d46e 89bc 6245 c5bd bef2 293d 2f2c 15bd
000001c0: 63cc f63d 37b3 4f3d a9b6 93bc 449f e1bd
000001d0: b98c 3e3d a416 b2ba 4357 2a3e 3b96 eabd
000001e0: f2b1 e6bc 8c94 a63d dddc d13d 100e 8b3d
000001f0: b008 81bd f787 96bd 8805 f6bc 2f6d 563c
00000200: 981f 95bd 8f53 0e3d c105 7abd 37b3 8fbd
00000210: a222 36be df1a 993d 9768 993d b7ad 0bbc
00000220: 8be3 0a3e 4433 a93d c7e1 db3d fe7b e6bd
00000230: 9604 3a3d 6f44 993d 1511 cabd dc18 e3bd
00000240: f8d4 0cbd b0f1 b93d aab9 053e 377b bdbd
00000250: 50ca 63bd 6b6b 36bd 3434 0fbd d9ff 7abc
00000260: b42b 103d 4dac 0f3d 1af2 35bd adc2 96bd
00000270: 21d9 cf3d 6780 323e e43d d93d 8d3e 31be
00000280: 86a4 453d e239 863d 81e8 703c cba2 0bbd
00000290: f42a 913d 1aa2 a2bd 93ca c5bd 41b5 47bd
000002a0: d51f 0f3e ba15 a5bd 5fdd 88bc 2555 c43c
000002b0: 5ea7 01be fd42 613d ff27 c7bd 53cd a9bd
000002c0: 1a62 653e 50ef a23e 3b39 813c e84b 263e
000002d0: 955e ea3d f66f b73d d03b 163e f4cd a73d
000002e0: 47af 243e d5f5 bb3d adec 703d 7be8 16be
000002f0: b117 31be e2fb 523d addd 993d 9acf 933c
00000300: eb8b 013e f9ef 73bd eb41 53bb 164c adbd
00000310: 8912 723d 4acc 50bd 4237 57be 6e8a a53d
00000320: e091 fe3d dc4f 163d 5a97 06bd 12d0 95bc
00000330: c497 fe3c cb6f 9d3d 1a85 6fbb fb94 6dbe
00000340: 75aa 863d 067a 893d 9551 2cbd 9ef5 043c
00000350: a848 aebd b6a7 b9bd 712a 0c3e 308e 7fbc
00000360: 7c39 8e3d 7e13 12bd c76c 863d f343 643d
00000370: 08dd 91bc 0fc6 333d f1ce 11be 98ce eb3b
00000380: de22 c0bd 5840 d63c 88ec c43d 72c0 68bd
00000390: ec64 c53c 3a03 d03d 28c2 00bd ac4a 613e
000003a0: 7d40 073d 6e6e f1bd cb14 9fbd ae40 b93d
000003b0: 68eb 953d ea81 b63d 9154 c83c 9e2f 95bd
000003c0: 8beb debc a35d 963d 18f7 983d af29 7bbd
000003d0: 8a21 2ebd 38df 9abd d3fa b8bd 4110 cfbd
000003e0: 3631 813d 9e95 733d cef6 3d3b 666d 233d
000003f0: 5912 a53d 9150 05be b859 f53d 86b3 bfbd
-0.22757247 0.055278804 -0.045078076 -0.08168883 0.1703169 -0.19798332 -0.081601724 -0.03915052
-0.014686147 -0.061999414 -0.04587478 -0.025834776 -0.10527799 -0.08639644 -0.10195563 0.07564268
-0.06032154 -0.15542226 0.08569663 0.08760366 -0.09295068 0.109644294 -0.06941464 -0.072284065
-0.08343244 0.084033325 -0.0873823 -0.046195295 0.032813393 -0.08537358 -0.021051478 0.068983585
-0.117906764 0.068442084 0.059499536 0.049394768 -0.06497709 0.05589771 -0.05021809 -0.11565205
-0.18681027 0.14219022 0.013228174 0.12995315 -0.05051735 -0.03412488 0.0011711088 -0.024968067
0.121801354 0.05207941 0.040181994 -0.045875363 0.0446874 -0.10830076 0.05680097 0.0033190758
-0.047404982 0.20171088 -0.06670034 0.06529658 -0.031783555 0.061932243 -0.00982191 -0.08192734
-0.056875147 -0.026552148 -0.06658721 0.07860287 -0.033499677 -0.06752175 0.085958846 0.1132299
-0.06498381 -0.12096262 -0.06965439 0.11158621 0.045464605 0.13641453 -0.11649956 -0.20237651
-0.018080443 0.19426946 0.009142815 0.014331794 -0.014398606 -0.13584563 -0.13797784 0.022940671
-0.1409932 0.07180066 0.047017995 -0.04431299 -0.109230034 0.080907755 0.07138478 0.039963014
0.109628715 -0.15020499 -0.1496133 -0.16198486 0.0720492 0.19164631 -0.028458007 0.06948017
0.026610471 -0.15574202 -0.07357911 -0.038210604 -0.01677648 -0.09632374 0.041491263 -0.03641909
0.120507024 0.050708022 -0.018031435 -0.11016706 0.046520922 -0.001358707 0.1663485 -0.114544354
-0.028161023 0.08133802 0.102472045 0.067897916 -0.06300485 -0.07350152 -0.030031934 0.013087555
-0.07281417 0.034747656 -0.061040644 -0.070166044 -0.17786649 0.074758284 0.07490652 -0.008525304
0.13563363 0.08261731 0.10736423 -0.112541184 0.04541453 0.07483756 -0.098665394 -0.11088726
-0.03438279 0.09079301 0.13059106 -0.09252017 -0.055612862 -0.044536036 -0.034961894 -0.015319788
0.03519793 0.03507643 -0.04442034 -0.0736135 0.10148836 0.17431794 0.10607508 -0.17309017
0.048252605 0.06554009 0.014703871 -0.0340908 0.07088271 -0.07941075 -0.096577786 -0.04875684
0.13976987 -0.08060785 -0.01670712 0.023966381 -0.12661502 0.054995526 -0.097244255 -0.082911156
0.22400704 0.31823206 0.01577436 0.16239893 0.11443821 0.08956902 0.14671254 0.08193579
0.16082488 0.09177748 0.05881946 -0.14737122 -0.17294194 0.051509745 0.075129844 0.018043328
0.1265103 -0.059555028 -0.0032235335 -0.08461778 0.059099708 -0.050976075 -0.21017173 0.08083044
0.12430167 0.036697254 -0.032859184 -0.018287692 0.031078227 0.076873384 -0.003654784 -0.23201363
0.06575481 0.06712727 -0.04206999 0.0081152 -0.08509952 -0.090651914 0.13688065 -0.015597865
0.06944558 -0.03566312 0.065637164 0.055728864 -0.017805591 0.043890055 -0.14239098 0.0071962588
-0.093816504 0.026153728 0.09615427 -0.056824155 0.024095975 0.101568654 -0.03143516 0.22001141
0.033020485 -0.11788641 -0.07767638 0.0904554 0.07320291 0.08911498 0.024454387 -0.07284473
-0.027211925 0.073420785 0.074690044 -0.06131905 -0.042512454 -0.07562107 -0.09032216 -0.10110522
0.06308214 0.059468858 0.0028986218 0.039899252 0.0806014 -0.13019015 0.11980003 -0.09360413

network_body._body_endoder.seq_layers.2.bias f4 [128]
00000000: 0000 0000 0000 0000 0000 0000 0000 0000
00000010: 0000 0000 0000 0000 0000 0000 0000 0000
00000020: 0000 0000 0000 0000 0000 0000 0000 0000
00000030: 0000 0000 0000 0000 0000 0000 0000 0000
00000040: 0000 0000 0000 0000 0000 0000 0000 0000
00000050: 0000 0000 0000 0000 0000 0000 0000 0000
00000060: 0000 0000 0000 0000 0000 0000 0000 0000
00000070: 0000 0000 0000 0000 0000 0000 0000 0000
00000080: 0000 0000 0000 0000 0000 0000 0000 0000
00000090: 0000 0000 0000 0000 0000 0000 0000 0000
000000a0: 0000 0000 0000 0000 0000 0000 0000 0000
000000b0: 0000 0000 0000 0000 0000 0000 0000 0000
000000c0: 0000 0000 0000 0000 0000 0000 0000 0000
000000d0: 0000 0000 0000 0000 0000 0000 0000 0000
000000e0: 0000 0000 0000 0000 0000 0000 0000 0000
000000f0: 0000 0000 0000 0000 0000 0000 0000 0000
00000100: 0000 0000 0000 0000 0000 0000 0000 0000
00000110: 0000 0000 0000 0000 0000 0000 0000 0000
00000120: 0000 0000 0000 0000 0000 0000 0000 0000
00000130: 0000 0000 0000 0000 0000 0000 0000 0000
00000140: 0000 0000 0000 0000 0000 0000 0000 0000
00000150: 0000 0000 0000 0000 0000 0000 0000 0000
00000160: 0000 0000 0000 0000 0000 0000 0000 0000
00000170: 0000 0000 0000 0000 0000 0000 0000 0000
00000180: 0000 0000 0000 0000 0000 0000 0000 0000
00000190: 0000 0000 0000 0000 0000 0000 0000 0000
000001a0: 0000 0000 0000 0000 0000 0000 0000 0000
000001b0: 0000 0000 0000 0000 0000 0000 0000 0000
000001c0: 0000 0000 0000 0000 0000 0000 0000 0000
000001d0: 0000 0000 0000 0000 0000 0000 0000 0000
000001e0: 0000 0000 0000 0000 0000 0000 0000 0000
000001f0: 0000 0000 0000 0000 0000 0000 0000 0000
0.0 0.0 0.0 0.0 0.0 0.0 0.0 0.0
0.0 0.0 0.0 0.0 0.0 0.0 0.0 0.0
0.0 0.0 0.0 0.0 0.0 0.0 0.0 0.0
0.0 0.0 0.0 0.0 0.0 0.0 0.0 0.0
0.0 0.0 0.0 0.0 0.0 0.0 0.0 0.0
0.0 0.0 0.0 0.0 0.0 0.0 0.0 0.0
0.0 0.0 0.0 0.0 0.0 0.0 0.0 0.0
0.0 0.0 0.0 0.0 0.0 0.0 0.0 0.0
0.0 0.0 0.0 0.0 0.0 0.0 0.0 0.0
0.0 0.0 0.0 0.0 0.0 0.0 0.0 0.0
0.0 0.0 0.0 0.0 0.0 0.0 0.0 0.0
0.0 0.0 0.0 0.0 0.0 0.0 0.0 0.0
0.0 0.0 0.0 0.0 0.0 0.0 0.0 0.0
0.0 0.0 0.0 0.0 0.0 0.0 0.0 0.0
0.0 0.0 0.0 0.0 0.0 0.0 0.0 0.0
0.0 0.0 0.0 0.0 0.0 0.0 0.0 0.0

action_model._continuous_distribution.log_sigma f4 [1, 2]
00000000: 0000 0000 0000 0000
0.0 0.0

action_model._continuous_distribution.mu.weight f4 [2, 128]
00000000: 9a8d 3b3d cd66 34bc ed6e a3bb fc6b 003c
00000010: ab89 5abc faee c0bc f3cc dc3c ba95 7c3c
00000020: b5b4 3fbc bddf bb3c f89e e5bb 520f da3c
00000030: 4d5c b2bc 0d1f f1ba 5278 bebc 9196 903c
00000040: 47a5 003d e6aa 25bc 07d8 0fbc 3f41 2c3c
00000050: a0a6 4f3c 4cd4 0cbc 061a 44bc 1043 f6bb
00000060: 46ac 2c3c d060 8cbc 0afb 1dbc beb4 c0bc
00000070: 5828 acbc d8fc ae3c 6b58 ac3b 144d 1bbb
00000080: 8b15 f93c 07e8 5cbc 07a6 d53c 38fd 7b3c
00000090: 4d8e 1b3c 58c4 60bb 4b90 ccbc 4f8f ad3b
000000a0: 70ac 9dbb 1805 d73a a748 2c3d d615 8e3c
000000b0: be10 963c ba1e 0bbb cae5 ccbb 5bf5 c63c
000000c0: 769b 2c3c f070 9b3c 4853 f5bc 58c9 a53c
000000d0: 0321 d13c 2473 213c b296 ad3c 3fa5 913c
000000e0: 4bfe 11bc f35a ca3c 3249 a93b bbf9 62bc
000000f0: 67ab 88bc effe 733b 4971 973a c3fd 8c3c
00000100: 3e73 933b 0c39 8d3c 463b 0f3c 979d 28bc
00000110: 22c2 b0bb 5ce7 adbb 6f38 4bba f487 45bb
00000120: 4ce6 253b 5c23 2bbc 7db8 e2bc 7e41 b6bc
00000130: 4384 eabc a69f 84bc f4d7 883c b30f 50bb
00000140: 1d35 c53b ff5a 353c 95b7 e53a b877 443c
00000150: d395 173c 270f e73b 8e65 1b3d 2814 4dbc
00000160: 9fb9 1fbc aaff 7d3b d02d 503c bd84 b5bb
00000170: e36b 923b bdeb 993c 5cd7 193d 4f49 94bb
00000180: cd73 6ebc 6733 aebc e643 433c 4acb 0cbc
00000190: 843b 1fbc d8c9 fabb 4f39 90bc 92ba 263d
000001a0: 4a95 533b 5775 e6ba 5de5 0ebc f2c0 0fbb
000001b0: cf03 b8bc 2b05 9d3b fdec c93c 60f7 fe3b
000001c0: bc59 bcbc 1762 81bc 159b ab3c e02a 22bc
000001d0: 9b56 dcbb 2535 0abc b4ed bfbc 1706 74bd
000001e0: 7d60 033b 9f5a bfbb ff38 70bb 1bdd fdbb
000001f0: edff 3cbd de34 283b 8337 8fbc 5490 91bc
00000200: 84e9 c2bc e047 b63a ff85 84bc a384 5e3a
00000210: 5bd8 df3c 1f60 05bd 23c8 08bd 1324 b03b
00000220: 2f36 013b 77a4 653b 3281 fabc f871 b93c
00000230: 9370 0a3b 1a01 063c c33f 8a3c 6ba3 813a
00000240: 1bc1 5abc f5cd 7f3b 3855 9a3a c3ec 2e3c
00000250: c37a 853c 20d4 0c3d 6622 4239 2afb 31bd
00000260: 5272 f53b 0838 26bb 0bc1 b6bc f41b 15bb
00000270: 8ea3 9a3c 57ff e03c 4aac b23b 646a 993c
00000280: 32d2 fa3b 9731 dfba 4b0c 6bbc 09fe b3bc
00000290: b605 16bc 5194 36bd 7f99 ceba 4bca 633c
000002a0: 2186 0d3d 25ff 653a 1d38 cebb 1362 0ebc
000002b0: 2bd6 80bc 9af5 ca3c 9eb2 b03a 9ca0 073b
000002c0: 4f30 08ba 08eb 4bbc 4a7d 38bc 7151 963c
000002d0: bb1e 113d b574 70bc 7530 12bb 7d75 b3ba
000002e0: c3ce 66bc 4f61 883a 2f5f a63c 4354 b73c
000002f0: cb82 5d3b ec17 36bd ffd4 583c 024b 0c3d
00000300: d273 043c e17f 4b3a 4084 d3bb 2595 1dbc
00000310: 9c6a 00bc 630d 973b 67b7 913c e78b 23bb
00000320: 8e61 8dbc b826 24bc 4fab fe3b df3b 643c
00000330: db67 8c3b 9f14 87bc a3a1 793b f660 3e3c
00000340: 10ee 5e3c f366 1ebd 2a33 b13c 3399 19bd
00000350: cd32 973c 5c40 b6bb dfc2 61bc 502e f0bc
00000360: f425 01b9 c8b5 f5bc 6902 38bc 4e5a aa3c
00000370: f247 0e3c aab3 d1bb 42db 103c 1bfe 12bc
00000380: dd7b f7bc e2e9 98bc f040 e43c 300a e13c
00000390: 8fc8 993b 0530 23bc a363 d1bc 130c 703c
000003a0: b78e 913b d77a 743c fd65 3a3b 4628 13bb
000003b0: b6e6 223c ebdf 073d 3d15 5ebc fde4 8cba
000003c0: c809 27bd 2f32 413c a8c9 e63b ff32 13bc
000003d0: 3578 f93c aa5b 5cbc f799 c63c 42be 7e3c
000003e0: 4265 e1ba a56a d6bb 4226 823c c15e 08bd
000003f0: b3ba 8d3b e28e e6bb 6629 bd3a 300e 133c
0.04578934 -0.011010838 -0.0049875886 0.0078382455 -0.013338487 -0.023551453 0.026953196 0.015416557
-0.011700799 0.022933835 -0.007007476 0.026618633 -0.021772528 -0.0018396095 -0.023250733 0.01764992
0.03140762 -0.010111546 -0.008779532 0.010513603 0.012674004 -0.008595537 -0.011969095 -0.0075153187
0.01053912 -0.017136008 -0.009642372 -0.023523685 -0.021015331 0.0213608 0.0052595637 -0.0023697065
0.03040578 -0.013483054 0.026080145 0.015380196 0.009494376 -0.0034296717 -0.024971148 0.0052966247
-0.004811816 0.0016404716 0.042061474 0.017344397 0.01831853 -0.0021228031 -0.006252979 0.024286916
0.010535112 0.018974751 -0.029946938 0.02023761 0.025528437 0.009854112 0.021190021 0.01777899
-0.008910726 0.024701571 0.0051661963 -0.013853486 -0.016683294 0.003723081 0.0011554147 0.017210847
0.004499822 0.017239116 0.008742159 -0.010291479 -0.005394236 -0.005307121 -0.0007752245 -0.0030140849
0.002531427 -0.010445442 -0.027675861 -0.022248026 -0.02862752 -0.016189408 0.016704537 -0.0031747639
0.0060182945 0.011069058 0.0017526025 0.011991434 0.0092520295 0.007051367 0.037938647 -0.012517013
-0.009748845 0.0038757124 0.012706235 -0.0055395053 0.0044684275 0.018789167 0.0375589 -0.0045253406
-0.014553976 -0.021264745 0.011918044 -0.00859339 -0.0097187795 -0.007653456 -0.017605452 0.04070527
0.0032285028 -0.0017582577 -0.008721677 -0.0021935073 -0.022462754 0.004791876 0.024649138 0.0077809542
-0.022992007 -0.015793843 0.020947972 -0.0098979175 -0.0067241914 -0.008435522 -0.023428775 -0.05957612
0.0020046525 -0.0058396603 -0.0036655066 -0.007747305 -0.046142507 0.0025666277 -0.017482525 -0.017769016
-0.02379299 0.0013906918 -0.016177176 0.00084883923 0.027324846 -0.03256237 -0.03339399 0.005375394
0.0019716134 0.0035040656 -0.030579183 0.022637352 0.0021124228 0.008178974 0.016876107 0.0009890621
-0.013351704 0.0039032672 0.0011774665 0.010676566 0.016293889 0.034381986 0.00018514096 -0.04345242
0.0074904347 -0.0025362987 -0.022308847 -0.0022752257 0.018876817 0.027465506 0.0054526674 0.018727489
0.0076544518 -0.0017028329 -0.014346193 -0.02197172 -0.009156635 -0.04457504 -0.0015762298 0.013903211
0.034551743 0.0008773676 -0.0062933103 -0.008690375 -0.015727123 0.024775315 0.0013480966 0.0020695096
-0.0005195187 -0.012446173 -0.01126034 0.018349381 0.035429697 -0.014676263 -0.0022306715 -0.001369163
-0.014087382 0.0010404977 0.020309059 0.022379046 0.0033799883 -0.044456407 0.013234376 0.03425122
0.008084254 0.0007762891 -0.0064549744 -0.009618078 -0.007837918 0.00460975 0.017787648 -0.0024955214
-0.017258432 -0.010018997 0.0077718864 0.01393029 0.0042848415 -0.016489325 0.0038090728 0.011619797
0.013606563 -0.0386724 0.021630842 -0.037499618 0.01845684 -0.0055618715 -0.013779371 -0.029318959
-0.00012316537 -0.029993907 -0.011231043 0.020795014 0.008684145 -0.0063995915 0.008841338 -0.008971716
-0.03021043 -0.018666212 0.027862996 0.027470678 0.004693098 -0.009960179 -0.025560206 0.014651316
0.0044420618 0.014921865 0.0028442137 -0.0022454425 0.009942701 0.03317253 -0.013554868 -0.0010749396
-0.040780813 0.01179175 0.0070430823 -0.008984326 0.030452827 -0.013449589 0.024243338 0.015548291
-0.0017196315 -0.0065434747 0.015887383 -0.03329349 0.004325235 -0.007036076 0.0014431893 0.0089755505

action_model._continuous_distribution.mu.bias f4 [2]
00000000: 0000 0000 0000 0000
0.0 0.0

network_body._body_endoder.seq_layers.0.weight f4 [128, 6]
00000000: 7916 8ebe bb00 313e d1ca db3d 2f7f 913e
00000010: a499 8a3e bbb5 173d c5b9 f13e 3d2c 0f3e
00000020: ce16 6b3e ba43 123e ac64 e4be c556 6cbf
00000030: 6392 ba3e 5a39 2dbf a372 543f c5a6 25bd
00000040: 9f9d eb3e 1bfb e23e 2dd9 cdbe 03bc 793e
00000050: c694 70be 09e5 133d e9df 34be d9b2 e8be
00000060: 964e dbbe 7f87 09be bb91 243e b18b 2e3e
00000070: 19e9 82bd 54cb d43e 123d a13e bd79 bb3e
00000080: d4cb 18be 27e9 42be 5a03 44be ffc5 3abf
00000090: 657d 893e 42dc bebe dce8 25bf 839f a63e
000000a0: 0929 c63e e2f2 e43e c49f a73e 5178 01bf
000000b0: cbdd 233f d2c2 55be fc5c b1be 50b0 c5be
000000c0: 942a c43e 06d1 403e e1e0 cebe 79e3 2dbd
000000d0: 12b1 773e 56dd 95be 239f 18be 459f 04bf
000000e0: d560 11bf 6b5a fabe c204 27be 492f eb3b
000000f0: 5035 6abd ebb2 a53d 2698 833e 1d25 c7be
00000100: f198 91be 4d22 893e 8a84 a43e 398b 1b3d
00000110: 7cd1 8dbe 91ec 1d3f e873 053f b5c2 4f3f
00000120: 82a2 1dbe fb76 a13e 7943 753e f0fc 103f
00000130: 615a 273e b546 e0be 52c1 af3d c9d5 a2be
00000140: d468 94be abec 833e 3941 54bf 309d 9f3e
00000150: 9972 ae3e 823c e53b a592 313e 4a29 9a3e
00000160: 86b8 a43e 46c1 f7bc fe90 b2bd f759 e93e
00000170: 8639 24be 4f62 913e 0c3d a13c 83cc 6b3e
00000180: de33 4f3f 3984 a93e 76a7 39bf 4de7 353e
00000190: dfe0 de3d 4ec7 f3bc 7d21 2f3f 3ea5 cebc
000001a0: 04e2 4fbe ab8f 3e3f a9d6 62bf 67c5 293e
000001b0: 49e3 7e3d f3e6 bcbe 49fe febd 8a91 f0bd
000001c0: 1809 bdbd c9aa 4c3f 4afe 543e 4d1f 09bf
000001d0: 1fee 983e 615b 113f 1796 4a3e e118 6dbe
000001e0: 40d4 ddbe 4425 1cbe 8d6a d2be 92fe 2ebf
000001f0: 4f2e 39bd 9101 85be 653a a6be bb18 4ebf
00000200: 5da0 81bd 8461 4dbf dea3 223c 80c2 763d
00000210: 7a36 da3e 5e0a 10bf d755 8abd 7f46 a4be
00000220: f283 d3bd 1fe3 863e 7061 0abf c171 ce3e
00000230: 354d 38be 6545 9f3e 7805 ed3d ebf7 12bf
00000240: 17a2 a3be a15a 3b3e cfbb fa3c 3f6f 07bf
00000250: 9148 933e a013 07bf f9a2 e03e 62ab 1c3e
00000260: 264c d73c b456 03bf a0dd 0c3e b530 04bf
00000270: 1c45 0bbf 2491 5c3f 0f93 0e3e 2b84 323e
00000280: a9a4 d33d 1d10 a8be 17f6 a5be 8d32 be3d
00000290: 49e5 9ebd 4937 84be 0861 ecbe 7d31 203f
000002a0: 9a30 4a3f 5df6 083f 6387 443f 73ea fdbd
000002b0: cda8 7e3f fa2b a2bd d3b8 2ebf c548 54bd
000002c0: 0ffd efbd 31f8 753e f8c0 d63e 89a8 8b3d
000002d0: c97f a93e 952b b0be e556 2cbd 679b 72be
000002e0: aa25 783e cb31 00bf ddbd 2dbf e796 063f
000002f0: ecb0 19be 4f3c bdbc f06e 1dbf 6216 bebc
00000300: b0d6 e63e 13e7 b53e b0a9 b8be 3f8c 3b3e
00000310: 0b02 c4be 05f7 82bc 6b14 f4be 6854 82be
00000320: a072 563e f30a 1a3f e5fe 3bbe 1d22 c03e
00000330: bf99 463e c07e 03bf 8a9d 92bd 98e2 17be
00000340: 6baa 7b3d ea0e 0ebf da1e d53e 0427 6cbe
00000350: f82d 80be 45f6 50bd 061e 723e 7e74 ffbe
00000360: 5a80 a43e 0af6 943e ddb8 d53d b328 333e
00000370: d66d 8a3e f538 9e3d c535 a2be 178f cd3e
00000380: 69c7 90be 355d 353e 2245 91be 5ed1 8ebd
00000390: 5e52 8d3e b5ba 49be 5752 fbbd 87d3 ea3e
000003a0: 8afa 8ebe 9025 58bf 7eab 29bf 9213 8cbe
000003b0: 97d8 563e 4197 b23e 0b8a 0ebf 84b8 89be
000003c0: 17a1 75bd a591 bcbd 5cf6 e6be 410d a13e
000003d0: 94c2 b73e 5a7c 1d3f 49c3 ba3e 3b54 eabe
000003e0: 929e dc3e 66c2 bc3e 7ed5 f2be 3d52 5a3d
000003f0: 8d11 3f3d 83ed 39bf e9bb dfbd 3908 613f
-0.2775152 0.17285435 0.107320435 0.28417346 0.27070343 0.037038546 0.47212043 0.1398172
0.22957918 0.14283648 -0.44608057 -0.923199 0.3643981 -0.67665637 0.8298742 -0.040442247
0.46018693 0.44332203 -0.40204754 0.24388127 -0.23494253 0.036107097 -0.1766354 -0.4544895
-0.42833394 -0.13430594 0.16071217 0.17045476 -0.06392116 0.41561377 0.31491905 0.36616316
-0.14921504 -0.19034253 -0.19141904 -0.7295837 0.2685348 -0.37277418 -0.6480844 0.32543573
0.38703182 0.44716555 0.3273908 -0.50574213 0.64010304 -0.208751 -0.34641254 -0.38611078
0.38313735 0.18829736 -0.40405944 -0.042453263 0.2418864 -0.29270428 -0.14904456 -0.51805526
-0.5678838 -0.48897108 -0.16310409 0.0071772677 -0.05717975 0.080907665 0.25702018 -0.38895503
-0.28436998 0.26783982 0.3213237 0.03797457 -0.27698886 0.61689097 0.52129984 0.81156474
-0.15394023 0.31536087 0.2395152 0.5663595 0.1634307 -0.43803945 0.08581795 -0.3180373
-0.28986228 0.257665 -0.8291202 0.31174612 0.34071806 0.0069957385 0.17341097 0.30109626
0.3217203 -0.030243527 -0.08719061 0.4557645 -0.16037568 0.28395316 0.01968243 0.23027234
0.8093852 0.3310869 -0.7252115 0.17764015 0.108827345 -0.029758122 0.68410474 -0.025225278
-0.20301062 0.7443797 -0.88608795 0.1657921 0.062228475 -0.3689495 -0.12450845 -0.117465094
-0.0923025 0.799481 0.20800129 -0.53563386 0.29869172 0.5678006 0.19783817 -0.23154022
-0.43325996 -0.1524859 -0.41096917 -0.68357193 -0.04521018 -0.25977758 -0.32466426 -0.80506486
-0.06329415 -0.8022692 0.009926764 0.060244083 0.42619687 -0.5626582 -0.06754654 -0.32085034
-0.10327901 0.26345155 -0.5405493 0.40321162 -0.17998202 0.3110763 0.11573309 -0.5740954
-0.31959602 0.18296291 0.030607132 -0.52904123 0.287663 -0.5276432 0.43874338 0.15299752
0.026281428 -0.51304173 0.13756418 -0.5163682 -0.5440233 0.86158967 0.13923286 0.1743323
0.10334141 -0.32824793 -0.32414314 0.092869855 -0.077585764 -0.2582343 -0.4616778 0.62575513
0.7898041 0.5350092 0.76769084 -0.12398233 0.9947632 -0.07918544 -0.6825077 -0.05182721
-0.11718189 0.24020459 0.41944098 0.06819255 0.33105305 -0.3440825 -0.042075057 -0.23692094
0.24233118 -0.5007598 -0.67867833 0.5257401 -0.15008897 -0.023100046 -0.614974 -0.023204032
0.4508567 0.35527858 -0.3606696 0.18315218 -0.3828281 -0.015986929 -0.47671828 -0.25455022
0.20942163 0.6017296 -0.18358953 0.37526026 0.19394587 -0.5136528 -0.071589544 -0.14832532
0.06144182 -0.5549151 0.416251 -0.23061758 -0.2503507 -0.05101611 0.23644266 -0.49893564
0.32129174 0.29093963 0.104356505 0.17495994 0.27036923 0.077257074 -0.31681648 0.4014823
-0.28277138 0.17711337 -0.28373057 -0.06973527 0.27601904 -0.1970013 -0.122715645 0.45864508
-0.2792552 -0.84432316 -0.662773 -0.2735868 0.2098106 0.34881023 -0.55679387 -0.26898587
-0.05996808 -0.09207467 -0.45109832 0.31455424 0.3589064 0.6151787 0.36477116 -0.45767388
0.4308973 0.36867064 -0.47428507 0.053301085 0.046647597 -0.7262804 -0.10924513 0.8790317

network_body._body_endoder.seq_layers.0.bias f4 [128]
00000000: 0000 0000 0000 0000 0000 0000 0000 0000
00000010: 0000 0000 0000 0000 0000 0000 0000 0000
00000020: 0000 0000 0000 0000 0000 0000 0000 0000
00000030: 0000 0000 0000 0000 0000 0000 0000 0000
00000040: 0000 0000 0000 0000 0000 0000 0000 0000
00000050: 0000 0000 0000 0000 0000 0000 0000 0000
00000060: 0000 0000 0000 0000 0000 0000 0000 0000
00000070: 0000 0000 0000 0000 0000 0000 0000 0000
00000080: 0000 0000 0000 0000 0000 0000 0000 0000
00000090: 0000 0000 0000 0000 0000 0000 0000 0000
000000a0: 0000 0000 0000 0000 0000 0000 0000 0000
000000b0: 0000 0000 0000 0000 0000 0000 0000 0000
000000c0: 0000 0000 0000 0000 0000 0000 0000 0000
000000d0: 0000 0000 0000 0000 0000 0000 0000 0000
000000e0: 0000 0000 0000 0000 0000 0000 0000 0000
000000f0: 0000 0000 0000 0000 0000 0000 0000 0000
00000100: 0000 0000 0000 0000 0000 0000 0000 0000
00000110: 0000 0000 0000 0000 0000 0000 0000 0000
00000120: 0000 0000 0000 0000 0000 0000 0000 0000
00000130: 0000 0000 0000 0000 0000 0000 0000 0000
00000140: 0000 0000 0000 0000 0000 0000 0000 0000
00000150: 0000 0000 0000 0000 0000 0000 0000 0000
00000160: 0000 0000 0000 0000 0000 0000 0000 0000
00000170: 0000 0000 0000 0000 0000 0000 0000 0000
00000180: 0000 0000 0000 0000 0000 0000 0000 0000
00000190: 0000 0000 0000 0000 0000 0000 0000 0000
000001a0: 0000 0000 0000 0000 0000 0000 0000 0000
000001b0: 0000 0000 0000 0000 0000 0000 0000 0000
000001c0: 0000 0000 0000 0000 0000 0000 0000 0000
000001d0: 0000 0000 0000 0000 0000 0000 0000 0000
000001e0: 0000 0000 0000 0000 0000 0000 0000 0000
000001f0: 0000 0000 0000 0000 0000 0000 0000 0000
0.0 0.0 0.0 0.0 0.0 0.0 0.0 0.0
0.0 0.0 0.0 0.0 0.0 0.0 0.0 0.0
0.0 0.0 0.0 0.0 0.0 0.0 0.0 0.0
0.0 0.0 0.0 0.0 0.0 0.0 0.0 0.0
0.0 0.0 0.0 0.0 0.0 0.0 0.0 0.0
0.0 0.0 0.0 0.0 0.0 0.0 0.0 0.0
0.0 0.0 0.0 0.0 0.0 0.0 0.0 0.0
0.0 0.0 0.0 0.0 0.0 0.0 0.0 0.0
0.0 0.0 0.0 0.0 0.0 0.0 0.0 0.0
0.0 0.0 0.0 0.0 0.0 0.0 0.0 0.0
0.0 0.0 0.0 0.0 0.0 0.0 0.0 0.0
0.0 0.0 0.0 0.0 0.0 0.0 0.0 0.0
0.0 0.0 0.0 0.0 0.0 0.0 0.0 0.0
0.0 0.0 0.0 0.0 0.0 0.0 0.0 0.0
0.0 0.0 0.0 0.0 0.0 0.0 0.0 0.0
0.0 0.0 0.0 0.0 0.0 0.0 0.0 0.0

network_body._body_endoder.seq_layers.2.weight f4 [128, 128]
00000000: de03 98bd 6dfd 653e ecf3 223e 563d 273e
00000010: 25d2 983d 6605 74bd de5a 993c 65cb 3dbd
00000020: c585 2f3e 7dc2 02be 4709 87bd c3db b63d
00000030: 8054 2c3d f64f 053d 4194 11bd 9c07 e33c
00000040: f9fe a53d 59aa c23d 6c30 9a3d 049f ad3c
00000050: 979e 903d 3d69 083e bba8 d03d 984d 9a3c
00000060: 2011 c8bc e800 cfbd 3d9c 163c 255e a6bb
00000070: 4e1f 2d3e ff03 d03c 48ca 993c b528 23bd
00000080: 3a93 ff3b 6e30 22be 1c1b d43d e03c 3f3d
00000090: c84f 91bd b9b9 e9bd 1c71 113d 4b37 0a3e
000000a0: 8d09 a5bd 5061 6ebd 98ba cc3d e445 5cbb
000000b0: 5df4 53bd f3a8 e2bc 6443 cc3d 05f7 e53c
000000c0: 4f6f e1bb 0492 ac3d 287f 10bd cebf 5239
000000d0: 8e5e 83bd b684 b13d c7c3 943d c43d 1b3e
000000e0: 4dc8 4e3c 7d30 af3d ae73 133e 0d8e 5a3c
000000f0: b463 acbd 7ed3 49b9 f4c8 ecbd cb83 cfba
00000100: cd5c eebd ddf9 c8bc ce82 e33d ec98 9a3d
00000110: a098 7a3d 6554 53bd a48e 0cbe 6a44 433e
00000120: 3e14 d2bc e523 a03d 5968 703d 41ae 50bc
00000130: f249 2c3d af85 75be b96d 113e 1e7e 0d3e
00000140: 1cb6 8e3d 51cc 67bc 2888 353c b7f0 abbc
00000150: 2e49 88ba 453a 6e3e e706 d23d efa7 cc3b
00000160: 4102 c53d 5ef6 2cbb 2440 30be ef1b 67bd
00000170: da77 8f3d 0e6d da3d e39e a1bd 8d0b 2c3d
00000180: 2b76 2bbb 3a0b 96bd e6ce 0ebd 7b16 ce3d
00000190: 80f0 98bc 24c6 d1bc 2b06 56bb 6771 0c3d
000001a0: 6170 4bbc f23a 42bc 1b07 9bbc 247a 383d
000001b0: 45c0 153e d158 ffbd dac6 2d3d 9bcd a23e
000001c0: 186c b03d 8f0e 1b3e 7774 c1bd 6f37 e9bb
000001d0: aaae 91bd c165 fb3c c90e c6bd ba0b db3d
000001e0: 0155 003d f73b 723d 9df4 4b3c 4ea0 2fbe
000001f0: 0083 9e3d c12f c33d 2ba9 c93c e258 293d
00000200: 9258 f33d 3514 85bd 8e84 c4bd 5816 6dbd
00000210: 6363 ee3b f508 58bd f3bf 7dbb 2b5b a0bd
00000220: 7438 72bb 8849 89bd f57c 163d 6dc7 adbd
00000230: 8ca9 973b 999e bb3d 11fe aabd 4a50 f23d
00000240: 81ef e13d 6c93 943b a271 2cbd 31a3 a63d
00000250: 0c50 9f3d edf9 0cbd 9e5e 55be 5b6c 18bd
00000260: 30e5 2e3c 16e5 a83d 3625 dfbd a1e3 3bbd
00000270: f6e9 c7bd db65 6b3d 3ed6 0ebe 3d1f e0bd
00000280: 2943 0f3d e5a5 8d3d 16b5 dcbd 867b b1bc
00000290: 5488 933d 9711 3a3e 3f53 cebd 23fb 5a3d
000002a0: 2503 cb3b 462d 033a 1d6a d03d f863 d4bd
000002b0: e78b cd3d 3f15 4bba d105 e33c 8210 233b
000002c0: 4199 15bd 0dd6 a63d 73fe 653d a55f 4fbd
000002d0: 1cea d6bd 6939 0d3e 2854 02be 7590 423d
000002e0: 31bc cb3c 621f 1f3c e333 d03c ed17 273e
000002f0: be25 293d 26f0 c2bc fd3a 373e 2751 97bd
00000300: b0a4 21be b615 f3bd aa8c 79bd b383 bfbd
00000310: 4688 e93d 4f55 12be a4e7 7cbd ad65 57bd
00000320: cf25 2bbd 2532 12bd 1910 063d a8c4 2e3d
00000330: a6af c1bc 0f4a 273e 4916 ba3d 2682 893d
00000340: bf2f 463c 3395 283e 0845 dd3d 6db4 c73c
00000350: 4619 28bb d143 013e 9435 02be 715e 00bd
00000360: 1026 8fbd de30 94bd 6beb 3d3d 7c51 1d3e
00000370: a0f6 afbd ad20 c5bd d5ed 0b3e 67e0 df3d
00000380: 9aa2 9f3c fc96 4f3c f1dd b43d 15ee d6bd
00000390: a0eb f13d c5ea 4bbd 6ca8 dabd 24ca d6bc
000003a0: f575 0b3c 8611 213c 8469 9ebd f34e 64bd
000003b0: 5cfc c33d 53ef 9a3d 4f6c babd 1fff 433d
000003c0: e007 22bd 03cd 233e 40a3 0cbe b48c 123e
000003d0: af28 c33d 71bc e63d ba63 06be c705 18bc
000003e0: e761 fd3b d5b6 a03c 2afd c53d df6f 253e
000003f0: a8e0 babd 1d22 20be 5263 3839 6d98 863d
-0.074226126 0.22459956 0.15913361 0.16331992 0.07461957 -0.05957546 0.018720087 -0.04633655
0.17140873 -0.12769504 -0.065935664 0.08928635 0.042072773 0.03254696 -0.035541777 0.02771359
0.08105273 0.095051475 0.07528767 0.021193989 0.070614986 0.13321395 0.10188433 0.018835828
-0.024422228 -0.10107595 0.009192524 -0.005077141 0.16906473 0.02539253 0.018773213 -0.039833743
0.007799533 -0.15838787 0.10356733 0.046688914 -0.07095295 -0.11412377 0.03550826 0.13497655
-0.08058462 -0.058198273 0.099965274 -0.0033610994 -0.051746715 -0.027668452 0.09973791 0.02807189
-0.006879724 0.08426288 -0.035277516 0.00020098613 -0.06414519 0.08667891 0.07263904 0.1516028
0.012620998 0.0855417 0.14399597 0.013339532 -0.08417454 -0.00019247641 -0.11561766 -0.0015832124
-0.11638794 -0.024533207 0.111089334 0.07548699 0.06118071 -0.051594157 -0.13726288 0.19069067
-0.025644418 0.07819346 0.058693264 -0.012736858 0.042062707 -0.23976777 0.14202012 0.13817641
0.06968328 -0.014147834 0.011079825 -0.020988805 -0.0010397786 0.23264416 0.10255223 0.006245605
0.096195705 -0.0026391963 -0.17211968 -0.056423124 0.07005282 0.10665332 -0.07891633 0.042003203
-0.0026162963 -0.0732636 -0.034865282 0.100628816 -0.018669367 -0.025607176 -0.0032657485 0.034287836
-0.01241693 -0.011854874 -0.018924287 0.045038357 0.14624126 -0.12468112 0.042425968 0.3179749
0.08614367 0.15142272 -0.09446042 -0.007117204 -0.07113393 0.030688168 -0.09670789 0.10695596
0.031331066 0.05913922 0.012448457 -0.17150995 0.0773983 0.09530593 0.024616798 0.04134453
0.11882128 -0.06497995 -0.09595595 -0.057882637 0.0072750314 -0.052742917 -0.0038719147 -0.07829889
-0.0036959918 -0.06703478 0.036740262 -0.08485303 0.004628366 0.091611095 -0.083492406 0.1183172
0.1103201 0.0045341756 -0.042100556 0.08136595 0.077789396 -0.034418035 -0.20836875 -0.03721271
0.01067476 0.0824682 -0.10895769 -0.04587138 -0.097614214 0.057470184 -0.13948914 -0.10943458
0.03497616 0.069164075 -0.10776727 -0.021665346 0.07203737 0.18170772 -0.10074472 0.05346216
0.006195443 0.00050039997 0.101764895 -0.1037063 0.1003645 -0.00077470014 0.027712734 0.0024881666
-0.036523107 0.08146296 0.056150865 -0.050628323 -0.104938716 0.13791431 -0.12727416 0.047501046
0.02487001 0.009712072 0.025415367 0.1631772 0.04129576 -0.023796152 0.17893596 -0.073885255
-0.1578548 -0.118693754 -0.060925163 -0.093512915 0.11402945 -0.14290355 -0.061744347 -0.0525872
-0.041784104 -0.035692353 0.032730196 0.042668015 -0.023643326 0.16336845 0.09086282 0.06714277
0.0120963445 0.16463165 0.10804182 0.024378026 -0.002564983 0.12623526 -0.12715751 -0.031340066
-0.06989682 -0.07235883 0.04636709 0.15363115 -0.08591962 -0.09625373 0.13664944 0.10931473
0.019486714 0.012670275 0.088313945 -0.10494629 0.1181252 -0.04978444 -0.10676655 -0.026219435
0.00851201 0.009830838 -0.07734969 -0.055739354 0.09569618 0.07565179 -0.091026895 0.047850724
-0.03955829 0.15996175 -0.1373415 0.14311486 0.09529244 0.11266411 -0.1312398 -0.009278721
0.007732618 0.019618431 0.09667428 0.16155957 -0.09124881 -0.15638013 0.00017584607 0.06572042

network_body._body_endoder.seq_layers.2.bias f4 [128]
00000000: 0000 0000 0000 0000 0000 0000 0000 0000
00000010: 0000 0000 0000 0000 0000 0000 0000 0000
00000020: 0000 0000 0000 0000 0000 0000 0000 0000
00000030: 0000 0000 0000 0000 0000 0000 0000 0000
00000040: 0000 0000 0000 0000 0000 0000 0000 0000
00000050: 0000 0000 0000 0000 0000 0000 0000 0000
00000060: 0000 0000 0000 0000 0000 0000 0000 0000
00000070: 0000 0000 0000 0000 0000 0000 0000 0000
00000080: 0000 0000 0000 0000 0000 0000 0000 0000
00000090: 0000 0000 0000 0000 0000 0000 0000 0000
000000a0: 0000 0000 0000 0000 0000 0000 0000 0000
000000b0: 0000 0000 0000 0000 0000 0000 0000 0000
000000c0: 0000 0000 0000 0000 0000 0000 0000 0000
000000d0: 0000 0000 0000 0000 0000 0000 0000 0000
000000e0: 0000 0000 0000 0000 0000 0000 0000 0000
000000f0: 0000 0000 0000 0000 0000 0000 0000 0000
00000100: 0000 0000 0000 0000 0000 0000 0000 0000
00000110: 0000 0000 0000 0000 0000 0000 0000 0000
00000120: 0000 0000 0000 0000 0000 0000 0000 0000
00000130: 0000 0000 0000 0000 0000 0000 0000 0000
00000140: 0000 0000 0000 0000 0000 0000 0000 0000
00000150: 0000 0000 0000 0000 0000 0000 0000 0000
00000160: 0000 0000 0000 0000 0000 0000 0000 0000
00000170: 0000 0000 0000 0000 0000 0000 0000 0000
00000180: 0000 0000 0000 0000 0000 0000 0000 0000
00000190: 0000 0000 0000 0000 0000 0000 0000 0000
000001a0: 0000 0000 0000 0000 0000 0000 0000 0000
000001b0: 0000 0000 0000 0000 0000 0000 0000 0000
000001c0: 0000 0000 0000 0000 0000 0000 0000 0000
000001d0: 0000 0000 0000 0000 0000 0000 0000 0000
000001e0: 0000 0000 0000 0000 0000 0000 0000 0000
000001f0: 0000 0000 0000 0000 0000 0000 0000 0000
0.0 0.0 0.0 0.0 0.0 0.0 0.0 0.0
0.0 0.0 0.0 0.0 0.0 0.0 0.0 0.0
0.0 0.0 0.0 0.0 0.0 0.0 0.0 0.0
0.0 0.0 0.0 0.0 0.0 0.0 0.0 0.0
0.0 0.0 0.0 0.0 0.0 0.0 0.0 0.0
0.0 0.0 0.0 0.0 0.0 0.0 0.0 0.0
0.0 0.0 0.0 0.0 0.0 0.0 0.0 0.0
0.0 0.0 0.0 0.0 0.0 0.0 0.0 0.0
0.0 0.0 0.0 0.0 0.0 0.0 0.0 0.0
0.0 0.0 0.0 0.0 0.0 0.0 0.0 0.0
0.0 0.0 0.0 0.0 0.0 0.0 0.0 0.0
0.0 0.0 0.0 0.0 0.0 0.0 0.0 0.0
0.0 0.0 0.0 0.0 0.0 0.0 0.0 0.0
0.0 0.0 0.0 0.0 0.0 0.0 0.0 0.0
0.0 0.0 0.0 0.0 0.0 0.0 0.0 0.0
0.0 0.0 0.0 0.0 0.0 0.0 0.0 0.0

value_heads.value_heads.extrinsic.weight f4 [1, 128]
00000000: d72a da3d 467f 243e 4918 51be 1970 31be
00000010: d1e3 163e 48f3 b33d 0b2f 183e eff0 28be
00000020: 8d3b 3a3e 64a6 373e 90c6 433e c209 973c
00000030: 4bd9 e3bd 7c6d 103d d7b6 51be 620e af3d
00000040: b86b 31bd ac06 d83d 111a 2c3e bd4f 30be
00000050: a582 253e b32d a43d 67f8 553e de52 28bd
00000060: 4015 033e d782 8abd 0400 2c3e 372f 983d
00000070: 5cb8 efbc a134 c0bd 6e71 cf3d fad6 e03d
00000080: 98bb 193e 7e42 24be 97bb 3b3e 7cf0 533e
00000090: d113 68bc d5c2 263e 4f44 333e 7e64 53be
000000a0: 14d7 f739 bc6a ccbd 4de8 48be 54c1 763d
000000b0: 907e 52be 7635 423d e60f 0e3c da55 bf3c
000000c0: 16d7 c53d 85c5 82bd d14b 113e 17af a83c
000000d0: cb0e cc3d b977 3e3e f57d 203d 7181 a3bd
000000e0: a3eb 1bbe c100 40bd a149 bdbd e808 403e
000000f0: 1bba 763d 15e7 1dbe 88b0 ecbb bc4a ec3c
00000100: 2010 023e 2b56 983d 07a8 a8bd e603 04be
00000110: 9f69 f3bd f140 b6bd 90dc 993c a7d4 023e
00000120: 2016 8ebc 5e18 983d 53f5 9e3d faf0 cebc
00000130: 1c3f 403e 6585 723d ceff c03d 14dc 9abd
00000140: f7ee 84bd 7f8d c4bd 04ab 57bd 0ed4 9f3d
00000150: 703a 4b3e faf8 5a3c 09a4 58be 9725 4b3b
00000160: 7b73 37be a8a9 2abe 4a81 8abd 540f b7bd
00000170: 1972 18bd a7a9 12be a0b7 3fbe 3556 aabd
00000180: 3474 15be baf2 20be a30d 05bd bb8b 1d3e
00000190: 821e 3fbd 72a8 d63b 1b6c 36be c8f4 87bd
000001a0: d2b0 40be 1f17 03bc a155 003e f707 f6bc
000001b0: 0d50 c03d b218 35be da96 6fbc 6387 85bd
000001c0: bf0b 413e c903 26be 937f 5c3e c749 313e
000001d0: 79d5 adbd 83bb da3c 1104 d5bd cef4 e63d
000001e0: a48e 02be e7f1 3c3d 77b8 11bd 19ba bc3d
000001f0: af97 21bd 23f8 453e 900a 133e 5f51 a83d
0.10652702 0.16064176 -0.2041942 -0.17327918 0.14735343 0.087866366 0.14861695 -0.16498159
0.1818678 0.17934567 0.19118714 0.01843727 -0.1112543 0.035260662 -0.20479904 0.08547665
-0.04331562 0.105481476 0.16806819 -0.17217918 0.16163118 0.08016529 0.20895539 -0.041094653
0.12801075 -0.06763237 0.16796881 0.074308805 -0.029262714 -0.09385038 0.10129057 0.109785035
0.15012968 -0.1604099 0.18333279 0.20697206 -0.014164881 0.1628526 0.17506526 -0.20643803
0.00047271757 -0.099812955 -0.19619866 0.060242966 -0.20556092 0.047414266 0.008670783 0.023356367
0.09660165 -0.0638533 0.14189078 0.020591302 0.09963759 0.18600358 0.039182622 -0.07983673
-0.15226607 -0.04687572 -0.09242559 0.18753397 0.060236078 -0.15420182 -0.0072231926 0.02884423
0.12701464 0.0743831 -0.08235174 -0.12892112 -0.1188538 -0.08899105 0.01878193 0.12776433
-0.017344534 0.07426523 0.07761636 -0.025261391 0.18774074 0.059209246 0.09423791 -0.07561508
-0.064908914 -0.09597301 -0.052653328 0.07804118 0.19846511 0.013365025 -0.21156324 0.0030997747
-0.17915146 -0.16666281 -0.06762941 -0.089384705 -0.037218187 -0.1432253 -0.18722391 -0.08317224
-0.14595109 -0.15717593 -0.032483708 0.15385334 -0.046659954 0.006550842 -0.17814676 -0.06638485
-0.18817452 -0.008001118 0.12532665 -0.030033095 0.093902685 -0.17685202 -0.014623368 -0.065199636
0.18852137 -0.16212381 0.2153304 0.173133 -0.08487982 0.02670074 -0.10401166 0.112771615
-0.12749726 0.046129134 -0.03557631 0.09215183 -0.039451297 0.19332938 0.14359498 0.08218645
