CS455_PR1/results/ShootTargetAgent_T8/ShootTargetAgent/ShootTargetAgent-106948.onnx (onnx, 490788 bytes, 18 tensors)

discrete_act_size_vector f4 [1, 2]
00000000: 0000 4842 0000 4842
50.0 50.0

network_body.observation_encoder.processors.0.conv_layers.0.weight f4 [16, 1, 8, 8]
00000000: fee9 2bbd a41d 4a3e da18 573d 4a95 b6bb
00000010: 48e9 13be 1dd6 d7bc 869b 57bb f765 433d
00000020: 06b4 71bd dca5 423b 6826 f63d c26e 133d
00000030: f548 1bbe aaf5 f23d 925e f0bd 639d ed3c
00000040: e3cf ca3d 93cc 013e e5e6 63be 3cd9 c9bd
00000050: e0e0 0ebe 62de ce3c f9f3 183e 0aec 8cbc
00000060: dee2 dd3d e191 04be 45c9 88be 0e72 003d
00000070: 19ae 2a3d aacf b8bc 0b64 053c be32 b13d
00000080: 2592 113d f980 833d 54d9 4e3d e34d 743d
00000090: 815b 50bc e50f cf3d a549 bfbb 0c2b 823d
000000a0: d3a3 0ebe 5eaa 273e 2078 2abe 34a4 c3bc
000000b0: ebef 933c 96ae 22bd 9e6b 76bd dd95 ffbd
000000c0: f55c 993d 667b 1bbe 42e0 473e 684b 24be
000000d0: f1dc 723d 7410 633c cb77 753d 8d47 12bc
000000e0: 2876 9cbe c674 51be 72fa 6abc 816a 9fbd
000000f0: 7b1e 01be 2432 92bd fbb8 133e 3b5b 383c
00000100: c26d 403e 3a0a febc 95e8 7fbd 1e2c 97bd
00000110: 484e 3c3e 883b 3cbe b5da 31bd d492 aa3d
00000120: d5e1 5c3e 924c 153e f267 8ebc 9de8 28be
00000130: 1290 b9bd f1f6 263c e1b0 d8bc c87a 91bd
00000140: 42c5 413e d0d5 b7bd 2097 d4bd 02b6 dbbd
00000150: 6c89 b43d 9148 e63d 4202 e03d 0d12 07be
00000160: f517 813d 48b7 423c d036 363e 0348 41be
00000170: 3932 d03c 1526 58bd b80a 2ebe 6b51 083e
00000180: df69 54be ab14 63bd e079 833d fb93 5a3d
00000190: 0963 8b3c 852b 94be 5ad3 933d 7aa0 d9bd
000001a0: 1df1 ffbd 716a d03d ef35 943d 5956 f83d
000001b0: a2b0 13be ada3 0a3d cf89 053e a0d1 313e
000001c0: 5485 2cbd 0477 2b3e 73ae bf3c 151f 01be
000001d0: d195 3cbe a5c1 29be 60b2 b13d f34b afbe
000001e0: 00d5 ba3d 670d dbbd 090d b23d 7d0c 68bc
000001f0: 5b18 c73c a5cb 9b3d bd9a 3a3d 7906 89be
00000200: 8238 73bd 1a87 10bc 6e5d 21bc b173 443d
00000210: af76 d9bc dbd1 aabe a274 98be d09e bfbd
00000220: ace6 5e3d 0a3b 0f3e f7e6 5d3d 560c 45bd
00000230: bc78 b03b 0cd2 17be 5c8a 30bd 79ad 1f3e
00000240: 5685 803d 1b42 593d 3465 5cbc c3ff 243e
00000250: 17ff febd 67bc 113e fbc2 873e a646 473e
00000260: 8904 443d ab52 a4be cf44 14be 13d9 12bd
00000270: 9533 a13d 9010 993e 4448 203d aa11 a53c
00000280: 13fa 12be 32da 96be de2b cb3d 4e5d 5bbd
00000290: f640 133d 26c7 413e 77de c4bd 0d27 f23c
000002a0: 17a7 9bbd 4d1b 4d3e d011 2dbd 8a27 f43d
000002b0: 32ee abbc 856e e43d b2ec 2abe 2608 46bd
000002c0: 404b 633c 42b4 cb3d fa0c 003e 2366 b3bb
000002d0: 36a1 fabd e4de 113e 3e28 b7bd b90c 4fbe
000002e0: 46ea 2bbc b8e2 833d ead2 8f3c 7d18 a53d
000002f0: 8849 dbbd 32b7 47bd c594 523e d329 88bd
00000300: 6e1f bfbd f124 803d 445c 803e 43d1 22be
00000310: bb42 23be a5e0 8b3d 824f d2bc 516b 063e
00000320: 754d 0f3e af5e 293d 4399 ac3c daa2 c7bc
00000330: 9871 20be 9959 003e 55da a23c 7273 ef3d
00000340: fc7e 683e 3e6e adbd 2c63 49bd f745 343d
00000350: 12f7 1f3e b872 09be 63c3 4d3d f6ae d13d
00000360: a16c ab3d ed7b 9dbe 420e 15bd 0405 033e
00000370: 9c5e 95bd b8a9 133e 917b 5c3d 6034 1e3e
00000380: 90d6 99be 368a 93be 9813 6bbe 8fcb 06bd
00000390: 6620 02be ed78 f3bd 2064 e6bd c13d 343d
000003a0: 4328 853b cf52 15be 3a20 b13c aceb 3e3b
000003b0: 2588 803d 8ee1 2dbd 84f6 b2bd e6de cdbd
000003c0: 2871 6fbe d8f4 6cbb c801 b6bd 9d6f 4b3d
000003d0: 39ad 313d a162 153e 3699 03be 3e3d e73d
000003e0: 09a9 7abe 1988 4e3e 720c 373d 2d9c e7bd
000003f0: b36b 3bbc 3634 033e 70d2 cb3b e8c0 29bc
-0.0419712 0.1973787 0.052513935 -0.005571996 -0.14444458 -0.026347214 -0.0032899096 0.047704663
-0.059009574 0.002970091 0.12019044 0.0359943 -0.1516455 0.11863263 -0.11736788 0.029005712
0.099029325 0.12675695 -0.22256048 -0.09855887 -0.1395297 0.025252525 0.14936818 -0.017202396
0.10834287 -0.12946273 -0.26716056 0.03135877 0.04166994 -0.02255996 0.008141528 0.086522564
0.035539765 0.06421084 0.05050023 0.05964459 -0.012717129 0.101104535 -0.0058376365 0.06355867
-0.13929681 0.16373584 -0.16647387 -0.02388201 0.018058738 -0.03971728 -0.060161225 -0.12479756
0.07488433 -0.15183792 0.19519141 -0.1604439 0.059292737 0.013858903 0.059928697 -0.008928192
-0.30558896 -0.20454702 -0.014341937 -0.07783986 -0.12609284 -0.0713847 0.14426033 0.01125222
0.1879187 -0.031010736 -0.062477667 -0.073814616 0.18389237 -0.18382084 -0.043421466 0.083287865
0.21570523 0.1457999 -0.01738355 -0.16494985 -0.09060682 0.010190711 -0.02645153 -0.07103497
0.18922904 -0.089763284 -0.10380387 -0.107280746 0.08815274 0.1124431 0.10937931 -0.1319048
0.063033976 0.011884518 0.17794347 -0.18875127 0.025414573 -0.052770693 -0.16996276 0.13312308
-0.20743512 -0.055439632 0.0641973 0.05336378 0.017014997 -0.28939453 0.072180465 -0.106263116
-0.124971606 0.10176552 0.072368495 0.121258445 -0.14422849 0.0338475 0.13040851 0.17365122
-0.04211934 0.1674462 0.023398614 -0.12609513 -0.18416525 -0.16577776 0.086766005 -0.34237632
0.09122658 -0.10695916 0.086938925 -0.014163134 0.024303606 0.076072015 0.045557726 -0.2676275
-0.059380062 -0.008821273 -0.0098489355 0.047961894 -0.02654585 -0.33363232 -0.29776484 -0.09356463
0.054419205 0.13987365 0.054175343 -0.048107468 0.0053854864 -0.1482622 -0.0431007 0.15593518
0.06275432 0.05304156 -0.013451863 0.1611319 -0.12450998 0.14232026 0.26515946 0.19460544
0.047855888 -0.3209432 -0.14479373 -0.03585155 0.078711666 0.2989545 0.039131418 0.020150024
-0.14353208 -0.29463345 0.099204764 -0.05355578 0.035950623 0.18923625 -0.09612744 0.029559636
-0.07600229 0.20029946 -0.042253315 0.11921604 -0.020987604 0.111538924 -0.16691855 -0.048347615
0.0138729215 0.09946491 0.1250495 -0.005474822 -0.1223778 0.14245182 -0.089432225 -0.20219697
-0.010492867 0.064397275 0.017556626 0.080613114 -0.10707384 -0.048758693 0.20564564 -0.06648602
-0.093321666 0.06257046 0.25070393 -0.1590014 -0.15943424 0.06829957 -0.025672678 0.13126875
0.13994391 0.041350063 0.021069175 -0.024369646 -0.15668333 0.12534179 0.0198795 0.11691941
0.2270469 -0.08468293 -0.049166843 0.044012036 0.15621594 -0.13422668 0.050235163 0.10238449
0.08370329 -0.3075861 -0.03639055 0.12794882 -0.07293436 0.14420211 0.05382878 0.15449667
-0.3004651 -0.28816384 -0.22956693 -0.032908972 -0.12707672 -0.11888299 -0.11249566 0.044004206
0.0040636375 -0.1458237 0.021621812 0.002913217 0.062759675 -0.042451434 -0.087384254 -0.1005228
-0.2338301 -0.003615668 -0.088870585 0.04966699 0.04337809 0.14588405 -0.12851414 0.11290978
-0.24478544 0.20169105 0.044689603 -0.11309085 -0.011439252 0.12812886 0.0062201545 -0.010360934

network_body.observation_encoder.processors.0.conv_layers.0.bias f4 [16]
00000000: 130a 5fbd 06a7 a1bb 205e cdb9 9ad1 bbbc
00000010: 6e65 debc 7f9d 67bc b471 f1bc 027c 15be
00000020: 81e0 6ebc f809 a8bc 10f5 ac3c 423c 9ebd
00000030: d650 00bd 3818 ddbb a896 9dbc 6730 b53b
-0.054452967 -0.004933241 -0.00039170776 -0.022927094 -0.027147975 -0.014136671 -0.029473163 -0.14598086
-0.014579893 -0.020512566 0.021112949 -0.07726337 -0.03132709 -0.006747272 -0.019236878 0.0055294516

network_body.observation_encoder.processors.0.conv_layers.2.weight f4 [32, 16, 4, 4]
00000000: 200e 863d 3850 29bd c218 583d 8db1 b63d
00000010: b2c8 c0bd 18af 8e3d cc85 b73d b5e7 553d
00000020: bf83 93bc 8146 3b3c 3ff1 acbd 1398 493c
00000030: efd1 dbbd 5ef8 d83d f340 213d 88e0 b03c
00000040: 5d30 69bd d39c 63bd 0866 a5bd 316a 2abe
00000050: b861 97bd 9c69 413d 5e8a a7bd 64f5 3f3c
00000060: cd78 58bd 225d 20be d5f5 b23d c995 f03d
00000070: a5ea b5bc b9c6 27bd 503b 993d 1db0 c5bd
00000080: b4e1 8c3d 5ac7 1dbc cd91 debd ce75 153e
00000090: aa83 0c3e 0e01 11bd 8433 ef3c 6dd8 ec3b
000000a0: 3d36 5f3d 9b58 49be 36b2 34bd 4606 b9bd
000000b0: 21fa c8bc ee13 6f3c 0239 313d b4bb 14bd
000000c0: 4d2c cdbd c442 583c 9d4e f43c 43dc 123b
000000d0: 911a e43c 2aed 053d a3c0 aa3c 89ca d8bb
000000e0: 77b6 80bd 65f1 a33d 5bb5 883d b687 32bd
000000f0: b709 a9bc a9bb 783d 1977 cebd d73c d33b
00000100: 4756 09bd dcb4 c4bd 9e0f f8bd d3d5 a9bd
00000110: 1003 d33d 62b6 b53c 8890 1abe fb94 4d3d
00000120: 8c1f 3a3b ea96 89bd c7a4 b63d 3060 0bbd
00000130: dc9c 773d fa17 93bc c849 babc aaf0 e63c
00000140: e1e3 b2bd 9efb dc3d f04f 0cbe a1e6 bbbc
00000150: 8504 08bd 0c18 243d 030d 18bd d938 24be
00000160: 1fa1 d53d fc5d 163e 850f 773c 8a49 28ba
00000170: d93e ccbd 9f80 7ebd 022c 3e3d ee33 463d
00000180: 9bc8 7dbc d57b 5cbb c7d9 4e3c 93f4 cd3d
00000190: 9e06 33bd dbe5 a1bc 0d19 a4bd b0ae 3e3e
000001a0: 0821 9c3d 288e f33d 6538 efbc 7e1b 4fbd
000001b0: 91c1 693d bd57 f33d 9a98 1abd cd30 443e
000001c0: 3825 1d3c c890 c53c d604 de3c 0249 b4bc
000001d0: 9e0a f6bc 6cf0 0b3c 18da da3d 5e60 20bd
000001e0: b4a8 63bd 5399 85bc 4755 0e3d 38f9 423c
000001f0: 6ca4 63bd c19f 213d 8b63 5fbd dff6 873d
00000200: 3965 063e 3b1a bf3b c60a b23d 5e5a 1dbd
00000210: 9a29 03bd a971 12be fd39 8ebc 4079 2b3e
00000220: 6e55 a6bd 599e 133d 312d d93c 34aa fabd
00000230: c360 64bd ef6b 5c3d ccbf 77bd 7de1 d2bc
00000240: 95c3 62bc 31e4 503d d3c0 6abd 377c ca3d
00000250: d097 75bd 5ff3 47bd a4a0 3f3d 66aa 313e
00000260: 0dd0 043e cddc 3a3d 9cde 23bd 8799 363d
00000270: fc97 613d 10d4 cbbc a384 8c3d 8d07 66bd
00000280: 1976 f5bd 4105 a93c 5cd5 6dbd 2362 cfbb
00000290: 8c86 42be a021 d83b bd64 54bc 3893 a43c
000002a0: a804 ddbc 3d1b d93c 75f8 003c 5d6b ddbc
000002b0: ca39 e9bd 5b73 11bd a52d 63ba 0658 f4bd
000002c0: 3439 a9bd d085 1a3e 28c7 62ba a7ea f53d
000002d0: 1fa2 66bd 6b23 473e 0767 dabd 4817 f9bd
000002e0: d2cf c33d bd52 0fbd f10f 9b3d 82ad ecbd
000002f0: d2b2 963d c0ad 123d db2f dd3b 1cad 64bb
00000300: 19fb 933d 1cd6 9abd 14fd 48bb 9cc3 563d
00000310: eb7d a3ba 7098 1c3b f735 0c3e eebc b13d
00000320: 88ef 8bbd 3890 313d ee03 6cbc caa2 953c
00000330: fea0 fe3c 485b 1a3c b508 81bd 7aa9 ed3b
00000340: ba8e 71be 54a9 bbbc cc2e 0ebe 3870 2d3e
00000350: d42d 993d 5afe b63d dffd adbb 8f3e 07be
00000360: 7cb4 983d 503d a4bd 4a0f 17bd 3091 243d
00000370: 2352 8c3c 9e87 033e 36a4 a9bd f34d ccbd
00000380: 83fe 60bd 7900 d7bd 5410 00bd 7f19 cabc
00000390: 2a74 babd 9013 7dbd cee5 cebc 8ef4 19bc
000003a0: d064 f5b9 826c 8d3b 5061 bebc 98ff 383c
000003b0: 709c 69bb f5bd b03d 3c4c 51bc e227 0a3c
000003c0: 5e85 6bbd 4851 c43d 66e9 49bd da6c b3bd
000003d0: b1cf 613d 919c c7bb eb68 ebbd 032d 60bd
000003e0: 73c7 25bc 2941 71bd 2eae a3bd 2d96 15bb
000003f0: a065 1dbd b3f2 c6bd 0e1d e6bc 8641 033d
0.06545663 -0.04133627 0.052757986 0.08920584 -0.094132796 0.0696699 0.089610666 0.052222926
-0.018007157 0.011430384 -0.084444515 0.012304324 -0.10733401 0.10594247 0.03936858 0.02159144
-0.05693089 -0.05556948 -0.080761015 -0.16642071 -0.07391685 0.047219858 -0.08180688 0.0117162205
-0.05284958 -0.15660527 0.08738295 0.11747319 -0.022206614 -0.040961 0.07482016 -0.096527316
0.06878987 -0.009630049 -0.10867653 0.1459572 0.13722101 -0.035401396 0.02919937 0.0072279484
0.054495085 -0.19662707 -0.044115268 -0.090344 -0.024533333 0.014592154 0.043267258 -0.03631182
-0.10018215 0.013199512 0.029822642 0.0022409118 0.0278447 0.03269688 0.02084381 -0.006615941
-0.062848024 0.08005027 0.06675216 -0.043586455 -0.020634515 0.06072584 -0.1008131 0.0064464617
-0.033529546 -0.09604809 -0.12112354 -0.08292737 0.103033185 0.022181693 -0.15094197 0.050190907
0.002840015 -0.06718238 0.089181475 -0.03402728 0.060452327 -0.017955769 -0.02274026 0.02819093
-0.08734871 0.1079018 -0.13702369 -0.02293712 -0.033207435 0.040061995 -0.037121784 -0.1603731
0.10431122 0.1468429 0.015079384 -0.00064196496 -0.09972925 -0.06213438 0.046428688 0.048389368
-0.015489723 -0.0033643146 0.012625164 0.100564145 -0.043707483 -0.019762924 -0.080125906 0.18621325
0.07623488 0.118923485 -0.029201696 -0.050563328 0.057069365 0.11881969 -0.03774319 0.19159241
0.009591393 0.024116889 0.027101915 -0.02200747 -0.03003436 0.008541208 0.10686129 -0.039154403
-0.05558081 -0.016308462 0.034749296 0.011900239 -0.055576727 0.039458994 -0.05453829 0.06638884
0.13124551 0.0058319843 0.08693461 -0.03841626 -0.032022096 -0.1430117 -0.017361635 0.16745472
-0.08121763 0.036039684 0.026510807 -0.12239495 -0.05575634 0.05381387 -0.060485646 -0.025742287
-0.013840576 0.05099887 -0.057312798 0.09886973 -0.059959233 -0.04881608 0.04678406 0.17350158
0.1296999 0.04562073 -0.04000722 0.04458001 0.055076584 -0.024881393 0.06861236 -0.056159545
-0.11985416 0.020632388 -0.058064803 -0.0063288375 -0.18996638 0.0065958053 -0.012963471 0.02008973
-0.02697976 0.026502246 0.007871737 -0.027028734 -0.113879755 -0.035510402 -0.00086661644 -0.11930852
-0.08262864 0.15090108 -0.00086508924 0.12007647 -0.056306954 0.19447105 -0.10664182 -0.12162644
0.09561123 -0.034991015 0.075714 -0.115565315 0.07358326 0.035810232 0.0067500896 -0.003489322
0.072256275 -0.07560369 -0.0030668424 0.05243264 -0.001247344 0.002389457 0.13692461 0.086786136
-0.06832796 0.04335043 -0.014405234 0.0182661 0.031082626 0.009421177 -0.06300489 0.007252869
-0.23589602 -0.02290789 -0.13885039 0.1693734 0.07479444 0.089352325 -0.005309805 -0.13207458
0.074563 -0.08019507 -0.036879815 0.040177524 0.01712901 0.12844703 -0.08283274 -0.09975805
-0.05493022 -0.10498137 -0.03126557 -0.02467036 -0.09104188 -0.061786234 -0.025256064 -0.009396685
-0.00046805153 0.0043159137 -0.023239762 0.011291407 -0.0035646223 0.086299814 -0.012774523 0.00843236
-0.057500236 0.09585816 -0.04929485 -0.08760996 0.05512971 -0.006091662 -0.11494621 -0.054730427
-0.010118353 -0.058900032 -0.079922065 -0.0022825107 -0.038426995 -0.0971426 -0.028090026 0.03204491

network_body.observation_encoder.processors.0.conv_layers.2.bias f4 [32]
00000000: 9f4e 8f3a 0985 44bd 5b83 86bb 9282 96bb
00000010: f1a6 423c f197 79bc 2dd8 bf3c 1861 ffb9
00000020: 61e1 88bd b870 35bc 3a2f fabc bd4d 463b
00000030: 9124 b73b c0cb 0cbd a13e 8dbc eebb fbbb
00000040: 3b8e 6c3b 7fa9 80bb 87cc dfbc 0c3a acbc
00000050: 3d48 efbc 22ab 003b df02 f6ba 2c56 97bc
00000060: fd9f 873c b129 8e3a a854 afbc 028d ccbc
00000070: 5a42 1bbc d5ea 09bd 239e 5b3c de87 eebc
0.0010933465 -0.047978435 -0.0041050143 -0.004593202 0.011880622 -0.01523398 0.02341851 -0.0004870973
-0.066836126 -0.0110742375 -0.030540098 0.0030258738 0.005589076 -0.034374 -0.017241778 -0.007682315
0.0036095518 -0.0039264555 -0.027319206 -0.021023773 -0.02920925 0.0019633253 -0.0018769166 -0.018473707
0.01655578 0.0010846165 -0.021402672 -0.024969582 -0.009476269 -0.03367122 0.013404402 -0.02911752

network_body.observation_encoder.processors.0.dense.0.weight f4 [128, 512]
00000000: e576 cd3d 18db 0d3d 37f1 3abd 7e6e acbc
00000010: 31c2 ebbd 7241 36be 8716 babd cd1c a2bc
00000020: ec8a cdba 353b 0abd 4d9c 8abd 7024 89bd
00000030: a6f5 103d d36e c9bc ff6e 84bc f9a1 04bd
00000040: b9aa 0ebe f938 ce3d 98fb e6bd b0db 853d
00000050: ce20 a8bd dd4c e03d b5eb febb 328f 80be
00000060: 1040 1abe 0d78 05bd 29b3 94bd 067d 00bd
00000070: 9406 1cbe b8c6 64be 364c ee3d 13f5 ea3d
00000080: daf4 6c3d 9955 863d 38b4 eebd 2f0a d6be
00000090: c0a2 813d 4382 833d 9ee4 86bd 90ff 16bd
000000a0: 9788 2f3d 43b4 cfbc e49f d43b 41ca 79bd
000000b0: 377b c23d c3c6 823d ea4d 1cbd da4a ce3b
000000c0: d947 933d 4f24 b63b 0a6b a8bd 6555 2f3e
000000d0: f5e2 95bc 32d9 76bd b8d2 94bd 5ece 733c
000000e0: 863a ec3c 49d1 603d 3b76 473d e887 15be
000000f0: 0426 983d 5eb1 90bc 8655 ad3c f9f0 523c
00000100: 0201 22bd 787c 833d 3cd7 a1bd 9878 89bd
00000110: 5941 cbbd 41f1 f8bd 8597 acbc da38 81bd
00000120: 141f 08be b66b ccbb 02d6 803d 8c28 1f3d
00000130: 7564 aebb 61ff 1cbd bd0f 993d 3784 8c3d
00000140: e11e 533d da8e 24bd c900 53be 64a1 3c3e
00000150: 2d5f 3dbd 18eb 2dbe 655f b3bd 76a9 6bbc
00000160: 1737 d4bd a9bd b93d ecc0 72bc 6a67 a2bc
00000170: 18c6 a8bd e2fd e43c 5fca a43d 0821 083d
00000180: 4698 8bbd b0b2 2e3c f7f0 7abd 17a1 8f3d
00000190: e0b5 35bd d776 91bd d42d 01be a44a 18be
000001a0: 08d0 bf3d e916 5dbc 001c 3b3d b8bb 023d
000001b0: 95c8 8f3d 734a 853d 8911 babd 60dc 40bd
000001c0: 4056 133d 8fb0 53bb 739e ddbc 1eb2 63be
000001d0: 50a8 f4bd abf4 5cbd 7e33 773d 27bd 69bd
000001e0: 1f72 6b3d 1908 c0bc bf4b 6cbd f4cf 9cbd
000001f0: 7f48 8e3d a64f 2cbd d690 25bd 1e99 e1bc
00000200: 825f e1bd 7e0a 3f3e 66f5 82bd 9b06 df3d
00000210: af4c 51be fd55 90be 0ea0 a2be fe4e 633d
00000220: 2b10 0dbe b3d9 cf3c 2420 893d c03d 24bd
00000230: b56b 043e 354c 863c 907c 6a3c 15ad c73c
00000240: bae1 0a3e 9d00 903d 89e9 f0bd 9f04 79bd
00000250: 53fe 8fbd 0a09 5bbd 2ecf f6bd faa2 7d3d
00000260: c6af a33c 471c 063d 308e fa3d 2b14 b23c
00000270: fceb 66bc 3235 8b3d 78da 0dbd 7d5d 07be
00000280: a0e8 923c de35 623b 86d0 2ebd 18c7 cd3d
00000290: 17a7 54be 97d8 46be 1e4b 5bbe dae7 f5bc
000002a0: 4efc 5abe 852a 84bc 641c 9abd d603 e73c
000002b0: f07d cc3c c2d3 363d 3c6b 8dbd 1c57 33bc
000002c0: ccb0 553d 38eb f33c 8897 4abc 88a6 13be
000002d0: 551b 0bbe 993f 94bd c035 babd c214 5e3d
000002e0: ee2b a53d c86c 75bb 4c2b c1bd 6223 06be
000002f0: 2e54 193d a39c 80bc 574d 103d bb9f 09bd
00000300: 23d2 cd3d c23f 03be 8a0b 4abe 1fa8 2abd
00000310: 1091 efbb a1be 0f3e f78a e7bd ebb8 17be
00000320: 8162 bbbc 102c da3c 4a8e b53d 6f9b 343b
00000330: 909e 4d3d c6ed 303d f8b5 903c 995c c7bd
00000340: bb63 343e 7308 0ebd 1580 3fbe 092f 2d3c
00000350: 62fb 9bbd 0030 3cbc f303 2abe 5764 5abd
00000360: 435e dd3d f886 423e e24b e1bd bd68 7e3c
00000370: 6e7f 80bc 187c 523d 787f 023c 0ed9 a0bd
00000380: 120f 2bbd 47a7 f1bd 548e fbbd 5484 5c3d
00000390: 548c fd3d 6bfd 3bbe 34d1 4ebc f5b8 593e
000003a0: 05a6 1e3e 5e43 9ebb b6a8 46bd 3ae4 553e
000003b0: ef47 09be 3e18 76bd dde7 3e3c 8df3 84bd
000003c0: 9148 963d c6e6 ec3d be48 7bbd ebce 313d
000003d0: c3ee 89be a56d afbd 38dd 753d 021f 5fbe
000003e0: dc6f 1fbd 969d 143e 9238 013e 6f08 84bd
000003f0: 6bca 0d3e 0703 3dbd e2a4 793c a002 823d
0.10032443 0.034632772 -0.045640197 -0.02104878 -0.115116484 -0.17798403 -0.09086328 -0.019789124
-0.0015681661 -0.03374787 -0.06768093 -0.06696403 0.03539052 -0.024588978 -0.016166208 -0.03238103
-0.13932313 0.100694604 -0.112784564 0.06536043 -0.08209382 0.109521605 -0.0077795633 -0.2510925
-0.150635 -0.032585192 -0.072607346 -0.03136923 -0.15236884 -0.2234143 0.1163563 0.114725254
0.057850696 0.06559295 -0.11655468 -0.41804644 0.0632987 0.0642133 -0.06586574 -0.036864817
0.04285487 -0.02535451 0.006488787 -0.0609839 0.094961576 0.06385567 -0.038160242 0.006295544
0.07191438 0.0055585275 -0.08223541 0.17122419 -0.018296698 -0.060265727 -0.07266754 0.014880745
0.0288365 0.05488709 0.048696738 -0.14602625 0.07429126 -0.0176627 0.021158945 0.012874835
-0.039551742 0.06420225 -0.07902381 -0.067124546 -0.099245735 -0.121553905 -0.021068344 -0.06309672
-0.13293105 -0.006238426 0.06290819 0.038857028 -0.005322034 -0.038329486 0.07473705 0.068611555
0.05154312 -0.040175296 -0.20605768 0.1842094 -0.046233345 -0.16984212 -0.087584294 -0.014383664
-0.1036207 0.09069378 -0.014816504 -0.019824702 -0.082409084 0.027953092 0.08046412 0.033234626
-0.06816153 0.01066272 -0.06126496 0.07013147 -0.044362903 -0.07102745 -0.12615138 -0.14872223
0.09365851 -0.013494232 0.045681 0.031917304 0.0702068 0.06508341 -0.09085376 -0.047085166
0.035970926 -0.0032301282 -0.027053094 -0.22235915 -0.119461656 -0.05394427 0.06035184 -0.057065155
0.05748188 -0.023441361 -0.057689425 -0.076568514 0.06947421 -0.042068146 -0.04042133 -0.027538832
-0.11004545 0.18656346 -0.06394462 0.10889932 -0.20439409 -0.28190604 -0.31762737 0.055495255
-0.13775699 0.025372362 0.066955835 -0.040097952 0.12931712 0.01639376 0.014311925 0.024374524
0.1356267 0.07031367 -0.11763293 -0.060795423 -0.0703093 -0.053475417 -0.12051235 0.061923005
0.019981276 0.03274181 0.12234151 0.021738132 -0.014094349 0.067972556 -0.034632176 -0.13219257
0.01793319 0.003451697 -0.042679332 0.1004774 -0.20766865 -0.1941856 -0.21415374 -0.030017782
-0.21385309 -0.016133556 -0.07524946 0.028200071 0.024962395 0.04463554 -0.06905219 -0.010946061
0.05217056 0.029775247 -0.012365229 -0.14418995 -0.13584645 -0.07238693 -0.09092283 0.054219015
0.080650195 -0.0037448872 -0.09432086 -0.13099435 0.037433796 -0.01569969 0.035230007 -0.033599596
0.10049846 -0.1281729 -0.19730964 -0.04166424 -0.007310994 0.14037563 -0.11305802 -0.14816634
-0.022874119 0.026632339 0.0886503 0.0027558466 0.050200045 0.04319551 0.017664894 -0.097344585
0.17616169 -0.034676027 -0.18701203 0.010570296 -0.07616307 -0.0114860535 -0.16603069 -0.053318348
0.108089946 0.18996799 -0.110008016 0.015527901 -0.015685763 0.051387876 0.007964961 -0.078539
-0.04176242 -0.11799484 -0.12283006 0.053837135 0.12380281 -0.1835839 -0.01262312 0.21261962
0.15493019 -0.004829808 -0.04850074 0.20887843 -0.13406347 -0.060081713 0.01165196 -0.06491766
0.0733806 0.11567454 -0.06134867 0.043410223 -0.26939973 -0.08565835 0.060025424 -0.21789172
-0.038925037 0.1451324 0.12619236 -0.06446921 0.13846748 -0.046145465 0.015237065 0.06348157

network_body.observation_encoder.processors.0.dense.0.bias f4 [128]
00000000: 6d4f a0bc 10c9 b4ba c800 4ebc e407 a3bc
00000010: 3176 05bc 7706 e2bb 9990 d2ba d9db 15bc
00000020: 55b9 ac3c 4830 82bc d39a 46bc 1bc1 e7ba
00000030: d3fd 7bbb f0f0 c2bb cd60 ddbb 8a6b 0ebc
00000040: 08fb bbb9 a811 52bc b810 6eb9 9cc9 5dbc
00000050: 5bf4 1637 2f25 26bc 0a6b 18bd 66d2 58bc
00000060: f5ab bdbb a6cd cebb 0f41 7cbb 430a 33bc
00000070: 065e 2fbc aa2c 42bc 878c 263d 470c 71bc
00000080: 3222 7f39 c876 92bd b26a 8bbd 241d c3bc
00000090: 6286 c1bb f6b8 02bc aff9 5ebc 388b 5e3c
000000a0: ab09 9ebb 7457 383d ab75 10bc f4f4 40bc
000000b0: 9701 23bc 1be1 96bc 58e3 c4bc a0af 2cba
000000c0: 2771 34bb 5a82 283a 9ad7 5fbd 6fc8 1dbb
000000d0: fd36 6e3a fa2b 11b8 9510 35bc 1f10 e0ba
000000e0: 9244 97bc a6ca 96bb b986 56bd 7bb8 883c
000000f0: 9ba7 7bbb 7e79 49bd 00ff 0dbc 0acb 0b3c
00000100: a8cf 19bc 93bf bebb fca9 46bb 5dc5 e83b
00000110: f031 373a 9c8e 5ebc df7e 913c e208 acbd
00000120: 274c 87bc 8a33 92bb d217 783b 1cc6 f7bb
00000130: abe2 27bc 5e91 5839 67ac bdbc 4955 6ebb
00000140: fb4c 153d a58d 0bbc 48a7 8aba 0f99 03bb
00000150: 9de0 27bb e361 9d3b e858 90bb e4f5 ccbc
00000160: 787d 033c 663b e4bc 58f4 88bc 5b65 57bc
00000170: 2ff2 2bbd 18bb cab9 1635 5b3d 6f63 fcbb
00000180: 344a 3c3b cad5 2fbc ae8f 083d 1ad4 42bc
00000190: b918 bb3b 0859 c6bb f134 23bc 8e55 00bc
000001a0: cb2e 1abc afc2 09bc 4b7f 4eba 1c5b cfbb
000001b0: d763 24bc 7449 8c3b d831 aa3a a73d 9ebc
000001c0: cb7c 60bb 5b78 82bc b79f e4bb f321 aa3a
000001d0: 93ab 933a 3f75 7bbc 9c18 e3bc 2b5b 773c
000001e0: 8c5c 623b 4e8c 46bc 67f1 5dbb 7ce6 05bd
000001f0: 591c 03bc f8b3 e2bb 2ba6 3fbc 4dbc 59bc
-0.019569123 -0.0013792831 -0.012573428 -0.019901223 -0.008145855 -0.0068977433 -0.0016064822 -0.009146654
0.021084467 -0.015892163 -0.012121874 -0.0017681451 -0.0038450852 -0.005949132 -0.0067559243 -0.0086926315
-0.00035854452 -0.012821592 -0.00022703677 -0.013536837 8.99759e-06 -0.010140701 -0.037211455 -0.013233757
-0.005788321 -0.0063111363 -0.0038490926 -0.01092774 -0.010703569 -0.011851469 0.04066136 -0.0147124
0.00024331434 -0.07151562 -0.0680746 -0.023817606 -0.0059059123 -0.007978668 -0.013609334 0.013582997
-0.00482293 0.045005277 -0.008817117 -0.011777151 -0.0099491095 -0.018417886 -0.024034187 -0.00065874495
-0.0027533264 0.00064281153 -0.054648973 -0.0024075767 0.00090871734 -3.461165e-05 -0.011051317 -0.0017094648
-0.018465314 -0.0046017943 -0.052374575 0.01668953 -0.0038399461 -0.04918813 -0.008666754 0.008532295
-0.009387888 -0.0058211773 -0.003031372 0.0071036057 0.0006988337 -0.013583805 0.017760692 -0.08400132
-0.016515804 -0.0044617103 0.0037855995 -0.0075614583 -0.010246913 0.00020653519 -0.023153497 -0.0036366752
0.036450367 -0.008517657 -0.0010578418 -0.0020080244 -0.0025616058 0.004802929 -0.0044051297 -0.025019594
0.00802552 -0.027860355 -0.016718075 -0.013146724 -0.04197901 -0.00038667838 0.053517424 -0.007702283
0.0028730752 -0.010732124 0.03334015 -0.011891389 0.0057097343 -0.006053094 -0.009961353 -0.007832898
-0.00941057 -0.008408233 -0.00078772445 -0.0063279998 -0.010033569 0.004281217 0.0012984825 -0.019316508
-0.003425407 -0.01592653 -0.0069770473 0.0012980088 0.0011266343 -0.015347778 -0.027721696 0.01509742
0.0034540026 -0.012118412 -0.003386581 -0.03269051 -0.008002364 -0.0069184266 -0.011697332 -0.013289523

network_body._body_endoder.seq_layers.0.weight f4 [128, 128]
00000000: d25d 42be bc98 8bbe cf1c 87be 2ffb 223d
00000010: 796d 9bbe b501 07be 2afc 06be 32c8 a4be
00000020: dad1 7b3d 3ce0 0abe 5d40 7bbd 43ba 05be
00000030: 38a5 65be 8b0c 2cbe 260c 003e 010e bebd
00000040: 65ea 3bbe 2781 83be 37bd aabe 691c 643d
00000050: f659 8f3d 7bae 783d f3a0 b9bd 568f 773d
00000060: 2776 043d e04d 6ebb 01f2 f3bd d7a3 f3bd
00000070: 7f28 2b3d a5e9 64be 049c 1b3e 4c70 553e
00000080: 6704 95be de36 4b3d 5f02 25be ae2c 2dbe
00000090: 7931 afbe 4713 373c 325e 1dbe 0aab 70bc
000000a0: f2e0 443c fbaf 283e 1a78 e2bd 3efa 05be
000000b0: db4b 6a3e dccd 95be cfc9 823c bbfc 87be
000000c0: 6986 643d 5bb5 68be ccd7 a4bd b9b1 923d
000000d0: 92ef ecbe aa72 84be e827 1fbe b4fb ccbc
000000e0: d413 6dbe fb14 a3bc 7291 d9ba 14e3 b63d
000000f0: e340 0bbd 4d5b 4bbe 952b c5bc 0a12 afbd
00000100: 24a4 033e ca2f b2bd 52cc 14be 2d27 b2bd
00000110: d762 f8bd 1ab5 90be 15b3 8fbe 42bb 88bd
00000120: e261 28be 6e9f ccbe 76dd 69bc 652d 59be
00000130: 471d c6bc ed8f 4ebc b987 d13d eed6 6bbe
00000140: 107e f93d cdd1 92be ee8e a3be 9556 bd3d
00000150: bdd1 25bd 4ee5 6bbe 1376 65be 9df5 06bf
00000160: a981 d1be aec0 5d3e 8c83 4fbb 938e 5bbe
00000170: 93a5 ecbd 1db8 2cbe 9aed 0a3e 9979 b0be
00000180: 8dea 31be 3d29 c43d b662 923b 0378 4abd
00000190: 54ab 65be 13ca 5cbe 0aa3 28be 3df3 9c3d
000001a0: 1fad 6fbe 36e6 a5bd a9e7 523d d251 023e
000001b0: 01bd 66bd e774 e4bc e097 77be 98ed d2bd
000001c0: 0f3e c3be 0ce0 053b b3ee b8be 24de 04bc
000001d0: deca 26be 01ab 263a 57af 323d 7382 5c3e
000001e0: 6186 89be cc2e 89be 3f7a a6bd 595a 7bbd
000001f0: 65b3 9ebd 5b49 77be 7866 66be 9335 31be
00000200: 959d d2bc d022 91be 31f1 87be 893b f8bd
00000210: d839 e3be 3c7e adbe 9a7a a8bd 1f13 03bf
00000220: dd22 1c3e 0ac2 82be 7865 2abd dc36 a8bd
00000230: 24a0 58be db63 a6be 9984 4fbe a2fe cbbd
00000240: e7cf 2dbe 68a6 47be d940 cebd 7b5c cd3d
00000250: b13c f2bc 4560 8dbe 0ff0 d53d c2e6 343b
00000260: cfef 4fbe b928 82be 4c53 74be 79f8 14be
00000270: 3c9e 8f3d 7d39 04bd 97b9 0d3e bf23 623e
00000280: 1983 b2be 4910 ddbd 3090 fdbd 703e 8bbe
00000290: 2fe7 15be 39d4 3fbe e04e 6abe ef90 3b3e
000002a0: 989e 9e3e 60b2 063d 4a7f 25be 63b6 46be
000002b0: f807 02be e163 e9be 924d d3bd a676 b93c
000002c0: 403f 543b 697f 45be ae0b 2fbe 08ac a8bc
000002d0: 44f0 b8be e5a1 acbe f4f6 433d 67b9 d8bc
000002e0: 0377 a6be f73c 823d 6641 5c3d a170 dbb9
000002f0: 83af 64be 9ff0 f0bd e2bf 0cbc aa26 a83d
00000300: 1fbf bdbd d8ca b1bd de57 01be 27ee 86be
00000310: f6d6 b1be 5391 98be 70f3 45bd db72 6f3d
00000320: 4ce1 d53c 754a 14bf e613 633d 89a9 83be
00000330: 584f 1ebe cefc 133e e22d 503e 4979 98be
00000340: 443e b1bd 7518 78be 42eb a0be 2e2b b03c
00000350: 9c57 093d af7d d3be f60d 03be e57d f7bd
00000360: 28ed 53be c4df 5a3d ccb5 26bd 9a97 9fbe
00000370: 8c97 f0bd 7122 b0be 9894 473e 0212 aebe
00000380: 239f 5f3d b929 a73c ebab 133e cced b6be
00000390: aa8c 59be 3ebd a2be c8e9 7fbe c691 4abe
000003a0: 91df 4cbe 7910 a1be b4ba c03d 43a2 06bd
000003b0: 5e2d b5bd abba 7dbe d054 e3be 8bbe 4bbe
000003c0: 5040 d8be 2036 30be 414b 11be e3d4 babd
000003d0: 140e c9be aef9 b83c 1b10 853d f482 233e
000003e0: 0b7f 89be b4d1 e5be 2b7f a4be 51dc bcbc
000003f0: f623 6abe 4f55 62be a36a 85bd ad08 51bd
-0.18981102 -0.27264965 -0.26389167 0.03979033 -0.30356959 -0.13184245 -0.1318213 -0.32183987
0.061479427 -0.13562101 -0.06134068 -0.13059334 -0.22426307 -0.1680166 0.12504634 -0.09280015
-0.18351133 -0.25684473 -0.33347484 0.055691157 0.069995806 0.060713273 -0.09063902 0.06043943
0.03233924 -0.0036362335 -0.11911393 -0.11896484 0.041786667 -0.22354753 0.15196234 0.20843619
-0.2910492 0.049612872 -0.16114186 -0.16911575 -0.34217432 0.01117403 -0.15367964 -0.014689216
0.012016522 0.16473381 -0.11058064 -0.13083741 0.22880499 -0.2925862 0.01596537 -0.26560006
0.055792246 -0.22725432 -0.080489725 0.07162804 -0.46276528 -0.25868732 -0.15542567 -0.025022365
-0.23152095 -0.019907465 -0.0016599132 0.089300305 -0.033997428 -0.19859047 -0.024068633 -0.085483626
0.12855583 -0.08700521 -0.14531067 -0.086988784 -0.12128227 -0.2826317 -0.28066316 -0.066763416
-0.1644359 -0.39965385 -0.014273992 -0.21208723 -0.024183882 -0.012607557 0.10230965 -0.23031208
0.12182248 -0.2867569 -0.31944984 0.0924503 -0.040483225 -0.23036692 -0.22408323 -0.52718526
-0.40919235 0.21655533 -0.0031664101 -0.21441106 -0.11555018 -0.16867109 0.135672 -0.34467772
-0.1737463 0.09578178 0.0044673337 -0.04943086 -0.22428638 -0.2156146 -0.16468444 0.076635815
-0.23405884 -0.0810055 0.05149046 0.12726524 -0.056332592 -0.027887775 -0.2417903 -0.10299224
-0.38133284 0.0020427732 -0.36119613 -0.008109603 -0.16288325 0.0006357879 0.04362425 0.21534137
-0.26860335 -0.26793516 -0.08128785 -0.06136546 -0.077490605 -0.24149077 -0.22500026 -0.17305593
-0.025709907 -0.28346872 -0.26551202 -0.121207304 -0.4438007 -0.33885372 -0.082265094 -0.5120105
0.15247674 -0.25538665 -0.041600674 -0.082135886 -0.21154839 -0.3249806 -0.20265426 -0.09960677
-0.1697384 -0.19497073 -0.100709625 0.10027405 -0.029569956 -0.2761251 0.10446178 0.0027603363
-0.20306323 -0.25421694 -0.238599 -0.1454791 0.07012603 -0.032281388 0.13840328 0.22083949
-0.34865645 -0.10794122 -0.12381017 -0.27196074 -0.14638971 -0.187333 -0.22881651 0.18317007
0.30980372 0.032884955 -0.16161838 -0.19405513 -0.12698352 -0.45584014 -0.1031753 0.022639584
0.0032386333 -0.19286884 -0.17094299 -0.020589843 -0.36120808 -0.33717266 0.047842935 -0.026455594
-0.32512674 0.06359284 0.053773306 -0.0004185485 -0.22332577 -0.11764645 -0.00859067 0.082104996
-0.09264969 -0.086812675 -0.12631175 -0.2635357 -0.34734315 -0.29798374 -0.048327863 0.058459144
0.026108406 -0.5792611 0.0554389 -0.25715283 -0.15459955 0.14451906 0.20330003 -0.29780033
-0.08654454 -0.2422808 -0.31429487 0.021504965 0.033530816 -0.41306826 -0.12798294 -0.12084559
-0.20695937 0.053436056 -0.04070072 -0.3117035 -0.11747655 -0.34401277 0.19490278 -0.33998114
0.054595124 0.020405637 0.1442105 -0.357283 -0.21245065 -0.31785005 -0.24991524 -0.1978217
-0.20007159 -0.3145788 0.09410611 -0.03286959 -0.08846544 -0.2477824 -0.44400644 -0.19896905
-0.42236567 -0.17208147 -0.14188863 -0.09122636 -0.39268553 0.022579994 0.064972125 0.15967923
-0.2685474 -0.44886553 -0.3212827 -0.023054274 -0.2286528 -0.22102855 -0.0651448 -0.051033664

network_body._body_endoder.seq_layers.0.bias f4 [128]
00000000: 00bc 843c 5641 0d3d 0eab a4bd feac 12bc
00000010: 9814 fa3c 9b50 843d 2467 e63c 01f3 bc3b
00000020: dc2a 373c 1ff5 6dbb 19a3 a4bc d414 15be
00000030: 1b44 c4bd 3920 ba3c c728 4e3c ce91 a2bc
00000040: 89b7 b13c 38e1 a4bd cdc2 9a3c 759b 7bbd
00000050: a245 853b 0a42 ca3c 7622 cc3c 0bde e53c
00000060: ebbd 103b a7c6 ba3c bf75 c93c 8529 d1bb
00000070: 0166 783c 2090 56bd 3f6c a13c eb5e d8bc
00000080: 17ee edbd 6f6f 1e3b 4e15 903c 53cd af3c
00000090: b1d3 ec3c f072 993d be31 e6bd e92b 933c
000000a0: 3b95 203c e679 e1bb e1a1 05be 289a 30ba
000000b0: 96ee a0bb 72e4 473c 1585 cd3c 0785 14bc
000000c0: 8937 e6bc c409 60bd 3502 d2bd f3a7 c8bc
000000d0: bb71 153d 3e7b 6bbc e513 15bc 6f7b 18bc
000000e0: 6129 8a3c 0f1f 9a3c 91e0 ca3c ec3c 753c
000000f0: 66b8 88bd e35e f4bb e08b bdbd 9107 aa3c
00000100: 06b0 82bc ae33 1bbc 1259 823d 265e af3c
00000110: 824f 483c 2f33 593d a7dc ffbc f8e9 563c
00000120: 51f2 9b3c f0c7 ef3b 54d5 80bc 8b83 133b
00000130: a1ce f13c 0cca 133d 4c57 b4bb 5a19 86bd
00000140: 631d d9bc 3f4b 08bb 34bc 27bd 53eb 98bb
00000150: 597c 39bb 9141 c33c bf62 d93c cdb3 ea3b
00000160: da78 813b 3895 c13b 615e 513b 4e18 d7bd
00000170: 5653 dd3c 6ccd 1f3d c259 57bd df6e 613c
00000180: f203 40bd 3f9d 91ba e69e 97bb dc80 d13b
00000190: 51da 463d 9fd2 74bd 48b7 b13c d40f 7cbc
000001a0: 7532 21be 751c f9bc 7f98 8f3c fbe2 a7bd
000001b0: 7373 24bb f0a7 41ba acc1 33bc 5a76 39bd
000001c0: 4387 9abd 03b2 1e3c 390e 413c 7094 1fbd
000001d0: ceb1 f1bb a5de ddbd d3cf 6d3b 4b84 533c
000001e0: 2a21 bc3c 2221 3ebd 37bd 33bb fff0 973c
000001f0: 1ef9 003d 57b6 a8bd d743 44bc 0341 cabd
0.016202927 0.034486137 -0.080404386 -0.008952377 0.030527398 0.06460687 0.028125353 0.005766273
0.011179652 -0.0036309434 -0.020097302 -0.14558727 -0.095833026 0.022720443 0.012582964 -0.019844916
0.021693962 -0.080507696 0.018891716 -0.061427552 0.004067139 0.024689693 0.024918776 0.02805998
0.0022085856 0.022799803 0.024592279 -0.0063831233 0.015161038 -0.052383542 0.019704936 -0.026412448
-0.11617678 0.0024175306 0.017588284 0.02146021 0.028909536 0.07492626 -0.11239956 0.017965274
0.009801204 -0.0068809865 -0.13050033 -0.0006736838 -0.004911254 0.012200462 0.025087873 -0.009064919
-0.028102653 -0.054696813 -0.10254327 -0.024494147 0.036485415 -0.014372645 -0.0090989815 -0.009306773
0.016865434 0.018813638 0.024765285 0.014968138 -0.06675796 -0.0074576004 -0.09255195 0.020755561
-0.015953075 -0.009472771 0.06364645 0.021407198 0.012225987 0.053027328 -0.031233145 0.013117306
0.019036444 0.0073175356 -0.015726723 0.0022508826 0.029517474 0.03608136 -0.0055035707 -0.06547804
-0.02650327 -0.0020796803 -0.04095097 -0.0046667247 -0.0028302877 0.023834975 0.026536344 0.007162547
0.003951174 0.005907681 0.0031947123 -0.105026826 0.027017277 0.039014265 -0.052575834 0.013759344
-0.046878763 -0.0011109485 -0.0046270965 0.006393535 0.048548046 -0.059771176 0.02169384 -0.015384633
-0.15741904 -0.030409077 0.01752877 -0.0819759 -0.0025093227 -0.00073873904 -0.010971468 -0.045278884
-0.075453304 0.009685996 0.011783176 -0.03895992 -0.0073759323 -0.10833482 0.0036287203 0.012909959
0.022965033 -0.046418317 -0.0027426013 0.018547533 0.031487577 -0.082379036 -0.011979065 -0.09875681

network_body._body_endoder.seq_layers.2.weight f4 [128, 128]
00000000: f62f 263d 45f2 b2bd ce83 123d c1fb 13bd
00000010: 4c28 c6bd dee0 83be d10c cc3d 7e91 113e
00000020: ce01 023c d227 bbba 0990 293e ddf9 fc3d
00000030: 1a22 f63c 775d c1bc b746 1f3c 0a39 893e
00000040: f0d8 253d c00f 1fbd e706 1ebd 95e7 3f3e
00000050: 90df a8bd ef8c 74bd 3f66 93bd e6d9 eabd
00000060: a28a 103d f5ed b3bc c5eb bfbc 8f8e b83d
00000070: fc5f edbd 5cf4 113e 3884 973d 637c a3be
00000080: a075 293d 9804 00be 4609 31bd 7eab aabd
00000090: 4d1b 1dbd 9be1 03be 9ce6 bebd fb31 e83d
000000a0: dd29 e6bd 79b1 073c 43f3 203e 26a1 1f3c
000000b0: 0875 ddbd 15eb d13d 9e19 11be 0907 273d
000000c0: 7d32 05be b059 1c3e 3361 ab3d c352 e4bd
000000d0: e289 c93d 4feb 983c 3604 d4bb 75ca 343d
000000e0: c22d a5bd b89c 683d 7ff2 243e f9a6 74bd
000000f0: 3274 e43d 982e 213e dd18 c5bb 40a0 843d
00000100: f03c ac3d 990f 053e e408 a73d 011a bfbd
00000110: 53d9 80be 4e18 d03d d599 4ebc 98b6 1abd
00000120: 7c63 9bbe 8126 b73d 6226 2a3e fc87 2a3e
00000130: cf59 b9bd f4fa 0ebe 3fed 7e3d 4889 7c3d
00000140: 04b0 cc3c f9b1 a93d 72b0 2cbd 3da6 2b3e
00000150: 3898 ad3d 9bcc a63d 5864 08bd ea44 d03c
00000160: 7986 45be 3f4f 933d a45e 403e e37c 9c3d
00000170: d220 ee3d 693e b1bd 4592 c93d 9746 ccbd
00000180: b53f 053d b251 7bbc 6358 583e 8d2d ee3c
00000190: 2bfc 0d3e 31f2 203e 797a e33c 6fc5 053d
000001a0: 3934 903d 8bb6 adbc 4e3d ebbd 1527 3e3e
000001b0: b70b 573d 1db0 f8bd 4c26 bc3d fa0a 6d3d
000001c0: aa69 f83c 8684 a23d 69f1 96bd 9dae d23c
000001d0: 205c 873d 4d03 1c3d 691e e7bc f807 823c
000001e0: 74b9 b9bc 3a04 9d3d 0308 20bd 06a2 2fbd
000001f0: 9d68 95bc 490f 193d 17bc 2e3e 6bda 473d
00000200: 31c5 f0bd 9100 92bd fa05 113e 940d 693d
00000210: ab7b 343e ceaf 81bd f022 aebd 4d7d fd3c
00000220: d37e f53a a036 1cbe 8e86 143b 0654 063d
00000230: a83b 27be 2c56 a1bd bc12 cbbd 33cd 95bc
00000240: 422b 043e cee0 6f3d 3b9b ac3b 5695 223c
00000250: 25bf 95bd d25e 043d a094 06be e9e9 c3bd
00000260: b943 0c3e 151b 753d 14d0 0d3d c476 0bbe
00000270: 680b b63d 9356 843d 5545 cb3c 8613 383e
00000280: 9e62 b2bd b238 98bd c2ff 6f3c deed 41be
00000290: 6e64 88bd 7583 323e ade7 2bbe 077a 843d
000002a0: d68c 533c dc3f 0cbe 62f8 84bd 8f5f 24be
000002b0: c0ce 383c 46da 5e3e ac6e 45be bb21 07be
000002c0: 8e35 38bd d01f 993d 8209 64bc 322e d13c
000002d0: 7eb5 313d 621a 26be ad68 5e3d c285 653b
000002e0: 4918 f3bd 4f4f 44be 6d84 9cbd d06b fb3d
000002f0: 4690 d83c 7da7 eb3c cd0c c83b 058a 19bd
00000300: b71a 78bd 6f30 f33d acf1 febd 87fa 8cbd
00000310: 9aa4 d1bd c06d 21bc c30d f0bd 0374 f13d
00000320: 608c 39bd 0bdb 3abd faee 1c3e b3ef 1ebe
00000330: 0f45 92bd 23ec f9bd b719 7bbc ec51 b3bc
00000340: a9b6 1f3e c2ad a8bc 6efc 663d 9887 1c3d
00000350: d709 8ebc 4b03 1ebe 692d 1abd e0ec 8b3d
00000360: ae44 14be 00c6 0fbd 583c 8dbd d19b c33d
00000370: a6be 863d 4990 83bd 3c1c 0d3c b3e8 2bbd
00000380: 86ef 09bd 3f25 02be 8b26 1a3e 3c1f cfbd
00000390: cca5 96bc edf5 86bd 9e5d 5d3d 2cf7 0a3e
000003a0: aad7 65bd 8491 1ebe 8441 2d3c 609a 573c
000003b0: f146 473d 22a5 6b3d ff31 5f3d 6460 c03d
000003c0: d9fc 643d 6a50 99bd 7bd1 29bd ac8e 283d
000003d0: cd58 c63c ae0f 993c 31f6 853d 1a76 0abc
000003e0: 2706 333e 1815 133e 19c1 e9bc ef7c 21be
000003f0: 8221 4abe 4bed 433e 3348 43bc ac93 523d
0.040573083 -0.087376155 0.03577023 -0.036128763 -0.09675655 -0.25757498 0.09963382 0.14215657
0.007935001 -0.0014278835 0.16558851 0.12352345 0.030045558 -0.023604138 0.00972145 0.2680133
0.04049009 -0.03883338 -0.0385808 0.18740685 -0.08245766 -0.059704717 -0.07197236 -0.11467342
0.03528846 -0.021964053 -0.023427853 0.09011566 -0.11590573 0.14253372 0.073982656 -0.31930837
0.04137194 -0.12501752 -0.043221734 -0.08333491 -0.038356114 -0.1287903 -0.09321329 0.11337658
-0.112384535 0.008282059 0.15717797 0.009743011 -0.108133376 0.102499165 -0.14169928 0.040778194
-0.13007541 0.15268588 0.08368149 -0.11148598 0.09840752 0.018666891 -0.0064702285 0.04413839
-0.08065368 0.056790084 0.1610813 -0.05972955 0.11154975 0.1574043 -0.006014927 0.06475878
0.084100604 0.12994231 0.081559926 -0.09331132 -0.25165805 0.10160886 -0.012609919 -0.03777179
-0.30349338 0.08942891 0.16616204 0.16653436 -0.09050333 -0.13962919 0.062237974 0.06165436
0.024986275 0.08285899 -0.04216046 0.16762634 0.08476299 0.08144494 -0.03329882 0.025423486
-0.19289578 0.07192849 0.18786103 0.07641008 0.11627354 -0.08654482 0.09842352 -0.099744014
0.03253146 -0.015339302 0.21127467 0.029074455 0.13865726 0.15717389 0.02776836 0.03265899
0.07041211 -0.021205207 -0.11486302 0.18569596 0.052501407 -0.12142966 0.09186992 0.057871796
0.030323822 0.07935433 -0.07370264 0.025718028 0.06609368 0.038089085 -0.028212743 0.01587294
-0.022671439 0.07666822 -0.03907014 -0.042879127 -0.01823836 0.037368093 0.17063938 0.048792284
-0.11756361 -0.07129014 0.14162436 0.056897715 0.176253 -0.0633236 -0.085027575 0.030943537
0.0018729813 -0.15255213 0.0022663209 0.032794975 -0.16331351 -0.07877764 -0.09915683 -0.018286323
0.12907127 0.058564 0.0052675284 0.0099233 -0.073118486 0.03231699 -0.13142633 -0.09566099
0.13697709 0.05984028 0.034622267 -0.13619524 0.08888894 0.06461825 0.024813334 0.17976198
-0.08710216 -0.07432689 0.01464838 -0.18938395 -0.066597804 0.1743296 -0.16787596 0.06468587
0.012911996 -0.13696235 -0.06492688 -0.16052078 0.011279762 0.21762952 -0.19280499 -0.13196461
-0.04497295 0.07476771 -0.013918282 0.025534723 0.043385975 -0.16221002 0.054299045 0.0035022353
-0.118698664 -0.19170879 -0.07642446 0.12276423 0.026435982 0.028766388 0.0061050416 -0.03748514
-0.060572352 0.11874472 -0.12448439 -0.06883722 -0.102364734 -0.009852827 -0.11721375 0.117897056
-0.045299888 -0.045619052 0.15325537 -0.15521125 -0.07142078 -0.12203243 -0.015325955 -0.02188965
0.15597023 -0.020590667 0.05639308 0.03821525 -0.017338676 -0.15430944 -0.037640963 0.0683229
-0.14479324 -0.035100937 -0.06896275 0.09551204 0.06579332 -0.064240046 0.008612689 -0.041969966
-0.033675693 -0.12709521 0.15053765 -0.10113379 -0.018389605 -0.06589875 0.05404436 0.13570851
-0.056113876 -0.15485197 0.010574702 0.013159364 0.04865164 0.05753053 0.05449104 0.09393385
0.055905197 -0.07486041 -0.04145954 0.041151688 0.024212265 0.018684234 0.06541098 -0.008451009
0.17482816 0.14363515 -0.028534459 -0.15770315 -0.19739345 0.19133489 -0.011919069 0.051410362

network_body._body_endoder.seq_layers.2.bias f4 [128]
00000000: d4dd a4bd 93be 433c 0af3 03be c4f3 ba3c
00000010: 464c 38bc 24d4 bebb 8939 88bd 8be4 a73c
00000020: 895f 373c dd0a 133d 8e91 7ebe 315c 6c3c
00000030: ca91 a33a 5b9f 30b9 c054 7bbe 833c 59bc
00000040: 08e9 11bd bc85 25bd a599 cfbc 8ff6 85bc
00000050: d4c5 36bd 658a 76be 20f3 8abd c29a 34bd
00000060: 17cf 2ebd 195e 303c db5d 8ebe 86b1 213d
00000070: 0202 3a3a b206 5fbd 36ea 79bc 9134 21bf
00000080: 89f2 243a f06b 5b3c 3900 2bbe 74ef 853c
00000090: 7e32 813c 0575 9ebb 7a64 76be 5eba 04bc
000000a0: e57f 8bba 657b 3dbc fa67 45bc 58b0 f3bd
000000b0: c777 fcbc 3369 7fbd e807 0b3c ea7a d6bb
000000c0: 4ba5 1e3a b10d 833b 21fe 99ba 318a b73a
000000d0: 19d1 90bd b675 073d 1fe0 28be 5170 a53c
000000e0: 4137 1bba 3cf3 a73b ae69 2cbe 2206 fabd
000000f0: 068c 84bc 17d2 82bd 2ec4 02bb 1800 b1be
00000100: 1a6b 0eba b4e4 94be 81a0 8e3b e811 083d
00000110: 746a 32bd 523b 89be b76f 0cbe 2277 8a3b
00000120: 54aa 9fbc d768 d03b a282 51be 66f8 e5bd
00000130: 978a ddbc 8406 5bbb 0f2d 30bc 902f 9c3c
00000140: 2e36 d03a 33df efbc 9501 dd3c 5ae0 14be
00000150: 7422 813c 3b77 15be 8ee6 b83a b032 eabc
00000160: 7199 1ebf 96ac 5c3c 62bc 143c b580 e03a
00000170: 2439 75bd 2d62 72bc 2322 24bc d299 2e3d
00000180: 1019 77be e69d b3be 609f 8bbe b562 2e3c
00000190: 2c26 64bc 41d9 113d b82f a63c b939 2fbc
000001a0: 3588 42bb 0e92 ecbc 538f 103c b55a 80be
000001b0: 8b1c 85ba 214a c7bc 020e fbbd b617 97bc
000001c0: 9127 073d e418 40bc 5ec4 14bd 025c 1fbe
000001d0: 92aa 3bbc 7b0f fb3c 5e3d 95bc 3467 d9bd
000001e0: 85ad 79be a760 b4be 65de 61be 90de bbbc
000001f0: 2267 6a3c 3788 aebc fed3 2cbe cd2e b63c
-0.08050123 0.011947292 -0.12885681 0.022821315 -0.011248654 -0.005823629 -0.06651599 0.02049472
0.011192211 0.035899032 -0.24860212 0.014426277 0.0012479362 -0.00016844033 -0.24544048 -0.013259056
-0.035622627 -0.040410742 -0.025341818 -0.01635292 -0.044622257 -0.24076231 -0.06784654 -0.0440929
-0.042677965 0.010764622 -0.2780598 0.03947594 0.0007095636 -0.054449745 -0.015253594 -0.62970835
0.0006292244 0.0133924335 -0.16699304 0.016349532 0.015771147 -0.004835727 -0.24061766 -0.008101074
-0.0010642974 -0.011565064 -0.012048716 -0.11898869 -0.030818833 -0.062356185 0.008485772 -0.006545414
0.0006051852 0.003999435 -0.001174871 0.0014002976 -0.07071132 0.033071242 -0.16491745 0.020195158
-0.0005921014 0.0051254313 -0.16837189 -0.12208201 -0.01618005 -0.06387728 -0.0019953358 -0.34570384
-0.00054328295 -0.29080737 0.0043526297 0.0332202 -0.043558553 -0.2680307 -0.13714491 0.0042256275
-0.019490398 0.006360154 -0.20459989 -0.11229019 -0.027043624 -0.0033420632 -0.01075293 0.019065648
0.0015885287 -0.029281234 0.026978293 -0.14538708 0.015763499 -0.14596264 0.0014106797 -0.028588623
-0.61952883 0.013468882 0.009078117 0.0017128201 -0.059868947 -0.014793915 -0.010017904 0.042627163
-0.24130654 -0.35081404 -0.2727003 0.010643651 -0.0139251165 0.03560758 0.020286426 -0.0106949145
-0.0029683236 -0.028878238 0.008823234 -0.25069204 -0.0010155601 -0.02432734 -0.12258531 -0.018443923
0.032996718 -0.011724684 -0.036320083 -0.15562442 -0.011454241 0.03064703 -0.018217739 -0.106153876
-0.24382599 -0.3522999 -0.22057493 -0.022933275 0.014306815 -0.021305187 -0.16877744 0.022239113

action_model._continuous_distribution.log_sigma f4 [1, 3]
00000000: df35 b6c0 e72a adc0 90dc 94c0
-5.694076 -5.411487 -4.651924

action_model._continuous_distribution.mu.weight f4 [3, 128]
00000000: 6185 973c 8e74 e9bb f648 11bc 043c 6b39
00000010: 8121 8ab9 ae6f 00ba 9591 88bc 2833 8b3c
00000020: 5e1b 7bbc 520b 38bc b45c b6bc ec44 793b
00000030: 1be4 b4ba 2f01 13bc c59a 9cbc 210f e7ba
00000040: 9911 7f3a 8327 393b 36ec ffba 137e 183b
00000050: 1351 7abd b59e 463b a504 89bc 9df6 61b9
00000060: 9d59 83bb 6f9c dbba a968 093b 1dc3 dd3c
00000070: 24ed 7439 0138 d83b 5df2 513a 12c8 1fbb
00000080: 6af6 76b8 7e49 e639 6404 9d3c a461 47bc
00000090: 3371 2b3c e981 073c 0948 1abd f138 ed39
000000a0: 53f9 3039 188b 4ebb b101 dcb9 f87f 1f3d
000000b0: 28ec a03b f7ca 61bb e58d edb9 285a b83a
000000c0: cfc6 21bd 6d8f 0e3b a1d2 aeba 3f3a 353d
000000d0: 6253 0bbc 44f0 233d 0e03 2c3c 7c1b 4cba
000000e0: 88b8 f2bc f020 493b 3276 24bc 7c97 9fbc
000000f0: 5ad0 663a 094c 0abc 3ada 0dba 0174 683c
00000100: 5ba2 873a 9f09 a7bb b1cf 1abb cecf d33d
00000110: ad3d b5b9 e19d 00bc 750b a03c 9d74 0c3b
00000120: 5bb0 75ba cdaf 8739 ddf7 6a3c e06f d43c
00000130: 9513 eb3b 3401 7c3d e8ce 21bc 74d7 933a
00000140: c952 3fbd dffb 0c3b a5c0 033b 1408 163c
00000150: 7278 99bc 3b2d 233c d6cb 993a 2ef4 ba3a
00000160: aa28 e63b d1c2 67b9 11a5 37b8 e088 b03a
00000170: 0436 12bc d075 8fba 2f4d 173b edb0 e1bd
00000180: 4499 e8bb 9476 cf39 6f12 bf3b cbee 96ba
00000190: df5c aa3a 2b12 54ba 1acb 9939 78ae 863c
000001a0: 0981 7fb9 17a5 1839 31f9 ea38 1ab6 993b
000001b0: 26ba 823a f718 acb9 fe84 f23b af63 333a
000001c0: 9cb7 223c 3204 68bd c9b2 fcbb 77a3 a23c
000001d0: 1182 2fba 0413 1fbd c6fe 70ba bd1c 44bc
000001e0: a317 733c b440 04bc fcf1 623c 06fc 21ba
000001f0: 28cc 4b3c 079c 9538 51bb 003c fd07 eab9
00000200: b942 abbc 1130 69bc a4a3 0f3c fce4 5cb9
00000210: 5e58 893b 23db 58bb e5f9 c7bc acb8 683d
00000220: 89c7 503c 2114 ad3d d358 a93c 3116 3dbb
00000230: 4c7a 0a39 852a 5bbd ee42 e7ba 50d0 66b9
00000240: a402 963b d1e7 2a3c 5759 433a 4ea4 aa3b
00000250: 7f83 493d 40d8 1a3b ccde 6bbc b5ce e33a
00000260: 96d1 12bc 429f 43bb 2b6b 4fbc 6c7d 40bd
00000270: 5824 c838 bfa8 763c 0ae3 44bb b433 06bd
00000280: e508 3aba d97a a5bb d0c8 75bc 40f6 c5bd
00000290: 0fff 28bb 9168 893c 07c3 ecbc e654 613a
000002a0: 0bf7 573a c7ef 40bc 6e90 063a f01f f23c
000002b0: beee 3f3a 92fd b0bb b38f 723b 4b75 113b
000002c0: a373 9d3c 150a 153b 2c00 19bb ecaa 9abd
000002d0: de7c 95bc a3e3 1abd 9c43 4bbb 1095 6cba
000002e0: 7e50 da3d 35a2 b4ba 0cc0 dd3c d84b 89bc
000002f0: 215f 0d3b 34a1 49bc 0f52 dfba eb78 ebbc
00000300: d9c0 fa39 a9b1 ed3a 6214 b2bc 0ecd 3e3d
00000310: d659 863b f9e2 c5bb 9d96 46bd 6038 513b
00000320: c4b4 943b cc38 0cbb d93c 43bb 8a7f 8c3b
00000330: a5f8 10bc ad05 7e3d e84f 183b 45cb 90b9
00000340: ab40 6c3d aec5 c9bc 7824 53bb d11d c43c
00000350: e6e8 7abc 787f 193c 5373 e9ba b54b 993a
00000360: b1d9 c7bc 4c03 5d3b 6e0e 163a 5b3a c73a
00000370: f9f1 90bc 7bda d63a 0a21 f93a 5a6e 1dbd
00000380: 1dfa 6cbc 036a 0bbd 4d03 0bbc 6bbc 30bb
00000390: 7eb8 57ba 06b6 0339 1d28 32bb 2986 92b9
000003a0: 2912 8f38 fc4f e73a 07d8 ecba 409d 8dbc
000003b0: 010c 4dba 9eb8 163a 0a53 e23c 1085 263b
000003c0: 9c40 2e3d 973d 553d 278d c7bc fcb1 b5bc
000003d0: efab 113b 776c 0bbd a9d2 b83a e53d f7bb
000003e0: acfd e9bc 566f 083b 28a2 b0bc c7a4 53ba
000003f0: 037f db3a 0c60 73ba 4f7f f13b 613b 02bb
0.018496217 -0.00712449 -0.008867493 0.00022433704 -0.00026346373 -0.0004899454 -0.016670981 0.016992167
-0.015326349 -0.011233168 -0.022261001 0.0038035465 -0.0013800891 -0.00897245 -0.019116769 -0.001762841
0.00097301 0.002825231 -0.0019525352 0.0023268505 -0.061112475 0.0030307 -0.016725847 -0.00021549543
-0.0040084855 -0.0016754995 0.0020966923 0.027070576 0.00023357995 0.006598473 0.0008008832 -0.0024380726
-5.888046e-05 0.00043923775 0.019167133 -0.012169275 0.0104640005 0.008270719 -0.037666354 0.00045246587
0.00016877548 -0.0031516012 -0.0004196293 0.0389404 0.0049109645 -0.0034453252 -0.00045309882 0.0014064955
-0.03949624 0.002175297 -0.0013337919 0.044245 -0.008503767 0.040024057 0.010498775 -0.0007786078
-0.029629007 0.0030689798 -0.010037946 -0.019481413 0.00088048505 -0.00844098 -0.00054112414 0.014187814
0.0010348068 -0.0050975825 -0.002362233 0.1034237 -0.00034568962 -0.007850141 0.019536713 0.0021431812
-0.00093722873 0.00025880188 0.014341322 0.025932252 0.007173965 0.061524585 -0.00987599 0.001127942
-0.04670981 0.0021512432 0.0020103839 0.009157199 -0.01873419 0.009959514 0.0011733721 0.0014263445
0.0070238905 -0.00022102451 -4.378433e-05 0.0013468526 -0.008924011 -0.0010945145 0.0023086776 -0.11020074
-0.007098349 0.00039570464 0.005831055 -0.0011515258 0.0012997648 -0.00080898654 0.00029333757 0.016440615
-0.00024366764 0.0001455735 0.00011204405 0.0046908977 0.000997369 -0.00032824997 0.007401108 0.0006843162
0.009931471 -0.056644626 -0.0077117425 0.019853337 -0.00066951016 -0.038836494 -0.00091932376 -0.011969742
0.014837178 -0.008072067 0.013851639 -0.0006179217 0.012438811 7.133936e-05 0.00785716 -0.0004463791
-0.02090584 -0.014232651 0.008767042 -0.00021066138 0.0041914424 -0.00330896 -0.024411151 0.05681674
0.012742885 0.08451105 0.020672238 -0.0028852338 0.00013206265 -0.053507347 -0.0017643848 -0.00022012112
0.0045779515 0.010431246 0.00074519723 0.005207575 0.04919767 0.002362743 -0.014396381 0.0017380329
-0.008961102 -0.0029849564 -0.012659828 -0.04699461 9.543513e-05 0.015054881 -0.0030042552 -0.03276415
-0.00070966623 -0.005050045 -0.015001491 -0.09666109 -0.0025786792 0.016773494 -0.02890159 0.00085957197
0.00082384114 -0.011775917 0.0005133216 0.029556245 0.0007321647 -0.0054013217 0.003701192 0.0022195156
0.019220179 0.0022741605 -0.002334605 -0.07552132 -0.018248018 -0.037814748 -0.003101564 -0.00090248976
0.10659884 -0.0013781252 0.027069114 -0.016759798 0.0021571594 -0.0123065 -0.0017038005 -0.028744182
0.00047827399 0.0018134612 -0.021738235 0.046582274 0.0041000647 -0.00603902 -0.04848348 0.0031924471
0.0045381505 -0.0021396158 -0.0029790907 0.004287665 -0.008848344 0.06201713 0.0023240987 -0.00027617268
0.05767886 -0.024630394 -0.0032217782 0.023939999 -0.015314316 0.00936877 -0.0017810859 0.0011695536
-0.024395796 0.003372389 0.0005724196 0.0015199886 -0.017693507 0.0016392017 0.0019007039 -0.038435318
-0.0144639285 -0.034036648 -0.008484674 -0.0026967775 -0.00082290906 0.00012560943 -0.0027184554 -0.00027947247
6.822154e-05 0.0017647739 -0.0018069752 -0.017286897 -0.0007821918 0.0005749556 0.027627487 0.0025408901
0.042542085 0.05206069 -0.024359299 -0.022179596 0.0022227725 -0.034038987 0.0014100868 -0.00754522
-0.028563343 0.0020818315 -0.021561697 -0.0008073565 0.0016746226 -0.00092840265 0.0073699127 -0.0019871818

action_model._continuous_distribution.mu.bias f4 [3]
00000000: 63db 72bb 12b3 3e3c 4462 af3d
-0.0037057034 0.011639373 0.085636646
