CS455_PR1/results/ShootTargetAgent_T8/ShootTargetAgent/ShootTargetAgent-177527.onnx (onnx, 490788 bytes, 18 tensors)

discrete_act_size_vector f4 [1, 2]
000000 00 00 48 42 00 00 48 42
       50.0 50.0

network_body.observation_encoder.processors.0.conv_layers.0.weight f4 [16, 1, 8, 8]
000000 e5 bc 1e bd 42 08 5e 3e ce 53 42 3d 7b 7b c3 3b
       -0.038754363 0.21682838 0.047443204 0.0059656478
000010 d0 b9 ee bd 09 bb 25 bc 56 69 92 bb ee e4 23 3d
       -0.11656535 -0.010115393 -0.0044681234 0.040013246
000020 4a 15 90 bd 0f 0d f9 bb 2f 01 0d 3e 89 9d 27 3d
       -0.070353106 -0.0076004337 0.13769983 0.04092172
000030 ed 93 1b be c6 4f 2d 3e e8 a7 e5 bd d0 92 93 3c
       -0.15193148 0.16924962 -0.11213666 0.018014342
000040 9b 1a a4 3d b5 07 0a 3e 66 17 77 be fa 8f bf bd
       0.08012887 0.13479502 -0.2413002 -0.09353633
000050 51 84 ef bd e3 ed 3e 3d f0 dd 19 3e cb bf 02 bd
       -0.11695159 0.046613585 0.15026069 -0.03192119
000060 ae 48 d4 3d 58 78 0d be 88 d9 8b be c0 9f 93 3d
       0.10365425 -0.13815439 -0.273144 0.07208204
000070 07 67 84 3d cd 62 d8 bc 55 ae 12 3c d0 8c ac 3d
       0.064649634 -0.0264143 0.008952697 0.08425295
000080 83 a4 86 3d 31 ba d5 3d c1 33 c3 3c 33 d3 83 3d
       0.06574347 0.10435904 0.02382839 0.064367674
000090 21 72 a3 3a ee 20 f3 3d 9a 8b 29 3c a1 3b 81 3d
       0.0012469926 0.11871515 0.010348225 0.063102014
0000a0 6e 1e ec bd 7c 5b 66 3e bd b3 30 be 6a 03 a5 bc
       -0.115292415 0.22495836 -0.17256065 -0.02014323
0000b0 06 f0 6c 3c 63 6e 06 bd f6 f3 91 bd 57 a5 07 be
       0.014461523 -0.032820117 -0.0712661 -0.13246666
0000c0 e6 61 ed 3d be 09 41 be b1 73 81 3e c1 cd 1c be
       0.11590938 -0.18851373 0.25283578 -0.15312864
0000d0 0e b9 90 3d d2 ee 03 3d 51 cc ab 3d a1 02 f5 3b
       0.070665464 0.03221018 0.0838858 0.00747712
0000e0 5b 5f 9c be ca f6 9a be 9f 65 8d bc 92 44 ab bd
       -0.305415 -0.3026641 -0.01726037 -0.08362688
0000f0 24 25 0c be 5f 67 9b bd 19 19 17 3e 24 fc b2 bb
       -0.13686043 -0.07588076 0.14755668 -0.0054621864
000100 8b 7d 4c 3e c5 06 a7 bd bc d4 cc bd 9a 33 a5 bd
       0.19969766 -0.08155588 -0.10001513 -0.08066483
000110 6b 39 48 3e 0b 7d 52 be d8 5f 32 bd 30 07 8b 3d
       0.19553153 -0.20555513 -0.043548435 0.0678848
000120 d6 00 5c 3e e3 44 d3 3d 5a c2 1e bd 3e a4 2d be
       0.21484694 0.103158735 -0.038759567 -0.16957185
000130 45 67 9e bd 82 04 0f 3c a3 ac 01 bd a6 13 ab bd
       -0.07734541 0.008729102 -0.03165878 -0.08353357
000140 64 4e 39 3e 56 db ee bd 48 25 da bd b5 5d b6 bd
       0.1809631 -0.11662929 -0.10651642 -0.08904592
000150 3d 0e ca 3d a5 ff cc 3d ff 2b b1 3d 8b 8f 22 be
       0.09865997 0.10009698 0.0865097 -0.1587507
000160 fd 57 5f 3d 95 fd 92 bb 93 92 51 3e 50 9e 12 be
       0.05452727 -0.0044857957 0.2046607 -0.14318204
000170 c9 31 10 3d 71 59 13 bd c1 0b 45 be d5 36 05 3e
       0.03520373 -0.03597397 -0.19242765 0.13009198
000180 4e a6 54 be 06 00 45 bd 65 7a bb 3d 1e e4 c3 3d
       -0.20766565 -0.048095725 0.09154204 0.09564994
000190 7c 3e d0 3c 40 89 a9 be a9 4f cd 3c ea f7 de bd
       0.02542042 -0.33112526 0.025062399 -0.108871296
0001a0 68 a0 d2 bd 2e 30 e7 3d e3 2c b0 3d ac 91 1b 3e
       -0.10284501 0.112884864 0.086023115 0.15192288
0001b0 c9 80 28 be 0a 56 82 bc 5f b2 ae 3d 32 09 33 3e
       -0.16455378 -0.015910167 0.08530115 0.17483976
0001c0 bb 18 10 bd 1f d6 31 3e 04 7a be 3b a5 16 03 be
       -0.035179835 0.17366837 0.0058128852 -0.12801607
0001d0 f8 05 51 be 2f 1c 5a be 84 b3 42 3d 66 3e b3 be
       -0.20412433 -0.21299814 0.04753448 -0.35008544
0001e0 b2 69 a4 3d 5f 1a 12 be f7 6f 82 3d 7b 3d e9 bc
       0.08027972 -0.14267872 0.06369012 -0.028471699
0001f0 4b a0 e3 ba 71 c3 19 3d b7 a2 3e bc b1 13 8f be
       -0.0017366497 0.037539903 -0.011635474 -0.2794471
000200 b1 ac a1 bd c9 5a 7f bc 11 99 08 bc 31 bf 43 3d
       -0.078942664 -0.01558561 -0.008337275 0.047789756
000210 d4 99 df bc 9d 25 b3 be 07 95 9e be 78 b2 b4 bd
       -0.02729503 -0.34989634 -0.30973074 -0.08823103
000220 7c 58 22 3d 1d 69 fe 3d 94 3f a0 3d b6 27 24 bd
       0.039635167 0.124223925 0.078246266 -0.040076934
000230 90 65 c0 3b 19 e7 28 be 70 4d 14 bd 42 2c 1c 3e
       0.005871482 -0.16494407 -0.036206663 0.15251258
000240 1b 03 8c 3d 8f 16 5f 3d f8 8e 13 bd cd 84 2f 3e
       0.0683653 0.054464873 -0.036025017 0.17140503
000250 8a 9e 1c be d6 00 1f 3e 8e 0a 7d 3e 02 01 3a 3e
       -0.15294853 0.15527663 0.24711058 0.18164447
000260 1d 7f 8b 3d 77 6b a0 be c1 27 15 be 43 59 20 bd
       0.06811354 -0.3133199 -0.14565946 -0.039147627
000270 ca ea 88 3d b3 df 9c 3e de ec 50 3d a7 0c 08 3d
       0.066854075 0.3063942 0.051007144 0.03321519
000280 64 46 13 be 82 d0 92 be d5 53 06 3e d6 e9 83 bd
       -0.1438232 -0.28674704 0.13117917 -0.06441085
000290 1d 1a 13 3d de a5 5d 3e 08 a6 9e bd 8e dc 36 3d
       0.035913575 0.21645305 -0.07746512 0.04464393
0002a0 c9 26 b4 bd 27 0b 5c 3e f0 f7 47 bd 4c 8d 08 3e
       -0.0879646 0.2148863 -0.048820436 0.1333515
0002b0 18 0d f3 bc ff ce 0b 3e 20 a0 23 be ec 16 5c bd
       -0.02966933 0.13653181 -0.15979052 -0.053732798
0002c0 38 02 bf bb c0 22 df 3d 85 bb 24 3e af 3e a9 ba
       -0.005829122 0.108953 0.16087158 -0.0012912358
0002d0 06 51 24 be c5 74 2a 3e 3d 5a 93 bd fe f5 57 be
       -0.16046533 0.16646107 -0.07194946 -0.21089932
0002e0 d6 f9 a7 bc 01 a9 5d 3d df 79 06 3d 65 7f a2 3d
       -0.020504873 0.054116253 0.03283107 0.07934455
0002f0 b7 8c fe bd f2 2f 1e bd 7e 1d 52 3e e7 82 d3 bd
       -0.12429183 -0.038619943 0.20519063 -0.10327702
000300 39 6d d3 bd ab b8 5b 3d a5 1e 93 3e 0c 76 21 be
       -0.10323567 0.05364291 0.28734317 -0.15767688
000310 39 75 2d be a1 86 5c 3d 3d 7d 07 bd 4f 84 0a 3e
       -0.16939248 0.05383933 -0.03307842 0.13527034
000320 9e f9 0f 3e 0b a3 11 3d 3c 48 7e 3c ba c5 0c bd
       0.14060065 0.03555588 0.015520152 -0.034368254
000330 cb 32 31 be 46 56 03 3e c8 90 62 3c a8 53 a9 3d
       -0.17304532 0.1282588 0.013828464 0.08267909
000340 e2 ab 76 3e 1a 47 be bd f1 a3 97 bd 16 bd 25 3d
       0.24089006 -0.09290905 -0.07404316 0.04046353
000350 0f 0b 3a 3e de 99 0a be 4c 9b aa 3c e7 67 87 3d
       0.18168281 -0.13535258 0.020826004 0.06611615
000360 f9 48 aa 3d c8 7d a7 be d7 5d 1a bd a3 1e fe 3d
       0.083147 -0.3271315 -0.03768715 0.12408187
000370 80 94 46 bd c3 68 17 3e 91 66 4c 3d 5b a6 fc 3d
       -0.048481464 0.14786057 0.049902502 0.12336417
000380 cf 9f 95 be be e3 a5 be 48 73 67 be 83 eb 5d 3b
       -0.29223487 -0.32400316 -0.2260257 0.00338623
000390 65 1b f3 bd 4c 4c dc bd 70 88 08 be 78 84 b0 3c
       -0.118704595 -0.1075674 -0.13333297 0.021547541
0003a0 ee 77 22 bd 50 63 22 be a4 e6 1e 3d cd e2 04 3d
       -0.039665155 -0.15858197 0.038794175 0.032442857
0003b0 ca d2 cb 3d c8 86 43 bd 47 48 b3 bd b3 3b e1 bd
       0.09952314 -0.04773596 -0.0875402 -0.10997715
0003c0 4a 5e 9b be 9e ad bb 3c df dc 5d bd 22 c7 96 3d
       -0.30345374 0.022909936 -0.054165717 0.073622
0003d0 87 b8 4e 3d db ad 16 3e 24 ed f5 bd 97 6c 01 3e
       0.050468948 0.14714758 -0.120081216 0.1263908
0003e0 d2 0d 8d be e4 51 6d 3e aa 45 a9 3d b1 48 ec bd
       -0.27549607 0.2317577 0.082652405 -0.11537302
0003f0 09 c1 bf bb 8e 1c fa 3d c1 f6 81 3c 28 e2 83 bc
       -0.005851869 0.122124776 0.015864732 -0.01609905

network_body.observation_encoder.processors.0.conv_layers.0.bias f4 [16]
000000 99 27 95 bd 25 07 6e 3c 2f 13 55 3c f3 93 7b bc
       -0.07282943 0.014528071 0.013005062 -0.015355098
000010 fe cb 1f bd ea 65 1c 3c 2b da a3 bc ec d8 2c be
       -0.0390129 0.009545783 -0.020001492 -0.16879624
000020 84 da 1e bd c6 f1 90 bc 68 c0 01 3d da 60 a1 bd
       -0.03878261 -0.017693412 0.031677634 -0.07879801
000030 3a fd 47 bc 96 31 49 3c 84 9d 53 bc 7f cc 38 bc
       -0.01220637 0.012279889 -0.012915973 -0.011279224

network_body.observation_encoder.processors.0.conv_layers.2.weight f4 [32, 16, 4, 4]
000000 c6 42 cb 3d d4 71 65 bc ad 64 d0 3c 62 e0 8f 3d
       0.099248454 -0.0140041895 0.025438631 0.070252195
000010 77 01 90 bd f8 8f d1 3d 5e 70 24 3e 51 c3 99 3d
       -0.070315294 0.10232538 0.1605849 0.07507957
000020 eb e1 bf bb 5b d8 bb 3c 85 89 55 bd b9 7c fe 3c
       -0.005855789 0.022930315 -0.052133102 0.031065332
000030 5c d0 bf bd 20 be bd 3d 5e 50 72 3c e1 2e 94 3d
       -0.09365913 0.09264779 0.014789669 0.07235504
000040 a9 d3 17 bd e6 50 c2 bd 42 e6 1b bd 66 6a 1f be
       -0.03706709 -0.094880864 -0.038061388 -0.15567932
000050 62 2d ee bd 10 25 79 3d 17 48 ac bd c6 3e 6f 3d
       -0.1162975 0.06082636 -0.084121875 0.058409475
000060 69 9a 0f bd 2b 6e 0e be ca 10 f9 3d e1 07 f5 3d
       -0.035059366 -0.13909213 0.121614054 0.119643934
000070 c4 57 0b 3c 71 41 0a bd 16 1c dc 3d 0c 34 f8 bd
       0.008504812 -0.033753816 0.107475445 -0.12119302
000080 16 4c bb 3d 1b 95 79 3b 72 16 07 be 41 b1 3d 3e
       0.091453716 0.0038083259 -0.13192156 0.18524648
000090 ea 32 24 3e 2a d0 1a bd 9b 4a 7e 3d 3a a2 ab 3b
       0.16035047 -0.037796177 0.062082868 0.005237845
0000a0 99 18 ac 3d 5b 64 59 be 88 68 b0 bd 97 9c a4 bd
       0.08403129 -0.21229689 -0.08613688 -0.0803768
0000b0 60 d5 97 3a aa 8b 10 3c 13 e8 38 3d 7b 11 6b bd
       0.0011583976 0.008822361 0.0451432 -0.057389718
0000c0 b3 81 f4 bd f3 27 8e 3c 5e a4 b2 3c 25 e8 62 3b
       -0.11938801 0.017353034 0.021806892 0.0034623232
0000d0 3f 4e e5 3c 54 36 b3 3b 27 d4 3b 3c a0 33 37 3c
       0.027991412 0.005469123 0.011464155 0.011181742
0000e0 41 43 a6 bd a2 f3 bc 3d e5 d1 9e 3d c2 ee 85 bd
       -0.081182964 0.09226157 0.07754878 -0.0653968
0000f0 39 8b 30 bd d5 a7 ac 3d 06 d8 72 bd 79 c5 2c bc
       -0.043101523 0.08430449 -0.059288047 -0.010545128
000100 5e 72 90 bc 6d f5 22 be 5b 22 d9 bd 5d d7 13 be
       -0.01763266 -0.15913935 -0.10602256 -0.14437623
000110 7f b6 f2 3d 6e bd 45 3d e3 34 32 be df a2 42 3d
       0.118512146 0.048276357 -0.17402987 0.047518607
000120 65 0a 45 3c a4 88 a4 bc 14 98 f8 3d 70 82 8f 3b
       0.012026404 -0.020084687 0.121383816 0.004379563
000130 8c 5d bf 3d 28 2f db bc 13 a5 2b bd b3 7b 9b 3d
       0.093440145 -0.026755884 -0.041905474 0.07591953
000140 c0 1c c0 bd d7 f9 87 3d 21 e3 2a be 93 a5 03 3c
       -0.093804836 0.0663945 -0.16688205 0.008035081
000150 df 0a 0f be 2d 1c 8b 3d 5b 4f 35 bc 5c b1 59 be
       -0.1396899 0.067924835 -0.011066283 -0.21259063
000160 5f dd b6 3d ff 00 d6 3d e5 ef d2 3c cc 6f 5e bd
       0.08928942 0.10449409 0.025749156 -0.054305837
000170 89 14 e9 bd 72 f1 8a bd 61 2c 23 3d a7 93 8f 3b
       -0.1138087 -0.06784333 0.039837245 0.004381615
000180 26 3a 4a 3c 31 26 75 bc be f3 fe 3b 61 d6 f4 3d
       0.012342965 -0.014962719 0.007780521 0.11954952
000190 d0 e1 02 bd 7e dd a1 bc 8d fd a6 bd d1 eb 1e 3e
       -0.031953633 -0.019758936 -0.0815383 0.15519644
0001a0 63 e1 89 3d 2e af b0 3d 2c f8 06 3c 0d b6 da bd
       0.06732442 0.08627163 0.00823788 -0.10679255
0001b0 f2 04 d6 3d f9 c7 0b 3e 7a 28 a5 bc 0e 87 54 3e
       0.10450162 0.13650502 -0.020160902 0.20754644
0001c0 9c 53 fb 3b ad cc d6 3c 4e 02 91 3d 55 cf 89 bd
       0.007669879 0.026220644 0.07080518 -0.067289986
0001d0 e5 ab 71 bd 91 e5 59 3d 57 b7 7f 3d a1 a8 05 bd
       -0.059001822 0.053197447 0.062430706 -0.03263152
0001e0 83 53 7b bd 4f 05 a1 3c a8 0c 67 3d 73 c3 07 3a
       -0.06135894 0.019655852 0.056408554 0.00051789655
0001f0 45 5d a6 bd 6c 95 9c 3d 6d 46 9d bd a1 b1 c5 3d
       -0.081232585 0.076456875 -0.07679448 0.09653021
000200 81 d1 3b 3e a7 ce 3d b8 e4 f8 03 3e 46 5e b6 bc
       0.18341638 -4.525357e-05 0.12887913 -0.02226175
000210 be 43 9d bc cf 86 37 be 3d 5c af bc bc 70 3a 3e
       -0.019197341 -0.17922519 -0.021406287 0.18207067
000220 e5 39 1a be 85 5d 84 3d 38 6b 82 3c 0c b7 13 be
       -0.15061148 0.0646315 0.015920267 -0.14425296
000230 8c 06 24 bc 2f 1d 87 3d 31 01 7e bd cc 3e fc bc
       -0.0100113265 0.06597363 -0.062012855 -0.030791663
000240 45 2f 0d bd c3 3a 2f bc 72 b5 86 bd a1 cb d1 3d
       -0.034468908 -0.010695162 -0.06577577 0.10243917
000250 d4 66 43 bd 15 5f 72 bd 46 5b 80 3d 83 49 2c 3e
       -0.047705486 -0.05917271 0.06267409 0.16824917
000260 c8 a5 10 3e 8f 44 5b 3d e9 59 5b 3c 33 54 54 3d
       0.1412574 0.05353218 0.0133881355 0.05183811
000270 e4 bf 5e 3d e8 93 15 bd 8d 0a 12 3e 59 aa 7a bd
       0.05438222 -0.036518008 0.14261837 -0.061197612
000280 21 74 22 be 79 ea d5 3a 03 50 a5 bc f2 51 43 bd
       -0.15864612 0.0016320489 -0.020179754 -0.04768557
000290 4a 0b 66 be 73 46 19 3c e5 a7 a2 3c 9a bd d0 39
       -0.22465244 0.009355175 0.019855449 0.00039814116
0002a0 04 57 a7 bb fc aa 7e 3d 6a ee e1 ba 3c 30 d6 bd
       -0.0051068086 0.062174782 -0.0017237191 -0.10458419
0002b0 0a c4 80 bd ae 8b c1 bc 81 78 ac 3b 77 4a 00 be
       -0.062873915 -0.023626175 0.0052633886 -0.12528406
0002c0 56 98 27 be b0 d2 08 3e 59 8b d1 3c 1a 37 c2 3d
       -0.16366705 0.13361621 0.025579141 0.09483166
0002d0 cb dd 85 bd 77 1d 47 3e ba 17 fa bd 0f 6f da bd
       -0.06536444 0.19444834 -0.12211557 -0.10665714
0002e0 50 e6 78 3d aa da 11 bd 7f fc bc 3d 89 22 fd bd
       0.060766518 -0.035608925 0.09227847 -0.12360103
0002f0 35 f5 b3 3d cc d6 9e 3d eb e5 23 3c b8 5d d3 bc
       0.08787004 0.07755813 0.010003547 -0.025801525
000300 ee b1 66 3d 03 63 ab bd 5b 65 e3 3c fa 38 83 3d
       0.05632203 -0.08368494 0.027758291 0.06407352
000310 56 1c 02 bd 6e 13 d4 3b 8b ee e3 3d 47 47 f2 3d
       -0.031765305 0.0064720428 0.11129483 0.11830001
000320 9f dc 9f bd 68 1b 6c 3d 9e 53 54 bd cf 09 c8 3c
       -0.07805752 0.057643324 -0.051837556 0.02441874
000330 bd 71 0a bc 0b a6 55 bc d1 02 aa bd a8 74 96 bb
       -0.008449969 -0.013040076 -0.083013184 -0.004591543
000340 2a 97 9a be 09 f3 c1 bd 90 df 42 be e6 a9 33 3e
       -0.30193454 -0.094701834 -0.19030595 0.1754528
000350 ed 3f a1 3c f9 b5 00 3e 09 27 5e 3c a1 45 22 be
       0.019683803 0.12569417 0.013559111 -0.15846874
000360 fd 85 a6 3d f7 65 b2 bd 08 a1 47 bd 82 79 d5 3b
       0.08131025 -0.087108545 -0.048737556 0.006514729
000370 96 94 5a 3d 21 29 08 3e fb fc b0 bd e2 08 12 be
       0.05336436 0.1329694 -0.08642002 -0.14261201
000380 d0 7a ae bd d7 30 d3 bd ed 63 80 bd c1 b6 2f bd
       -0.085195184 -0.1031205 -0.06269059 -0.042898897
000390 e8 d4 ad bd c5 7d 9f bd bb cd 3b bd 31 d6 d3 3b
       -0.08487874 -0.077876605 -0.045850497 0.0064647426
0003a0 c2 9f bc bc fe b4 f5 3b 5c 35 ee bb 5f e8 f9 3c
       -0.023025397 0.0074983826 -0.0072695445 0.030506311
0003b0 95 a4 a0 3c 4e ae b5 3d 1a 21 61 ba 18 e2 be 3c
       0.019609729 0.088711366 -0.00085880014 0.02330117
0003c0 df 0c 80 bd 28 80 fb 3d a2 d6 0b 3d ff 0c 03 be
       -0.06252455 0.12280303 0.034140237 -0.12797926
0003d0 05 1c 66 bc 0d 52 ce bc f7 9a aa bd 3c b5 a5 bd
       -0.014044766 -0.02518561 -0.083303384 -0.08091208
0003e0 d6 89 63 bc 67 b7 c4 bd de 55 e3 bd 0a 68 3f bd
       -0.013887843 -0.09605294 -0.11100362 -0.04673008
0003f0 58 71 78 bb 95 ee 85 bd 82 2f b1 bd 70 8d ab 3c
       -0.0037909355 -0.065396465 -0.086516395 0.020941466

network_body.observation_encoder.processors.0.conv_layers.2.bias f4 [32]
000000 66 de 9b bc 4c 52 57 bd 9b 87 8f bb 27 fc 70 3c
       -0.019026946 -0.05256872 -0.004380179 0.014708555
000010 68 de 00 3c 2a 03 8b bb 10 a2 a0 3c d0 f6 03 3c
       0.007865526 -0.0042423205 0.019608527 0.00805445
000020 60 48 27 bd 49 b9 b4 bc e2 98 4a bb 08 4e a8 bb
       -0.040840507 -0.022061007 -0.003091388 -0.005136255
000030 15 f5 1f 3d 4e 4d 2a bd 1d 9a c9 bc 2f b3 5c bb
       0.039052088 -0.04157763 -0.02460962 -0.0033676138
000040 09 f9 2e bb a8 bf 3e ba 97 53 6f bc d9 1f 02 bb
       -0.002669873 -0.0007276484 -0.014607332 -0.0019855408
000050 bf 6f 30 ba 64 8d 54 3b 6a 3f ec 3a 09 64 6a bc
       -0.00067305187 0.0032432908 0.001802427 -0.014306077
000060 61 66 b7 3b e5 ba 88 3c d0 72 8f bc 2d ed e4 bc
       0.0055969213 0.01669068 -0.017510802 -0.027945125
000070 44 f1 2b 3c 55 7d 85 bd 18 f0 9a 3c 3f 2a bf bc
       0.010494534 -0.06518046 0.018913314 -0.023335574

network_body.observation_encoder.processors.0.dense.0.weight f4 [128, 512]
000000 87 26 02 3e 65 a1 96 3d d4 38 a2 3b fa 2b b0 bd
       0.1271001 0.07355002 0.004950622 -0.08602138
000010 d4 0e 79 bd b5 96 0d be 54 c2 01 be 8a af 75 bc
       -0.060805157 -0.13827021 -0.12671787 -0.014995465
000020 4f f2 3f bd ef 8b 40 bd 19 62 96 bd dc 23 a8 bd
       -0.046861943 -0.04700845 -0.073429294 -0.08209965
000030 39 f3 e6 3c f2 1f 39 bd 52 cd e0 bc dc 9e 87 bd
       0.02819215 -0.04519648 -0.027441654 -0.06622097
000040 16 8d fb bd 3f 46 e5 3d 7c 63 ef bd 71 3d d9 3c
       -0.122827694 0.11195039 -0.11688897 0.026518555
000050 bb e7 06 bd ba 98 2b 3e e0 cd e7 ba 9e 73 80 be
       -0.03293584 0.1675748 -0.0017685257 -0.2508821
000060 02 92 11 be f4 4e 52 bd c9 2b 72 bd 23 ac 31 bd
       -0.14215854 -0.051344827 -0.059123788 -0.043377053
000070 dc 67 0e be 11 a8 4a be 7c aa c8 3d 63 de 0d 3e
       -0.13906807 -0.19790675 0.09798142 0.13854365
000080 b2 dd 55 3a 15 64 94 3d 49 f4 fb bd 01 5d e2 be
       0.00081583404 0.07245652 -0.12302453 -0.4421158
000090 66 0d 4a 3d d6 51 eb 3d 2f 4c d9 bd 6f 9a 05 3c
       0.049329184 0.11490218 -0.10610234 0.008154496
0000a0 95 6f fa 3c 30 b6 2f bd df 30 3d 3c c9 be 65 bd
       0.030570785 -0.042898357 0.011547296 -0.05609015
0000b0 5f 93 e1 3d ae 5a d3 3d 74 dc 66 bd fa 81 92 3c
       0.11014437 0.1032003 -0.056362584 0.017884243
0000c0 d1 7c e3 3d 71 5c 88 3c f4 3d 9e bd 9d 80 56 3e
       0.11107791 0.016645642 -0.0772666 0.209475
0000d0 f2 43 12 bd 1b 92 29 bc 70 1f 56 bd 5f 6b c6 3c
       -0.03570933 -0.010349776 -0.052276075 0.02422112
0000e0 88 ca 95 3c f7 80 8c 3d c6 14 60 3d 83 f1 55 be
       0.018285051 0.068605356 0.05470731 -0.2089291
0000f0 dd 00 be 3d c8 45 d0 bb 52 ee 8f 3c 98 1b 10 3d
       0.092775084 -0.006355975 0.017569695 0.035182565
000100 b4 2d 93 bb dc 07 83 3d 9a 45 b3 bd 27 7f a0 bd
       -0.004491532 0.063979834 -0.0875351 -0.078367524
000110 63 88 da bd f5 a9 f4 bd 5d 4b 5d bd cc 52 23 bd
       -0.10670545 -0.11946479 -0.05402695 -0.039873883
000120 7e b6 fc bd a8 3d 10 3d 09 1f 5b 3d 1f da 08 bb
       -0.12339495 0.03521505 0.053496394 -0.0020881963
000130 2a 22 8d bc 94 ee 0f 3d 85 f3 9a 3d e0 1e 8a 3d
       -0.017228205 0.035139635 0.07565979 0.0674417
000140 3b 78 d0 3d d6 ce d4 bd 4a 8a 98 bd ea f9 46 3e
       0.10179182 -0.10391013 -0.074482515 0.19431272
000150 ae 7e 01 bd a6 ca 5e be 12 69 1a bd 84 8a 1a bd
       -0.03161495 -0.21756992 -0.03769786 -0.037729755
000160 81 9d d9 bd 5d aa ef 3d 6b 6e e8 3b ad 43 1d bd
       -0.106257446 0.11702416 0.007093241 -0.03839462
000170 d5 ae 74 bd f0 6a f6 3c fc 65 91 3d b8 fc 0c 3c
       -0.059737045 0.030080289 0.0709953 0.008605175
000180 3e 98 b2 bc de 2f 60 3d 42 c2 c0 bd fa c3 a1 3d
       -0.02180111 0.05473315 -0.09412052 0.07898708
000190 57 b1 1a bd df c1 87 bd e7 a8 10 be b5 d1 1a be
       -0.03776678 -0.06628775 -0.14126931 -0.1511906
0001a0 47 5e b6 3d ae dc 10 3d d7 4e 69 3d b7 25 54 3d
       0.08904701 0.035366707 0.056959953 0.05179378
0001b0 b2 10 a2 3d 4a 67 87 3d da 0a af bd d8 63 0e bd
       0.07913341 0.06611498 -0.08546992 -0.034763187
0001c0 ef 41 a5 3d 7b c9 4f 3d ac 56 9e bc 8c b4 59 be
       0.080692165 0.050729256 -0.019328438 -0.2126028
0001d0 ea 10 44 be 5f d1 ca bd d9 8a 2c 3d bc 30 c5 bd
       -0.19147077 -0.099032156 0.042124603 -0.09628436
0001e0 ce 1b 97 3d 8b 75 31 3c 39 45 30 bd b9 3e 5e bd
       0.0737835 0.010831247 -0.043034766 -0.054259036
0001f0 b2 26 a5 3d 85 c2 b6 bc 21 28 4a bd 54 8c 0f bd
       0.08064021 -0.022309551 -0.049354676 -0.035045937
000200 fd 74 48 be 43 da 3a 3e 72 2b 47 bd 2b d5 0b 3e
       -0.19575877 0.18247323 -0.048625417 0.13655536
000210 4a e7 9d be 3d 77 a8 be 5f ef 96 be 1d c2 3b 3d
       -0.30840522 -0.32903472 -0.294795 0.045839418
000220 85 16 ab bd 39 e9 56 3d 65 11 a4 3d 78 d1 b0 bd
       -0.08353905 0.052468512 0.0801113 -0.08633703
000230 ae ba e0 3d 3b 56 c4 3b 22 14 08 3c 51 31 3a 3d
       0.10973106 0.005991725 0.008305581 0.045457188
000240 84 4f 13 3e 2f 34 ac 3d 65 76 a1 bd 82 f6 3d bd
       0.14385802 0.08408391 -0.0788391 -0.046377666
000250 76 46 84 bd 69 cd e4 bc 1a 09 36 be cf 69 18 3d
       -0.06458752 -0.027929978 -0.1777691 0.037210282
000260 66 90 a5 3c c4 8e 35 3d 90 a0 00 3e 53 d0 98 3d
       0.020210456 0.044325605 0.1256125 0.0746161
000270 68 8a ad bc 8d c7 65 3d 32 e4 df bc f5 68 1d be
       -0.021184161 0.05609851 -0.027330492 -0.15372069
000280 d8 ee e2 bc 62 6c f6 bc ba 93 f7 bc 7c 8a d5 3d
       -0.02770178 -0.030080978 -0.030221809 0.104268044
000290 ba bf 84 be e6 27 35 be 25 45 77 be 58 97 04 bd
       -0.25927526 -0.17691001 -0.2414747 -0.032370895
0002a0 e5 82 3e be 72 67 55 bc af ed 97 bd 70 4d a7 bb
       -0.1860462 -0.013025152 -0.074183814 -0.005105667
0002b0 e4 eb 16 bc d4 9d 11 3c b9 f2 94 bd b4 9b d6 bc
       -0.009211514 0.008887727 -0.07272858 -0.026197292
0002c0 83 6f bd 3d db c4 a1 3d 0b 60 f4 3c 22 4c 4a be
       0.09249785 0.07898875 0.029830953 -0.19755605
0002d0 c8 4f 25 be 8b 85 32 bd 99 f6 f7 bd a4 9c 39 3d
       -0.16143715 -0.043584388 -0.12107582 0.0453154
0002e0 af cb fe 3d b2 53 9c 3c 16 f0 a0 bd ca 69 22 bd
       0.12441193 0.019082878 -0.07858293 -0.03965167
0002f0 69 65 0e 3d b1 94 4f bc 70 de 7c 3d 0f bf 0d bc
       0.03476468 -0.012669728 0.06173557 -0.008651509
000300 a8 f6 f7 3d 18 73 26 be e5 94 69 be 84 04 47 3d
       0.12107593 -0.16254842 -0.22810705 0.04858829
000310 71 73 19 bd 6f b2 23 3e 28 4c e4 bd 63 d4 01 be
       -0.03746361 0.15986036 -0.11147338 -0.12678675
000320 a2 f8 ed bc 90 8e 15 3d ed ac 8f 3d 10 c3 da 3b
       -0.029049221 0.03651291 0.07015405 0.0066760853
000330 37 fa 3e 3d 19 f7 bc 3b 69 bd 82 3c 0c 92 6d bd
       0.046625342 0.005766761 0.015959458 -0.05800061
000340 49 17 3b 3e e5 ca d6 bc b6 0f 41 be 97 fb 8a 3b
       0.18270601 -0.026219795 -0.1885365 0.0042414176
000350 5e 6a 8e bd 86 c4 fa 3b 13 09 37 be 16 ba 43 bd
       -0.06953882 0.007652822 -0.17874555 -0.047784887
000360 6c 05 75 3d d0 a3 3c 3e 9d 6b c0 bd 3e 94 f2 3c
       0.059819624 0.18421865 -0.093955256 0.029611703
000370 bb 3a d9 bc e7 44 92 3b 8a 3c 33 bc 13 35 89 bd
       -0.026517263 0.00446378 -0.010939727 -0.06699576
000380 a6 8d 24 bd 7d de 31 be 78 75 29 bd 5d 49 1b 3d
       -0.04017415 -0.17370029 -0.041371793 0.03791176
000390 09 f8 06 3e 64 57 39 be 57 ec 9e bc cb 95 32 3e
       0.13180555 -0.18099743 -0.019399805 0.17439954
0003a0 40 cb 54 3e 26 fd 22 3c e3 42 6a 3b f7 b0 7e 3e
       0.20780659 0.009948051 0.0035745434 0.24872194
0003b0 7f bb ee bd 68 4e b6 bd 72 06 a5 39 06 e4 87 bd
       -0.11656856 -0.089016736 0.00031476055 -0.06635289
0003c0 89 ef ed 3d 1f 6f 08 3e 3a 61 a9 bd f0 5e f9 3c
       0.11617953 0.1332364 -0.082704976 0.030440778
0003d0 a5 35 91 be a2 fa db bd 0d 22 80 3d 6e 45 64 be
       -0.2836124 -0.10741164 0.06256495 -0.2229211
0003e0 aa 7e c4 3b 34 c0 48 3e 13 1d d8 3d 0d 60 b3 bd
       0.005996545 0.1960457 0.105524205 -0.087585546
0003f0 c9 1b 24 3e 01 51 24 bd 46 a3 0f 3d d5 6d cf 3d
       0.16026224 -0.040116314 0.03506782 0.10128371

network_body.observation_encoder.processors.0.dense.0.bias f4 [128]
000000 f8 a6 aa bc d3 59 03 bd 47 01 bf bc 64 6b 51 bc
       -0.02083157 -0.032068085 -0.023316039 -0.012781952
000010 94 97 2b bb 5f 44 07 bc 60 08 40 bc bd 61 d5 bc
       -0.0026182877 -0.008256047 -0.011720747 -0.026047582
000020 74 cf 8d 3a a1 a7 d3 bc b2 b9 a8 bc 89 fd 04 bc
       0.0010819272 -0.025836768 -0.020596359 -0.008117088
000030 e1 31 df 3a 2d 9a b9 bc 90 94 db bb 43 6d 45 ba
       0.0017028415 -0.022656525 -0.0067010596 -0.0007531235
000040 ad 1a 52 bc 41 c6 d1 bc ba ca dc bc 08 f5 af bb
       -0.012823743 -0.02560723 -0.026952136 -0.005369786
000050 7d 72 a4 bc 0a a9 9f bc de a6 fc bb 48 88 aa bc
       -0.020074124 -0.019489784 -0.007710322 -0.020816937
000060 f6 a6 bb bc 47 e9 cd bc 0f 2e 0e 3b a9 20 a0 bc
       -0.022906762 -0.02513565 0.0021694934 -0.019546824
000070 7c cd da bb 7e 31 13 bc 18 68 b7 3b ea e5 ea bb
       -0.0066773277 -0.008983968 0.0055971257 -0.007168521
000080 e5 2f b0 bb 8e 59 dc bd c3 2f 9d bd fb 6a 08 bd
       -0.005376803 -0.10759269 -0.076751254 -0.03330515
000090 ea fe a9 bc f6 a8 45 bd 72 73 0e bd f2 9e 30 bb
       -0.020751435 -0.048256837 -0.034778066 -0.0026950208
0000a0 ba cd b7 bb ab e2 bf 3b 09 9a a1 bc 9d 7d 1b bd
       -0.0056092413 0.0058558783 -0.01972677 -0.03796159
0000b0 41 c8 20 bc c4 9c 27 bd dc 81 89 bc 88 85 b6 3b
       -0.009813369 -0.040920988 -0.016785555 0.0055701174
0000c0 45 10 96 bc b3 35 8d ba e9 82 95 bd 9e 25 dd bb
       -0.018318305 -0.001077345 -0.0730036 -0.006748869
0000d0 d4 02 2c bd ea a2 98 bc 99 10 4a bd 77 aa 40 3b
       -0.041994885 -0.018632371 -0.049332235 0.002939848
0000e0 5c 8a a6 bc d1 b7 69 bc e1 05 32 bd 8d 83 09 bc
       -0.020329647 -0.014265017 -0.043462638 -0.008393181
0000f0 e5 c1 37 bd 0d 3a 6d bd 75 8c 9d 3b 0d 48 b6 bc
       -0.044862647 -0.05791669 0.0048080035 -0.022251153
000100 19 fe e2 bc b3 de ae ba d2 4f 87 bc 20 ab 11 bc
       -0.027709054 -0.0013341516 -0.016517553 -0.008890897
000110 54 8e 88 bb ee 82 70 bc e7 19 87 bb ca 64 5f bd
       -0.0041673575 -0.014679654 -0.004122961 -0.05453948
000120 93 47 dc bc a3 66 07 bd e2 a4 55 ba c4 3f 76 bc
       -0.026889598 -0.033056866 -0.00081498746 -0.015029851
000130 ed 92 a3 bc 2d 2b f0 bc cf 53 36 bc a4 7b 05 bd
       -0.01996752 -0.029317463 -0.01112838 -0.032588616
000140 d6 b0 80 ba 58 fd 05 bd b7 22 bf bb 4b 5a 97 3a
       -0.0009818326 -0.03271231 -0.0058329958 0.0011547295
000150 03 31 41 bc e4 1f dc bc aa 77 14 bc 76 d1 4e bd
       -0.01179147 -0.026870675 -0.009061733 -0.050492726
000160 5c 74 86 bc c0 f5 1a bc f2 9e 24 bb c3 4b ae bc
       -0.016412906 -0.009458005 -0.0025119153 -0.02127636
000170 cc 5f 56 bd d2 65 11 bd 14 87 56 3c dc a5 67 bc
       -0.052337453 -0.035497494 0.013093729 -0.014138665
000180 e5 06 aa bc dd 0b 65 bc 79 b3 7c bc d3 06 4a bb
       -0.02075524 -0.013979879 -0.015423649 -0.0030826821
000190 ed fc 12 bb f0 05 0c bc 62 df 73 bb eb 94 9c bc
       -0.0022428588 -0.0085463375 -0.0037212004 -0.019113978
0001a0 1b 27 84 bc 78 08 98 bc 7a 0d 4c bc 21 b0 42 bc
       -0.016131928 -0.018558726 -0.012454385 -0.011882813
0001b0 85 29 c3 bb 4e 00 c5 bb d2 ee e1 bc a7 34 a4 bc
       -0.0059558772 -0.006011999 -0.027579699 -0.020044638
0001c0 63 8e 81 bc 2c 36 42 bc 57 3b 1e bc 16 16 20 bc
       -0.015814966 -0.011853736 -0.009657702 -0.009770891
0001d0 f5 fe 22 bc f6 f6 34 bc 53 74 51 bd a8 20 e2 bb
       -0.009948482 -0.011045208 -0.051136326 -0.0069008656
0001e0 0a 7d 20 bc 8c cf 16 bc 3f 92 9a bc 6d a2 c5 bc
       -0.009795437 -0.0092047565 -0.018868564 -0.024125302
0001f0 5d de c3 bc 73 62 5a bc d6 e7 8f ba 1e 84 f1 bc
       -0.023909742 -0.013329136 -0.0010979127 -0.029481944

network_body._body_endoder.seq_layers.0.weight f4 [128, 128]
000000 b4 8b 1f be e9 dc bf be 50 a2 79 be 76 bd d6 3a
       -0.15580636 -0.3747323 -0.24378324 0.0016383368
000010 14 e0 aa be 73 eb ee bd a7 fd 08 be de 17 c3 be
       -0.33374083 -0.11666002 -0.1337801 -0.38104147
000020 46 3b 9c 3c ec 82 70 be ee da e3 bd ed 38 49 be
       0.019071233 -0.23487443 -0.11125742 -0.19650622
000030 4a a7 a4 be b2 d5 ac be db 51 2e 3e 0f 3b fd bd
       -0.3215888 -0.33756787 0.17023413 -0.1236478
000040 64 0d 87 be 52 c8 b9 be e3 f7 e5 be 8f e0 e8 3c
       -0.26377404 -0.36285645 -0.44915685 0.02842739
000050 5f 22 5c 3d 66 0e dd 3d 4c 10 50 bd 55 0f fc 3d
       0.053743716 0.10793762 -0.050796792 0.12307612
000060 3e eb c2 3c 1f 2e 7c bd f2 c2 52 be c4 dc 13 be
       0.023793813 -0.061567422 -0.20582178 -0.14439684
000070 a9 b7 58 3d f9 c7 89 be cb 2c d5 3d e1 31 81 3e
       0.052909527 -0.2691038 0.10408934 0.25233367
000080 f7 41 97 be e7 13 b9 3d 08 22 51 be c1 1b 22 be
       -0.29542515 0.09036999 -0.20423138 -0.158309
000090 17 c1 d8 be 1c bf 32 3b e4 1f 3b be ec 42 c6 bd
       -0.42334816 0.0027274555 -0.18273884 -0.09680733
0000a0 71 9d 3e 3c 1b 08 fa 3d 70 f0 d0 bd 6e d3 23 be
       0.011634217 0.12208577 -0.1020211 -0.15998623
0000b0 10 36 8c 3e 4b 5f ba be f0 20 c5 bc 13 1c ce be
       0.27384996 -0.36400828 -0.024063557 -0.40255794
0000c0 54 79 84 bc d3 f3 49 be cb f7 b2 bd d1 be 90 3d
       -0.016171135 -0.19721918 -0.08738669 0.07067645
0000d0 06 87 03 bf 15 95 a4 be 44 8f 29 be c5 29 c0 bd
       -0.51377904 -0.3214499 -0.16558558 -0.09382967
0000e0 e0 18 85 be 20 4f f4 bc 14 3e 1e bc 47 74 11 bd
       -0.2599554 -0.029822886 -0.009658355 -0.03551128
0000f0 d4 e4 a3 bd 74 92 8a be 01 d9 f1 bd 62 3e 47 be
       -0.0800263 -0.2706486 -0.11808968 -0.19457391
000100 2c 46 10 3e e7 71 b0 bd 15 93 33 be c3 b1 eb bd
       0.14089268 -0.08615475 -0.17536576 -0.11508515
000110 d3 c7 2d be 1c 10 aa be b4 8e 9a be 30 a8 52 bd
       -0.16970758 -0.33215415 -0.30187 -0.051429927
000120 01 5f 73 be cd ea d6 be 81 71 08 be 24 55 8b be
       -0.2376671 -0.41976014 -0.13324548 -0.27213395
000130 e0 5b 1c be 1d df 96 bd d9 96 c0 3d 6a 61 61 be
       -0.15269423 -0.07366774 0.09403772 -0.22009817
000140 32 99 91 3d b7 a8 9d be 5b 05 cc be 3a 89 00 3e
       0.07109298 -0.30792782 -0.39847836 0.12552348
000150 41 34 2e bd b1 83 81 be 6c e2 93 be b3 d6 27 bf
       -0.042530302 -0.25295785 -0.28883684 -0.6556198
000160 b4 cf f2 be 5a 12 89 3e ce 11 aa bd db 4a 97 be
       -0.4742409 0.26771814 -0.08304177 -0.29549298
000170 4d d0 08 be b5 01 54 be 85 3a e9 3d 2b 33 b3 be
       -0.1336071 -0.20703776 0.11388115 -0.34999976
000180 6a df 3e be d9 02 e3 3d 48 5f 6f bc f7 2c 1f bd
       -0.18639913 0.110845275 -0.014610119 -0.03886124
000190 e3 42 a9 be 17 ce 7d be 03 e3 50 be 8e 7b e0 3d
       -0.33058843 -0.24785648 -0.20399098 0.10961066
0001a0 98 f3 86 be bf 7f 84 bd b5 24 84 3d 34 6a f5 3d
       -0.26357722 -0.06469678 0.06452314 0.11983147
0001b0 65 d1 3f bd c0 44 c0 bd 3e 1f 60 be b6 03 45 be
       -0.046830554 -0.09388113 -0.21886918 -0.19239697
0001c0 27 0c e2 be ba 54 e0 bd 5f 05 b0 be f1 80 81 bd
       -0.44149897 -0.1095366 -0.34379098 -0.06323422
0001d0 21 76 41 be a0 31 f8 3c 92 cc a2 3d d8 b5 5e 3e
       -0.18892719 0.0302971 0.07949175 0.21749055
0001e0 cd 72 96 be 6d 21 8d be 5d 31 86 bd 23 d2 14 39
       -0.2938446 -0.27564564 -0.06552384 0.00014192662
0001f0 13 4a c5 bd aa f8 88 be 9f d6 8d be c8 9f 57 be
       -0.09633269 -0.26752216 -0.27702805 -0.21057045
000200 e2 cf e1 bd a4 eb a0 be 75 aa 93 be 3f 2e 0d be
       -0.110259786 -0.3142978 -0.28840986 -0.13787173
000210 28 1b 01 bf 49 3a dd be f8 17 2c be bf f7 0d bf
       -0.5043206 -0.4320853 -0.16806018 -0.55456156
000220 0d bd 08 3e bc 51 9f be 02 40 47 bd 3f 73 8d bd
       0.13353367 -0.31117046 -0.048645027 -0.06906747
000230 64 f4 65 be b8 f3 d4 be b1 ac 9a be 00 e2 5c be
       -0.22456509 -0.41592193 -0.30209878 -0.21570587
000240 1b 60 72 be 56 e6 82 be d3 77 66 be 91 6c 32 3d
       -0.23669474 -0.25566357 -0.22506647 0.04356057
000250 33 cb 02 be a8 74 a1 be 12 c1 bd 3d ad f4 02 bd
       -0.12772827 -0.31534314 0.09265341 -0.031971622
000260 0a 0b 9a be f1 16 c3 be 3a bb ab be f6 05 63 be
       -0.30086547 -0.3810344 -0.3354128 -0.22170243
000270 a0 08 b2 3c 6d cc 11 be 76 ef e2 3d 26 f3 78 3e
       0.021732628 -0.14238138 0.1108083 0.24311504
000280 e2 73 da be 42 04 f1 bd 42 4a 0e be 88 36 a9 be
       -0.42666537 -0.1176839 -0.13895515 -0.33049417
000290 ad 78 6b be c0 29 52 be cb e8 81 be 94 e2 d5 3d
       -0.22995253 -0.20523739 -0.2537292 0.10443607
0002a0 ec ef 97 3e 24 c5 1e 3c a2 5f 3f be 25 32 63 be
       0.29675233 0.009690557 -0.18688825 -0.22187097
0002b0 a1 83 cb bd a9 c0 fc be 5e 6f 18 be 40 a2 ad 3c
       -0.099372156 -0.49365738 -0.14886233 0.02119553
0002c0 e4 57 88 bd ef 78 92 be 2b c2 34 be 6f a0 a8 bd
       -0.06657389 -0.2860789 -0.17652194 -0.08233725
0002d0 db 1a cc be 89 f6 d5 be 10 a6 a4 3c 60 c3 e3 bd
       -0.3986424 -0.41789654 0.020098716 -0.11121249
0002e0 2a d0 bb be 8f b0 d3 3b 6b de 93 3d 00 e1 44 bd
       -0.36682254 0.0064602564 0.07220157 -0.04806614
0002f0 98 c1 84 be 78 6c d8 bd 23 72 3b bd 78 31 76 3d
       -0.2592895 -0.10567564 -0.045763146 0.06010577
000300 ae 36 25 be e3 fa c1 bd aa cd 17 be 3d 16 a0 be
       -0.1613414 -0.09471681 -0.14824548 -0.31266966
000310 d7 c8 f4 be fd 0b 9d be dd 3a dc bd fb 6e 99 3d
       -0.4780948 -0.3067321 -0.10753415 0.07491871
000320 fd 26 22 bc d9 3b 25 bf 2e 4f 43 3d 43 ac b5 be
       -0.009896991 -0.64544445 0.047682934 -0.35482988
000330 80 40 92 be bb 12 06 3d 52 d8 60 3e 46 c5 9e be
       -0.28564835 0.032732707 0.2195752 -0.31009883
000340 92 31 e1 bd a9 93 89 be 00 02 c9 be af 10 94 bd
       -0.10995783 -0.26870468 -0.39259338 -0.07229745
000350 38 db f7 3c 4a 9d e4 be 16 d4 86 be 18 39 1f be
       0.030255899 -0.44651252 -0.26333684 -0.15549123
000360 68 e3 8b be 0d f7 57 3d 69 9b ba bd 63 64 a9 be
       -0.27321935 0.05272584 -0.091116734 -0.330844
000370 d1 39 ff bd 75 f6 d7 be 36 a6 3d 3e 89 89 c2 be
       -0.124621995 -0.4218022 0.18520436 -0.37995556
000380 1b e5 6c 3d 0d 1b a4 bb fe 1c e7 3d fe 7f e7 be
       0.05783568 -0.0050081075 0.11284827 -0.45214838
000390 7a 51 ab be 8d b6 b7 be 37 8c 74 be cf 99 7a be
       -0.334606 -0.35881463 -0.23881613 -0.24472736
0003a0 81 09 67 be ae 4c d0 be e0 59 ba 3d 65 fe 25 be
       -0.22562219 -0.40683502 0.090991735 -0.16210325
0003b0 81 ff df bd 4d e3 a2 be 7f 60 0f bf c5 7b 84 be
       -0.109374054 -0.31814042 -0.56006616 -0.2587568
0003c0 2b 67 fe be 04 ba 6b be 11 3c 63 be e4 c8 01 be
       -0.49688086 -0.23020178 -0.22190882 -0.1267429
0003d0 13 7c e4 be 75 55 a9 3c 5e 77 a1 3d 7a e7 fa 3d
       -0.4462591 0.020670632 0.078840956 0.12251182
0003e0 d2 19 ad be 8f 7a ed be 97 bf ac be df 0c d8 bc
       -0.33808762 -0.46382567 -0.3373992 -0.026373325
0003f0 eb b0 8a be 4e 98 a4 be 67 34 16 be c0 38 6e bd
       -0.27088103 -0.3214745 -0.14668427 -0.05815959

network_body._body_endoder.seq_layers.0.bias f4 [128]
000000 05 eb 84 3c 6f 13 3d 3d 0c d7 9b bd 14 ac c1 ba
       0.016225347 0.04616111 -0.07609376 -0.0014776015
000010 24 e0 b2 b9 76 b2 94 3d 91 fb 3d bb 2c c7 01 ba
       -0.00034117803 0.07260601 -0.0028989057 -0.00049506384
000020 37 f1 d5 ba 86 18 31 ba 2a e4 e2 bb 42 36 07 be
       -0.0016322498 -0.00067556684 -0.006924172 -0.13204291
000030 35 55 bc bd 8f 73 40 3b b3 bb d0 3b 6b 89 2f bc
       -0.091959395 0.0029365753 0.0063700317 -0.010713915
000040 04 61 06 bb 7b 93 84 bd 7d 4a d9 3b 30 c6 54 bd
       -0.0020504603 -0.06473442 0.006631194 -0.05194682
000050 22 30 f2 ba d7 14 70 ba a1 c3 0d 3d af f8 c6 3b
       -0.001847748 -0.0009158379 0.034610394 0.006072126
000060 f0 d0 54 bb f6 0c 5c 3b 3c 55 4a 39 48 fe 17 bc
       -0.003247317 0.0033577061 0.00019295973 -0.009276934
000070 19 fb 89 bb 06 c0 60 bd ba a0 7c 3a 95 4f 0b bc
       -0.0042108414 -0.054870628 0.0009636987 -0.008502861
000080 52 69 fd bd 69 8a b7 ba 6b fd d1 3a 71 a5 d5 3a
       -0.12373604 -0.0014003041 0.0016020959 0.0016299916
000090 88 55 80 37 2c ff 9c 3d 2c 6f d7 bd 6b c8 0e 3b
       1.5298618e-05 0.07665858 -0.10519251 0.002178694
0000a0 bd b5 34 bb 2e 49 39 bb 3d 4c e9 bd 8c e5 93 ba
       -0.0027574145 -0.0028272378 -0.113914944 -0.001128362
0000b0 fe 7e 1c ba e1 c3 ea b9 21 db 63 bb 15 30 41 bb
       -0.0005969851 -0.000447779 -0.0034768062 -0.0029478122
0000c0 74 d6 f9 bc 5a a4 49 bd 9d 55 99 bd c7 d5 e2 bc
       -0.030497767 -0.049229003 -0.074870326 -0.027689828
0000d0 9a d0 cd 3c 82 e1 e4 bb 6a 92 dc bb d2 d2 6d bb
       0.025123883 -0.0069848904 -0.006731321 -0.0036288989
0000e0 45 b9 0f 3c 47 5b 89 3b 57 42 ef 3c 6b bd a0 3a
       0.008772199 0.0041917893 0.029206438 0.0012263482
0000f0 a4 d8 90 bd ee d6 2b bc 13 51 c7 bd d7 fc de ba
       -0.07072571 -0.010488255 -0.097322606 -0.0017012608
000100 3d 87 2e bb 4d 0a fe b7 c2 37 22 3d 6d 7f 7f 3b
       -0.0026630901 -3.0283956e-05 0.039603956 0.0038985864
000110 00 ca 2d b9 1e 4c 31 3d 5d 7e 89 bb 01 ad 22 3b
       -0.00016573817 0.04328548 -0.004195972 0.0024822357
000120 95 cc 65 bb 13 1a fd ba 12 3d 8d 3b 0e 54 87 ba
       -0.0035064567 -0.0019310139 0.0043102587 -0.0010324733
000130 e4 50 53 3b 95 30 3c 3a 54 87 bf bb 4b b5 4a bd
       0.003224426 0.000717887 -0.00584499 -0.0494893
000140 36 dd d0 bc 73 6c cd 3a 75 9b ac bc 10 01 66 bb
       -0.025496107 0.0015672579 -0.021070221 -0.0035095848
000150 89 c6 13 bc a6 68 c8 3b 50 9e 5c 39 5f 80 87 bb
       -0.009019502 0.0061159907 0.00021039811 -0.004135176
000160 ce b5 85 b9 56 c6 9c 3a 11 ed c6 38 f9 f7 d9 bd
       -0.00025503192 0.0011960964 9.485533e-05 -0.10643
000170 27 24 dd 3b 79 64 43 3d 94 a4 14 bd c0 e5 74 bc
       0.0067486945 0.04770324 -0.036289766 -0.014947355
000180 b1 c7 bb bc b4 2f 24 3b 42 f7 42 bb e6 bd 3a 3c
       -0.022922369 0.0025052847 -0.0029749428 0.011397814
000190 7d 23 e1 3c 46 d4 89 bd 58 80 0d 3d 3c 2d 1c bb
       0.027482742 -0.06729941 0.034546226 -0.0023830673
0001a0 0b a4 0e be 2e f3 a9 bc 0b b7 e4 ba 17 ee 8f bd
       -0.13929765 -0.02074584 -0.0017449571 -0.07027834
0001b0 59 74 10 bb 3d 7d 39 ba 4d 76 25 bc eb ff 80 bc
       -0.0022042005 -0.0007075852 -0.010099006 -0.015747031
0001c0 80 f7 49 bd 87 8a 02 3b f1 d2 ff ba fe 91 c2 bc
       -0.0493083 0.0019918995 -0.0019517821 -0.023751255
0001d0 2d 37 0f bc a6 cd b4 bd a0 3f 6e bb 5f e9 8f 3b
       -0.008741182 -0.08828287 -0.0036353841 0.0043918337
0001e0 aa 15 6c 3b 16 c8 c0 bc 68 7b 2b 3b cc 8f 76 3c
       0.0036023655 -0.023532908 0.0026166085 0.015048932
0001f0 68 fb 50 3b 34 2a 9f bd 52 e5 99 bc b2 4c a5 bd
       0.003188813 -0.077717215 -0.018786106 -0.08071269

network_body._body_endoder.seq_layers.2.weight f4 [128, 128]
000000 b0 36 9a 3d 49 d3 77 bd f6 83 40 3d 85 70 90 bd
       0.07529962 -0.06050423 0.047000848 -0.070527114
000010 cf 4b 9f bd 2c 68 82 be 45 0a 08 3e e4 25 32 3e
       -0.07778131 -0.25470102 0.13285168 0.17397267
000020 db a2 14 bd b9 01 82 bc 3e 78 ff 3d 4e 16 06 3e
       -0.036288124 -0.015869962 0.12474106 0.13094446
000030 c5 94 26 3d a2 d5 d5 bc 30 44 da 3c 30 a5 8d 3e
       0.04066922 -0.026102845 0.026643842 0.2766509
000040 67 14 65 3d a7 8c ef bc 71 d4 4e bd af 71 3b 3e
       0.05592766 -0.029241873 -0.05049557 0.18305086
000050 77 c6 a5 bd 54 df ab bd 78 bf a2 bd 36 18 9f bd
       -0.08094495 -0.08392206 -0.07946676 -0.0776829
000060 1c a6 ea 3c 0a e1 92 bc db 67 1d bd 97 c5 e9 3d
       0.02864366 -0.017929573 -0.038429122 0.114146404
000070 b4 59 00 be 9c 36 1d 3e e0 fc 20 3d 22 1e af be
       -0.12534219 0.15352863 0.03930366 -0.34202677
000080 ed 81 45 3d 4f 44 08 be a2 0b 31 bd 3d 5d c6 bd
       0.04821961 -0.13307308 -0.043223985 -0.096857525
000090 92 4e a5 bd 5b 54 fd bd f5 5b b4 bd 00 b9 8c 3d
       -0.08071627 -0.12369605 -0.08806602 0.068712234
0000a0 c7 4d 02 be 1c ea 36 3d f6 20 2a 3e 09 b9 80 3d
       -0.12724982 0.044656858 0.16614136 0.06285293
0000b0 73 6e d4 bd 0c d7 bd 3d 12 b8 00 be ed 9e a1 3d
       -0.10372629 0.092695326 -0.12570217 0.07891641
0000c0 06 73 01 be e7 55 2e 3e 6b aa ac 3d e7 de da bd
       -0.12641534 0.17024957 0.08430942 -0.106870465
0000d0 e1 88 b3 3d b1 68 33 3d 5e 96 5d bd 8b ff 3f 3d
       0.08766342 0.043801013 -0.05409848 0.046874564
0000e0 84 95 cb bd 0c d7 7e 3d e0 ad 08 3e f6 90 c6 bc
       -0.09940627 0.062216803 0.13347578 -0.024239045
0000f0 88 0d f5 3d 64 05 06 3e 9d 4e 26 3a df f0 a0 3d
       0.119654715 0.13087994 0.0006344112 0.078584425
000100 29 76 70 3d 24 bc c4 3d ae 5e d4 3d 5e 9b c6 bd
       0.058706436 0.096061975 0.10369621 -0.09697603
000110 42 7f 6c be 1f c1 01 3e fc e1 80 bd ba 56 8c bd
       -0.2309542 0.12671326 -0.06293103 -0.06852479
000120 1f 4c 9d be d1 65 bb 3d 11 b0 da 3d d7 5e 5b 3e
       -0.30722138 0.09150279 0.10678113 0.21422897
000130 fe d2 8c bd 97 cb e9 bd c2 36 a6 bc 46 67 74 3d
       -0.06876181 -0.11415785 -0.020289782 0.0596688
000140 e2 17 07 3d f9 a9 91 3d 88 f7 2d bd b9 c3 28 3e
       0.03298176 0.07112498 -0.042472392 0.16480912
000150 dc 40 51 3d 01 d2 ee 3d b9 18 44 bb 3f cc 70 b9
       0.051087245 0.11661149 -0.0029921962 -0.00022964271
000160 5b fc 5c be 34 66 b3 3d f1 2f 35 3e 54 5c b1 3d
       -0.21580641 0.08759728 0.1769407 0.08660188
000170 50 0a c7 3d f6 2a 85 bd ef ad e6 3d 09 84 05 be
       0.09718764 -0.06502335 0.11263644 -0.13038649
000180 e5 96 02 3d d0 81 83 bc 12 7f 3d 3e 25 14 d0 3c
       0.031882185 -0.01605311 0.18505505 0.02540023
000190 63 10 16 3e 25 1d 27 3e 26 86 21 3c 3e 40 ed 3c
       0.14654689 0.16319712 0.009858644 0.028961297
0001a0 79 e1 a3 3d 5c ec b2 bc 99 a4 cd bd 23 dd 47 3e
       0.0800199 -0.02184122 -0.1004116 0.1951795
0001b0 b6 ec ae 3c 73 90 09 be 38 bd ab 3d 0e 7d 21 3d
       0.021353107 -0.13434009 0.083857 0.039425902
0001c0 15 c3 f7 3c 66 6b 97 3d 6e 17 8f bd 5c be 8a 3c
       0.03024439 0.073935315 -0.06986891 0.016936474
0001d0 ba b6 22 3d aa ac 20 3d cf 88 63 bd ab 08 cf 3c
       0.039725043 0.039227165 -0.055550393 0.025272688
0001e0 a0 25 08 bd 36 c5 ab 3d 58 d2 25 bd 76 3a 59 bd
       -0.033239007 0.083872244 -0.040483803 -0.05303427
0001f0 b9 60 12 bd 78 a8 42 3d 2d 71 14 3e 8a 12 65 3d
       -0.035736773 0.047523946 0.14496298 0.055925883
000200 21 fa d5 bd 10 dc 96 bd b3 44 14 3e 33 7c 1f bd
       -0.10448099 -0.07366192 0.14479332 -0.038936805
000210 6e e0 27 3e 6b 02 91 bd 81 45 7f 3c 61 4d 06 bb
       0.16394207 -0.07080539 0.015580536 -0.0020492899
000220 d2 8d b1 3a 57 99 41 be 67 36 ae bc e1 44 09 3d
       0.0013546294 -0.18906151 -0.021266175 0.033512954
000230 ae 1f 27 be 30 08 82 3b 06 4c 10 bb ae e1 3c bd
       -0.16320679 0.003968261 -0.002201797 -0.046113662
000240 8d 46 2b 3d f0 50 75 3d 67 c7 d8 bc 55 16 28 3c
       0.04181533 0.05989164 -0.02646227 0.010259231
000250 50 b1 45 bc e6 cc 2a 3d f2 c2 1c be 01 b6 99 bd
       -0.0120662 0.041699313 -0.1530874 -0.075054176
000260 45 7e a1 3d f0 32 29 3e 60 6f 48 3d 2b 08 e7 bd
       0.07885412 0.16523337 0.04893434 -0.11280855
000270 da 16 37 3e 25 1e 86 3d 97 e9 a9 3c e9 fb e6 3d
       0.17879811 0.06548718 0.020741267 0.11278517
000280 b9 29 b4 bd 59 08 5c bd 5e ca 80 3d d9 05 1e be
       -0.087970205 -0.0537189 0.062885985 -0.15431918
000290 a8 d1 04 bd 04 c0 25 3e f1 8b 2b be 75 cd bf 3d
       -0.032426506 0.1618653 -0.16752602 0.0936536
0002a0 d3 31 b0 3c 36 4a 35 be 22 e1 80 bd 99 63 04 be
       0.021508133 -0.1770409 -0.06292941 -0.12928618
0002b0 a8 84 4e 3c 2e d0 35 3e 12 d7 23 be b5 9d eb bd
       0.01260487 0.17755195 -0.16000012 -0.115046896
0002c0 b6 f6 0e bd c7 07 94 3d 95 4d a9 3a 94 a5 26 3d
       -0.03490325 0.07228046 0.0012916798 0.04068525
0002d0 e6 a0 fa 3b 14 f6 10 be 92 47 96 3d b7 e1 a3 3d
       0.007648575 -0.14156371 0.0733787 0.08002036
0002e0 59 17 12 bc 36 c7 f5 bd e8 04 9c bd c7 3f fd 3d
       -0.008916699 -0.12000887 -0.07618123 0.1236568
0002f0 cd 7b f2 3c 3d 39 71 3d cd ef c1 3b 43 8d 6a bd
       0.029600048 0.058892477 0.005918479 -0.057263624
000300 f5 39 3c bd e5 e4 6f 3d 8f 29 da bd 2b 1a a3 3b
       -0.04595371 0.0585679 -0.10652458 0.0049774847
000310 8c aa b9 bc 9f 78 f8 bc a9 ef 03 be 17 cf dc 3d
       -0.02266433 -0.030330954 -0.12884392 0.10781687
000320 dd 15 93 bd 51 6e 01 3b 4e 0d 0c 3e 1b da 16 be
       -0.071819045 0.0019749592 0.1367695 -0.14731638
000330 e5 c7 3c be 6a 63 2f bd 48 e1 84 bd 7c 40 94 bc
       -0.18435629 -0.042819418 -0.064882815 -0.018097155
000340 fa 77 1a 3e fe 0a 36 3b a5 33 3e 3d a0 c9 63 3d
       0.1508483 0.0027777548 0.04643597 0.055612206
000350 1d 81 ea bb 75 af 19 be 64 13 c6 3c 68 49 9a 3d
       -0.007156505 -0.15008338 0.024179168 0.075335324
000360 16 fd d5 bd 59 11 28 bc 7e 0d 8d bd fc 89 c5 3d
       -0.10448663 -0.010258042 -0.06887339 0.09645459
000370 c3 b4 21 3e 12 85 87 bd ac 91 33 3c 11 be c1 3c
       0.15791611 -0.06617178 0.010960024 0.023650201
000380 94 24 c6 bc 05 c4 ef ba 1f b6 11 3e 12 56 62 bd
       -0.024187364 -0.0018292671 0.1422963 -0.055257864
000390 a0 74 39 bd 26 7e 81 bd 65 5f 1e 3d 9c 8b c8 3d
       -0.045277238 -0.06322889 0.038665194 0.097922534
0003a0 97 52 67 bd 39 d8 18 be 8e 5a 99 3c 4f 55 8d 3c
       -0.05647525 -0.14926232 0.018719938 0.017252592
0003b0 b0 8a 08 bc e2 4e 42 3d 55 6c bb bb 49 ba c8 3d
       -0.008333847 0.04743851 -0.0057197013 0.09801156
0003c0 db b3 80 3d cb fb 26 3d bc d4 13 3d 3c 08 d9 3c
       0.06284305 0.040767472 0.03609155 0.026493184
0003d0 c5 90 45 3d cd 84 e8 3c 2f cf fb 39 b8 37 4d 3d
       0.048233766 0.028383637 0.00048028814 0.050101966
0003e0 7e 96 72 3e 84 d4 15 3e 25 de 72 3c d1 ac 41 be
       0.2369022 0.1463185 0.014823471 -0.1891358
0003f0 aa de 04 be 63 60 44 3e 5e 20 48 3c 32 02 67 3d
       -0.12975565 0.19177394 0.012214748 0.056398578

network_body._body_endoder.seq_layers.2.bias f4 [128]
000000 9a 3b b6 bd fd fb 77 3c 21 e8 dd bd 46 28 be 3c
       -0.08898087 0.015135762 -0.10835291 0.023212563
000010 46 48 31 3a f4 3a a8 ba ba 4f 4d bd 68 b0 0b 3c
       0.0006762784 -0.0012834952 -0.05012486 0.008525945
000020 6c 71 15 3c 8c 3a 27 3d 10 17 77 be f1 95 b5 3b
       0.00912128 0.04082732 -0.24129891 0.005541556
000030 4f 36 9a 3a 9f b3 8e 3a 64 71 7a be 3f b5 42 bc
       0.0011765453 0.0010887271 -0.24457318 -0.011884033
000040 29 03 bc bc 00 9c 20 bd 9c a1 c7 bc 8d 4b 45 bc
       -0.022950726 -0.039211273 -0.024369054 -0.0120419385
000050 69 36 b3 bc d4 e5 82 be 43 71 6e bd 5f fa 09 bd
       -0.02187653 -0.2556597 -0.058213484 -0.033686038
000060 5e f4 ad bc 5d bd cd 3b fa 19 98 be 1a bb bf 3c
       -0.021234687 0.0062786774 -0.2970732 0.023404647
000070 0e f9 6f 3b 2c f4 52 bd 93 4b 80 bc 1d 42 48 bf
       0.0036616954 -0.05150239 -0.015661037 -0.7822588
000080 22 e7 85 34 a4 8c 3b 3c 6f 37 36 be 03 08 9f 3c
       2.4941352e-07 0.011447106 -0.17794584 0.019413
000090 5f 79 85 3a 75 f8 3a ba 81 7f 65 be d9 ab 9b bb
       0.0010183266 -0.000713236 -0.2241192 -0.0047507104
0000a0 46 9b 9a ba 2b 95 73 bc c1 44 e7 bb 4f 95 04 be
       -0.0011795543 -0.014867107 -0.0070577567 -0.12947582
0000b0 02 8f db bc 9e 69 60 bd 44 d0 08 3c db 03 7d 3b
       -0.02680159 -0.054788224 0.008350436 0.0038607034
0000c0 8c 14 d8 bb ba 7c e0 3b 60 da 23 3b 88 c5 01 bc
       -0.0065942463 0.006850806 0.0025001988 -0.00792063
0000d0 9f 75 66 bd dd 70 70 3c 07 89 33 be 68 73 92 3c
       -0.056264516 0.014675346 -0.1753274 0.017877296
0000e0 5b 7e 65 3c c5 19 56 3b aa 39 1a be 84 39 ce bd
       0.014007176 0.0032669168 -0.1506106 -0.10069564
0000f0 2f 48 fe bb f0 6e ec bc c9 07 9d 39 3a fc bd be
       -0.00776007 -0.028861493 0.00029951174 -0.37106496
000100 c1 ab 40 bb 4d 57 97 be cf 1b df 3b 79 e6 cd 3c
       -0.0029399248 -0.29558793 0.006808735 0.025134312
000110 c3 c4 d1 bc d9 15 86 be a1 8a 18 be f0 a0 d5 3b
       -0.025606519 -0.26188543 -0.14896633 0.0065194294
000120 58 dc 67 bc 4f 60 06 3c 1c aa 63 be ca 1f f1 bd
       -0.014151655 0.008201673 -0.2223286 -0.117736414
000130 13 55 95 bc 21 5f 1b bc aa 73 00 bc fb f2 91 3c
       -0.018229043 -0.00948313 -0.007840076 0.017816057
000140 60 28 7b 3c e2 50 45 bc 6a 1b b0 3c e9 09 20 be
       0.01532945 -0.01204321 0.021497447 -0.1562878
000150 be fa 9f 3b cd ee 1a be 64 d1 85 3b 62 f6 54 bc
       0.0048821857 -0.15130158 0.004083799 -0.012998195
000160 72 7d 44 bf 81 28 1b 3c 04 dd e3 3b 62 ee 98 3b
       -0.76753914 0.009470106 0.0069538374 0.0046670893
000170 90 14 cc bb 31 16 14 bc b3 b6 6c b9 2e ca 23 3d
       -0.006228037 -0.009038494 -0.00022574775 0.039987735
000180 71 5d 6c be ee 5d be be 5a a8 93 be fd 14 15 3c
       -0.2308252 -0.37181038 -0.2883938 0.009099242
000190 59 6c 72 bc 6b bd 15 3d 72 b8 8c 3c 57 dd 00 bc
       -0.01479634 0.036557596 0.017177794 -0.0078652715
0001a0 d2 73 eb 3a ac 00 c4 bc 94 14 02 3c 30 07 86 be
       0.0017963594 -0.023926102 0.0079394765 -0.2617736
0001b0 a0 44 0c 3c b4 9b a5 bc e9 e0 09 be c2 8c 10 bc
       0.008561283 -0.020215847 -0.13464703 -0.008822622
0001c0 0c 84 c4 3c 86 e7 e7 ba 74 c2 14 bc 23 f4 30 be
       0.023988746 -0.0017692901 -0.009079564 -0.17280631
0001d0 53 06 1a bc b0 88 38 3c ff fa a5 bc 94 7a a9 bd
       -0.009400922 0.011263058 -0.020261286 -0.08275333
0001e0 f2 3a 85 be f3 ea b3 be 7e 63 6e be b3 73 81 bc
       -0.26021534 -0.3514019 -0.23280141 -0.01580224
0001f0 bb 29 81 ba d8 94 90 bc a6 ea 39 be c5 bc 89 3c
       -0.0009854356 -0.0176491 -0.18155918 0.016813645

action_model._continuous_distribution.log_sigma f4 [1, 3]
000000 d9 01 c1 c0 9f 2a b7 c0 51 a1 a1 c0
       -6.0314755 -5.723953 -5.050942
