CS455_PR1/results/ShootTargetAgent_T8/ShootTargetAgent/ShootTargetAgent-33102.onnx (onnx, 490788 bytes, 18 tensors)

discrete_act_size_vector f4 [1, 2]
00000000: 0000 4842 0000 4842
50.0 50.0

network_body.observation_encoder.processors.0.conv_layers.0.weight f4 [16, 1, 8, 8]
00000000: be8b 70bd bf3a 76be 6fb9 29be 28a4 4b3e
00000010: 9ef4 0c3e d4bd b6bd 51d4 b1bc c0c3 04bd
00000020: 3d6c f5bd c980 93be ab22 abbe f091 abbd
00000030: 54bf cb3d 1d93 a6bc 187c a63d b0e4 a83d
00000040: 2dbd a4bd 9991 66be ea2d acbe b9fe 723d
00000050: 9e96 4d3e 7e75 863d b553 c0bd 42c3 e03d
00000060: 4000 60bd ea08 7cbd 05c4 1cbe ab4f ea3d
00000070: f92f 0abe 0788 e0bd 6623 a03d 6071 52bd
00000080: 04d8 b4bd 2f87 46bd 66a3 96be 4403 d2bd
00000090: 5022 ac3c 374b 34bc cf79 2ebd b2f6 c0bd
000000a0: ef2d 123c c57e b0bd e08d e4bd fec5 28be
000000b0: d5e5 ba3d b25e debd 114e 4d3e 762d dd3c
000000c0: bc8c d9bd a36f 64be 2e2d 9ebe 9159 95bd
000000d0: ac7b 373d c4a6 2b3e 443d 9a3e 8163 3e3c
000000e0: 8c07 17be 7cfe 17be 0989 5ebe 244e 32bd
000000f0: c5d5 eabd 06e2 e63d 36e7 433e 4f84 823d
00000100: 000d f7bc 9d59 ee3d a20f 053d 4d63 fd3c
00000110: 8898 f43d 24cf b3bd 30d6 3e3e 453f eeb9
00000120: d8db c93c 5f7f 683c b155 e73d 6c2d e9bd
00000130: 89e2 fb3c bc75 833d d61f 1a3e 398f 5f3d
00000140: 08d8 d73b bdca 2fbd 1701 b3bc 76fb b73a
00000150: 04bd 30bd eb6c 6fbd a53d 3abd 2de6 efbb
00000160: e820 923b d0bc 053e 3df5 a63b 3f4a ccbb
00000170: 102c 613d ae35 09be 47f2 adbd 8d6e 9dbd
00000180: 981e 77bd 0932 923d 20d2 e2bd 4b34 163c
00000190: 36b0 283d cc5b 2fbe 775f 05be d531 3b3e
000001a0: d7ae b6bc df8c 89bd b4c9 c13d d34d 36be
000001b0: 1500 a43c 8d75 85bd 5ce5 06be 4f6f 4f3e
000001c0: 22e4 313e 33e0 bb3d 27d0 f4bd 0f95 513b
000001d0: c7e8 d43d c173 f83d b380 de3d fda1 b03d
000001e0: f7c8 b5bd d418 78bd fc47 93bb 0674 21be
000001f0: c63c 14be 4a0b 713d 4c79 fd3d 20e7 b03c
00000200: dd34 9dbd 88f7 88bd bcca 763e 4213 0cbe
00000210: b1f4 8cbd 6641 a7ba b6fd 0d3e 1969 21be
00000220: f65f 323e b522 153e f2e9 0cbe c7bc 18be
00000230: 0f39 4c3c a292 8c3d 11bb 5cbd 3ec9 33bd
00000240: cb16 6bba 32e2 e6bc 02d4 23be 1d48 193e
00000250: dd31 98bc ae78 d63c d851 4c3e e082 f53c
00000260: b05c d8bc 8196 93bd 7fb9 80bd 96cd 0bbe
00000270: f556 263e e700 0fbe a5f6 c9bd 8129 92bd
00000280: 1d80 8c3d 2e1e c03c 17e3 f2bd 0cdd 0f3e
00000290: b8c4 053e cea9 0ebe 292d d13d cfa2 373e
000002a0: cf53 f13a f52c ac3d 18d4 f1bd 8726 1e3c
000002b0: fe3b ce3d 2266 69bd 5904 e3bd 8df6 2a3e
000002c0: d98e c13d 11d0 01bd dad1 983d ab4b 873c
000002d0: 6ecb a13d 3923 9d3c 9929 49be 9687 4a3e
000002e0: 97e4 be3d 7a2c acbc becf 01be a014 a93d
000002f0: 1706 93bd 20a4 05be 4e29 20bd 2fd8 d1bd
00000300: ea20 a63d 6bda 12be 87ec ccbc 9439 86be
00000310: f961 193d 9b2c 303d 5b73 323d dffc 2b3d
00000320: 5226 a83c 79dd e1bc 1b76 b83a 619a 8a3c
00000330: 5981 083e 0858 dd3d ab65 83bd 7236 ec3d
00000340: 9c32 873d d4f1 bbbd 6036 01be a985 51bd
00000350: 5392 d33d 2e73 84bc c345 e83c 4555 a03d
00000360: 508b 8abc b314 ab3d 652f 143d 06a3 19be
00000370: 8f08 473e f230 5cbd e5d8 7cbd 4fd0 2dbe
00000380: b53c 143d 88a0 a73d 15f1 233c 722b 143c
00000390: 36b7 233e 2401 8e3d 6e03 02be 0bc3 a6bd
000003a0: a17f b8bd 7363 ac3c 1efb 913c 91da 20be
000003b0: 18bd 1a3e cd1a fdbd 6884 b23d e383 0bbe
000003c0: 62d6 683d 9acb 45bd fadc afbd 9f42 efbd
000003d0: 1079 d7bd e2c9 4a3e 396f dfbd 1fd2 c33d
000003e0: d42b 3f3d f683 043e 5ccb 113e 8a79 19be
000003f0: d808 0b3d 0daf 8e3c 7540 0b3d bce4 a2bd
-0.05872702 -0.24045847 -0.16574644 0.1988684 0.13765189 -0.089229256 -0.021707686 -0.032413244
-0.119835354 -0.28809193 -0.33424887 -0.08377445 0.09948602 -0.020333821 0.08129138 0.08246744
-0.08043895 -0.22516479 -0.3362878 0.059324954 0.20076987 0.065653786 -0.09390966 0.109747425
-0.05468774 -0.06153194 -0.1530915 0.11440977 -0.13494863 -0.10963445 0.07819252 -0.051377654
-0.08830264 -0.048468765 -0.29421538 -0.10254529 0.021012455 -0.011004261 -0.042596634 -0.094220534
0.008922084 -0.08617929 -0.11159873 -0.16481778 0.09125868 -0.108579054 0.20049311 0.026999217
-0.10622546 -0.22308211 -0.30893844 -0.07292474 0.044795677 0.16762835 0.30124867 0.011620403
-0.14748973 -0.14843172 -0.21731962 -0.043531552 -0.114665546 0.11273579 0.19131169 0.06372892
-0.030157566 0.11638186 0.03248561 0.03093114 0.119431555 -0.08779743 0.18636394 -0.00045442037
0.024640962 0.014190524 0.11295641 -0.11385617 0.030747669 0.064189404 0.15051207 0.054579947
0.006587032 -0.042917956 -0.021851106 0.0014036733 -0.04314901 -0.05845348 -0.045468945 -0.0073211403
0.004459489 0.13060308 0.0050951527 -0.0062344368 0.054973662 -0.13399383 -0.08493476 -0.076871015
-0.06033191 0.0713845 -0.110752344 0.009167741 0.041183673 -0.17124861 -0.13024698 0.18280728
-0.022300167 -0.06716322 0.094623 -0.17803125 0.02001957 -0.06516562 -0.13173431 0.20257305
0.17372182 0.09173622 -0.119537644 0.0031979715 0.10395961 0.12131453 0.10864391 0.08624647
-0.088762216 -0.060570553 -0.004494665 -0.15766916 -0.14476308 0.058848657 0.12376651 0.021594584
-0.076760985 -0.06687838 0.24100775 -0.13679221 -0.06882609 -0.0012760579 0.13866314 -0.15762748
0.17419419 0.14564021 -0.13761118 -0.14915763 0.012464776 0.068639055 -0.053889338 -0.04389309
-0.0008967935 -0.02818403 -0.15998843 0.14968915 -0.018578464 0.026180591 0.19953096 0.029969633
-0.026411384 -0.07206441 -0.062853806 -0.13652644 0.16244109 -0.13965188 -0.09861497 -0.071368225
0.06860373 0.02345189 -0.1185972 0.14049166 0.13063323 -0.13931963 0.10213692 0.179332
0.0018411818 0.084070124 -0.11808032 0.00965274 0.10070036 -0.056982167 -0.110848136 0.16695614
0.09451074 -0.03169257 0.07461901 0.016515573 0.07900129 0.019181835 -0.19644774 0.19778284
0.09320944 -0.021017302 -0.12676904 0.08255887 -0.07178896 -0.1305089 -0.03910189 -0.10246312
0.081117466 -0.14341132 -0.025015129 -0.26215804 0.03744695 0.04301129 0.043567043 0.041989204
0.020526085 -0.027571427 0.0014073284 0.016919317 0.13330592 0.10807806 -0.06415876 0.11533822
0.0660145 -0.091769844 -0.12618399 -0.05115286 0.103306435 -0.016168203 0.028353577 0.07828764
-0.016912133 0.083535574 0.03617801 -0.15003595 0.19436859 -0.053757615 -0.061730284 -0.16973995
0.036190707 0.08184916 0.010006209 0.009043561 0.15987858 0.06933811 -0.12696621 -0.0814267
-0.09008718 0.021043515 0.017819937 -0.15708376 0.15111196 -0.123586275 0.08716661 -0.1362453
0.056845076 -0.048289873 -0.0858707 -0.11682629 -0.10521138 0.19803575 -0.10909886 0.09561562
0.046672657 0.12940964 0.14237732 -0.1498777 0.03394398 0.017417455 0.033997018 -0.07953784

network_body.observation_encoder.processors.0.conv_layers.0.bias f4 [16]
00000000: 5469 2bbd 326f a2bb 67f2 543d 9fe3 c93c
00000010: f2b5 ba3c 0f3d e0bc bf72 3c3d 7836 33bd
00000020: 9530 12bb 9009 a0bc d760 7abd 2b6d f93c
00000030: 589d 9fbb ca62 89bc c4c1 a2bc e4a0 b83c
-0.041848496 -0.004957103 0.051988985 0.024644671 0.022791836 -0.027372865 0.046007868 -0.043753117
-0.002230679 -0.01953581 -0.06112751 0.030447563 -0.0048710518 -0.01677074 -0.019867785 0.022537656

network_body.observation_encoder.processors.0.conv_layers.2.weight f4 [32, 16, 4, 4]
00000000: 4b89 2fbd f79d 0dbe 0adf 053c dd94 4fbc
00000010: e90b 03be 5b04 bd3d 0b49 a73d 5b4d 12bd
00000020: c6f3 44bc 4b79 143d 7209 ab3d 3783 11bd
00000030: 852f adbb bd36 0c3e 2d02 cc3b 9fcf c43d
00000040: b073 9b3c f19a 753d d048 0a3d 18bb f13c
00000050: b05c cf3d 63c6 303d 370e bebd f91e c53c
00000060: a5f4 8dbd a8c0 91bb 75eb 30bb 874c e73c
00000070: 520f 1c3d d0ae 2c3c 07ab b73c ffa8 a8bd
00000080: a89e 68bd 28ae f13c 81dc 1dbb 77e6 df3d
00000090: c072 973d 815c 48bd 1a76 363d 24e2 373c
000000a0: cf5d e5bb 8e5e 0cbb b008 c23d fa9d a23c
000000b0: 73b6 0ebd a2f7 d53a 4d0a 583d cdc0 dabb
000000c0: dbb2 a03d f83e e8bc a557 8c3d e3e6 c7bd
000000d0: 135e 7bbc d8e5 f3bc 9bc3 f1bc f1a3 26be
000000e0: ba53 81bd d8e4 1a3d 1189 913d 03e4 fa3c
000000f0: 4e8b 14bd 73a2 523d 091c 133d 2b92 8b3d
00000100: 1f87 3d3d a4c9 d73d 2690 f2bd f880 a33c
00000110: e382 693d 5146 02bd f166 1c3d 8499 f43a
00000120: e19c 973c 5b8b de3d 5b3d 083a 82de b5bc
00000130: 87f7 c53b 49bd ccbd 7ab0 083d 7e6f 6bbd
00000140: 59d0 e33d 4517 603d c561 8abb 11dd c33d
00000150: e73e a93c db3c d2bd f9b7 00be 0ef4 b3bb
00000160: b1dd afbc 5cb2 64bd 572f 313c 7e98 41bd
00000170: 5617 6a3d c9a5 583d 0f40 d2bc 5e0d 41bd
00000180: 9ec3 bebb 78a6 9f3d 30e4 023d 1181 48bd
00000190: 63c3 26bd 02c2 4bbd 88da 9bbd 2efe cbbc
000001a0: 6d01 40bb f635 c539 49bc 92bc dd09 1f3c
000001b0: 2507 ae3d 600b c5ba 1e65 483d fb69 4abd
000001c0: d306 bb3d 68c3 a5bd 088f 03be 85bb 133e
000001d0: 4edf 99bd a948 d5bd 45ef 72bd eb6f d13c
000001e0: 9fad 193d 5cf7 c3bc 4c78 9fbd e13f ef3d
000001f0: 8cc0 9cbc a19c 5ebc b9b9 013d a7e6 b5bd
00000200: 788e 5d3d 5185 1b3d d96d 31be 5fd1 13bc
00000210: 3a9e 29bd f187 d23c 6869 afbd 3805 683d
00000220: c922 4539 7e08 923d 0a78 063d 5fa5 933d
00000230: 806c 9a3c 6524 9d3d 6322 2bbd a429 a73d
00000240: da04 73bb 14ba 03bd 0adf 18bc 78c2 113d
00000250: 2aa5 e13c 98db 0cbe c088 e0bc d6d7 e53d
00000260: 78cb 4d3d 434b b0bb d2f5 db3c 28dd f03d
00000270: 2585 82bd 377b 9c3c 2e29 843d 5969 8abd
00000280: 654b 1f3d ba3b d8bd be9f 893d 6a0b d0bd
00000290: ebc7 3bbc b01d f4bc 8c9d a6bd 5e37 e73d
000002a0: f748 7bbd d24d 7dbc 19da 7abd bbee 6f3a
000002b0: d9a9 b6bd 865b 023c e9f6 5d3c 12d7 4b3d
000002c0: 0b07 46be 6863 213d d8ac 723d cf75 153d
000002d0: 8c25 62bd 9952 bb3b ab3b 2239 275e 90bd
000002e0: 4580 86bd f147 56bd 20e3 8e3d 817e 7ebd
000002f0: d3eb dc3c cc03 8e3d fdd1 ba3c fc78 743d
00000300: 9253 3c3c d236 89bc d5a9 e23c d891 72bd
00000310: 5262 803a 7641 98bc 3d27 4ebc 4722 b33b
00000320: 53cb e2bd 6c49 83bd de6b d1bd 42f9 ed3c
00000330: d195 7c3d 9985 41bc bf39 f73d a524 38bd
00000340: c6dd 253e b778 a9bd 5978 c1bc 7095 5d3d
00000350: 17a8 053d c511 20be f1da 30be 1d02 b5ba
00000360: 1ca0 50bd 7dda 1d3d ac14 eebc 8dc1 b03d
00000370: da46 6cbc 33eb 3e3d c496 f0bc 4390 e83b
00000380: 1551 903c 9550 ee3d 44f1 a4bc 30ae 8a3e
00000390: deae e53d c81f bbbc c15f edbc 81d2 863e
000003a0: ffd1 a8bd ea22 2ebd 2d1e 303e 72e4 3f3c
000003b0: 83b0 65bd 7600 30bd f5e8 ac3d 8cea 923d
000003c0: ad26 81bc 6748 2dbd 5dac 2bbe 9004 4ebd
000003d0: 2c1a cebd 5c81 8f3c 74d0 b63d be91 8a3d
000003e0: f536 973d 8dda 1a3e 8340 d0bc e5f9 8b3c
000003f0: 24ab 1f3d a027 89bd e21e 343d 8569 cabd
-0.042855542 -0.1382979 0.008170852 -0.012669769 -0.12797512 0.09229346 0.08168229 -0.035718303
-0.012021011 0.036248486 0.08351411 -0.035525527 -0.005285206 0.13692756 0.0062258453 0.09609913
0.018976063 0.059962217 0.033760846 0.029508159 0.101251006 0.043157946 -0.09280055 0.02406262
-0.06931428 -0.0044480152 -0.0026995812 0.028234733 0.038100548 0.010539725 0.02242042 -0.082353584
-0.05679193 0.02950199 -0.002408773 0.109326296 0.07394934 -0.048916344 0.044546224 0.01122335
-0.0069997082 -0.0021418664 0.09474313 0.01985072 -0.034841966 0.0016324411 0.0527442 -0.0066758157
0.07846614 -0.028350338 0.06852654 -0.09760835 -0.015342253 -0.029772684 -0.029512217 -0.16273476
-0.06314798 0.0378159 0.071062215 0.030626303 -0.036265664 0.051424455 0.03591541 0.06814989
0.04627144 0.10536507 -0.118439004 0.019958958 0.05700959 -0.03180534 0.03818411 0.0018661474
0.018507423 0.10866424 0.0005197131 -0.022200827 0.0060414704 -0.09997041 0.033371426 -0.057479374
0.111237235 0.05470969 -0.004223081 0.095636494 0.020659877 -0.102655135 -0.1257018 -0.00549174
-0.021468015 -0.05583416 0.010814509 -0.04726457 0.05715116 0.05289248 -0.025665311 -0.04713189
-0.005821659 0.07795423 0.031955898 -0.048951212 -0.04071368 -0.049745567 -0.07610041 -0.024901476
-0.0029297725 0.00037614972 -0.017912047 0.009706941 0.084974565 -0.0015033297 0.048924558 -0.049417477
0.09132161 -0.080939114 -0.12847531 0.14427002 -0.07513295 -0.104142494 -0.059310216 0.025566062
0.037519094 -0.023921661 -0.07786617 0.11682106 -0.019134782 -0.013587148 0.03167126 -0.08881884
0.054090947 0.037968937 -0.1732706 -0.009022086 -0.041410662 0.025699588 -0.085650265 0.056645602
0.00018800343 0.07130526 0.032829322 0.072092764 0.018850565 0.07672957 -0.04178084 0.08162239
-0.003708175 -0.03215988 -0.00933052 0.03558585 0.027544577 -0.13755643 -0.027408957 0.11222808
0.05024287 -0.0053800656 0.026850615 0.11760932 -0.063730516 0.019101722 0.06453167 -0.06758375
0.03889026 -0.10558267 0.067199215 -0.10158427 -0.011461238 -0.029799312 -0.081355184 0.11289857
-0.06134888 -0.015460448 -0.06124315 0.00091527 -0.089191146 0.007956391 0.0135476375 0.049765654
-0.19338624 0.03940144 0.059246868 0.036489304 -0.05521159 0.0057166335 0.00015471752 -0.07049208
-0.06567434 -0.052314702 0.069769144 -0.062132362 0.026967919 0.06934318 0.022805208 0.059685692
0.011494534 -0.016749773 0.027668873 -0.05922112 0.0009794927 -0.018585902 -0.012582597 0.0054667327
-0.11073937 -0.064104885 -0.10225652 0.02904952 0.061666314 -0.011811637 0.12071561 -0.044956822
0.16197881 -0.08274978 -0.023616957 0.054097593 0.032631006 -0.15631779 -0.1727102 -0.0013809834
-0.050933942 0.038538445 -0.029062591 0.08630667 -0.014421189 0.046611022 -0.029368766 0.0070972755
0.017616788 0.116364636 -0.020134576 0.2708602 0.11214994 -0.022842303 -0.028976323 0.26332477
-0.082431786 -0.042513765 0.17199011 0.01171218 -0.056076538 -0.04296919 0.084428705 0.071736425
-0.015765512 -0.042305376 -0.1676497 -0.05029732 -0.10063586 0.017517738 0.08926478 0.06766079
0.07383529 0.15122433 -0.025421387 0.017086932 0.03898157 -0.06697011 0.043974765 -0.098834075

network_body.observation_encoder.processors.0.conv_layers.2.bias f4 [32]
00000000: 90d8 d7bc 74af a8bb c268 9dbd 6276 b8bc
00000010: 1352 3f3d fb3b 08bd 8956 103c f79d 5abc
00000020: de33 32bd 0432 b33c bf8d 2f3c 6816 9f3c
00000030: a854 90bd acc6 9abc ccab 343c 4db2 a53c
00000040: a532 04bd ee99 cb3c 23ae 2cbc c693 073d
00000050: 9cba 123d 8d50 01bc 9af7 1e3d 9b00 913c
00000060: 8034 e53b 0ed4 0abd 6a2c d43c 6406 22bd
00000070: 0dc7 4ebd 83d3 de3c 7ab1 46bd e982 59bc
-0.026348382 -0.005147869 -0.076859966 -0.022517387 0.04670913 -0.033260327 0.008809694 -0.013343326
-0.043506496 0.021874435 0.010714947 0.019419864 -0.07047397 -0.018893562 0.011027288 0.020226622
-0.03227486 0.024853673 -0.010539564 0.033099912 0.035822496 -0.00789274 0.03881035 0.017700484
0.006994784 -0.033893637 0.025900085 -0.039556876 -0.0504828 0.027200466 -0.0485091 -0.01327584

network_body.observation_encoder.processors.0.dense.0.weight f4 [128, 512]
00000000: da62 54ba 90bd 12bb 8534 913d 1c28 5cbe
00000010: d075 633d 4588 5ebc adde 1bbe 21e2 063c
00000020: dc0a 37bd a867 093e 2cd3 93bc 3277 753d
00000030: fa46 32bd df6b c0bd 387d dbbd 784d d93c
00000040: 1908 653d 2610 273c 9fb0 093e 221c acbd
00000050: cdec 8d3c 0d1a 0fbd f2f5 c13d e3cf 1ebd
00000060: 4b2f 5ebb 504b 49bd 4d5e 123d 7517 06bd
00000070: 24be 383e 9913 da3d 5a8d c63b 5c31 063d
00000080: 8d5e 36bd b0b6 b1bd 979d 033c 6063 32bb
00000090: 10af 37bc 048c 193d 65f2 42be 9c13 193e
000000a0: bbab d93d a9aa e53d ed6a 003d 999e 813d
000000b0: 2a06 11bc 3148 d8bb 4f5a af3d 0cd9 a43d
000000c0: 56a6 073d 8202 3abd 9594 913d d24b 4e3d
000000d0: 17e2 4d3c 0679 de3c faf5 21bd 5016 a8bd
000000e0: b04e 1bbd aedb 583d d0d0 263d 9484 903c
000000f0: 0dbe 95bd 6312 14be 862b 683c 7c1c 41bd
00000100: 4195 ebbd 7b1f 863c 516f d5bc ecfa c3bd
00000110: d439 d83a 7ba0 b6bc 26a3 29bd 85ac a0bd
00000120: 11bd c23b f184 06bc 97df 18bd 26dc 993b
00000130: 93cf e5bd 868d 09be 1fc1 6b3b 1f19 483d
00000140: ff6e 673c 154d abbd e9a1 aa3d 039b c33a
00000150: 6e4d 213d 9ed2 3e3d 3ff9 1e3e 642a 833c
00000160: c468 a1bd 6fbb d9bd 5832 02bd 2abc 393c
00000170: 2585 353c 2efe 4abd 17ac 9dbc 8177 053d
00000180: 0cc1 0bbe 802c 6dbd 452b 053d ffd2 aa3c
00000190: 51b8 ed3a 267a 363d 40fe 2ebd 705a 7cbd
000001a0: 1dee 0e3e bf14 923d 699e 6ebd db7e adbd
000001b0: b538 cf3c 9332 47bd c627 8c3c d3ee e33a
000001c0: 1729 bdbd d199 d53d 4328 4f3e 8ff3 9b3d
000001d0: a594 1abe 29bb a83d 473d 4e3d 888f d8bd
000001e0: e296 80bd cf2a 8fbb d472 d73d 4fa2 0e3d
000001f0: 4dcf cf3c aa74 163d 3f0e b9bb bae3 293c
00000200: 0f9b 18bd 5754 b13a 811b 973b 3c25 403c
00000210: ea87 98bc a6b8 f9b9 b595 b8bd ce30 b0bd
00000220: 064a 30bc 834f 343c 7a50 2fbc 6afd 02bd
00000230: 85ae fb3c 58b9 453d 8a6d efbd 22c6 973c
00000240: 991b ca3c be19 e03c ee68 15bc 1806 5abe
00000250: b77b 6e3d 1965 0b3d 613e 19be 3c7a c1bc
00000260: 7839 a73c c040 ebbd 4bdb d53c d550 35be
00000270: da87 d23c 2db9 efbc d398 2abe 8855 c7bc
00000280: 27fb fa3d d2bd bebd afdd 78bb 63ed 393c
00000290: 8b3e 95bd 9888 35bd afa5 6c3d 5e54 dbbc
000002a0: 01b1 093e 8f4b 0cb9 d57d debd d47f debd
000002b0: 8f0f 603d 478c 34bd d500 d23c 3caf bb3d
000002c0: 32ce 843b bf36 b9bd e450 0f3d e58f a93d
000002d0: d905 9f3d 7168 233e 8b78 e03d af6c 03bd
000002e0: 0ec7 9b3c 1266 67bd 0178 253e c971 1ebb
000002f0: c2b6 9ebc 254c b33c bb7d b33d ccb1 9dbd
00000300: 46ae 3b3d 0c77 3c3c 1c7f 333d 4df4 7dbd
00000310: a695 d03d 39dc 6ebd d944 2bbd ec98 673b
00000320: 2f3c 9c3b cb23 fd3c 6c4c 16bd eb79 9bbd
00000330: e9ca 833a 0ef3 0d3e bc12 9cbc 401c 363d
00000340: 8c9f 7e3b 1262 c4bc b54a b6bd c3f6 b4bd
00000350: 15fd d1bb 820a 803d 0c99 9f3c 2a01 10bd
00000360: e751 18be 3af4 21bd 9772 e13c de7f 9d3c
00000370: 8c8f 3abd 303e 03be 87f6 a0bd 7f64 c6bd
00000380: f423 c9bb 90f0 a53d 1b1c dbbb e76f 3cbd
00000390: 17ee 0bbb 21bd 06be 1d7a 013e 46e0 9ebd
000003a0: 98a6 a8bd aa7d 82bb 73b6 c1bc 9635 93bd
000003b0: b750 0c3e e80c f53c a41b 5fbd 50a5 d83c
000003c0: d9c7 f33d 986f 96bd fed0 c83c 6893 57bd
000003d0: a305 8fbd 124b 67bc a595 a73b 10e9 aebd
000003e0: bbba ff3c 2cf2 04bb 8d6e e53d 9af6 99bd
000003f0: 0de1 bf3d b52c 5fbd a732 8e3d e11b 3fbe
-0.0008101888 -0.002239082 0.070900954 -0.21499676 0.055532277 -0.013582294 -0.15221663 0.008232624
-0.04468809 0.13418448 -0.01804503 0.059928127 -0.04352472 -0.09395575 -0.10717243 0.026526198
0.055915926 0.010196721 0.13446282 -0.084038034 0.01732483 -0.034936953 0.094707385 -0.038772475
-0.00339027 -0.04914409 0.035734463 -0.032737214 0.18041283 0.10648269 0.006059331 0.032761917
-0.044523764 -0.08677423 0.008033178 -0.0027219877 -0.011211172 0.037487045 -0.19037779 0.14948887
0.10628458 0.112141915 0.031351972 0.06329078 -0.008851567 -0.0066004028 0.08562147 0.08049211
0.033117615 -0.045412548 0.07108418 0.050365277 0.012566111 0.027157318 -0.039541222 -0.08207381
-0.03791684 0.052943878 0.040726483 0.017641343 -0.0731164 -0.14460139 0.014170533 -0.047146305
-0.11503077 0.016372433 -0.026054056 -0.09569344 0.0016496726 -0.02229332 -0.041415356 -0.078454055
0.0059429486 -0.008210407 -0.037322607 0.004695433 -0.11221232 -0.13432893 0.0035973263 0.048852082
0.014125585 -0.083643116 0.08331663 0.0014923516 0.039380483 0.04658758 0.15524767 0.016011424
-0.078813106 -0.10631453 -0.031786293 0.011336366 0.011079107 -0.04955881 -0.019247098 0.03258467
-0.1364786 -0.057903767 0.03251197 0.020852564 0.0018136596 0.044550084 -0.04272294 -0.061609685
0.1395802 0.07132863 -0.05825654 -0.084714614 0.025295595 -0.048632216 0.01710881 0.0017389901
-0.09236353 0.10429729 0.20230202 0.076148145 -0.15095766 0.08238823 0.050351407 -0.105742514
-0.062787786 -0.004369117 0.105199486 0.03482276 0.025367403 0.036732353 -0.00564745 0.010369236
-0.03725725 0.0013529164 0.004611433 0.011727627 -0.018619496 -0.00047630555 -0.09012929 -0.08603059
-0.010759836 0.011005285 -0.010700339 -0.031979956 0.030722866 0.04827246 -0.11690815 0.018527094
0.024671363 0.027356025 -0.0091192555 -0.21291387 0.058223452 0.03403196 -0.14965202 -0.023617856
0.020413145 -0.114869595 0.026105544 -0.17706616 0.025699545 -0.029263103 -0.1665986 -0.024332777
0.12254935 -0.09313549 -0.003797393 0.011348101 -0.0728732 -0.04431972 0.057775196 -0.026773628
0.13446428 -0.00013379588 -0.10863844 -0.10864225 0.054702338 -0.04407909 0.025635162 0.09164283
0.0040529007 -0.09043645 0.034989253 0.08279399 0.07764787 0.1595781 0.10960492 -0.03208607
0.019015815 -0.056493826 0.16159059 -0.0024176708 -0.019374255 0.021886894 0.087642156 -0.07699928
0.045820497 0.011502992 0.043822393 -0.06200056 0.10184793 -0.05831549 -0.041813705 0.0035338951
0.0047679166 0.030900856 -0.036693975 -0.075916134 0.0010054979 0.1386225 -0.019051902 0.044460535
0.0038852422 -0.023972545 -0.08900968 -0.088361286 -0.0064083436 0.06252004 0.019482158 -0.03515736
-0.14874993 -0.039539553 0.027520461 0.01922601 -0.045547053 -0.12816691 -0.07859521 -0.09687137
-0.006138319 0.08102524 -0.0066867 -0.046005156 -0.002135163 -0.13158084 0.12644239 -0.077576205
-0.082349 -0.0039822655 -0.023646569 -0.07187955 0.13702665 0.02991338 -0.05446972 0.026446015
0.11903352 -0.073455036 0.024513718 -0.052630812 -0.06983497 -0.014117019 0.0051142746 -0.08540547
0.03121697 -0.0020285947 0.112027265 -0.07517739 0.09369097 -0.054485995 0.06943255 -0.18662979

network_body.observation_encoder.processors.0.dense.0.bias f4 [128]
00000000: ee95 2dbd 3ef1 1c3c 3d4e ac3c 32dd 103c
00000010: 58e6 b3bc 9ed2 4f3c 292c 90bd 0abd 68bb
00000020: 7a12 043d 311b ed3c dd6a 3f3c cbad 123d
00000030: c712 d6bb a5d4 6bbc cdd7 fc3b 98b9 ad3b
00000040: 62fb 5a3d 4597 da3c 6724 0bbd 76d1 2bbd
00000050: d233 953c 596c 5b3c ec89 f53b 9a92 543c
00000060: bf3c 0cbd 533a e73c 932e dbbc 98bf 123d
00000070: e322 7d3c bcab 113d 750c ff3b 6e76 66bd
00000080: 477f d3bc 8359 953c 9c90 52bb 1da5 d83c
00000090: 18ec 75bc 4abb 843b 0328 b33c 68f2 233d
000000a0: 831f a43c 1e04 673b b541 2bbd 49e2 c5bc
000000b0: a915 d63c 173f 8cbc b39b de3c 309c 913c
000000c0: f287 bf3b 28b9 843b 1519 b13c e035 16bb
000000d0: 1373 cebc 471b 04bc 1afc 993c d1e7 933c
000000e0: d6af 3abd 2108 0a3c 9c1e 2cbd 8fee d03b
000000f0: 94e6 bf39 39b8 7e3c 2587 b63c 3884 043b
00000100: a558 f0bc cf79 bb3c 4998 a03c fe78 aa3c
00000110: f02b 0cbd cf5e 053d 9e6d 3c3c 92e5 d73c
00000120: 2154 e0bb 3adf 4abd 1275 4bbd 3634 023b
00000130: cc0c a4bc f9af 2c3c 163e 163d 0acd 213d
00000140: e2cf 273d b01d c13c 0f6c 17bb a22a a03c
00000150: 63c6 17bd 7a27 a13c b7c7 8d3c 2890 983c
00000160: 7a8b d93c 3ba6 dcba 1a3f 2dbb b228 013d
00000170: f31e 863c 10b0 aabb 0992 243d 869a 053d
00000180: 7eec fabc af9a fe3c 2ecc a7bc 0745 79bd
00000190: 8962 18bc 49a6 0abd f6c4 36bd 5036 0dbd
000001a0: 34c0 bf3c 8379 a2bc 6c7d 4e3c b270 24bd
000001b0: ed82 853a ecaa 393c 47f4 fa3c 8f82 95bc
000001c0: 10c3 77bd 4bf4 07bd 375a d13c c73e 00bc
000001d0: 68e6 883c ebcc 733c 8c17 91bc 4671 0c3d
000001e0: 8b52 a83b 8a05 ce3c 5c18 db3c 4519 a03c
000001f0: 8800 20bb 2f1b c03c c51b 003d a42a a7bd
-0.042379312 0.009579001 0.0210334 0.0088418 -0.021960422 0.012684492 -0.07039673 -0.0035513067
0.032244183 0.02894363 0.011683193 0.035810273 -0.006533 -0.01439396 0.007716155 0.0053016655
0.053462394 0.026683459 -0.033970263 -0.041947804 0.018213186 0.013392531 0.007493248 0.012974406
-0.03423762 0.028226053 -0.026755607 0.03582725 0.015450212 0.03556417 0.0077834674 -0.056265287
-0.025817527 0.01823116 -0.003212965 0.02644592 -0.015009902 0.004050647 0.021869665 0.0400261
0.020034557 0.0035250257 -0.04181071 -0.024155753 0.026133375 -0.017119927 0.027173853 0.017774671
0.0058450634 0.0040503927 0.021618405 -0.0022920296 -0.025201356 -0.008063144 0.01879697 0.018054875
-0.045577846 0.00842479 -0.04202138 0.0063760947 0.00036602153 0.015546852 0.022281239 0.002022041
-0.029339144 0.022885231 0.019603865 0.020809647 -0.03422159 0.03256112 0.011500744 0.026354585
-0.0068459664 -0.04952929 -0.049672194 0.0019867546 -0.020025633 0.010540002 0.036680304 0.03950218
0.040969737 0.023573726 -0.002310518 0.019551579 -0.03705443 0.019672144 0.017307146 0.018623427
0.026555765 -0.0016834209 -0.0026435317 0.03153295 0.01637218 -0.0052089766 0.040178332 0.03261807
-0.030630346 0.031079618 -0.020483103 -0.060856845 -0.009300836 -0.033849988 -0.04462143 -0.034475625
0.02340708 -0.019833332 0.012603145 -0.040146537 0.0010186114 0.011332255 0.030634059 -0.018250732
-0.06048876 -0.03319196 0.025555713 -0.007827467 0.016711429 0.014880399 -0.017711423 0.034287713
0.005136793 0.025149126 0.026745014 0.0195433 -0.002441438 0.023450462 0.031276483 -0.0816243

network_body._body_endoder.seq_layers.0.weight f4 [128, 128]
00000000: 9c45 28be b15b 75be c16a 873c f68b bc3c
00000010: 3902 64bd bf99 2f3e d7a8 2f3e ca55 fabc
00000020: 09f5 8c3d b616 8a3d d7f5 893d ad44 bdbd
00000030: 7e07 e43c 8d7f 933c 8ab0 8a3b 5f43 12be
00000040: 4546 68be fac5 63be 00a4 2b3e 6851 423d
00000050: e15b c33d 05b1 20be 6c31 213d 87d6 8cbc
00000060: 4bb7 cabd 222a 4abe 6bfc 27bd b1aa c2bc
00000070: 8b3e 673e b700 02be a893 dabd 0471 6bbd
00000080: f789 d4bc 3eaa b03c 08c3 f03d c4f0 ac3d
00000090: 0a20 663d 4d4b 24bd c730 02bd 2480 423b
000000a0: fbe0 26bc e58e ee3d eae9 33be 18d5 323e
000000b0: a941 41bd 8da2 34bd 096e 54be b64b 25be
000000c0: 47a3 0b3b edf4 9e3d 0b4e 013e 8cc4 d2bd
000000d0: 6d8c 2cbc 8f05 86bc 1730 603e 1cfc 86bd
000000e0: 0473 8d3d d9f1 31bb f0f1 acbc 9c65 d7bd
000000f0: 8558 40be 90be 853d 7632 ed3c ca33 413e
00000100: b043 aa3b 86d1 cdbd d350 70bd a5e4 fd3d
00000110: 5cc0 64bd 775d a0be 0bbe 36bd c4ca 05bd
00000120: 21ff 1bbe a282 a93d 613a 85bc e722 f0bd
00000130: d551 103e e8ad 643e e21a 8e3d 4420 b1bd
00000140: bd84 8dbc d2cd 11bd 1ae9 ebbc 9d76 8dbd
00000150: 925d 493d d94b 513d 21aa bc3d b0ca 213e
00000160: 0ff8 463d b4f1 163e 3a8d cdbc 0ecd 97be
00000170: 8440 113e 927d 813e dcdc 50be 7076 8d3e
00000180: a8e2 a2bc 059d a23c e3d1 0abe bfec f73d
00000190: 2edf ea3d 8691 6a3e 3609 8fbd e4e8 2cbe
000001a0: ad01 6dbc 2c50 9c3c cc64 cf3d 8da2 2b3e
000001b0: 3986 873d e5ec 323d 38d2 183e 7fc1 75bd
000001c0: b49a df3d d91d a5bd 7ae3 8f3d 065f d83d
000001d0: 3209 ad3e ad26 12bd 6c3c 71bd 06bf dfbc
000001e0: 7760 2cbd 9cdb 643d 5e73 35bc bc35 0fbd
000001f0: 4f83 643e 0575 533d 499c be3b 670d 513d
00000200: 4ee2 053e eaf2 78bc ccc8 b7bd f790 36bd
00000210: 5cbf 643d 2e36 8a3c 2e04 1f3c 4e47 02be
00000220: ae82 27be 3e3a 14be aa6c a8bb 4638 87be
00000230: 0f85 313d a5f2 663c b4d2 3d3c c354 01bb
00000240: 833c 18be b649 8fbe 6f51 0e3e 1286 d3bd
00000250: 84cf cebd bcd0 48bc b195 123b e4da 44bd
00000260: 10c3 eebd abab 3ebe 2176 f33d cf96 c7bc
00000270: a09d a7be 6384 2ebe 856b 18be b5e6 573d
00000280: 8ae2 d13d 0bca 25bc 7c4e 36be 6d9d 8fbe
00000290: 4225 da3d a4db 193e f408 de3c 2bf5 18be
000002a0: 293a 07be a6d4 08be ba68 4d3e d8a4 b03d
000002b0: a335 a0be 1afa 3e3e 30eb 32be 3c23 a6bd
000002c0: 1ff8 41bd af20 89be 2078 46be b8af 2fbd
000002d0: 1fd8 353d 2df1 983c a4e6 1fbe 5226 2c3c
000002e0: 0844 71be dcb1 8bbe 4ddb 99bd 82d6 5cbd
000002f0: 53dc 013c db67 88be b5fb 08be 50b7 7bbe
00000300: 5858 343d 2c91 1fbd 418a 37be cb6e 683d
00000310: 3faa a83c 4177 52be 62ca 0cbe 9b3f 80bd
00000320: 3401 73be a9d8 4bbe ce18 d53c 2e8a 28be
00000330: ba3a 72be c658 68be 96d0 51be 17b3 84bd
00000340: b014 d8bc 7a3b 92be 2bb5 393e 79df 40be
00000350: e7cb b1bd bf9f 3ebe c477 9fbb a65f c13c
00000360: c60d 74be f66e 06be eab8 23be bd5d 4ebe
00000370: 8181 53be add6 d7bd 506e 93be 25f5 6fbe
00000380: 4f40 7b3d 2af1 36bd 867e e63d 5015 073e
00000390: 3817 1b3e 635b 723e f565 3f3e 2d26 433d
000003a0: 72cc d7bd e6e0 b1bc a987 78bd ec39 3fbd
000003b0: ef97 4c3c a987 9dbd 12c8 42bd f124 35be
000003c0: a626 243d 7339 053c 33a6 adbd 6150 9cbd
000003d0: e05f ecbd 18a0 ddbd 0b56 ee3c a02a 05be
000003e0: e0b3 11be d5f3 cdbd 664c 0b3c 664f 7dbd
000003f0: c941 cabe 795e 49be 5900 bebd 8b98 213e
-0.16432804 -0.23960759 0.016530396 0.023015957 -0.055666182 0.17148493 0.17154251 -0.030558486
0.06882674 0.06742613 0.06736343 -0.092416145 0.027835604 0.018005157 0.004232471 -0.14283513
-0.22683056 -0.22243491 0.1676178 0.047440916 0.09539009 -0.15692528 0.039353773 -0.017192138
-0.098982416 -0.19742635 -0.04101221 -0.023763033 0.22582452 -0.12695585 -0.106726944 -0.057480827
-0.025944693 0.021565553 0.11755949 0.0844436 0.0561829 -0.040110875 -0.0317848 0.0029678429
-0.010185475 0.11648349 -0.175697 0.17464101 -0.04718176 -0.044100333 -0.207451 -0.16142163
0.0021307038 0.0776156 0.12627427 -0.102913946 -0.010531527 -0.016360072 0.21893345 -0.06591055
0.06906703 -0.002715221 -0.021111459 -0.10517427 -0.18783768 0.065304875 0.028954726 0.18867412
0.0051960573 -0.10049729 -0.05867083 0.12397126 -0.05584751 -0.31321308 -0.044614833 -0.032664075
-0.15234043 0.08276869 -0.016263189 -0.11725407 0.14093716 0.22331965 0.06938721 -0.08648732
-0.017275209 -0.035596676 -0.028797675 -0.06907389 0.0491615 0.051097725 0.09212137 0.15799975
0.04857641 0.1474064 -0.025091756 -0.29648632 0.14184767 0.25291115 -0.20396751 0.27629423
-0.019883469 0.019850263 -0.13556628 0.121057026 0.114683494 0.22907075 -0.06984179 -0.16885716
-0.014465732 0.019081198 0.10126647 0.16761227 0.06617398 0.04368295 0.14923942 -0.059998985
0.10918179 -0.080623336 0.070258096 0.10564999 0.33796078 -0.035681415 -0.058895513 -0.027312767
-0.042084184 0.0558735 -0.011074869 -0.034963354 0.22315715 0.05162527 0.0058169705 0.051038172
0.1307461 -0.015194634 -0.08973846 -0.044571843 0.055846557 0.016871538 0.009705586 -0.12722513
-0.16358444 -0.14475343 -0.005139907 -0.2641012 0.043339785 0.014095937 0.01158588 -0.001973436
-0.14866833 -0.27985924 0.13898252 -0.10328306 -0.10098174 -0.012256797 0.0022367055 -0.048060313
-0.11658299 -0.18620174 0.11887766 -0.024363903 -0.32737446 -0.17042689 -0.14884765 0.052710254
0.10248287 -0.010118972 -0.17803377 -0.28049794 0.106516376 0.15025192 0.027103879 -0.14937274
-0.1320578 -0.13362369 0.20059481 0.086251915 -0.31290922 0.18650094 -0.1747253 -0.08112189
-0.047355767 -0.26782748 -0.19381762 -0.042892188 0.044395562 0.01866969 -0.15615326 0.010507183
-0.23561108 -0.27284133 -0.075125314 -0.053915508 0.007926065 -0.26641735 -0.13377269 -0.24581647
0.044029564 -0.038956806 -0.17923833 0.056746285 0.020588992 -0.20553304 -0.13749078 -0.06262132
-0.23730928 -0.19906868 0.026012804 -0.16458961 -0.23655215 -0.22690114 -0.20489725 -0.06479471
-0.026377052 -0.28561002 0.18135516 -0.18835248 -0.086814694 -0.18615626 -0.004866572 0.023605179
-0.23833379 -0.13128266 -0.15988508 -0.20152946 -0.2065487 -0.10538993 -0.287951 -0.23433359
0.061340626 -0.044663586 0.11254601 0.13191724 0.15145576 0.23667674 0.18691237 0.04764383
-0.10537042 -0.021713685 -0.06067625 -0.046686098 0.012487396 -0.07691891 -0.047554083 -0.17689873
0.04007592 0.008131373 -0.084789656 -0.076325186 -0.11541724 -0.10821551 0.029093763 -0.13004541
-0.14228773 -0.10056273 0.0085021015 -0.0618433 -0.39503315 -0.19664945 -0.0927741 0.15780847

network_body._body_endoder.seq_layers.0.bias f4 [128]
00000000: 6490 493d 8fda 1cbe df28 003d a34a 99bd
00000010: 7f98 04be c70e c8bc 0eba e1bd 2192 b4bd
00000020: 0cf5 ddbd 59f9 863c ed03 01bd 69e5 1abe
00000030: 795e 67bd fccd a43b f09f 4abd 7387 88bd
00000040: d48b 52bc ac76 2c3d 293b 943c a491 c1bd
00000050: d588 88ba 980e 7a3d 3a54 bb3c 87f4 08bb
00000060: 902b f2bc 6668 91bd 7287 113d 2a8a e43c
00000070: 6ff2 2b3d 707e 863c 1f86 16bd fadc cb3c
00000080: 5eb2 133d 64cd 553d 2273 a6bd 20e3 0f3c
00000090: cb60 1f3d ef4b dabd 1060 2d3c 58a0 31bb
000000a0: 3271 b93c cedd 63bd 8a93 8abd 6e69 06bd
000000b0: f23d 8a3c 1313 2bbc 53ec 80bd 0ec2 93bc
000000c0: b891 a9bd 431f 1bbd 7d29 403d 24a7 153d
000000d0: 80e9 023d 767c e73c 2f1b 05bd 79fb cdbb
000000e0: 29a5 f9bd 5820 dfbc f523 123d 60d4 92bc
000000f0: d82e 39bc 0339 7abc fdeb 1a3d 746f 463d
00000100: 3fe5 613b b4ed dc3c 5da8 093d 3650 b63b
00000110: d778 053d 9893 02bc 6fb6 ff3c 351e 05be
00000120: 44dd d63c 6875 063d 89e3 1ebd 6c99 af3c
00000130: aa3b a6bd 29e5 16bc 4cfc 0abe bfc3 c5bd
00000140: 90dd bf3c 3a7e 0d3d bd6e e13c ebca 56bc
00000150: 7083 903c 739b 99bb 4ae2 fb3c 545a d93c
00000160: 3e13 393d fd4d 65ba 9c54 80bd fefe afbd
00000170: 0514 153d 2150 bfbd 214f 013c 9a38 3bbd
00000180: 591d c4bd be12 83bd f0ee 133d 2ed4 583d
00000190: a278 14bb 39a0 11be c5a1 8dbd a551 103d
000001a0: 8c62 49bc 2aff 0e3d a089 15bd 0e7b 0cbd
000001b0: 366b aabd 09bc e83c a4d0 1a3d 440d 36bd
000001c0: 87fd 84bd 704a ec3c 7389 d83c a8bf 053d
000001d0: 6d18 84bb 486c e83c c284 1f3d 5ce2 5c3c
000001e0: 55c7 95be ae8d a73c a009 08be c4df 143d
000001f0: 1840 8a3c d56d 55ba e4e9 17be bc20 91bd
0.049209967 -0.15317748 0.031288978 -0.07484939 -0.12948798 -0.024421109 -0.11021815 -0.088169344
-0.108377546 0.01647632 -0.031497885 -0.15126576 -0.05648658 0.005029438 -0.049468935 -0.0666646
-0.01285072 0.04210536 0.018094616 -0.09451607 -0.0010416756 0.061049074 0.02286731 -0.0020897703
-0.029561788 -0.070999905 0.03552956 0.027897913 0.04197925 0.016417712 -0.036749 0.024885643
0.036058776 0.05219783 -0.081274286 0.008782178 0.03891067 -0.106590144 0.010581985 -0.002710363
0.022636984 -0.05563145 -0.06766422 -0.03281539 0.016875241 -0.010441559 -0.06295075 -0.018036868
-0.08279747 -0.03787161 0.046914566 0.03653635 0.031960964 0.02825759 -0.032496627 -0.0062860814
-0.12189705 -0.027237102 0.035678823 -0.017923534 -0.011302672 -0.015272382 0.037822712 0.048446134
0.0034468917 0.026968814 0.03360783 0.005563761 0.032585945 -0.007969759 0.03121492 -0.12999804
0.026228555 0.03282681 -0.038791213 0.021435462 -0.08116849 -0.0092099095 -0.13572806 -0.09656476
0.023421079 0.034544207 0.027518624 -0.013109903 0.0176408 -0.0046877204 0.030747551 0.02653233
0.045184366 -0.0008747278 -0.06266138 -0.08593558 0.036396045 -0.09341455 0.007892401 -0.045708276
-0.0957591 -0.06400059 0.03611654 0.052936725 -0.002265491 -0.14221276 -0.06915621 0.035234112
-0.012291562 0.034911312 -0.036508203 -0.03429704 -0.0832123 0.028409975 0.03779663 -0.044446245
-0.06493669 0.028844088 0.026432728 0.03265348 -0.004031232 0.028371945 0.038944967 0.013481703
-0.2925364 0.0204533 -0.13284922 0.036346212 0.016876265 -0.00081416714 -0.14835316 -0.07086322

network_body._body_endoder.seq_layers.2.weight f4 [128, 128]
00000000: a804 f23b a8c5 393d fbb9 263d db1d 2dbe
00000010: 1ab4 723d 27a2 87bd 09bc 05be 8713 54be
00000020: ecbb 673e 64c0 a93d 1a8d c23c 9208 aa3c
00000030: 14dc 42bd fb80 3e3e 3989 763b 4d91 d5bd
00000040: a5c0 a7bd ba27 653d ddde f2bb 23b4 76be
00000050: 8482 d8bd b92e 2bbe 12b7 c7bc bd97 b23c
00000060: bd4d a13d ea43 51bc 2cfe e8bd 3f4b a0bc
00000070: 4bb8 eabd 841f cd3d ee1e d6bc 7371 543e
00000080: 0b0d 90be 7748 dd3c 1b96 583c 71f3 cc3d
00000090: f452 2fbe cb39 c63b b073 173c 5193 313e
000000a0: 369c d53d d76f 00bd 323d 34bd 4957 94bc
000000b0: 105b 60bc 8ed1 e03d 0be8 7dbe d981 2dbc
000000c0: 0892 69bc 3c1a 5dbd 2fef e33c 66ec e43d
000000d0: 1b78 f2bd 7ae3 1c3e ef35 563e 8f96 22be
000000e0: d749 e23c 3e55 df3c 59b9 9dbd 64e1 e13c
000000f0: 8ed0 f43d 6775 473d 41eb a13d 3335 7dbd
00000100: d02b 61bd d79a 4c3d cf6c 40bd 21e4 dcbd
00000110: 7af0 f63b 1d58 6a3e af26 8b3d cd1f 093d
00000120: e830 8b3d ab2d 2abe e0e3 4ebd 49bb 9f3d
00000130: 49ba 94bd a592 4c3b fc01 2bbb f41b b9bd
00000140: bad9 1dbb 0e16 dbbd f30d 2d3e fe89 c7bd
00000150: 9606 b23d 5762 62bd 1365 f83c 3242 1bbe
00000160: 45e7 a03d 55ec d23d c3e8 1fbe 2d0f 39bd
00000170: 2557 04bc c0c2 0cbd a85c bd3d 316e 06be
00000180: 20f2 75bd 0971 cd3c 9bf6 453d ee1d 7b3e
00000190: 7481 833d 01c0 b4bc b069 9cbd fd2f 503d
000001a0: 8947 5b3d 60e1 5abd 2fc4 61bc ae48 f1bc
000001b0: 0d6e 193c 45ec 2ebc 0d57 f53d 646e 04bc
000001c0: 77b5 8dbd 843b fc3d 8752 b53b 3ce6 1fbb
000001d0: 60b0 fcbc 4bc4 2fba e77a a3bd e887 493d
000001e0: 0c45 32bd d98c 3fba fce0 f23c f7f1 41bd
000001f0: d7cc a1bd 151d 883c e0f6 d13d f49c e9bc
00000200: eb3e 0b3d 0834 133c cd3a 853d fbb3 1dbe
00000210: 1bf9 cf3d 20c3 2dbd c66e 2abc 59fc 0dbe
00000220: 090f 30bd c4ee 933d ae25 ef3b c1ad 13bd
00000230: 5204 d0bc ab52 f9bd 4f20 b8bd e27b ba3d
00000240: 32c5 9d3d 13a2 92bd 5619 07be 9bcd 42bd
00000250: f678 cbbd dafb b33d 443a 0d3e 17e9 47bc
00000260: 0ccf 30bd c5e9 a6b9 b13f ec3d d770 543d
00000270: 90ee 12bc 9010 a2bd f0f7 bd3d 21ba eabc
00000280: ad22 b63d 32cc 2a3d cc24 093d db3a bfbd
00000290: cb6f 3e3d 273a 96bd 9f3e b7bd 1414 8e3d
000002a0: 025c 82bc d967 233d e173 74bc 5cef cc3d
000002b0: 88b1 95bd 7fd7 62bd c2ae ad3d 3e57 b9bd
000002c0: 8977 22bd c714 c1bd de84 a3bd 8443 15be
000002d0: c336 963c 2f67 db3d ddb6 02be 35db 9fbe
000002e0: 12e0 183e d803 05be c06a 803c 8334 ce3c
000002f0: 3afe d4bd 05e2 37bd 9754 6cbc f1d5 743e
00000300: 39e0 953d 40bf d0bc 2d63 e5bd 6ccc 58bc
00000310: 1526 833c 757f c93d 9e08 dcbd 0041 a2bc
00000320: 690a d4bd 271e 703d 3937 6938 3860 13bd
00000330: d054 05be 3d43 3ebe 7384 10be 08ca 8d3d
00000340: 4311 fdbd 88ed c33d 369c 3d3c b5a8 433e
00000350: de58 623e 57f4 15bd 364a e33d 6d29 103e
00000360: d700 493d 5fb2 a0bd 0e5d 213e 1e68 48be
00000370: 5a61 f93b d562 49bd 2d85 4bbe dc56 9abe
00000380: 4302 03be 4883 c63c 2b48 ca3d 94e2 c63d
00000390: ff84 b0bd 4427 083d ccb0 62bd 378d 9bbd
000003a0: 2ac4 77bc 14ec 023e fe32 953d 5df3 d53c
000003b0: 77a2 eebd 3663 f9bd adbe 6ebd ffc1 69bd
000003c0: 9654 ecbd 7a93 8ebd f253 e23d 4b39 33bd
000003d0: fbc0 213e 2853 2f3e a0bf 6abd 58b9 c63d
000003e0: ce5a b8bd 6dc8 1c3d 5cc8 cb3d 9e6f 7f3c
000003f0: 457a ec3d 1755 6ebd b2af 44be 28b2 49be
0.007385809 0.045354515 0.04070471 -0.1690592 0.05925379 -0.06622725 -0.13060011 -0.20710574
0.2263028 0.08288649 0.023748923 0.02075604 -0.047573164 0.1860389 0.0037618412 -0.104281045
-0.08191041 0.05594609 -0.0074118213 -0.24092154 -0.10571769 -0.16717042 -0.024379287 0.02180087
0.078761555 -0.01277254 -0.113766044 -0.01956713 -0.11460932 0.10015777 -0.026137795 0.20746402
-0.2813495 0.027012093 0.013219382 0.1000737 -0.17121488 0.00604937 0.009243891 0.17341353
0.104301855 -0.03135666 -0.044003673 -0.018108027 -0.013693586 0.109774694 -0.24795549 -0.01059004
-0.014256008 -0.053980097 0.027824013 0.11177902 -0.118393146 0.1532115 0.20919012 -0.15877746
0.0276231 0.027262326 -0.07701368 0.027573295 0.11953841 0.048695948 0.07906199 -0.061818313
-0.054973423 0.049952354 -0.046978768 -0.107857 0.0075359913 0.22885175 0.06794488 0.033477593
0.067964375 -0.16618983 -0.050510287 0.07799394 -0.072620936 0.0031215337 -0.0026093712 -0.09038535
-0.0024086074 -0.10697566 0.16899852 -0.09743117 0.086926624 -0.055269565 0.030321633 -0.1516197
0.07856611 0.10298983 -0.15616135 -0.04518049 -0.0080774175 -0.034365416 0.092461884 -0.13127972
-0.06004536 0.025078313 0.048330884 0.24523136 0.064211756 -0.02206421 -0.07637346 0.050827015
0.053535018 -0.05343759 -0.013779684 -0.029453602 0.009364617 -0.010676448 0.11979494 -0.00808296
-0.06919377 0.12316039 0.0055335197 -0.0024398705 -0.03084582 -0.000670497 -0.07982426 0.049201876
-0.04352288 -0.000730706 0.029648297 -0.047349896 -0.07900398 0.01661543 0.10252166 -0.028517224
0.03399555 0.008984573 0.06505356 -0.15400688 0.10154935 -0.042422414 -0.010402387 -0.13865794
-0.04298309 0.07223275 0.007298193 -0.036054377 -0.025392685 -0.12173971 -0.089905374 0.0910566
0.07703628 -0.071598195 -0.13193259 -0.047559362 -0.09935181 0.08788271 0.13791758 -0.012201569
-0.043166205 -0.0003183616 0.11535586 0.051865425 -0.008968011 -0.07913315 0.09275806 -0.028653206
0.08893333 0.041698642 0.033482358 -0.09337398 0.046493333 -0.073353104 -0.08947491 0.06937423
-0.015913013 0.03989396 -0.014920206 0.10006592 -0.07309252 -0.055381294 0.08480598 -0.09049843
-0.03966478 -0.09427791 -0.07984327 -0.14576536 0.01833666 0.1071304 -0.1276507 -0.3122193
0.14929226 -0.12989748 0.015675902 0.025171524 -0.10400052 -0.044893283 -0.014424465 0.23909737
0.07318158 -0.02548182 -0.11200557 -0.013232332 0.01600937 0.098387636 -0.10743831 -0.019806385
-0.10353548 0.058622506 5.560296e-05 -0.035980433 -0.13020635 -0.18580337 -0.14113025 0.069233
-0.12356808 0.0956679 0.011572888 0.19107325 0.22104213 -0.036609974 0.11098139 0.14078303
0.049073067 -0.078465216 0.15758154 -0.19570968 0.007610482 -0.04916652 -0.19875021 -0.30144393
-0.12793832 0.024232522 0.09877046 0.09711185 -0.08619117 0.03324057 -0.055344388 -0.07595294
-0.015122453 0.12785369 0.072851166 0.026117021 -0.116520815 -0.12177126 -0.05828731 -0.057069775
-0.11539571 -0.06961723 0.110511675 -0.04375581 0.15796272 0.17121565 -0.057311654 0.0970332
-0.090016946 0.03827708 0.09950325 0.015590576 0.115467586 -0.058186617 -0.19207647 -0.19696867

network_body._body_endoder.seq_layers.2.bias f4 [128]
00000000: ad96 e83b 16f6 d63b b1e9 b0bb fc22 7abb
00000010: 6e2b 2fbd a846 d33c beef 083b d828 913c
00000020: 04d1 963c 569e 1dbd 0e9b 69be 1d29 a23c
00000030: f4ee 96bd fffa d93b d624 08bd 9037 81bd
00000040: 0e29 24bd 8fa6 b93c df53 44be e79a df3b
00000050: ed13 61be 4d2d f1bd e406 fb3b 5f26 57bc
00000060: 9d95 26bd 35a2 e1bb cde6 30bd 6074 3fbe
00000070: 2e71 963b 644f 8c3b b163 88ba f8b3 46be
00000080: 73fb 5cbd 744d a03a e4cd 3ebe a977 cd3b
00000090: e5a7 05bb f88c d9bd 5838 36bc 0b8e f43b
000000a0: 7714 3ebd 935f 8cb8 8698 22bc 417c 67be
000000b0: c10c 62be d34a 3cbd 3a54 9c3c 050e 9bbc
000000c0: f4cb 96ba 58fa 1f3d 0e02 2fbe d281 2cbc
000000d0: bd99 cbbd 892b 17bd 1100 8d3c fbf5 66be
000000e0: d3c1 bcbc 46ed f0bb a84e febc ac51 1bbc
000000f0: 66a1 42bd 1bdc 4ebe 29d3 7bbd 207d 18bd
00000100: 9ef3 acbc 316b 67bb 8572 0a3b cc5b 483b
00000110: 4d57 36bd ffbb c7bc 7497 5bbe 7cd7 6e3c
00000120: 2225 503b 590f c43b 66a2 cbbd 2a8b 4dbe
00000130: 5489 33bd f53c f5bc 1ba2 893e eaba 08ba
00000140: d0ad f03b af17 61bd 3085 333b 1907 36bc
00000150: d869 e7bc 81ab 4fbe efdb 093c 8071 cebb
00000160: d920 0fbd 7f46 94bc 6b8c b9bd 4bc2 cfbd
00000170: 74e6 4b3c 3a25 74bd 872f 843c 0026 993c
00000180: f834 03bc 3b52 3c3c 1527 cf3b d835 5dbe
00000190: bf65 463b 896d 9bbb 1da1 1abd 0a14 c7bd
000001a0: 8c22 4f3c 83f3 86bd 174e fe3c 05d8 aebc
000001b0: b56d 08bd d696 29be ee77 91bc 8c67 863b
000001c0: c41a 13bb 9b68 4f3c c8cc 883c ccaf e93c
000001d0: c25d 973b ae8e 223c 5e46 19be 16ac 10be
000001e0: 78c6 bebd 7323 a53c 4449 ee3b 05de db39
000001f0: e99e 00bc 6bbf 3dbc 1ed0 a63c c0b2 803c
0.00709804 0.0065600974 -0.005398952 -0.0038167825 -0.042766027 0.025790527 0.002089485 0.017719671
0.018410213 -0.03848108 -0.22813055 0.019794995 -0.073697954 0.0066522355 -0.033238254 -0.06309426
-0.040078215 0.02266243 -0.1917262 0.0068238857 -0.21980257 -0.117762186 0.0076607335 -0.013131707
-0.040670026 -0.0068857917 -0.04318886 -0.18696737 0.004591129 0.004281925 -0.0010405687 -0.1940459
-0.05395074 0.0012230114 -0.18633229 0.006270368 -0.0020394262 -0.10622591 -0.011121832 0.007463222
-0.046406236 -6.693522e-05 -0.00992406 -0.22605993 -0.22075178 -0.045969795 0.019083131 -0.018927583
-0.0011504875 0.039057106 -0.17090628 -0.010528998 -0.099414326 -0.036906753 0.017211946 -0.22554772
-0.023041641 -0.007352504 -0.031043366 -0.009479921 -0.047517203 -0.20201151 -0.061480675 -0.037228703
-0.02111226 -0.0035311694 0.0021125388 0.0030572293 -0.04451685 -0.024381636 -0.21444494 0.014577743
0.0031760414 0.005983275 -0.099430844 -0.20072618 -0.04383214 -0.029936293 0.2688149 -0.00052158406
0.007344939 -0.054954227 0.0027392618 -0.011110091 -0.028248712 -0.20280267 0.008414253 -0.0063001513
-0.034943435 -0.018100021 -0.09059986 -0.1014448 0.012445081 -0.059605815 0.016135944 0.018694878
-0.008008234 0.011494215 0.0063217976 -0.21602571 0.0030273048 -0.004743282 -0.037751306 -0.09720619
0.012642514 -0.06589415 0.031043096 -0.02134324 -0.03330775 -0.16561446 -0.017757382 0.004101699
-0.0022446373 0.012659217 0.01669921 0.02852621 0.004619331 0.009921713 -0.14968249 -0.14128146
-0.09315199 0.020158505 0.0072719175 0.00041936352 -0.007850387 -0.011581282 0.02036291 0.015710235

action_model._continuous_distribution.log_sigma f4 [1, 3]
00000000: 8fa4 6cc0 9199 67c0 8f7b 52c0
-3.6975439 -3.618748 -3.2887914

action_model._continuous_distribution.mu.weight f4 [3, 128]
00000000: feb9 a5bc 4a1e 343c 00da e13a fb3a 71bd
00000010: 5e48 9abc 23c3 643a bf56 4d3b 155e 043c
00000020: 97ac 063d 7a31 0e3c 833b 58bb 60c4 ccbb
00000030: e9f2 40bc c59c d43a 5b2f 80bc 4e59 da3a
00000040: 8c23 edbc 2abe 7fbd 8386 8d3c 7ec5 16bd
00000050: fbdd 3ebc 9100 0f3d 852c fcbb 2090 bf3b
00000060: ed3f a6bc af38 c63b 320e 343c 9e61 cfbc
00000070: af52 003d cadd 83ba 192a 883c 4623 02bc
00000080: c278 8c3b 5c91 8439 0317 e9bb 0306 253d
00000090: 205b d2b8 9b59 98bb 8ec4 b6ba be41 943b
000000a0: 2709 ccbb 34ee 8bba a503 55bc f68b 5bbc
000000b0: dd44 893b b6da 463c 7f20 353c c777 2d3b
000000c0: da57 fa3c 8665 dd3a 593d aabc 5f4a 44bc
000000d0: 39f0 573c 9dae 353c 3717 24bc bc35 07bc
000000e0: 4d74 783a ec30 cf3c a707 2f3b 52c1 4cbb
000000f0: 3500 b43c bc0f 783c d217 c3bb e64f d4bb
00000100: 198f 48bc 6b96 923d f55b f4ba f4df 82bc
00000110: ba5f 2ebc 017c d4bc 3181 c93b 3194 8dbd
00000120: 02c4 ecbb d28e 16bb 0526 eb3b 8177 8c3a
00000130: 45ee 92ba 269c 8d3c d923 a8bb fdda 61bd
00000140: 5264 d33c eea5 88bc ca5a 35bd 7d38 0b3d
00000150: 34df 7cbb 1708 1b3b 224d 4dbc 602b 243c
00000160: e366 e43b eb74 373b 3676 78bc f918 8eb9
00000170: 1570 04bc 5bc1 cfba f255 183d 8394 f23c
00000180: a536 d33c cc40 4d3d ea1e b83c 6fd1 833b
00000190: 0303 75ba 92c0 963c e63b 473d c762 6ebc
000001a0: c08a 2c3d c93c acba b6a3 233d d26a 28ba
000001b0: eb5f d03b e8a4 fc3a 9149 b1bc 0ed5 3d3d
000001c0: 8b92 44bb d21d 42bb 02e0 ac3b 6b77 8fbc
000001d0: 8ca1 563b fa7a 79bd 7203 9a3a f129 543c
000001e0: 3f67 c3bc 05a6 133c 6fa5 b43b ea4d 853c
000001f0: 845c e5b8 5bd4 f03b 993c 3ebd 8583 153d
00000200: cf3f 3b3c 24ed f9bc 0cde 193b b926 bdbb
00000210: 4b27 923b 3661 ba39 5156 bd3a b526 3fbd
00000220: a766 4c3d ed71 fa3a c4e1 87bc 9efa 17bb
00000230: 1f3d ca3c cdb0 d13a e9a5 493c 6665 723b
00000240: 1454 493d d629 9c3c 3139 62bb db87 a2bc
00000250: 8742 17bc 8510 f1bb 9da5 a33c 87d1 5dba
00000260: 477d 9cbc 54aa 963b c7d1 793c 3763 0dba
00000270: fdd0 923c ea8c 9cbc 1379 21bc e369 f4bb
00000280: 6fa8 d53b d588 b23a 72ac ccbc 0c8a 2c3d
00000290: 7a78 0ebb 9fb7 463b 3467 1dba b7db f53a
000002a0: 6e2f 613c ee27 a6b9 4179 74bc 476e 1cbc
000002b0: 06bb 6abb ef7e c9bc ea74 25bd b870 993c
000002c0: 4c1e d8bc 634c 5d3c d44d 7bbb 8c44 33bb
000002d0: cd29 293c 57c5 1c3b d57d 993d 36f6 82bc
000002e0: aeac ebb9 063b 29bd 817d 05bb b3a0 093b
000002f0: fbb3 c2bb f107 4b3b a76b 04bd b2bc 42bc
00000300: dd56 ef39 faff ae3c 0ad4 bcbb d2e9 ba3c
00000310: 666e feba b7fa b63c c35c debc 2201 563d
00000320: 9c3e a9bb 7532 3d3b e4b8 b73c e2a0 a3bb
00000330: c56f 14bb 5e41 f7bc 1b67 e43a d44f 9abc
00000340: c8ef d83c c2b7 c63c 23c0 723b fc02 b1bc
00000350: b027 e9bc 24d9 53bb 85bf 7bbc fce2 86bd
00000360: 1ecd fabc f4ad ef3a 1a96 8f3c 81fe 233c
00000370: 99ca fe3a d479 04b9 059a 15bc 812f c43c
00000380: 04b0 ddbc 4c4d 69bc 793e f33c a6d9 3fbc
00000390: a572 95bd c422 9abb 66fa e83c ae5e a7bc
000003a0: 1131 503d 79a5 5dbc 47c9 543d 9579 023c
000003b0: f3e7 6bbb d626 10bc 6329 aa3c 9ae1 823c
000003c0: 6a61 a53a d5a9 8d3b fc53 503c 0ad0 dd3c
000003d0: a6d0 903b b7b8 533d 952e 8fbc 4a61 87bc
000003e0: ece9 c03b 1a1e 4abb 475d 2ebd 8ade d2bb
000003f0: 82a1 4abb 16c0 593c 848c 8cbd ffe6 38bc
-0.02023029 0.01099355 0.0017231107 -0.05889414 -0.018833335 0.00087265874 0.0031332222 0.0080790715
0.03287944 0.008678788 -0.0032994456 -0.0062489957 -0.011776664 0.0016221037 -0.01564758 0.0016658695
-0.028947614 -0.062437214 0.017276054 -0.036809437 -0.011649604 0.03491265 -0.007695737 0.0058460385
-0.020294154 0.0060492377 0.010989713 -0.025315102 0.031328853 -0.0010060605 0.016621636 -0.00794298
0.0042868564 0.00025285303 -0.007113339 0.040288936 -0.00010030554 -0.0046493537 -0.0013944076 0.0045244386
-0.006226677 -0.0010675848 -0.013001357 -0.0134000685 0.0041891173 0.012137106 0.011055111 0.0026469098
0.030559469 0.0016891218 -0.020781206 -0.011980622 0.013179832 0.011088994 -0.0100153005 -0.008252557
0.00094777794 0.025291882 0.0026707442 -0.0031243158 0.021972755 0.01514047 -0.0059537673 -0.006479251
-0.012241148 0.07157596 -0.0018643128 -0.01597593 -0.01064294 -0.025938036 0.006149434 -0.06913031
-0.0072255144 -0.002297331 0.007176163 0.0010716767 -0.0011209926 0.017286371 -0.0051312265 -0.055140484
0.025804672 -0.016680684 -0.044276036 0.03398942 -0.0038585188 0.0023655945 -0.012530597 0.010020107
0.006970273 0.0027993273 -0.015164902 -0.00027102957 -0.008083363 -0.0015850471 0.03719134 0.029611832
0.025782892 0.050110623 0.022475678 0.004022769 -0.0009346457 0.018402372 0.048641108 -0.014549918
0.04212451 -0.0013140674 0.03995105 -0.0006424609 0.0063590906 0.001927522 -0.021641525 0.046345763
-0.0029994573 -0.0029619825 0.0052757272 -0.017512998 0.0032750098 -0.060908295 0.0011750294 0.012949453
-0.023852943 0.00901175 0.0055128853 0.016272504 -0.00010936803 0.0073495335 -0.04644451 0.03650238
0.011428787 -0.030508585 0.0023478298 -0.0057724384 0.0044602505 0.00035549112 0.001444528 -0.046667773
0.049902584 0.0019107439 -0.016587146 -0.002319015 0.024687348 0.0015998125 0.0123076225 0.0036986708
0.04915245 0.019062918 -0.0034518952 -0.019840172 -0.00923217 -0.0073567056 0.019976432 -0.0008461703
-0.019102706 0.0045979414 0.015247769 -0.00053935073 0.017921919 -0.019110162 -0.0098555265 -0.0074589117
0.006520323 0.0013621101 -0.024984572 0.04212384 -0.002173929 0.003032185 -0.0006004453 0.0018757497
0.013744218 -0.00031691737 -0.014921487 -0.009547777 -0.003581704 -0.02459666 -0.0403947 0.018730506
-0.026381634 0.013506982 -0.003834595 -0.002735409 0.0103249075 0.0023921335 0.07494704 -0.015986543
-0.0004495135 -0.041316055 -0.0020368996 0.0021000325 -0.0059418655 0.0030980075 -0.032329228 -0.011885809
0.0004565035 0.021362294 -0.0057625817 0.022816572 -0.0019411563 0.022336347 -0.027143842 0.052247174
-0.0051649343 0.0028869186 0.02242703 -0.004993544 -0.0022649628 -0.030182537 0.0017425747 -0.018836893
0.026481524 0.024257544 0.0037040792 -0.021607868 -0.028461307 -0.003232547 -0.015365486 -0.065862626
-0.030615386 0.0018286095 0.017527629 0.010009409 0.0019439041 -0.00012633885 -0.009130959 0.023948433
-0.02706147 -0.01423962 0.029692875 -0.011709606 -0.07297257 -0.0047038514 0.028439712 -0.020430889
0.050828043 -0.013528221 0.051949766 0.007963558 -0.0035996407 -0.008798322 0.020771688 0.015976716
0.0012617533 0.004323224 0.012715336 0.02707674 0.004419404 0.05168983 -0.017478267 -0.016525883
0.0058872607 -0.0030840696 -0.042569425 -0.00643522 -0.003091902 0.013290426 -0.06862739 -0.0112855425

action_model._continuous_distribution.mu.bias f4 [3]
00000000: 5afb 04bb c189 5e3c f712 7f3d
-0.0020291419 0.013582648 0.062273946
