CS455_PR1/results/ShootTargetAgent_T2/ShootTargetAgent/ShootTargetAgent-32956.onnx (onnx, 490788 bytes, 18 tensors)

discrete_act_size_vector f4 [1, 2]
00000000: 0000 4842 0000 4842
50.0 50.0

network_body.observation_encoder.processors.0.conv_layers.0.weight f4 [16, 1, 8, 8]
00000000: 5967 d5bd 9472 84bd 98e9 b63d 90ad e43c
00000010: 9050 ab3d 5e0e 7ebd c609 883d 44be 033d
00000020: f002 73bc b869 4fbd 3e28 be3d 0c2f d13d
00000030: 68a6 ba3d 7483 303d 9652 8d3d cfa0 90bd
00000040: cccd aa3d 04bb 823d f4b5 473d 3045 f23d
00000050: 0058 853a 9244 88bd 64e6 803d 9cae 67bd
00000060: 0ed4 bebd 7c82 b13d e2a0 c5bd dea7 ba3d
00000070: 8cd2 c3bc a0a0 4fbc cc6e c83d 5069 debd
00000080: a02a c13d af58 96bd 0cd3 f3bd 2044 b73b
00000090: 5a07 cc3d b075 bd3c 506f df3c a613 8ebd
000000a0: 16a7 db3d 2ed6 d23d 6b1a dbbd e05a 58bd
000000b0: 70e0 a73d 4483 e53d ac6a d4bc f877 aa3d
000000c0: cc83 5b3d ee3d f1bd 3b54 97bd 72cc be3d
000000d0: 646a 313d e456 ee3d 8864 55bd 1855 a03d
000000e0: d2ed 2ebd fc0f 633d dcf6 8ebd d870 ef3d
000000f0: 6864 8bbd 9cd4 f93d a441 39bd c898 373d
00000100: 3805 513d e6a5 b8bd bc8d 633d 302e cf3c
00000110: f821 69bc ce6e cc3d c03a 8b3d 885f f23d
00000120: 466a d5bd 38f0 78bd 6c8a d73d 9a8c a53d
00000130: 48ca 0dbd 9144 dcbd a0b7 55bc e00a 843b
00000140: c068 ae3b 848d 703d 5c51 cdbd 6a8d f63d
00000150: e2d1 bf3d 279c a6bd ac45 2bbd 3467 703d
00000160: 74a5 b1bc a8b7 bdbd 61e4 f4bd cbad d8bd
00000170: 1c30 933d 88dd fb3c 80d3 48bd b9a3 e0bd
00000180: 94be cabd c642 de3d e801 84bc 7c47 96bc
00000190: 28de a3bc e0be 603d f377 e7bd efba 90bd
000001a0: fc26 1b3d a06c 29bc 84d6 1ebd 0017 b73c
000001b0: 60b3 bc3c b060 973c 5edb adbd e086 a6bb
000001c0: 00d9 303d 9d0b 97bd 5019 7d3c c8e2 e1bc
000001d0: d41b da3d 3c4a 633d e643 45bd d894 cbbd
000001e0: 0080 b33b d873 1f3d 0630 f83d 3410 9a3d
000001f0: 18ce 663d 9777 cebd c088 463b f8f7 3e3d
00000200: 90df 83bd b087 68bd 0aff bb3d d8a1 c03d
00000210: 3c8b 953d 5c58 f23d c8d7 113d 0863 02bc
00000220: b0ef c43d eabd e43d b8bc c63c fc70 6f3d
00000230: f015 c63c b873 ba3c b8e7 efbc 7410 6c3d
00000240: 8814 273d c048 723c f825 cb3d c63d 873d
00000250: 9e6d 9c3d e6fe 813d c826 4abd 5276 30bd
00000260: 6cc3 983d b8fd 753d dc66 893d 4094 ddbc
00000270: 7db7 96bd bcd7 893d 5f8a 8bbd 8d51 91bd
00000280: 7407 2f3d c0b8 1f3b 6e2a a2bd f644 be3d
00000290: 4822 3f3d 2bae bbbd f0da bb3d dca2 6c3d
000002a0: 3030 ddbd 0f5f ddbd 2bda b4bd 343c ca3d
000002b0: d8b8 e23c b0fd 17bd 2ed1 abbd f8b2 a23c
000002c0: 8fe1 dbbd 7051 9c3d 4682 93bd e8f0 07bc
000002d0: 940f 3abd 624d eebd cee3 fe3d 2a25 aa3d
000002e0: 8248 a73d 00ab 35bb 4cee 57bd e47d 09bd
000002f0: ac4d f83d 6996 fabd fc0b fdbc 4e35 a7bd
00000300: 00f0 7d39 b623 69bd ef04 ffbd 2037 7d3d
00000310: d853 483d 082b a73d 78e8 cfbc b8dd b53c
00000320: a669 a03d 3871 9dbd 9012 f13c 82ce 4fbd
00000330: d496 ad3d 5c7a 8a3d 88eb 45bc 148a 4b3d
00000340: 9a3a 9fbd 8ec0 a43d 245d 0a3d 484c a23d
00000350: d82b e73d a0b5 823b 3623 8a3d b036 cebb
00000360: e0a3 133c 2e2d e1bd 2829 d53d 78a7 8f3c
00000370: fe3c 9ebd ead6 a23d d0eb 3d3c 4e43 913d
00000380: 76df 1bbd c2e4 9d3d cc15 a73d 990a d7bd
00000390: 6ed1 37bd 1e51 9dbd 0d3f c7bd 009b 423d
000003a0: 800c 9dbc 98d8 bf3d 42f5 fd3d 0c3b 87bd
000003b0: 6c28 2dbd a072 4abd 7613 3dbd 80af a8bd
000003c0: c03a 9d3d 807c 913b a081 1a3d 88dc 7dbc
000003d0: e01f 3a3c 49ab e3bd 40ed 153d 4083 5c3c
000003e0: 8008 9c3b 1f00 8fbd 00ce 90bd 7832 233d
000003f0: 84c3 053d ba26 a2bd 1517 d3bd 5e15 9ebd
-0.104201026 -0.064671665 0.08931273 0.027914792 0.083649755 -0.06202542 0.06642489 0.032163873
-0.014832243 -0.05063793 0.09285019 0.102140516 0.09113771 0.043094113 0.06900518 -0.07061922
0.08340034 0.06383327 0.04875751 0.11829603 0.0010173321 -0.06653704 0.062939435 -0.056563005
-0.0931779 0.08667466 -0.096498266 0.091140494 -0.023904108 -0.012672573 0.09786758 -0.108599305
0.09431958 -0.07341134 -0.11905488 0.005592838 0.0996234 0.023127407 0.027274758 -0.069373414
0.107252285 0.10294758 -0.10698398 -0.05282104 0.08197105 0.112066776 -0.025929771 0.083236635
0.05359249 -0.1177939 -0.073891126 0.093163386 0.043314353 0.11637667 -0.052097827 0.0782873
-0.042707272 0.055435166 -0.069806784 0.11691445 -0.0680626 0.12198755 -0.045228615 0.044823438
0.051030368 -0.090160176 0.05555509 0.025290579 -0.01422929 0.09982072 0.06798315 0.118346274
-0.10420661 -0.060775965 0.10524449 0.08083458 -0.03461674 -0.107552655 -0.013044268 0.0040296167
0.0053225458 0.05872871 -0.10025284 0.12038691 0.09366204 -0.081352524 -0.04181449 0.058692172
-0.02168534 -0.09263545 -0.11957622 -0.105800234 0.071869105 0.030745283 -0.049029827 -0.109687276
-0.09899631 0.1085258 -0.01611419 -0.018344633 -0.020003393 0.054869533 -0.113021754 -0.07066905
0.037878975 -0.01034084 -0.038778797 0.022349834 0.023034751 0.018478721 -0.084891066 -0.0050819963
0.043175697 -0.07375262 0.0154479295 -0.027573958 0.10649839 0.055490717 -0.048160456 -0.09940499
0.0054779053 0.038928837 0.12118535 0.07522622 0.05634889 -0.10081404 0.0030293912 0.0466232
-0.064391255 -0.056770027 0.09179504 0.09405869 0.073019475 0.118332595 0.035606176 -0.007958181
0.09616029 0.11169036 0.02425991 0.05845736 0.024180382 0.022760257 -0.029285297 0.05763288
0.040791065 0.014787853 0.09919351 0.06603579 0.07638095 0.06347446 -0.04935339 -0.04308159
0.07459149 0.06005642 0.06709072 -0.02704823 -0.07359216 0.06730601 -0.068135016 -0.07095633
0.042731717 0.0024371594 -0.07918249 0.09290497 0.046663553 -0.09164079 0.091726184 0.057772502
-0.10800207 -0.108091466 -0.08830675 0.09874764 0.027676031 -0.03710717 -0.08389507 0.01986073
-0.10736381 0.076327205 -0.07202582 -0.008297183 -0.045425013 -0.11635853 0.12445794 0.0830787
0.08168127 -0.0027720332 -0.052717492 -0.033567324 0.1212419 -0.1223572 -0.030889504 -0.08164464
0.00024217367 -0.056918822 -0.12452113 0.06182015 0.048908085 0.081625044 -0.025379404 0.02220045
0.07832651 -0.076876104 0.029427797 -0.05073405 0.08476034 0.067616194 -0.012080081 0.04969223
-0.07774849 0.080445394 0.033780232 0.07924706 0.112876594 0.0039889365 0.06744997 -0.0062931404
0.009011239 -0.109949455 0.104082406 0.01753591 -0.07726477 0.07951148 0.011591867 0.070929155
-0.038054906 0.07709648 0.08158454 -0.10500068 -0.044877462 -0.076814875 -0.09728823 0.0475111
-0.019171 0.09367484 0.12400295 -0.06603059 -0.042274877 -0.04942572 -0.046161138 -0.08236599
0.07677221 0.0044398904 0.037721276 -0.015494473 0.011360139 -0.111166544 0.036603212 0.013459027
0.0047617555 -0.06982445 -0.070705414 0.039843053 0.03265716 -0.07917543 -0.10307137 -0.07718919

network_body.observation_encoder.processors.0.conv_layers.0.bias f4 [16]
00000000: 9f24 dc3d 0413 a33d 42f8 f2bd 050f 4ebb
00000010: bdab 593d 5c08 50bd 1a9a 873d 18e4 b83c
00000020: cff7 93bc 7cb4 c5bc 12b6 17bd ef78 943d
00000030: 68fa 79bb fa24 45b8 fe0f edbc cedd 2b3c
0.107491724 0.07962611 -0.11863758 -0.0031442058 0.053142298 -0.050789222 0.066211894 0.022569701
-0.0180625 -0.024133913 -0.03703887 0.07249629 -0.0038143639 -4.7002897e-05 -0.02893829 0.010489894

network_body.observation_encoder.processors.0.conv_layers.2.weight f4 [32, 16, 4, 4]
00000000: ea81 313d 599e 4fbd c43f 353d 9e2a 533d
00000010: cbc4 f4bc 974b 57bd 8b8c 3c3d 709c 0f3d
00000020: 1c72 8ebd 0e73 75bd 49b3 20bd 560a 5dbd
00000030: 1d18 26bd b87c 6cbd e11f 493c cc04 d93b
00000040: 4694 d0bb 951f 77bd a9d4 aabc 2f60 39bd
00000050: 210b 84bd 9cb5 0a3d 0379 233d 712b f5ba
00000060: 6fa6 5dbd db52 d33c cc32 a5ba 77f8 353d
00000070: bf0c 333d c255 a7bb de28 2fbd ff63 5a3d
00000080: 627d 843d 7a0e 7a3d efe1 3b3d c158 5d3d
00000090: b503 ca3c 7841 19bb 27a0 58bc ab3f d73c
000000a0: 292e 19bc 3028 6c3d 8ac3 993c c1f0 0f3d
000000b0: 2536 073d 5031 6f3d e52a a83c 9d24 c73c
000000c0: 16dc 57bd 1a19 123c 952a 81bd 3ace 473c
000000d0: 3100 ad3c 5d58 573d 7639 123b 12d9 473b
000000e0: 5fec c53b 4a6f 82bd 7781 7fba 6368 3abd
000000f0: 2298 90bd dcfe 09bc 1d73 ecbc a848 c8bc
00000100: 0191 cbbc 1f83 153d 611e 14bd 8b6a 823c
00000110: 58ae b23b c872 473d 9a8f 833c db32 15bd
00000120: d040 86bd b53e a03c d696 56bd a580 5d3d
00000130: 4d7f b4bc dfe1 dfbc a340 3c3b 022c 36bd
00000140: 5577 3abd 266e fcbc 35ff 1a3d d654 6ebd
00000150: ad5d 2d3d 0294 6d3d 4357 7f3c 7d9a 86bb
00000160: 4536 0b3d c85e d2bc d1da 08bd d2b1 da3c
00000170: a305 823d c533 77bd 9849 4abd 4c55 703d
00000180: 921d 843c 555b 47bb 8287 403d 9bc4 b7bb
00000190: 1a82 eabc fee2 3abd 5604 bcbc 8918 ba3c
000001a0: b7dd 3ebc 0240 56bd fafb bdbc aea4 353d
000001b0: d658 69bd a5d8 263d 2862 26bd f1de 8abd
000001c0: 975b 203d c830 05ba c276 91bc 8673 77bd
000001d0: 4309 b1bb ee8d 6b3b c729 10bc e360 173c
000001e0: c0ea 443c 2115 27bd b045 ea3c 3427 4dbd
000001f0: 14ab 27bd 3982 c9ba 4e80 d7bc 8713 0dbc
00000200: c25c 5abd b831 573c f20d 123b 7668 b33c
00000210: 0ec2 d03c cb4a 493c 6f29 2ebd a9ee 11bd
00000220: f87f 52bd 224b 473d b9fe 053d fd3f cebc
00000230: e746 07bd 3e58 2abd 794a 33bd 0d64 4d3d
00000240: ff7b 443d 6b2c 0b3d f480 753c 77ec a6bc
00000250: 173d 403d e4b9 be3c b6bc 483d fb0e 19bd
00000260: 7ba6 863b 4ac2 6e3c 16cb 20bd f7f8 22bb
00000270: c31b 5abd 18c4 1d3c 02e0 94bc 9f24 aabc
00000280: 53d4 0a3d 22fc 3cbc 137c 15bd 524c 49bd
00000290: ebb4 673d d4f4 d33c 5f12 30bd c7dd e73c
000002a0: c498 eabc 23a2 c0bc e42b 9b3c 5fb3 213d
000002b0: 8ed4 16bc c2fe aabc a7e8 00bb 0c16 29bd
000002c0: 424f f93c b323 33bd e289 e2bb 22bd 88bd
000002d0: 9ff4 0fbd 5ffc 03bd 2130 e3bc 06d2 23bd
000002e0: 66b2 833c 87ea 6ebd fdf3 2e3d 312d 44bd
000002f0: 83cc fbbb 156a 6fbd 86f1 06bd 88bd 223d
00000300: 7cb9 4cbc aa8a 92bc 8bd0 6cbc 4223 b8bc
00000310: 6db5 803d 88dd 4f3c 5e36 11bd 1365 533d
00000320: 53c3 6b3d 87ea 53bd 9775 38bc c931 eebc
00000330: 0170 6dbd 8b24 393d c01b e43c 671e ca3b
00000340: f404 1abd 7508 57bd c883 ddba 5388 133d
00000350: daeb 723d 6d28 dfbc dcc7 5cbd c9b7 6cbd
00000360: b6bd 903c 672f acba dc5f 453a d3a4 01bd
00000370: 1455 65bd 9445 0ebd 5385 c8bb 16b9 6cbd
00000380: e7b3 433d 5c65 77bc b17d 163d 2dfa 34bd
00000390: 0c5f d83a ed65 02bd cfd8 dbbb 4c4e 29bc
000003a0: e239 4dbd f275 73bd 9fb4 043c 68bf 3ebc
000003b0: 265b ddbc 0c43 cc3c f9ba 33bd 2a8d 09bd
000003c0: 673f a3bc f38a 94bc 05d3 133d 3ede 573d
000003d0: f74d f83b 29f4 723d 7210 ce3c 4969 f43c
000003e0: 3e32 f63c 83c9 303b d4e5 4abd 5f5a 763b
000003f0: 563e a6bc 2f24 73bd fc9d 423b dc22 6cbd
0.043336786 -0.05068812 0.044250265 0.051554315 -0.029878994 -0.052562322 0.04603247 0.0350613
-0.069553584 -0.059924178 -0.03923348 -0.053964935 -0.04055034 -0.05773613 0.012275667 0.0066228863
-0.006365332 -0.060332853 -0.020853357 -0.045257743 -0.06447435 0.033864602 0.039910328 -0.0018704963
-0.0541138 0.025796345 -0.001260364 0.044426408 0.043713327 -0.0051066587 -0.042763583 0.05331802
0.064692274 0.061048962 0.045869764 0.05403972 0.02465997 -0.002338497 -0.013221777 0.026275476
-0.009349384 0.057655513 0.018769998 0.03514171 0.03301062 0.058396637 0.020528266 0.02430945
-0.052700125 0.0089171175 -0.0630695 0.012195164 0.021118255 0.052574504 0.0022312081 0.0030494374
0.0060401405 -0.06368883 -0.000974677 -0.045509707 -0.07060267 -0.00842258 -0.028863484 -0.024448708
-0.024849417 0.036502 -0.036161784 0.015919944 0.0054529123 0.04869345 0.016059685 -0.036425453
-0.06555331 0.019561151 -0.052389942 0.054077763 -0.022033358 -0.027329383 0.002872505 -0.044475563
-0.04552396 -0.030814242 0.03784104 -0.058186375 0.042325664 0.05800248 0.01558477 -0.004107772
0.033987302 -0.02567996 -0.033411805 0.02669612 0.06348731 -0.060352106 -0.04938659 0.058675095
0.016127381 -0.0030419428 0.04700423 -0.005608154 -0.02862649 -0.045626633 -0.022951286 0.022716777
-0.011649541 -0.052307136 -0.02319144 0.044346504 -0.056969486 0.040733952 -0.040620953 -0.06780804
0.039149847 -0.00050808163 -0.017756823 -0.060412906 -0.0054027154 0.003594275 -0.008799023 0.009239408
0.012018859 -0.040791634 0.028597683 -0.050086215 -0.040934637 -0.0015373892 -0.026306298 -0.008610613
-0.053311117 0.0131344125 0.0022286144 0.021900397 0.025483157 0.012285898 -0.042519983 -0.035627995
-0.05139157 0.048655637 0.032713626 -0.025176996 -0.033026602 -0.04158806 -0.043772195 0.050144244
0.047969814 0.033977907 0.014984358 -0.020376427 0.04693326 0.023281999 0.049008094 -0.037367802
0.0041092015 0.014572689 -0.039256178 -0.0024867633 -0.053249132 0.009629272 -0.018173221 -0.020769415
0.033893894 -0.0115347225 -0.03649528 -0.04914505 0.05656902 0.02587358 -0.04298627 0.028303994
-0.028637297 -0.023514813 0.018941827 0.039477702 -0.00920595 -0.020873431 -0.0019669922 -0.04128079
0.0304333 -0.043735217 -0.0069134096 -0.06676699 -0.0351454 -0.0322231 -0.02773291 -0.039995216
0.016076278 -0.05832913 0.042713154 -0.04789466 -0.007684292 -0.058450777 -0.03294518 0.039731532
-0.012495395 -0.017888386 -0.014454017 -0.02247775 0.06284604 0.0126870945 -0.03545224 0.051610064
0.057559323 -0.051737335 -0.011258504 -0.029076474 -0.057968143 0.045200866 0.027845263 0.006168175
-0.03760238 -0.0524983 -0.0016900236 0.03601868 0.059306957 -0.027240956 -0.05390154 -0.05779246
0.017668586 -0.0013136686 0.0007529238 -0.03165133 -0.05598934 -0.034734324 -0.006119409 -0.0577937
0.04777899 -0.01509985 0.036740962 -0.0441839 0.0016507818 -0.031835485 -0.006709195 -0.010333609
-0.05010403 -0.059438653 0.008099704 -0.0116423145 -0.027021002 0.024934314 -0.043879483 -0.03358189
-0.019927694 -0.018132662 0.036089916 0.05270218 0.0075776535 0.05931488 0.025154326 0.02983536
0.030053254 0.002697558 -0.049535587 0.0037590486 -0.020293396 -0.05936068 0.0029696217 -0.057650432

network_body.observation_encoder.processors.0.conv_layers.2.bias f4 [32]
00000000: dde9 27bd 1a99 2bbc e91a 343d 9a07 abbc
00000010: a539 403d d714 883d 5cfb 593d a24d 3abb
00000020: c33d 41bd fafb 453d cd3a 453d 45ac 0ebd
00000030: bad4 383d 1c77 33bd 427d b33c a695 973d
00000040: df18 373d 3f8a 21bd 7a16 85bd ae84 bdbb
00000050: 3242 803d 0224 743d 58f2 13bd fe1d 843d
00000060: f47c 023b 89c7 8ebc a5b6 a7bb e2dc e5bb
00000070: 7460 6b3c dd4c 8fbb d45b 5c3d b0f0 033d
-0.040994514 -0.010473514 0.043970976 -0.020877648 0.046929974 0.066446 0.05321823 -0.002842762
-0.04717804 0.048336007 0.04815178 -0.034832258 0.045124747 -0.043814763 0.021910314 0.0740159
0.044701453 -0.039438482 -0.06498428 -0.005783639 0.06262626 0.059604652 -0.03611979 0.06451033
0.0019910904 -0.01742913 -0.0051182085 -0.0070148567 0.014366258 -0.0043731765 0.05379851 0.03221196

network_body.observation_encoder.processors.0.dense.0.weight f4 [128, 512]
00000000: 25d6 d23c ca1d 9fbb e99d 0bbc 44fb 453c
00000010: d4c1 e0bc 1efe 28bd c6a6 d9bd 241f a2bc
00000020: 3439 3a3d 1e5a febc 2907 ab3d fe26 c93c
00000030: c725 293d f749 05bd 2ec0 86bc 766e a9bd
00000040: 7471 a63b b359 8a3c 8e7c 9d3d ee83 bb3c
00000050: 1bf0 f6bc 9964 663d 83e5 c3bd 4658 46bc
00000060: a5ff 323d 2c64 80bd 3230 25bd 739f 623d
00000070: 31ec f3bd d813 9a3d a624 5cbd 12ba a7bc
00000080: f942 983d 29cc 50bd ece0 133e 4088 543d
00000090: 7ad7 71bd c178 97bd 4802 bfbc c7b3 573d
000000a0: a4df 9ebc 6ac0 7abd e3f8 413d 1247 a23c
000000b0: 1792 f2bc 7463 443d 1322 ddbc 28aa ef3b
000000c0: da61 b73d 8491 073d c502 2f3d 8ad6 21be
000000d0: 8267 913d 22ce 333c f7f9 493d 9e43 353d
000000e0: 0fb5 d2bd 9405 c5bd b968 1c3d dff2 86bc
000000f0: 325b 5d3d 2aec 11bd d885 573d 426a edbc
00000100: 895e eb3d 037c 82bd 6dbc ef3c 7d40 f43d
00000110: 5683 983c 01e5 03bd fdc5 a13c fb58 91bd
00000120: c6ce 11bd b3a0 1d3b 51d2 cf3d 93f9 5c3d
00000130: 8f89 823d 69a6 aebb b2c7 063d 2a97 53bd
00000140: 4587 1dbd 5c67 923a cbb5 8dbd a798 803c
00000150: a9c5 523c 70db 06bd 19fd 8dbb c26a a6bd
00000160: aaae c63d 19a1 bbbd 71c9 c6bc 6681 87bd
00000170: 0727 2abc fef9 63bc 0208 94bd 5cea 05bd
00000180: 5214 d7bc a485 a43c 2861 bcbd 795f 65bc
00000190: 0631 623d 9eb1 16bd fdf6 173e 772a 24be
000001a0: 6215 d7bb 7b01 c93d e452 293d b2e4 47bd
000001b0: b56e 9bbd 65ec 30bd 904e e3bb 2656 fdbc
000001c0: 956f be3d bb10 dc3b 8110 bf3d 9da1 5a3c
000001d0: dce1 933c 4166 48bd b8f6 823d 0bd6 f4bd
000001e0: 02fa eebb 7628 adbd 989c c63d 9266 f73c
000001f0: b1d6 d93c f42d 1cbd 947e 913d 992f c1bd
00000200: 3b74 df3c 77aa 00be 8b9a 3abd eac6 823d
00000210: 872f 513d 0e29 8bbc 289e 18bd 14f5 803d
00000220: b734 f23d fd5d ca3c 0c46 79bd 4f73 103e
00000230: 1971 82bd cbd1 9bbd a20b cbbb bd2e e73b
00000240: 20c9 0fbe f714 dd3d 40bf dc3c b42f 703d
00000250: 0431 92bd 39cf 113d 1728 be3d dae0 853d
00000260: eccf 533d e6dc b63d 27d0 1ebd 7a0b ab3d
00000270: 1d9f 7c3c f0d4 8abc 392b e83d 1727 133c
00000280: 894b 0939 f02f 113d b782 ddbd 3cd1 1bbe
00000290: 6d66 b1bc 791b 9b3d e42f 93bc 9a94 0dbe
000002a0: b822 2bbd 6209 84bc ad10 15be fbb5 9dbd
000002b0: 91cb a1bc 8357 22bd e065 473c 4c52 763d
000002c0: c2f1 58bd 6860 4b3d e8ee d13c cbe3 e4bc
000002d0: 4095 4dbb 74bd c33b 0472 973d 89c3 02bd
000002e0: f21b 04bd f1ee 833d d3c9 fcbc bb1c 043c
000002f0: 6998 9cbd 8684 fbbb 2228 3fbc 4014 303d
00000300: 85ef 85bc a049 543d 60fe 173c 5bd7 14be
00000310: 5a17 42bd 4a94 aa3d b4c4 8abd 04cb 8fbc
00000320: ce50 ecbc 497e c43d 0345 b43c cdf3 083c
00000330: d22e b3bc 745a 0cbd 023e 99bc d717 f0bd
00000340: ff1c 213e 301a 8d3d 16b1 c9bd 28f3 f33d
00000350: 3f73 8dbc 30e1 b83c ba09 c5bd e951 ec3c
00000360: bcad b6bc e152 8bbd dd2f 703d eb51 b1bc
00000370: b5bb ce3d a6a1 4dbd 5f42 5a3d f49d b0bd
00000380: 7345 a93d 1f76 62bd 7998 8f3d 217a 8d3b
00000390: 410e 853d 2d4e fb3c c955 6b3d 153a dabd
000003a0: 943f 74bd 47ed bd3d 099c fabd 8756 193b
000003b0: 9083 413c 9904 a23d f49c 883d 06bf 74bd
000003c0: 4957 d13c 103d 5a3d 3bae 0c3d 0ee8 6ebc
000003d0: 21d6 a6bc 1ad0 143d b2dd 883c c860 fc3c
000003e0: d662 53bd da8c 313c 3f06 4ebd 872a 1e3d
000003f0: 5c11 1a3c 98fb 58bc a02c dd3c 0943 c6bd
0.025736878 -0.004855846 -0.008521535 0.012083832 -0.027436174 -0.04125797 -0.10627513 -0.01979024
0.04546471 -0.03104883 0.08350975 0.024554726 0.041295793 -0.03254124 -0.01644906 -0.08273022
0.0050794426 0.016888475 0.076897725 0.022890057 -0.030143788 0.05624828 -0.0956526 -0.012106007
0.043700833 -0.06269106 -0.040329166 0.055327844 -0.11910284 0.07523316 -0.05374589 -0.020474467
0.07434649 -0.050975952 0.1444127 0.05188775 -0.059043385 -0.07396079 -0.023316517 0.052661683
-0.01939375 -0.061218657 0.047356497 0.01980928 -0.029610677 0.04794641 -0.026993787 0.0073139854
0.089542106 0.03309776 0.04272725 -0.15804496 0.07099821 0.010974439 0.04931065 0.044253938
-0.102884404 -0.096202046 0.03818581 -0.016473232 0.05404205 -0.035625614 0.052617878 -0.028981332
0.114926405 -0.063713096 0.029264653 0.11926363 0.018617313 -0.032200817 0.019747728 -0.0709705
-0.035597585 0.0024052083 0.101475365 0.05394895 0.063738935 -0.005329896 0.032905288 -0.051657833
-0.03845908 0.001116972 -0.0691944 0.01569779 0.012864509 -0.032924116 -0.00433315 -0.08125831
0.09701283 -0.09161586 -0.024265977 -0.06616478 -0.010385281 -0.013914583 -0.0722809 -0.032694206
-0.026254807 0.020083256 -0.091982186 -0.013999813 0.055222534 -0.036790483 0.14840312 -0.16031824
-0.0065638283 0.098147355 0.041338816 -0.048802085 -0.07589475 -0.043194193 -0.0069368556 -0.030924868
0.09298626 0.0067158616 0.0932932 0.013344196 0.018052034 -0.048925642 0.06394714 -0.11954888
-0.007292987 -0.08454983 0.09697837 0.030200277 0.02659163 -0.03812976 0.07104221 -0.09432907
0.027277103 -0.12565027 -0.04555754 0.06385596 0.051070716 -0.01698735 -0.037260205 0.06296745
0.11826461 0.02470302 -0.060857818 0.14106487 -0.06369228 -0.07608374 -0.006196455 0.007055132
-0.14041567 0.10795014 0.026946664 0.058639243 -0.07138255 0.035598014 0.0928499 0.06537028
0.05171196 0.08928852 -0.03877273 0.08351798 0.015418795 -0.01694724 0.11336369 0.008981488
0.00013093477 0.035446107 -0.108159475 -0.15216535 -0.021655286 0.07573599 -0.017967172 -0.13826218
-0.041781157 -0.016117755 -0.14557143 -0.07700726 -0.019750388 -0.03963424 0.012170285 0.06013708
-0.052964933 0.049652487 0.025626615 -0.027940651 -0.0031369478 0.0059735123 0.07394794 -0.031924758
-0.032253213 0.06442059 -0.030857956 0.0080634905 -0.076462574 -0.00767571 -0.011667283 0.042988062
-0.016349563 0.051828027 0.009276956 -0.14535277 -0.04738555 0.08329065 -0.067757994 -0.01755286
-0.028847124 0.095943995 0.022005564 0.008358908 -0.021872912 -0.03426595 -0.018706325 -0.11723297
0.15733717 0.068897605 -0.098482296 0.11911613 -0.017266868 0.022568315 -0.09620996 0.028847652
-0.02229964 -0.06802917 0.058639396 -0.021645507 0.10094396 -0.050202988 0.053285953 -0.08623877
0.082651995 -0.05528843 0.07011504 0.0043175374 0.06496859 0.030676926 0.057454858 -0.106556095
-0.059630945 0.09273773 -0.122367926 0.0023397522 0.011811152 0.07911033 0.066705614 -0.059752487
0.025554316 0.05328089 0.034345847 -0.014581693 -0.020365776 0.036331274 0.016707275 0.030807868
-0.05160793 0.010836804 -0.050298925 0.038614776 0.009403553 -0.013243578 0.026998818 -0.09680755

network_body.observation_encoder.processors.0.dense.0.bias f4 [128]
00000000: 1e6c b03c 745b ebbc b7c6 06bd ff2d 02bc
00000010: 864c 28bc 0276 643c 00de 95bc c42e 363c
00000020: cd3e f03c 4a8a 753c 8b54 12bc b7d4 143b
00000030: 312d 0d3d 0d90 0abd a781 abba 1d93 fdbb
00000040: f1e9 b2bc e312 c4bc 7fdd 58bc dbd7 cf3c
00000050: ad57 52bd f3b6 fc3c b007 4b3b f23b 41bc
00000060: d81f 0e3c 266e f0bc 2827 ab3c 2408 3f3d
00000070: 14d5 10bc 9629 02bc eda0 75bb 9160 873b
00000080: 8be5 01bd 3827 a13c 33ab 1a3d 5647 033d
00000090: e127 b7bc 6a06 353d 4544 a2bb dacb 19bd
000000a0: 0d3c 1ebd 711f ce3c 1e08 78bc 6ee2 073d
000000b0: 5891 03bb a0a5 2d3c bd85 04bc aaa6 273d
000000c0: 6c12 73bb 1a55 323d 064c f43a 1af5 a0bc
000000d0: 3433 25bd 8f3b 20bb ccc2 72bc 17d0 cabc
000000e0: 723e a639 1f8a 08bd e21f a7bc ab6b 263d
000000f0: a50a b03c 17c5 553d d6dd e2bb 4a58 7c3c
00000100: 8eb1 1cbc 8ac4 19bc e7d3 f7ba 3ca6 dabc
00000110: 6d34 223d 40c4 14bc 337f df3c 35a4 1bbd
00000120: 2163 083d 7a92 a13c 2590 99bb 23d3 9c3c
00000130: e4b2 1bbc ac19 82bc 5441 2c3b 6e7b 86bc
00000140: b060 243d 6bcb 11bd 3216 9bbb 3517 c1bb
00000150: f0ca fc3c d38f 003d f2ea b7bc 15bb 6a3b
00000160: e12a 2f3d 5ae0 a6bc 7011 cd3c f87b 33bd
00000170: c3b8 b6bc d834 97bc 700a 183c 5718 7ebb
00000180: ef33 993c b769 143d 1e22 8fbb 9e1d 0cbc
00000190: 2e7d b43c af96 02bc 38a2 4b3c 92ad 133b
000001a0: 26d9 7dbc c5e4 55bb ab67 193a 8f5e da3c
000001b0: 8d1f 273a 518b 003d 8d30 b93c d611 40bc
000001c0: b640 2f3d 66f5 fe3c 2fee 32bc bf6f ad3c
000001d0: 77c2 9fbb c461 d13c f15b 9abb 0b55 5ebd
000001e0: f6e4 473c 06ad 4ebc acc1 073d 2300 153d
000001f0: a6f0 a3bc 1dbe a4bb 0bfc a8bc 7e73 053d
0.02153593 -0.028730132 -0.032904353 -0.007945537 -0.010272151 0.013944151 -0.018294334 0.011119548
0.02932682 0.014986584 -0.008931289 0.0022709796 0.034466926 -0.033828784 -0.0013084904 -0.0077384845
-0.021840068 -0.023934787 -0.0132364025 0.025371483 -0.051353145 0.030848956 0.0030979924 -0.011794077
0.008674584 -0.029349398 0.020892695 0.046638623 -0.008839864 -0.007944485 -0.0037479952 0.0041313847
-0.03171305 0.019672021 0.037760925 0.032050453 -0.022357883 0.04419557 -0.004951986 -0.037547924
-0.038631488 0.025161477 -0.015138654 0.033174925 -0.0020075645 0.01059857 -0.008088526 0.040930428
-0.0037089838 0.04353819 0.0018638379 -0.019648124 -0.040332034 -0.0024449562 -0.014816951 -0.024757428
0.00031708513 -0.033334848 -0.020400945 0.040630024 0.02148945 0.052189913 -0.0069234176 0.015401909
-0.009563817 -0.0093852375 -0.0018907756 -0.026690595 0.03960078 -0.009079993 0.027282333 -0.037998397
0.03329766 0.019723166 -0.004686373 0.019143647 -0.0095031 -0.015881382 0.0026284056 -0.016416278
0.04013127 -0.035594385 -0.0047328705 -0.005892659 0.030858487 0.03138716 -0.022450898 0.0035817076
0.042765502 -0.020370651 0.025032729 -0.043819398 -0.022304898 -0.018457815 0.009279832 -0.0038771832
0.018701522 0.03623363 -0.0043680808 -0.008551983 0.022032347 -0.007970496 0.012428813 0.0022533876
-0.015493667 -0.0032637578 0.00058519345 0.026656417 0.0006375246 0.031382862 0.022606159 -0.011723002
0.042786323 0.031122874 -0.010921045 0.021171449 -0.004875477 0.025559314 -0.0047106673 -0.054280322
0.012200585 -0.012614494 0.033143684 0.036377084 -0.020012211 -0.005027546 -0.020627996 0.032580845

network_body._body_endoder.seq_layers.0.weight f4 [128, 128]
00000000: 6b3e 8abd f019 203e b6d4 ce3d 47bd a83d
00000010: 8ccf 9ebc 1835 a3bc 358e ff3d da7c 6bbe
00000020: f9e8 3f3a 8026 063e 6e4c 1d3e 06fb 253d
00000030: f478 13bd ba98 9e3d b85c bebd 8009 8b3d
00000040: 111e 053d 3ec6 a33d 5fc9 0e3e 3403 2ebe
00000050: 29a7 723e 7fe0 e33c 7c3c d3bb 760c 213d
00000060: 0bb5 96bd a1bc e83c 8abb f2bd de0d 16bd
00000070: 144c 5fbd 1875 213d 4c1d b33d 7035 153d
00000080: 1624 3c3e 07d8 e0bd e3b7 9ebd 6fdb acbc
00000090: 2197 133e e234 2abe 4bbb 673d b2e1 943d
000000a0: d769 943d 8111 19bd d157 583e ff8b 11be
000000b0: 7bf6 1b3e 456b d4bd 7e9b 1d3e 371c 02be
000000c0: 310c 373c e26a 14be 02fe 133d cd2b 6b3b
000000d0: cf92 ac3c bf0b a1bc 2453 473e e63c 373d
000000e0: e444 e2bd 062a fabc 8ee8 483e 65d2 71be
000000f0: 03f5 0ebe 41a4 143e d27a 90bc dbc4 01be
00000100: c953 93bc df1a 513d a161 c6bc 985d 95bc
00000110: a2f9 f8bd 9023 3ebd 9dd7 d4bd 9709 373d
00000120: 3c87 5d3c fcff 3fbe b52a f93c 71eb 63be
00000130: c547 afbc 3af0 61bd 5bcf cebc e2de adbb
00000140: 183e 143e 2cd3 84bd 7a7e 90bd 7ebc ab3b
00000150: f103 57bc db3d dabd bbe5 9cbd 2328 b3bc
00000160: 6c35 c7bc e1d2 c23b 7678 0ebe 63d7 453b
00000170: 31ac b83d 2485 a7bc a07f 37be 14ea afbc
00000180: fab2 e5bd 304c 813d ef42 8cbd f613 93bd
00000190: 2e5f 0abc 4d5c 063e ca0a 08be 3f24 bcbd
000001a0: 4c03 113d 90e4 9fbd 467c 2bbe c8c6 8fbd
000001b0: 8930 78bd 55b0 283e 41bd 5fbd ad18 2a3d
000001c0: 7c70 a83b 0724 1abd f7b9 cd3d eb1e 58be
000001d0: 3ff3 d33d 3528 33be 6613 1a3d f563 e13d
000001e0: 0b4c 36be ac21 d3bd 3de5 e3bb 3e68 eebd
000001f0: 3b73 793d 9808 033e 74de 483e 6af7 a23d
00000200: 61e2 d3bd 12f6 e9ba e24b 903d 6cec 873d
00000210: 4d60 1abe fb8a d53c c50b 253d 0bdd 8b3d
00000220: 358d 013d dde6 c83d 8a6a 853d 7b2c 46be
00000230: d5a7 163d 3718 d93d 2ac7 a1ba 7d45 cf3d
00000240: 8bca 0dbd bc52 183e 10f8 af3c 19a9 8dbd
00000250: 8c6a f6bb 1579 03bd 4ff3 59be ea00 13be
00000260: 2d9c c9bd 6953 c03d 06dc 1dbb c5bc 86bd
00000270: 781e 203e 696e fd3c fd2c 193e bf67 263d
00000280: b1ca c83d 75b2 2b3d eae3 403c 79cf 43bd
00000290: 3c7d ac3d fea4 25be 94f3 dbbb 2e45 3c3e
000002a0: 3ad2 b13d 9406 b3bd 3833 a5bc 974d 38be
000002b0: 2618 55bc e118 f7bd b0e1 0b3e 4ff1 41be
000002c0: a271 243e d65e 6ebd ee79 ae3d 1bda 1b3e
000002d0: 1f0e cb3d 47b6 0c3d 58d8 ed3d 3cb6 a93d
000002e0: 5b78 9ebd cc09 2abd 7d45 db3d 82d5 20be
000002f0: 3cde 393d 3410 ddbd 1d5b b7bd 767f c5bd
00000300: b68d 85bd 4dcf d23d 361f da3d b74d 123e
00000310: 919e 99bd 3bd1 63bd 8f54 12be 4466 083e
00000320: ab46 1fbe 6471 2cbd 2894 8cbd fe4d c3bc
00000330: 6dc6 253c 6186 be3d 2490 acbc a38d ff3c
00000340: d576 f43d ff71 113e aed7 0d3e 3ac8 063e
00000350: ad6a 963d d33c 0fbc b5e4 923d 8f92 0e3d
00000360: 9bcb 0ebe 3228 a4bd b763 5dbd f9c3 58bd
00000370: e535 e83d 7641 02bd 8748 9fbd d372 b43d
00000380: d517 ddbd 19bd c9b9 f1f4 3abd 9911 063e
00000390: 2e7b febc f5a1 d03d 4d78 363c b61f c73d
000003a0: 7aba b0bd 5db8 473e 8d8d a5bd d8ae 463d
000003b0: 0ba6 06bd 115a dd3c 87d2 ba3d e49a 313e
000003c0: 5de7 88be 6b10 27be dca7 423e 5cda 35be
000003d0: 5231 083d cc20 5fbd d4bd 183e 8084 4c3c
000003e0: 4116 163e 450b f83d 0b53 35bd 91cd 61bd
000003f0: 6c72 893d 0a9a ef3d 36a1 a03d 17a4 55bc
-0.067501865 0.15634894 0.10099165 0.08239227 -0.019386075 -0.019922778 0.12478296 -0.22996846
0.00073207874 0.13100624 0.15361187 0.040522598 -0.03600402 0.07743974 -0.092950284 0.06788921
0.032499377 0.07996796 0.13944004 -0.1699341 0.23696579 0.027817009 -0.0064464193 0.039318524
-0.0735875 0.028410258 -0.118521765 -0.03663432 -0.054515913 0.03941831 0.08745822 0.036427915
0.1837314 -0.10978704 -0.07749917 -0.021100728 0.1441312 -0.16621736 0.0565751 0.072696105
0.0724675 -0.03737021 0.2112725 -0.1421356 0.15230744 -0.103720225 0.15391347 -0.12706076
0.01117234 -0.14493898 0.036130913 0.0035884262 0.021066098 -0.019658921 0.1946531 0.04473581
-0.11048296 -0.030537616 0.19619963 -0.23615415 -0.13960652 0.14515783 -0.01763669 -0.1267275
-0.017984288 0.051051017 -0.024216475 -0.018233106 -0.12156989 -0.046420634 -0.103926875 0.04468688
0.013521012 -0.18749994 0.030415872 -0.22257783 -0.021396527 -0.05516074 -0.02524536 -0.0053061107
0.14476812 -0.0648559 -0.070553735 0.005240976 -0.013123498 -0.10656329 -0.07661005 -0.021869725
-0.024317466 0.005945549 -0.1391314 0.0030188195 0.09017218 -0.020449229 -0.17919779 -0.021473922
-0.11215778 0.0631336 -0.06848704 -0.071815416 -0.008445544 0.13121147 -0.13285366 -0.09186601
0.035403535 -0.07807267 -0.16746625 -0.070203364 -0.06059316 0.16473515 -0.054623846 0.04152744
0.0051403623 -0.037632015 0.100452356 -0.21105544 0.1034913 -0.17495807 0.037616156 0.110053934
-0.17802446 -0.10309157 -0.0069548176 -0.11640976 0.060900908 0.12796247 0.19616109 0.07957347
-0.10345913 -0.0017849824 0.070457235 0.06636891 -0.15075798 0.026067248 0.040294427 0.0682927
0.031628806 0.09809659 0.06514461 -0.19352905 0.03678115 0.10600322 -0.0012342681 0.10120676
-0.03461699 0.1487531 0.02148059 -0.069170184 -0.0075200256 -0.032097895 -0.21284221 -0.14355817
-0.09844241 0.09390909 -0.0024087443 -0.06578974 0.15636623 0.030936437 0.14958568 0.040626284
0.09804285 0.041918237 0.011773089 -0.047805283 0.08422324 -0.16176221 -0.0067123864 0.18385765
0.08682676 -0.08741489 -0.020166025 -0.17998348 -0.013006246 -0.12065292 0.13660312 -0.18939708
0.16058972 -0.05819591 0.0851935 0.1521992 0.09914803 0.03435352 0.1161353 0.082867116
-0.077378 -0.04151325 0.10706613 -0.15706447 0.045377955 -0.10794106 -0.08952925 -0.09643452
-0.0652117 0.10293446 0.10650484 0.14287458 -0.07500947 -0.05561946 -0.14290069 0.13320261
-0.15554301 -0.042100325 -0.06864196 -0.0238409 0.010118109 0.093029745 -0.021064825 0.031195467
0.11936728 0.14203642 0.13851807 0.13162318 0.073445655 -0.008742529 0.07172529 0.034807738
-0.13944857 -0.08015479 -0.054050174 -0.05292127 0.113384046 -0.03180071 -0.07777505 0.088109635
-0.10795561 -0.00038478596 -0.04564375 0.1309265 -0.031064596 0.10187141 0.01113708 0.09722845
-0.086293176 0.19503923 -0.08083639 0.048506588 -0.032873195 0.027020486 0.09122186 0.17344242
-0.26739016 -0.16314857 0.19009346 -0.17759079 0.03325016 -0.054474637 0.14916164 0.012482762
0.14656927 0.121115245 -0.04426865 -0.055127684 0.06711277 0.116993025 0.078432485 -0.01303961

network_body._body_endoder.seq_layers.0.bias f4 [128]
00000000: ea6e 42bd e3a0 f9bc cf16 7dbd 0f95 b23c
00000010: 6123 b43b e3d7 403d d3cd 8e3c c41d 743c
00000020: 85ba 59bd 0515 c73c 55a9 843d d8b4 20bc
00000030: b88d 6fbd dc17 583d 7dd9 babc 4e34 adbc
00000040: 9ffb d73a 0493 01bd 49f5 7abd 2f55 7dbd
00000050: a465 a5bc 2580 9d3c a704 a6bd 6874 4a3d
00000060: 2937 483c 9802 48bd ed90 64bd 3974 8bbd
00000070: 4cfe 5fbd 9c23 9dbc ab2b 063d 0e32 a73b
00000080: 2afd 26bd 0147 85bc d401 2dbd cdc6 39bd
00000090: 14fd 11bb dbdc 1d3d 07fd 053c 702b 75bd
000000a0: 11de 00bd 9644 f03b 9b05 07bd b5f3 43bd
000000b0: 104a a4bc d7da 5cbd bc2e a43b 7e67 1dbd
000000c0: 753c 073d 4dde ffbc 7854 093d 5452 e9bc
000000d0: 9309 2cbd f7a7 1dbd e12b 21bd bdd6 de3c
000000e0: bb08 593d 3785 57bc 23c2 4d3d e65b 35bd
000000f0: a5d4 913c a59c 723d d125 ebbc 0706 31bd
00000100: c8ed 44bd 541c 64bc 4875 b2bc 0a2d e3bc
00000110: c3b8 0cbd d47c 33bc 6826 30bd 83e3 533c
00000120: bb6a 09bd 89a3 c23a 16d4 a63c 44b9 bebc
00000130: 17fe 35bd b71d 16bd 657b c9bc 2f6e 6dbd
00000140: 03ac 543b b465 b13c 192c 96bb d064 10bd
00000150: 8994 a0bd 49a4 49bd 09c7 a03b 2e86 f93a
00000160: 670f 2f3d 55da 26bd 065f 11bd 33cd 58bd
00000170: 0c96 49bd b6b7 febc 5d82 52bd 2d65 aebc
00000180: 4c5e af3b afa3 aa3b 3f5f e0bc fb00 e73c
00000190: 10df 743c bbdb 8cbc 8bb5 47bd 7a40 93bc
000001a0: f003 3ebb 02a4 6abd 9786 0ebc eaa2 66bd
000001b0: 7318 6cbd 10be 983c 7891 25bd 0d16 353d
000001c0: 327f 32bd 78aa cbbc a609 4dbd 4df9 dc3c
000001d0: 06b7 413d c29e da3c 5ff2 c5bc fc1c 56bd
000001e0: 0bc9 ccbc 4c56 b93c a7fb 19bd 2c81 c43c
000001f0: 7e2c 24bd 5e41 13bd b1a0 c83c 56dc 4cbd
-0.047469057 -0.030472225 -0.06178933 0.021799592 0.0054973816 0.047080886 0.017432129 0.014899675
-0.053156395 0.024302015 0.0647761 -0.0098087415 -0.058484763 0.05275713 -0.022808785 -0.021143105
0.0016478187 -0.031634346 -0.06126908 -0.061848816 -0.020190068 0.019226143 -0.08106356 0.04942742
0.012220182 -0.0488306 -0.055802274 -0.06809277 -0.054685876 -0.019182019 0.03275649 0.0051024025
-0.04076878 -0.016269209 -0.04223807 -0.045355607 -0.002227609 0.038540702 0.008178002 -0.05985588
-0.03146178 0.007332395 -0.03296433 -0.04783984 -0.020054847 -0.05391964 0.005010454 -0.038428776
0.03301664 -0.031233931 0.03352782 -0.02848164 -0.04200132 -0.038490262 -0.039348487 0.027202005
0.05298684 -0.0131543195 0.05023397 -0.044277094 0.017801592 0.05923142 -0.028704556 -0.04321864
-0.04807833 -0.01392277 -0.02178444 -0.027731437 -0.03435589 -0.010955054 -0.043005377 0.012932661
-0.03354905 0.0014849763 0.020364802 -0.0232817 -0.044431772 -0.036649432 -0.024594972 -0.057966407
0.003245116 0.021654941 -0.0045828936 -0.035252392 -0.07840831 -0.04922894 0.0049065393 0.0019037181
0.0427393 -0.04073556 -0.035491012 -0.05293007 -0.04921536 -0.03109346 -0.051393855 -0.021288479
0.0053518172 0.005207501 -0.027389167 0.02819871 0.01494576 -0.01719462 -0.048757117 -0.01797508
-0.0028994046 -0.057285316 -0.008699081 -0.05630771 -0.057640504 0.018645316 -0.040421933 0.044210482
-0.043578334 -0.02486156 -0.05005803 0.026974345 0.047293685 0.02668703 -0.024163423 -0.052273735
-0.024998209 0.022624157 -0.03759351 0.023987375 -0.040081494 -0.03595101 0.024490686 -0.050014816

network_body._body_endoder.seq_layers.2.weight f4 [128, 128]
00000000: e280 1e3d 214b b53d c985 e33d eaa5 623e
00000010: 6173 663d 4fdc 46bd 490d e1bd f6cf af3c
00000020: 3db5 9b3d 1870 1d3e f9e2 b3bd 1d07 4abc
00000030: 346f 6d3d f0a1 18be 2fce d33d 7e6a e2bc
00000040: 6f81 b8bb b9a0 4cbd f7f6 d2bd 580f 283d
00000050: 7867 b33d 06aa 1ebe bd0e 8d3d dcaa 063e
00000060: b92d 5bbd 92a5 fa3d fa62 043c f10d 443e
00000070: 24aa 853d 0fa8 463e 7e6b 91bd 0037 d5bd
00000080: acd2 fd3c 450a 503d a81b a6bd 5a23 1d3e
00000090: cb09 c23c 3978 d13c b468 35be a414 b63d
000000a0: 2618 8cbd 09e4 b1bd 739c dabb c1f1 6739
000000b0: 10ef 133e c415 65bd f65a 0ebe e4f8 66bd
000000c0: fc05 9a3b 00c2 0a3d 6568 26bd 88d5 3a3d
000000d0: 201e cc3d 1b1e 0dbe 1282 6a3d db40 0fbd
000000e0: 1826 c93d 43dd aa3d c16e fb3c c844 ffb9
000000f0: daf6 f9bd d5d6 b4bb 1898 233c 5801 69bd
00000100: 742b 493e cbe0 463d 0284 b5bd ce1c f6bc
00000110: a19a e53d 8542 8d3d 2ba4 263e 3457 22be
00000120: 1fdb bb3e 0de3 a7bd 6897 c23c f630 d23d
00000130: 8edc 67bc 61a9 9dbd ce58 c23c d194 6cbd
00000140: 5c90 92bc 785b 30be e3c1 41be a93b f53a
00000150: 1884 813d 15ad a73c b1c1 023e 9cce 08be
00000160: ceaa 473c 9f13 9d3d 1216 023e 3999 ce3c
00000170: abc9 cfbd 5de1 26bd 4195 d13c 4e01 a33d
00000180: caa5 f6bd 139a 93bc e55b 8c3d ec10 ca3b
00000190: 2ce6 8dbb e353 ad3d b1da 263d 4cb0 0a3e
000001a0: 8aa2 423e fe52 5dbd f088 0a3e 6569 5b3d
000001b0: 8a13 b43c fd05 2abe eff2 efbd 44cc e6bc
000001c0: abce 9a3d 414e 3dbd 8e28 023e 5f88 00be
000001d0: 68f5 bcbd c504 a0bd c77f 803e 6ff1 0dbc
000001e0: 4860 6abd f64f 24be 7781 babc a35c 88bd
000001f0: ea93 bf3a 0ed6 f2bd 158c 55bd 54fd 9a3c
00000200: e5de d13d 0eca 7d3d 01bd 063e f580 8ebd
00000210: 4444 f23a 76d2 58be d84d efbd 9034 a33d
00000220: bc8c 0b3e 00d1 17bd e141 663d d88d e63c
00000230: 335e 403e e234 22be 55d5 f0bc 49b5 46bc
00000240: c63b 2cbe af77 7e3d 4a63 c83d efdc f0bd
00000250: 41f4 0a3c 683b 073d ec1a 023e abe4 383d
00000260: 802c 123e 60d6 de3c acd1 203d 726c 41bd
00000270: 013c 363e 5fb3 4c3d 5f5d b939 65f0 a0bd
00000280: 1690 3d3b 5e33 ea3d 3a38 643d 84cd 0cbd
00000290: ee98 213d 4b66 49be dbbc 30bc 077d 863c
000002a0: 91d0 513c cdd8 28be 417a a03d 3456 bf3d
000002b0: fd55 713e 9743 99bc aea9 5f3c 0857 bdbc
000002c0: 609c 03be daa3 ebbd 0caf 99bd 9ba2 b63d
000002d0: 1103 193c 74bd 04be 4d6d f73b d98d 97bd
000002e0: 8c5f c53d f374 cf3d 8587 aebd 4aee ccbc
000002f0: 7508 26be fdb4 45bd 1248 03be 196b a93d
00000300: e785 bd3d a5d1 56bc 9ab4 873d 5fd4 a23d
00000310: a000 7b3d 8a2c e6bc d966 ba3d 110c cdbd
00000320: 382b dd3d cd18 283c 32f9 9c3d 63d0 d53d
00000330: 234c 3ebd 526f c6bd 9355 c8bd 35d8 1fbd
00000340: 1f83 9c3c f839 af3d 7b94 533d c0ca f63c
00000350: 1d0b 3e3e 88ad 93bc 2959 8a3c 8289 9d3d
00000360: 9cee eabd 68a0 dc3d 4598 b23d ee2b 2e3d
00000370: 13dd b73d 8022 67bd 2760 b8bc 16ff c7bd
00000380: 9236 3d3d 5ca9 023d 496d 423d 7f01 293d
00000390: dae0 7abc 2fb9 04bd 6823 803d 7361 3bbd
000003a0: 819a 3abd 5b89 d83a ff51 30be 2a26 3ebd
000003b0: 76c4 553e 685b 98bc 36c7 243c e8c7 50bd
000003c0: 582d e1bb 42db 853d 39fc bbbd 14ec 313d
000003d0: f9c8 31bd 8283 4bbd 2dfb 8fbc 5968 e4bd
000003e0: 7976 e0bb 7d7f 1b3b 5861 993d f767 5dbd
000003f0: 9049 043e cf57 c5bd ff6c 54bc 7a2f 1b3d
0.03869713 0.0885222 0.11109502 0.22133604 0.056262378 -0.048549946 -0.10988862 0.021461468
0.07602928 0.15374792 -0.08783526 -0.0123307975 0.05796738 -0.14905524 0.10342061 -0.02763867
-0.005630664 -0.049957965 -0.10301011 0.041030258 0.087599695 -0.15494546 0.06887577 0.13151115
-0.0535104 0.12238611 0.0080802385 0.19145943 0.065265924 0.19400047 -0.07100581 -0.10410881
0.030984245 0.050791044 -0.08110744 0.15345517 0.02368631 0.025570022 -0.17715722 0.08890656
-0.068405434 -0.086860724 -0.006671482 0.00022119937 0.14446664 -0.05592896 -0.13901886 -0.056389704
0.0047004204 0.03387642 -0.040626902 0.045613796 0.099666834 -0.13781016 0.05725295 -0.03497396
0.09821719 0.083429836 0.03069246 -0.00048688636 -0.12205286 -0.005518774 0.009984992 -0.056886047
0.19645482 0.048554223 -0.08863069 -0.030043032 0.11211134 0.06897453 0.16273563 -0.15853578
0.36690614 -0.081976034 0.023753837 0.10263245 -0.014151705 -0.07698322 0.023723986 -0.05775911
-0.017891102 -0.17222393 -0.18921618 0.0018709797 0.06324023 0.020468274 0.127692 -0.13360065
0.012186719 0.07669758 0.12703732 0.025219547 -0.10145887 -0.040742267 0.025583865 0.07959233
-0.120433405 -0.018017804 0.06853465 0.006166568 -0.004330417 0.08463266 0.040735904 0.13543814
0.19007316 -0.054034226 0.135288 0.05356731 0.021981973 -0.16603847 -0.11716258 -0.028173573
0.0755895 -0.046217207 0.12710783 -0.12552021 -0.09226495 -0.0781341 0.25097486 -0.008663519
-0.057220727 -0.16046128 -0.022766812 -0.06658294 0.0014616225 -0.11857234 -0.052135546 0.018919624
0.10247592 0.061960272 0.13158037 -0.0695819 0.001848348 -0.21174034 -0.116847694 0.0796901
0.13627905 -0.037064552 0.05621517 0.028143808 0.18785934 -0.15840486 -0.0293986 -0.012128183
-0.16819677 0.062125858 0.09784563 -0.1176089 0.008481086 0.03301564 0.12705582 0.04513995
0.14274788 0.027201831 0.03926246 -0.047222562 0.17796327 0.04997575 0.00035355517 -0.078583516
0.0028924993 0.11435579 0.055717684 -0.034375682 0.039452486 -0.19667928 -0.010787214 0.01641704
0.012806074 -0.16488953 0.07835818 0.09342614 0.23567958 -0.018708987 0.013651295 -0.023112789
-0.12852621 -0.115058616 -0.07504091 0.08917733 0.00933911 -0.12962896 0.0075508715 -0.07400102
0.09637365 0.10129728 -0.08521942 -0.025015969 -0.16214164 -0.048268307 -0.12820461 0.082723804
0.092540555 -0.013111507 0.06626244 0.07950663 0.061279893 -0.02809741 0.09101648 -0.10012067
0.10799259 0.010259819 0.07664718 0.10440137 -0.04645933 -0.096892014 -0.09781947 -0.03902455
0.019105492 0.085559785 0.051655274 0.030125976 0.18558927 -0.018027082 0.016888218 0.07692243
-0.114712924 0.107727826 0.08720449 0.042522363 0.089777134 -0.056429386 -0.022506787 -0.09765451
0.04619462 0.031899795 0.047467504 0.041261192 -0.015312398 -0.032403167 0.06256753 -0.04574723
-0.045557503 0.0016520427 -0.17218779 -0.046423115 0.20875725 -0.018598273 0.010057261 -0.050971895
-0.0068718605 0.06535961 -0.09178967 0.043438032 -0.043404553 -0.049685962 -0.017575825 -0.11152715
-0.0068500605 0.0023727112 0.0748927 -0.054054227 0.12918687 -0.09635889 -0.01296544 0.037887074

network_body._body_endoder.seq_layers.2.bias f4 [128]
00000000: 7695 78bd 2d77 cfbc 7459 33bd b900 67bc
00000010: f830 edbc 5999 6e3c 1506 0dbd cbc5 29bd
00000020: 2016 e9bc 4b6d d63c bd28 cf3c 93d4 e8bc
00000030: 8032 e93b bc35 443d 18df 9fbc 4685 abbc
00000040: 2b8a 3bbd d174 0b3d 8765 c9bc ce9b 2d3d
00000050: 0608 a1bc 3e95 d93b 7f63 f83c 1f08 4dbd
00000060: 1d87 63bd 2a05 08bd 3554 4fbc 76a5 a53b
00000070: 477c e53c 4117 b23c 94bc 5ebd 80c7 f3bc
00000080: 6190 6abc 6136 81bb f8aa 5fbd c42c 1c3d
00000090: e8e3 aebc 63ac 10bd 94e2 e5bc 6ed3 9dbc
000000a0: c346 aa3c 8b6d d7bc 139e 50bb 9dc0 03bd
000000b0: f5bf 00bd 1733 fabc ef20 e0bc c277 babc
000000c0: 1843 e73a bede 91bc ae93 12bd ba90 2bbd
000000d0: dac7 6f3d be5c 2cbd df0f ddbc 4e27 1f3d
000000e0: a2e1 f3bc 8d7c 37bd a487 053d f184 143d
000000f0: b41c 2bbc d59c 3cbd daba 6bbb 8f68 bfbc
00000100: 9856 90bb 0e33 a1bc 5ddd 993d 5359 bbbc
00000110: 8a2d 073c 8300 d0bc 513a 773b 03cf 9ebc
00000120: 6db9 72bd 4af4 233b 0316 63bd a74e c03b
00000130: 61c0 b7bc 1ef7 203d a269 5ebc d3c7 eabc
00000140: 9f55 d0bc 4d47 a1bc d9d5 90bc b829 4cbc
00000150: b877 d7bc b815 c8bc de0d 28bd 7adb 5d3d
00000160: ff5c 323d be78 08bd 4310 fa3c af55 24bd
00000170: 37a2 163d ff38 8abc 05d6 3cbd abf1 cbbc
00000180: 8c13 27bd e756 e43c f97d 0fbd ffd0 4dbd
00000190: cb23 1abd 5480 eabc b65c 6bbd c75d f3bc
000001a0: 2af5 13bc fdb2 403d ddbb 20bd 6322 d83c
000001b0: dd0a 48bd 086f a4bc 034a 6d3c d255 c6bc
000001c0: 61b3 67bc 9ebe ebbc 7b13 11bd 536e 17bd
000001d0: dbf5 e3bc ac2b 76bc 6327 09bd de2d b2bc
000001e0: 9a00 44bc 785f b13c 268f b43c e2e3 e3bc
000001f0: 9c6b 81bc d54a d8bc e08f 1cbd 1841 2abd
-0.060689412 -0.025325382 -0.04378648 -0.014099293 -0.028954014 0.014562928 -0.03442963 -0.041448396
-0.028452933 0.026175162 0.02528798 -0.028421676 0.007116616 0.047902808 -0.01951556 -0.020937573
-0.045786064 0.03404695 -0.024584545 0.042384915 -0.019657146 0.0066401055 0.030320881 -0.050056573
-0.055548776 -0.03320805 -0.012654354 0.005055125 0.028013362 0.021739604 -0.05437906 -0.029758215
-0.014316649 -0.00394325 -0.054606408 0.03812863 -0.021348909 -0.03532065 -0.028062142 -0.019265857
0.020785695 -0.026297351 -0.00318325 -0.032166112 -0.031433064 -0.03054194 -0.027359454 -0.022762183
0.0017643897 -0.017806407 -0.03578537 -0.04188607 0.058540203 -0.042080633 -0.026985107 0.038855843
-0.029770676 -0.044796515 0.03260006 0.036259595 -0.010443855 -0.046048004 -0.0035969527 -0.023365287
-0.004404854 -0.019677665 0.07512925 -0.022869742 0.008250603 -0.025390869 0.0037723968 -0.01938582
-0.059258867 0.0025017434 -0.055440914 0.005868751 -0.0224306 0.03929817 -0.0135749895 -0.028659737
-0.025431452 -0.01968732 -0.017680096 -0.012461118 -0.026302204 -0.024424419 -0.04102885 0.054164387
0.04354572 -0.033318274 0.030525332 -0.040120777 0.036775794 -0.016872881 -0.046102542 -0.02489551
-0.040790126 0.02787347 -0.035032246 -0.050248142 -0.03763179 -0.028625645 -0.057461463 -0.029707802
-0.00903062 0.047045697 -0.03924166 0.026383584 -0.048838485 -0.020072475 0.014482978 -0.024210844
-0.014141888 -0.028777417 -0.03541897 -0.036970448 -0.027827194 -0.015025061 -0.033484828 -0.021750387
-0.011963034 0.021651968 0.022040915 -0.027818624 -0.015798382 -0.02640287 -0.038223147 -0.041565984

action_model._continuous_distribution.log_sigma f4 [1, 3]
00000000: 15de 14be d76d ccbd fdbf aebc
-0.14537843 -0.09981888 -0.021331782

action_model._continuous_distribution.mu.weight f4 [3, 128]
00000000: db8a 50bc b623 6ebd 4d4d 1e3b 451d 3abb
00000010: 23ea 0fbd 1413 443b eacc be3c d135 0b3d
00000020: ab60 c638 2b96 35bc 9254 99bb bbfe 823c
00000030: 5176 953b e5fb 543c cd9d c2bc 60bb 9cbc
00000040: f8c4 323c 05a4 743c f799 ccbc 634a ccbb
00000050: 66b0 fabc da10 aabc a965 dbbc 7bc1 9b3c
00000060: a233 163c 5759 ad3b e4b0 3abc 1039 84bc
00000070: 1ad1 e13a a0d5 45bc 5344 d93c 2ed5 263b
00000080: 99dc e0bb 4735 e7bb 7e4b d33c b8ad 633c
00000090: 656e 103d 9369 b3bc 6db8 c2bc e424 363c
000000a0: 38b7 63bb aedb 82bc 47d4 c03c c19d debc
000000b0: 6c8d 033d 959b b63b e414 96bc d880 953c
000000c0: 0883 653c f574 4abd af3f 2dbc 96f5 7c3b
000000d0: 1e5a 27bc f8e0 963b 3107 833c 73cb bf3b
000000e0: ab6e 88bc 1ea1 ceba afa5 333b f7d5 bb3c
000000f0: c3f3 09bd 8abf 8e3c caf1 02bc addc 8fbc
00000100: c80b 37bb 0dec 0cbb 5c14 0e3c b95e 023c
00000110: 67e1 d239 ea01 ea3c a201 d9b9 1603 613c
00000120: 2b25 043d d9a3 db3c 65cd 3aba 1ec2 bfbc
00000130: 2ce8 013d bd1b 8bbc 9591 03bc 6fe2 d63c
00000140: 0c3d d53b 18cd f53a 20f7 3abd b5f7 493c
00000150: 4934 d2bc 9675 2fbc aa2e 773c d4cd a1bc
00000160: 8249 dbba 7ae4 aa3b 75d9 823c 6357 333c
00000170: 7b64 693c 9820 15bd 8df9 3a3a 99a2 2b3c
00000180: cab3 1cbb 928d e83b d9c4 4dbb aad5 61bc
00000190: 347e 6fbb 5c64 36bc 4379 8d3b 9ee4 cb3c
000001a0: 05aa ae3c 3814 833c b184 b2bc a96e a83c
000001b0: 3b4b 17bb 89bd 1dbd 3f6b 953a 8961 b4ba
000001c0: 883f c4bc 1e3c db3b 1732 15bc 7229 043d
000001d0: 5de0 bcbc cbd4 c7bb d8a6 a03b db33 30bc
000001e0: 0fe1 5ebd 3363 d83c a02e 083b 45cd 1abc
000001f0: 9277 e73c 6ae1 1c3c 3951 9cbb c805 1dbd
00000200: 2ebe 4e3d d61d 813d 8ec6 9e3d c351 ae3d
00000210: a6cf 0c3d e330 69bc ecf3 c13d 5102 523d
00000220: 6a72 cd3d 6285 24bd eded 3ebd 1365 a43d
00000230: 8690 2cbd a993 13bd 0b09 6a3d 8f84 b73d
00000240: 5922 9b3d 5b5f 83bd 6a83 433d 6fc1 91bd
00000250: 4857 0a3d 7bf6 f5bb 4ffa 7dbd 777f 333d
00000260: bf80 8e3d 0c3d 6f3d 8c5a e53b 87d6 e2bc
00000270: 5a96 5dbd 3012 41bd c0d5 6c3d b9e8 873d
00000280: 58a3 b53d 16e5 2dbb 064c 423d 2984 6cbd
00000290: f3fe b93d 82b1 613d 1e53 8d3d c639 b53d
000002a0: d99e 1cbd 8c91 2f3d f833 ae3d 8393 993d
000002b0: bd5e cd3d b40b 923d 7940 093d 587c c43d
000002c0: d3d5 c1bb 19ea 603d 1bbf b03d b18a a93d
000002d0: 2880 93bd 4669 b63d 687e 853d 70a2 99bd
000002e0: fa32 553d e966 383d 1e90 21bd ae4e 6dbd
000002f0: 9d33 c53c 7690 753d 0989 2abc 9f33 dfba
00000300: e234 a73d eb6f 5c3d 7934 41bd bc2a b23d
00000310: d6f3 8bbc 60c0 c83d 4648 38bc b10e c53d
00000320: e44d 063d 15c9 27bc c3e3 1e3d fe21 e4bc
00000330: 0d03 b83d 86ea 8fbd 7d70 f43b c726 b03d
00000340: 6a59 ac3d 37a4 893d a738 9a3d 952e ac3d
00000350: 5080 773d 1cdb 713d b498 d63d 0333 bcbd
00000360: 9153 1abd e0e9 de3d 85fb 36bd 24be 9e3d
00000370: 8f84 f3bc 216d 2d3d e44a 993d 1674 b43d
00000380: f1ea 823d 2253 37bd c3b5 b43d 1dfc aa3d
00000390: ec1f 613d 34d5 7b3d 9886 153d 762a 853d
000003a0: d49e a13d 7b15 a1bd 3a36 a63d aa33 11bd
000003b0: eca1 903d 1c8b 4a3d 7167 bfbc 21d4 8f3d
000003c0: 4839 153d 337c ca3d 9614 343d 08a1 a23d
000003d0: 2840 763d 5c8d b63c ff01 b73d 1722 a93d
000003e0: 7343 213d 4298 1fbd 81c0 483a 27f4 b23d
000003f0: ab6f b03d d86f 9d3d 000a 9b3d dc23 623d
-0.012728418 -0.058139525 0.0024154962 -0.0028398794 -0.0351354 0.0029918598 0.02329107 0.03398687
9.4593815e-05 -0.011083166 -0.004679271 0.015990606 0.0045612236 0.012999509 -0.023756886 -0.019132316
0.010911219 0.014931683 -0.02497576 -0.0062344535 -0.030601691 -0.020759989 -0.026781874 0.019013157
0.009167584 0.005290191 -0.011394713 -0.01614049 0.0017228455 -0.012074858 0.026521837 0.0025456655
-0.006862235 -0.0070559117 0.025792833 0.013896398 0.03526153 -0.021900928 -0.023769582 0.011117194
-0.0034746658 -0.015973892 0.023538722 -0.027174832 0.032117292 0.005572746 -0.018320508 0.018249914
0.014008291 -0.049427945 -0.010574265 0.003859853 -0.010214357 0.004604455 0.01599464 0.0058531105
-0.016654333 -0.0015764569 0.0027411988 0.022929175 -0.033679735 0.017425317 -0.007992217 -0.017561281
-0.0027930606 -0.0021503002 0.008671846 0.007957154 0.0004022226 0.028565366 -0.00041390682 0.013733646
0.03226201 0.026811527 -0.0007125943 -0.023407992 0.031715557 -0.016981 -0.008030315 0.026231019
0.0065075215 0.0018753139 -0.045645833 0.012327124 -0.025659697 -0.010709187 0.015086809 -0.019751467
-0.0016730281 0.005215225 0.015972832 0.010946128 0.014245148 -0.036408037 0.0007132523 0.010475778
-0.0023910874 0.0070969546 -0.0031397848 -0.013783852 -0.0036543729 -0.011132326 0.004317434 0.024889287
0.021321306 0.016000852 -0.021791788 0.02056058 -0.0023085612 -0.038510833 0.001139976 -0.0013761978
-0.023956075 0.006690516 -0.009106181 0.032266088 -0.023056203 -0.006098365 0.004902702 -0.010754551
-0.05441385 0.02641449 0.0020779744 -0.009448354 0.028255258 0.009575227 -0.0047704247 -0.03833559
0.05047434 0.06304519 0.07752715 0.085116886 0.034377716 -0.014232847 0.094703525 0.05127174
0.100315884 -0.040166266 -0.046613622 0.08027091 -0.042130016 -0.03602949 0.05713753 0.089608304
0.07574911 -0.06414672 0.047732748 -0.07116973 0.033774644 -0.0075061894 -0.06200629 0.04382273
0.0695815 0.05840783 0.0069993194 -0.027690185 -0.054098465 -0.047136486 0.057821035 0.06636185
0.08869046 -0.002653425 0.047435783 -0.057743225 0.09081831 0.055100925 0.06900619 0.0884891
-0.038237426 0.042863414 0.08506006 0.07498839 0.100278355 0.071311384 0.03350875 0.09594029
-0.0059153824 0.054910753 0.086302005 0.082784064 -0.07202178 0.08906798 0.06518251 -0.075016856
0.05205057 0.045020018 -0.03944408 -0.057936363 0.024072463 0.05995222 -0.010408648 -0.0017028934
0.081643835 0.05381767 -0.047169182 0.08699557 -0.017084043 0.098023176 -0.0112477 0.09621943
0.032789126 -0.010240813 0.03879143 -0.02784824 0.08984957 -0.07027154 0.0074596987 0.08601146
0.08415492 0.067207746 0.07530337 0.08407322 0.060425103 0.05904685 0.104783446 -0.09189417
-0.03767735 0.10884452 -0.04467346 0.0775111 -0.029726295 0.0423404 0.074849874 0.08811204
0.06392468 -0.044757016 0.08823731 0.08348868 0.054962084 0.061482623 0.03650531 0.065022394
0.07891622 -0.07865425 0.08115812 -0.03544966 0.07062134 0.04944907 -0.023364754 0.07022882
0.03643158 0.0988697 0.043964945 0.079408705 0.060119778 0.022284202 0.089359276 0.08258455
0.039370965 -0.038963564 0.000765808 0.087379746 0.08615049 0.07687348 0.07570267 0.05520998

action_model._continuous_distribution.mu.bias f4 [3]
00000000: c57b e6bb 1718 8ebd 7ee2 f83b
-0.0070337974 -0.069381885 0.0075953593
