CS455_PR1/results/ShootTargetAgent_T2/ShootTargetAgent/ShootTargetAgent-13056.onnx (onnx, 490788 bytes, 18 tensors)

discrete_act_size_vector f4 [1, 2]
000000 00 00 48 42 00 00 48 42
       50.0 50.0

network_body.observation_encoder.processors.0.conv_layers.0.weight f4 [16, 1, 8, 8]
000000 16 36 04 be fb e2 de bd 1f d1 38 3d 4a ab fe bd
       -0.12911257 -0.10883137 0.04512131 -0.124350145
000010 15 8b 03 be 14 a6 e1 3d 39 5f 06 3d 43 a4 d4 bd
       -0.12846024 0.11018005 0.032805655 -0.10382893
000020 8b 48 e5 bc 18 3b 96 3d 74 3d 90 bc e1 76 bd 3d
       -0.027988693 0.0733549 -0.017607428 0.0925119
000030 93 a3 c1 3d b6 eb 5f 3d eb 9b 59 bd 76 e9 5b ba
       0.094550274 0.05466815 -0.05312721 -0.00083889754
000040 a3 7b d8 3b 91 73 f4 3c 4e a9 b7 bd 9c ef 24 bc
       0.0066065355 0.029840263 -0.08967839 -0.010066893
000050 d4 99 cf bc 4f 66 8d 3d 44 aa 5b 3d 5a 8d e8 bc
       -0.025341906 0.069042794 0.053629175 -0.028387714
000060 e1 1b ff bd 90 9e 90 3c 2d 34 cb 3d 16 12 3a 3d
       -0.12456489 0.017653733 0.09922061 0.045427404
000070 47 43 ac bd 47 6f b6 bd b5 91 0b 3c e0 ae f4 3d
       -0.0841127 -0.08907943 0.008518626 0.11947417
000080 c8 b5 02 be 6f b7 16 bd 76 e2 9b 3d e2 9a c1 bd
       -0.12764657 -0.03679603 0.07611553 -0.0945337
000090 97 18 7e 3d 8e dd 24 3c f5 13 44 bd 00 ac cc 3d
       0.06203517 0.010062588 -0.047870595 0.09993744
0000a0 9c 6c 29 3d 55 b0 e2 3c 88 b0 9a 3d 4d a2 d3 bd
       0.041363344 0.027671972 0.07553202 -0.10333691
0000b0 ed ba 6d 3d f6 85 74 bb e3 f7 e5 3d 0d 3b 03 be
       0.058039594 -0.0037311292 0.11228921 -0.12815495
0000c0 cc a3 84 bd 81 17 6f 3d bb 77 a1 bd d4 58 75 ba
       -0.06476554 0.058372024 -0.07884165 -0.0009359245
0000d0 1d de a6 bd 87 e0 d5 bd 37 29 70 3d 78 e3 7d bd
       -0.081478335 -0.10443216 0.058633056 -0.06198451
0000e0 26 68 02 be e2 34 a3 bd 56 ab c8 bd f3 6f 9d bd
       -0.12735042 -0.07969071 -0.09798305 -0.07687368
0000f0 b4 68 f7 bd df 97 9f bd 8c c6 ec bd 63 6e d6 3d
       -0.120805174 -0.07792639 -0.11561307 0.10470273
000100 63 18 41 bc 0f f3 af 3d f5 50 70 bd 95 0c d1 3d
       -0.011785599 0.085912816 -0.058670957 0.10207478
000110 d8 e2 de bb 88 68 1c bd fe 43 85 3d e1 3e dd 3b
       -0.006801944 -0.038185626 0.06507109 0.0067518805
000120 a3 c5 54 3d c3 5f 8b 3d da 26 e6 bd cf 6a cc bd
       0.051946294 0.068053745 -0.11237879 -0.099813096
000130 63 80 a2 3d f5 d5 da bc 54 ac e6 bc a0 b4 39 bc
       0.07934644 -0.02671335 -0.028158344 -0.011334568
000140 3a f0 c0 bb 0d 06 a9 3d a6 d6 e3 bd 6c 73 cf bd
       -0.0058880122 0.08253107 -0.11124925 -0.10129437
000150 7f f3 fb bd 69 d0 9a bd 2b b5 01 3d c6 95 f8 bc
       -0.123023026 -0.07559282 0.031666916 -0.030344855
000160 b5 9a ea 3d 1f 57 07 3d c1 c8 b8 bd d2 90 a6 bd
       0.11455289 0.03304207 -0.09022666 -0.08133091
000170 01 da 00 3e df 1e ec 3d 7d 61 44 3d 00 49 fd 38
       0.12583162 0.11529326 0.047944535 0.000120775774
000180 36 fb 48 3d 08 43 04 3d 4a 22 a6 bd b8 78 08 3d
       0.0490677 0.03229049 -0.08112009 0.03331825
000190 16 a7 d4 3d 9c 3a da 3d ae 6f c0 bd 5f 73 fb 3c
       0.103834316 0.1065571 -0.09396301 0.030694662
0001a0 ed 2f 1c 3d 38 cb a5 bd c4 ce 99 bd a5 80 9e bc
       0.038131643 -0.080954015 -0.075101405 -0.019348452
0001b0 20 1c f7 3b 51 80 ef 3d 08 ea 01 3b 76 34 f4 3d
       0.0075411946 0.11694396 0.0019823331 0.11924069
0001c0 0f cf d4 3d a8 3e fd bd 51 be a3 3d ec 92 29 3c
       0.10391056 -0.12365466 0.07995284 0.01034997
0001d0 8c 08 c5 3d 4a 0b f1 bc 4e ee a0 3d c9 42 06 3d
       0.09620771 -0.029424328 0.07857953 0.032778535
0001e0 14 cf f9 bd 13 29 31 3d 48 84 e3 bc a5 87 43 3d
       -0.121977 0.043252062 -0.027773038 0.047736783
0001f0 4f 3a f1 3d da 58 95 bd 35 a4 a7 3d 79 84 36 bd
       0.117786996 -0.07292338 0.08185617 -0.04455993
000200 ff 96 a2 bd 7b 04 e9 3d d9 3a 94 bd 18 9a ee 3d
       -0.079389565 0.11377808 -0.07237787 0.11650485
000210 49 66 be 3b 64 f4 15 3e f8 6a cf 3d 09 e5 e2 3d
       0.005810533 0.14644009 0.101278245 0.11078841
000220 47 df fb bd 19 06 eb 3d 38 56 c8 bd 5f ad ab bd
       -0.12298446 0.114757724 -0.0978207 -0.08382677
000230 6e f7 a2 3d 73 39 da 3d 30 44 24 3d cd 35 fe bb
       0.0795735 0.10655489 0.04010409 -0.0077578784
000240 d8 59 ce bd d2 fb d3 bd f9 65 03 bd 6a a7 f9 3c
       -0.1007573 -0.10350765 -0.03207967 0.030475337
000250 a0 22 de 3d 0f 86 24 bd cb c6 0c 3e 6b 10 7c 3d
       0.10846448 -0.04016691 0.13747708 0.061539095
000260 7e c2 5c bd 6c db a5 3c 63 9a f7 bd c3 37 8b 3c
       -0.05389642 0.02024623 -0.12089994 0.016994363
000270 75 2a 08 3d c0 a7 e8 3d 74 0b e0 3d 22 52 a0 3d
       0.033243615 0.11360121 0.109396845 0.078281656
000280 b0 b8 4f bd 6a 36 16 be 82 21 05 bd 65 b3 80 bd
       -0.05071324 -0.14669195 -0.03250266 -0.06284217
000290 66 90 7b bd fe 47 6c bb 54 83 99 bd ea 66 c6 3d
       -0.061417006 -0.0036053653 -0.07495752 0.09687598
0002a0 bd 3b b6 bd cd 6a 73 bd 30 44 89 3d 23 2e 00 be
       -0.08898113 -0.059428025 0.06702459 -0.125176
0002b0 12 8d 9a bc 40 8b be bb b4 c4 8d 3d 05 35 43 bd
       -0.018866096 -0.0058149397 0.06922284 -0.047657985
0002c0 e0 5c 32 be 91 fe 94 bd 73 13 10 be 93 3f 5c 3d
       -0.17418242 -0.07275117 -0.1406992 0.053771567
0002d0 e4 00 b4 bd b4 c9 03 3e 77 b6 d0 3d 88 10 6e 3d
       -0.087892324 0.12869912 0.101910524 0.058121234
0002e0 d6 66 f7 bd d5 71 a1 3d 50 98 c1 bc ae 87 c9 bc
       -0.12080161 0.0788304 -0.023632199 -0.02460083
0002f0 61 f7 28 3d 29 b8 4d 3c 1e f0 a8 bd fa e0 a1 3d
       0.041251544 0.012556114 -0.08248924 0.07904239
000300 e9 b7 7f bd a0 a4 91 3b 2e a6 9f 3d f3 8f c1 3d
       -0.06243125 0.0044446737 0.07795368 0.09451284
000310 67 9f 0e 3d 86 bf 09 3d 63 24 f5 3d 76 a1 17 3d
       0.034819987 0.033629917 0.11969831 0.037019216
000320 65 76 88 3c d7 12 87 3d 3b 6c 10 bd 0b 18 e0 bc
       0.016658017 0.0659539 -0.035259467 -0.027355215
000330 9a 93 45 3d 62 75 49 bd 9a 58 1f 3b 61 4a 07 3e
       0.048236467 -0.04918421 0.0024314285 0.13211967
000340 11 13 27 bd c5 c9 c4 3d 7b 1a b5 bd 65 8c 5b 3d
       -0.040789668 0.09608797 -0.088429414 0.053600688
000350 85 b1 ec 3d d7 cc 61 3d 44 eb 71 bd b1 4c 66 3d
       0.11557297 0.05512699 -0.059062257 0.056225482
000360 44 2c e7 3d 23 6f 07 bd 4c 0c 8c 3c 14 f3 44 3c
       0.1128774 -0.033064973 0.017095707 0.012020845
000370 ba a4 81 3d 57 86 3b 3d e9 9b 71 3d a1 d7 76 3d
       0.06330247 0.045782413 0.058986578 0.060264233
000380 4a 5f dc 3c cf 89 0f 3e 5d 7e 26 bd 08 67 db 3c
       0.026900906 0.14017414 -0.040647853 0.026782528
000390 b2 ad 82 3d 05 4d c4 3c 99 61 58 3d 9a 43 c3 3d
       0.06380786 0.023962507 0.05282745 0.09534378
0003a0 06 50 d0 3c f2 f8 fc 3d 0d 42 b0 bc 84 93 d2 3d
       0.025428783 0.1235217 -0.02151587 0.102820426
0003b0 59 fc 9f 3d cb 9c e2 3b e1 da 56 3d 03 0c 04 3e
       0.07811803 0.006915664 0.052454833 0.12895207
0003c0 4c 32 a7 3d 29 d7 fb bc 25 df a8 3d 45 cd 48 3c
       0.0816389 -0.030742245 0.082456864 0.012255971
0003d0 08 4e 7b bd aa 8b fe bc c7 42 c3 bc 98 b3 c5 bd
       -0.061353713 -0.031072456 -0.023835553 -0.096533954
0003e0 b0 df c0 bd aa f9 f4 3d 15 56 be bd 87 8b b0 3c
       -0.09417665 0.11961682 -0.092937626 0.021550907
0003f0 2a 8d 86 bd c2 c8 f2 bc 45 e8 db bc 11 55 8c bd
       -0.06569894 -0.029636744 -0.026844153 -0.06852163

network_body.observation_encoder.processors.0.conv_layers.0.bias f4 [16]
000000 29 76 0b 3c 61 30 e3 3d f9 db 9f bc 42 53 eb bc
       0.008512058 0.11093212 -0.01951407 -0.028726224
000010 13 8d 58 3d 6a bb e2 3d 53 57 16 bd 00 b1 d9 3c
       0.052868914 0.11070903 -0.036704373 0.026573658
000020 d8 8d 78 3d 3f f9 5d bd 06 6e b2 3d 7f 2e db 3d
       0.060682148 -0.054192778 0.087123916 0.10702228
000030 38 ed e2 3d ff 9c f2 3c ed 4f 2b 3d 24 e6 12 bc
       0.11080402 0.029615877 0.04182427 -0.008966003

network_body.observation_encoder.processors.0.conv_layers.2.weight f4 [32, 16, 4, 4]
000000 3e b3 d3 bc 33 03 53 bd 71 a4 ab 3c ea 74 5e bd
       -0.025842305 -0.051516723 0.020952435 -0.054310717
000010 c3 4e 56 bc 9a 08 b5 bc 76 96 6a bd 4e cb 08 3d
       -0.013080302 -0.022098828 -0.057272397 0.03339701
000020 cb 1b 4b ba 3e 59 c1 bc c3 a9 90 bc 30 26 06 bb
       -0.0007747977 -0.023602124 -0.017659074 -0.002046954
000030 6f fc 2c bd 60 76 96 bd 4f 12 7a bd f9 ec 74 3b
       -0.042232927 -0.07346797 -0.061052617 0.0037372692
000040 44 f0 e3 bc ce 67 5f bd e6 0d a5 bd 27 e5 55 bd
       -0.027824529 -0.054542355 -0.080592915 -0.05222049
000050 7b 85 9b bd 9e 5b 0d 3d 42 e5 b6 3c 6a d9 1e bc
       -0.07593819 0.0345112 0.022326116 -0.00969539
000060 2c 16 1f bd ec 7a 52 bc 39 73 aa ba 8a af 67 bd
       -0.038839504 -0.01284669 -0.001300431 -0.05656389
000070 2c a5 8e bd fe 23 c2 bc 03 4d 39 bc 78 a4 07 bd
       -0.06965098 -0.023698803 -0.011309865 -0.033115834
000080 47 d3 99 3c f9 ad 40 bd 51 f5 6e bd e7 6e 7b 3d
       0.018777503 -0.047040913 -0.05833942 0.06138506
000090 73 59 37 3d 3e 3d a4 3c 75 a6 ec bc 27 37 42 3d
       0.04476304 0.020048734 -0.028887967 0.04741588
0000a0 d8 2e 82 bd dd 08 e1 3c bc d9 c0 bc 46 00 84 3d
       -0.06356591 0.027470047 -0.023541324 0.06445365
0000b0 5b 6c 9f 3b 2a 77 91 bc 1b dd 4a bb 69 9e 96 3d
       0.004865212 -0.017757017 -0.0030954543 0.07354433
0000c0 50 74 40 3d b4 9e 39 3d 5d a2 3f bd 56 fb 18 3c
       0.046985924 0.045317367 -0.0467857 0.009337267
0000d0 63 c5 93 3b 70 7e fe bc 56 07 26 3d 02 7e 26 bb
       0.0045096143 -0.03106615 0.04053434 -0.0025404696
0000e0 25 0e 0c bd 65 bc 8c bc 09 56 b4 bc 11 58 15 3d
       -0.034193177 -0.017179677 -0.022013681 0.03646094
0000f0 3a 74 1e 3d cd 9f 7f bd e3 87 1f bb 15 aa 3d 3d
       0.03868506 -0.062408257 -0.002434247 0.04630478
000100 18 42 88 bd 11 1a ba 3c a9 70 8e bd f1 b9 16 3d
       -0.066532314 0.022717508 -0.06955082 0.03679842
000110 4f 2a 60 bd ae ed 43 bd 73 2e e6 bb d0 af 42 bd
       -0.05472785 -0.04783409 -0.00702458 -0.04753095
000120 28 3a 52 bd 50 b4 93 bd 12 9c 18 ba 16 ab 8c bd
       -0.051324993 -0.07212126 -0.0005821596 -0.068685696
000130 46 47 1b bc b0 dd 9a bd de 55 cf 3c 47 e5 90 bd
       -0.009477442 -0.07561815 0.0253095 -0.07074981
000140 34 81 45 bd 23 00 49 bc 64 f2 18 bd 06 1e c4 bc
       -0.04821892 -0.012268099 -0.037340537 -0.023940098
000150 f9 0d 23 bd 5d 2b 59 3a bd 09 07 bd 37 ff f8 3c
       -0.039808247 0.00082843547 -0.03296827 0.030395133
000160 d7 48 03 3c eb 4b 9e 3c ff 75 dc ba 06 8a b6 bc
       0.008012972 0.01932331 -0.0016819834 -0.022282612
000170 56 6d 8e bd 7f c4 07 3d 7a 11 ae 3c 4c cf 5c bd
       -0.06954448 0.033146378 0.021248568 -0.05390863
000180 21 a1 46 3d e5 c6 b6 bb db 97 f6 bc 5f a0 72 3d
       0.04849351 -0.0055779093 -0.030101707 0.059234973
000190 e8 48 18 3c 7a 79 82 3b 9c db dc bc 1f 39 1b bd
       0.009294726 0.0039817663 -0.026960187 -0.03789627
0001a0 06 0e 95 3c 54 50 30 bd 2d f3 73 3d b1 e5 f9 bc
       0.018195163 -0.043045357 0.059558082 -0.030505033
0001b0 e4 43 99 bb 13 73 47 bd 52 36 c3 bc e3 bf 33 3d
       -0.0046772826 -0.048693728 -0.023829613 0.04388417
0001c0 fa 58 d7 3c fe 18 5c bd cc ee 3b bc 36 4d 17 3c
       0.026287545 -0.053734772 -0.011470508 0.009234717
0001d0 09 f0 e0 3c 9d 5f 80 bd ae 2a dd bb 03 6e 75 bd
       0.027458208 -0.06268237 -0.0067494726 -0.05991937
0001e0 a6 2d 88 bd 34 7b 17 bd 4d 3f 02 bd d2 dc e9 bc
       -0.06649332 -0.03698273 -0.03179865 -0.028547678
0001f0 5e fa 8b 3c a4 61 17 bc 27 28 a6 b9 cb 1a 52 3d
       0.017087158 -0.009239588 -0.00031691903 0.051295083
000200 67 9a ce bc 0b 8e ae bc f2 34 7d bd 90 6f 37 3d
       -0.02522011 -0.021307966 -0.06181807 0.04478413
000210 27 43 3f bc 60 5e 43 bc a8 e3 91 3a dc 49 24 3d
       -0.011673725 -0.011924356 0.0011130469 0.0401095
000220 af b3 32 bd f6 c9 25 bb ff 47 c5 3c 11 04 df bb
       -0.04362839 -0.002529738 0.024082182 -0.0068059047
000230 7c 49 9b 3c e1 6e 1b 3c c7 e1 f7 bc cc 78 13 bc
       0.018955939 0.009486885 -0.030259026 -0.009000968
000240 64 af ee bc 2b 72 e9 bc 92 1e 25 3d e8 43 1d bd
       -0.029136367 -0.028496822 0.040312357 -0.03839484
000250 de 27 b7 bb 6c 8b 89 bd 7a 87 80 bd 79 ca 2d ba
       -0.0055894693 -0.06716046 -0.0627584 -0.0006629597
000260 59 6f cc 3c ff 2d 14 3c 5d 2e 0c 3c ab 39 66 3d
       0.024955438 0.009044169 0.008555976 0.05620734
000270 f0 67 72 3c d3 42 f1 bc 03 87 ab 3c e2 7d 75 3c
       0.014795288 -0.02945081 0.020938402 0.014983626
000280 11 24 6c bd b5 c4 0b 3d dc 35 a3 bd 86 90 71 bd
       -0.057651583 0.03412314 -0.07969257 -0.05897572
000290 30 61 86 bd 15 4f 9f bd f3 5c 1f 3c 17 35 9c bd
       -0.06561506 -0.077787556 0.009726751 -0.076273136
0002a0 ac f1 00 3d 14 ed 2f bd 3a bf 42 3c 12 fe b5 bc
       0.031480476 -0.042950705 0.011886412 -0.022215877
0002b0 af 5d fe bb 06 a6 9e 3c e7 68 6b bd 6e a6 eb 3c
       -0.007762633 0.019366276 -0.05747309 0.028765883
0002c0 e6 d9 a6 bd 69 6e 6a bd 03 bc 2a 3c 25 56 51 3c
       -0.081470296 -0.0572342 0.010420802 0.012776886
0002d0 62 9a c2 bc 54 fd 0e 3d ec c9 a1 bd d7 6c 23 3d
       -0.023755256 0.03490956 -0.07899842 0.03989872
0002e0 f6 89 91 bd 19 7a e3 3c d8 ea a3 bd 0e 50 2a bd
       -0.07106392 0.027768182 -0.08003777 -0.041580252
0002f0 87 48 45 3c f5 79 c0 3c bb 18 0c 3d 10 21 30 bd
       0.012041218 0.023495654 0.034203272 -0.04300028
000300 ee 63 e5 bb 0d 29 3b bd 0e 50 6d bd a1 d8 0c 3d
       -0.007000438 -0.045693446 -0.057937674 0.03438628
000310 f1 05 82 bd 6f 2e ea bc cc ed d7 bb 88 05 01 3d
       -0.063487895 -0.028586594 -0.006589627 0.031499416
000320 a9 00 4b bc 8b 3f b2 3c 0e 89 9b 3c bc 30 5e bc
       -0.012390294 0.021758815 0.018986251 -0.013561424
000330 5a dc 1e bc fc 7e 41 3b ae 30 f1 3c 1b 08 3d bd
       -0.009696091 0.0029525151 0.029442158 -0.046150308
000340 46 d0 11 bd 34 99 37 3c d0 03 8f bd 64 68 6e 3b
       -0.035599016 0.01120596 -0.06983149 0.003637814
000350 ae 9b b2 bc 41 f2 f6 3b 88 e5 eb bc aa ce 1e bd
       -0.02180275 0.007536203 -0.028795972 -0.03877131
000360 50 d4 12 bd 88 a5 47 bd 0f 07 90 bd c9 4d c8 bc
       -0.03584701 -0.048741847 -0.07032596 -0.024451153
000370 e4 7a 8a bd 85 fb 99 3c 87 f1 8a bd 7e 0e 10 bd
       -0.06761721 0.018796692 -0.06784349 -0.03517007
000380 49 65 ab bd 3c bb d1 bc 78 72 a7 3c 5c 15 79 3a
       -0.08368928 -0.025601976 0.020440325 0.0009501779
000390 89 c1 1c 3c 37 7e 78 bc af 03 a7 bd 3c 3f d1 bc
       0.009567627 -0.015166811 -0.081549995 -0.025542848
0003a0 32 e5 96 bd bf 4b 0d bd 8d e7 3f 3c 53 4d 25 bd
       -0.07367934 -0.034496065 0.011712921 -0.040356945
0003b0 fe 59 ec bc 3e c6 8b 3c 2d bc f7 bb b1 ca 33 bd
       -0.028851505 0.017062303 -0.007560274 -0.043894473
0003c0 6f 64 47 bd 97 66 52 bd c4 aa 4d bd 0a 7c 3b 3d
       -0.048679765 -0.05136737 -0.050211683 0.04577259
0003d0 74 d5 62 bd 04 50 2b bc e8 f5 24 bd 42 e3 ff 3c
       -0.055379346 -0.010456089 -0.040273577 0.031236295
0003e0 9b 32 94 3b 0c 64 70 bd db f4 36 3d 8e 22 24 bd
       0.004522634 -0.058689162 0.044667106 -0.040072016
0003f0 a5 fb 30 3d aa fe 91 bc c1 59 3f 3d 55 8d ac 3c
       0.043208737 -0.017821629 0.046716455 0.021063486

network_body.observation_encoder.processors.0.conv_layers.2.bias f4 [32]
000000 25 f5 b1 bc 80 53 ff 3c c3 c4 2d 3d b1 cf 3a 3d
       -0.02172334 0.031167746 0.042423975 0.045608226
000010 88 f0 00 3d 2d e4 06 3d 5b 3c 60 3a 0d a6 e6 3c
       0.03147939 0.03293245 0.00085539155 0.028155351
000020 c0 23 e3 3c 48 a2 51 ba a9 63 4e bd 63 7d 80 bd
       0.027727008 -0.0007996899 -0.050388012 -0.062739156
000030 d6 d4 43 3d c2 6e 96 bc 26 15 90 3d f1 7d 61 3c
       0.047810398 -0.01836336 0.07035284 0.013762937
000040 2d 91 5d bc 70 00 31 bc 4e 2b 23 bb e4 03 db bc
       -0.013523382 -0.010803327 -0.0024897638 -0.026735254
000050 a6 46 55 bd dd 12 a6 3c df 76 60 bd 13 12 4b 3d
       -0.05206933 0.020272667 -0.054800864 0.049577784
000060 ce d3 70 3d 8c f1 74 3d 61 a5 12 3d 53 c5 7d 3c
       0.058795743 0.05980067 0.03580225 0.01548894
000070 ec 40 3c bd c7 95 cc 3c 7e 65 2f bd d3 6e 42 3d
       -0.04596035 0.024973763 -0.0428214 0.04746897

network_body.observation_encoder.processors.0.dense.0.weight f4 [128, 512]
000000 db 61 13 3d e4 25 6b bd 75 12 01 bd 38 32 1e 3c
       0.035981994 -0.057409182 -0.031511743 0.009655528
000010 66 90 87 bd 27 ec 70 bd 04 58 68 bc fe b4 51 3c
       -0.06619339 -0.058818962 -0.014181141 0.0127995
000020 f8 a8 dc 3d 63 0e a5 3d 75 09 29 3d 01 a2 b3 bc
       0.10774416 0.08059385 0.041268785 -0.021927835
000030 b3 80 50 3d f7 9b c5 bd 3e f1 04 3d f1 e4 10 3d
       0.050903987 -0.096488886 0.03245663 0.035374586
000040 87 3c 05 3d 2a c3 7c 3b b2 54 5b 3c a0 92 a1 3d
       0.032528426 0.0038568475 0.013386892 0.078892946
000050 84 16 84 bc fb b7 d4 3c 77 44 01 bc 35 d7 ce bd
       -0.016124018 0.025966635 -0.007889858 -0.10099641
000060 51 a9 06 3e 26 8c cc bc a5 64 07 3c 8d 0f 1d 3d
       0.13150527 -0.024969172 0.008263742 0.03834491
000070 09 00 07 bd 7f c6 c5 bd dc 6f 22 3d 4d bc b6 3d
       -0.032959018 -0.09657001 0.03965746 0.08922634
000080 7b c2 6b 3c 99 af aa 3b d8 a6 69 bd c0 f4 d7 3d
       0.0143896295 0.005208921 -0.05704388 0.10544729
000090 8c 9c fa bd 3e da ef 3c 3a fd 27 bd 49 90 44 bd
       -0.1223689 0.02927887 -0.04101298 -0.047989164
0000a0 6a 02 18 3b c2 aa e7 3c 71 da f0 3c 1a 48 e9 bc
       0.0023194798 0.028279666 0.029401036 -0.028476764
0000b0 67 e6 ad 3c 54 81 79 3d e1 27 ba bd 30 a6 c6 3c
       0.021228028 0.060914353 -0.090896375 0.024249166
0000c0 c1 b4 5a bd 13 b1 0c 3e 0e d1 0b 3c e2 23 17 bd
       -0.053395037 0.13739423 0.008533729 -0.036899455
0000d0 1e d2 98 3d 8e bd b6 3d 22 c6 60 3c c4 53 7e 3c
       0.07461952 0.089228734 0.013719114 0.015522901
0000e0 f4 88 cb 3c 13 9b 3a bb 96 76 2e bc 9e f9 fa bc
       0.024845578 -0.002847378 -0.01064839 -0.030636605
0000f0 bf c4 9f 3d f4 65 e0 3b 04 b4 0f 3d 76 92 07 3c
       0.07801198 0.0068480913 0.035083786 0.008274665
000100 ea dd 13 bd d1 fe 27 bd 4d 7b ca 3d f4 f6 c3 3d
       -0.036100306 -0.041014496 0.09886799 0.09568587
000110 58 45 01 bd 29 e1 16 3d 13 bc 50 bc fd 7e 8b bc
       -0.031560272 0.036835823 -0.012740153 -0.017028326
000120 c4 2a fe bc 53 10 07 3e 8a fa af 3d 7d 76 55 3d
       -0.031026252 0.13189821 0.085927084 0.052114952
000130 4d 11 cb 3b 83 7b 14 3e 88 07 55 3d 18 57 b3 bd
       0.006197131 0.14500241 0.052009135 -0.08756846
000140 8e 82 a0 bd d4 b5 85 bd d4 17 37 bd 60 bf bd 3c
       -0.07837401 -0.065288216 -0.04470046 0.023162544
000150 6c 40 b2 bc 53 2c 9f bb 07 74 fd 3d 93 a0 50 3c
       -0.021759234 -0.004857579 0.12375646 0.012733596
000160 48 26 fa bc e0 9a 84 3d 4e de 6f bd f4 c5 ef bc
       -0.030535832 0.064748526 -0.058561616 -0.029269196
000170 e3 0b 46 bd e5 98 9d 3d 6d 7e cd bb 0b b4 a2 bd
       -0.04835118 0.07695178 -0.0062711746 -0.07944497
000180 e3 f8 e8 3c 76 bd 45 3d 8e 99 d5 38 5b cf 75 bd
       0.028438991 0.048276387 0.00010185233 -0.060012203
000190 c9 1d a3 bd 5c 25 c8 3d d1 0e 91 3d 58 09 1b 3c
       -0.079646654 0.09772751 0.07082904 0.009462677
0001a0 54 d1 15 3e 18 48 9b 3d 3f de 71 3c 9a f0 30 3b
       0.14630634 0.0758211 0.01476246 0.0026998878
0001b0 ff 14 04 3c 35 c7 5c 3c c3 ff ea 3d 64 85 20 be
       0.0080616465 0.013475229 0.11474564 -0.15675884
0001c0 ee db 0a bd a1 71 ef 3d 1f 4e 42 bd d3 0e 8c bc
       -0.033901148 0.11691595 -0.047437783 -0.017096912
0001d0 d1 3e 50 ba ca da 07 3c da cc a0 bc e3 dd fd bc
       -0.00079439307 0.0082919095 -0.01962893 -0.030989593
0001e0 35 8f de bc 5b 6f 83 3c 75 8a 97 3d 31 5d 92 3d
       -0.027167896 0.01604431 0.073994555 0.07146681
0001f0 02 3c 78 bc 09 fa aa 3d dc 72 e1 3c b6 54 6c 3c
       -0.015151026 0.08348472 0.02752059 0.014424494
000200 c6 12 91 3d 78 08 44 bd 16 ce 92 3d 44 09 ac bc
       0.07083659 -0.04785964 0.07168214 -0.021000512
000210 34 7f 39 3b f7 40 bc bd 25 06 1a bc 5c 18 9a bb
       0.0028304579 -0.091920786 -0.009400879 -0.004702611
000220 16 0e 96 3c 9a 78 bc 3d 82 75 6f bd eb bf 3c 3c
       0.018317264 0.092026904 -0.058461674 0.011520366
000230 1c 49 7a bd 3b 98 0f bd 34 b6 a4 3d e8 2b f4 3c
       -0.06110488 -0.035057288 0.08042565 0.029806092
000240 97 31 00 bc ef f6 5b 3b f9 93 05 bd 70 ad a0 bc
       -0.007824323 0.0033563932 -0.03261182 -0.019613951
000250 a4 04 af 3c 17 67 d7 3c 27 e8 48 bb 7a d0 ab bd
       0.021364518 0.026294274 -0.0030655952 -0.08389373
000260 fd 69 61 3d 45 8b 3a 3c d8 fc 34 3c c1 a1 cd 3c
       0.05503272 0.0113857435 0.011046611 0.025101544
000270 59 a5 8d bc 0c 69 a8 bd 14 33 71 bd ac 19 76 3d
       -0.017290758 -0.08223161 -0.058886603 0.060083076
000280 9c 5e ca bd 1a df f6 bc f4 cc 35 bd 21 63 44 bd
       -0.098813266 -0.03013568 -0.04438491 -0.0479461
000290 e4 f7 dd bc d8 55 71 bd bb 5d b5 bd 49 ce 58 3d
       -0.027095743 -0.058919758 -0.08855768 0.052931104
0002a0 fc d7 a8 bb 4c 1f 63 3d 13 1a 87 3d 4b 20 7c 3c
       -0.0051527005 0.05544977 0.0659677 0.015388559
0002b0 29 16 0a bc 0a e3 99 bd 62 41 13 3e 53 f3 c3 bc
       -0.008428135 -0.075140074 0.1438041 -0.023919737
0002c0 c5 46 bd bd ae f5 5b 3d b9 0d 11 bd 2c 75 53 3c
       -0.09242014 0.053701095 -0.035413478 0.012906354
0002d0 43 ce a8 bd 82 f2 f7 bd 70 5b 76 bc 20 92 90 bc
       -0.08242466 -0.121068016 -0.015036449 -0.017647803
0002e0 4e 70 23 3b be 7f 02 bd 43 b1 1c 3d 70 78 d7 bc
       0.0024938765 -0.031860106 0.038254987 -0.026302546
0002f0 5d a7 fb bc 57 0f a2 bd 4f b6 1a bb 29 f0 9f 3d
       -0.030719453 -0.07913082 -0.00236072 0.07809479
000300 ad 8a 7b bd 47 7b 1b bd df 56 7f bd 9f a2 47 3d
       -0.06141155 -0.037959363 -0.062338706 0.048739072
000310 6d 41 8d 3d ae bd 82 bd 00 05 ce bc b6 da 83 bd
       0.068972446 -0.06383835 -0.025148869 -0.064382
000320 8b ae 6a 3c dc d3 1e bd 86 d7 f1 3c 61 1f b4 3d
       0.014323841 -0.038776264 0.029521715 0.087950476
000330 6f 59 51 bc 0e d9 23 3c d9 96 0b bd 20 26 5a 3c
       -0.01277767 0.01000048 -0.034079406 0.013314754
000340 9e c9 5e 3d 95 97 99 3d 3d b5 eb bc 61 1d 93 3c
       0.054391496 0.07499615 -0.028772945 0.017958345
000350 35 de c1 3d c2 48 14 be e1 04 32 be cb e9 c2 bd
       0.09466211 -0.1448088 -0.17384674 -0.09517249
000360 d4 f6 d2 3d 1b b0 02 be 3f 49 71 bd 66 6c 39 3c
       0.10300985 -0.12762491 -0.058907744 0.011317348
000370 f0 8f 0f 3c 78 69 1a 3d 36 87 c5 ba 9e 6b 9e 3b
       0.008762345 0.03769824 -0.0015070203 0.0048346063
000380 94 45 aa 3c ec 05 8a bb 7c 45 7c bc 9f 1a 7f 3d
       0.02078513 -0.0042121317 -0.015397426 0.062281247
000390 2c 59 bf 3d 92 5a be 3d cd 39 1f 3d 98 93 78 bc
       0.0934318 0.09294619 0.038873482 -0.015171908
0003a0 07 d4 77 3d 35 ef a3 bd 3b 3a 82 bd a7 e5 b1 3d
       0.06050494 -0.080046095 -0.06358763 0.08686381
0003b0 a3 bd 13 3e 8a 0c 98 bd ff c0 42 bd bc 04 ea bc
       0.1442781 -0.07424267 -0.047547337 -0.02856671
0003c0 00 a9 47 3e 4a 09 4a 3d 62 35 8e bd 56 7d e1 bd
       0.19498062 0.049325265 -0.06943776 -0.11010234
0003d0 5c b7 32 3e a2 47 7a bd bc 85 28 3c 33 53 dd bd
       0.17452759 -0.06110347 0.010285791 -0.108068846
0003e0 81 c6 25 3d b7 16 bd bd 65 1a 6a 3d bf f1 34 bd
       0.04047251 -0.09232848 0.057154078 -0.04417586
0003f0 53 b2 87 3d 70 87 ec bb 77 c6 17 bd 5d 7f f2 3d
       0.066258095 -0.007218294 -0.037054505 0.11840699

network_body.observation_encoder.processors.0.dense.0.bias f4 [128]
000000 b5 20 e1 3c 16 fd b3 bc 7c e9 92 3c 2e e8 ad bb
       0.027481416 -0.021971267 0.0179336 -0.005307219
000010 bc a5 18 ba 9d 34 54 bc 3d 3c 84 3c bd 87 01 3d
       -0.0005823036 -0.012951997 0.016142005 0.03162359
000020 5f b2 a7 bc 84 c4 ab 3c 63 e7 98 3c d8 9d 0a 3b
       -0.020470796 0.02096773 0.018665021 0.002115121
000030 de 6f b9 3c 91 e6 c3 3c 17 e7 a4 3c 98 d2 93 3b
       0.02263635 0.023913654 0.020129723 0.0045111887
000040 a6 d2 90 38 8c 57 19 bd b9 f2 9c 3b de cc e3 ba
       6.9056914e-05 -0.037437007 0.004789677 -0.0017379781
000050 d5 88 56 b9 86 e4 9b 3c f7 0d 98 3c e1 75 bc 3c
       -0.00020459604 0.019029867 0.018561346 0.023005428
000060 8b 96 a9 bc aa ed e7 bc 53 68 8a bc d4 f8 9e 3a
       -0.020701667 -0.02831157 -0.016895449 0.00121286
000070 4d 38 16 bc 2f 9c ac b9 00 a6 91 3c 43 5a 90 3c
       -0.009168697 -0.00032922762 0.01777935 0.017621165
000080 17 26 72 bb 51 2b af 3c 80 04 e3 3c bd 46 5d bc
       -0.0036948973 0.02138296 0.027712107 -0.013505635
000090 43 99 97 bc 0e 86 72 3c 0d e5 33 bd d1 fe b9 3c
       -0.018505698 0.014802469 -0.04391961 0.022704514
0000a0 18 3a 85 bb e1 31 f1 ba dc 6c 55 3c 9f ea 05 37
       -0.004065763 -0.0018401706 0.013026442 7.982045e-06
0000b0 56 22 03 3b bf 28 9d 3c 37 58 9d 3a 72 80 87 3c
       0.002000948 0.019184468 0.001200444 0.01654074
0000c0 14 cf 8c 3c 36 41 0f 39 d7 6d 48 3c 52 80 49 3c
       0.017188586 0.00013661836 0.012233219 0.01229866
0000d0 a8 6c ce 3c e6 4c 95 3c e5 2e 5e bc b9 5c 97 bb
       0.025198296 0.018225145 -0.013560985 -0.0046192077
0000e0 53 d1 e0 bc 90 bc f7 3c 9c 39 7b bb 8d ea 6d 3c
       -0.027443564 0.03024128 -0.0038333898 0.014521253
0000f0 7f af 9e 3c 9e ca 89 3c f6 ea 3b bc 68 22 18 3d
       0.019370792 0.016820248 -0.011469593 0.037142187
000100 d1 20 ca 3c c8 26 0e 3d 4d 95 64 bc 0a e2 9a bc
       0.024673851 0.034704953 -0.013951612 -0.018906612
000110 f3 40 90 3c dd fb df bb 6d 3c 93 3c af 49 c7 bc
       0.017609095 -0.0068354444 0.01797315 -0.024327127
000120 48 71 3a bb f3 85 e3 3c 1e 5d 89 3c d5 bf 52 bc
       -0.0028448869 0.027773833 0.016768035 -0.012863119
000130 fe 61 d4 bc 89 e7 d8 3c 99 3e d8 3c 44 da d4 bc
       -0.025925633 0.026477592 0.026397036 -0.025982983
000140 0e 4c 98 3c b5 e3 13 bb cb 59 80 3c 8f ee f0 3c
       0.018590953 -0.0022566144 0.015667817 0.029410629
000150 c6 6d 04 3b e4 95 e5 3c 38 83 90 b9 2e 1a db 3c
       0.0020207032 0.028025575 -0.00027563586 0.026745882
000160 b5 41 03 3d 6f 03 41 3c 8b 82 a2 bc 6a 2f a0 3c
       0.032045085 0.011780604 -0.019837638 0.019553859
000170 02 ee d8 3b 01 6e 85 3c ce af e4 bb 90 82 b7 3c
       0.0066201696 0.016287806 -0.0069789654 0.022401124
000180 ad 8c 54 bd 36 b8 62 3c c2 70 de 3c cd dc db bb
       -0.05189197 0.013837865 0.027153376 -0.006709671
000190 0c dd 0d 3c ff a6 c9 3b 26 41 83 bc 5f fe 0c bc
       0.008658659 0.0061539407 -0.016022276 -0.008605569
0001a0 33 c9 8d 3b 82 6b 28 3c 8b 01 67 bc d7 db 08 3d
       0.0043269633 0.010279538 -0.014099489 0.03341278
0001b0 86 13 08 3d df f8 29 3c 64 4c 94 bb e7 2e 85 bb
       0.033221744 0.010374277 -0.004525708 -0.004064429
0001c0 6a fa da 3c 01 16 d6 3b 2e 88 c7 3c 1d ed 51 3c
       0.026730735 0.006533385 0.024356928 0.01281288
0001d0 4d 65 1e 3d 19 38 bc 3c aa fa 89 3b aa 87 b2 ba
       0.038670827 0.022975968 0.0042107897 -0.0013620753
0001e0 f3 1d a3 3c b9 4f 85 bc 0f 6d 8a 3c bc 87 d0 3c
       0.019911742 -0.016273366 0.016897706 0.025455348
0001f0 89 ab 6c 3c 0c 8f 63 bc 6e d0 61 bc 32 cb f4 3c
       0.014445194 -0.0138890855 -0.013782604 0.029882047

network_body._body_endoder.seq_layers.0.weight f4 [128, 128]
000000 24 a4 90 3d 04 02 34 3e 5a 1a ae bd 38 95 cb 3d
       0.07062557 0.17578894 -0.0850112 0.099405706
000010 09 3f f9 bd e8 79 93 3d fa 02 43 bd 11 7d b5 3d
       -0.12170226 0.07200986 -0.04761026 0.08861745
000020 79 bb d9 bd b6 ad 1b bd ec 28 23 3c e4 8a 37 3c
       -0.10631461 -0.03800746 0.009958487 0.011202548
000030 5f 03 db 3d c7 de bc 3d 8b d8 33 be 3d 0e cf 3d
       0.10694002 0.09222179 -0.17563073 0.101101376
000040 9e 94 d3 bd 90 ea 49 bc fe 14 2c bd e4 39 24 be
       -0.10331081 -0.01232399 -0.042012207 -0.16037709
000050 33 a8 fe bc 9e 8c af 3d c1 bf e1 3c cf 3e 3c bd
       -0.031086063 0.085717425 0.027557256 -0.045958336
000060 b2 13 17 be 53 eb 91 3d 80 96 0a 3d 33 90 eb bd
       -0.14753607 0.07124963 0.033834934 -0.11502113
000070 9d 07 15 bd 79 6a a4 bd fd 80 65 3d 45 83 0d bd
       -0.036384214 -0.080281205 0.056031216 -0.034549017
000080 c5 f5 e4 3d 72 a3 9e 3b f0 24 1b 3d 5b 30 cd 3c
       0.11179689 0.0048412615 0.037877023 0.025047472
000090 da 70 b3 bc 7b 60 31 bd a2 35 10 3e bd 55 78 be
       -0.021904398 -0.0433049 0.1408296 -0.24251457
0000a0 5f 79 ae bd c7 05 db 3c a9 23 f5 3c 86 82 3d 3d
       -0.085192434 0.026736153 0.02992423 0.046267055
0000b0 ad c8 38 3e 7b 65 cb 3d f3 db 13 3d 51 1b 00 3d
       0.18045302 0.09931465 0.03609843 0.03127605
0000c0 bf 8b 25 3d 28 9d a4 bc 48 62 2e 3d cc b7 d7 3c
       0.040416475 -0.02009447 0.042574197 0.026332758
0000d0 62 c8 02 3d dd f5 74 3d 72 97 84 3d 2a 56 ab 3d
       0.03192938 0.059804786 0.064741984 0.08366044
0000e0 13 1d 91 3c 03 d3 07 3e 1f 6c 20 bd 28 33 1c bd
       0.017714059 0.13264088 -0.039165612 -0.038134724
0000f0 49 b2 9e bd 14 77 3b 3e 61 22 c5 bd ef 82 97 3d
       -0.07748849 0.18307143 -0.09625698 0.073980205
000100 74 d1 01 bd e1 6d 88 bd e8 4e b5 3c 0f e5 0a be
       -0.03169389 -0.06661583 0.022132352 -0.13563941
000110 6e 08 2e bc 74 26 c7 3c 86 00 72 bb b5 cc 86 bd
       -0.010622127 0.024310328 -0.0036926582 -0.065820135
000120 c8 dd 2b bc 97 9e 9b bc c9 18 91 bd db 66 f5 bc
       -0.0104898885 -0.01899652 -0.070848055 -0.029956272
000130 5b 60 29 3e 23 86 2a bd ea 3d 4f 3d d8 ab 42 bc
       0.16540663 -0.04163183 0.050596155 -0.011881791
000140 60 13 83 3d be a4 8f bd 4a 0d 4e 3e d2 1d 08 bd
       0.0640018 -0.07013844 0.20122257 -0.033231564
000150 88 90 b9 3d d7 ae 18 bc 9c cd 02 be 25 40 d8 3d
       0.0906077 -0.009319029 -0.12773746 0.105591096
000160 ac 7c 97 3c 17 50 8b 3d 91 2e 16 bd 7a 99 b1 3d
       0.018492065 0.06802385 -0.036665503 0.086718515
000170 95 b8 cc 3d 74 a6 d4 3d 66 40 5b bd b9 cd 25 bd
       0.09996144 0.10383311 -0.053528212 -0.040479396
000180 3d 0c 54 36 91 6f 2d 3e 27 83 ab 3d b3 e6 d4 3b
       3.1597585e-06 0.1693709 0.08374625 0.006497228
000190 f0 eb e6 bb 1d 9f f3 bd 07 a1 6a 3d 59 91 4a bd
       -0.007047169 -0.11895583 0.057282474 -0.04945502
0001a0 70 ed 12 3d 69 4f 27 bd 15 0a f7 bc 11 ca 2e be
       0.03587097 -0.040847216 -0.030156175 -0.1706927
0001b0 c9 96 2f bd 90 d6 48 3d 63 2e 47 bd 25 b8 f9 bd
       -0.04286841 0.049032748 -0.048628222 -0.12193326
0001c0 23 74 4c 3d f4 c3 92 bd 97 00 1c 3e 68 aa 3a bd
       0.049915444 -0.07166281 0.152346 -0.04557267
0001d0 f7 98 0a bd bf 95 15 be f7 ba be bd df ec e3 bc
       -0.033837285 -0.14607905 -0.093130045 -0.02782291
0001e0 d8 40 fd 3b f0 8d d7 3d 48 86 1e bd 52 b7 8c bd
       0.0077286772 0.10525119 -0.03870228 -0.06870903
0001f0 54 24 3e bd 4e 1c f2 3d e1 67 87 3b b3 4e 12 3e
       -0.046421364 0.11821805 0.0041322564 0.14287834
000200 8e a0 19 3e 39 ba 59 bc 6e 91 42 3c d0 2c ea 3d
       0.15002653 -0.013289028 0.011875493 0.114343286
000210 38 cb 72 3d f1 1c 3a 3e 29 79 40 bd a1 5d ef bd
       0.059275836 0.18175103 -0.046990547 -0.1168778
000220 81 e2 cf 3d 00 15 f3 bd e0 5e 62 3c 74 6d f3 3d
       0.10150624 -0.1186924 0.013816565 0.11886111
000230 cb 19 3c bd 32 77 9c bd b8 76 97 bd a2 f6 ba bd
       -0.045923036 -0.07639922 -0.07395691 -0.09129073
000240 2f 95 df bd c7 c8 b8 3d 04 7d d1 bd 71 c5 e5 bd
       -0.109171264 0.0902267 -0.10228923 -0.112192996
000250 50 a0 c7 3c 36 35 e1 3d 63 91 16 3e 2c 14 82 3d
       0.024368435 0.10996477 0.14703898 0.06351504
000260 27 14 de bd 26 09 3a be d6 b7 ba bd f2 a7 28 bd
       -0.108436875 -0.18167552 -0.09117095 -0.04117579
000270 cf 66 10 3e 58 42 cd 3c 5d c1 45 bd a5 ec 2b be
       0.14101718 0.02505605 -0.04828011 -0.16789491
000280 b1 c5 66 bd cd ab fd bc ee c8 05 be 77 6c 66 3c
       -0.056340877 -0.03096571 -0.1306493 0.014063946
000290 a0 2d 88 bc 13 eb c0 bb 15 7e 53 bc 9a b6 57 3e
       -0.016623318 -0.005887398 -0.012908478 0.2106575
0002a0 a6 9c 2c 3e 32 80 dc bb 23 5e 72 bd 23 4d d5 ba
       0.16856632 -0.0067291493 -0.059171807 -0.0016273599
0002b0 9a 8e 29 be e3 b5 c5 bd a2 7d d5 3b 63 da 4f 3d
       -0.16558304 -0.09653833 0.0065152207 0.05074538
0002c0 8a 55 e7 bd 08 e0 dc bd 6a 68 b1 bc d7 bd 8d bd
       -0.11295612 -0.10784918 -0.021656234 -0.06920975
0002d0 f9 fe 0c be 23 14 97 bd af eb 22 be f7 1b ab bc
       -0.1376914 -0.07376888 -0.15910219 -0.020887358
0002e0 43 52 ed 3d ef 00 5e 3d 5d c0 4b 3d c5 b9 e1 3d
       0.11587956 0.05420011 0.049744 0.11021761
0002f0 ce 85 88 3d 10 ee 1e be 67 76 a3 bd d0 c0 89 bd
       0.06666146 -0.15520501 -0.07981568 -0.06726229
000300 45 a7 dd 3d 07 75 1d 3d 4b e2 93 bd 94 95 ec bc
       0.1082292 0.038441684 -0.07220896 -0.028879918
000310 a2 92 de bd 1b 20 35 be cb 69 df bc 1a 88 17 3d
       -0.10867812 -0.17688029 -0.027272126 0.03699503
000320 de 06 9f bd ac 53 d5 bd ba 9c cf 3c dd 2b 84 bc
       -0.07764982 -0.1041635 0.025343288 -0.016134197
000330 39 b1 65 bd 28 eb a7 3d 3c f2 26 bc af da d6 bc
       -0.056077216 0.08199149 -0.010189589 -0.026227323
000340 fd 8c 2f 3d f4 99 c5 bd e7 80 53 bd 87 b4 0a be
       0.042859066 -0.09648505 -0.051636603 -0.13545428
000350 d2 3d c9 3d 11 17 9d be 3a 34 09 3e 57 70 e0 bb
       0.098262444 -0.3068166 0.13398829 -0.0068493295
000360 1b 21 ea bd 84 87 bf bd 82 a8 26 3d 31 4b 03 3d
       -0.114320956 -0.093520194 0.040688045 0.03205413
000370 d7 55 04 3e 7c 2e 30 be 5a 38 f1 3c cb 0a 0b be
       0.1292337 -0.17205232 0.029445816 -0.13578336
000380 58 3c ea 3d 9a c2 20 bd 13 73 94 b9 37 8c dc 3d
       0.11437291 -0.039248087 -0.00028314497 0.10768931
000390 0c 5e 83 3c 7a 3d 39 3d 73 88 26 3e 9d d7 37 be
       0.016036056 0.045224644 0.16262989 -0.17953344
0003a0 e0 97 08 3e 9c 30 b6 3d 0e ec 2d 3e f7 12 d1 3d
       0.13339186 0.0889599 0.16984579 0.102086954
0003b0 8e ba b0 bd 87 a1 b5 3d da 02 14 bb 70 f0 1f bd
       -0.086293325 0.088686995 -0.0022584707 -0.03904766
0003c0 9a 14 9a bd 1e 6b d8 bb b2 93 60 bd 11 73 47 be
       -0.07523461 -0.0066045662 -0.054828353 -0.19477488
0003d0 18 69 92 bc 81 a4 83 bd 96 67 ad 3d 32 24 0e be
       -0.017872378 -0.06427861 0.08467023 -0.13880995
0003e0 7b 25 04 3c a2 c5 88 bd fa 33 17 be fd 8f 33 be
       0.008065577 -0.066783205 -0.14765921 -0.17535396
0003f0 58 b4 2f bd f7 6d 18 bd b2 9a ab bd db 60 e5 bd
       -0.0428966 -0.037214246 -0.08379115 -0.11200114

network_body._body_endoder.seq_layers.0.bias f4 [128]
000000 82 01 81 3c 47 f0 02 bd f6 c5 49 3c 07 4f f2 bb
       0.01574779 -0.031967428 0.012315264 -0.0073946747
000010 fa dd a4 bc ba 30 27 bc db 7d 26 bc 68 ef 53 bd
       -0.020125378 -0.010204488 -0.010161842 -0.051741987
000020 c5 c2 81 bc 49 c2 fa 3c 31 c4 c1 bc 44 c4 d1 3c
       -0.015839944 0.03061022 -0.023653122 0.025606282
000030 ff 36 4b bc e7 08 ad 3c c2 8c 2d bd 31 d9 0b 3a
       -0.012403249 0.021122409 -0.042370565 0.0005334793
000040 d9 7e 0e bd df 72 30 bb d2 99 84 ba c8 ba 83 3c
       -0.03478894 -0.0026923937 -0.0010116643 0.016080275
000050 cd 50 45 bc 5f 36 cb bc dd dc a2 3c 85 6b 66 bb
       -0.01204319 -0.0248062 0.019880706 -0.0035159301
000060 67 85 4b bc 83 93 2a 3d c2 93 87 bc 7e 8b 28 3c
       -0.012421942 0.041644584 -0.016549949 0.010287164
000070 72 3d c2 bc 3b 17 6c bc a6 7a 93 3c 99 1b a5 3c
       -0.02371094 -0.014409835 0.01800282 0.020154761
000080 48 8c 5d 3c 10 0d d3 3b 00 1e ba 3a 8b f8 2d 3c
       0.013522215 0.006440766 0.0014199615 0.010618339
000090 47 e5 b0 bb 02 d6 cb bc 95 a3 a2 3c 5a d5 d0 3c
       -0.0053984257 -0.02488232 0.019853393 0.025492359
0000a0 2f bb e7 3b 30 bc c5 3c 78 e7 e7 bc dc 95 20 bd
       0.0070718746 0.024137586 -0.028308615 -0.039205417
0000b0 93 d6 87 bc 54 13 2e bb 44 c8 05 3d 62 ea e8 3c
       -0.01658181 -0.0026561813 0.03266169 0.028432075
0000c0 1f 8d 22 bb 7c 69 a9 3c 13 3b 02 bc 76 b3 6d ba
       -0.0024803353 0.020680182 -0.007948655 -0.0009067574
0000d0 6b 43 83 bc b7 77 2b 3b 5b f9 0b bd 76 14 d9 bc
       -0.016023358 0.0026163885 -0.03417335 -0.026499014
0000e0 e8 3f cc bc cd 4f 3a bc 0a d0 11 3c 2f b6 ca bc
       -0.024932817 -0.011371565 0.008899698 -0.024745075
0000f0 71 98 1b bd b6 0f 4f 3c 2a 03 c9 bb 9a ee 52 3b
       -0.037987176 0.012638023 -0.0061344104 0.0032185675
000100 a9 e4 15 3d c0 3a 37 3c 01 d4 52 3c 8d f2 d1 3c
       0.03659502 0.011183441 0.0128679285 0.025628353
000110 54 e7 a8 3c ac 13 87 bc c6 e8 51 bc 73 c6 cf 3c
       0.020618118 -0.016488872 -0.012811845 0.025363183
000120 53 27 24 3c e6 ca f3 3c a5 43 6c bc f8 dc 54 3c
       0.010019141 0.029759835 -0.014420425 0.012992136
000130 cb d2 93 bb b3 c3 63 3c 3a c1 3d 3d 50 3c ab 3a
       -0.0045112125 0.013901639 0.046326853 0.0013064239
000140 26 ce 24 bd 0e c0 bb bc be 61 9f bc 52 eb 02 3c
       -0.04023566 -0.022918727 -0.019455787 0.007990675
000150 38 c8 53 3b 9e c0 8d bc c1 10 e5 bb 02 a5 d6 bb
       0.0032315385 -0.017303761 -0.0069905226 -0.006550432
000160 c9 47 21 3c 90 c2 1b bd 32 03 5c bc 07 4d 18 3a
       0.009843775 -0.038027346 -0.013428496 0.0005809818
000170 cf 99 64 bc e4 91 a2 bc 7a 05 12 3d 96 c6 88 b9
       -0.013952686 -0.019844957 0.035649754 -0.000260879
000180 ec 17 d6 bb 47 e7 06 bd 84 2f 67 3c 13 92 b2 bc
       -0.0065336134 -0.032935407 0.01411045 -0.02179817
000190 02 cf 08 bd 30 00 14 bd a2 72 9a 3c bf a5 d1 3b
       -0.033400543 -0.03613299 0.01885349 0.0063979323
0001a0 1a b8 2e 3c d3 31 13 3d cf ba f4 3b c4 8c fc bc
       0.01066401 0.035936188 0.0074685584 -0.030828841
0001b0 6d e4 02 bd 2f 32 6d bb bf 8b 4b 3c e5 02 eb 3b
       -0.031956125 -0.0036193242 0.012423455 0.007171976
0001c0 b4 0f 84 3a 6f 84 ae bb 86 ab 3d bc 76 45 26 3c
       0.0010075481 -0.005325846 -0.011576539 0.010148397
0001d0 8e 09 f6 bb ce b3 fb bc 8e 0e 9b bb c1 42 c0 bb
       -0.007508463 -0.030725386 -0.0047319597 -0.0058673327
0001e0 74 b4 66 bc 87 a9 02 bd ae 6b 2f 3d 24 fa df bb
       -0.014081109 -0.031899955 0.0428273 -0.006835239
0001f0 59 f5 1d 3d cc 10 e8 bc e2 5b 77 bc 5c e3 d3 3c
       0.03856406 -0.028328322 -0.01509759 0.02586525

network_body._body_endoder.seq_layers.2.weight f4 [128, 128]
000000 a0 b1 3c bd ea b8 36 bc 2d 32 9f bd d3 0b 84 3d
       -0.046067834 -0.011152485 -0.07773242 0.06447568
000010 4e de cf 3d f8 a4 ab 3d 3b a8 27 3d fd f1 32 be
       0.10149823 0.08381075 0.04093192 -0.17475124
000020 b4 5d c8 3d 1b da 7b bd 1a 15 13 3e c7 5c cf bd
       0.097834975 -0.0614873 0.14363518 -0.10125118
000030 ed 17 d8 3c 79 75 5f 3d 35 ae 64 3d 9e 33 53 3e
       0.026378596 0.05455539 0.0558302 0.20625159
000040 0a 18 1c be 7c f5 22 3d d6 72 b6 bd 2d e5 c8 3d
       -0.15243545 0.039784893 -0.08908622 0.09809337
000050 74 20 8d bb cc 32 ae ba 9c 07 8d bc df d5 50 3d
       -0.004306847 -0.0013290285 -0.017215542 0.050985213
000060 46 da 04 bd 62 ee fc 3d 84 a2 06 3e 43 ef d2 bd
       -0.032434724 0.123501554 0.13147932 -0.10299542
000070 5b 7a 3f 3e 29 d1 27 3d 02 12 77 bc 6b 59 fe bc
       0.18699019 0.040970955 -0.015079977 -0.031048497
000080 b2 de 80 3c fc c1 1d 3e 6a 86 dd bd 37 2d 4a be
       0.01573119 0.1540603 -0.10816653 -0.1974381
000090 69 2d e2 bd eb 30 7d bc c8 d5 9f bb 9e 3c 53 be
       -0.110438175 -0.0154535575 -0.0048777796 -0.20628592
0000a0 f9 b3 03 3e 50 50 97 3d 7c 90 30 be 3f 20 ca bd
       0.12861623 0.07388365 -0.17242616 -0.09869432
0000b0 fa fc 0a 3d 0b 76 b0 3d d8 e5 45 be c3 1a c6 3d
       0.033932664 0.08616265 -0.1932596 0.09673073
0000c0 4e b1 00 3e 38 8b f0 bd 73 57 b2 3d 42 d7 83 bc
       0.12567636 -0.11745304 0.08708086 -0.016093854
0000d0 d5 c5 43 bd 9e fc 7e 3d 42 b6 00 3e da 27 c4 bd
       -0.04779609 0.062252633 0.12569526 -0.095779136
0000e0 b2 1c 31 be fd 84 1e 3c b0 50 ac 3c d8 c9 e5 3c
       -0.17296103 0.009675262 0.021034569 0.028050348
0000f0 52 37 23 3e 37 44 8a bd 17 61 ef 3d 1d e2 10 3e
       0.15939072 -0.06751292 0.1168844 0.14148755
000100 f8 18 a6 bd 5b b9 1e 3e ad 9f 1d bd 5b f5 b5 bd
       -0.08110231 0.15500395 -0.038482357 -0.088846885
000110 06 1e 16 be 21 f8 8a 3d e5 80 9f bd c1 77 8d 3c
       -0.1465989 0.06785608 -0.077882566 0.017269017
000120 b5 63 1c bc 9b 42 12 bd 6b 2e df 3d 6f 3c a5 3d
       -0.009545256 -0.03570805 0.108975254 0.080681674
000130 e2 7e ce 3b 23 75 85 3b 2f 2a a5 bc 54 ff 10 3d
       0.0063017467 0.0040728017 -0.020161716 0.03539975
000140 ce 13 01 bd b4 fc 9e 3d 30 d9 20 3d bf ce 4c bd
       -0.031513028 0.07763043 0.039269626 -0.050001856
000150 1d e5 7d bc 59 8a 40 3e ab aa e9 3d 78 fc 4b 3d
       -0.015496519 0.18802775 0.114095055 0.04980132
000160 32 f4 06 bd 5e ab 18 bd 9b c9 e2 3c 13 77 a5 3d
       -0.032947727 -0.037272803 0.027684024 0.08079352
000170 3e 73 e8 3d 6e b7 10 3c d6 10 cd bd 58 d0 c7 3d
       0.11350106 0.008832796 -0.10012977 0.09756535
000180 d1 e6 19 be cf a5 8a 3c a1 72 4d 3d 46 61 bd bc
       -0.15029456 0.016924767 0.050158147 -0.023117673
000190 b0 ef b4 3d 38 b0 1e 3e 44 3c 0d 3e e7 b7 eb bd
       0.08834779 0.1549691 0.13792521 -0.11509686
0001a0 b8 75 b2 3d 70 7e de bd d5 96 9a 3c ed 5e ee bd
       0.08713859 -0.1086396 0.01887075 -0.116391994
0001b0 e6 5a f1 3d a3 7a 0f bd b1 8a a8 3d 76 c6 7a 3d
       0.117849156 -0.035029065 0.08229578 0.061224423
0001c0 5b 97 84 3d b2 03 d7 3c 39 0c 90 bd fd 64 d1 bd
       0.06474181 0.02624688 -0.07033581 -0.1022434
0001d0 3a 9b 37 3d 5e c7 b9 bd d5 e3 bf bc c3 fc c9 bc
       0.04482577 -0.090712294 -0.023424068 -0.024656659
0001e0 b3 98 30 3d bc bf 1c 3b 52 69 d4 bc db 0c b6 bd
       0.043114375 0.0023917994 -0.025929127 -0.08889171
0001f0 e2 3f 55 bb e9 5a 36 bd fd 7a 20 bd 4b 6b f3 bd
       -0.0032539298 -0.044520292 -0.03917979 -0.11885699
000200 87 94 ba 3d c3 7c 9d bc 5d dd 94 bd 01 45 04 be
       0.091103606 -0.01922453 -0.07268784 -0.12916948
000210 be fb dc 3c 18 37 52 bd 30 1a c2 bc 5c da 31 bd
       0.026975509 -0.051322073 -0.023694128 -0.043421134
000220 bc eb 62 3d 86 c6 5d 3d 52 c1 82 3c 8d c6 01 bd
       0.055400595 0.054144405 0.015961323 -0.031683493
000230 85 3d d8 bc 38 ed 3a 3e 54 4c ed 3d 00 c4 55 bc
       -0.026396522 0.18254554 0.11586824 -0.013047218
000240 fb 64 13 3d 1a a3 aa bc 39 72 b1 bc 41 07 9e bc
       0.035984974 -0.020829726 -0.02166091 -0.019290568
000250 06 5c 88 3d 42 c2 ad 3d b9 70 7e 3d 65 ff 26 3d
       0.06658177 0.08484317 0.06211922 0.040770907
000260 64 ae 2e be 27 2a ef bb 83 71 d6 bd 07 ed 25 3d
       -0.17058712 -0.007298726 -0.104708694 0.04050925
000270 e1 5f 06 bd d4 1c 05 bd 9d 1a 39 3d e4 b6 ca bc
       -0.03280628 -0.032498196 0.045191396 -0.024745412
000280 f3 1c e6 3b 11 2b 1b 3c eb 4b c2 bc 26 60 f3 3d
       0.007022494 0.009470717 -0.023717841 0.11883573
000290 c5 1c db 3d 22 e1 6b be 63 4b ad bd fe b8 c7 3c
       0.10698847 -0.230351 -0.084616445 0.024380203
0002a0 f3 55 99 bc 92 54 21 3e 96 54 29 be 54 97 e9 bd
       -0.018717742 0.15754917 -0.16536173 -0.11405817
0002b0 9c 7b 6b 3d c4 31 2a bd 9c 1c 48 3d 39 52 38 bd
       0.05749093 -0.041551366 0.04885541 -0.04500029
0002c0 d6 2a 8d 3d 7b e1 de bc 21 79 af bd f8 62 97 bd
       0.06892936 -0.027207127 -0.085680254 -0.07391924
0002d0 1b df 28 bd 61 e0 87 3e 71 bf cc 3c 44 f7 53 3d
       -0.041228395 0.26538375 0.02499363 0.051749483
0002e0 c8 a0 99 bc 94 ef 96 bb 43 08 26 3e 14 f6 3a 3d
       -0.018753424 -0.0046061967 0.16214089 0.045644835
0002f0 12 18 f4 bc 39 be e5 bd 21 d1 0c 3d 60 b4 b0 bd
       -0.029796634 -0.11217923 0.03437913 -0.08628154
000300 c5 2c a0 3d cf f2 bf 3d 10 2d b9 3c 13 7c c9 3c
       0.07821039 0.09372484 0.022604495 0.024595296
000310 b4 6b 35 bd 2b 16 8e bd de fd 51 be f2 7b 89 3d
       -0.044292167 -0.06937822 -0.20506999 0.06713094
000320 88 81 85 bd 01 93 57 3e 19 53 16 be e5 84 f7 bc
       -0.06518847 0.21052171 -0.14680137 -0.030214736
000330 cb 8f bb 3d e9 41 67 bb 9b b2 9c 3d 60 c8 97 bd
       0.09158286 -0.0035287088 0.07651254 -0.074112654
000340 0d 1f 18 bd 25 1e 66 bd a6 f7 35 3d f3 75 0a bd
       -0.037138987 -0.05618109 0.04442563 -0.03380389
000350 34 4f 3e 3d 6d 47 6c bd 05 85 f5 bd ad a7 cf bd
       0.046462253 -0.057685304 -0.11988262 -0.101394035
000360 62 4f 4c 3e cf 27 23 be 8e db cf 3d 5a c0 17 be
       0.19952157 -0.15933155 0.101492986 -0.1481947
000370 40 ff dc 3c 48 ad 17 bd e9 15 05 be 32 06 1e 3e
       0.026977181 -0.03703049 -0.1299664 0.15432051
000380 29 d7 3c 3c f1 a2 79 3e b4 9a 4f 3d de 10 88 bd
       0.011525908 0.24378563 0.050684646 -0.06643842
000390 87 85 fb 3d 97 ee b9 bd 1a 98 31 3e cf 0b 13 3e
       0.12281328 -0.090787105 0.17343178 0.14359973
0003a0 62 c7 bf 3c 7e c9 ea bb 9d 18 f8 ba 7c 5f 1c 3e
       0.023410503 -0.007165133 -0.0018928234 0.152708
0003b0 7f c2 55 3d 68 5e 48 be 9a fc 52 3d 44 c9 7e 3d
       0.05218744 -0.19567263 0.05151043 0.06220366
0003c0 13 41 d4 bd 32 9e 85 bd d6 ac 1f bc 49 58 67 bd
       -0.103639744 -0.06524314 -0.009745797 -0.05648068
0003d0 ad 02 16 3d a1 a3 31 be de a7 82 3d 4e f8 12 be
       0.036623646 -0.17347576 0.063796744 -0.14352533
0003e0 84 85 a6 bd ea 3b d2 3a 47 35 8e bc ed 00 90 bc
       -0.08130935 0.0016039584 -0.017359389 -0.017578566
0003f0 b2 46 ae bd ea 3c 9f bc da 76 b0 bc 2d 55 53 3d
       -0.08509578 -0.019438226 -0.021541048 0.0515949

network_body._body_endoder.seq_layers.2.bias f4 [128]
000000 ff 9b 35 bc 06 7b ed 3c a3 44 64 ba 08 8a fc 3c
       -0.011084556 0.028989326 -0.00087077374 0.030827537
000010 66 11 33 bc e1 6d c9 bc 9f 28 57 3c 38 e7 18 3d
       -0.010929441 -0.024588527 0.013132243 0.037329882
000020 bf 28 8d bc 5d 23 98 b9 60 8a 7a ba ea 97 82 bc
       -0.017231343 -0.00029018047 -0.00095573626 -0.015941579
000030 6b 3e 21 bc ae a0 02 bb be 94 0c 3c a9 7f 67 3c
       -0.009841542 -0.0019932198 0.008580385 0.014129558
000040 28 76 ec 3c 0e b2 da 3c 1b 99 01 3d d7 21 04 bd
       0.028864935 0.026696231 0.031640153 -0.032258835
000050 0f cd 73 bc 24 26 94 bc 39 68 06 bd ae 96 11 3d
       -0.014880433 -0.018084593 -0.03281424 0.03554409
000060 5c e0 be 3b 87 13 16 bd 8d 68 8a bc 8f 4e 0d 3c
       0.0058250856 -0.036639716 -0.016895557 0.008624687
000070 cf 61 9b bb 65 8a 05 3d 5f e6 ab bc e6 12 d6 bc
       -0.0047418843 0.032602686 -0.020983873 -0.026132058
000080 c6 c7 cc bc 80 d2 1a ba e2 eb 7f bc 0b 5a db bb
       -0.024997603 -0.0005906001 -0.015620204 -0.0066940836
000090 98 f7 01 bc 30 29 de bb 33 d4 ea bc 19 cd d3 bc
       -0.007932566 -0.0067798123 -0.028665638 -0.025854634
0000a0 db 6d b1 bc 47 bf 0c 3c 7d 93 6e 3a cf 96 5e 39
       -0.021658828 0.008590526 0.0009100957 0.0002122775
0000b0 d4 30 e4 3c 6f 8b 1e 3c 3c e6 1c bc 6a bf 36 3d
       0.027855314 0.009676798 -0.0095763765 0.04461614
0000c0 36 c7 47 bc 8f 60 1d bc 53 dc b1 3c f4 b1 b4 b9
       -0.012193492 -0.009605541 0.021711504 -0.0003446486
0000d0 65 36 05 3d 88 f3 e0 3c 1a 3b 90 bc 40 a2 f4 3c
       0.032522578 0.027459875 -0.017606307 0.029862523
0000e0 f2 79 83 3c 6e 96 70 3a aa c7 53 3d 5b a3 7f 3a
       0.016049359 0.0009177689 0.051704086 0.000975182
0000f0 b1 bd 78 bb dd 38 01 3d 8d 0e f4 bc 55 19 1e bb
       -0.0037954862 0.03154837 -0.029792095 -0.0024123986
000100 f8 3b 73 bc bb 5e 88 bb 56 51 be 3c b3 c0 50 ba
       -0.014845841 -0.0041616834 0.023232143 -0.0007963285
000110 5a 57 fc 3c d9 ca 30 bd 97 50 a0 bc e0 55 d4 ba
       0.030803371 -0.0431622 -0.019569678 -0.0016199909
000120 4c 14 54 bc 2a 3d de bc ca 29 28 bc 7d 41 fe bc
       -0.012944292 -0.027128775 -0.01026387 -0.031037087
000130 1f bb 02 3d 1e c9 d3 3a 22 74 6f 3c 12 83 96 bc
       0.031916734 0.001615796 0.014615091 -0.018373046
000140 d9 17 32 bc 0c af b0 bc 75 18 ce 3b 6d ec 6c bb
       -0.010869944 -0.021567844 0.0062895366 -0.0036151663
000150 ec cb bf ba 92 55 28 bd a4 1d 08 bc 35 54 86 bc
       -0.0014632917 -0.04109723 -0.008307848 -0.016397575
000160 8d b1 e3 bc 80 96 b3 bc 39 9c e4 bc 83 9b 4d bb
       -0.027794624 -0.02192235 -0.027906524 -0.003137321
000170 e1 62 04 3c 59 41 11 3c 6b 05 b9 3c 37 43 64 3c
       0.008080215 0.008865678 0.022585591 0.013932041
000180 99 4a 60 3c ff 7b a2 bc 53 15 ad bc e8 8f c9 3c
       0.0136896605 -0.019834517 -0.021128332 0.024604753
000190 8b c3 f9 bc 9e e9 39 bc 57 a0 f8 3b 08 db 9b bc
       -0.03048875 -0.011347203 0.0075874734 -0.01902534
0001a0 b8 19 a1 3c 67 96 bd 3c df c3 27 3d 74 5b fa 3a
       0.019665584 0.023143006 0.04095828 0.0019100741
0001b0 99 23 ae bc ac 29 91 bc d1 79 9e bb 77 f0 1c 3c
       -0.021257209 -0.017720066 -0.004836299 0.009578816
0001c0 cd 30 ac 3b b0 63 e9 bc a4 7b c4 3c b5 c3 80 bc
       0.005254841 -0.028489918 0.023984738 -0.01571832
0001d0 ab 6d 07 bd 39 9c 35 bc 48 cf a2 3b ec 00 1d bc
       -0.033063572 -0.01108461 0.0049685575 -0.009582739
0001e0 8a b3 70 3c 25 7b 10 bb 4f 6a 19 bc ad d0 f0 bc
       0.014691243 -0.0022046056 -0.009363725 -0.02939638
0001f0 de d9 32 3a 5c 72 8c bc 03 d2 83 bb ba b4 a3 bc
       0.0006822626 -0.017144375 -0.004022838 -0.019983638

action_model._continuous_distribution.log_sigma f4 [1, 3]
000000 7c 8f 32 bd 98 3a 39 bd 6c d9 7e bd
       -0.04359387 -0.045221895 -0.06221907
