CS455_PR1/results/ShootTargetAgent_T2/ShootTargetAgent/ShootTargetAgent-36398.onnx (onnx, 490788 bytes, 18 tensors)

discrete_act_size_vector f4 [1, 2]
00000000: 0000 4842 0000 4842
50.0 50.0

network_body.observation_encoder.processors.0.conv_layers.0.weight f4 [16, 1, 8, 8]
00000000: c590 9abc af8b 793d 181e 9e3c c5fe d23d
00000010: fb81 6a3d f7cf fb3d d183 ef3d b319 e23d
00000020: e422 083e 95da 9a3d 5909 ea3d de07 933c
00000030: ebdd 113e fa47 4bbc 2f93 39bd 6193 96bd
00000040: 4435 033e 64f9 07bd cd18 d33d ceec 163e
00000050: cc57 5b3d 863e d93d cab3 2d3e 2285 1dbc
00000060: 44c2 fe3d 0113 053e ea95 0c3e 5f93 c63d
00000070: 5aeb 003e 022e 4c3b 10ca 69bd 8733 183d
00000080: bdd1 043e ef5a 8b3d d8a3 013d 18b5 ae3d
00000090: e410 b73d 23a1 f33d 2447 b03d 00d8 0abd
000000a0: 5a67 843d f78b f0bc f180 9fbd f96a b33d
000000b0: c882 2e3e 1187 9abb 6e2b 88bc 09b6 1b3e
000000c0: b637 173e 3f44 543c 125f 093d d19e 123e
000000d0: ee17 3cbd e7ad 09bb 1ec9 933b 706c 0a3e
000000e0: 1f3f d43d 7285 6e3d b570 3e3d ff0d c4bc
000000f0: 83c2 6bbd 87c1 e53d 5fe5 1e3e cbcd 183e
00000100: 7af6 d33d 8002 8e3d 4748 8bbd 085c 46bd
00000110: d987 2e3d 4b50 67bd f67d 45bd 4cfd cbbd
00000120: 9584 c73d eea6 88bd ae61 b93d 1d3b a93d
00000130: aebd e33d e3b2 81bc d852 da3c 71ad 2cbd
00000140: 0471 293e 380d a6bd a997 e13d 9de6 343e
00000150: 9c59 c4bb dd28 9a3c 2192 0dbe 1c9a 4a3c
00000160: c5e7 d43d ee98 a23c 2432 17bd af4b 89bd
00000170: 26d9 b5bd 7db0 2fbd 0a70 a93d 439c 9bbd
00000180: 1782 b2bd 0eb0 4abd 0095 b7bd 49f5 28be
00000190: ca58 fdbd 4eed 79bd d5e5 c2bb 82fb 07be
000001a0: 2ebb 48bd fd7d 28be 938a 813c 7336 07be
000001b0: 046d 11bd d1e2 e8bd 29e6 9cbd ec42 e13d
000001c0: 5e3e 6b3d 2fc9 033e 1a7b 74bc 1aba 133e
000001d0: e19f 2ebd a76c 3ebd 43ce 25bd 052e 773d
000001e0: 05bb a83d b88c 97bd d334 bf3d e748 a7bb
000001f0: f0fe 5a3d 1254 a5bc 1303 0b3e 8c69 ccbc
00000200: d632 c53b dc5b 8fbd b4d9 bf3c fdf8 6dbc
00000210: 6f17 b73d 3dbf d83d 40a3 a53d dbcc a63d
00000220: ecff 6e3d 3857 803d 4dda 393d 97bf c43d
00000230: f992 b8bd 4158 cabd 086e dbbd c1d0 5c3b
00000240: 5c66 d4bd cd42 ed3c 2db6 dcbd 31a4 8b3d
00000250: ea7c aabd 09b3 c53d 08ed 203d 21c2 063c
00000260: 731e 18be c396 a7bb ecbd 8cbd 31f7 d5bd
00000270: ecc5 ec3d 8f0d 9ebd dda5 bfbd 6311 8e3d
00000280: f466 95bd ae22 503d 7a35 a3bd 4625 23bd
00000290: 71a4 56bd 6bb0 c43d e4fb 86ba 04ad fb3d
000002a0: d7b7 c7bd 7545 12bc f85f afbd 3ce7 0a3d
000002b0: 76fe d03c 444c fb3c a3d3 803c f983 d8bc
000002c0: 6694 8ebb e330 2bbc 4646 f63c 7c6c a5bd
000002d0: ae01 10bd f68b 04be d54c 15be fbe8 d5bc
000002e0: 1e70 d33d 7b02 29be b3e5 91bd 1a3a b5bd
000002f0: 1ffd 01be 9c87 dc3c 7d1b a13c ccb1 a8bd
00000300: 0945 30bd e9a6 75bc 344d 24ba f622 093c
00000310: 95c9 283d 0466 d43d 48b6 f03c 8d5e dabd
00000320: 9420 033e c581 103e 4328 ca3d ad0a 3b3e
00000330: b90f 9fbd 2874 ccbd c65d dcbd dcbd 0fbe
00000340: 209f df3d e796 41bd 5666 60bd 97f8 973d
00000350: eeee d4bd a46d 6dbd 57c1 27be 9607 113e
00000360: b43f 443c f1de 97bd 51cd 173e 6395 5fbd
00000370: 7869 b9bc c58f 0ebc 885e 113c 125d 1ebd
00000380: 8071 5abd 2d93 343d 927f 743d 81d6 3cbe
00000390: c6cd 10be 9aef 08bd e420 d2bd 3de4 4f3d
000003a0: 611c 01be ebc5 08be 19c5 413c 2c1b b1bb
000003b0: d880 3fbe 8e60 e2bd b8d2 f63c 5555 ed3d
000003c0: 52b2 a03d ec0d d0bd b84c 75bd dc2f 1a3d
000003d0: 9cec dfbd 60f4 2dbd 448c 4f3e beaf 383c
000003e0: eea7 23be 5f8e f03d 1e8f 6dbd d55c 90bc
000003f0: 07c1 e73d 98c7 0e3e c3ca a53c 046e dd3d
-0.01886786 0.06092423 0.01930146 0.103025 0.057252865 0.122955255 0.11695064 0.11040058
0.1329456 0.075612225 0.11427564 0.017948087 0.14244811 -0.012407297 -0.04530638 -0.07352329
0.12813288 -0.03319682 0.10307465 0.14738771 0.053550526 0.106076285 0.16963115 -0.009614261
0.12439397 0.1299553 0.13729063 0.096960776 0.1258978 0.0031155352 -0.057077467 0.037158515
0.12970634 0.068044536 0.031650394 0.08530635 0.089387685 0.11895969 0.08607319 -0.0338974
0.06465025 -0.029363615 -0.077882655 0.08760638 0.17042077 -0.004715808 -0.016622271 0.1520616
0.14767346 0.012955724 0.03353793 0.14318396 -0.04592126 -0.0021008195 0.004510059 0.13517928
0.10363602 0.058232732 0.046494205 -0.023932455 -0.057558548 0.11218553 0.15517186 0.14922254
0.10349746 0.069340706 -0.06800895 -0.04842761 0.042610023 -0.056473058 -0.04821583 -0.09960422
0.09742085 -0.06672464 0.09051834 0.08263228 0.11120163 -0.01583237 0.026650831 -0.042157594
0.16547018 -0.0810799 0.11015255 0.17666097 -0.0059921276 0.018818313 -0.13825275 0.012365844
0.10395769 0.019848313 -0.036913052 -0.067038886 -0.088793084 -0.04289292 0.08273323 -0.07598164
-0.08716219 -0.049484305 -0.08963966 -0.16499819 -0.12370451 -0.061017327 -0.0059478083 -0.13279536
-0.049006633 -0.1645431 0.015813148 -0.13204364 -0.035504356 -0.11371387 -0.07661087 0.109990925
0.057432525 0.12869714 -0.014921928 0.14426461 -0.04263294 -0.046490338 -0.04047991 0.060346622
0.08238796 -0.07399887 0.09336247 -0.005105126 0.053465784 -0.02018169 0.13575391 -0.024952672
0.006018023 -0.06999943 0.023419239 -0.014524695 0.089400165 0.10583351 0.08087778 0.08144542
0.058349535 0.06266636 0.045374203 0.09606855 -0.09012408 -0.09880114 -0.10714346 0.0033693763
-0.10371086 0.028962517 -0.10776935 0.068184264 -0.08324607 0.09653289 0.03928855 0.008224995
-0.14855365 -0.0051144077 -0.06872162 -0.10447539 0.11561188 -0.0771743 -0.09357808 0.0693691
-0.072950274 0.050814323 -0.07969184 -0.03983047 -0.052402917 0.096039616 -0.0010298458 0.122888595
-0.097518615 -0.008927693 -0.085632265 0.03391193 0.025511961 0.030676015 0.015725916 -0.026430117
-0.0043511866 -0.010448667 0.030062806 -0.080773324 -0.035157852 -0.12944016 -0.1458009 -0.02611207
0.10324119 -0.16504852 -0.0712389 -0.088489726 -0.12694214 0.026920132 0.019666428 -0.08237037
-0.043034587 -0.014993408 -0.00062676077 0.008370152 0.04120787 0.103710204 0.029383793 -0.106625654
0.12805396 0.14112003 0.098709606 0.18265791 -0.07766671 -0.099830925 -0.10760073 -0.1403727
0.109190226 -0.047263052 -0.054785095 0.074204616 -0.10397135 -0.05796589 -0.16382347 0.1416305
0.011978079 -0.074155696 0.14824416 -0.054585826 -0.0226333 -0.0087012695 0.008872636 -0.038662978
-0.0533309 0.04408567 0.059691973 -0.18441202 -0.14140996 -0.033431627 -0.1026018 0.050754774
-0.12608482 -0.1335675 0.011826777 -0.0054048505 -0.18701494 -0.110535726 0.030129775 0.115885414
0.07846512 -0.101589054 -0.059887618 0.0376433 -0.109338015 -0.042469382 0.20268351 0.011272369
-0.15982029 0.11745905 -0.057997815 -0.01762239 0.11316114 0.13943326 0.020238286 0.108119994

network_body.observation_encoder.processors.0.conv_layers.0.bias f4 [16]
00000000: db2f c4ba 360f 67bc 5d65 f43c 288e 52bd
00000010: 28f5 81bd 3cfe 0cbc c7b1 0fbd 699d b9bc
00000020: 436b 82bc 0b20 24bd 8aaa e03d 079e 42bd
00000030: 7fb6 94bd 93c1 5fbd d762 94bd fcb9 573d
-0.0014967875 -0.014102748 0.02983349 -0.051405102 -0.06345588 -0.008605536 -0.03508165 -0.022658067
-0.015920287 -0.04006962 0.10970028 -0.047513988 -0.07261371 -0.054627966 -0.07245415 0.052667603

network_body.observation_encoder.processors.0.conv_layers.2.weight f4 [32, 16, 4, 4]
00000000: 2226 0abd 1e02 943d 902f b03c e068 8d3c
00000010: e9ff c6bc 088a f53d c532 9d3d 2cba b83d
00000020: 6ccb 1a3d 7e0c 9f3d 32c5 51bc c60a dabc
00000030: 32b7 6ebd 57d2 3cbd c871 08bd 0a69 cd3c
00000040: ee04 5ebb 842a 24bd 509f 0f3d 0292 fdbc
00000050: f181 c3bd 0903 da3d 77ab 353d 3384 163e
00000060: 7487 c43d 17b6 a03c 599b 9d3d d0da 193d
00000070: e3e8 35bd 1124 9b3b ccc4 f43c 0727 3e3d
00000080: 23f5 79bc ae01 cfbd 6ac7 6ebd 9806 863b
00000090: e1e5 02bc 46d0 8bba 745d 98bd b715 f6bc
000000a0: c5e4 0a3d d7e6 a43d 21fd dcbc c7b9 68bc
000000b0: aca9 79bd 4ca8 883d f137 6f3d e1f1 d6bd
000000c0: 9f0f 223d 2410 8dbc 4016 433d 9173 febd
000000d0: 8975 adba 5d8d bc3d 2e62 a83d 0394 cc3d
000000e0: 9fb7 c1bd 0379 493c 9867 fb3c 7bda 38bd
000000f0: d9d1 7cbd 1a26 eebc 24d8 2d3d bfe0 a6bd
00000100: 3411 6bbc 0344 a43d bb0b 1f3d ffd5 e63a
00000110: 88e2 8b3c eda8 afbc 6206 4fbd da39 c93d
00000120: 045c 6ebc cafa 023c 6a4e 4cbd 3b2c b53c
00000130: f0a1 843c 254b 563c e6b7 bbbd 766c e7bc
00000140: fe37 203d d6b5 d1ba bbc6 ac3d c64f 9e3d
00000150: 175e e43c b682 573d a112 973d c288 38bc
00000160: 529a d13b 3252 36bd a177 a93d 5108 b6bc
00000170: 7fa8 1cbc 9aca 60bd 2926 163d 069e 703d
00000180: d2c2 b33d ac26 bf3d f78b 0d3c 33f4 203d
00000190: 5d58 06bd ce98 afbd ba9c 82bd a08e fc3c
000001a0: 4ded 9bbd e735 b43c fa4e 8e3c 79fd 21bd
000001b0: eab1 4abd d8b2 b3bd f52d c7bd 4110 993c
000001c0: 6e8f 90bc 5db0 15bc 7e68 c83d 25c2 933c
000001d0: 8687 2ebc effa a43d d1d2 89bd 465d 3fbd
000001e0: 7f3a 3dbd c6e3 93bd 726b b73d 8b9e 153d
000001f0: 1b4e 4c3d 3096 44bb 3e28 63bd 0af8 30bd
00000200: c394 babc 9453 453d 539b 033e 9766 853d
00000210: b22d 8cbd 837b e5bc 8013 62bc abb7 783d
00000220: 2454 f0bc 738e a7bc b42b 4abc c1a4 363c
00000230: 86fc 03bb cf0e 423d 310b 86bd 5cb8 833b
00000240: 942e eabc e279 d33d b7da 073d 50c2 b53c
00000250: a202 98bb 7387 dc3d 7c08 103d 9ce6 213d
00000260: fa3e 1bbd dbe1 a63d 3a2b fb3d e1e0 6a3d
00000270: a706 c53b 7814 66bd d730 a63c dceb cdbc
00000280: 0778 14bb f5f3 953b 74d4 623c abfc 733d
00000290: d105 9abc 6690 9c3c 91e2 b03d 675e 7d3d
000002a0: efa8 393d 58c6 2a3a 0a06 88bc c0c1 52bd
000002b0: 4223 1ebd 9e88 2ebd d692 803d 7153 7cbd
000002c0: 13c8 6b3d 0b9b 9a3c 3ee6 613d 8589 993c
000002d0: ef51 343d f7ad b5bc 5006 bc3b c38b a83c
000002e0: d233 943a af83 46bd 35fa e93d ad9f 123d
000002f0: 6c08 14bd 4bd6 dfbc 214a 653c cec0 9c3c
00000300: 6fd0 ea3c 5b8b 5f3d 3b85 94bc 73b9 e83d
00000310: e471 853d 6c9d 2a3d 97ec d33c 3cfe 01bd
00000320: 41a8 54bd f507 683c 1edc c23c 4e61 7d3d
00000330: 8f6a 9abd c1c7 0c3d aa8a 34bc 9f77 92bd
00000340: cf1a 243d 27d4 d03d 742b ad3d 63ba 653b
00000350: 9d1d b93d 860a a03d 7d8d 723d 8180 90bb
00000360: b80e 933c 9f65 38bd 01a9 8b3c 65a1 4e3d
00000370: 27d7 aebb 05d1 1b3c b288 c9bb a6d3 913d
00000380: 79ab 513c f56b 44bd e18e 083d 37a3 4e3b
00000390: 04da 263d 92a2 84bd 1555 74bd 5925 653c
000003a0: 9cc2 81bd 9d03 ec3c 03c2 243d 2dad 763d
000003b0: bfbb 98bc 9544 4b3c baa8 04bb 0418 8ebc
000003c0: 3b17 c33c 259a 533d 25ff 86bc 9595 56bc
000003d0: 44d7 633d 5708 bf3d baec b03b 3a0c 0f3c
000003e0: b946 e8bc fd22 903d 8eea 6f3c 6864 1e3d
000003f0: df89 29bd 3789 1ebc 3bed 89bb 7bc0 693d
-0.033727773 0.07226966 0.021507055 0.017261922 -0.02429195 0.11989218 0.07675699 0.090198845
0.037791654 0.077660546 -0.012803363 -0.026616465 -0.058280177 -0.046099033 -0.033311635 0.0250745
-0.003387745 -0.04007961 0.03506404 -0.030953411 -0.09546269 0.1064511 0.044352975 0.14698867
0.09596148 0.019618077 0.07695646 0.03756219 -0.04441155 0.004734524 0.029878996 0.046423938
-0.015256199 -0.10107742 -0.058295645 0.0040901415 -0.007989378 -0.0010666929 -0.074397 -0.030039651
0.033909578 0.08051842 -0.02697617 -0.014204449 -0.060952827 0.06672725 0.05840296 -0.104953535
0.03956568 -0.01721961 0.04762864 -0.12424386 -0.0013233881 0.092066504 0.08221851 0.099891685
-0.09458851 0.012296918 0.030689046 -0.045130234 -0.061723564 -0.029070903 0.042442456 -0.08148336
-0.014347363 0.08020785 0.038829546 0.0017611383 0.017075792 -0.021442855 -0.050543196 0.098254874
-0.014548305 0.007994363 -0.04987947 0.022115817 0.016190499 0.013079439 -0.09165935 -0.02824996
0.0391159 -0.0015999626 0.08436342 0.07730059 0.027876897 0.05261489 0.073766 -0.011263074
0.0063965702 -0.04451198 0.082747705 -0.022220762 -0.009561657 -0.054880716 0.036657486 0.058744453
0.087773934 0.09333548 0.008639327 0.039295387 -0.032799114 -0.08574067 -0.063775495 0.030829728
-0.07613621 0.021998359 0.017371643 -0.03954837 -0.04948608 -0.08774346 -0.097255625 0.018684508
-0.017646518 -0.009136287 0.09785555 0.018036911 -0.0106524285 0.08055674 -0.06729663 -0.04671981
-0.046198364 -0.07221179 0.089560404 0.03652815 0.049879175 -0.0029996745 -0.0554583 -0.0432053
-0.022776013 0.04817541 0.1285222 0.06513708 -0.06844653 -0.028012997 -0.0137985945 0.060722034
-0.029336996 -0.020453667 -0.012339521 0.011147679 -0.002013953 0.047377404 -0.06545103 0.00401978
-0.028586663 0.10325982 0.033167567 0.022187382 -0.0046389857 0.107680224 0.03516434 0.039526567
-0.037901856 0.08148547 0.12264104 0.057343367 0.006012756 -0.056171864 0.02028696 -0.02513688
-0.002265455 0.004576201 0.013844598 0.059567135 -0.018801602 0.019111823 0.08636964 0.061857607
0.045327123 0.0006514541 -0.016604442 -0.051454306 -0.038607843 -0.042610757 0.06278007 -0.061603013
0.057563853 0.018872758 0.055151217 0.018742332 0.04402345 -0.02217768 0.005738057 0.020574456
0.0011306948 -0.048465427 0.11424676 0.03579681 -0.036140844 -0.027323863 0.0139947245 0.019134905
0.028663842 0.05457626 -0.018129935 0.11363497 0.065158635 0.041654035 0.02586965 -0.031736597
-0.051918272 0.014162053 0.0237866 0.061860375 -0.07539856 0.034370188 -0.011019388 -0.07151722
0.04006463 0.10196715 0.08455554 0.0035053722 0.090388514 0.07814507 0.059216965 -0.00440985
0.017951354 -0.04501879 0.01704836 0.050446887 -0.0053357068 0.009510283 -0.0061503286 0.07120447
0.01279723 -0.04795452 0.033339385 0.003153039 0.04073526 -0.0647632 -0.059651453 0.013985955
-0.06335947 0.028810317 0.040224086 0.060223747 -0.018644212 0.012406488 -0.002024217 -0.017345436
0.023814788 0.051660676 -0.016479084 -0.013097187 0.055625215 0.093277626 0.0053993138 0.008730942
-0.028354036 0.070379235 0.014643325 0.038669974 -0.04139125 -0.009676269 -0.0042091883 0.05706833

network_body.observation_encoder.processors.0.conv_layers.2.bias f4 [32]
00000000: f562 dbbc 669d 523d 2dd9 92bd 440f 30bd
00000010: 3361 34bd 9bfb 14bb 9dc4 20bc 42ad ae3d
00000020: 22b1 b5bc cb59 c33c 41b3 b1bb d513 31bd
00000030: 1571 acbb daad 29bd b5c2 0ebd a919 11bd
00000040: b5ab 9f3a 9eb4 15bc 3b92 5ebd 497d 8c3d
00000050: c3a3 6abc 6827 5a3b 265c 933c 8a3a 853d
00000060: 0b74 debb 99b8 e4bc 7009 2fbd 24e7 dbbc
00000070: b094 3b3d 9076 e13c 5f5d a13c 25ae 20ba
-0.026780585 0.051419638 -0.07170329 -0.04298331 -0.04403801 -0.0022732976 -0.009812501 0.0852914
-0.02217919 0.023846528 -0.00542298 -0.043231804 -0.005262504 -0.041425563 -0.034853656 -0.035424862
0.001218191 -0.009137301 -0.054338675 0.06859834 -0.01432127 0.0033287648 0.017988276 0.06505306
-0.0067887357 -0.027920054 -0.04273361 -0.026843615 0.045796096 0.027522355 0.019697843 -0.0006129465

network_body.observation_encoder.processors.0.dense.0.weight f4 [128, 512]
00000000: 9d98 d4bc e5a7 13bd 861e 0dbe 8a14 aa3d
00000010: 4c3a 4e3d c2f2 80bc fec4 75bd e086 c03d
00000020: fd08 cdbd 9060 b03d 5e03 8b3d 3e6e 08bb
00000030: ce4a 3cbe 6ba4 86bd 9a77 77bd 6a7c 21bd
00000040: b7d1 673e 2189 6e3c 8e2a 913d 7ccd d43d
00000050: cba1 8739 12fc 7b3d ee71 e13c 995c 283d
00000060: c4f3 043d dcf4 5f3d 8f11 48bd 9fce bd3d
00000070: 39c6 69bd 762f 2d3d 4f30 8d3d d6d8 713d
00000080: 8bae d53d f23f 8bbc 9194 90bc 613a 5c3d
00000090: 25ef 66bc 58da 7cbd 3ff8 7bbc 4ae9 f13c
000000a0: c2bf 0dbe c01b 10bd 322f ab3a c4bf 19bd
000000b0: 559b d43c 4da2 6dbd e58e e73d f006 593c
000000c0: d1fe 94bd 1b0a fe3d 6d26 88bc a362 ab3d
000000d0: 5e6c 96bd 5a3c 9f3d 08ef c0bd fd1b bdbc
000000e0: a363 f8bd 7e39 b8bc 3d68 21bb 5863 9cbd
000000f0: 6c19 c0bd 38f2 9b3b 5b27 fd3c 5c1e c53c
00000100: 3efd 9a3c 5fa0 dfbc e958 9f3c ed49 fa3c
00000110: c8ac e7ba 8ac1 4cbd bf4b 6c3d 3d44 08bd
00000120: 2771 153d a85e e9bc 4965 9fbd e6bf 503d
00000130: cda6 babd f57d bc3c 72bc 6b3d 3056 0b3c
00000140: 830d 1d3c 8e23 0d3d 9cd3 cebd 1f80 f13c
00000150: d3d6 d93d 5392 b23c 5b9e d4bd 1d01 cd3c
00000160: 4384 a4ba 2b4b 4abd 8294 733d b7da 15bd
00000170: 5411 c0bd 16ed e4bb 67cc adbd 86c9 25bd
00000180: e81c 9a3d 817a ce3c 6864 123d 09b2 6f3d
00000190: 970e 893d e2da 7ebd 6cdd 8ebc 4164 e13d
000001a0: 3da1 173c 095a f63d fb10 873c 0cc8 873d
000001b0: 7595 51bd 3ccd 79bd d579 2ebd 3e15 163e
000001c0: 42c0 303d 859c d73d 0b29 2d3e 5c91 48bd
000001d0: 44c1 8bbd 1b01 c83d 3f2a fa3d e17f 503b
000001e0: 6ecb 293d 29d6 bfbc 9d0c cbbd 2a19 a93d
000001f0: 8ac9 fe3d 7750 483d 0a6f 5b3d b108 b63d
00000200: 104b 613c 484b 47bc 2158 fabd c187 963d
00000210: af50 b93d 981f a5bc c17f be3c 48e5 493d
00000220: 8660 c7bd c706 61bc 7bb2 78bb f102 833c
00000230: 3b0e cb3b 6333 0c3e f423 80bd 2faf 9cbd
00000240: a3ba 303d 72ab 6fbd 991f dfbc 2f4c 9a3c
00000250: 3a82 a03c 574f dfbb 671c 253d 2de7 f2bc
00000260: 2f8e 90bd 90c4 d8bc 9624 f9bc 9649 843d
00000270: eab1 083d b193 ce3d 0099 063d 5463 7a3d
00000280: dd46 5abd 74b2 eaba bd65 393d 45c2 e338
00000290: cce2 353d 641a 903d b40c cd3c 3921 97bd
000002a0: cf9d 3abd cd5c 38bb 405a abbd e31a 04bd
000002b0: dae8 71bd 7fb9 943c fdb9 c23c afe6 cf3d
000002c0: 99f1 bfbb 8dde eabc bfd8 d1bd b5d3 81bc
000002d0: 7192 8fbd d0ab ef3c 4bdb 783c fd75 283e
000002e0: 4a0e 0d3d df10 6e3d 9e29 c53c 7c51 83bd
000002f0: 6808 4ebd a44d a8bc 9e2a bcbd 2a54 88bc
00000300: 42f0 1e3c 96ed 8fbd db34 f2bd 828f 78bd
00000310: ba1a 29bd 742b a2bc a21c 963c c367 cfbc
00000320: 72df 71bc b1ef 98bd 0911 e2bd 42d2 36bc
00000330: e2b9 54bd 6d61 d5bd b806 523d 8f10 acbd
00000340: 0822 473d b9d8 9f3c 3df4 923d 9900 7e3d
00000350: a15e 243d 5be2 a0bd cee7 953c ffed bd3d
00000360: 36bb 59bc efc5 683d e5a3 ebbd 07ca 02bc
00000370: a2e8 c9bc 809d 413c b143 263e 1e8e 453d
00000380: 23e9 f4bd 496e 9f3d d92b 41bd 3aa3 c9bd
00000390: ed80 3abd 1abd a73c c9ca 90bd 5350 b43d
000003a0: 1ac2 613c e3d5 183d adfc 9ebd f3ae 483d
000003b0: 2e66 9c3d c83f 1dbe e00c 6a3d 7b29 8b3d
000003c0: 138d 45bd b4be 37bd 493b 8e3c adfd d9bd
000003d0: f6cb d2bd 4fed 733d d98e 163d cd91 233d
000003e0: f555 963d dc96 ba3d 7b87 793c da82 f53d
000003f0: cdb3 0e3e 98be e1ba 17eb aabd d376 a8ba
-0.025951678 -0.03604879 -0.13781175 0.08304699 0.050348565 -0.015740756 -0.06000232 0.09400725
-0.1001148 0.08612168 0.067877516 -0.0020817663 -0.1838791 -0.06574329 -0.060416795 -0.03942529
0.22638594 0.014559061 0.07088195 0.103907555 0.00025869752 0.06151969 0.027520146 0.041103933
0.032459036 0.054676875 -0.04884487 0.092679255 -0.057073805 0.04228159 0.0689398 0.05904468
0.10433682 -0.016998265 -0.017648967 0.053766612 -0.014095102 -0.061731666 -0.015379011 0.029530186
-0.13842681 -0.035182714 0.001306033 -0.037536398 0.025952974 -0.05801611 0.11306552 0.013246283
-0.07275165 0.12404271 -0.016619885 0.08368423 -0.07344888 0.07775183 -0.094205916 -0.023084635
-0.12128379 -0.022488352 -0.0024628781 -0.07636136 -0.09379849 0.0047590993 0.030902555 0.024062328
0.018919583 -0.02729815 0.019451575 0.030552829 -0.0017675394 -0.04998926 0.057689425 -0.033268202
0.036484864 -0.028487518 -0.077829905 0.05096426 -0.09113846 0.02300928 0.057552762 0.008504435
0.009585741 0.034457736 -0.10098955 0.029480038 0.106366776 0.021798288 -0.103817664 0.025024945
-0.0012551624 -0.049388092 0.0594678 -0.036585536 -0.09378305 -0.0069862707 -0.08486252 -0.04047539
0.07525045 0.025204899 0.035740286 0.058519397 0.06692236 -0.06222046 -0.017439567 0.1100545
0.009254751 0.120288916 0.01648759 0.06629953 -0.051167924 -0.060986742 -0.042596657 0.14656541
0.0431521 0.105279006 0.16910188 -0.04896675 -0.06823972 0.09765836 0.12215089 0.0031814503
0.04145377 -0.02341755 -0.09914515 0.08256753 0.12440784 0.048904862 0.053572692 0.088883765
0.013750806 -0.012163945 -0.122238405 0.07350112 0.09048592 -0.020156667 0.023254277 0.049290925
-0.09735207 -0.013734526 -0.003794818 0.015992614 0.0061967648 0.13691477 -0.062568575 -0.07650601
0.04314674 -0.058513112 -0.027236747 0.018835155 0.019593347 -0.006814878 0.04031029 -0.029651249
-0.07058369 -0.026460916 -0.030412953 0.06459348 0.033372797 0.10086764 0.032860756 0.061129883
-0.053290237 -0.0017905966 0.04526304 0.00010860389 0.044405743 0.070362836 0.025030471 -0.073793836
-0.045560654 -0.0028131485 -0.08366823 -0.032252204 -0.059059955 0.018154858 0.023770327 0.10151421
-0.005857658 -0.028670574 -0.10246419 -0.01584802 -0.07010353 0.029256731 0.015189002 0.16451259
0.034437455 0.05812156 0.024067696 -0.06412026 -0.050300986 -0.020544834 -0.09187816 -0.016641695
0.009700837 -0.07027738 -0.11826488 -0.060683735 -0.041285254 -0.01979611 0.0183242 -0.025318032
-0.014762746 -0.074675925 -0.110384054 -0.011158528 -0.051935084 -0.10418973 0.05127594 -0.08401596
0.04861644 0.019512521 0.07175491 0.06201229 0.040129308 -0.07855674 0.01829901 0.0927391
-0.0132892635 0.05682939 -0.1150587 -0.007982737 -0.02464706 0.011817336 0.1623676 0.048231237
-0.1195853 0.07784707 -0.047160957 -0.09845586 -0.04553311 0.020475913 -0.07069928 0.08804383
0.013779188 0.037313353 -0.07763038 0.04899497 0.07636677 -0.15356362 0.057141185 0.06795021
-0.048230242 -0.044859603 0.017362254 -0.10644088 -0.10292809 0.059552487 0.036757324 0.03993397
0.07340614 0.091108054 0.015230055 0.119878486 0.13935776 -0.0017222939 -0.08345621 -0.0012852795

network_body.observation_encoder.processors.0.dense.0.bias f4 [128]
00000000: 253f 673d 7e09 c33c 2656 b9bc 457e 7839
00000010: 1dff 843d bea3 503c 9117 673d 8b54 21bc
00000020: 4c63 6a3d 0d97 2c3c 60e9 963b bdc7 a1bb
00000030: e53c acbc 04f6 bcbc e575 873c 6786 5a3b
00000040: de99 5e3b 953d bf3c eaa9 26bc 0e53 d8bb
00000050: 5c2f d23c eabb 113d 2206 fd3a 68de ed3c
00000060: 25b4 a9bc 62f6 623c 82df 42ba f5c6 eb3b
00000070: 1c1b 3b3d 1b9c 1ebd e7aa 293d 1608 203d
00000080: 18d3 ba3c 149f de3c 5e47 823d f7fc 533c
00000090: d1ee c2b9 9cfe 383c 43f0 16bc 2b71 693d
000000a0: 5038 7f3d bf62 603d cc98 46bc ba6e d43c
000000b0: 91b4 483c 372e 9bbc c6ec 003d 71dd 53bd
000000c0: a94b 7abb 7e41 93bc 6303 633c 8ab0 6f3a
000000d0: 7c3d b13c a5e1 7a3b c86d 283c 63a2 343d
000000e0: f251 503d dca3 143d 3ab2 823b 52d5 5cbc
000000f0: 1d46 073d 2c9d 0b3c 1647 083c 6672 34bc
00000100: 9373 8fbc 42ba a53b f7b1 323d 36c6 623d
00000110: 477e b43b 1c93 0f3d 5c6f 203d 6073 2cbc
00000120: 6639 0b3d c5a5 fd3b bdca b53c 956d 0cba
00000130: d209 85bc 3f62 9b3c df7e 2dbd 079d d0bb
00000140: cfbb b5bb 43a5 433d 8c08 c0bc 5b93 ac3c
00000150: d1a7 a33b 760d 1f3c c69d c6bc aea6 663d
00000160: ef18 9d3c 3911 7f3d e6a2 133d b557 a93c
00000170: dff1 2cbd 41ee 5c3d f028 84bc f8c4 a3bc
00000180: 6b86 603c 3cab 5f3d 0d39 e23c 5095 5b3a
00000190: bc5c 8f3c d981 af3b bf94 fb3b a076 58ba
000001a0: cd2f d4bc 02fe 75bc e348 903c 951a d63c
000001b0: d192 2b3d 9c5c ccbc 8817 bc3c e92f ad3b
000001c0: dff0 6fbb 6e5e 343d d9bf 2d3d ddbb ca3c
000001d0: 7365 5e3d 506d 853d 1abd 343d 3c6f 5a3d
000001e0: 1381 673d 8ee7 d5bb 8c94 82bc fa45 0bbd
000001f0: d895 a3bc 9f5a 22bd cf23 a9bb 24b0 413d
0.056456704 0.023808237 -0.022624087 0.00023698162 0.064939715 0.012734352 0.05641896 -0.009846817
0.057223603 0.01053406 0.004605457 -0.0049371407 -0.02102513 -0.023066528 0.016535709 0.003334427
0.0033966224 0.023344794 -0.010172347 -0.0066016978 0.025657348 0.0355796 0.0019304196 0.029036716
-0.020715782 0.013852688 -0.0007433818 0.0071953484 0.04568015 -0.038723093 0.04142275 0.03907021
0.022805735 0.027175464 0.063612685 0.0129387295 -0.00037180496 0.011291172 -0.009212556 0.05699269
0.062309563 0.05478167 -0.012121391 0.025931705 0.012250082 -0.018942935 0.031475805 -0.051724855
-0.003819207 -0.017975565 0.013855788 0.0009143433 0.021635763 0.0038281467 0.01028008 0.044100177
0.0508594 0.03628908 0.0039885314 -0.013478594 0.03302585 0.008521359 0.008317729 -0.011013603
-0.017511165 0.005057604 0.04362675 0.05536481 0.0055082175 0.035052404 0.0391687 -0.010525554
0.033990286 0.0077407085 0.0221914 -0.0005356905 -0.016240034 0.018967746 -0.04235732 -0.0063663754
-0.00554607 0.047765028 -0.023441575 0.021066358 0.0049943705 0.009707799 -0.024245154 0.056311302
0.019176928 0.062272284 0.036044024 0.020671705 -0.042222854 0.053938154 -0.016132802 -0.019991383
0.013703923 0.05460666 0.027615095 0.00083764363 0.017500274 0.005356055 0.007677644 -0.00082574226
-0.0259017 -0.015014173 0.01761288 0.026135722 0.041888062 -0.024946503 0.02296044 0.0052852524
-0.0036612076 0.044035368 0.04241929 0.024747783 0.05429597 0.0651499 0.044125654 0.053328738
0.05651958 -0.0065278476 -0.015939973 -0.03400228 -0.019968912 -0.039637204 -0.0051617394 0.04728712

network_body._body_endoder.seq_layers.0.weight f4 [128, 128]
00000000: 079c babd 1a99 93bb 9547 49bd 63a8 8bbd
00000010: b5d4 dd3d 39f8 33be 7dab 5abd 8f6c 73bd
00000020: 157c 073e acfb 7fbd 5ef7 89bd 7205 983d
00000030: 9059 8036 7f23 c1bb 4cd3 bbbd 2fc9 1cbc
00000040: 5526 01be 385a 423d bfc7 20bd e803 c3bd
00000050: aa80 2a3e 02d8 96bd 7021 ed3d f8bb 0abc
00000060: bde3 2b3e a86b 22be d3b6 e43d 3033 c3bd
00000070: d882 43bd b907 63bd 6481 5dbd 586a 373d
00000080: 2c8d 9e3d 669d 4cbd 6700 d03c 145e f0bd
00000090: 1d08 e7bb 1b43 cfbd 7855 a23d d97f 2a3d
000000a0: a7ad 0abd 23c7 48be ce53 05bd a211 d7bd
000000b0: c80c 783d b47b 5bbd f9f6 183d 0fd9 b13d
000000c0: bdc7 7c3d f0fb 1f3e 7126 bcbd 1e89 35be
000000d0: 2d13 b8bd 0d7e cf3c a614 b8bb e1dc 48bd
000000e0: 8f03 373e dfe7 dcbc 8e08 d6bc d515 d3bd
000000f0: 7450 e3bd 5b18 02bd c4f8 9bbd 9791 9d3d
00000100: 4f8f fd3d 088f 173d 07ee a5bd f2a6 fe3d
00000110: e260 c2bc a5cb 593b 63a1 bcbd ae16 33bd
00000120: 9b10 d73d 81a0 173e 3032 f5bd 9b3a e6bd
00000130: 091d 353d 31be 8fbd bedc b93c 678c 50bc
00000140: 70fa 1ebe 2676 06be 2ef7 6e3e 53f0 95bb
00000150: f78a 0dbc 653b e83c 0773 e739 bbbc 08bc
00000160: 76b1 07be 6032 733d 4ab4 ccbd 0ffb c5be
00000170: 4142 f23c 96cb 6b3d 22d8 0cbe 1901 b63b
00000180: e823 babd e997 9fbd 4fd3 efbd ae00 6e3c
00000190: c33c f93d 1786 a93d 4a2e b8bd f145 643c
000001a0: 05dc 2ebe 7f80 03bd 7831 85bd 91bd 0abc
000001b0: 9ffd 6b3d 49f6 a1bc e0da 25bd fba5 54bd
000001c0: 36af 78be 8d06 2dbe 0660 44bd a5a3 213d
000001d0: 4583 ccbd ae53 cdbd 4029 8fbc 7bad 88bc
000001e0: 1434 b3bd 3568 8dbd c000 033c a7af bb3c
000001f0: 4998 123e 085d 09be aac0 c0bd 1ef2 3fbd
00000200: f4e3 543d c9e0 363d 04c0 f2bd 6585 03be
00000210: 2fbe 0d3e d587 e6bd 30c5 073e 28a7 763c
00000220: e00e bf3b b590 8f3d 3a23 6e3d e44e 8a3d
00000230: 0e55 593d 3c14 263d 1b77 98bd 342a abbb
00000240: 23e6 583d f500 0d3e ebcb 39be 358e 803d
00000250: c222 56bd 4cea 01be c480 52be 1f5e 2ebd
00000260: 4900 febd 06cb 223e 335d 71bd f1a0 f8bd
00000270: 1740 90bc f199 513d da82 f3bd b108 b6bd
00000280: 1153 58bd ef42 a33d 2599 e8bd 1646 0fbe
00000290: e82e 93bd b5e4 4bbd 59b8 29be 1ade e93d
000002a0: 37bd aebd c243 2f3e fac2 d63d 3d0a 33be
000002b0: f534 df3d 0a08 1dbe 6a1e 31be c8dd a73d
000002c0: a990 c53d ddde 403d b9b7 283e fc4e b2bb
000002d0: 9391 86be 9992 f9bd 4ef4 f33d d281 99bc
000002e0: 54ef a83c de13 e7bd 516b 1b3d dd23 e13b
000002f0: 5203 9fbd 991a a83d 8e23 92bd 547b 0a3e
00000300: 360d 88bd 7bea 173d a6b6 6fbd 22c0 333d
00000310: b5c8 91bd 8368 bfbd eaf0 be3a a722 623c
00000320: 9211 5f3d bdf1 39bc 879a 1d3d afcb 4cba
00000330: 3ae5 803d f8fa 2d3e 5f9c 9e3d 40ee f4bd
00000340: 8a41 153d ad35 56bd 39ae 963d 375c e13d
00000350: bd9e 40be 5d70 22bd 5fb7 87bc 2817 5fbc
00000360: 7a42 19be 48fb f4bd b47a d4bd 1d16 2bbe
00000370: 9598 b83d 4130 673e 3907 90bd 2fba 0b3d
00000380: 72dd 893d 808d 0bbe ccc8 0abe b4a8 2cbd
00000390: ff10 c7bc 6d1e 34bd 03f1 97bd d70a 5fbd
000003a0: 84f2 b0bd 0246 0a39 df77 28bd e4a3 85bd
000003b0: a894 6b3c 4557 243d 35de 93bd cfbc eabd
000003c0: fcc8 adbd 3556 2ebe 6a2f 9abd 83f0 a93c
000003d0: b67d 00bd 9d58 00be 892f e6bc 9b4b cbbd
000003e0: f0ef 0abe cbf0 253e dd6e eb3d e328 863c
000003f0: 31f5 fc3d 722f fd3c 777f 213e ae67 5739
-0.09111791 -0.004504335 -0.04914053 -0.068192266 0.10831586 -0.17575158 -0.0533862 -0.0594297
0.13230927 -0.062495872 -0.06736635 0.074229136 3.8251237e-06 -0.005894124 -0.09171161 -0.00956945
-0.12612279 0.04744932 -0.039252993 -0.095222294 0.16650644 -0.07365419 0.11578643 -0.008467667
0.16786094 -0.1586138 0.111676835 -0.095312476 -0.047732204 -0.055427287 -0.054078475 0.04477915
0.0774177 -0.049954794 0.025390817 -0.11736694 -0.0070505277 -0.10120221 0.07926458 0.04162583
-0.033857014 -0.19607215 -0.032550626 -0.1050141 0.060559064 -0.05358477 0.037344906 0.08683979
0.061713923 0.1562345 -0.091870196 -0.17728087 -0.089880325 0.02532866 -0.005617696 -0.04903877
0.17872451 -0.026966034 -0.026127126 -0.103068985 -0.110993296 -0.03176151 -0.07615808 0.07693785
0.123808496 0.03700164 -0.08102041 0.12434186 -0.023727838 0.0033232954 -0.092104696 -0.0437228
0.10501214 0.14807321 -0.11972463 -0.11241647 0.044217143 -0.07018698 0.022688266 -0.012728787
-0.15525222 -0.13131008 0.23336479 -0.004575768 -0.008639089 0.028348634 0.00044145455 -0.008345778
-0.1325129 0.059374213 -0.09995325 -0.38668105 0.029572608 0.0575672 -0.13754323 0.00555433
-0.0908888 -0.077926464 -0.11710226 0.014526529 0.121697925 0.08277529 -0.08993204 0.013932691
-0.17076118 -0.032104965 -0.06503576 -0.008468048 0.05761492 -0.019770758 -0.04049194 -0.051916104
-0.24285588 -0.1689703 -0.047943138 0.039462704 -0.09985975 -0.10025726 -0.017475724 -0.016684284
-0.087501675 -0.069046415 0.007995784 0.022910906 0.14315905 -0.13414395 -0.09411748 -0.04686176
0.051975206 0.044647966 -0.1185303 -0.12843855 0.1384208 -0.11256377 0.13258815 0.015054502
0.0058306307 0.070100226 0.058139063 0.067533284 0.05305963 0.04054664 -0.074445926 -0.005223537
0.05295385 0.13769896 -0.18144195 0.06277124 -0.05227924 -0.12687033 -0.20556933 -0.04257023
-0.12402398 0.1589776 -0.058926772 -0.12140072 -0.017608685 0.0511722 -0.11890192 -0.088883765
-0.052813593 0.07971751 -0.11357335 -0.1399158 -0.07186681 -0.04977866 -0.1657423 0.11419316
-0.085321836 0.17115691 0.104864076 -0.17484374 0.108987726 -0.15335098 -0.17296758 0.08196598
0.09646732 0.04708754 0.16476335 -0.0054415446 -0.2628294 -0.121861644 0.11911832 -0.018738661
0.020621933 -0.11283086 0.03794414 0.0068707303 -0.07764305 0.08208198 -0.07135688 0.13523608
-0.06643145 0.037088852 -0.058523796 0.043884404 -0.0711836 -0.09346106 0.0014567648 0.013802207
0.054460116 -0.011349139 0.038477447 -0.00078123336 0.062937215 0.16990268 0.07744669 -0.11959505
0.036439456 -0.052297283 0.07357449 0.11003917 -0.18810554 -0.03965794 -0.01656693 -0.013616361
-0.14966765 -0.119619906 -0.10374966 -0.16707654 0.09013478 0.22577001 -0.070326276 0.034113105
0.067316905 -0.13628197 -0.1355316 -0.042153075 -0.024300097 -0.04397433 -0.07419016 -0.054453697
-0.08640006 0.00013186786 -0.041129943 -0.065254 0.014378704 0.04012229 -0.07220117 -0.11461794
-0.084856 -0.17025073 -0.07528575 0.020744568 -0.031369887 -0.12533803 -0.028098838 -0.0992653
-0.13568091 0.16205136 0.11495755 0.016376918 0.12351454 0.030906413 0.1577128 0.00020542621

network_body._body_endoder.seq_layers.0.bias f4 [128]
00000000: 50be 14bd da7b 61bd 5e2d d8bb 022b 77bc
00000010: a27a 863d 47bf cc3b eec0 4dbd 7416 1b3d
00000020: 0414 bebc 209b 6f3d 8571 9f3c 25a4 f43c
00000030: 97a3 313c 2120 083c 6777 1fbd 276e b7bb
00000040: 0ec5 2ebc e478 e83c 7c95 103d d595 1d3d
00000050: f837 7e3d 01dc 723d d088 36bb a2eb 673d
00000060: e181 04bd 9347 c43c 93fb 01bd 9ab6 dc3c
00000070: e57e 9d3c 23fd 24bc f55c 263d 7d0c 24bb
00000080: ec0b 33bc d4da d03c 5a51 9f3c d22b 45bd
00000090: 7335 433d 72c4 a7bc 3c50 ec3c e27a b53c
000000a0: a477 afbc db59 28bb 944a 3a3c c1bf a1bc
000000b0: 83b2 22bd f6df f8bb a6b7 323c d8fd 33bd
000000c0: 960f 2d3c eb84 e73c 8db0 d83b 5529 58bc
000000d0: 52c3 e63b 6b87 57bd 99f7 243b b190 bc3c
000000e0: d72a cc3c e0b6 003d b43a ffbc 2f2a ab3c
000000f0: 7f24 7cbd ed5f 39bd 4a6a 033d 8544 c93a
00000100: 8eaf 1bbc 3b31 903b 2f4d 0abd 7804 eb3c
00000110: e394 353d 4c5c 043d 0492 f2bc d0c1 a3bb
00000120: db6b ab39 d2df e1bc d6ce a9bc 100c de3c
00000130: a329 0dbd 6e6d 34bc 28d6 113d 8a7b 3f3d
00000140: 818a 3fbd fa85 0dbd 09f1 123d a7f3 bc3a
00000150: 14af 843b d8fd e03b fed1 713b 7b3e ba3c
00000160: 2396 a33b 31b3 3cbc 7826 d0bc 2d4f 0b3d
00000170: b11f 5a3c 82bc 9dbc 2c7b c2bb ba56 5b3d
00000180: a0b5 b03c e0a6 7ebc 5f50 0dbd 3b1b a43d
00000190: 4b5d 21bd d42e 90bc 46b8 f53b 4d79 2a3d
000001a0: 0f1c 64bd 51e7 edbc c511 14bd b3f7 4dbc
000001b0: b650 103c 516b 513c 3bad f83c c6dc 02bd
000001c0: 7cdf 2e3c a794 273d d21c 14bc 60df a63c
000001d0: 58d7 943b 48ae c23b 926b 37bd fc93 58bc
000001e0: fd51 ee3c 6509 b63c 5c68 bdbb f02a 81bb
000001f0: 6b72 cebc 3069 923c 89ec 6ebb dc60 38bd
-0.03631431 -0.055049755 -0.006597205 -0.015085937 0.06566359 0.006248388 -0.05023282 0.03786321
-0.023202904 0.058497548 0.01946331 0.029863426 0.0108422255 0.008308441 -0.03893223 -0.005597848
-0.010667099 0.028377958 0.03529881 0.03847297 0.062065095 0.059291843 -0.0027852543 0.0566212
-0.032350425 0.02395991 -0.03173406 0.02694254 0.019225547 -0.010070118 0.040615994 -0.0025031858
-0.010928135 0.02549497 0.019447971 -0.048137493 0.047658395 -0.020479415 0.028846852 0.022153322
-0.021419354 -0.0025688324 0.01137032 -0.019744756 -0.039721023 -0.0075950576 0.010908043 -0.043943256
0.010562798 0.028261622 0.0066128434 -0.013193448 0.007042327 -0.05261938 0.0025171994 0.023018213
0.024922771 0.031424403 -0.031155922 0.020894138 -0.061558243 -0.045257498 0.032083787 0.0015355503
-0.009502305 0.0044004 -0.033765014 0.028688654 0.044331443 0.032314584 -0.029610641 -0.0049974695
0.0003269602 -0.027572546 -0.02072851 0.027105361 -0.034463536 -0.011012418 0.035604626 0.046748675
-0.046762947 -0.034551598 0.0358744 0.0014415876 0.0040491913 0.006866198 0.0036898847 0.022734871
0.004992263 -0.011517332 -0.025408968 0.034011055 0.01331322 -0.019254927 -0.0059350934 0.053549506
0.02157098 -0.015542716 -0.034500476 0.08013006 -0.03939561 -0.017600454 0.0074987737 0.041619588
-0.05569082 -0.029040964 -0.03614976 -0.012571263 0.0088083055 0.012781934 0.03035604 -0.031948827
0.0106734 0.04091325 -0.009040074 0.020370185 0.0045422725 0.005941186 -0.04478032 -0.013218876
0.02909183 0.022221277 -0.005780263 -0.003941886 -0.025201043 0.017872423 -0.0036456904 -0.045014247

network_body._body_endoder.seq_layers.2.weight f4 [128, 128]
00000000: 9f40 a83d f0b0 9b3d 5b3b 823b 9911 bf3c
00000010: d238 173d 7889 cd3a ff81 d4bc 77de 14be
00000020: 9d51 16bd dc34 b9bd 232f d8bb e84f 73bd
00000030: 2d50 443d 9bdc 34be 521c 843d bdb8 3b3e
00000040: f399 c73b 5623 b8bd 9ea3 023e 9911 05be
00000050: 77aa dcbd 944b 8b3d a12f 563d 90a2 0ebd
00000060: 6261 59bc 5cc4 9cbd 9fea 953d 299d 98bc
00000070: a3c6 09be 5cbe b3bd 1757 0fbe d707 ff3c
00000080: 202b 28bd d750 c73d 3c29 05be 12da b9b9
00000090: abf1 8cbc 2a21 ea3c 5e24 42bd 701f 623e
000000a0: 6ba2 d83d 92a8 cd3d 3897 d0bd 6774 043e
000000b0: 9037 983d 5150 cf3c 4a18 723b 43b8 493e
000000c0: a545 91bd f849 143e 778b babd e5d1 3d3e
000000d0: 36dc debc ae0a b9bd 3c4a febb d1f6 313d
000000e0: 826a b4bc faca 203d 7d99 773c d59e 0cbd
000000f0: 13d7 573e c810 243d a523 a83d 966d dfbd
00000100: 839d 0dbc 374f f13d 5c9e 3bbd dd31 58be
00000110: 6792 95bd 6380 0d3c 2c53 303d b911 d5bb
00000120: e1e0 ea3c 42b3 c3bc 9382 93bd c4cb cabd
00000130: 43c3 483e fa28 55bc d902 243d e756 c5bd
00000140: 0ae3 1ebc 9e02 c2bc 5608 fbbc a9a6 c6bd
00000150: 56d8 a53d 43cd 22bd 7d4c b1ba cbcd 7b3d
00000160: 63f1 11be abd4 0bbe d415 403c 3d84 16bd
00000170: 025a bbbd 68b0 453e 9678 debd 5e5d b6bd
00000180: 9ee4 9fbd 980b 05bd d069 9abc 86b5 1ebe
00000190: e8d0 663d 1675 053e 6eff b73d 2be6 63be
000001a0: 2c04 abbb 319e dc3c 3fc4 acbd ad2c 253e
000001b0: f2d2 84bb 9e77 dabb b7af 1f3e a2d3 983d
000001c0: a38c 18bd e03f 953d 8550 803d 4410 d13c
000001d0: 33cc 43be f59e b5bc 95e6 eabb bf82 453e
000001e0: 410b 203d 7ae1 203e 9a61 af3d 52f7 213c
000001f0: 037e deba 6cfd 073d 3076 943d a3d0 23be
00000200: 4c57 34be e1fe 51bb be00 443d 2f44 f2bd
00000210: 5450 ae3c 43d7 093d 504a e9ba 64c1 1fbc
00000220: fb76 1cbd 831d 1dbe f6f7 973d 45e8 403e
00000230: ee82 013d beec 0fbd c925 7fbd bda7 ff3d
00000240: f038 e5bd c870 b8bd 4149 cf3d 77bc 3b3a
00000250: 3322 7abb efa3 02bd e74f 203c 713d 89bd
00000260: 8399 88bc 47fe 50be 4cf0 60bc 890a c03d
00000270: 962a 6dbd 3d85 7abb f45d f8bd 10d4 2cbd
00000280: b244 1fbe d55e a1bd 27ae 073d 7674 3cbe
00000290: 8f98 60bd 04bd a8bc b61d 92bd b358 223e
000002a0: b17d a73b 9572 01bd 3f1d 86bd c21a 48bd
000002b0: 6593 c8bc f6ff 243a 7bd3 e5ba c553 03bd
000002c0: 693f 013c 8470 febd dd0f 153b 8546 0bbd
000002d0: f071 a1bd f4f6 323e 9c43 9ebd ac92 5cbb
000002e0: 5f19 293d a0ad f6bd 6c2b 0abe c9fe cfbd
000002f0: 526f 92bd 802a 123c add2 5ebe c863 a33b
00000300: b7e2 8cbd e487 173d 036b f5bd b264 97bd
00000310: 93ee 40be ba49 17be e432 c6bd 7022 f03d
00000320: e713 013d 2515 2ebd 2fce 75be 757b 4e3e
00000330: 1141 233e 25e5 9cbb e86c 2abd 20ac 223d
00000340: 106c e5bd f7fb 6fbd 7d52 0fbe 2ff0 1abe
00000350: 0a8d d13c d53c 0cbd 2098 a4bd 619c c7bd
00000360: ea9e bebd 834e 8e3c 5ad2 7cbd 5f1f 89bb
00000370: fb86 a33c b111 893c ebfe a3bd db49 fa3c
00000380: 2c6b 43bd 4a07 553d 4f91 c13c 6c11 a4be
00000390: 46e5 4bbd 8920 f63d fdbd b03c eb3c 653d
000003a0: b4eb a33d 12c1 14be 3988 debd d0ae 0dbd
000003b0: 02f5 003e e159 8b3e b713 063e ecb9 68bd
000003c0: 67b3 903c 097c b9b7 6ac4 b7bd 16c8 15be
000003d0: 74e3 34bc 82f7 d83d 8aa5 73bd aadb 32bd
000003e0: f060 b33d 65ef 58bd 69ff a23c db9e 22bd
000003f0: 95fa 91bc 7b67 7c3d e8f1 0d3e c2e9 b6bb
0.082154505 0.076021075 0.003974361 0.02332382 0.036919422 0.0015681228 -0.025940893 -0.14537989
-0.036698926 -0.09043285 -0.006597416 -0.059402376 0.047928024 -0.1766228 0.06450714 0.18332191
0.00609135 -0.08991115 0.12757728 -0.12994994 -0.10774701 0.06801525 0.052291516 -0.034823
-0.013267847 -0.0765464 0.07320141 -0.018629627 -0.1345468 -0.087765425 -0.13998066 0.031131668
-0.041056752 0.09732216 -0.13004011 -0.00035448425 -0.01720508 0.028580267 -0.047397964 0.22082305
0.10577854 0.10041918 -0.10185093 0.12935029 0.07432473 0.025306853 0.0036940747 0.19699197
-0.07093362 0.14481342 -0.09108632 0.185371 -0.027204614 -0.0903524 -0.0077603143 0.043448273
-0.022023443 0.039256074 0.015112278 -0.03433116 0.21078138 0.040055066 0.08209924 -0.10909574
-0.008643511 0.11782687 -0.04580532 -0.21112771 -0.07303315 0.008636567 0.04304807 -0.006502357
0.028671684 -0.023889188 -0.072026394 -0.099021465 0.19605736 -0.013010258 0.04004178 -0.09635716
-0.009697685 -0.023682889 -0.030643623 -0.09699757 0.080979034 -0.039746534 -0.0013526824 0.061475556
-0.14252238 -0.13655345 0.011723954 -0.036747206 -0.09148027 0.19305575 -0.10862844 -0.08904527
-0.07807277 -0.03248176 -0.018849283 -0.15498933 0.056351572 0.13032946 0.08984266 -0.22255771
-0.005219003 0.0269309 -0.084358685 0.16130324 -0.004053467 -0.0066670915 0.15594374 0.07462241
-0.037243497 0.07287574 0.06265358 0.025520451 -0.19120865 -0.022170523 -0.007168601 0.19288157
0.039073233 0.15711012 0.08563538 0.009885626 -0.001697481 0.033200666 0.07249105 -0.15997557
-0.17611426 -0.0032042789 0.04785227 -0.11829411 0.021278538 0.033652555 -0.0017798636 -0.009750698
-0.038199406 -0.15343289 0.07420342 0.18838604 0.031619005 -0.035137884 -0.062291894 0.124831654
-0.111925006 -0.09005886 0.10121394 0.00071615673 -0.0038167357 -0.03189462 0.009784675 -0.06701172
-0.016674763 -0.20409499 -0.013729166 0.093770094 -0.05790194 -0.003822639 -0.12127295 -0.042194426
-0.15553549 -0.07879416 0.03312507 -0.18403801 -0.05483299 -0.020597942 -0.07134573 0.15854149
0.005111419 -0.031603415 -0.06548547 -0.048853643 -0.024484346 0.00062942447 -0.001753434 -0.03206231
0.007888653 -0.124238044 0.002274505 -0.0340028 -0.0788306 0.17477018 -0.07727739 -0.003365676
0.04128396 -0.12044835 -0.13493127 -0.10156018 -0.07150139 0.008921266 -0.21760054 0.00498626
-0.0687918 0.03699483 -0.119833015 -0.07392253 -0.18841009 -0.14774218 -0.09677675 0.117253184
0.03151312 -0.042500634 -0.24004434 0.20164283 0.1594279 -0.0047880583 -0.041607767 0.039714932
-0.11202252 -0.0585899 -0.1399631 -0.15130685 0.025579948 -0.0342377 -0.08036828 -0.09746624
-0.09307654 0.017371422 -0.061724044 -0.004184648 0.019961825 0.016732069 -0.08007606 0.030552795
-0.04770963 0.052008905 0.023628859 -0.32044542 -0.0497792 0.12017924 0.021574968 0.0559663
0.08003941 -0.14526775 -0.10865826 -0.034590542 0.12593463 0.2721701 0.13093458 -0.056817934
0.01766367 -2.2111477e-05 -0.0897301 -0.14627108 -0.011040557 0.10594083 -0.059484042 -0.04366652
0.08758724 -0.05296268 0.01989718 -0.039702278 -0.017819682 0.061622124 0.13861811 -0.0055820653

network_body._body_endoder.seq_layers.2.bias f4 [128]
00000000: e901 5cbc a910 ba3c e5d1 d23c 8bfc 433d
00000010: bdbb 1fbd aade adbc 339d fabc ca2c 183d
00000020: 10e1 4f3d 92ea 073b 2e37 edbb 578e 2fbd
00000030: 951c 87bd dec3 9139 3f53 80bc 85b1 1a3a
00000040: afdf 413d 97a1 4e3d f1f3 8a3d 2de2 733b
00000050: 18bd 873c 83c9 80bd d734 09bd 1028 99bd
00000060: f05c 0a3c a4ad 23bb e144 42bd 54b5 a83c
00000070: 287e 63bd 31f7 bdbb dce6 593d 7736 91bc
00000080: bd5e f2bb 4454 00bd 6822 b13c 12c9 6d3c
00000090: 270e 0fbb d485 473d 27c2 81bd 7270 9e3c
000000a0: 5e56 cebb 2b0a 6c3b d346 99bc 80e9 833d
000000b0: e4d2 903b e6b6 19bd afd9 213d 8175 7a3d
000000c0: 4eec cebc d397 8dbd 5157 5ebd 6b95 82bc
000000d0: 2ee3 e53c 1249 9fbd 0b3b 1c3d acfc 4fbc
000000e0: 6661 b139 6dc3 5abd c66a 6bbd 05d2 fa3b
000000f0: 13fc 84bd 663d d6ba a8fc 943c d708 26bd
00000100: 9042 873d 7616 81bd dca3 753d 3fa1 97bd
00000110: 5cc0 033d 65fd f73c 6b1c 5fbc 2456 46bd
00000120: 32e8 853c 6866 91bd d535 a13c 532d 93bc
00000130: afdb a1bb 5ffa e13c 0efe 39bd f27b 25bc
00000140: 77fd 4f3c 4953 8c3a 2e0e 883b bfff 0dbd
00000150: ca2d 40bd e4d5 84bd fad9 0a3d 4665 273d
00000160: 296c 8d3c 674d 7a3b 86ec c33d 617c 333d
00000170: 2b40 0dba 8d56 49bc 2866 1f3d 6426 28bd
00000180: 6797 69bc 9fd7 e43b 8e33 c8bc 9de8 a43c
00000190: 24f8 3cbc 4065 473c 90e2 ab3c 8513 05bc
000001a0: 1c6e 81bc 8bdf 263d 71dc d13b 3e37 83bc
000001b0: 1f26 913c 89ab 0f3d 08c7 a93c 450d b43c
000001c0: 2f71 5b3d fef4 15bd e78e 203c 2569 853d
000001d0: a3bb cbbb cf6b 8ebc 6203 cf3c 765e 313d
000001e0: 1e78 93bb 6904 7d3c ab0c fc3c fc65 d5bc
000001f0: d28a 853c 67cc 243c c033 83bc 8b3c b9bc
-0.01342819 0.022713022 0.025734851 0.047848266 -0.0389974 -0.021224339 -0.030592537 0.03715209
0.050751746 0.002073918 -0.007239244 -0.042860355 -0.065972485 0.00027802488 -0.015664695 0.0005901086
0.047332462 0.050447073 0.067848094 0.0037213669 0.01656966 -0.06288435 -0.033497658 -0.074783444
0.00844501 -0.0024975324 -0.04742897 0.020594276 -0.055540234 -0.00579729 0.05319868 -0.017726166
-0.0073965476 -0.031330362 0.021622851 0.014513271 -0.0021828504 0.048711613 -0.0633586 0.019340727
-0.006296917 0.0036016803 -0.01871053 0.06441021 0.0044196714 -0.03752794 0.03951424 0.061147217
-0.025259163 -0.06913724 -0.05428249 -0.015940389 0.02806243 -0.07777609 0.038142245 -0.012694519
0.00033832638 -0.05340903 -0.057474874 0.007654431 -0.06493392 -0.0016345202 0.018186882 -0.040535774
0.06604493 -0.06303112 0.05997072 -0.07403802 0.03216587 0.030272195 -0.013617615 -0.048421994
0.01634607 -0.070996106 0.01967899 -0.017965948 -0.0049395184 0.027585207 -0.0454083 -0.010100352
0.012694708 0.0010705973 0.004152081 -0.034667727 -0.046918668 -0.06486109 0.033899285 0.040868066
0.017263489 0.0038193108 0.09566598 0.04381979 -0.0005388285 -0.012288702 0.038915783 -0.041052237
-0.014257289 0.006983712 -0.024438646 0.02013045 -0.011533771 0.012170136 0.020982057 -0.00812233
-0.015799575 0.04074053 0.0064044525 -0.016017552 0.017718373 0.035075698 0.020724788 0.021978984
0.053574737 -0.036610596 0.009799696 0.06514195 -0.0062174364 -0.017385392 0.025270168 0.043302976
-0.004500403 0.015442946 0.03076776 -0.026049607 0.016301546 0.010058499 -0.016015887 -0.022611877

action_model._continuous_distribution.log_sigma f4 [1, 3]
00000000: c874 9fbe 4a50 8ebe ebd8 0dbd
-0.31143785 -0.2779563 -0.034630697

action_model._continuous_distribution.mu.weight f4 [3, 128]
00000000: db6e 57bc 03ad c53b ad15 9bbc c0f3 bb3c
00000010: 60c2 af3c e572 9a3c ab99 163d e578 9e3b
00000020: 8c07 24bc c740 e9bc 8984 22bc 85d6 043d
00000030: 7617 8e37 80da 193c c1ac c2bc 24df 7b3b
00000040: 3ca8 22bd 1a2e 19bc ea31 ffba d2b7 1f3d
00000050: 5af4 643d fe8b 50bc cd56 833b bba3 08b9
00000060: 43a1 983c 6cd1 22ba cd19 373c 5774 cd3c
00000070: 8803 c93b 2568 9f3c a4cb c33c decd 8cbc
00000080: 757b ee3c 8e02 41bc 4f9d 3f3c e491 4ebd
00000090: f91e 68bb cf72 153d f6dd a9bc 4bbf ce3c
000000a0: 980e 5b3c 5146 16bc bebe a43c a4a6 3f3c
000000b0: 1a1a 843b 8850 cebc 3ef6 5b3c 3181 eaba
000000c0: 38f4 933b 5b92 b2bc 94ed b3bc 3833 e739
000000d0: 7bda 30bd fa45 06bd cad7 d4bc 3b19 eebc
000000e0: 4edf 033c 1697 443c fc83 363b 2bee 7b3d
000000f0: 7016 5b3c 2086 0b3c d1bb 953d 2e70 2ebc
00000100: 1ff8 dabc 001d f2bb 17c5 0abd b30b 643b
00000110: 2fa3 35bc 6ce4 f4bb c73f cabc d266 cd3a
00000120: bfff 46bb 6b84 d33b 84ae 3ebc 9b23 a83c
00000130: cddd 243c 7790 053d eead 0bbd da4c 7f3c
00000140: f4ac 783d 9b52 093c eccb bfbc d512 bcba
00000150: 7caf 823c c646 a3bc 1c72 10bd e93a b53c
00000160: 2f90 903b 3493 45bd 7e5f 32bc b7af 1b3b
00000170: bad2 643c 13bc 83bc aac3 b2bc 34f4 9f3b
00000180: 09dc 26bd 7adc 5b3b 4b8c 55bb 787f 1f3d
00000190: 7c0a 993c 3161 2f3c ecd6 05bd dbc5 7e3b
000001a0: be1a ce3b bc82 0ebd e3df 223d 45b9 06bd
000001b0: 95ab 9f3c d258 3c3d 416a 16bc a81b 1dbd
000001c0: 7a4e 7c3d 764c f83c e3ab 14bb ef3e 8c3c
000001d0: b516 adbb 67e2 7abc 9a89 6b3d c889 84bc
000001e0: badc 98bc 03d9 4b3d 1481 5ebd 66af 7c3c
000001f0: 9c37 8bbc 8d5f 92bb 50a7 c6bb 0052 663c
00000200: 1923 46bc 0523 b23c efcf 023d eff7 a33c
00000210: f000 963b 051e b13b e69e f93b 94d5 9d3c
00000220: 7e93 523c 2896 28bc 72ab 1f3c ab7c d0b9
00000230: 0bf4 60bc b355 cf3b 9964 1abd 6acc 35bd
00000240: 76db 01bb 8adf ad3b f618 3c3c e1af 7d3c
00000250: e906 b23c da9d 5bbc 0337 95bc 1b75 333c
00000260: f0d2 55bc 7294 5cbb 235c 3e3d 2858 caba
00000270: a5ff 15bc a2f9 22bd e703 903c 7973 0c3d
00000280: f474 a03c 4526 23bc b92c 08bc a607 5c3c
00000290: 878a 8bbb 7838 363d 16a0 7f3c a0d0 f3bc
000002a0: 0db9 e4bb 3865 24bd c422 803b 36d6 153d
000002b0: 8183 a0bd 34e3 973c 0402 e8bc b602 eb3c
000002c0: a5de b33c a812 17bc e79e c8b9 66a1 26bc
000002d0: 047e f53c 2e15 a5bb 6dff e13c e33d b7bb
000002e0: 93aa abbc b205 f43b 6979 153c 2abd 0ebd
000002f0: 504d 393b 1fef 45bd 3b1f 613c b026 f738
00000300: e492 7f3c a721 b7bc c667 153d d309 bc3c
00000310: 5c25 cd3c c01e c4bc 7c5a 40bc e7bd 50bb
00000320: 88ab 65bd 6ec7 75bc dd3d 52bc 13a3 333c
00000330: 5148 5d3c 3674 87bb e5f3 833b af49 b0bc
00000340: 2bbd a93c 11d4 8a3c 0955 8ebb 256a d93c
00000350: c498 a93a d8c4 f0bb eada 7bbd 077f 69bd
00000360: 410f 223d df0d 0abd f3e8 8a3a 1f81 8a3c
00000370: ab52 73bc 3a49 bbbb e0eb 0c3d 21b8 f83b
00000380: ceb7 5cbd ff57 0b3d efa3 dbbb d89b ab3b
00000390: 2ff9 683a 9791 2fbd 15e8 81bd 1fc4 9cbc
000003a0: a494 abba 0ae7 9cbb b1ab abbc 17df 19bd
000003b0: 495d fa3c 963f a43c 7f6c 713d 19b2 34bc
000003c0: 8680 0b3d 7ca6 bc3a 00c5 f8b6 34c9 0e3d
000003d0: f483 04bc 508d 42bc 9371 553d b32f c33c
000003e0: 2b95 0e3c c782 113d 89d8 07bc 29dc 06bc
000003f0: 545b b33c 4458 63bc cfd1 b53b f763 05bd
-0.013148989 0.0060325875 -0.018931234 0.022943377 0.02145499 0.018853614 0.036767643 0.004836189
-0.010011565 -0.028473271 -0.009919294 0.032431144 1.6938644e-05 0.009390473 -0.023764016 0.0038432563
-0.039711222 -0.00934937 -0.0019469832 0.038993664 0.055897094 -0.012728689 0.00400815 -0.00013030965
0.018631583 -0.0006211016 0.011175585 0.02507989 0.006134454 0.01945884 0.023900814 -0.017188009
0.029111603 -0.011780394 0.01169522 -0.0504321 -0.0035418852 0.036486443 -0.020735722 0.0252377
0.013370179 -0.009172038 0.020110484 0.011697445 0.004031432 -0.025184885 0.013425408 -0.0017891285
0.004515197 -0.021798303 -0.021963872 0.00044097914 -0.04317711 -0.03278158 -0.025981802 -0.029064765
0.008048845 0.011998912 0.0027849665 0.06150643 0.013372049 0.008515865 0.07311214 -0.010646863
-0.026729641 -0.007388711 -0.033879366 0.0034797012 -0.011086269 -0.007473519 -0.024688615 0.0015670902
-0.003036484 0.0064549944 -0.011638287 0.02052479 0.010062647 0.032608476 -0.03410142 0.015582288
0.060711816 0.008381511 -0.023412667 -0.0014348874 0.015952818 -0.019931208 -0.035265073 0.022122817
0.0044117193 -0.048236087 -0.010887025 0.0023755857 0.013966257 -0.016080892 -0.021821816 0.004881406
-0.040737186 0.0033548162 -0.0032584842 0.038939923 0.018681757 0.010704325 -0.03267567 0.0038875255
0.006289809 -0.034792647 0.039764296 -0.03289153 0.019490996 0.045983143 -0.009180606 -0.038356453
0.06159828 0.030309897 -0.002268546 0.017119853 -0.005282248 -0.015312768 0.057504274 -0.01617898
-0.018659938 0.049767505 -0.054322317 0.015422678 -0.01699429 -0.004466957 -0.0060624257 0.014057636
-0.012093329 0.021745214 0.031936582 0.020015685 0.0045777485 0.00540519 0.007617819 0.019266881
0.012852548 -0.010289706 0.009745466 -0.00039765736 -0.013730059 0.006327355 -0.037693594 -0.044384398
-0.0019814647 0.005306189 0.0114805605 0.015483827 0.02173181 -0.013404334 -0.018214708 0.010953213
-0.01305078 -0.0033657816 0.046474587 -0.001543765 -0.009155189 -0.03978885 0.017579986 0.03428981
0.019587018 -0.009957855 -0.008311444 0.013429558 -0.004258457 0.044487447 0.015602132 -0.029762566
-0.0069800676 -0.040135592 0.0039103944 0.03658124 -0.078375824 0.018540956 -0.028321274 0.028687816
0.021956751 -0.009220757 -0.00038265364 -0.010170316 0.029967315 -0.005037925 0.027587617 -0.0055920943
-0.02095536 0.007446968 0.009123185 -0.03484837 0.0028274842 -0.048323747 0.013740356 0.00011785084
0.015598986 -0.022354914 0.03647592 0.022953903 0.025042228 -0.023940444 -0.011740323 -0.0031851472
-0.056071788 -0.015001161 -0.012832132 0.010964173 0.013506011 -0.0041337265 0.004026877 -0.02151951
0.020720085 0.016946824 -0.004343633 0.026539871 0.0012939204 -0.0073476844 -0.06148807 -0.05700591
0.03956533 -0.033704635 0.0010597989 0.016907273 -0.014851253 -0.0057155164 0.034404635 0.0075903093
-0.053886227 0.034019466 -0.006702892 0.005237084 0.0008887229 -0.042863455 -0.06343094 -0.019136487
-0.0013090563 -0.004788284 -0.020955892 -0.03756627 0.03056206 0.020049851 0.05894136 -0.01102879
0.034058116 0.0014392878 -7.4139098e-06 0.03485985 -0.008088101 -0.011874512 0.052110266 0.023826456
0.008702557 0.03552511 -0.008291372 -0.008231201 0.021894135 -0.013876025 0.005548693 -0.032566037

action_model._continuous_distribution.mu.bias f4 [3]
00000000: 96b8 32bc b70d 3bbb edd0 dbbc
-0.0109082665 -0.002854211 -0.026833022
