CS455_PR1/results/ShootTargetAgent_T2/ShootTargetAgent/ShootTargetAgent-1499981.onnx (onnx, 490788 bytes, 18 tensors)

discrete_act_size_vector f4 [1, 2]
0	0x42480000	50.0
1	0x42480000	50.0

network_body.observation_encoder.processors.0.conv_layers.0.weight f4 [16, 1, 8, 8]
0	0xbd04d965	-0.032433886
1	0x3d1db933	0.038506698
2	0x3d864870	0.06556785
3	0xbd87ce88	-0.066311896
4	0xbe0a50a1	-0.1350732
5	0xbdccb6d7	-0.099958114
6	0x3ba7f691	0.0051258286
7	0xbdb64d42	-0.089014545
8	0x3d2eb903	0.04265691
9	0xbcfe0237	-0.031006915
10	0xbd93752f	-0.07200085
11	0xbd63d700	-0.05562496
12	0xbe6a3b4f	-0.22874187
13	0xbcdbcf9f	-0.0268324
14	0xbe167a2a	-0.1469504
15	0x3dd8648d	0.105660535
16	0xbe813d76	-0.25242203
17	0xbd39d346	-0.0453675
18	0x3d473495	0.04863413
19	0x3df8fdc1	0.12157775
20	0xbc4ebd03	-0.012618306
21	0xbdcc1fb2	-0.09966983
22	0x3d81675e	0.06318544
23	0x3ddd173f	0.107954495
24	0xbbd8629f	-0.0066035534
25	0xbe37e81b	-0.17959635
26	0xbda98c4c	-0.08278713
27	0x3dd8252c	0.10553965
28	0xbdb48c6f	-0.08815848
29	0x3d1e6cc5	0.03867795
30	0x3dbe3269	0.09286959
31	0x3d0ac642	0.03388048
32	0xbd18048c	-0.03711371
33	0xbe1e3cda	-0.154529
34	0x3e4a5563	0.19759135
35	0x3d690d6a	0.05689756
36	0xbe289865	-0.16464384
37	0xbe0c6b70	-0.13712859
38	0x3d5fdfeb	0.054656904
39	0xbcfc3d96	-0.030791085
40	0xbd2fda3a	-0.042932726
41	0xbd83402d	-0.06408725
42	0x3dbd18a3	0.09233215
43	0xbda1a326	-0.07892446
44	0xbe21cd7d	-0.15801044
45	0xbdf00cf0	-0.11721218
46	0xbe62cc1a	-0.22148171
47	0xbc7a892d	-0.015291494
48	0x3cb05209	0.021523492
49	0x3d2aab7f	0.041667458
50	0x3dafdc3e	0.0858693
51	0x3d975a2b	0.07390245
52	0xbd133867	-0.03594246
53	0xbb8079a5	-0.003920751
54	0xbe7c99ee	-0.24668095
55	0xbe325f6f	-0.17419218
56	0xbd213549	-0.039357457
57	0xb9ceffc4	-0.00039481942
58	0x3e3c2a3e	0.18375489
59	0xbd77eda7	-0.060529377
60	0x3df7a8d2	0.12092747
61	0x3e109eea	0.14123121
62	0x3db43b22	0.08800341
63	0xbdac7447	-0.08420616
64	0x3d74afab	0.059737843
65	0xbdb69060	-0.08914256
66	0xbdda765e	-0.10667108
67	0xbe20d118	-0.15704763
68	0xbe06780f	-0.13131736
69	0xbd388a1f	-0.045053598
70	0x3e12fe72	0.14354876
71	0x3d6857aa	0.056724228
72	0x3d9f9c61	0.07793499
73	0xbdc73e9f	-0.09728741
74	0xbd0f7001	-0.035018925
75	0xbcded86d	-0.02720281
76	0xbd7025ad	-0.05862968
77	0x3def71f0	0.11691654
78	0x3dd98974	0.1062192
79	0x3cf2add6	0.029623907
80	0xbe0dd3eb	-0.13850372
81	0x3d8b0c4c	0.06789455
82	0xbd65480a	-0.055976905
83	0xbd3ffee5	-0.046873946
84	0xbd3f1b15	-0.046656687
85	0xbdb2c666	-0.08729248
86	0x3cc7e3ec	0.024400674
87	0xbe053ee0	-0.13012266
88	0xbdffdf55	-0.12493769
89	0xbd3e4787	-0.046454933
90	0xbdc9fab5	-0.09862272
91	0xbe804c96	-0.2505843
92	0xbe6622f4	-0.22474271
93	0xbe3bfb7d	-0.18357654
94	0xbde486b0	-0.11158502
95	0xbddee740	-0.10883951
96	0xbda59af6	-0.08086197
97	0xbdb86164	-0.09002951
98	0xbdc75912	-0.09733786
99	0xbe6b1ee6	-0.22961006
100	0xbe735896	-0.23764262
101	0xbc7bcd3a	-0.015368754
102	0x3e2473ba	0.16059771
103	0xbe37551b	-0.17903559
104	0x3b98a579	0.0046583978
105	0x3d76195a	0.06008277
106	0xbdcdae04	-0.100429565
107	0xbe7fee01	-0.24993135
108	0xbe012f8b	-0.12615792
109	0xbd7831ba	-0.060594298
110	0xbb0b1888	-0.0021224339
111	0xbd79ffbe	-0.06103491
112	0x3dbdd232	0.09268607
113	0x3da98fa7	0.08279353
114	0x3de098b6	0.10966627
115	0xbe432a7b	-0.19059174
116	0xbe3724d2	-0.1788514
117	0x3d14e9b0	0.036355674
118	0xbe1fdb8b	-0.15611093
119	0x3dd933b8	0.10605568
120	0x3e298f6d	0.16558619
121	0x3d9d9f94	0.07696453
122	0x3e12d244	0.14338022
123	0xbe1fc41b	-0.15602152
124	0xbe87307f	-0.26404187
125	0xbe597c22	-0.21238759
126	0x3dd3cd98	0.10341948
127	0x3ccd736c	0.025079452
128	0x3e5d403e	0.21606538
129	0xbdd42de1	-0.10360313
130	0x3d575755	0.05257352
131	0x3e1c36ca	0.15255275
132	0xbafb99c1	-0.0019195603
133	0x3d2489f5	0.04017063
134	0xbd50327d	-0.0508294
135	0xbc459771	-0.012060032
136	0x3e0958a4	0.1341272
137	0x3e100189	0.14063086
138	0xbd0cc709	-0.034369502
139	0x3e4d6448	0.20057786
140	0x3e2402aa	0.16016641
141	0x3d9806eb	0.074231945
142	0xbc404268	-0.0117345825
143	0xbca9332d	-0.020654285
144	0x3e463307	0.19355403
145	0x3d92d6a5	0.071698464
146	0x3d0e4140	0.034730196
147	0x3d86bc13	0.06578841
148	0x3e9ca835	0.30597082
149	0x3e739a3b	0.23789303
150	0x3dd2ff32	0.10302581
151	0xbd93bcdf	-0.07213759
152	0x3e2726c2	0.16323379
153	0x3d8e0244	0.06934026
154	0x3e62ea11	0.22159602
155	0x3dd789d7	0.10524338
156	0x3dca32c4	0.09872964
157	0x3caf4228	0.02139385
158	0x3ddc1526	0.10746221
159	0xbd314ccd	-0.043286134
160	0x3e88914f	0.26673362
161	0x3d168a1e	0.036752813
162	0x3dab0ce4	0.08352068
163	0x3dd9d05f	0.10635447
164	0x3e5011d8	0.20319307
165	0x3d642eb1	0.05570859
166	0xbe039f39	-0.12853707
167	0x3e1f558c	0.15559977
168	0x3d39e598	0.045384973
169	0xbcebd77f	-0.02878928
170	0x3e628447	0.22120772
171	0x3bc4a965	0.0060016387
172	0x3d38cbc3	0.045116197
173	0xbd8c9641	-0.06864596
174	0xbd73785f	-0.059440967
175	0x3d730e11	0.059339587
176	0x3d373ac5	0.04473378
177	0xbd87f697	-0.0663883
178	0x3d05477d	0.03253888
179	0x3d7c98ca	0.06166915
180	0xbcdda36c	-0.027055465
181	0xbc2a7646	-0.010404175
182	0x3d97c595	0.07410733
183	0xbe0fed0e	-0.14055273
184	0xbdac9484	-0.084267646
185	0xbd20be6e	-0.039244108
186	0x3d1fa27d	0.03897332
187	0xbd27c2d2	-0.04095728
188	0xbdb54165	-0.08850364
189	0xbdbd5369	-0.09244425
190	0xbc4df53a	-0.012570674
191	0x3cd1acd3	0.025595104
192	0xbd2ce96e	-0.042214803
193	0xbd8f1396	-0.069861576
194	0x3daea1af	0.085269324
195	0x3cedb640	0.029017568
196	0x3d95a42d	0.07306705
197	0xbd3022eb	-0.04300205
198	0xbe0ef906	-0.13962182
199	0x3e13e634	0.14443284
200	0xbe5278e8	-0.20553935
201	0xbdfb3800	-0.122665405
202	0xbd71e34f	-0.05905467
203	0x3b8f9402	0.0043816576
204	0xbd2b6592	-0.041844912
205	0x3c58b506	0.013226753
206	0x3dd6ef27	0.104948334
207	0xbbc6e742	-0.0060700485
208	0xbe37bbf0	-0.17942786
209	0xbe3f6f55	-0.18694814
210	0x3dc87e8c	0.09789762
211	0x3b26fd9e	0.0025480757
212	0xbdc1c0b1	-0.09460581
213	0xbe7e1bc4	-0.24815279
214	0xbe85842c	-0.26077402
215	0xbe7e99d6	-0.24863371
216	0xbe917968	-0.28412938
217	0xbe40f97c	-0.1884517
218	0xbe0d7376	-0.13813576
219	0xbd914191	-0.07092584
220	0x3d43d650	0.047811806
221	0xbd669d69	-0.05630246
222	0x3c3a4c0b	0.011370669
223	0xbdc32791	-0.09529031
224	0xbe43febe	-0.19140145
225	0xbe2317a0	-0.15926981
226	0xbcb13a31	-0.021634193
227	0xbe1ceb62	-0.15324166
228	0xbdc2b981	-0.09508038
229	0xbd5e845a	-0.05432544
230	0xbe14e52e	-0.1454055
231	0xbe1e5acb	-0.15464322
232	0x3d8d70c2	0.069062725
233	0x3d72a1c9	0.05923632
234	0x3d1e5dc4	0.03866364
235	0x3da81242	0.082066074
236	0xbdb51c2f	-0.08843266
237	0xbd096cfe	-0.03355121
238	0xbe782db8	-0.2423619
239	0x3db460b3	0.088075064
240	0x3e2b52a9	0.16730751
241	0x3d06e2f7	0.032931294
242	0x3db2f6de	0.087384924
243	0x3d8cfc61	0.06884075
244	0xbda517e5	-0.08061198
245	0xbe146286	-0.14490709
246	0xbe03afa4	-0.1285997
247	0x3e05b7f8	0.1305846
248	0x3da5788c	0.08079633
249	0xbdaa6347	-0.08319717
250	0x3df8867c	0.12135026
251	0x3da26f90	0.07931435
252	0x3cd723db	0.026262214
253	0xbe83b7a7	-0.25726053
254	0xbe243912	-0.16037396
255	0xbd75689c	-0.059914216

network_body.observation_encoder.processors.0.conv_layers.0.bias f4 [16]
0	0xbd3b1630	-0.045675457
1	0xbe218b78	-0.1577586
2	0xbcc64625	-0.02420337
3	0xbd542012	-0.051788397
4	0xbddcc3bd	-0.107795216
5	0xbd8622f3	-0.06549635
6	0xbdd9d2c4	-0.106359035
7	0x3ce97ced	0.028501952
8	0xbda9ac75	-0.08284847
9	0xbdee5589	-0.11637408
10	0xbdb978dd	-0.09056256
11	0xbd4ff7df	-0.050773498
12	0xbd791a30	-0.06081599
13	0xbda10310	-0.07861912
14	0xbe0cc195	-0.1374572
15	0xbdeb52dd	-0.11490414

network_body.observation_encoder.processors.0.conv_layers.2.weight f4 [32, 16, 4, 4]
0	0x3c0a87b0	0.008455202
1	0xbe0a6cc3	-0.13518052
2	0x3ca468c9	0.020069497
3	0x3dc13e22	0.09435679
4	0x3dc5c399	0.09656448
5	0xbdad1494	-0.084511906
6	0x3db4018f	0.0878936
7	0x3e295f8b	0.16540353
8	0x3c842542	0.016131047
9	0x3d416000	0.047210693
10	0x3d5d34d3	0.054005455
11	0x3e230de2	0.15923265
12	0x3d92ca6f	0.071675174
13	0xbce4acbb	-0.027914396
14	0x3c980960	0.018559158
15	0x3e150f05	0.14556511
16	0x3d0e0b01	0.034678463
17	0xbd8a3237	-0.06747859
18	0x3d1e9bdb	0.038722854
19	0x3dbc6a97	0.09200018
20	0x3d2408f4	0.0400476
21	0x3dae94b2	0.08524455
22	0x3ce8808e	0.028381612
23	0xbe024a44	-0.12723643
24	0xbd240d18	-0.04005155
25	0x3da1e8cc	0.079057306
26	0x3db61b00	0.088918686
27	0xbcce965e	-0.025218185
28	0x3cf5a0e1	0.02998394
29	0x3d467443	0.04845072
30	0xbc16de84	-0.009208325
31	0x3dcd36c6	0.10020213
32	0xbe01a5b0	-0.12660861
33	0xbd9b8b42	-0.07594921
34	0xbe2c7e83	-0.16845135
35	0xbd3a65a0	-0.045507073
36	0x3bcb806b	0.006210377
37	0xbe0c73d3	-0.13716058
38	0xbba47847	-0.005019221
39	0xbdd83bf5	-0.10558311
40	0xbd3ca77c	-0.046058163
41	0xbdf8a2d8	-0.12140435
42	0xbd71caba	-0.059031226
43	0xbdda073a	-0.106459096
44	0x3d3a06a6	0.045416497
45	0x3e0097e0	0.12557936
46	0xbb407f78	-0.0029372852
47	0xbe14bdb1	-0.14525487
48	0xbe2bbe08	-0.1677171
49	0x3d10c1e0	0.035341144
50	0xbd2aec76	-0.041729413
51	0x3d304a07	0.043039348
52	0xbe5c0434	-0.21485978
53	0xbdcf2c08	-0.1011582
54	0xbd1c980b	-0.038230937
55	0xbd8b453f	-0.06800317
56	0xbb985ba6	-0.004649597
57	0x3e3918f4	0.18075925
58	0x3e171c69	0.14756931
59	0xbdd5bd3a	-0.10436483
60	0x3d304737	0.043036666
61	0x3b3f30dd	0.0029173412
62	0x3da073be	0.07834576
63	0xbc4cb071	-0.012493239
64	0xbdb6fa95	-0.089345135
65	0x3caf5e27	0.0214072
66	0xbde32b07	-0.11092191
67	0xbd7a6e1b	-0.06114016
68	0x3c881416	0.01661114
69	0xbd788253	-0.06067116
70	0xbd182489	-0.037144218
71	0xbe705701	-0.2347069
72	0x3cac2276	0.021012526
73	0xbc5b88f7	-0.013399354
74	0x3c259a7e	0.010107635
75	0xbd725b9d	-0.0591694
76	0x3d86ac42	0.06575824
77	0xbd1061bf	-0.035249468
78	0x3c992454	0.01869408
79	0x3d5e008d	0.054199744
80	0xbe583911	-0.21115519
81	0xbd908596	-0.070567295
82	0x3e175408	0.14778149
83	0xbe441965	-0.19150312
84	0xbe175bda	-0.14781132
85	0xbdcf4358	-0.10120267
86	0xbdb1eb54	-0.086874634
87	0xbe402a47	-0.18766128
88	0x3da64cf4	0.081201464
89	0xbcac7ad3	-0.02105466
90	0x3e18cbc4	0.1492148
91	0xbe4f509e	-0.20245597
92	0xbdbf3621	-0.09336496
93	0xbe1b87e3	-0.15188555
94	0x3dff7a74	0.12474528
95	0xbdc23d6c	-0.094843715
96	0x3e1f027f	0.15528296
97	0x3d5d7fe6	0.05407705
98	0x3d46aea9	0.048506413
99	0x3c2c5085	0.010517244
100	0x3e109469	0.14119114
101	0x3c3854b0	0.01125066
102	0xbd2b9aa4	-0.041895524
103	0xbe04b033	-0.1295784
104	0x3e1e8ce6	0.15483436
105	0x3e5dae1b	0.21648447
106	0xbcbe5719	-0.02323489
107	0x3ca38613	0.019961393
108	0xbd84d281	-0.06485463
109	0x3c8177cf	0.0158042
110	0x3df07145	0.117403544
111	0x3dc6845c	0.09693214
112	0xbe039dcd	-0.12853165
113	0xbdd7f1a7	-0.105441384
114	0xbe25691f	-0.16153382
115	0xbe2fb1a6	-0.17157611
116	0xbde3fe53	-0.11132493
117	0xbe2921a7	-0.16516744
118	0xbbb264c4	-0.005444141
119	0xbdf4b507	-0.11948591
120	0xbe22b91f	-0.1589093
121	0xbe0d1d6b	-0.13780753
122	0xbdf46381	-0.11933041
123	0xbdcf65ab	-0.101268135
124	0x3cb28c07	0.021795286
125	0x3cbaa55a	0.022783924
126	0xbd34bb02	-0.044123657
127	0xbd882d6f	-0.06649291
128	0x3ce88087	0.0283816
129	0x3c98fa54	0.018674053
130	0x3cc0c1e1	0.023529949
131	0x3db01a14	0.08598724
132	0x3ccf7f1f	0.02532917
133	0x3dfa41e4	0.12219599
134	0x3dcb51e7	0.09927731
135	0x3db22ead	0.08700309
136	0xbc84c713	-0.016208207
137	0x3d62f5b4	0.055410102
138	0x3cf73cc7	0.030180348
139	0xbe002f6a	-0.12518087
140	0x3d37409b	0.044739347
141	0xbc5e2894	-0.013559479
142	0xbca070ae	-0.01958498
143	0x3dffb057	0.12484806
144	0x3db5bc6f	0.088738315
145	0x3db488af	0.08815133
146	0x3d714e1d	0.058912385
147	0xbc6a878f	-0.014314546
148	0x3cbf9c49	0.023389952
149	0xbbf9ae8f	-0.007619686
150	0xbc745f63	-0.01491532
151	0x3c2cb278	0.010540597
152	0x3e03468e	0.12819883
153	0x3c99f083	0.018791443
154	0x3dd95ce0	0.106134176
155	0x3d4b2a35	0.0496008
156	0xbdfe4289	-0.12415034
157	0xbdd951ea	-0.10611327
158	0xbdfbd274	-0.12296
159	0x3ddb33dc	0.10703251
160	0x3deecb32	0.1165985
161	0x3d839aef	0.064260356
162	0x3e433b84	0.19065672
163	0x3e6c42e9	0.23072399
164	0x3d598c43	0.05311228
165	0x3db122ae	0.08649193
166	0x3e5fd22f	0.21857522
167	0x3e87dc91	0.26535466
168	0x3e264da7	0.1624056
169	0x3cbf04e1	0.023317756
170	0x3c9c71ad	0.019097174
171	0x3e37d0ab	0.17950694
172	0x3ddb871b	0.10719129
173	0x3d5c1ed7	0.05374035
174	0x3dce0d21	0.10061098
175	0x3e04e22e	0.12976906
176	0x3e200777	0.15627848
177	0x3d9c6be0	0.07637763
178	0xbd35d52b	-0.044392746
179	0xbcd58534	-0.026064493
180	0x3e27a9a8	0.16373312
181	0x3db2dcb8	0.08733505
182	0x3dd8b3fe	0.10581206
183	0xbdfe1fd8	-0.124084175
184	0xbd7e7651	-0.062124554
185	0x3e08b32d	0.133496
186	0x3c999976	0.018749934
187	0xbd1b5dbc	-0.03793119
188	0xbd3dedfe	-0.046369545
189	0x3e15c309	0.14625181
190	0xbcfa2553	-0.030535376
191	0x3dd37ee3	0.10326936
192	0x3e55a3ca	0.20863262
193	0x3dc3804e	0.095459566
194	0x3cfe5b04	0.031049259
195	0xbcd99d1d	-0.026564175
196	0x3cd8c0c3	0.026459103
197	0x3e1405c8	0.1445533
198	0x3ddff1dc	0.10934803
199	0x3df0d758	0.117598236
200	0x3dafdae2	0.085866705
201	0x3d10dc38	0.035366267
202	0x3e3e7150	0.18597913
203	0x3e4d9f70	0.20080352
204	0xbe114fc2	-0.14190581
205	0x3cfad633	0.030619716
206	0x3dfe401d	0.124145724
207	0x3e37bde8	0.17943537
208	0xbd1bc311	-0.038027827
209	0xbcc7db28	-0.024396494
210	0x3dc6755e	0.09690355
211	0x3e12b2ea	0.14326063
212	0xbdeb0b8c	-0.11476812
213	0xbcd9832d	-0.026551807
214	0x3e9abe4f	0.3022332
215	0x3e379eb2	0.17931631
216	0x3d89f157	0.06735485
217	0x3ba58536	0.0050512804
218	0x3dc84d99	0.097804256
219	0x3d161fe3	0.036651503
220	0x3d35c246	0.044374727
221	0x3c9ed7f3	0.019390082
222	0x3d22410b	0.03961281
223	0xbda11563	-0.07865407
224	0x3d13756f	0.036000665
225	0x3d913ebe	0.07092045
226	0xbd85735b	-0.06516143
227	0xbd1ce484	-0.038303867
228	0x3b9e7a8c	0.004836386
229	0x3c9ff06b	0.01952382
230	0x3d933da0	0.071894884
231	0xbd8f7c55	-0.07006136
232	0x3d19d771	0.037558977
233	0x3d1e419e	0.038636796
234	0x3b673bbb	0.0035283405
235	0x3d5bfe1a	0.053709127
236	0xbd2604a3	-0.040531766
237	0xbcbde696	-0.023181241
238	0x3ae50992	0.0017474166
239	0xbd818cf9	-0.063257165
240	0xbcece06c	-0.028915606
241	0x3d373b22	0.044734128
242	0x3b2a50d3	0.0025988116
243	0x3ba35b9f	0.0049852873
244	0x3d66f728	0.05638805
245	0x3d928828	0.07154876
246	0x3d4e9b4a	0.050441064
247	0xbda73cc7	-0.08165889
248	0xbcea5c59	-0.028608488
249	0x3d34eda9	0.044171963
250	0x3d9b1464	0.075722486
251	0x3d458963	0.048226725
252	0x3d8af6d4	0.0678536
253	0x3db052ad	0.08609519
254	0x3e58f649	0.211877
255	0x3c0c4b1b	0.008562828

network_body.observation_encoder.processors.0.conv_layers.2.bias f4 [32]
0	0xbe210198	-0.15723264
1	0xbc4cad8e	-0.012492551
2	0xbce80dce	-0.028326895
3	0xbe076654	-0.13222629
4	0xbe3bc7b0	-0.18337893
5	0xbda17c89	-0.07885081
6	0xbc4ed767	-0.012624598
7	0xbdd31629	-0.10306961
8	0xbd74aefc	-0.05973719
9	0xbd8c17cb	-0.06840476
10	0xbe1fdc69	-0.15611424
11	0xbd9b3f7e	-0.075804695
12	0xbd005551	-0.031331364
13	0xbd0193c8	-0.031635076
14	0xbd3bc9e3	-0.04584683
15	0xbce0b745	-0.02743114
16	0xbdb69c53	-0.08916535
17	0xbe08cd20	-0.13359499
18	0xbe227326	-0.15864238
19	0xbdad4bd2	-0.08461727
20	0xbe124a4a	-0.14286152
21	0xbe1f83fa	-0.15577689
22	0xbc3a4a9f	-0.01137033
23	0xbe0ecffb	-0.13946526
24	0xbd91e191	-0.071231015
25	0xbe2a3770	-0.1662271
26	0x3c840db1	0.01611981
27	0xbc77bed9	-0.015121185
28	0xbd49cd20	-0.049267888
29	0xbdc2b078	-0.09506315
30	0x3cea9cd5	0.028639236
31	0xbc25be70	-0.010116205

network_body.observation_encoder.processors.0.dense.0.weight f4 [128, 512]
0	0x3e3776ea	0.17916456
1	0xbd877d79	-0.06615729
2	0xbe1e597d	-0.15463825
3	0x3dff7880	0.124741554
4	0xbcfeca7f	-0.031102417
5	0xbdc17c55	-0.094475426
6	0xbddd35b0	-0.10801256
7	0x3d764054	0.06011994
8	0xbdd85caf	-0.10564553
9	0xbd4ade48	-0.04952839
10	0xbd6a671a	-0.05722723
11	0x3d4c03a3	0.049808156
12	0x3e249be9	0.160751
13	0xbd01156c	-0.03151457
14	0x3e084d92	0.1331084
15	0x3a148a63	0.0005666373
16	0xbdea24a1	-0.11432768
17	0xbe0b376c	-0.1359536
18	0x3d97f498	0.074196994
19	0x3ba8f498	0.005156111
20	0xbe2b79a7	-0.16745625
21	0x3d1f2c2d	0.03886049
22	0xbd9e0229	-0.07715256
23	0x3d874de4	0.06606653
24	0x3d1cde24	0.038297787
25	0x3e4f740c	0.20259112
26	0xbc91fd0c	-0.017820857
27	0x3c898a9a	0.016789723
28	0x3dfaa516	0.12238519
29	0x3e7862ca	0.24256435
30	0xbc86c070	-0.016449183
31	0x3e0067ad	0.12539549
32	0xbe143a39	-0.14475335
33	0xbe817f1c	-0.2529229
34	0xbe17aabb	-0.14811222
35	0xbcc79c00	-0.024366379
36	0xbe14aff3	-0.14520244
37	0xbe07f147	-0.13275634
38	0xbe616da8	-0.22014487
39	0x3de009f0	0.109393954
40	0x3d2664c8	0.040623456
41	0x3da9aa9e	0.08284496
42	0xbe325c91	-0.17418124
43	0x3db44c33	0.08803596
44	0x3da81c81	0.08208562
45	0x3d538a5a	0.051645614
46	0x3e2ad941	0.16684438
47	0xbe010ed8	-0.12603319
48	0xbdb906aa	-0.09034474
49	0xbe45f22f	-0.19330667
50	0x3b816b54	0.003949562
51	0x3e20e01c	0.15710491
52	0xbdcf2e4c	-0.10116252
53	0xbe04d9e8	-0.1297375
54	0xbe87ad66	-0.2649948
55	0xbd4b89b3	-0.049691867
56	0x3d43bed5	0.047789413
57	0xbd92e821	-0.07173181
58	0xbc2be5c2	-0.01049179
59	0x3dcf8572	0.101328745
60	0x3e8df235	0.27723852
61	0x3e0829fb	0.13297264
62	0xbd064cea	-0.032788195
63	0x3d780845	0.06055476
64	0x3d1c719b	0.03819428
65	0x3d6dd3bd	0.058063257
66	0x3d805617	0.0626642
67	0x3d25e8a3	0.040505063
68	0xbdd00684	-0.10157493
69	0x3d71b2ba	0.059008338
70	0xbd159814	-0.036521986
71	0x3cc47224	0.023980208
72	0x3e001c75	0.12510855
73	0x3e20171d	0.15633817
74	0xbdf781ea	-0.12085326
75	0xbd54f432	-0.051990695
76	0xbe3b7697	-0.18306957
77	0x3e473ce8	0.19456828
78	0x3da738c3	0.08165123
79	0xbcd8731f	-0.026422082
80	0xbdc8aac6	-0.097981974
81	0x3d8c85a0	0.068614244
82	0x3e135a68	0.14389956
83	0xbcb4c929	-0.022068577
84	0xbe9934c2	-0.29923064
85	0xbe029d0d	-0.12755223
86	0xbda5b13e	-0.08090447
87	0xbd2e2d87	-0.042523887
88	0xbc67321d	-0.014111069
89	0x3d51c24a	0.05121068
90	0xbe9d0d62	-0.30674273
91	0x3e61ac8b	0.22038476
92	0x3cf52464	0.029924579
93	0x3e90a6a9	0.28252152
94	0xbd8357e5	-0.06413249
95	0xbe21eba8	-0.15812552
96	0xbdfa44b0	-0.12220132
97	0xbe150071	-0.1455095
98	0xbe250e28	-0.16118681
99	0xbcf8bd5e	-0.030363735
100	0xbcba0d77	-0.022711499
101	0x3dd89948	0.10576111
102	0xbd514718	-0.05109319
103	0x3d7184c5	0.05896451
104	0x3e00c809	0.12576307
105	0xbdbad5b6	-0.091227934
106	0xbcd02927	-0.025410248
107	0xbdc8669f	-0.097851984
108	0xbd47f912	-0.048821516
109	0x3cdc90ff	0.026924608
110	0xbe8fecfa	-0.28110486
111	0xbe3b0a1f	-0.1826558
112	0x3d02254e	0.031773858
113	0xbd5addfc	-0.053434357
114	0x3d685089	0.05671743
115	0x3d96f39e	0.07370685
116	0xbcd12ea2	-0.025534932
117	0xbe12c47a	-0.14332762
118	0xbe065a4c	-0.13120383
119	0x3e1811d3	0.1485055
120	0x3df04c3b	0.1173329
121	0xbd99e759	-0.07514829
122	0xbe0fc320	-0.14039278
123	0x3dbe8628	0.09302932
124	0x3e563939	0.20920266
125	0xbdd4b6e6	-0.103864476
126	0xbdc0061f	-0.093761675
127	0xb9731722	-0.00023182904
128	0xbde099fd	-0.10966871
129	0xbe4dc2fc	-0.20093912
130	0xbc41cd6d	-0.0118287625
131	0x3ddac3f6	0.10681908
132	0xbe8c3341	-0.27382854
133	0xbdfa16eb	-0.122114025
134	0xbd427e37	-0.04748365
135	0x3e010a0c	0.12601489
136	0xbd7a4ee7	-0.061110403
137	0xbbc87f69	-0.006118704
138	0xbd0f6893	-0.03501184
139	0x3c705792	0.014669316
140	0xbcfcb213	-0.030846631
141	0x3e367285	0.17817123
142	0xbe06df70	-0.13171172
143	0x3d3257ef	0.04354089
144	0x3e833779	0.2562826
145	0xbcd228be	-0.025654193
146	0xbdf1d922	-0.11808993
147	0x3aea6391	0.0017882456
148	0x3de6e149	0.112734385
149	0x3d93af5c	0.072111815
150	0xbcb9c06b	-0.02267476
151	0xbd8a6584	-0.06757644
152	0x3db6e5b9	0.08930535
153	0x3d12b358	0.035815567
154	0x3c3c0869	0.0114766145
155	0x3b663937	0.0035129318
156	0x3cb53d8e	0.022124078
157	0x3c436c21	0.011927635
158	0x3d137612	0.036001272
159	0x3e72090a	0.2363626
160	0x3e240b9d	0.16020055
161	0xbe4235e3	-0.18965869
162	0xbd101e6b	-0.03518526
163	0x3c3f9f11	0.011695639
164	0x3d0df59b	0.034658056
165	0xbdb67060	-0.089081526
166	0x3aebb506	0.0017983026
167	0x3cb58581	0.022158386
168	0x3e100818	0.14065588
169	0x3ca5c6d2	0.020236406
170	0xbe20f4dc	-0.15718406
171	0xbe37d45c	-0.17952102
172	0x3e0ac418	0.13551366
173	0x3d4a8731	0.049445335
174	0xbd3a7d18	-0.045529455
175	0xbb0d5146	-0.0021563335
176	0xbc08e0eb	-0.008354406
177	0xbd59f63a	-0.053213336
178	0xbcba2d46	-0.022726666
179	0x3d9e7a2c	0.07738146
180	0xbe068e4e	-0.13140222
181	0x3ddc19d9	0.107471175
182	0xbe23cf11	-0.15996958
183	0xbd2d9c39	-0.042385314
184	0x3d83e330	0.06439817
185	0xbd497113	-0.0491801
186	0x3bbe39f9	0.0058052507
187	0xbdb8637f	-0.090033524
188	0x3dd7139d	0.10501788
189	0x3e51846c	0.20460671
190	0x3e6486e6	0.22317085
191	0x3e15198a	0.14560524
192	0xbcdf68b7	-0.027271612
193	0xbbf03ba2	-0.0073313275
194	0xbe1e9ec2	-0.15490249
195	0x3d92c4be	0.07166432
196	0x3cf93101	0.030418875
197	0xbd0a4031	-0.033752624
198	0xbdb7dfec	-0.089782566
199	0x3d512b60	0.051066756
200	0x3de9a8b8	0.11409134
201	0xbaa3100d	-0.0012440697
202	0xbe63b533	-0.22237091
203	0xbcb918e5	-0.022594878
204	0xbd44567d	-0.047934044
205	0x3e0aa6b2	0.13540152
206	0xbecada5b	-0.39619717
207	0xbe140f95	-0.14459069
208	0xbe60ff79	-0.21972455
209	0x3bf32488	0.0074201263
210	0xbe14ea58	-0.1454252
211	0x3cb9936b	0.022653302
212	0xbe6a78e5	-0.2289768
213	0xbd9ca727	-0.07649069
214	0xbe8c5eb3	-0.27416
215	0x3e152879	0.1456622
216	0x3e221a77	0.15830408
217	0x3d8f260d	0.069896795
218	0xbe7774f7	-0.24165712
219	0x3cf4f16f	0.02990028
220	0x3d8d1ea3	0.06890609
221	0x3dc56102	0.096376434
222	0xbdcc7fe9	-0.099853344
223	0x3e44d806	0.19223031
224	0x3e0e0ddc	0.13872474
225	0x3e647c66	0.22313079
226	0x3dd07747	0.10179
227	0x3dc5d117	0.09659021
228	0xbb056aea	-0.0020357915
229	0xbd4a37eb	-0.049369734
230	0xbe25dcf8	-0.16197574
231	0xbdbba090	-0.09161484
232	0x3daa9480	0.083291054
233	0xbd8e925e	-0.06961511
234	0xbddb7f21	-0.10717607
235	0x3dd66179	0.1046781
236	0x3d5bec1c	0.05369197
237	0x3d948604	0.07252124
238	0x3ccc5eb5	0.024947504
239	0x3e5e61e4	0.2171703
240	0xbcc0f854	-0.023555912
241	0xbe1f4166	-0.15552291
242	0xbe201ac1	-0.15635206
243	0x3d095aac	0.033533737
244	0xbd63b009	-0.055587802
245	0xbe51e380	-0.2049694
246	0xbd7e58cb	-0.0620964
247	0x3db31e2b	0.087459885
248	0xbd860128	-0.06543189
249	0xbd965d7f	-0.07342052
250	0xbed90863	-0.4238921
251	0x3e02d62e	0.12777016
252	0xbc8db34e	-0.017297413
253	0xbe6809e2	-0.2266002
254	0xbe085a34	-0.1331566
255	0xbcc6de08	-0.024275795

network_body.observation_encoder.processors.0.dense.0.bias f4 [128]
0	0xbc834864	-0.01602573
1	0xbd7c810e	-0.061646514
2	0x3de3feb1	0.11132563
3	0x3e5e556d	0.21712275
4	0xbe578b40	-0.21049213
5	0x3d34b304	0.044116035
6	0xbe034a88	-0.128214
7	0xbccf3d60	-0.02529782
8	0x3bc4f31e	0.006010427
9	0x3d530318	0.051516622
10	0x3d87e06f	0.06634604
11	0xbd51ef22	-0.051253445
12	0x3df8064a	0.121105745
13	0xbc83f773	-0.016109204
14	0xbc0a665b	-0.008447255
15	0xbd2b7c71	-0.041866723
16	0x3ce1cd13	0.027563607
17	0x3dbe4183	0.09289839
18	0xbcde684a	-0.027149338
19	0x3c889c96	0.016676228
20	0x3d2784c1	0.04089809
21	0x3dfba585	0.1228743
22	0x3cb7358c	0.0223644
23	0x3e108dac	0.14116544
24	0xbcff1a43	-0.031140452
25	0xbda640b2	-0.081178084
26	0xbda71ee3	-0.08160188
27	0xbe1155ad	-0.14192839
28	0x3cd05d09	0.025434988
29	0x3e70a018	0.23498571
30	0xbe01ebcd	-0.12687607
31	0xbe15aa48	-0.14615738
32	0xbd5ba8e3	-0.05362786
33	0x3e821c94	0.25412428
34	0xbc099270	-0.00839673
35	0xbdb60267	-0.08887177
36	0x3db34b1a	0.08754559
37	0xbd7e6949	-0.062112126
38	0x3cb7c661	0.022433462
39	0xbc6de5f8	-0.014520161
40	0xbd8e0ac7	-0.06935649
41	0x3e28a3cf	0.16468738
42	0x3d79c8c5	0.060982484
43	0x3e6bad9a	0.23015442
44	0xbd2958d5	-0.041344482
45	0xbc555768	-0.013021328
46	0x3d3b5a21	0.04574025
47	0x3e64d401	0.22346498
48	0xbd58d5be	-0.052938215
49	0xbd969354	-0.07352319
50	0xbc1c154f	-0.009526565
51	0x3e4e7262	0.20160821
52	0xbd1cafc0	-0.038253546
53	0xbc415f6a	-0.011802534
54	0x3e216110	0.15759683
55	0xbe543398	-0.20722806
56	0x3df2b18c	0.11850271
57	0x3ddd0884	0.1079264
58	0xbd4d8d88	-0.050183803
59	0xbc505db7	-0.012717656
60	0xbdac754f	-0.08420812
61	0xbddf6c5f	-0.10909342
62	0x3dd86349	0.10565812
63	0x3e2e4e04	0.17021948
64	0x3d07c3b0	0.033145607
65	0xbdcb629b	-0.09930917
66	0x3e27991b	0.16366999
67	0x3e6d08e6	0.23147926
68	0xbd0951ac	-0.033525154
69	0xbe0aa57a	-0.13539687
70	0xbd8d057a	-0.0688581
71	0xbe122ffc	-0.14276117
72	0x3cbe79bb	0.023251405
73	0x3d9698ac	0.073533386
74	0x3defa5b5	0.11701528
75	0xbe33f161	-0.17572547
76	0x3d1bba2b	0.03801934
77	0x3e6a0796	0.22854456
78	0xbd5b62cc	-0.053561017
79	0x3e18cedd	0.14922662
80	0x3d6e080e	0.05811315
81	0xbddb5244	-0.1070905
82	0x3b024c2b	0.0019881825
83	0xbc697557	-0.014249167
84	0xbd8ff374	-0.07028857
85	0x3d279efd	0.040923107
86	0xbd63a2eb	-0.055575293
87	0x3e63bfe5	0.2224117
88	0xbdfd5068	-0.12368852
89	0x3e137906	0.14401636
90	0xbd5878fd	-0.05284976
91	0x3c952125	0.018204281
92	0xbcd0f4e0	-0.02550739
93	0x3ccf0508	0.025270954
94	0x3dab617d	0.08368204
95	0x3cf5a12e	0.029984083
96	0xbc3d5809	-0.011556634
97	0xbd9c5375	-0.07633106
98	0xbe0b1a72	-0.13584307
99	0x3de3040f	0.110847585
100	0x3dece194	0.11566463
101	0x3cf11b68	0.029432014
102	0x3e1d2024	0.15344292
103	0xbd75c8cc	-0.060005948
104	0x3cffca9f	0.031224547
105	0x3e272ad1	0.16324927
106	0xbc7ccd88	-0.015429862
107	0x3dfade8a	0.12249477
108	0xbe0aa938	-0.13541114
109	0x3e019fa0	0.12658548
110	0x3d253749	0.040335927
111	0x3e15d110	0.14630532
112	0xbe3e4add	-0.18583246
113	0x3c39670a	0.01131607
114	0xbdacd2aa	-0.084386185
115	0xbc47e9b4	-0.012201715
116	0x3d90fc2c	0.07079348
117	0x3dc46eea	0.09591468
118	0xbd5e7530	-0.054310977
119	0xbc522b76	-0.012827745
120	0xbd944844	-0.07240346
121	0xbe4f07b8	-0.20217788
122	0xbe0ef008	-0.13958752
123	0x3cfbaae0	0.030721128
124	0xbd61a490	-0.05508858
125	0x3cb8a45a	0.022539306
126	0x3c3251be	0.010883747
127	0xbe6f6a97	-0.23380505

network_body._body_endoder.seq_layers.0.weight f4 [128, 128]
0	0xbd5a097f	-0.053231712
1	0x3e1e9006	0.15484628
2	0x3d219b08	0.03945449
3	0xbd5eb16a	-0.054368414
4	0xbac8f405	-0.0015331513
5	0x3d99ebeb	0.07515701
6	0x3e971ac0	0.29512596
7	0x3c46dcd0	0.012137607
8	0x3d56aa17	0.052408304
9	0xbdcded52	-0.10055031
10	0xbd8baf56	-0.06820552
11	0x3defae40	0.117031574
12	0xbe2425d5	-0.16030057
13	0xbd52f0af	-0.051499065
14	0xbe4b64a9	-0.19862618
15	0x3de9a308	0.11408049
16	0x3d39552e	0.04524725
17	0xbe8929c6	-0.26789683
18	0xbd83564d	-0.06412945
19	0xbdfb5a58	-0.12273091
20	0xbe486310	-0.1956904
21	0x3d9c1499	0.07621116
22	0xbe80fcd7	-0.25192901
23	0xbe99458b	-0.2993587
24	0x3e4483fc	0.19190973
25	0xbdc89e58	-0.09795827
26	0xbe8ee11a	-0.27906114
27	0xbd546c6d	-0.051861215
28	0x3df3d3b9	0.11905617
29	0xbe7310dd	-0.23736902
30	0x3e83ea5f	0.25764748
31	0x3b22bd7e	0.0024832184
32	0xbd5d214f	-0.053986844
33	0xbee7b190	-0.45252657
34	0xbd176b93	-0.036967825
35	0xbb8ae7eb	-0.0042390726
36	0xbe60a50e	-0.21937963
37	0xbd42b95a	-0.047540046
38	0xbe8567d0	-0.26055765
39	0xbda67a45	-0.0812879
40	0x3d62736f	0.055285867
41	0xbeae8fb0	-0.34094
42	0xbe1a8877	-0.1509112
43	0xbe279039	-0.1636361
44	0xbc9aa1a8	-0.018875912
45	0x3ba7126b	0.005098631
46	0xbd1f1ecb	-0.038847726
47	0xbea0f9e4	-0.3144065
48	0xbe245adb	-0.16050284
49	0xbe55f5d4	-0.20894557
50	0xbd88607b	-0.06659027
51	0xbe0d24e3	-0.13783602
52	0xbd93b1ee	-0.07211672
53	0x3df5496d	0.119768955
54	0xbe8b6fab	-0.27233633
55	0x3db509f0	0.08839786
56	0xbeaea6a5	-0.34111515
57	0xbe807c8b	-0.2509502
58	0xbdca7a4d	-0.09886608
59	0x3d143c0f	0.03619009
60	0xbe1758fd	-0.1478004
61	0xbd2879d2	-0.041131802
62	0xbe9a5cfe	-0.30149072
63	0x3dc0d9b5	0.09416524
64	0x3c8329fc	0.01601123
65	0xbbf25f2e	-0.0073966
66	0xbdd4463b	-0.10364958
67	0xbecef415	-0.40420595
68	0xbbd4e447	-0.0064969393
69	0x3e4ec1ea	0.2019116
70	0x3dff2d05	0.12459759
71	0xbdae3b54	-0.0850741
72	0x3be1ba8e	0.006888694
73	0xbe8202d3	-0.2539278
74	0xbeab8190	-0.33497286
75	0x3d265e1a	0.040617086
76	0x3ddd98a8	0.108201325
77	0xbe234cd0	-0.1594727
78	0xbdba961d	-0.09110663
79	0xbe825e36	-0.25462502
80	0x3d33e459	0.04391894
81	0xbdf4db1d	-0.11955855
82	0xbe0a7960	-0.13522863
83	0xbe03ca9e	-0.12870261
84	0x3e03e67b	0.1288089
85	0xbe522905	-0.2052346
86	0x3d887d5c	0.066645354
87	0xbe20d8ef	-0.15707754
88	0x3e254e88	0.16143239
89	0xbec4b394	-0.38418257
90	0xbc906055	-0.01762406
91	0xbdbd711a	-0.09250088
92	0xbbb2256f	-0.0054365913
93	0xbd69459a	-0.056951143
94	0xbde00a90	-0.10939515
95	0x3d9ac817	0.07557695
96	0x3e7ddb49	0.24790682
97	0x3dc62ebe	0.09676884
98	0xbd0d03c1	-0.034427408
99	0xbe9d7d75	-0.3075978
100	0xbebd3b03	-0.36959085
101	0xbd2d2399	-0.042270277
102	0xbeb8a198	-0.36060786
103	0xbdaa2d28	-0.08309394
104	0x3ded6802	0.115921035
105	0xbe997089	-0.2996867
106	0xba2b48af	-0.0006533963
107	0xbdbae476	-0.09125607
108	0x3e98a78b	0.29815325
109	0xbe13bd83	-0.14427762
110	0xbd9d0753	-0.076674126
111	0x3dd9802c	0.1062015
112	0xbe1a7796	-0.15084681
113	0x3c90e60d	0.017687822
114	0xbdf391d8	-0.11893052
115	0xbb54dbda	-0.0032479675
116	0x3e820e98	0.2540176
117	0xbc445c32	-0.011984872
118	0x3dd29316	0.10281961
119	0xbe5681b2	-0.20947912
120	0xbe44b2e8	-0.19208872
121	0xbd6bfeb7	-0.057615962
122	0xbe12af81	-0.14324762
123	0xbcc79fbd	-0.024368161
124	0xbe942e6f	-0.28941676
125	0x3e226231	0.1585777
126	0xbe991d8e	-0.2990536
127	0x3e27f6da	0.1640276
128	0xbdab4827	-0.08363371
129	0xbe7564d5	-0.23964246
130	0x3e0712a6	0.13190708
131	0xbcb55e52	-0.022139702
132	0x3d6e0bac	0.0581166
133	0x3d458da5	0.048230786
134	0x3e813939	0.2523897
135	0xbe113ae8	-0.14182627
136	0xbe63515e	-0.22199008
137	0x3d7d6792	0.06186635
138	0xbe58c305	-0.21168144
139	0xbe32f1bd	-0.17475028
140	0xbd452660	-0.0481323
141	0xbe1a4a63	-0.15067439
142	0xbe30619b	-0.17224734
143	0xbc9bf26a	-0.01903649
144	0xbde5f224	-0.11227825
145	0xbde59089	-0.112092085
146	0x3dc8afca	0.09799154
147	0xbe786824	-0.24258476
148	0x3deb3692	0.11485018
149	0x3e2f2c13	0.17106657
150	0xbe15ff22	-0.14648107
151	0xbcd2b2fd	-0.025720114
152	0x3bddef9e	0.0067729494
153	0xbe5a391e	-0.21310851
154	0xbd8f0522	-0.06983401
155	0x3daa4d88	0.08315569
156	0xbd0e6f0d	-0.034773875
157	0x3cc0780d	0.023494745
158	0xbd9fc844	-0.078018695
159	0xbce36e16	-0.027762454
160	0xbe2715f7	-0.16316973
161	0xbdb22935	-0.08699266
162	0xbdd362e5	-0.10321597
163	0xbe61d214	-0.22052795
164	0xbc602bb3	-0.013682294
165	0xbe5b1f12	-0.21398571
166	0xbd1da352	-0.038485833
167	0xbdf37ead	-0.11889396
168	0xbe38364f	-0.17989467
169	0x3deb75ea	0.114971
170	0xbe0228ab	-0.12710826
171	0x3df9676d	0.1217793
172	0xbd720500	-0.0590868
173	0xbec20edb	-0.3790196
174	0x3cbd903f	0.023140071
175	0xbd5aedfc	-0.053449616
176	0xbdebb40e	-0.11508952
177	0xbd43115a	-0.04762397
178	0xbda3c404	-0.079963714
179	0xbd172d80	-0.036908627
180	0xbd1a0e2c	-0.03761117
181	0xbe94abc6	-0.29037303
182	0x3d31ecdf	0.04343879
183	0x3edefd2a	0.43552524
184	0x3c9b852d	0.018984402
185	0x3d7428b4	0.05960913
186	0xbd09fda9	-0.033689175
187	0xbe17df47	-0.14831267
188	0xbd2c9cd3	-0.042141747
189	0xbd6c12d2	-0.057635136
190	0x3c89438c	0.016755842
191	0x3dce0ab6	0.10060637
192	0xbd79602a	-0.060882725
193	0xbe34876b	-0.17629783
194	0x3de19c9b	0.11016198
195	0x3c3039a9	0.010755935
196	0xbde37fc3	-0.11108353
197	0x3cc8c03f	0.024505733
198	0xbe26243d	-0.16224761
199	0xbe52c5ca	-0.20583263
200	0x3cd6b81c	0.026210837
201	0xbe08089f	-0.13284539
202	0x3e805929	0.25068024
203	0xbd84bd7c	-0.06481454
204	0xbd4ae86a	-0.049538054
205	0x3e8b97a4	0.2726413
206	0x3c30b848	0.010786124
207	0x3b9bec51	0.0047583957
208	0x3c9d2e57	0.019187136
209	0x3da842cb	0.08215865
210	0xbe4d7330	-0.20063472
211	0xbe12425e	-0.1428313
212	0xbe85c268	-0.26124883
213	0x3e16d511	0.14729716
214	0xbdf2fd82	-0.11864759
215	0x3ba53983	0.0050422563
216	0x3d4c5a13	0.04989059
217	0x3d2db06b	0.042404573
218	0xbe26e423	-0.16297965
219	0x3e7346f3	0.23757534
220	0xbe871db9	-0.26389864
221	0x3b081d28	0.0020769332
222	0x3d2df019	0.042465303
223	0x3da1a5ae	0.07892929
224	0xbea5a9b0	-0.32356024
225	0x3c4787c5	0.012178366
226	0x3d56ebac	0.052470848
227	0xbd02478c	-0.031806514
228	0x3e5f6f28	0.21819746
229	0xbda70c9a	-0.081567004
230	0x3dd429a4	0.10359505
231	0xbd8b9a6e	-0.068165645
232	0xbdb91c98	-0.09038657
233	0x3dcc024b	0.09961375
234	0x3e0a7f45	0.13525112
235	0x3e897977	0.26850483
236	0x3d822b17	0.06355875
237	0x3e4ab567	0.19795762
238	0xbe90e336	-0.28298348
239	0x3df6bc3a	0.1204762
240	0xbe147e52	-0.14501312
241	0xbda2ed0b	-0.079553686
242	0xbe231da9	-0.15929283
243	0xbe3ca13e	-0.18420884
244	0xbd5e955c	-0.05434166
245	0x3e0d0681	0.13772012
246	0xbdd233f8	-0.102638185
247	0xbdd16427	-0.10224181
248	0xbea5302b	-0.32263312
249	0x3d1a4e03	0.037672054
250	0xbe537008	-0.20648205
251	0xbdb2513c	-0.087069005
252	0xbcd914fa	-0.02649926
253	0x3daca426	0.08429746
254	0xbbef14ff	-0.007296204
255	0xbd06b6a4	-0.032889023

network_body._body_endoder.seq_layers.0.bias f4 [128]
0	0xbe4ab7c0	-0.19796658
1	0x3d7adf96	0.061248384
2	0xbd5e797d	-0.05431508
3	0xbe5e45b1	-0.21706273
4	0x3dbb1c12	0.09136213
5	0xbe6071ec	-0.21918458
6	0xbe15f1e1	-0.1464305
7	0x3e127ab8	0.14304626
8	0xbd826043	-0.06366017
9	0xbe82e01f	-0.25561616
10	0xbe52c612	-0.2058337
11	0xbd7eca8f	-0.062204894
12	0xbec666d3	-0.38750324
13	0xbe805f72	-0.2507282
14	0x3d9b96e1	0.07597137
15	0xbda90930	-0.082537055
16	0x3e1c5bd3	0.15269403
17	0xbe79debb	-0.24401371
18	0x3b1a674c	0.0023560105
19	0xbe3b17be	-0.18270776
20	0xbe6baebe	-0.23015878
21	0xbde40242	-0.11133243
22	0x3c0b021f	0.008484392
23	0x3d84921e	0.06473182
24	0xbe908213	-0.2822424
25	0x3dc366a8	0.095410645
26	0xbe2a331f	-0.16621064
27	0x3d6fd2d5	0.058550674
28	0xbe107051	-0.14105345
29	0x3e292a40	0.16520023
30	0xbd079f4e	-0.03311091
31	0x3d9d9728	0.076948464
32	0xbe5f8d7b	-0.21831314
33	0xbe5a28be	-0.21304604
34	0xbe78f1a2	-0.24310926
35	0xbeba980a	-0.36444122
36	0xbda073ab	-0.07834562
37	0xbdfd0eaf	-0.12356316
38	0xbe034fa4	-0.12823349
39	0xbdc5d2a5	-0.09659318
40	0xbe9c78f7	-0.3056104
41	0xbd5b68a6	-0.053566597
42	0xbe100d4d	-0.14067574
43	0xbe8107aa	-0.2520116
44	0xbe003919	-0.12521781
45	0xbc9708f7	-0.018436892
46	0xbc340cd2	-0.010989385
47	0x3d3c7249	0.04600743
48	0xbe4b452d	-0.19850607
49	0xbcec38a7	-0.028835608
50	0x3c0457fb	0.008077617
51	0xbe3d9685	-0.1851445
52	0xbd09ea07	-0.03367045
53	0xbe5315b2	-0.20613745
54	0xbe9b7fbf	-0.303709
55	0x3c275581	0.010213257
56	0xbe9cd08c	-0.3062786
57	0x3c591181	0.013248802
58	0x3d0a4597	0.033757772
59	0xbdf78b58	-0.120871246
60	0xbe019c46	-0.1265727
61	0xbe36ce1a	-0.17852059
62	0xbe374ba9	-0.17899956
63	0x3d755258	0.059892982
64	0xbe2d6380	-0.16932487
65	0x3d6c5dd0	0.057706654
66	0x3d7fef0a	0.062483825
67	0x3de572be	0.11203526
68	0xbe51887d	-0.20462222
69	0xbe1f5978	-0.15561473
70	0x3e0ef072	0.1395891
71	0x3de34cf1	0.1109866
72	0xbe0f5621	-0.139977
73	0x3df0c395	0.11756054
74	0xbe6614ce	-0.22468874
75	0xbb3580e1	-0.0027695226
76	0xbe65f928	-0.22458327
77	0xbeab4ed3	-0.33458576
78	0xbe5fc161	-0.21851112
79	0xbd9f715d	-0.07785294
80	0xbe760994	-0.24027091
81	0x3da19b85	0.07890991
82	0xbe976b5a	-0.2957409
83	0xbe83e3a5	-0.25759616
84	0xbdcce482	-0.10004522
85	0xbe58b1d3	-0.21161585
86	0xbe826c38	-0.2547319
87	0xbd9d79ac	-0.07689223
88	0x3dafdaf3	0.08586683
89	0xbd1d2c68	-0.038372427
90	0xbd9037a8	-0.070418656
91	0xbe74ea8e	-0.239176
92	0xbd43d74a	-0.047812738
93	0xbe9567b1	-0.29180673
94	0xbb83be0a	-0.004020457
95	0x3db7e33b	0.08978888
96	0xbe7667c7	-0.24063025
97	0x3d97914d	0.07400761
98	0xbe56d332	-0.20979002
99	0xbe7b4a13	-0.24539976
100	0x3da99e5c	0.08282158
101	0xbe444d3e	-0.1917009
102	0xbeb658a2	-0.35614496
103	0x3d3507a9	0.04419676
104	0xbe81754f	-0.25284812
105	0xbe0da503	-0.13832478
106	0xbe6daaf1	-0.2320974
107	0xbd85fd5c	-0.06542465
108	0xbe996179	-0.29957178
109	0xbe67402f	-0.22583078
110	0xbc87d34e	-0.01658025
111	0xbe8dee6d	-0.27720967
112	0xbe2defd6	-0.16986021
113	0x3d3517c1	0.044212107
114	0x3c8981c5	0.016785512
115	0xbdb52f02	-0.08846857
116	0x3d7d84f7	0.061894383
117	0xbcebd514	-0.028788127
118	0x3db5b5ce	0.08872567
119	0xbdcfa1db	-0.10138293
120	0xbea874b4	-0.32901537
121	0x3e11c014	0.14233428
122	0xbdc7d97a	-0.09758277
123	0x3cae822f	0.02130231
124	0x3c6cad41	0.014445604
125	0xbe71eb62	-0.23624948
126	0xbe887a21	-0.26655677
127	0xbe3b5a86	-0.1829625

network_body._body_endoder.seq_layers.2.weight f4 [128, 128]
0	0xbe2b2dae	-0.16716644
1	0xbe2ec616	-0.17067751
2	0xbbb00561	-0.005371735
3	0xbe86fbcd	-0.26363984
4	0x3e152f69	0.14568867
5	0xbe6fb72e	-0.23409721
6	0xbe81a1f2	-0.25318867
7	0xbcae15c6	-0.021250617
8	0xbe8e66b6	-0.27812737
9	0xbd03c953	-0.03217442
10	0xbd1a919b	-0.037736516
11	0xbc788cd3	-0.015170294
12	0x3cc9aebb	0.02461945
13	0xbcfa569d	-0.030558879
14	0xbd6e9e3d	-0.058256377
15	0xbc1553be	-0.009114204
16	0xbd12e40d	-0.035862017
17	0xbcd87e49	-0.026427405
18	0xbc8a69ee	-0.016896214
19	0xbe45a320	-0.19300508
20	0xbda616c3	-0.0810981
21	0xbd55ee7a	-0.052229382
22	0x3dfeac10	0.12435162
23	0xbdbba05e	-0.09161447
24	0xbe1646d4	-0.14675456
25	0xbe39aebd	-0.18133064
26	0x3d0f5733	0.03499527
27	0xbd0df5bd	-0.034658182
28	0xbd673339	-0.056445334
29	0x3e3dde0a	0.18541732
30	0xbb86729b	-0.0041030175
31	0x3c3e7eb1	0.011626885
32	0xbe22a178	-0.15881908
33	0xbda7811e	-0.08178924
34	0xbe0d6e4e	-0.13811609
35	0xbb37395a	-0.0027957768
36	0xbdedc92c	-0.11610636
37	0xbdaa51ad	-0.0831636
38	0xbd4d2123	-0.05008043
39	0x3c97181c	0.018444113
40	0xbdaa6759	-0.08320493
41	0x3d011939	0.031518195
42	0xbe253451	-0.16133238
43	0x3b8cbd8d	0.004295057
44	0x3cf12b01	0.029439451
45	0x3cef392b	0.029202064
46	0x3d6657fe	0.05623626
47	0x3d2530a4	0.04032959
48	0xbd3b0e86	-0.045668148
49	0xbc61c063	-0.013778779
50	0x3e3efec2	0.1865187
51	0xbe123075	-0.14276297
52	0xbdf14e45	-0.11782507
53	0xbe23dab0	-0.16001391
54	0xbdf9c665	-0.12196044
55	0xbd60b043	-0.054855596
56	0xbda3a7de	-0.079910025
57	0x3dbe7877	0.093003206
58	0xbcc03da8	-0.0234669
59	0xbc386845	-0.011255329
60	0xbe8ca6f7	-0.27471134
61	0xbe3c5a70	-0.18393874
62	0xbd84beec	-0.06481728
63	0x3e362d2c	0.17790669
64	0xbe170b03	-0.14750294
65	0x3e0ded51	0.1386006
66	0x3c5fadcc	0.013652276
67	0xbd21ce0a	-0.039503135
68	0xbdc3ca69	-0.09560091
69	0xbe3837df	-0.17990063
70	0x3e375433	0.17903213
71	0x3da95710	0.08268559
72	0xbe291ab0	-0.16514087
73	0xbd257781	-0.04039717
74	0xbdc4142c	-0.0957416
75	0x3be241f6	0.006904836
76	0xbdb80a4a	-0.089863375
77	0xbe80bc3f	-0.2514362
78	0xbc648a16	-0.013948938
79	0xbda77bcb	-0.081779085
80	0xbe89ab63	-0.2688857
81	0x3d8984e4	0.067148
82	0xbe015f9e	-0.12634131
83	0xbd40f80d	-0.04711156
84	0xbe9051b9	-0.2818735
85	0xbe0ab224	-0.13544518
86	0xbe66deb2	-0.22545889
87	0x3e993767	0.2992508
88	0x3e0859b1	0.13315465
89	0xbe5b0cf8	-0.21391666
90	0xbe1d2db6	-0.15349469
91	0xbdd2dfb9	-0.10296578
92	0x3e24e010	0.16101098
93	0xbe121e3a	-0.14269343
94	0xbe091c40	-0.13389683
95	0x3ce09a9f	0.02741748
96	0xbd90d522	-0.07071902
97	0x3cfcbe97	0.0308526
98	0x3be119ff	0.006869554
99	0xbe0ef839	-0.13961877
100	0xbd21b905	-0.03948309
101	0xbd8e3965	-0.06944541
102	0x3bd318fc	0.0064421874
103	0x3e452a67	0.19254456
104	0xbdf02638	-0.1172604
105	0xbdf17238	-0.117893636
106	0x3b0ceb2a	0.0021502473
107	0x3ddff2b6	0.10934965
108	0xbe009bd1	-0.12559439
109	0x3a99dd02	0.0011738839
110	0xbe90d625	-0.2828838
111	0xbd9f2c6d	-0.077721454
112	0xbcea0c99	-0.02857046
113	0x3db7ca52	0.089741364
114	0x3d08b7ad	0.033378292
115	0x3d0a561e	0.033773534
116	0x3b6f6b74	0.0036532553
117	0xbc9a0da6	-0.018805336
118	0x3de8de30	0.11370504
119	0xbcc863ba	-0.024461616
120	0xbe4f174a	-0.20223728
121	0xbc005065	-0.007831668
122	0x3d062cf6	0.03275772
123	0xbd898325	-0.06714467
124	0x3bff0247	0.007782254
125	0xbe1569ee	-0.1459119
126	0xbdfde86a	-0.12397845
127	0xbe4164b0	-0.18886065
128	0xbe90709d	-0.28210917
129	0x3d101c21	0.035183076
130	0xbcf5c16b	-0.029999455
131	0x3d8ec2ae	0.06970726
132	0xbcb25c09	-0.021772401
133	0xbe79961d	-0.2437367
134	0xbe6eecb6	-0.23332486
135	0xbd42a56d	-0.047521044
136	0xbe63228c	-0.22181147
137	0xbe86c290	-0.26320314
138	0xbde9f42b	-0.114235245
139	0xbf0ce130	-0.5503111
140	0xbe30b284	-0.17255598
141	0xbe174ce6	-0.14775428
142	0x3d3eac41	0.046550993
143	0xbdc4b6c2	-0.09605171
144	0x3cba7afc	0.022763722
145	0xbe75d2c2	-0.24006179
146	0x3c467145	0.0121119665
147	0x3cb6a649	0.022296088
148	0xbe42d6f4	-0.1902731
149	0xbe321f5e	-0.17394778
150	0xbd2125d8	-0.03934273
151	0x3dc08970	0.09401214
152	0xbd329795	-0.04360159
153	0x3af5fbc2	0.0018767046
154	0xbe5810d6	-0.21100172
155	0xbd0d78d2	-0.03453905
156	0xbe570ff4	-0.2100218
157	0xbddd48b9	-0.10804886
158	0xbea9b76c	-0.33147752
159	0x3c91d658	0.017802402
160	0xbe19893e	-0.1499376
161	0xbea7d589	-0.32780102
162	0xbe378d14	-0.17924911
163	0xbe7f299e	-0.2491822
164	0xbe8d20ec	-0.2756418
165	0xbe657718	-0.22408712
166	0xbe6adb8f	-0.22935317
167	0xbeb34ede	-0.35021108
168	0xbdb36929	-0.08760292
169	0xbdd34641	-0.10316134
170	0xbde73a1b	-0.112903796
171	0xbe376b23	-0.17911963
172	0xbe78c313	-0.24293165
173	0xbd944063	-0.07238843
174	0xbeb5e7e2	-0.35528475
175	0xbd6ce659	-0.057836864
176	0xbd665a76	-0.056238614
177	0x3da124e9	0.07868368
178	0x3d70f1bf	0.058824297
179	0xbdd2a240	-0.10284853
180	0xbdaab6cb	-0.08335646
181	0xbe907620	-0.28215122
182	0xbe4f7f02	-0.20263293
183	0x3dea5045	0.114410914
184	0xbe5d2389	-0.21595587
185	0xbe2c003d	-0.16796966
186	0xbd3328d5	-0.043740112
187	0xbee90857	-0.45514175
188	0xbdf72bc2	-0.12068893
189	0xbe2744b8	-0.16334808
190	0xbe4b48a2	-0.19851926
191	0xbc9922b2	-0.018693302
192	0xbe3b682b	-0.18301456
193	0x3d6e8e21	0.058241013
194	0xbdb05265	-0.086094655
195	0x3e06c02c	0.13159245
196	0xbe29a1ee	-0.16565678
197	0xbe7f7e2d	-0.24950476
198	0xbe0bcd4e	-0.13652536
199	0x3d373283	0.044725906
200	0xbd973d95	-0.07384793
201	0xbc2f2b82	-0.010691525
202	0xbe198057	-0.14990364
203	0x3d704e8d	0.05866866
204	0xbe8c4e6c	-0.2740358
205	0xbe2ad313	-0.16682081
206	0xbe260012	-0.16210964
207	0xbe3a6748	-0.18203461
208	0xbe1c336e	-0.15253994
209	0x3d94197c	0.07231423
210	0xbe59ee4b	-0.21282308
211	0xbdfc40f4	-0.12317076
212	0xbe6d90d3	-0.23199777
213	0xbe26f0ee	-0.16302845
214	0xbe81c3c3	-0.25344667
215	0xbe722819	-0.23648109
216	0x3d93c1df	0.07214712
217	0x3e146a8c	0.1449377
218	0xbc4b5b86	-0.012411958
219	0xbe60c9a0	-0.21951914
220	0xbda26f05	-0.079313315
221	0xbe684c0c	-0.2268526
222	0xbd5c8efd	-0.0538473
223	0x3d4c58e8	0.049889475
224	0xbe375cb7	-0.17906462
225	0x3d732961	0.059365634
226	0xbe988d0c	-0.2979511
227	0xbe06655d	-0.13124605
228	0x3ddfe814	0.10932937
229	0xbeaa3999	-0.3324707
230	0xbe582890	-0.21109223
231	0xbdcb8b27	-0.099386506
232	0x3bbdec81	0.0057960157
233	0xbe215a1b	-0.15757029
234	0xbe91eb0a	-0.28499633
235	0xbd870d9c	-0.06594393
236	0xbe5298b1	-0.2056606
237	0xbdb1bdb5	-0.08678762
238	0xbe6f3ffb	-0.2336425
239	0xbe77dfa0	-0.242064
240	0xbe4b5123	-0.1985517
241	0xbd96f976	-0.073718
242	0x3e049b4a	0.12949863
243	0xbe61711a	-0.22015801
244	0x3e4af1de	0.19818828
245	0xbc49a05a	-0.012306297
246	0xbd82e2ae	-0.06390892
247	0xbdeaed55	-0.11471049
248	0xbea36d7d	-0.3191947
249	0x3e44dbd2	0.1922448
250	0xbe96af18	-0.2943046
251	0x3dd2e44e	0.10297452
252	0xbdbd98c4	-0.09257653
253	0xbe427161	-0.18988563
254	0xbe314102	-0.17309955
255	0xbe6887e3	-0.22708087

network_body._body_endoder.seq_layers.2.bias f4 [128]
0	0x3d6da706	0.058020614
1	0x3e550b67	0.20805131
2	0x3d9e8d1b	0.077417575
3	0xbe9f7977	-0.31147358
4	0xbdca832f	-0.098883025
5	0x3d47eb49	0.04880837
6	0x3deba521	0.11506105
7	0xbe0a71ac	-0.13519925
8	0xbe0d9b7c	-0.13828844
9	0xbe3e4e0c	-0.1858446
10	0xbe7cb636	-0.24678883
11	0xbe8a904a	-0.2706321
12	0xbe0e3fcc	-0.13891524
13	0xbe4fb718	-0.20284688
14	0xbd8869df	-0.06660818
15	0x3db9b034	0.09066811
16	0xbe28ad5d	-0.16472383
17	0xbddf28b2	-0.10896434
18	0xbe8b1fcd	-0.271727
19	0xbc821470	-0.015878886
20	0xbe835e1e	-0.25657743
21	0x3d69f390	0.057117045
22	0xbdfc4cbb	-0.12319323
23	0xbd50677a	-0.050879933
24	0xbe3acfcf	-0.18243335
25	0x3cebb880	0.0287745
26	0x3cdaf041	0.02672589
27	0xbe1bb282	-0.15204814
28	0x3d20fac6	0.039301656
29	0x3d36f4e8	0.044667155
30	0x3d37ee56	0.04490503
31	0x3d4c0a50	0.049814522
32	0x3d835d9f	0.06414341
33	0x3d4ecff7	0.0504913
34	0xbd1fd104	-0.039017692
35	0x3dd2c887	0.10292154
36	0x3db16fbe	0.08663891
37	0xbc90b739	-0.017665492
38	0xbc19d445	-0.009388988
39	0xbeb43a18	-0.35200572
40	0x3d70aac8	0.05875662
41	0x3e1ba7f7	0.15200792
42	0xbdeb152f	-0.1147865
43	0x3d8be368	0.06830484
44	0xbe22a1e2	-0.15882066
45	0x3e258cdc	0.16167015
46	0xbd6aaff9	-0.057296727
47	0xbe86564a	-0.26237708
48	0x3d478e79	0.048719857
49	0xbe7d66c4	-0.24746233
50	0xbe285905	-0.16440208
51	0x3d3c3d10	0.04595667
52	0xbd992b7d	-0.07478998
53	0x3e26c08f	0.16284393
54	0xbe4c0513	-0.1992381
55	0x3dbae1e1	0.09125114
56	0xbda0a9a8	-0.07844859
57	0xbe084dca	-0.13310924
58	0xbd4b5a71	-0.0496468
59	0x3d753d02	0.059872635
60	0x3e5e62a8	0.21717322
61	0x3d2f60f2	0.042817064
62	0x3e1b5843	0.15170388
63	0xbe1166b1	-0.1419933
64	0xbe39bf2b	-0.18139331
65	0xbb9ab637	-0.0047214287
66	0x3e0b08a4	0.13577515
67	0x3d8a6082	0.06756689
68	0xbe69cb49	-0.22831453
69	0xbe3e242d	-0.18568487
70	0xbd988717	-0.07447641
71	0x3b3d6c1d	0.0028903552
72	0xbd996035	-0.07489053
73	0xbdbdcb31	-0.09267271
74	0x3e47d49c	0.19514698
75	0xbdc7bd01	-0.097528465
76	0xbe7c9b0d	-0.24668522
77	0xbdb689d6	-0.08913009
78	0xbe870091	-0.2636762
79	0xbe59da6f	-0.21274732
80	0x3e19800e	0.14990255
81	0xbe0e5ab2	-0.13901785
82	0xbe235f30	-0.1595428
83	0xbea2fc9c	-0.3183335
84	0x3e05561e	0.13021132
85	0xbe3ad02b	-0.18243472
86	0xbe6b9ff6	-0.23010239
87	0xbe9571fa	-0.2918852
88	0x3ce44734	0.027865984
89	0xbe1dcd32	-0.15410307
90	0x37e3cc11	2.7155535e-05
91	0xbc9aeea5	-0.018912623
92	0xbbda9dcb	-0.0066716424
93	0x3ca0c736	0.019626241
94	0xbdd260f5	-0.10272399
95	0xbe5819d8	-0.21103609
96	0xbdbfd0d3	-0.09366002
97	0xbd8cb4d6	-0.06870429
98	0xbe12be28	-0.14330351
99	0xbd55254b	-0.05203752
100	0xbe149204	-0.14508826
101	0xbdc03718	-0.09385508
102	0xbe5cad9e	-0.21550605
103	0xbe6d8451	-0.23195006
104	0xba307548	-0.00067313435
105	0xbdcdeb77	-0.10054677
106	0xbe787779	-0.24264325
107	0x3be2910f	0.006914265
108	0xbe5e5708	-0.21712887
109	0xbe84c6f0	-0.25933027
110	0x3d8cbe22	0.068722025
111	0xbe8574c7	-0.26065657
112	0x3d0a6fa7	0.033797886
113	0x3d27739a	0.04088173
114	0x3df76b41	0.12081004
115	0xbb3c5b12	-0.0028740806
116	0xbe4e5b7d	-0.20152088
117	0xbd5e858a	-0.05432657
118	0xbe424855	-0.18972905
119	0x3c78de0f	0.015189662
120	0xbdddd335	-0.108313
121	0xbd28b5fd	-0.041189183
122	0xbe848e7e	-0.25889963
123	0xbe196125	-0.14978464
124	0x3d72f8bb	0.05931924
125	0x3db28c4f	0.08718168
126	0x3dc69b2b	0.09697565
127	0x3d99f41a	0.07517262

action_model._continuous_distribution.log_sigma f4 [1, 3]
0	0xbf466275	-0.77493984
1	0xbf76e275	-0.96439296
2	0xbf64c8fb	-0.8936917
