CS455_PR1/results/ShootTargetAgent_T2/ShootTargetAgent/ShootTargetAgent-1999974.onnx (onnx, 490788 bytes, 18 tensors)

discrete_act_size_vector f4 [1, 2]
0	0x42480000	50.0
1	0x42480000	50.0

network_body.observation_encoder.processors.0.conv_layers.0.weight f4 [16, 1, 8, 8]
0	0xbd7b8e6f	-0.061415132
1	0x3d434c6b	0.0476803
2	0x3dd52379	0.104071565
3	0xbd0f7c90	-0.0350309
4	0xbe162b12	-0.14664868
5	0xbac8146e	-0.0015264878
6	0x3d8a2d63	0.06746938
7	0xbdbb05fd	-0.091320015
8	0x3bbef820	0.0058279186
9	0xbd67b437	-0.05656835
10	0xbc1a40d5	-0.009414871
11	0xbc80bcda	-0.015715051
12	0xbe5b2918	-0.21402395
13	0x3dbaefff	0.09127807
14	0xbd99c7be	-0.07508801
15	0x3db653ba	0.08902688
16	0xbe8d81f8	-0.2763822
17	0xbd3c0b0b	-0.04590897
18	0x3d64da12	0.05587203
19	0x3e2a6803	0.1664124
20	0xbcfc421d	-0.030793244
21	0xbdb5ad70	-0.08870971
22	0x3e1fcb4a	0.15604892
23	0x3dd7b821	0.10533167
24	0xbaead718	-0.0017916886
25	0xbe1ca23c	-0.15296263
26	0xbde69d8e	-0.1126052
27	0x3db26445	0.08710531
28	0xbdaecafa	-0.085348085
29	0x3dd7b8f9	0.105333276
30	0x3e4e49e6	0.20145378
31	0x3d19b908	0.037529975
32	0xbcf9badb	-0.030484607
33	0xbe4125c0	-0.18862057
34	0x3e2dcc0a	0.16972366
35	0x3d04e560	0.03244531
36	0xbe6b8d1c	-0.23003048
37	0xbe0bc358	-0.13648736
38	0x3e1a0b51	0.1504338
39	0x3b846b09	0.00404108
40	0xbd6a40cc	-0.0571907
41	0xbd819a07	-0.063282065
42	0x3d1e367c	0.03862618
43	0xbe014e54	-0.12627536
44	0xbe65baaf	-0.22434495
45	0xbe00318c	-0.125189
46	0xbe4dc002	-0.20092776
47	0xbc9d4ee5	-0.019202659
48	0x3cd9185a	0.02650087
49	0x3d1b0258	0.037844032
50	0x3d5142b9	0.051089022
51	0x3d0e7f1a	0.034789182
52	0xbd771eed	-0.060332227
53	0x3b8e4c4d	0.004342592
54	0xbe83206f	-0.25610682
55	0xbe5dbc14	-0.21653777
56	0xbdc11645	-0.09428076
57	0xbd01634e	-0.031588845
58	0x3e06c24f	0.1316006
59	0xbdd29e23	-0.102840684
60	0x3da9952d	0.08280406
61	0x3da6c99d	0.081439234
62	0x3d902bab	0.07039579
63	0xbde78a8d	-0.11305723
64	0x3e0d19b6	0.13779339
65	0xbb2487a7	-0.002510527
66	0xbdce13ca	-0.10062368
67	0xbe4926e6	-0.19643745
68	0xbdf51677	-0.119671755
69	0xbdb528ee	-0.08845697
70	0x3dcdb50f	0.100443
71	0xbcd41c75	-0.025892476
72	0x3e070ca8	0.13188422
73	0xba1de41a	-0.00060230645
74	0xbcc4594f	-0.023968367
75	0xbc9186a9	-0.017764406
76	0xbdb3b09b	-0.08773919
77	0x3dab7e72	0.08373727
78	0x3d4502b9	0.0480983
79	0xbd701a0e	-0.058618598
80	0xbdfffc92	-0.12499346
81	0x3e123819	0.14279212
82	0xbb81ef0f	-0.0039652656
83	0xbbcc66a1	-0.0062378203
84	0xbdb7c64f	-0.08973371
85	0xbe08c2b9	-0.13355531
86	0xbc6c1eac	-0.01441161
87	0xbe4b5d26	-0.19859752
88	0xbdd841a9	-0.10559399
89	0xbc9d3fb2	-0.019195411
90	0xbd0968ac	-0.03354709
91	0xbe7ba355	-0.24574025
92	0xbe8fa5ba	-0.28056127
93	0xbe829cf9	-0.25510386
94	0xbe19bfeb	-0.15014617
95	0xbe2b9276	-0.16755089
96	0xbcc92e5d	-0.02455824
97	0xbdba7ae6	-0.09105472
98	0xbe175c45	-0.14781292
99	0xbe67714a	-0.2260181
100	0xbe81837c	-0.25295627
101	0xbd6bd74c	-0.05757837
102	0x3dda0378	0.10645193
103	0xbe6d107d	-0.23150821
104	0x3d96df36	0.07366793
105	0x3dbbb094	0.09164539
106	0xbe6c7714	-0.230923
107	0xbe5dc343	-0.21656518
108	0xbe38a623	-0.18032126
109	0xbd929783	-0.07157805
110	0xbd2999ed	-0.04140656
111	0xbdaabcbb	-0.08336779
112	0x3de936ec	0.11387429
113	0x3dbcb310	0.09213841
114	0x3b293797	0.0025820488
115	0xbe815ba3	-0.25265226
116	0xbe5e9572	-0.21736696
117	0x3c463ff2	0.012100207
118	0xbe4107df	-0.18850659
119	0x3d324ff6	0.043533288
120	0x3e2c3e0f	0.16820548
121	0x3d357f67	0.044310953
122	0x3d8a71d7	0.067599945
123	0xbeb39a12	-0.35078484
124	0xbeb4bb5c	-0.35299194
125	0xbe6e5a04	-0.23276526
126	0x3b83a54b	0.004017507
127	0xbd743880	-0.059624195
128	0x3e2abc97	0.16673504
129	0xbe110d59	-0.14165248
130	0x3bd57c6f	0.006515078
131	0x3d8d78b4	0.06907788
132	0xbdbbca89	-0.0916949
133	0xbd1fc45f	-0.039005633
134	0xbe0c5869	-0.13705601
135	0xbdd8dab7	-0.105885915
136	0x3da9d49c	0.08292505
137	0x3dba162b	0.090862595
138	0xbdaa154f	-0.083048455
139	0x3dfd83cd	0.12378655
140	0x3d9d90f7	0.076936655
141	0xbc546341	-0.012963117
142	0xbdc86f86	-0.097868964
143	0xbe0684c4	-0.13136584
144	0x3e06c469	0.13160862
145	0x3cecac21	0.028890671
146	0xbc93744a	-0.017999787
147	0xbc3b1f4d	-0.011421037
148	0x3e796c9c	0.24357837
149	0x3e2d1fc8	0.16906655
150	0xbb5bf5ec	-0.003356333
151	0xbe272a17	-0.1632465
152	0x3df747bd	0.1207423
153	0x3cfc14c8	0.030771628
154	0x3e361839	0.17782678
155	0x3d4c9369	0.04994527
156	0x3d336d9f	0.043805715
157	0xbd926fce	-0.07150231
158	0xbc6f65e1	-0.014611692
159	0xbe3d4aaf	-0.18485521
160	0x3e5766be	0.21035287
161	0x3a9dad4c	0.0012029796
162	0x3d2c2435	0.042026717
163	0x3d4fc458	0.050724357
164	0x3daed485	0.08536629
165	0xbd31a8fd	-0.04337405
166	0xbe8a2df1	-0.26988176
167	0x3d2cfffe	0.04223632
168	0xbc5fd48a	-0.013661513
169	0xbd79fa27	-0.06102958
170	0x3e43629d	0.19080587
171	0xbdbe3989	-0.09288318
172	0xbd97bc80	-0.074090004
173	0xbe5e02a1	-0.2168069
174	0xbe1379c2	-0.14401916
175	0xbd3a622a	-0.045503773
176	0xbb0aac22	-0.0021159728
177	0xbdad4974	-0.08461276
178	0x3b882d38	0.004155781
179	0xbc86b10f	-0.01644185
180	0xbe19708e	-0.14984342
181	0xbdd873f1	-0.10568989
182	0x3c861eb1	0.016372057
183	0xbe6e310c	-0.23260897
184	0xbe017ce6	-0.12645301
185	0xbd7a31fc	-0.061082825
186	0xbbf2fc06	-0.0074152974
187	0xbde0001f	-0.10937523
188	0xbe66c2f8	-0.22535312
189	0xbe3ec82a	-0.18631044
190	0xbd8cc52a	-0.068735436
191	0xbcdaa006	-0.026687633
192	0x3c1d5a90	0.009604111
193	0xbca01ee7	-0.019545985
194	0x3e39613f	0.18103503
195	0x3e26e7d2	0.1629937
196	0x3e507af6	0.20359406
197	0x3d4ef16e	0.050523214
198	0xbdafa5c1	-0.08576537
199	0x3e5db3c5	0.21650608
200	0xbe879e97	-0.26488182
201	0xbe2fdf8a	-0.17175117
202	0xbd3b02ee	-0.04565709
203	0x3d1afc5b	0.03783832
204	0x3cef1e03	0.029189115
205	0x3db318c5	0.08744959
206	0x3e24ce39	0.16094293
207	0x3d18797c	0.03722523
208	0xbe952cb3	-0.29135665
209	0xbe68e857	-0.2274488
210	0x3dc6036a	0.0966862
211	0xbc7bf00b	-0.015377055
212	0xbcb91cab	-0.022596678
213	0xbe60fee3	-0.21972232
214	0xbe5ce85b	-0.21573012
215	0xbe6aaaa9	-0.22916664
216	0xbec8fc18	-0.39254832
217	0xbe72267c	-0.23647493
218	0xbe201e25	-0.15636499
219	0xbd57fffa	-0.052734353
220	0x3d67fd95	0.05663832
221	0xbd5a0e9e	-0.053236596
222	0x3c9fc42d	0.019502724
223	0xbdb8de62	-0.09026791
224	0xbe47a2ce	-0.19495699
225	0xbe3e018c	-0.18555278
226	0xbd7cf1df	-0.061754104
227	0xbe1497d3	-0.14511041
228	0xbd61a32c	-0.055087253
229	0xbd1d934f	-0.038470563
230	0xbe257f06	-0.16161737
231	0xbdc3b2a5	-0.09555558
232	0x3e08c8cf	0.13357852
233	0x3d6988ed	0.05701535
234	0x3c1e57e5	0.00966451
235	0x3ce7a3df	0.028276382
236	0xbe109f19	-0.14123191
237	0xbd4680de	-0.04846274
238	0xbe5f8ffc	-0.2183227
239	0x3e1d377a	0.15353194
240	0x3e6faed8	0.23406541
241	0x3da62f48	0.08114487
242	0x3ddbbe63	0.10729673
243	0x3dbb729d	0.0915272
244	0xbd5b9769	-0.053611193
245	0xbe1fb12e	-0.15594932
246	0xbe659389	-0.22419561
247	0x3e154111	0.14575602
248	0x3e0912cb	0.13386075
249	0xbd84c36f	-0.064825885
250	0x3e001be0	0.12510633
251	0x3d4627f7	0.048377957
252	0x3d1da9eb	0.038492125
253	0xbe7735c1	-0.24141599
254	0xbe2d1bb0	-0.16905093
255	0xbe0f32a8	-0.13984168

network_body.observation_encoder.processors.0.conv_layers.0.bias f4 [16]
0	0xbdf81463	-0.121132635
1	0xbe24f92a	-0.16110674
2	0xbdbfa9b4	-0.0935854
3	0xbcd61dc5	-0.026137242
4	0xbe0be9e6	-0.13663444
5	0xbe074416	-0.13209566
6	0xbe52617a	-0.20544997
7	0x3d0a9b37	0.03383943
8	0xbd80dee9	-0.06292517
9	0xbdc76bb8	-0.097373426
10	0xbd895642	-0.067059055
11	0xbccdd0f9	-0.02512406
12	0xbdf81b05	-0.121145286
13	0xbdd5651c	-0.10419676
14	0xbe0cd68b	-0.13753717
15	0xbe1975e7	-0.14986382

network_body.observation_encoder.processors.0.conv_layers.2.weight f4 [32, 16, 4, 4]
0	0x3d710251	0.0588401
1	0xbda2ea68	-0.07954866
2	0x3df63c29	0.120231934
3	0xbaea4279	-0.0017872594
4	0x3da400ba	0.08007951
5	0xbe278d16	-0.16362414
6	0x3e389d0a	0.18028656
7	0x3ea60f6c	0.3243364
8	0xbaef3f14	-0.0018253052
9	0xbc7a96a5	-0.0152947055
10	0x3d82e941	0.06392146
11	0x3e1f16d9	0.1553606
12	0x3d7d43c5	0.06183221
13	0xbe1c2aa9	-0.15250649
14	0x3d9fce22	0.078029886
15	0x3d322419	0.043491457
16	0xbbb5805c	-0.0055389833
17	0xbe0b0bb7	-0.13578688
18	0x3b04bca2	0.0020254035
19	0x3deec199	0.116580196
20	0xbd82869e	-0.063733324
21	0x3d550808	0.052009612
22	0x3da65ef5	0.0812358
23	0xbe1434f9	-0.14473332
24	0xbda4c3bf	-0.08045148
25	0x3d7f98eb	0.062401693
26	0x3ddad8c5	0.10685877
27	0x3df05c0a	0.11736305
28	0x3cb20a02	0.021733288
29	0x3c8243b7	0.01590143
30	0xbabdd152	-0.0014481938
31	0x3da831dd	0.08212636
32	0xbdfeb85f	-0.1243751
33	0xbd01e409	-0.031711612
34	0xbe27e1e4	-0.16394764
35	0xbcac799e	-0.021054085
36	0x3d1529c1	0.036416773
37	0xbd1a0deb	-0.03761093
38	0x3cc4e8ec	0.024036847
39	0xbcca18c5	-0.024670014
40	0xbce1d4ce	-0.027567293
41	0xbd959649	-0.07304055
42	0x3cfc1f4d	0.030776644
43	0xbd2599a1	-0.040429715
44	0x3d850cb6	0.06496565
45	0x3dc5aba3	0.09651878
46	0x3d89f8ed	0.06736932
47	0xbe120cbc	-0.1426267
48	0xbe6e2850	-0.23257565
49	0x3d55b45f	0.05217397
50	0xbc5daa94	-0.0135294385
51	0x3dd51230	0.104038596
52	0xbe5d6284	-0.21619612
53	0xbe2c8f1e	-0.1685147
54	0xbd0a9b20	-0.033839345
55	0xbd828b13	-0.063741826
56	0xbd933b77	-0.071890764
57	0x3de1fadc	0.11034176
58	0x3e593590	0.21211839
59	0x3be211a2	0.0068990747
60	0x3d01f29b	0.031725507
61	0xbdbd3efc	-0.09240529
62	0x3c8ccb18	0.017186686
63	0xbdba5e11	-0.09099973
64	0xbdfb18fa	-0.12260623
65	0x3d6ecf53	0.05830319
66	0xbdb08e6b	-0.08620914
67	0xbd1fa76b	-0.03897802
68	0xbbe2b488	-0.0069184937
69	0xbdbd7707	-0.09251218
70	0xbd93da0d	-0.07219324
71	0xbe560802	-0.20901492
72	0xbd49febb	-0.049315196
73	0xbe1cb2dd	-0.15302606
74	0x3dd4df89	0.103941984
75	0xbd000b5f	-0.031260844
76	0xbb82e86e	-0.003994993
77	0xbd32a5bb	-0.043615084
78	0x3cce605a	0.025192428
79	0x3da218ab	0.07914861
80	0xbe86290a	-0.26203185
81	0xbac9d61f	-0.0015398896
82	0x3e23a67a	0.15981475
83	0xbe0112e8	-0.12604868
84	0xbd6d77fb	-0.05797575
85	0xbe19e263	-0.15027766
86	0x3c2b9c98	0.010474347
87	0xbd77d6f3	-0.060507726
88	0x3d61dcd6	0.055142246
89	0xbcb0bc52	-0.021574173
90	0x3e42d27e	0.19025609
91	0xbdf0f5b2	-0.11765613
92	0xbdef7f29	-0.11694176
93	0xbe2e2680	-0.17006874
94	0x3dfc8c4a	0.123314455
95	0xbdb3b384	-0.08774474
96	0x3db830f1	0.0899371
97	0x3d3a89bb	0.045541506
98	0x3e103c85	0.14085586
99	0x3c918abf	0.017766355
100	0x3d4ac78f	0.04950672
101	0xbd7f23fc	-0.062290177
102	0xbcb677fd	-0.022274012
103	0xbdd491be	-0.103793606
104	0x3de5673c	0.11201331
105	0x3e443767	0.1916176
106	0xbd92f494	-0.07175556
107	0xbd73b902	-0.05950261
108	0xbd9e939d	-0.07742999
109	0x3d8e516d	0.069491245
110	0x3c36033c	0.01110917
111	0x3e087546	0.13325986
112	0xbdd5280c	-0.10408029
113	0xbd9a5e02	-0.07537462
114	0xbd8dee56	-0.069302246
115	0xbdc293a8	-0.095008194
116	0xbdb1ee65	-0.08688048
117	0xbdf5b696	-0.11997716
118	0x3d689e91	0.056791846
119	0xbd045e03	-0.03231622
120	0xbde50f82	-0.111845985
121	0xbdb49897	-0.08818167
122	0xbc11f7fc	-0.008909222
123	0xbd06be90	-0.03289658
124	0x3d8c5957	0.06852978
125	0x3e0d1f5f	0.13781498
126	0xbd999ef7	-0.07501023
127	0xbd50d8d6	-0.05098804
128	0x3d83696f	0.06416594
129	0xbe0114b6	-0.12605557
130	0xbdc28e17	-0.09499758
131	0x3e0e10ba	0.13873568
132	0xbd752579	-0.05985019
133	0xbdda48c4	-0.1065841
134	0x3d83f276	0.0644273
135	0x3dd2de0b	0.102962576
136	0xbd21db77	-0.03951594
137	0x3da6222f	0.08111989
138	0xbd30236b	-0.043002527
139	0xbdba8305	-0.09107021
140	0xbc874832	-0.016513918
141	0xbc6c32e2	-0.014416428
142	0xbc56a94b	-0.013101886
143	0x3e8d90b8	0.27649474
144	0x3e0e5b9e	0.13902137
145	0x3ddb73f3	0.10715475
146	0x3df9b081	0.121918686
147	0xbdbdd7fd	-0.09269712
148	0xbd816131	-0.06317366
149	0x3c4bdf58	0.012443386
150	0xbd6630ec	-0.056199
151	0xbca8f9e8	-0.020626977
152	0x3dcb8e48	0.09939247
153	0xbc4c8a7e	-0.012484191
154	0x3e6584db	0.22413962
155	0xbc1e45f9	-0.0096602375
156	0xbdc87896	-0.09788625
157	0xbe395818	-0.18100011
158	0xbe433114	-0.1906169
159	0x3e1c3b57	0.15257011
160	0xbc077229	-0.008266964
161	0xbc1984f9	-0.009370082
162	0x3dbbe8bc	0.0917525
163	0x3dec5367	0.11539345
164	0xbdd69a29	-0.104786225
165	0xbce499c3	-0.02790535
166	0x3e4ee167	0.20203172
167	0x3e436f83	0.19085507
168	0x3d506ea0	0.05088675
169	0xbd3d7411	-0.046253268
170	0xbca29fea	-0.019851644
171	0x3e0a23c8	0.13490212
172	0x3d5b0b52	0.053477593
173	0x3bddec66	0.0067725657
174	0xbb425bc9	-0.002965676
175	0x3dd62301	0.10455895
176	0x3df9e256	0.12201373
177	0x3dce3b99	0.10069961
178	0xbd22b75a	-0.03972564
179	0x3c2c49c3	0.010515633
180	0x3de0d985	0.109789886
181	0x3d634646	0.05548694
182	0x3e46a1f4	0.19397718
183	0xbbd8c006	-0.006614688
184	0xbdd5a62f	-0.10432088
185	0x3dcfca17	0.101459675
186	0xbca230ef	-0.019798724
187	0x3d041c0f	0.03225332
188	0xbc3e2655	-0.011605819
189	0x3e9363f6	0.28787202
190	0xbd987e93	-0.07446017
191	0x3e149a32	0.14511946
192	0x3e4fd60e	0.20296499
193	0x3cfb5c6e	0.030683722
194	0x3d84d1a4	0.06485298
195	0xbd9b2dfa	-0.07577129
196	0xbcf19b08	-0.02949287
197	0x3cf9f6ee	0.030513253
198	0x3e216c27	0.15763913
199	0xb9ddf504	-0.00042334956
200	0x3d481885	0.04885151
201	0x3cc523e6	0.02406497
202	0x3e235e92	0.15954044
203	0x3e0b6ba9	0.13615288
204	0xbe5a7f89	-0.21337713
205	0x3e0ece5e	0.1394591
206	0x3d97da3a	0.0741467
207	0x3e99d9a9	0.30048874
208	0xbdd89663	-0.10575559
209	0x3ce30ec5	0.027717004
210	0x3e4c2cc4	0.19938952
211	0x3e83e8d9	0.25763586
212	0xbe5598a9	-0.20859016
213	0xbdb94df8	-0.090480745
214	0x3ed38ebb	0.41319832
215	0x3e51c7fd	0.20486446
216	0xbcaaae95	-0.0208352
217	0xbd2af2b8	-0.04173538
218	0x3da3d34a	0.079992846
219	0x3e3a36b3	0.18184929
220	0xbc9eedc8	-0.019400492
221	0xbd886e15	-0.066616215
222	0x3cb24081	0.021759273
223	0xbdf94629	-0.12171585
224	0xbd761d33	-0.06008644
225	0xbb9153c9	-0.004435037
226	0xbdb970f8	-0.0905475
227	0xbbc3b351	-0.005972304
228	0xbde88cea	-0.11355002
229	0xbceb9efb	-0.028762331
230	0x3d214bdd	0.03937899
231	0xbde86099	-0.113465495
232	0xbce7809f	-0.028259574
233	0xbd812545	-0.06305937
234	0xbca6ac80	-0.020345926
235	0x3dd76e93	0.10519137
236	0xbe0e6368	-0.13905108
237	0x3c4e6009	0.012596139
238	0xbd3a3eca	-0.045470037
239	0xbbcbe420	-0.006222263
240	0xbd16dee7	-0.03683367
241	0x3dc073d5	0.09397093
242	0xba670aed	-0.0008813579
243	0x3d698034	0.05700703
244	0x3b25fb18	0.0025326665
245	0x3d67e7ca	0.056617536
246	0x3e02b64f	0.12764858
247	0xb9caec44	-0.00038704474
248	0xbd8c991b	-0.0686514
249	0x3abd1bc9	0.0014427836
250	0x3dab4819	0.08363361
251	0x3e2cf4ae	0.16890213
252	0x3d4cb880	0.04998064
253	0x3d7deadf	0.06199157
254	0x3e383c67	0.17991792
255	0xbc363066	-0.0111199375

network_body.observation_encoder.processors.0.conv_layers.2.bias f4 [32]
0	0xbddd5b12	-0.10808386
1	0xbdf09374	-0.117468745
2	0x3c8ca8e8	0.017170385
3	0xbe0136bd	-0.12618537
4	0xbe653f9c	-0.22387546
5	0xbe14fb77	-0.14549051
6	0xbda05d7f	-0.07830333
7	0xbe7011fb	-0.23444359
8	0xbda8c583	-0.08240797
9	0xbd1d50b8	-0.038407058
10	0xbe88f355	-0.26748148
11	0xbd553080	-0.052048206
12	0xbc848a60	-0.016179264
13	0xbdf213d0	-0.11820185
14	0xbe0a687a	-0.13516417
15	0xbdd68840	-0.104752064
16	0xbde03121	-0.109468706
17	0xbe27ce86	-0.16387376
18	0xbdf6939b	-0.12039872
19	0xbe1ac992	-0.15115955
20	0xbd9cc963	-0.07655599
21	0xbde4373c	-0.111433476
22	0xbd236ea2	-0.03990043
23	0xbe11d08b	-0.14239709
24	0xbe22e422	-0.15907338
25	0xbd9183bb	-0.07105204
26	0x3baace4f	0.005212582
27	0xbade2a58	-0.0016949875
28	0xbdb5fd4b	-0.088862024
29	0xbdbf4370	-0.093390346
30	0xbdc4d1d3	-0.09610333
31	0xbd1166ac	-0.035498306

network_body.observation_encoder.processors.0.dense.0.weight f4 [128, 512]
0	0x3e3a74cb	0.18208615
1	0xbd9d88b2	-0.07692088
2	0xbe5ec633	-0.21755295
3	0x3decb167	0.11557274
4	0xbd8cf80d	-0.068832494
5	0xbde635c9	-0.112407275
6	0xbdc6b284	-0.09702018
7	0x3d47e5b7	0.048803058
8	0xbd995759	-0.07487363
9	0xbc4a017c	-0.012329455
10	0xbdbcbe14	-0.09215942
11	0x3da2633f	0.07929086
12	0x3e57a7cf	0.21060108
13	0xbdd554a0	-0.104165316
14	0x3ddc3ae2	0.107534185
15	0x3d26af23	0.040694367
16	0xbdf12428	-0.117744744
17	0xbdb7406d	-0.08947835
18	0x3de082cb	0.10962447
19	0xbd28538c	-0.0410953
20	0xbe9fb2b6	-0.31191033
21	0x3b8e3572	0.0043398673
22	0xbdb05671	-0.086102374
23	0x3dce37dc	0.10069248
24	0x3c666842	0.014062943
25	0x3db2c813	0.087295674
26	0x3c2e33a1	0.0106324265
27	0x3d42166b	0.04738466
28	0x3e797f61	0.24364997
29	0x3e7b2972	0.24527529
30	0xbdb8c848	-0.090225756
31	0x3dc3080d	0.0952302
32	0xbda4472e	-0.08021389
33	0xbe657e18	-0.22411382
34	0xbd8d490a	-0.06898697
35	0xbe1d328f	-0.15351318
36	0xbdfa53f9	-0.12223048
37	0xbdc5051c	-0.09620115
38	0xbe97eab9	-0.29671267
39	0x3d9014cc	0.07035217
40	0x3cdd8ca6	0.027044605
41	0x3de5ec35	0.112266935
42	0xbe4ba617	-0.19887577
43	0x3dfc9822	0.123337045
44	0x3df5de71	0.12005318
45	0xbd821331	-0.06351317
46	0x3dd312a3	0.10306289
47	0xbe014f32	-0.12627867
48	0xbda486ff	-0.08033561
49	0xbdfb8d55	-0.12282816
50	0x3d8d9daa	0.06914838
51	0x3d4f5dff	0.05062675
52	0xbdbfab59	-0.09358854
53	0xbddfc3d0	-0.1092602
54	0xbe7351ec	-0.2376172
55	0xbdd33700	-0.10313225
56	0x3d5b7a75	0.05358358
57	0xbd9edb18	-0.077566326
58	0xbd16f889	-0.036858115
59	0x3e0d0167	0.13770066
60	0x3ea53ce0	0.32273006
61	0x3dea757f	0.11448192
62	0xbce80ce8	-0.028326467
63	0x3dfa57b2	0.12223758
64	0x3dd08fe1	0.10183693
65	0xbc73ed59	-0.014888131
66	0xbbe4d880	-0.0069838166
67	0xbd749987	-0.059716728
68	0xbd6e6f48	-0.058211595
69	0x3cdba074	0.026809908
70	0xbda075df	-0.07834982
71	0xbd57e1e1	-0.05270565
72	0x3def8fc8	0.11697346
73	0x3d0062eb	0.031344336
74	0xbe04504e	-0.12921259
75	0xbda8d884	-0.08244422
76	0xbe45e160	-0.19324255
77	0x3e47fdc8	0.19530404
78	0x3dcd4d56	0.10024516
79	0xbcd22a7c	-0.025655024
80	0xbcf2061a	-0.029543925
81	0x3e04a1e3	0.1295238
82	0x3df57274	0.11984721
83	0xbe0df205	-0.13861854
84	0xbe8065ca	-0.2507766
85	0xbdee550a	-0.11637314
86	0xbd69f4df	-0.057118293
87	0x3d0810d3	0.03321917
88	0xbd512220	-0.051057935
89	0x3deebeab	0.11657461
90	0xbeb7ca87	-0.35896704
91	0x3e426f95	0.18987878
92	0x3d41948d	0.04726081
93	0x3ebf5dd0	0.3737626
94	0xbe211b58	-0.15733087
95	0xbe107aba	-0.14109316
96	0xbdf76263	-0.12079313
97	0xbe430d51	-0.19048049
98	0xbe4f47cc	-0.20242232
99	0xbe19b47c	-0.15010256
100	0xbdee4371	-0.11633957
101	0xbd337c14	-0.043819502
102	0xbdbe81ee	-0.09302126
103	0x3c81f0d8	0.015861914
104	0x3da21cde	0.07915662
105	0xbdb234ab	-0.08701452
106	0xbd846a74	-0.06465617
107	0xbe039116	-0.12848315
108	0xbdcbf950	-0.09959662
109	0x3dc46f76	0.09591572
110	0xbeaff5f1	-0.34367326
111	0xbe502559	-0.20326747
112	0x3d4c4ac1	0.04987598
113	0xbdc46bbf	-0.095908634
114	0x3ddc69bb	0.10762354
115	0x3e0e27d4	0.1388238
116	0xbd45bc34	-0.048275188
117	0xbe12b651	-0.1432736
118	0xbda27a6f	-0.079335086
119	0x3e173b51	0.14768721
120	0x3e19e244	0.1502772
121	0xbd77d0e5	-0.06050195
122	0xbd9df6c4	-0.077130824
123	0x3e086841	0.1332102
124	0x3e8e0785	0.27740112
125	0xbd07ee59	-0.03318629
126	0xbe1168be	-0.14200112
127	0x3c41350a	0.011792431
128	0xbcac1324	-0.02100522
129	0xbe205b56	-0.15659842
130	0xbb944b8d	-0.004525608
131	0x3dec5b63	0.11540868
132	0xbe40ce8f	-0.18828796
133	0xbdb171f9	-0.08664317
134	0xbc431fd3	-0.011909443
135	0x3da822ec	0.08209786
136	0xbe12470c	-0.14284915
137	0x3c5f6dd6	0.013637027
138	0xbd8ede45	-0.06975988
139	0x3c8fbc38	0.017545804
140	0x3b8a84b6	0.004227246
141	0x3e2cb432	0.16865614
142	0xbe1222ea	-0.14271131
143	0x3cec21dc	0.02882474
144	0x3e87326f	0.26405665
145	0xbdb7655f	-0.08954882
146	0xbc4f44bd	-0.012650666
147	0x3d79b842	0.060966738
148	0x3db5d0e7	0.088777356
149	0x3d1195bd	0.035543192
150	0xbd295865	-0.041344065
151	0xbe6f2bb2	-0.23356512
152	0x3df18597	0.11793058
153	0xbac84d41	-0.0015281813
154	0xbde6be89	-0.112668104
155	0xbd3186c7	-0.043341424
156	0x3e057587	0.13033114
157	0x3cd9c339	0.026582347
158	0x39d94457	0.00041440382
159	0x3e881a7c	0.26582706
160	0x3e814808	0.25250268
161	0xbe18cfc0	-0.14923
162	0xbd83d1c5	-0.06436495
163	0x3ca216bd	0.019786233
164	0x3e1c75ac	0.15279263
165	0xbd88196a	-0.06645472
166	0x3d177a71	0.036982004
167	0x3da3dbc7	0.080009036
168	0x3e35873f	0.17727374
169	0x3dba4fed	0.09097276
170	0xbdc7bcb0	-0.09752786
171	0xbddf1bb0	-0.10893953
172	0x3e2cc71f	0.16872834
173	0x3e03f86b	0.12887733
174	0xbd3778bb	-0.044792872
175	0xbdd6044c	-0.10450038
176	0x3d580562	0.05273951
177	0xbe142a8f	-0.1446936
178	0x3bc28ca8	0.0059371777
179	0x3d36cdfd	0.04463004
180	0xbdd7af89	-0.105315275
181	0x3dfb887d	0.122818924
182	0xbe7d0cac	-0.24711865
183	0x3da762c3	0.08173134
184	0x3e246cd9	0.16057147
185	0xbd8fd407	-0.07022863
186	0xbc4e3197	-0.012585065
187	0xbe49d8fb	-0.19711678
188	0x3e0eea8e	0.13956663
189	0x3e32279c	0.17397922
190	0x3e7e9909	0.24863066
191	0x3e96d855	0.29461923
192	0xbdcb4f21	-0.09927202
193	0xbd2374b7	-0.03990623
194	0xbe0eb560	-0.13936377
195	0xbd52219f	-0.051301595
196	0xbcfb1ab5	-0.030652383
197	0xbdad6046	-0.08465628
198	0xbe6cf959	-0.23141994
199	0x3cb1b302	0.021691803
200	0x3c03997c	0.008032199
201	0x3d9b573c	0.07584998
202	0xbe8326a5	-0.2561542
203	0xbcb6f3c0	-0.022333026
204	0xbd154c02	-0.03644944
205	0x3e458551	0.19289137
206	0xbef38f83	-0.47570428
207	0xbe4b1fdd	-0.19836374
208	0xbe7ba4e0	-0.24574614
209	0x3debba70	0.115101695
210	0xbe772c42	-0.24137977
211	0xbd874750	-0.06605399
212	0xbe97e364	-0.29665673
213	0xbd85d991	-0.06535638
214	0xbea652a2	-0.3248492
215	0x3e288de9	0.16460384
216	0x3e304a84	0.17215925
217	0x3da7148f	0.08158218
218	0xbe47a47d	-0.19496341
219	0x3d510fcd	0.05104046
220	0x3dc1edbb	0.094691716
221	0x3d3d137d	0.046161164
222	0xbde48353	-0.111578606
223	0x3e55b216	0.20868716
224	0x3d21cd45	0.0395024
225	0x3e201652	0.15633515
226	0x3d077571	0.033070985
227	0x3d10a6a8	0.035315186
228	0xbe2fa15c	-0.17151397
229	0xbe5230d8	-0.20526445
230	0xbe2aba62	-0.16672662
231	0xbe0df051	-0.13861205
232	0x3cea6968	0.028614715
233	0xbd9121ba	-0.07086511
234	0xbdbc985c	-0.09208748
235	0x3ddab274	0.106785685
236	0x3dff782b	0.12474092
237	0x3e2a4235	0.16626818
238	0xbdd24ab8	-0.10268158
239	0x3e23b07c	0.15985292
240	0xbd366736	-0.044532023
241	0xbe42a00f	-0.1900637
242	0xbe821181	-0.2540398
243	0xbc1f8aac	-0.009737652
244	0xbd584043	-0.05279566
245	0xbea25d0c	-0.31711614
246	0xbdcfc7d3	-0.10145535
247	0x3e16d095	0.14728005
248	0xbdd89fc9	-0.105773516
249	0xbd0e1459	-0.034687374
250	0xbeae2cfb	-0.34018692
251	0x3de88aca	0.11354597
252	0xbd021666	-0.031759642
253	0xbe7bc7ab	-0.24587886
254	0xbe934ac8	-0.2876799
255	0xbd3992a8	-0.045305878

network_body.observation_encoder.processors.0.dense.0.bias f4 [128]
0	0xbcf4ee77	-0.029898865
1	0xbe1b2830	-0.15152049
2	0x3dad912b	0.08474954
3	0x3e1ef431	0.15522839
4	0xbe254c66	-0.16142425
5	0x3c511b01	0.012762786
6	0xbe1eff2a	-0.15527025
7	0x3d27bdf0	0.040952623
8	0xbda695d9	-0.0813405
9	0xbca82936	-0.020527463
10	0x3d75cef2	0.06001181
11	0xbd6a99b7	-0.0572755
12	0x3d225c71	0.03963894
13	0xbe1de8af	-0.15420793
14	0xbdad864c	-0.08472881
15	0xbc6c7262	-0.014431568
16	0xbd57e7cf	-0.052711304
17	0x3d344e76	0.04402014
18	0xbdc251a5	-0.09488229
19	0xbc754708	-0.014970548
20	0x3aaa401e	0.0012989079
21	0x3d84df99	0.0648796
22	0xbd63c4d0	-0.055607617
23	0x3e00b5ee	0.125694
24	0xbe065f4a	-0.13122287
25	0xbe0a9e3b	-0.13536923
26	0xbe443b5a	-0.19163266
27	0xbd9d2510	-0.07673085
28	0x3c68e44f	0.014214589
29	0x3e382796	0.17983851
30	0xbe2a98b3	-0.16659813
31	0xbdeb2d4a	-0.114832476
32	0xbe0b0733	-0.13576965
33	0x3e6a7891	0.22897555
34	0xbdaface8	-0.08577901
35	0xbe52da73	-0.20591144
36	0x3d86d14a	0.065828875
37	0x3af4f535	0.00186888
38	0xbd106ed8	-0.03526196
39	0x3d2a2703	0.04154111
40	0xbe0545e4	-0.13014942
41	0x3df2d1ef	0.11856448
42	0xbb8a96c4	-0.0042293984
43	0x3e43c997	0.19119869
44	0xbd10d731	-0.035361473
45	0xbbb53da0	-0.005531028
46	0xbc9bbd15	-0.01901106
47	0x3e1425a4	0.14467484
48	0xbdf4822f	-0.11938893
49	0x3c1182fb	0.008881326
50	0x3cf15901	0.029461386
51	0x3e14fbca	0.14549175
52	0x3c0f15fa	0.008733267
53	0xbc86182f	-0.016368954
54	0x3dd1ea63	0.10249784
55	0xbdf25fd8	-0.11834687
56	0x3d8f94d8	0.070108116
57	0x3dea91bf	0.1145358
58	0xbd169161	-0.036759738
59	0xbe0afa66	-0.13572082
60	0xbdeddd06	-0.116144225
61	0xbcab28e5	-0.020893523
62	0x3dafc94a	0.08583315
63	0x3de681b0	0.11255205
64	0xbced62b9	-0.028977739
65	0xbe44394f	-0.19162486
66	0x3d935fa3	0.07195976
67	0x3e25183d	0.16122527
68	0xbd8b2e9e	-0.06796001
69	0xbe56513e	-0.20929429
70	0xbd7fd420	-0.062458158
71	0xbcfd6fcc	-0.030937098
72	0x3c31efac	0.010860365
73	0x3d96c89b	0.07362481
74	0x3da922b0	0.08258569
75	0xbdd356b4	-0.10319272
76	0xbcc6d367	-0.024270726
77	0x3e36abd4	0.17838985
78	0x3c174dfd	0.009234902
79	0x3dd417cc	0.103561014
80	0xbdbbf35a	-0.09177275
81	0xbd4117e9	-0.047141943
82	0x3c613fcc	0.0137481205
83	0xbd876293	-0.066105984
84	0xbdf9af72	-0.12191667
85	0x3cec0d56	0.028814953
86	0xbde05105	-0.10952953
87	0x3e2de4bb	0.16981785
88	0xbbec0fe2	-0.007204042
89	0x3dd54e68	0.104153454
90	0x3b7dc88c	0.0038724272
91	0xbbde82dc	-0.006790502
92	0xbdd5765a	-0.104229644
93	0x3c6e8574	0.014558185
94	0x3bb7833f	0.0056003626
95	0x3d0aae79	0.033857796
96	0xbcfdb909	-0.03097202
97	0xbe2aaa73	-0.16666584
98	0xbd8eea0f	-0.06978237
99	0x3dbdaf47	0.09261947
100	0x3cbc1571	0.022959443
101	0xbbb22187	-0.0054361257
102	0x3de6ea0a	0.11275108
103	0xbd6fe5f0	-0.058568895
104	0x3c1bd6e9	0.009511688
105	0x3dd6cec6	0.10488658
106	0xbe3264da	-0.17421284
107	0x3d94b50b	0.07261094
108	0xbe5101c1	-0.20410825
109	0x3d9063d1	0.070502885
110	0x3cc32718	0.023822352
111	0x3da841a9	0.08215649
112	0xbe98dace	-0.29854435
113	0xbd9d548a	-0.0768214
114	0xbd8a79c5	-0.06761507
115	0xbdf7a041	-0.12091113
116	0x3c696c07	0.014246947
117	0x3d01d2a0	0.03169501
118	0xbe1408ae	-0.14456436
119	0xbd79f8ca	-0.06102828
120	0xbe2867c4	-0.16445833
121	0xbe895acd	-0.26827088
122	0xbe1b0332	-0.15137938
123	0xbd2fd7de	-0.042930476
124	0xbe3fe333	-0.18739013
125	0xbd0dcc26	-0.03461852
126	0xbd2f21de	-0.042756908
127	0xbe773295	-0.2414039

network_body._body_endoder.seq_layers.0.weight f4 [128, 128]
0	0x3c856644	0.016284116
1	0x3e425160	0.18976355
2	0x3cdf0c52	0.027227554
3	0xbda87295	-0.0822498
4	0xbc71aa41	-0.014750064
5	0x3e15b2ce	0.1461899
6	0x3e82220d	0.25416604
7	0xbb9f7157	-0.004865806
8	0x3db2cc8a	0.08730419
9	0x3c340c02	0.010989191
10	0xbd9a7f6d	-0.07543836
11	0x3dd89cb9	0.105767675
12	0xbe506f23	-0.20354895
13	0xbcddc71c	-0.027072482
14	0xbe251b95	-0.16123803
15	0x3d85ac84	0.06527045
16	0x3d4d3344	0.05009772
17	0xbe80d3a6	-0.25161475
18	0xbd5ec92e	-0.05439108
19	0xbdd9fad5	-0.106435455
20	0xbe51c52f	-0.20485376
21	0x3ceee3ab	0.029161295
22	0xbe52a1b3	-0.20569496
23	0xbea71ce6	-0.32639235
24	0x3e18a1fd	0.14905544
25	0xbd8c8776	-0.068617746
26	0xbe7d14c9	-0.2471496
27	0xbd9b57c1	-0.07585097
28	0x3e148cc6	0.14506826
29	0xbe80ac94	-0.25131667
30	0x3eadfa50	0.33980036
31	0x3d2c562f	0.04207438
32	0xbca17cd4	-0.019712843
33	0xbeefbb00	-0.46822357
34	0xbc66b109	-0.014080294
35	0x3cf5b7dd	0.0299949
36	0xbe724939	-0.23660745
37	0xbd245fc2	-0.040130384
38	0xbe412c92	-0.18864658
39	0xbdc48131	-0.09594954
40	0x3d9c82ee	0.0764216
41	0xbea661a8	-0.3249638
42	0xbdda4eef	-0.10659587
43	0xbe0ae390	-0.1356337
44	0x3d2fd63e	0.042928927
45	0x3d7b1f46	0.06130912
46	0xbd429609	-0.047506366
47	0xbe9edb08	-0.31026483
48	0xbdf48829	-0.11940033
49	0xbe4556d3	-0.19271402
50	0xbdb7f319	-0.08981914
51	0xbe28991e	-0.1646466
52	0xbe347b3c	-0.17625135
53	0x3e0a7bd3	0.13523798
54	0xbe801929	-0.25019196
55	0x3e0fdf74	0.14050084
56	0xbeb0500d	-0.34436074
57	0xbeaa5630	-0.3326888
58	0xbe288db0	-0.164603
59	0x3d6073fe	0.05479812
60	0xbd09e41d	-0.03366481
61	0x3c43cafd	0.011950252
62	0xbeb3b1f8	-0.35096717
63	0x3e2b6570	0.16737914
64	0x3d32ba4e	0.043634705
65	0xbc8fd94d	-0.017559672
66	0xbe0149c4	-0.12625796
67	0xbed93f3e	-0.42431062
68	0x3d343964	0.044000044
69	0x3e0b3c3e	0.135972
70	0x3e0cb2f1	0.13740136
71	0xbdc3fad6	-0.095693275
72	0xba951858	-0.0011375053
73	0xbe6d3c28	-0.23167479
74	0xbe9a11f4	-0.30091822
75	0x3dd8a2b9	0.10577912
76	0x3d8bfe28	0.06835586
77	0xbe296471	-0.16542222
78	0xbe2b0c27	-0.16703855
79	0xbe7bc3c6	-0.245864
80	0xbd925231	-0.07144583
81	0xbccc9111	-0.024971517
82	0xbe1ff863	-0.15622096
83	0xbdd6d424	-0.10489681
84	0x3e63e127	0.22253858
85	0xbe22629c	-0.15857929
86	0x3d97ba75	0.07408611
87	0xbe2dd4d0	-0.16975713
88	0x3e0a0cb0	0.13481402
89	0xbea9cfb3	-0.33166274
90	0x3d074caa	0.033032097
91	0xbdd9620e	-0.106144056
92	0x3ca44dda	0.020056654
93	0xbcf67bef	-0.030088393
94	0xbd948cc1	-0.07253409
95	0x3dbcdd7e	0.09221934
96	0x3e8a4388	0.27004647
97	0x3e0ee3fb	0.13954155
98	0x3d478dda	0.048719265
99	0xbea675af	-0.3251166
100	0xbec05434	-0.37564242
101	0xbc613ca2	-0.013747366
102	0xbe85b79a	-0.2611664
103	0xbdc342a1	-0.09534193
104	0x3dce50bc	0.100739926
105	0xbeaa2454	-0.3323084
106	0xbd18eff6	-0.03733822
107	0xbd8e445a	-0.06946631
108	0x3e962acf	0.29329535
109	0xbe289496	-0.16462931
110	0xbd7235a3	-0.059133183
111	0x3dc2d6ed	0.0951365
112	0xbe509a28	-0.20371306
113	0xbcdbc7a9	-0.026828604
114	0xbd9c79ae	-0.07640396
115	0x3c9f2219	0.019425439
116	0x3e85974f	0.26092002
117	0x3b441456	0.0029919348
118	0x3d4999f1	0.049219076
119	0xbe4dec9e	-0.20109794
120	0xbe4eaede	-0.20183894
121	0xbd25d230	-0.040483654
122	0xbdb5279a	-0.08845444
123	0xbc29c778	-0.010362498
124	0xbe4bc1f4	-0.19898206
125	0x3e08ce86	0.13360032
126	0xbe46d6a6	-0.1941782
127	0x3e1a7dbb	0.15087025
128	0xbe08b09f	-0.13348626
129	0xbe25bdd2	-0.16185692
130	0x3d90b904	0.07066539
131	0xbc9c4b74	-0.019078948
132	0xbc9155eb	-0.017741164
133	0x3d69ba53	0.05706246
134	0x3e957d76	0.29197282
135	0xbe9cf85b	-0.3065823
136	0xbe6b947a	-0.23005858
137	0xbce719a0	-0.028210461
138	0xbe2ce773	-0.16885166
139	0xbe460a6a	-0.1933991
140	0xbd969452	-0.073525086
141	0xbe399b06	-0.18125543
142	0xbebfb0e4	-0.37439644
143	0xbdab9faa	-0.08380063
144	0xbe0031dc	-0.1251902
145	0xbdfbe748	-0.12299973
146	0x3cadb477	0.021204216
147	0xbe9e5c79	-0.30929926
148	0xbd1122aa	-0.03543345
149	0x3e2d9f09	0.16955198
150	0xbe681e15	-0.22667725
151	0xbda30614	-0.07960144
152	0xbd7365a8	-0.05942312
153	0xbe956e32	-0.29185635
154	0xbd641646	-0.055685304
155	0x3d752174	0.059846357
156	0xbde27736	-0.11057894
157	0x3cf1f7fb	0.029537192
158	0xbdfd7fe2	-0.12377907
159	0xbdc63fb0	-0.09680116
160	0xbe39bbf0	-0.18138099
161	0xbdbbdcd2	-0.091729775
162	0xbe73c2c5	-0.23804767
163	0xbe6510ef	-0.22369741
164	0xbd3d403f	-0.046203848
165	0xbecf7ca4	-0.4052478
166	0xbd811a11	-0.063038
167	0xbe073df6	-0.1320723
168	0xbe82a59c	-0.25516975
169	0x3deb8592	0.11500086
170	0xbe0a19d1	-0.1348641
171	0x3e36776d	0.17818995
172	0x3d421d40	0.047391176
173	0xbea2e1ac	-0.318128
174	0xbc9b8ce5	-0.018988082
175	0xbc2ef5a6	-0.010678684
176	0xbe8c1ce8	-0.27365804
177	0xbe0156c9	-0.12630762
178	0xbd98c97d	-0.07460306
179	0xbc4ffb34	-0.012694169
180	0x3db544ae	0.0885099
181	0xbeb3cac6	-0.3511564
182	0x3d2bbd0b	0.041928332
183	0x3eb484fb	0.35257706
184	0x3d45dfe4	0.048309222
185	0x3cb40281	0.02197385
186	0xbdb35fd6	-0.08758514
187	0xbe499199	-0.19684447
188	0xbe23597e	-0.15952107
189	0xbdeccf64	-0.11562994
190	0xbc9b793d	-0.01897871
191	0x3e213c78	0.15745723
192	0xbdd0050f	-0.10157215
193	0xbe6d7290	-0.23188233
194	0x3e145ea0	0.14489222
195	0x3cb6c6a2	0.022311512
196	0xbe013eab	-0.12621562
197	0x3cf4b556	0.029871624
198	0xbdb8b7dc	-0.090194434
199	0xbe8217b4	-0.2540871
200	0xbbab5290	-0.005228348
201	0xbe1281b7	-0.14307295
202	0x3e89913a	0.26868612
203	0xbdbb8a87	-0.09157281
204	0x3daf6794	0.08564678
205	0x3e89c115	0.26905122
206	0x3e13c4a4	0.14430481
207	0x3cbd7d7f	0.02313113
208	0xbcc785d3	-0.024355805
209	0x3dc4ce0f	0.09609615
210	0xbe694b59	-0.22782649
211	0xbe401289	-0.1875707
212	0xbe94687f	-0.28985974
213	0xbc3954fc	-0.011311766
214	0xbe3e8e99	-0.18609084
215	0x3c9e586f	0.019329278
216	0x3d363aab	0.044489544
217	0x3d1b4909	0.03791145
218	0xbe7c34e8	-0.24629557
219	0x3e4b0bb6	0.19828686
220	0xbe73d6c5	-0.23812397
221	0x3b609379	0.0034267588
222	0x3dc247c3	0.09486344
223	0x3db0a5fb	0.08625408
224	0xbea0a02d	-0.31372204
225	0xbde0d34f	-0.10977804
226	0x3bc4f2e0	0.0060103983
227	0xbd0fac0c	-0.035076186
228	0x3e085e97	0.13317333
229	0xbdbe0d84	-0.09279922
230	0x3dfca2e5	0.12335757
231	0x3c35f0bc	0.011104759
232	0xbdca165b	-0.09867545
233	0x3e1ea885	0.15493973
234	0x3d888244	0.06665471
235	0x3e99f637	0.3007066
236	0xbc117c4f	-0.008879735
237	0x3e36b679	0.17843045
238	0xbe9b5eac	-0.30345666
239	0x3e01269c	0.12612385
240	0xbe0da907	-0.1383401
241	0xbd6eae21	-0.05827153
242	0xbe0cf4fc	-0.13765329
243	0xbe4149f3	-0.18875866
244	0xbdadc841	-0.08485461
245	0x3c928d20	0.01788956
246	0xbe2908a1	-0.16507198
247	0xbe354529	-0.17702164
248	0xbe9fa730	-0.3118224
249	0x3d55acbe	0.052166693
250	0xbea3f30f	-0.32021376
251	0xbdd91037	-0.10598796
252	0xbca15a8b	-0.019696495
253	0xbcd43947	-0.025906218
254	0xbd28431b	-0.04107962
255	0x3c5ca5e2	0.013467284

network_body._body_endoder.seq_layers.0.bias f4 [128]
0	0xbe4c95cf	-0.19979022
1	0x3d9dea47	0.077107005
2	0xbd897404	-0.06711581
3	0xbe5799de	-0.2105479
4	0x3dbdc1f3	0.092655085
5	0xbe5b2b86	-0.21403322
6	0xbe1678a0	-0.14694452
7	0x3db47538	0.0881142
8	0xbd4e96fe	-0.050436966
9	0xbe82e464	-0.25564873
10	0xbe584351	-0.21119429
11	0xbd3846c1	-0.04498935
12	0xbeb66015	-0.3562018
13	0xbe9331cd	-0.28748932
14	0x3e0dc0b5	0.13843043
15	0xbdbea8bb	-0.093095265
16	0x3e19ccf5	0.15019591
17	0xbe81f067	-0.25378725
18	0xbcd43bee	-0.025907483
19	0xbe47043c	-0.19435209
20	0xbe7871c4	-0.24262148
21	0xbde66924	-0.11250523
22	0xbcb1ecca	-0.021719355
23	0x3d5ddb32	0.05416412
24	0xbea41fb6	-0.32055444
25	0x3e0b297f	0.13590048
26	0xbe21356a	-0.15743032
27	0x3cc328c5	0.023823151
28	0xbe1975b9	-0.14986314
29	0x3e09e029	0.13464417
30	0xbd7eca49	-0.062204633
31	0x3d9836d6	0.07432334
32	0xbe6cb8c0	-0.23117352
33	0xbe7a1ce9	-0.24425091
34	0xbe728a18	-0.23685491
35	0xbeb7f5a5	-0.359296
36	0xbd8e0f39	-0.06936497
37	0xbe291b3a	-0.16514292
38	0xbe288c43	-0.16459756
39	0xbdb9f2c0	-0.09079504
40	0xbeb143b2	-0.3462196
41	0x3ce92761	0.02846116
42	0xbe4da609	-0.20082869
43	0xbe85e017	-0.2614753
44	0xbdf7a174	-0.120913416
45	0xbd2967e7	-0.041358855
46	0x3c9bead7	0.019032879
47	0x3db9dc19	0.090751834
48	0xbe5fd880	-0.21859932
49	0xbd0fe6a5	-0.03513207
50	0xbb36c841	-0.0027890357
51	0xbe519d97	-0.20470272
52	0xbcfa3b74	-0.030545928
53	0xbe5a87ab	-0.21340816
54	0xbe947400	-0.2899475
55	0x3c12e394	0.008965392
56	0xbe9addd2	-0.3024736
57	0x3d64f1d2	0.05589468
58	0x3be43d60	0.0069653243
59	0xbe1f59ff	-0.15561675
60	0xbdfd0e22	-0.12356211
61	0xbe48ba3e	-0.19602296
62	0xbe31250d	-0.1729929
63	0x3d9fab4f	0.077963464
64	0xbe456879	-0.19278134
65	0x3dc766fe	0.09736441
66	0x3d498ed8	0.049208492
67	0x3e0e661e	0.13906142
68	0xbe4e1554	-0.20125324
69	0xbe28264d	-0.1642086
70	0x3e19d3c6	0.15022191
71	0x3d91b8cb	0.071153246
72	0xbe1b4938	-0.1516465
73	0x3ddd17a9	0.107955284
74	0xbe857386	-0.260647
75	0xbc2ac9f9	-0.010424131
76	0xbe6c666d	-0.23085947
77	0xbead3917	-0.3383262
78	0xbe5bdc68	-0.21470797
79	0xbd72f509	-0.059315715
80	0xbe7e196a	-0.24814382
81	0x3d19b984	0.037530437
82	0xbe950a5e	-0.29109472
83	0xbe883e19	-0.26609877
84	0xbdb29357	-0.08719509
85	0xbe58eaf9	-0.21183385
86	0xbe8c4e50	-0.27403498
87	0xbbd4bd38	-0.006492283
88	0x3d0b9bf3	0.03408427
89	0xbc38c1d4	-0.011276681
90	0xbd1e8a52	-0.03870613
91	0xbe7242cc	-0.23658293
92	0xbc0650dc	-0.008197989
93	0xbea69673	-0.3253666
94	0x3c302395	0.010750671
95	0x3d9b9d8e	0.075984105
96	0xbe8917e5	-0.26776043
97	0x3da23a7e	0.07921313
98	0xbe55735e	-0.2084479
99	0xbe8c30e2	-0.27381045
100	0x3d903828	0.07041961
101	0xbe430330	-0.19044185
102	0xbeb6b84d	-0.35687485
103	0x3d62b50a	0.055348434
104	0xbe87d450	-0.2652917
105	0xbe17bff3	-0.14819317
106	0xbe68fd6c	-0.22752923
107	0xbd163d2e	-0.03667944
108	0xbeaef947	-0.3417456
109	0xbe466553	-0.1937459
110	0xbd27c4bc	-0.040959105
111	0xbea48882	-0.32135397
112	0xbe2fdbf1	-0.17173745
113	0x3d563785	0.05229904
114	0xbb90622b	-0.004406234
115	0xbd3bb430	-0.045826137
116	0x3d69cafe	0.057078354
117	0x3c2954ad	0.01033513
118	0x3dd136f5	0.1021556
119	0xbd2cbe13	-0.042173456
120	0xbeb06b5f	-0.34456918
121	0x3daedefa	0.08538623
122	0xbde48e19	-0.111599155
123	0x3d7ced97	0.06175002
124	0x3d25da57	0.04049143
125	0xbe8292f8	-0.25502753
126	0xbe8dc5e8	-0.27690053
127	0xbe3c6680	-0.18398476

network_body._body_endoder.seq_layers.2.weight f4 [128, 128]
0	0xbe106e16	-0.14104494
1	0xbe2dd76c	-0.16976708
2	0x3cf34509	0.029696004
3	0xbe741453	-0.23835878
4	0x3e314495	0.17311318
5	0xbe54a1cf	-0.2076485
6	0xbe69849f	-0.22804497
7	0xbcdd20a3	-0.026993101
8	0xbe8859b5	-0.2663094
9	0xbb4e4df5	-0.0031479571
10	0xbc5d16aa	-0.013494173
11	0x3d0812ab	0.03322093
12	0x3d580b89	0.052745376
13	0xbb854b7e	-0.0040678373
14	0xbdba4e32	-0.09096946
15	0xbca95d65	-0.020674417
16	0x3c1786bb	0.009248431
17	0x39ee193c	0.00045413699
18	0xbcea9b25	-0.028638432
19	0xbe2b7182	-0.16742519
20	0xbd5e8c96	-0.054333292
21	0xbcb136f1	-0.021632643
22	0x3df89e13	0.12139525
23	0xbde49601	-0.111614235
24	0xbdf89cd1	-0.12139285
25	0xbe2fb60f	-0.17159294
26	0x3d8c244e	0.06842862
27	0xbded65c4	-0.11591676
28	0xbcfb5803	-0.030681616
29	0x3e23640e	0.15956137
30	0xbc75777d	-0.0149821015
31	0xbd451198	-0.04811248
32	0xbe04064e	-0.1289303
33	0xbd775b1a	-0.060389616
34	0xbde7e7be	-0.11323498
35	0x3cb99098	0.022651955
36	0xbdbf3b83	-0.09337523
37	0xbd6e4c6e	-0.058178358
38	0xbce37b12	-0.027768645
39	0x3d45dc88	0.048306018
40	0xbd60a6f3	-0.054846715
41	0x3d8e8c82	0.069603935
42	0xbe0ac918	-0.13553274
43	0x3d040214	0.032228544
44	0x3d969489	0.073525496
45	0x3dca172a	0.098676994
46	0x3dd3055b	0.10303756
47	0x3d49e7a6	0.049293183
48	0xbcabb3c7	-0.020959748
49	0xbd356600	-0.044286728
50	0x3e539601	0.2066269
51	0xbdf169ad	-0.11787734
52	0xbda9f06d	-0.08297811
53	0xbe08e38a	-0.1336805
54	0xbdc4a34d	-0.0960146
55	0xbd33b78c	-0.043876216
56	0xbd4fbf04	-0.050719276
57	0x3dc6bd50	0.09704077
58	0xbc570b02	-0.013125183
59	0x3c8a1b19	0.016858624
60	0xbe85b315	-0.2611319
61	0xbe247168	-0.16058886
62	0xbd0ebfcd	-0.034850884
63	0x3e2429b5	0.16031535
64	0xbdfa3604	-0.12217334
65	0x3e2618d6	0.16220412
66	0x3ccbd6ac	0.024882637
67	0xbd4d3d94	-0.050107554
68	0xbd8fff34	-0.07031098
69	0xbe1e6535	-0.15468295
70	0x3e263ae6	0.16233405
71	0x3d26643b	0.04062293
72	0xbe0ad496	-0.13557658
73	0xbd81c3f5	-0.06336204
74	0xbd8718ca	-0.06596525
75	0x3c8324ff	0.016008852
76	0xbd7e4b80	-0.06208372
77	0xbe66db7b	-0.22544663
78	0x3bc5d54b	0.0060373894
79	0xbd2f4913	-0.0427943
80	0xbe79b69e	-0.24386069
81	0x3bb3331b	0.0054687387
82	0xbdcfd8f7	-0.10148805
83	0xbcbf7477	-0.023370964
84	0xbe807f09	-0.2509692
85	0xbde01f54	-0.10943475
86	0xbe4be847	-0.19912826
87	0x3e91c1e0	0.28468227
88	0x3dc40398	0.09570998
89	0xbe64a046	-0.22326764
90	0xbe43ac24	-0.19108635
91	0xbd9df3fe	-0.077125534
92	0x3e4867a0	0.1957078
93	0xbdf06819	-0.11738605
94	0xbdeb462e	-0.11487995
95	0x3ba77e90	0.005111523
96	0xbd30ff63	-0.043212306
97	0xbcd84cc7	-0.026403798
98	0x3d0515cb	0.032491487
99	0xbde41504	-0.11136821
100	0xbdb1de28	-0.08684951
101	0xbd2e0c23	-0.042492043
102	0x3d0d36dc	0.034476146
103	0x3e151c04	0.14561468
104	0xbdb939e6	-0.090442464
105	0xbdc57bb6	-0.096427366
106	0x3cf3a81a	0.029743243
107	0x3e1f0d85	0.15532501
108	0xbdca29f2	-0.09871282
109	0x3d086239	0.033296797
110	0xbe8422a9	-0.25807694
111	0xbd548131	-0.05188102
112	0xba531201	-0.0008051694
113	0x3dabd87e	0.08390902
114	0xbce2001e	-0.027587947
115	0x3d706074	0.058685735
116	0xbb2dc508	-0.0026515145
117	0xbc93089f	-0.017948447
118	0x3e020e53	0.12700777
119	0x3c89397f	0.01675105
120	0xbe345a99	-0.17612685
121	0xbd877006	-0.06613164
122	0x3d44be1e	0.048032872
123	0xbd0ebdfb	-0.03484915
124	0x3d5db615	0.054128725
125	0xbdf6091d	-0.12013457
126	0xbdc2f3e7	-0.09519177
127	0xbe2c591a	-0.16830865
128	0xbe895db3	-0.268293
129	0x3d242158	0.04007086
130	0xbb7245ae	-0.0036967802
131	0x3da7aec0	0.08187628
132	0x3bc75f13	0.006084332
133	0xbe6b2b4c	-0.22965735
134	0xbe645e59	-0.22301616
135	0xbd772931	-0.060342018
136	0xbe4daf1a	-0.20086327
137	0xbe7b2da2	-0.24529126
138	0xbdcee134	-0.10101548
139	0xbf12ebea	-0.57391226
140	0xbe20cc70	-0.15702987
141	0xbe08bdf7	-0.13353716
142	0xbc055f7d	-0.008140442
143	0xbd9289c4	-0.07155183
144	0x3c5a3901	0.013319255
145	0xbe65ef96	-0.22454676
146	0x3b22802b	0.0024795632
147	0x3ce6b7db	0.028163841
148	0xbe34dbcc	-0.17661971
149	0xbe20df76	-0.15710244
150	0xbdcfc666	-0.101452634
151	0x3ddce2f5	0.10785476
152	0xbcee8efc	-0.029120915
153	0x3d8df3ef	0.06931292
154	0xbe3fd78c	-0.18734568
155	0xbd5a8d58	-0.053357452
156	0xbe47986f	-0.19491743
157	0xbe032639	-0.1280755
158	0xbea86ab5	-0.3289391
159	0xbd9dab58	-0.07698697
160	0xbe07228e	-0.13196775
161	0xbea3f33e	-0.32021517
162	0xbe295bad	-0.16538878
163	0xbe705573	-0.23470096
164	0xbe875755	-0.26433817
165	0xbe543250	-0.20722318
166	0xbe640c6f	-0.22270368
167	0xbeab1cff	-0.3342056
168	0xbd92d980	-0.07170391
169	0xbdca01a7	-0.098635964
170	0xbdc4ab05	-0.09602932
171	0xbe28e509	-0.1649362
172	0xbe768d89	-0.24077429
173	0x3c9a0d58	0.01880519
174	0xbea54264	-0.32277215
175	0xbd821a76	-0.06352703
176	0xbd2c68af	-0.04209202
177	0x3d3d7a10	0.046258986
178	0x3d2aebca	0.041728772
179	0xbdb5d205	-0.08877949
180	0xbdf321e2	-0.11871697
181	0xbe89496a	-0.26813823
182	0xbe3ef225	-0.18647058
183	0x3e0f3d83	0.13988309
184	0xbe47929e	-0.19489524
185	0xbdf29d70	-0.11846435
186	0xbdaa9f85	-0.08331207
187	0xbee00700	-0.4375534
188	0xbdd0ba58	-0.10191792
189	0xbe1b7964	-0.15183026
190	0xbe37aa81	-0.17936136
191	0xbd66a02c	-0.056305096
192	0xbe2d54f2	-0.16926935
193	0x3d6c447e	0.057682507
194	0xbdb96b8b	-0.09053715
195	0x3dc42735	0.09577791
196	0xbe20b892	-0.15695408
197	0xbe71b33a	-0.23603526
198	0xbe0860ba	-0.13318148
199	0xbd77129f	-0.060320493
200	0xbd634485	-0.055485267
201	0xbd67f84f	-0.05663329
202	0xbe091849	-0.1338817
203	0x3d48dcd6	0.04903873
204	0xbe8350dc	-0.25647628
205	0xbe1dfab3	-0.15427665
206	0xbe1f0632	-0.15529707
207	0xbe29fa50	-0.16599393
208	0xbe0d9ce0	-0.13829374
209	0x3da4f1a3	0.08053901
210	0xbe4c8e04	-0.1997605
211	0xbde22e01	-0.11043931
212	0xbe58852e	-0.21144554
213	0xbe176616	-0.14785036
214	0xbe7414e7	-0.23836099
215	0xbe887b22	-0.26656443
216	0x3d1147ba	0.035468794
217	0x3e3f27ed	0.18667574
218	0x3cf265a2	0.029589478
219	0xbe52a75f	-0.2057166
220	0xbcd83a01	-0.026394846
221	0xbe5ab6c3	-0.2135878
222	0xbd42f41e	-0.04759609
223	0x3c8349dc	0.01602643
224	0xbe273490	-0.16328645
225	0x3cd06500	0.025438786
226	0xbe922e3f	-0.28550908
227	0xbde8bc99	-0.11364097
228	0x3d8e124e	0.06937085
229	0xbea2aaaf	-0.31770846
230	0xbe49371f	-0.19649933
231	0xbde83a85	-0.11339287
232	0x3cba8ab0	0.02277121
233	0xbe1dae57	-0.15398537
234	0xbe8bd8bf	-0.27313802
235	0x3c9ab67f	0.018885849
236	0xbe4360ec	-0.19079942
237	0xbd9ace2a	-0.07558854
238	0xbe5750aa	-0.21026865
239	0xbe681307	-0.22663508
240	0xbe3d70b1	-0.1850002
241	0xbda1f56b	-0.07908138
242	0x3df4ae94	0.11947361
243	0xbe620db9	-0.22075547
244	0x3e4740bb	0.19458286
245	0xbd04b891	-0.03240258
246	0xbd41e85b	-0.047340732
247	0xbd9c8d94	-0.076441914
248	0xbe9bb1b1	-0.30409005
249	0x3e032d8d	0.12810345
250	0xbe949d30	-0.29026175
251	0x3dc5cd98	0.096583545
252	0xbd657a5e	-0.0560249
253	0xbe333fcd	-0.17504807
254	0xbe2069e0	-0.15665388
255	0xbe648917	-0.2231792

network_body._body_endoder.seq_layers.2.bias f4 [128]
0	0x3d11a92b	0.03556172
1	0x3e51df8a	0.2049543
2	0x3d5e5e2c	0.054289028
3	0xbecfabb0	-0.40560675
4	0xbdb873e1	-0.09006477
5	0x3d12b0e7	0.03581324
6	0x3e1b8dd9	0.1519083
7	0xbe42fceb	-0.19041793
8	0xbdc9a9b3	-0.09846821
9	0xbe5e33b1	-0.21699406
10	0xbe972567	-0.29520723
11	0xbebb2a03	-0.3655549
12	0xbe53106f	-0.20611738
13	0xbe613227	-0.21991788
14	0xbe45be2f	-0.1931083
15	0x3df919c3	0.12163117
16	0xbe709da8	-0.23497641
17	0xbe43e4d9	-0.19130267
18	0xbeaafed5	-0.33397546
19	0xbd9ffb3e	-0.078115925
20	0xbe7a20af	-0.2442653
21	0xbcafe661	-0.021472158
22	0xbd7a002a	-0.061035313
23	0xbddf1821	-0.10893274
24	0xbe482a34	-0.19547349
25	0x3b87d751	0.0041455408
26	0x3d175aab	0.036951702
27	0xbe6217b1	-0.2207935
28	0x3c75e0c6	0.015007203
29	0x3b50de5f	0.0031870825
30	0xbda76ae9	-0.08174688
31	0xbd0e1492	-0.034687586
32	0x3d13d2ed	0.036089826
33	0x3d22b507	0.039723422
34	0xbe0414ad	-0.12898512
35	0x3e047520	0.12935305
36	0x3d7025a9	0.058629666
37	0x3cb4876a	0.022037227
38	0xbcaeca1f	-0.021336613
39	0xbea0022f	-0.31251666
40	0x3d48475c	0.04889618
41	0x3e0db92e	0.13840172
42	0xbdd33e4d	-0.10314617
43	0x3d887d2a	0.06664498
44	0xbd6c09be	-0.05762648
45	0x3df74f82	0.12075712
46	0xbd66297a	-0.0561919
47	0xbe874eb4	-0.26427233
48	0x3da44257	0.08020466
49	0xbeb4d053	-0.3531519
50	0xbd847cc9	-0.064691134
51	0x3cf23c35	0.029569725
52	0xbdf9a315	-0.121893086
53	0x3e08eb3b	0.13370983
54	0xbe44696e	-0.19180843
55	0x3de9fb07	0.11424833
56	0xbdd92c2a	-0.10604127
57	0xbdef36b3	-0.11680355
58	0xbdf47e7a	-0.11938186
59	0x3ca8c008	0.02059938
60	0x3e2f6f61	0.17132331
61	0x3cfdba20	0.03097254
62	0x3e19b199	0.15009154
63	0xbdbeb767	-0.09312325
64	0xbe2cb2e1	-0.16865112
65	0xbbea6278	-0.0071528517
66	0x3dbac3aa	0.09119351
67	0x3cdc22c9	0.026872056
68	0xbe5b3a63	-0.21408992
69	0xbe3ea004	-0.18615729
70	0xbe19c8a5	-0.15017946
71	0xbd5a6ddc	-0.053327426
72	0xbdc74506	-0.09729962
73	0xbdbeaf46	-0.093107745
74	0x3e496a0f	0.19669364
75	0xbdb4e986	-0.088336036
76	0xbe498e6a	-0.19683233
77	0xbe22927d	-0.15876193
78	0xbe84f75c	-0.2596997
79	0xbe95da80	-0.29268265
80	0x3d8279d5	0.06370894
81	0xbe47c8c7	-0.19510184
82	0xbe7ddab4	-0.2479046
83	0xbea656a0	-0.32487965
84	0x3de5edb5	0.1122698
85	0xbe19f382	-0.15034297
86	0xbe820456	-0.25393933
87	0xbead5d8d	-0.33860436
88	0x3cf5b2f9	0.029992567
89	0xbe32f963	-0.17477946
90	0xbc609bf3	-0.013709056
91	0xbdc0c0a4	-0.09411743
92	0xbcd63af7	-0.026151164
93	0x3c2288e0	0.009920329
94	0xbda8c983	-0.0824156
95	0xbe3b501a	-0.18292275
96	0xbdea6293	-0.11444583
97	0xbe22d2b2	-0.15900686
98	0xbe1f5236	-0.15558705
99	0xbe429c6a	-0.1900498
100	0xbe3dbc77	-0.18528925
101	0xbda14c14	-0.07875839
102	0xbe70d307	-0.23518
103	0xbe9ea693	-0.3098646
104	0x3c87a84f	0.016559748
105	0xbe215fb6	-0.15759167
106	0xbe0cb3ac	-0.13740414
107	0xbde314fb	-0.11087986
108	0xbe8a964c	-0.27067792
109	0xbebea835	-0.37237707
110	0xbdb257ff	-0.0870819
111	0xbe915b60	-0.28390026
112	0xbc8f7288	-0.017510667
113	0x3cb51830	0.02210626
114	0x3e0c26ce	0.13686678
115	0xbd1faa2a	-0.03898064
116	0xbe3237a5	-0.17404039
117	0xbd973bb6	-0.07384436
118	0xbe827920	-0.25483036
119	0xbbbfb7b7	-0.005850758
120	0xbe546c62	-0.2074447
121	0xbd05e4fd	-0.032689083
122	0xbe57a55a	-0.2105917
123	0xbe3d582f	-0.1849067
124	0x3da3514b	0.0797449
125	0x3cb192a6	0.021676373
126	0x3d9ee404	0.07758334
127	0x3d20d4ac	0.03926532

action_model._continuous_distribution.log_sigma f4 [1, 3]
0	0xbfd51b2c	-1.6648917
1	0xbfb06ee3	-1.378384
2	0xbf9edd18	-1.2411222
