CS455_PR1/results/ShootTargetAgent_T2/ShootTargetAgent/ShootTargetAgent-3060947.onnx (onnx, 490788 bytes, 18 tensors)

discrete_act_size_vector f4 [1, 2]
0	0x42480000	50.0
1	0x42480000	50.0

network_body.observation_encoder.processors.0.conv_layers.0.weight f4 [16, 1, 8, 8]
0	0xbd91a270	-0.071110606
1	0x3d4541b1	0.04815835
2	0x3dd25442	0.10269977
3	0xbe0db4bf	-0.1383848
4	0xbe18edd5	-0.14934476
5	0x3d062012	0.03274543
6	0x3d0c46e4	0.034247294
7	0xbe051104	-0.12994772
8	0x3d6c090b	0.05762581
9	0xbcba950b	-0.022776147
10	0x3c8f8a20	0.017521918
11	0xbd8fe4ae	-0.07026039
12	0xbe7ac775	-0.2449015
13	0x3e06e934	0.13174897
14	0xbdd1fc7d	-0.102532364
15	0x3d5f6da0	0.054547906
16	0xbe47f8fc	-0.19528574
17	0xbcf44e48	-0.029822484
18	0x3d97e668	0.074169934
19	0x3e31da22	0.17368367
20	0xbd92fe5b	-0.07177421
21	0xbd622574	-0.0552115
22	0x3e05a405	0.1305085
23	0x3dc206b7	0.09473937
24	0x3cef2b11	0.02919534
25	0xbdc8a3b8	-0.09796852
26	0xbd79770b	-0.060904544
27	0x3e0f52f1	0.13996483
28	0xbd9ef60c	-0.077617735
29	0x3dbbb707	0.09165769
30	0x3e4b8f5d	0.19878908
31	0x3d39e4c3	0.04538418
32	0xbd0a9d8a	-0.033841647
33	0xbde779f6	-0.11302559
34	0x3e278166	0.16357955
35	0x3c763581	0.015027405
36	0xbe51a298	-0.20472181
37	0xbe0f906a	-0.14019933
38	0x3e47a308	0.19495785
39	0xbad59bc7	-0.0016297036
40	0xbd3205b7	-0.04346248
41	0xbc73386d	-0.014844996
42	0x3dcc5578	0.09977239
43	0xbdd385b5	-0.10328237
44	0xbeac07a8	-0.3359959
45	0xbdf38c24	-0.11891964
46	0xbe57e900	-0.21084976
47	0x3c69fe12	0.0142817665
48	0xbb9c2aa7	-0.0047658267
49	0xbb4fa294	-0.0031682597
50	0x3d8d3e36	0.068966314
51	0x3d565b01	0.05233288
52	0xbddfa3d3	-0.10919919
53	0x3cae4072	0.021270964
54	0xbe9a852b	-0.30179724
55	0xbe37bd0f	-0.17943214
56	0xbdf2bcf4	-0.11852446
57	0xbd2fc2f2	-0.042910524
58	0x3e082cdc	0.13298362
59	0xbdc3127f	-0.09525012
60	0x3da4996f	0.08037078
61	0x3de6d1e7	0.112705044
62	0x3db9b86e	0.0906838
63	0xbe113e55	-0.14183934
64	0x3cefca5b	0.029271295
65	0xbdaa1042	-0.08303882
66	0xbe1c8200	-0.15283966
67	0xbe78197e	-0.24228474
68	0xbe1a10d8	-0.15045488
69	0xbdccd072	-0.10000695
70	0x3df85cc4	0.12127069
71	0x3bfa6bf2	0.0076422626
72	0x3d526f82	0.051375873
73	0xbdaf17e4	-0.08549479
74	0xbd35e77b	-0.04441021
75	0xbd87de22	-0.06634165
76	0xbddc93a8	-0.10770351
77	0x3d9df829	0.077133484
78	0x3d07b280	0.033129215
79	0xbd3226e8	-0.043494135
80	0xbe557873	-0.20846729
81	0x3d948103	0.072511695
82	0xbc90867d	-0.017642254
83	0xbcf9d221	-0.030495705
84	0xbdd42107	-0.10357862
85	0xbe0fd3af	-0.14045595
86	0xbced3353	-0.028955137
87	0xbe4347ab	-0.19070308
88	0xbe07fc1e	-0.13279769
89	0xbdbcaa23	-0.092121385
90	0xbd425860	-0.047447562
91	0xbe880af8	-0.26570868
92	0xbe924fea	-0.28576595
93	0xbe8968c4	-0.26837742
94	0xbe11f05d	-0.14251848
95	0xbe26afae	-0.16277954
96	0xbceab283	-0.028649574
97	0xbde93c02	-0.11388399
98	0xbe521721	-0.20516635
99	0xbe832162	-0.25611407
100	0xbe811201	-0.25209048
101	0xbd771c78	-0.060329884
102	0x3e028982	0.12747768
103	0xbe4dbef1	-0.2009237
104	0x3cc3a77a	0.02388357
105	0x3e0a609d	0.13513418
106	0xbec1866d	-0.3779787
107	0xbe8a9a67	-0.27070925
108	0xbe311e12	-0.17296627
109	0xbd7ae132	-0.06124992
110	0xbcc3b4cd	-0.023889923
111	0xbd5ab6f3	-0.05339713
112	0x3d01b588	0.031667262
113	0x3d714ed7	0.05891308
114	0x3d0a5414	0.03377159
115	0xbe8e16e0	-0.27751827
116	0xbe69d0ff	-0.22833632
117	0x3b0f2dfd	0.002184748
118	0xbe39e4de	-0.18153712
119	0x3da1096c	0.07863125
120	0x3dd7cac4	0.10536721
121	0xbc3a1077	-0.011356465
122	0x3d545c5a	0.051845886
123	0xbed09be5	-0.40743938
124	0xbeb7f2d1	-0.35927442
125	0xbe7aa124	-0.24475533
126	0x3c8d870e	0.017276313
127	0xbd123f89	-0.035705123
128	0x3de2463f	0.11048555
129	0xbe34fc44	-0.17674357
130	0xbc394a5c	-0.011309233
131	0xbb8d6eda	-0.004316193
132	0xbe1b4e70	-0.1516664
133	0xbd184a8d	-0.037180472
134	0xbe11d64b	-0.14241903
135	0xbe70c8a3	-0.23514037
136	0x3d80ebcd	0.062949754
137	0x3dafc50a	0.08582504
138	0xbd6bd0c5	-0.057572145
139	0x3dcfae47	0.10140663
140	0x3d6dc4e4	0.058049098
141	0x3d0f45ab	0.03497855
142	0xbd002f4b	-0.031295102
143	0xbe3e2b2d	-0.18571158
144	0x3dfd29c1	0.123614796
145	0x3d197383	0.037463676
146	0x39d6b308	0.0004095065
147	0xbd2037b2	-0.039115615
148	0x3e69f645	0.2284785
149	0x3e5cf3c8	0.2157737
150	0xbc474d28	-0.012164392
151	0xbdfd3f55	-0.12365595
152	0x3dbb6e62	0.09151913
153	0x3cdb78e2	0.02679104
154	0x3e40f9e8	0.18845332
155	0x3cb7c533	0.0224329
156	0x3d733377	0.059375253
157	0xbc2b37cf	-0.0104503175
158	0xbd2cf257	-0.0422233
159	0xbe033ed2	-0.12816933
160	0x3e3826b1	0.1798351
161	0xbc9b59c6	-0.018963706
162	0x3cdd2b2e	0.026998129
163	0x3db97516	0.090555355
164	0x3dddb517	0.10825556
165	0xbc52f7c8	-0.0128764585
166	0xbe882bb7	-0.26595852
167	0x3e0db8ff	0.13840102
168	0xbc8886a0	-0.016665757
169	0xbd7213ab	-0.059100788
170	0x3e506e8c	0.2035467
171	0xbd309d27	-0.043118622
172	0xbd4271fc	-0.047471985
173	0xbe2cc99d	-0.16873784
174	0xbdcbd4c0	-0.09952688
175	0x3d0eb70f	0.034842547
176	0x3b6aee8c	0.0035847751
177	0xbd8fe814	-0.07026687
178	0x3d9648fb	0.07338139
179	0x3d85d763	0.065352224
180	0xbda9643a	-0.0827107
181	0xbdb7fc8c	-0.08983716
182	0x3d3b42c2	0.045717962
183	0xbe249141	-0.16071035
184	0xbde64799	-0.11244125
185	0xbc67735c	-0.014126625
186	0x3dab81c7	0.083743624
187	0xbd219457	-0.03944811
188	0xbe3d6bf2	-0.18498209
189	0xbe260786	-0.16213807
190	0xbd8ec65a	-0.06971426
191	0x3ca87416	0.020563167
192	0x3d2098f5	0.03920837
193	0x3cc9bb56	0.024625462
194	0x3e63a61c	0.22231334
195	0x3e44c710	0.19216561
196	0x3e709dc0	0.23497677
197	0x3ddc0793	0.10743632
198	0xbc276f93	-0.010219472
199	0x3e92a4d0	0.28641367
200	0xbe86c90a	-0.26325256
201	0xbe1625df	-0.14662884
202	0xbcf4cfe0	-0.029884279
203	0x3d89c17e	0.06726359
204	0x3da6e393	0.08148875
205	0x3e136c0a	0.14396682
206	0x3e6ca154	0.23108417
207	0x3e0c6325	0.13709696
208	0xbeb9c8b8	-0.3628595
209	0xbe87bfec	-0.26513612
210	0x3da59a33	0.08086052
211	0xbbac28ed	-0.005253902
212	0xbb65d3b9	-0.0035068823
213	0xbe7c9864	-0.24667507
214	0xbe73e776	-0.23818764
215	0xbe2cc763	-0.16872935
216	0xbf01e5eb	-0.5074145
217	0xbea49090	-0.32141542
218	0xbe8d96ae	-0.27654022
219	0xbdec1347	-0.11527114
220	0x3d6ad297	0.05732974
221	0xbca5692f	-0.020191757
222	0xbd01c096	-0.031677805
223	0xbe03dc41	-0.12876989
224	0xbe7ce73e	-0.24697587
225	0xbe76aaa1	-0.24088527
226	0xbd87020f	-0.065921895
227	0xbe80fc5c	-0.25192535
228	0xbd90bcd5	-0.07067267
229	0x3b1d174b	0.0023970183
230	0xbdb28b67	-0.08717995
231	0xbcbcdd2f	-0.023054687
232	0x3d898112	0.06714071
233	0x3d904654	0.07044664
234	0xbcaf866a	-0.021426398
235	0xbcdcba7a	-0.026944388
236	0xbe4ad44e	-0.1980755
237	0xbdd126e7	-0.10212498
238	0xbe34402f	-0.17602609
239	0x3e2ce2ff	0.16883467
240	0x3e1013ae	0.14070007
241	0x3d21e960	0.039529204
242	0x3dd563af	0.10419404
243	0x3da461a8	0.08026439
244	0x3c8c8d7f	0.017157314
245	0xbe10f64c	-0.14156455
246	0xbe99fc29	-0.30075195
247	0x3e300493	0.17189245
248	0x3d85c402	0.06531526
249	0xbdd0ccbe	-0.101953015
250	0x3ddde75f	0.10835146
251	0x3d814612	0.06312193
252	0x3dd3ce8f	0.10342132
253	0xbe1a06c5	-0.15041645
254	0xbe427758	-0.18990839
255	0xbdb5c4d2	-0.08875431

network_body.observation_encoder.processors.0.conv_layers.0.bias f4 [16]
0	0xbe467097	-0.19378887
1	0xbe6e3bc8	-0.23264992
2	0xbe13a9da	-0.14420262
3	0xbd4bbd3e	-0.049741022
4	0xbdddb66b	-0.10825809
5	0xbe4a8f25	-0.19781168
6	0xbe68636e	-0.2269418
7	0x3d469f15	0.048491556
8	0xbd95373c	-0.07285926
9	0xbde3514b	-0.1109949
10	0xbe2ed688	-0.17074025
11	0xbd72f0f0	-0.059311807
12	0xbdf3db7c	-0.11907098
13	0xbe5b68c2	-0.2142668
14	0xbe236290	-0.15955567
15	0xbe1333c4	-0.14375216

network_body.observation_encoder.processors.0.conv_layers.2.weight f4 [32, 16, 4, 4]
0	0x3b4e61ab	0.003149132
1	0xbc111264	-0.008854482
2	0x3dcf0ed3	0.10110249
3	0x3ce58959	0.028019594
4	0x3d0b20fa	0.033966996
5	0xbe2be32b	-0.16785876
6	0x3c864178	0.01638864
7	0x3eca62a6	0.39528388
8	0x3d3c73c1	0.04600883
9	0xbe16b75d	-0.14718385
10	0x3e104fd9	0.1409296
11	0x3daf5226	0.085605904
12	0x3cecca7b	0.028905144
13	0xbdc155c8	-0.094401896
14	0x3d0500b3	0.03247137
15	0xbbcf787d	-0.006331502
16	0x3d517fd1	0.051147286
17	0xbd5863e8	-0.052829653
18	0x3d65bd50	0.056088746
19	0x3da81bd8	0.08208436
20	0xbc0c3049	-0.008556434
21	0x3e038548	0.12843812
22	0x3d77f4d5	0.060536224
23	0xbe3ea35a	-0.18617001
24	0xbca1ea83	-0.019765144
25	0x3dd369a5	0.103228845
26	0x3dda4402	0.10657503
27	0x3d13a6e7	0.036047842
28	0x3dd9b0bc	0.106294125
29	0x3d977aa9	0.073964424
30	0xbc15101e	-0.009098081
31	0x3d999b0c	0.07500276
32	0xbbfc7c81	-0.0077052717
33	0x3d81a919	0.06331081
34	0xbe4d2fab	-0.20037715
35	0xbdc71c8d	-0.097222425
36	0x3e2bb7ec	0.1676938
37	0xbb2557fb	-0.0025229442
38	0x3cd9f8ef	0.026607959
39	0xbd541916	-0.051781736
40	0xbd89ac15	-0.06722275
41	0xbc7e08ab	-0.015504996
42	0xbd0b7174	-0.034043744
43	0xbdd7b3f0	-0.10532367
44	0x3e425834	0.1897896
45	0x3cf91848	0.030407086
46	0x3cc7be00	0.024382591
47	0xbe7b44da	-0.24537984
48	0xbe83e2a0	-0.2575884
49	0x3e0271ef	0.12738775
50	0x3cb25b29	0.021771984
51	0x3d5d08c6	0.053963445
52	0xbe4dbc97	-0.20091473
53	0xbe34aec3	-0.17644791
54	0xbd17f141	-0.037095312
55	0xbd6133e8	-0.054981142
56	0xbd6ca268	-0.05777207
57	0x3d27c667	0.040960696
58	0x3e7b884e	0.24563715
59	0xbd956613	-0.0729486
60	0x3dbaab98	0.0911476
61	0xbdc7d8eb	-0.09758171
62	0xbd9adbad	-0.07561431
63	0xbd07dad7	-0.033167686
64	0xbd435a62	-0.047693618
65	0x3cde652b	0.02714785
66	0xbda17713	-0.0788404
67	0xbcc44fc7	-0.023963822
68	0x3d2c1769	0.042014513
69	0xbda3cb11	-0.07997716
70	0xbdb15936	-0.08659594
71	0xbe84366e	-0.25822777
72	0x3cff7fe5	0.031188915
73	0xbd7b5195	-0.0613571
74	0x3e1ba8a9	0.15201057
75	0xbd806a7f	-0.062703125
76	0x3d87ae67	0.066250615
77	0x3de8b26d	0.11362157
78	0xbd043803	-0.03227998
79	0x3bb1fb7d	0.005431591
80	0xbe933863	-0.28753957
81	0x3b4fb315	0.0031692435
82	0x3e05df0b	0.13073365
83	0xbe44296c	-0.19156426
84	0xbd0d000e	-0.03442388
85	0xbe51149d	-0.2041802
86	0xbd213c8f	-0.039364394
87	0xbdcca75d	-0.099928595
88	0xbc6d6659	-0.014489734
89	0xbdc72d23	-0.09725406
90	0x3e52888c	0.20559901
91	0xbe2ffd36	-0.17186436
92	0xbe122595	-0.14272149
93	0xbe25950a	-0.16170135
94	0x3cb37602	0.021906856
95	0xbe378597	-0.17922054
96	0x3e3b56ea	0.18294874
97	0x3dfb3bb7	0.12267249
98	0x3e3870df	0.18011807
99	0x3c3c60f3	0.011497724
100	0x3de15ed5	0.11004416
101	0xbcc1ee33	-0.023673153
102	0xbdc0e0a9	-0.094178505
103	0xbe15eea5	-0.14641817
104	0x3e1f4056	0.15551886
105	0x3e5db54b	0.21651189
106	0xbd2f00b8	-0.042725295
107	0xbdab3289	-0.08359248
108	0xba94b5e7	-0.0011345715
109	0x3e876445	0.26443687
110	0xbd439d16	-0.04775723
111	0x3e072d05	0.13200767
112	0xbe1228cc	-0.14273375
113	0xbcd115ff	-0.025523184
114	0x3d80c64c	0.06287822
115	0xbe27935f	-0.16364811
116	0xbd17ebb0	-0.037090003
117	0xbc102e30	-0.008800074
118	0x3d777d6a	0.06042234
119	0xbdb4ee32	-0.08834495
120	0xbdf5dc03	-0.120048545
121	0xbdd6847e	-0.1047449
122	0xbcca90fa	-0.024727333
123	0xbdeb1878	-0.114792764
124	0x3d9c0dd1	0.07619823
125	0x3e5d7250	0.21625638
126	0xbe24107a	-0.1602191
127	0xbdee4e27	-0.11636
128	0x3cba9910	0.022778064
129	0xbe35b84a	-0.17746082
130	0xbda17946	-0.07884459
131	0x3e31f3b6	0.17378125
132	0xbe02f1d1	-0.12787558
133	0xbd953b76	-0.07286732
134	0x3db024c8	0.086007655
135	0x3e9f527c	0.31117618
136	0xbd80d611	-0.0629083
137	0x3d4ceeb7	0.050032344
138	0xbd122cda	-0.035687305
139	0x3c3eeee7	0.011653638
140	0x3a10ee9d	0.000552872
141	0xbb382edb	-0.00281041
142	0x3da3e657	0.08002918
143	0x3e5cebda	0.21574345
144	0x3e46b732	0.19405821
145	0x3e68f424	0.22749382
146	0x3da0eadc	0.07857296
147	0xbdd2781d	-0.10276816
148	0xbce806eb	-0.028323611
149	0x3d2aecf3	0.04172988
150	0xbdc230db	-0.09481975
151	0xbd84a09f	-0.064759485
152	0x3e10f594	0.1415618
153	0xbd9170e6	-0.07101612
154	0x3e0ad278	0.1355685
155	0xbdd7582a	-0.10514863
156	0xbce607f5	-0.028079966
157	0xbe2f80c9	-0.17138971
158	0xbe3d56ef	-0.18490194
159	0x3d726663	0.059179675
160	0x3d4a3c13	0.049373697
161	0x3d34145d	0.043964732
162	0x3dbc676b	0.09199413
163	0x3df4dfd7	0.119567566
164	0xbd896bad	-0.06709991
165	0xbd0b2a46	-0.033975862
166	0x3e1f5eec	0.15563554
167	0x3e02f58b	0.1278898
168	0x3df455f3	0.11930456
169	0xbcbc91dc	-0.02301877
170	0xbdc6bd89	-0.0970412
171	0x3d649f51	0.055816
172	0x3e0fff3d	0.1406221
173	0xbb908b84	-0.004411163
174	0xbbf47152	-0.007459798
175	0x3d411773	0.047141504
176	0x3dcfa409	0.10138709
177	0x3e1ca666	0.15297851
178	0xbe09fbaf	-0.13474916
179	0x3cc4b450	0.024011761
180	0x3dd031e7	0.10165768
181	0x3d57497b	0.05256031
182	0x3e3169f4	0.17325574
183	0x3d11fcd6	0.035641514
184	0xbda5375b	-0.08067199
185	0x3db12396	0.086493656
186	0x3dfe30d8	0.1241166
187	0xbda6ea94	-0.08150211
188	0xbc683d1d	-0.014174727
189	0x3edda818	0.43292308
190	0xbdb05874	-0.08610621
191	0x3dd46884	0.10371497
192	0x3debc915	0.11512963
193	0x3c4b5450	0.012410238
194	0x3da18c6b	0.07888111
195	0xbe25d86a	-0.16195837
196	0x3d3f15f2	0.046651788
197	0x3d849be1	0.06475044
198	0x3e568e19	0.20952643
199	0x3da366ad	0.07978568
200	0x3d7b5675	0.06136175
201	0x3e0fa99d	0.14029546
202	0x3e3127d8	0.17300355
203	0x3e616b17	0.22013508
204	0xbe318cfb	-0.17338936
205	0x3e4437dc	0.19161934
206	0xbd84b130	-0.06479108
207	0x3e815c58	0.25265765
208	0xbcdb5422	-0.026773516
209	0x3c900016	0.017578166
210	0x3e6f6e05	0.23381813
211	0x3e44d721	0.1922269
212	0xbe2f551a	-0.17122307
213	0xbc8f62bb	-0.017503133
214	0x3ecc0c38	0.39853072
215	0x3e218ef5	0.1577719
216	0x3d0d99df	0.03457057
217	0x3d23d97e	0.04000234
218	0x3c817427	0.015802456
219	0x3de54bd6	0.11196105
220	0x3d518d45	0.051160116
221	0x3bd6da2e	0.0065567708
222	0xbdaab244	-0.08334783
223	0xbe0660be	-0.13122842
224	0xbd862b19	-0.06551189
225	0x3b6501ae	0.0034943628
226	0xbdc7d270	-0.09756935
227	0x3d07cc7b	0.033153992
228	0xbd9c8d46	-0.07644133
229	0xbd0f223a	-0.03494475
230	0x3d1a8ed0	0.037733853
231	0xbe1ed700	-0.15511703
232	0x3cd9aaa5	0.026570627
233	0xbc4318a0	-0.0119077265
234	0xbdc9a747	-0.09846359
235	0x3d08d643	0.03340746
236	0xbdb0c061	-0.08630443
237	0x3d97b88e	0.07408248
238	0xbd9f7c1f	-0.07787346
239	0x3d407d13	0.04699428
240	0x3d2a6f52	0.04161007
241	0x3e063fd0	0.1311028
242	0x3c1c5a57	0.009543023
243	0x3ca7cedd	0.020484382
244	0xbbfb92e8	-0.0076774247
245	0x3db4032e	0.08789669
246	0x3dfc7c19	0.12328357
247	0xbd8841d3	-0.0665318
248	0xbd5305d2	-0.051519223
249	0x3d92fff5	0.07177726
250	0x3dcf76cb	0.1013008
251	0x3e02f92d	0.12790366
252	0x3dc1f24c	0.094700426
253	0x3dcb6b68	0.099325955
254	0x3df5aaa0	0.11995435
255	0x3bc10d1d	0.005891456

network_body.observation_encoder.processors.0.conv_layers.2.bias f4 [32]
0	0xbe17d1e6	-0.14826164
1	0xbe0ab46f	-0.13545392
2	0x3c795de1	0.015220136
3	0xbdf1f7d8	-0.118148506
4	0xbe732ffb	-0.23748772
5	0xbe4ddaa8	-0.20102942
6	0xbe760b68	-0.24027789
7	0xbe8855e4	-0.2662803
8	0xbe455a56	-0.19272742
9	0xbdcb80f4	-0.09936705
10	0xbea2b169	-0.31775978
11	0xb9f8702c	-0.0004738582
12	0xbd86823c	-0.06567809
13	0xbdde5c1e	-0.10857414
14	0xbe20dc77	-0.157091
15	0xbe41f664	-0.18941647
16	0xbe3fc987	-0.1872922
17	0xbe06a5f7	-0.13149248
18	0xbd613c8d	-0.054989386
19	0xbe47a15c	-0.19495147
20	0xbded8c74	-0.11599055
21	0xbe3ba9bb	-0.18326466
22	0xbd14b5aa	-0.03630606
23	0xbd5bd8e9	-0.05367366
24	0xbdc4390a	-0.09581192
25	0xbe4102f4	-0.18848783
26	0xbd588f8e	-0.05287128
27	0x3b270ad7	0.0025488639
28	0xbe4cb51e	-0.19990966
29	0xbe278dfa	-0.16362754
30	0xbd9e8e9c	-0.07742044
31	0xbe3c26c3	-0.18374161

network_body.observation_encoder.processors.0.dense.0.weight f4 [128, 512]
0	0x3d5ca167	0.053864863
1	0xbd701fe6	-0.05862417
2	0xbe57ad21	-0.21062137
3	0xbd848ee9	-0.064725704
4	0xbdfc2df1	-0.1231345
5	0xbe7b0619	-0.24514045
6	0xbd95e249	-0.07318551
7	0xbd0486e0	-0.03235519
8	0xbd88482b	-0.0665439
9	0xbd8f3fa2	-0.06994559
10	0xbd34e9e7	-0.04416838
11	0x3cd5f748	0.02611889
12	0x3e3af834	0.18258744
13	0xbdcd0033	-0.100098036
14	0x3d55f6aa	0.05223719
15	0x3df6f00d	0.12057505
16	0xbe394bd8	-0.18095338
17	0xbdcd9724	-0.100385934
18	0x3e29b964	0.16574627
19	0xbdc39043	-0.09549
20	0xbe439c29	-0.19102539
21	0xbd67062d	-0.056402374
22	0xbe03c959	-0.12869777
23	0x3e0151b8	0.1262883
24	0x3c8e16bb	0.017344823
25	0xbd309713	-0.043112826
26	0x3cc75c33	0.024335956
27	0xbc88c5cf	-0.016695885
28	0x3ea2afe1	0.3177481
29	0x3e1fd144	0.15607172
30	0xbdc6a2a4	-0.0969899
31	0xbc84817b	-0.016175022
32	0xbdc7601b	-0.097351275
33	0xbe7b435b	-0.24537413
34	0xbd98701d	-0.07443259
35	0xbe425e1d	-0.18981214
36	0xbd488906	-0.0489588
37	0xbd9ebcbf	-0.07750844
38	0xbe830b04	-0.25594342
39	0x3e0a360c	0.1349718
40	0x3d491d51	0.049100224
41	0x3cf17b99	0.029477881
42	0xbe1f0fc3	-0.15533356
43	0x3de4fc39	0.1118092
44	0x3dcc69a0	0.09981084
45	0xbdfc5482	-0.12320806
46	0x3dffa91f	0.12483429
47	0xbdcf7876	-0.10130398
48	0xbe03b7b7	-0.1286305
49	0xbdcd2be5	-0.10018138
50	0x3da15530	0.07877576
51	0x3c64c1d4	0.013962228
52	0xbd97c70f	-0.07411014
53	0xbe379751	-0.17928816
54	0xbe1c23e1	-0.15248062
55	0xbd536b38	-0.051615924
56	0x3d845bab	0.06462797
57	0xbe1cf0d9	-0.15326251
58	0xbdece8cb	-0.11567839
59	0x3e733966	0.23752365
60	0x3eb599d7	0.35468933
61	0x3dc1c909	0.094621725
62	0xbd86f73a	-0.065901235
63	0x3e66e67f	0.22548865
64	0x3e0959a2	0.13413098
65	0x3d34fcac	0.04418628
66	0xbc39adbf	-0.011332928
67	0xbda51521	-0.08060671
68	0xbd342fc1	-0.043990854
69	0xbd135db8	-0.03597805
70	0xbd44f30a	-0.048083343
71	0xbda962dd	-0.0827081
72	0x3e4710cb	0.1944
73	0x3e0296f8	0.12752903
74	0xbdf7591e	-0.12077545
75	0xbdb811ec	-0.08987793
76	0xbe68d978	-0.22739208
77	0x3e39c555	0.18141682
78	0x3da6b1b9	0.08139367
79	0xbc582dc4	-0.013194505
80	0x3db5e1b7	0.08880942
81	0x3de2c3c1	0.11072493
82	0x3d43e187	0.0478225
83	0xbe20881a	-0.15676919
84	0xbe99b96b	-0.30024275
85	0xbe14afd4	-0.14520198
86	0xbe0e2fe2	-0.13885453
87	0x3d8ccc35	0.06874887
88	0xbd88fc20	-0.06688714
89	0x3d92ab2e	0.07161556
90	0xbecd5474	-0.40103495
91	0x3e985ae5	0.29756847
92	0x3a43fe98	0.0007476597
93	0x3ea8bde4	0.32957375
94	0xbe488c7a	-0.19584838
95	0xbdd2504a	-0.1026922
96	0xbdcee998	-0.10103148
97	0xbe354acd	-0.17704315
98	0xbe604324	-0.21900612
99	0xbdccc7c9	-0.099990435
100	0x3c85d3eb	0.016336402
101	0xbddeab7b	-0.10872551
102	0xbe834bee	-0.25643867
103	0x3d9a4d3d	0.07534263
104	0x3e2b94a8	0.16755927
105	0xbdb384bb	-0.08765551
106	0xbe4bb38f	-0.19892715
107	0xbd429bbf	-0.047511812
108	0xbca65b4c	-0.020307206
109	0x3e1f24a6	0.15541324
110	0xbe88360f	-0.26603743
111	0xbe516c00	-0.20451355
112	0x3be2ead3	0.006924966
113	0xbe0a0132	-0.13477018
114	0x3dc64c4d	0.09682522
115	0x3b834283	0.0040057315
116	0xbd8c40de	-0.0684831
117	0xbdb85491	-0.09000505
118	0xbe041511	-0.12898661
119	0xbb8ec5e7	-0.004357088
120	0x3e9e032b	0.30861792
121	0xbdbe006a	-0.09277423
122	0xbd9f658a	-0.07783039
123	0x3db4f686	0.08836083
124	0x3e88379c	0.26604927
125	0xbbd4f743	-0.0064992025
126	0xbd2df7a6	-0.042472504
127	0x3cda43cf	0.026643662
128	0x3ce7adba	0.028281081
129	0xbe161c1c	-0.1465916
130	0xbd82d4fa	-0.06388278
131	0x3d64683e	0.055763476
132	0xbdc32e1b	-0.09530278
133	0xbd414a4c	-0.047189996
134	0xbcfe0134	-0.031006433
135	0x3dd70ee0	0.10500884
136	0xbd5bedf3	-0.053693723
137	0xbe0fad08	-0.1403085
138	0xbe599b91	-0.2125075
139	0xbc2d6a56	-0.0105844345
140	0x3dbef085	0.09323219
141	0x3df8f863	0.12156751
142	0xbde77551	-0.11301673
143	0x3bb63406	0.005560401
144	0x3e78c22c	0.2429282
145	0xbe154a25	-0.14579065
146	0x3de7262f	0.1128658
147	0x3e407932	0.18796232
148	0x3e1c781b	0.15280192
149	0xbdbfe72e	-0.09370266
150	0x3dd7c6e1	0.1053598
151	0xbb9647f8	-0.004586216
152	0x3d67cd62	0.056592353
153	0xbd172b99	-0.036906812
154	0xbe0ccbc3	-0.13749604
155	0x3d96b137	0.0735802
156	0x3e0306a7	0.12795506
157	0x3ca9fb72	0.020749781
158	0x3dab81d6	0.083743736
159	0x3e5d4324	0.21607643
160	0x3e4c82b4	0.19971734
161	0xbe42df54	-0.19030505
162	0xbd44bc92	-0.048031397
163	0xbe1a4e9a	-0.15069047
164	0x3e0dcd1a	0.13847771
165	0xbd21f188	-0.039536983
166	0x3cd51a3d	0.026013488
167	0x3d960094	0.07324329
168	0x3e06c211	0.13159968
169	0x3d0d3ba3	0.034480702
170	0xbd6b10b8	-0.05738899
171	0xbe55cc0d	-0.2087862
172	0x3ddc337a	0.10752006
173	0x3e1e6639	0.15468682
174	0xbce275e2	-0.027644102
175	0xbd87faa7	-0.06639605
176	0x3e12ce37	0.14336477
177	0xbde1b926	-0.110216424
178	0xbccb0456	-0.024782341
179	0x3e0958a1	0.13412715
180	0xbdbc9e72	-0.092099085
181	0x3e09b490	0.13447785
182	0xbe85fd05	-0.261696
183	0x3e04a492	0.12953404
184	0x3e023c56	0.12718329
185	0xbe0258a6	-0.12729129
186	0x3da8526c	0.08218846
187	0xbe10228e	-0.14075682
188	0x3e137e51	0.14403655
189	0x3e0090ff	0.12555312
190	0x3ebb206e	0.3654818
191	0x3e953323	0.29140577
192	0x3d62ab26	0.055339
193	0xbd99c5d8	-0.07508439
194	0xbdec3824	-0.115341455
195	0xbb51539d	-0.0031940707
196	0x3db12351	0.08649314
197	0xbe13b218	-0.14423406
198	0xbe74b29d	-0.2389626
199	0x3df53c77	0.119744234
200	0xbd92011b	-0.07129117
201	0x3c29bec1	0.010360421
202	0xbe6eec0c	-0.23332232
203	0x3ce55805	0.027996073
204	0x3c478c52	0.012179451
205	0x3e6ab806	0.22921762
206	0xbefbe6c6	-0.49199504
207	0xbe27127a	-0.16315642
208	0xbe42d738	-0.19027412
209	0x3e475327	0.19465314
210	0xbeb5af34	-0.35485232
211	0xbdb63785	-0.08897308
212	0xbeb466ee	-0.3523478
213	0xbd9cffb0	-0.07665956
214	0xbea1aa17	-0.3157508
215	0x3e2687e3	0.16262774
216	0x3dda7e49	0.10668618
217	0xbcc414e3	-0.02393574
218	0xbea62f09	-0.3245776
219	0x3d92b4dc	0.071634024
220	0x3ddaef1b	0.10690137
221	0x3dac9220	0.08426309
222	0xbe476644	-0.19472605
223	0x3eaf2fbb	0.34216103
224	0x3c1277f4	0.008939732
225	0x3e265dac	0.1624667
226	0x3dc37752	0.09544243
227	0xbc1c0877	-0.009523503
228	0xbe020948	-0.12698853
229	0xbe2deea5	-0.16985567
230	0xbea35129	-0.31897858
231	0xbd9da074	-0.0769662
232	0x3e340741	0.17580892
233	0xbd9fa7e6	-0.07795696
234	0xbe00bc9c	-0.12571949
235	0x3dd701de	0.10498403
236	0x3e67b2e7	0.2262684
237	0x3e81a8bf	0.25324056
238	0xbe8cc0f0	-0.2749095
239	0x3d921ffb	0.07135006
240	0xbda543ee	-0.08069597
241	0xbdd8cbc5	-0.10585741
242	0xbe89cc80	-0.26913834
243	0xbe21138b	-0.15730111
244	0x3d262880	0.040565968
245	0xbea7d92b	-0.32782874
246	0xbe8feebd	-0.2811183
247	0x3e709600	0.2349472
248	0xbd5cbfab	-0.053893726
249	0xbd992b95	-0.07479016
250	0xbeb5a718	-0.35479045
251	0x3e27f006	0.16400155
252	0x3d2e6e87	0.042585876
253	0xbe537234	-0.20649034
254	0xbe6ac7cb	-0.22927777
255	0x3c8907dd	0.016727382

network_body.observation_encoder.processors.0.dense.0.bias f4 [128]
0	0xbbfae6c1	-0.0076569025
1	0xbdfe051c	-0.12403318
2	0x3dd0649c	0.1017544
3	0x3e0f5279	0.13996305
4	0xbe4dab52	-0.20084885
5	0xbdef0373	-0.1167058
6	0xbe8bc198	-0.27296138
7	0x3c6d2c57	0.0144759035
8	0xbe00b43d	-0.12568755
9	0xbd7d5bb4	-0.061855033
10	0x3d25b888	0.040459186
11	0xbbbcc74f	-0.005761064
12	0xbccd1b52	-0.025037441
13	0xbdc3e128	-0.095644295
14	0xbba61793	-0.0050687282
15	0xbc23eca5	-0.010005151
16	0xbd9192ee	-0.07108103
17	0x3dd8e169	0.105898686
18	0xbdbd5ca1	-0.09246183
19	0xbdc412c5	-0.095738925
20	0xbbb2544d	-0.0054421783
21	0x3de163d4	0.11005369
22	0x3d4a92da	0.049456455
23	0x3e104bf3	0.14091472
24	0xbd2c842d	-0.04211824
25	0xbe0a7612	-0.13521603
26	0xbe54a7cf	-0.20767139
27	0xbdb74f8d	-0.0895072
28	0xbc311400	-0.010807991
29	0x3e2e824b	0.1704189
30	0xbe2eeb21	-0.17081882
31	0xbe3495a6	-0.17635211
32	0xbe18866b	-0.14895026
33	0x3e4d2d06	0.20036706
34	0x3bc12910	0.0058947876
35	0xbe897c8c	-0.26852834
36	0x3cdfd49e	0.027323063
37	0xbcadb785	-0.021205673
38	0xbd4363e8	-0.0477027
39	0x3d7e3602	0.062063225
40	0xbe3a22aa	-0.18177286
41	0x3def46a2	0.11683394
42	0xbd6dd152	-0.05806095
43	0x3e11f0c6	0.14252004
44	0xbd8e38c4	-0.06944421
45	0xbd485957	-0.048913326
46	0xbde2c80d	-0.11073313
47	0x3e086153	0.13318376
48	0xbd842db7	-0.06454032
49	0x3c2b8f36	0.010471156
50	0x3d03448e	0.0320478
51	0x3dff6521	0.12470461
52	0x3a61295c	0.0008589232
53	0xbd0fc674	-0.03510137
54	0x3dfac80f	0.122451894
55	0xbe324c94	-0.17412025
56	0x3dc64d94	0.096827656
57	0x3de4ac8b	0.111657225
58	0xbe0d77b9	-0.13815202
59	0xbe262a2e	-0.16227028
60	0xbe2666fa	-0.1625022
61	0xbd7471dc	-0.059678897
62	0x3dbe3475	0.09287349
63	0x3d9a7cca	0.07543333
64	0xbd7ffe5a	-0.062498428
65	0xbe24cd51	-0.16093947
66	0x3dc70f43	0.09719708
67	0x3e263bec	0.16233796
68	0xbe07e60e	-0.13271353
69	0xbe68c19d	-0.22730108
70	0xbe390f97	-0.18072353
71	0xbdb3bb91	-0.0877601
72	0x3d33728c	0.043810412
73	0x3db7a47b	0.08966919
74	0x3d73635b	0.059420925
75	0xbdca1704	-0.09867671
76	0x3cbc6a39	0.02299987
77	0x3e49abd1	0.19694449
78	0x3cd96920	0.026539385
79	0x3da270b2	0.07931651
80	0xbe1745b8	-0.1477269
81	0xbdfd3990	-0.12364495
82	0xbc27e72d	-0.010247988
83	0xbe0010f4	-0.12506467
84	0xbdfe9beb	-0.12432083
85	0x3c6205f2	0.013795363
86	0xbdc15565	-0.09440116
87	0x3e16d5cc	0.14729995
88	0xbd8bbfca	-0.0682369
89	0x3ddb996a	0.10722621
90	0xbc81cb93	-0.015844142
91	0x3d462d9c	0.04838334
92	0xbe472bae	-0.19450256
93	0xbdedc0df	-0.11609053
94	0xbd333f0e	-0.043761306
95	0xbc2a3146	-0.010387724
96	0x3c6f8d1d	0.014621046
97	0xbe712051	-0.23547484
98	0xbda1cfab	-0.07900938
99	0x3df46619	0.11933536
100	0x3c526155	0.012840589
101	0x3d11e616	0.035619818
102	0x3da21b66	0.07915382
103	0xbde7a3c8	-0.11310536
104	0xbd21f8d4	-0.03954394
105	0x3dfd9537	0.12381976
106	0xbdcd1d0f	-0.10015308
107	0x3c01de72	0.00792657
108	0xbeaa5718	-0.33269572
109	0x3d085d72	0.03329224
110	0xbd609490	-0.05482918
111	0x3d3ebef3	0.046568822
112	0xbe89c68b	-0.2690929
113	0xbde646f0	-0.11243999
114	0xbdc0d9a1	-0.094165094
115	0xbe134a76	-0.14383873
116	0xbd8c638c	-0.068549246
117	0xbdc85ad4	-0.09782949
118	0xbe85e4bd	-0.26151076
119	0xbe102ab9	-0.14078797
120	0xbd74055f	-0.059575435
121	0xbeb7e250	-0.3591485
122	0xbe066166	-0.13123092
123	0xbd9d38a2	-0.076768175
124	0xbea4baac	-0.3217367
125	0x3ca27808	0.019832626
126	0xbdac4412	-0.08411421
127	0xbeacbbd2	-0.33737046

network_body._body_endoder.seq_layers.0.weight f4 [128, 128]
0	0x3ae685c0	0.0017587468
1	0x3e507c7f	0.20359991
2	0x3d9c8301	0.076421745
3	0xbdce7fef	-0.10082995
4	0xbd55a098	-0.052155107
5	0x3e477797	0.19479214
6	0x3e1f3972	0.15549257
7	0xbdba38c0	-0.090928555
8	0x3d10f243	0.03538729
9	0xbd16d6f2	-0.03682608
10	0xbd3044cd	-0.043034364
11	0x3c293eba	0.010329897
12	0xbe512947	-0.20425902
13	0xbd18a185	-0.037263412
14	0xbe2a5450	-0.16633725
15	0x3de7d1ae	0.1131929
16	0x3e434fb7	0.19073378
17	0xbe8afdbe	-0.27146715
18	0x3804f57d	3.169988e-05
19	0x3ca614ee	0.020273652
20	0xbe3d27bd	-0.1847219
21	0x3d6ef9c8	0.05834368
22	0xbe75e666	-0.24013671
23	0xbea8a1c7	-0.32935926
24	0x3dcd098c	0.100115865
25	0xbbfa7ae2	-0.0076440433
26	0xbe61f8cf	-0.22067569
27	0xbd074542	-0.033025034
28	0x3e4d694c	0.20059699
29	0xbe824407	-0.25442526
30	0x3e8dbdcc	0.27683866
31	0x3c8e53e4	0.017373987
32	0xbdbb0144	-0.09131101
33	0xbeda76b3	-0.42668685
34	0xbcad0ce4	-0.02112431
35	0xbd84a1de	-0.06476186
36	0xbddfc871	-0.10926903
37	0xbd324559	-0.043523166
38	0xbe1e72a8	-0.15473425
39	0xbd655cfd	-0.055996884
40	0x3d82badc	0.06383297
41	0xbebcf9fe	-0.3690948
42	0xbcebf3ac	-0.028802715
43	0xbda74462	-0.0816734
44	0x3d25c83b	0.040474158
45	0x3d84eeff	0.064908974
46	0xbccc4e86	-0.024939787
47	0xbeb611b5	-0.35560384
48	0xbe81f5f0	-0.25382948
49	0xbe320564	-0.17384869
50	0xbd89c1db	-0.06726428
51	0xbe22f779	-0.15914716
52	0xbe37104b	-0.17877309
53	0x3e33ced2	0.17559364
54	0xbe9999bd	-0.30000106
55	0x3e05bbf0	0.13059974
56	0xbee63550	-0.4496255
57	0xbe99eaa6	-0.30061835
58	0xbc91fb2d	-0.017819965
59	0x3d157912	0.036492415
60	0xbd6a33ee	-0.05717843
61	0xbcce2f35	-0.025168994
62	0xbeb34141	-0.35010722
63	0x3e72aadf	0.23697995
64	0x3dbf0703	0.09327509
65	0xbe1391d0	-0.14411092
66	0xbe265624	-0.16243798
67	0xbee457ae	-0.44598144
68	0x3dcaeee7	0.09908848
69	0x3dba37eb	0.09092697
70	0x3e12f7f2	0.14352396
71	0xbdc806e9	-0.09766943
72	0xbd5e3658	-0.054251045
73	0xbe5cd8b8	-0.21567047
74	0xbebd12b0	-0.3692832
75	0x3dd62c1d	0.10457633
76	0x3ddc491f	0.10756134
77	0xbe8b9522	-0.27262217
78	0xbe27e6a4	-0.16396576
79	0xbe9d6b6e	-0.30746025
80	0xbd9160d2	-0.07098545
81	0x3c3c9653	0.011510449
82	0xbdfd37c7	-0.12364154
83	0xbd9d842f	-0.07691228
84	0x3e91c848	0.28473115
85	0xbda9602e	-0.08270298
86	0x3da0bebe	0.07848881
87	0xbe102d69	-0.14079823
88	0x3debd451	0.115151055
89	0xbeb7d8e3	-0.3590766
90	0xbd1eade2	-0.038740046
91	0xbe3d90b9	-0.18512239
92	0x3db7b429	0.0896991
93	0xbc12bcb9	-0.008956128
94	0xbdbc8a72	-0.09206094
95	0x3dc1d144	0.094637424
96	0x3e87f60c	0.26554906
97	0x3e2e684e	0.17031977
98	0x3c80df18	0.01573138
99	0xbed1cf58	-0.40978503
100	0xbea91de6	-0.33030623
101	0xbd1c5069	-0.038162623
102	0xbe7b6408	-0.24549878
103	0xbe497712	-0.19674328
104	0x3e2f282d	0.1710517
105	0xbeb6f88b	-0.35736498
106	0xbd698fe9	-0.05702201
107	0x3b865c1e	0.0041003367
108	0x3e850278	0.25978446
109	0xbe4235f1	-0.1896589
110	0x3d74c8f3	0.059761953
111	0x3defa18b	0.11700734
112	0xbe990b25	-0.29891315
113	0xbb8040a2	-0.003913955
114	0xbdce533f	-0.10074472
115	0x3c36a4fc	0.011147734
116	0x3e37a279	0.17933072
117	0xbd70b7c8	-0.058769017
118	0xbcc66adc	-0.024220876
119	0xbe76d015	-0.24102814
120	0xbe8ae2a7	-0.27126047
121	0xbd8d1009	-0.06887824
122	0xbd9b4324	-0.075811654
123	0xba92e7c5	-0.0011207989
124	0xbe21dd60	-0.15807104
125	0x3dbdb5ad	0.092631675
126	0xbe2d5537	-0.16927038
127	0x3d9783d0	0.07398188
128	0xbda2bd71	-0.07946289
129	0xbe0e176f	-0.13876127
130	0x3c840386	0.016114961
131	0xbd880738	-0.06642002
132	0xbcde54be	-0.027140018
133	0xbd114c11	-0.035472933
134	0x3e81980a	0.2531131
135	0xbea25c16	-0.3171088
136	0xbdad90bd	-0.08474872
137	0xbdbc6f06	-0.092008635
138	0xbe508522	-0.20363286
139	0xbdb18f7d	-0.08669946
140	0x3e026b1e	0.12736174
141	0xbb01a883	-0.0019784279
142	0xbec34ffa	-0.38146955
143	0xbe79f322	-0.24409154
144	0xbe437c24	-0.19090325
145	0xbe145208	-0.14484417
146	0xbd40a483	-0.04703189
147	0xbe9347f5	-0.28765836
148	0xbe0ec3f4	-0.13941938
149	0x3e1f3986	0.15549287
150	0xbe6178b4	-0.22018701
151	0xbe1219bf	-0.14267634
152	0x3d469a47	0.048486974
153	0xbe9924aa	-0.29910785
154	0xbe472570	-0.19447875
155	0xbd83d986	-0.06437974
156	0xbe7d04a5	-0.24708803
157	0x3c8e7311	0.017388852
158	0xbe67b758	-0.22628534
159	0xbe1dec0c	-0.15422076
160	0xbdb528c6	-0.088456675
161	0xbdaa358a	-0.08310993
162	0xbeaa0171	-0.33204225
163	0xbe270595	-0.16310723
164	0xbd8c3af3	-0.06847181
165	0xbed62e07	-0.4183199
166	0xbdc1ca27	-0.094623856
167	0xbe293517	-0.16524158
168	0xbe8f74e0	-0.28018856
169	0x3d51c00f	0.051208552
170	0xbe757947	-0.23972045
171	0x3e653ded	0.22386904
172	0x3cf30929	0.029667454
173	0xbe5c9b30	-0.21543574
174	0x3c1f84bf	0.009736239
175	0xbd980d7a	-0.074244455
176	0xbe02a373	-0.12757663
177	0xbe80dadf	-0.25166985
178	0xbd8b8bb2	-0.06813754
179	0xb8df19c5	-0.000106382686
180	0x3e3deb7d	0.18546863
181	0xbee81a84	-0.4533273
182	0x3ca38e7f	0.019965408
183	0x3e80cc1f	0.25155732
184	0xbaec0872	-0.0018007888
185	0xbccc0cc6	-0.024908435
186	0xbe1fc71a	-0.15603295
187	0xbe3e2448	-0.18568528
188	0xbe3483a4	-0.17628342
189	0xbe351250	-0.17682767
190	0xbd9553c7	-0.0729137
191	0x3e903d5d	0.28171816
192	0xbe47eb2f	-0.19523309
193	0xbe02146f	-0.12703107
194	0x3d7a38de	0.06108939
195	0xbc0d519a	-0.008625412
196	0xbe792deb	-0.24333923
197	0x3ca0d315	0.019631902
198	0xbe1aa074	-0.1510027
199	0xbebe4fa2	-0.3717013
200	0xbdd210f7	-0.10257142
201	0xbddd15be	-0.107951626
202	0x3e5b2da5	0.21404131
203	0xbe32b9f3	-0.17453746
204	0x3d87998b	0.06621083
205	0x3e77bb04	0.24192435
206	0x3e2b5e43	0.16735177
207	0xbcc19db8	-0.023634776
208	0xbdda131c	-0.10648176
209	0x3d815899	0.06315727
210	0xbe8395f1	-0.25700334
211	0xbe9ab3a3	-0.30215177
212	0xbeb23b55	-0.34810892
213	0xbe0426cd	-0.12905426
214	0xbe0337b8	-0.12814224
215	0xbd53567c	-0.05159615
216	0x3dbab9ab	0.091174446
217	0x3ce564a6	0.028002094
218	0xbe71d73f	-0.23617266
219	0x3e0991af	0.1343448
220	0xbe41e7dd	-0.18936105
221	0xbcb57231	-0.022149177
222	0x3d08a800	0.033363342
223	0x3b7343ca	0.0037119263
224	0xbe9efb91	-0.31051305
225	0xbe87c498	-0.26517177
226	0xbcbf40f8	-0.02334641
227	0xbd5e8007	-0.054321315
228	0x3e154fd9	0.1458124
229	0x3c70f315	0.014706393
230	0x3e23285a	0.15933362
231	0x3e477daa	0.19481531
232	0xbe25ece2	-0.16203645
233	0x3dfae0fe	0.12249945
234	0x3c8511fb	0.016243925
235	0x3ea81931	0.3283172
236	0xbdf8136f	-0.12113082
237	0x3dee472f	0.11634671
238	0xbebe54d5	-0.37174097
239	0x3dc2d9d6	0.09514205
240	0xbe15714c	-0.14594
241	0x3dc96c52	0.098351136
242	0xbe224a69	-0.15848698
243	0xbe24b596	-0.16084895
244	0xbd73fe19	-0.0595685
245	0xbd873f8d	-0.06603918
246	0xbdead8e4	-0.1146715
247	0xbe98e89a	-0.2986496
248	0xbec81328	-0.39077115
249	0x3b07cefc	0.0020722738
250	0xbecb37e7	-0.39691088
251	0xbda84597	-0.08216398
252	0xbdb47c4c	-0.0881277
253	0xbe074cbc	-0.13212866
254	0xbd3563ba	-0.04428456
255	0xbc54f09c	-0.012996819

network_body._body_endoder.seq_layers.0.bias f4 [128]
0	0xbe840c83	-0.25790796
1	0x3ddace6d	0.10683904
2	0xbd79032a	-0.060794033
3	0xbe74c31c	-0.23902553
4	0x3d837d8b	0.0642043
5	0xbe887b89	-0.2665675
6	0xbe399127	-0.18121777
7	0x3d973fd8	0.07385224
8	0xbd33959f	-0.04384386
9	0xbe8a4fc7	-0.2701399
10	0xbe4443d7	-0.19166504
11	0xbd1fa9d6	-0.038980328
12	0xbed3d597	-0.41373894
13	0xbeb57d72	-0.3544727
14	0x3e3a5d08	0.18199551
15	0xbd939954	-0.072069794
16	0x3e4a49d8	0.19754732
17	0xbe9122cb	-0.28346857
18	0xbcec13f3	-0.028818106
19	0xbe82efa7	-0.25573465
20	0xbe910c4a	-0.28329688
21	0xbe045b5e	-0.12925479
22	0xbba5aaa1	-0.005055741
23	0x3db84ae6	0.08998661
24	0xbe9948d2	-0.2993837
25	0x3e410e63	0.18853144
26	0xbe4fdb43	-0.20298485
27	0x3cda4b0c	0.026647113
28	0xbe37c5cc	-0.17946547
29	0x3e238f70	0.15972686
30	0xbd7d3d39	-0.061825965
31	0x3d691bcc	0.056911275
32	0xbe650879	-0.22366513
33	0xbe8a2d0d	-0.26987496
34	0xbe860cc5	-0.26181617
35	0xbebd7887	-0.37006018
36	0xbde364e6	-0.11103229
37	0xbe5745a7	-0.21022664
38	0xbe2d4a50	-0.16922879
39	0xbd5cd65f	-0.053915378
40	0xbeb5e024	-0.35522568
41	0x3cc624c1	0.024187448
42	0xbe4fc950	-0.20291638
43	0xbead104f	-0.33801505
44	0xbdba8acf	-0.09108507
45	0xbdb16996	-0.08662717
46	0x3db96134	0.09051743
47	0x3dd941b1	0.10608233
48	0xbe7ce8ae	-0.24698135
49	0xba8326bb	-0.0010006049
50	0x3cec6aec	0.028859578
51	0xbe803d64	-0.25046837
52	0xbca0d783	-0.019634014
53	0xbe5f73f4	-0.21821576
54	0xbec07619	-0.375901
55	0x3d1971f2	0.037462182
56	0xbeac4674	-0.336475
57	0x3db47f9b	0.08813401
58	0x3d6e3c46	0.05816295
59	0xbe2997c4	-0.165618
60	0xbe2b7383	-0.16743283
61	0xbe5efa3c	-0.21775144
62	0xbe471c23	-0.19444327
63	0x3d8552ae	0.065099105
64	0xbe39ccd2	-0.18144539
65	0x3decb1b3	0.11557331
66	0x3df8c5e0	0.12147117
67	0x3e65edf6	0.22454056
68	0xbe80d9a8	-0.2516606
69	0xbe5158f4	-0.20444089
70	0x3e190f0f	0.1494715
71	0x3d8de091	0.06927598
72	0xbe11be20	-0.14232683
73	0x3d95cb6b	0.073141895
74	0xbe9aa52f	-0.3020415
75	0x3c55d50a	0.013051281
76	0xbe96b3de	-0.29434103
77	0xbeb40ea3	-0.35167417
78	0xbe8600c7	-0.26172468
79	0xbdaa0d4e	-0.08303319
80	0xbe93d61a	-0.28874284
81	0x3d5003eb	0.050784986
82	0xbea9c719	-0.33159712
83	0xbe91ad26	-0.28452414
84	0xbe05f033	-0.1307991
85	0xbe7213b2	-0.23640326
86	0xbe95f1ea	-0.29286128
87	0xbc93cc07	-0.018041624
88	0xbc60af47	-0.013713664
89	0xbccb7b0b	-0.024838945
90	0xbd47923a	-0.048723437
91	0xbe8ba367	-0.27273104
92	0xbd5db4a0	-0.054127336
93	0xbeac2c12	-0.33627373
94	0xbc5780ce	-0.013153268
95	0x3defa5f9	0.11701579
96	0xbe8c5ea2	-0.2741595
97	0x3d638493	0.055546355
98	0xbe585f07	-0.2113
99	0xbea3170e	-0.31853527
100	0x3d230fba	0.03980992
101	0xbe509a77	-0.20371424
102	0xbedb24e6	-0.4280159
103	0x3dc6aa87	0.09700494
104	0xbe908032	-0.28222805
105	0xbe407382	-0.18794063
106	0xbe8cf47c	-0.27530277
107	0x3bea0439	0.0071416167
108	0xbebedcc7	-0.37277815
109	0xbe2dcec0	-0.169734
110	0xbd917a29	-0.07103378
111	0xbe9b5a2a	-0.30342227
112	0xbe4701ae	-0.19434234
113	0x3d7aff76	0.061278783
114	0x3d5a5b60	0.0533098
115	0xbdaa9ea8	-0.083310425
116	0x3db948d6	0.090470955
117	0x3db49194	0.08816829
118	0x3e35cf25	0.177548
119	0xbb8dcd88	-0.0043274797
120	0xbec05a3e	-0.3756885
121	0x3e02ec37	0.12785421
122	0xbe17b653	-0.14815645
123	0x3e0212ad	0.12702437
124	0x3de4fbaf	0.11180817
125	0xbe9372b6	-0.28798455
126	0xbe8eeaa3	-0.2791339
127	0xbe73f026	-0.23822078

network_body._body_endoder.seq_layers.2.weight f4 [128, 128]
0	0xbe0c348e	-0.13691923
1	0xbe3dda90	-0.18540406
2	0x3ca10faf	0.019660799
3	0xbe73a147	-0.23791991
4	0x3dc5c5ee	0.09656893
5	0xbe46beed	-0.1940877
6	0xbe6be582	-0.23036769
7	0xbd320a1f	-0.043466683
8	0xbe921b25	-0.28536335
9	0x3b3ce5b2	0.0028823433
10	0x3b3e94fa	0.0029080496
11	0x3db5d168	0.08877832
12	0x3d67d01a	0.056594945
13	0x3be2fd97	0.006927203
14	0xbde3b1a4	-0.11117867
15	0x3cbc1e41	0.022963645
16	0xbc2e2470	-0.010628805
17	0x3a9d4207	0.0011997827
18	0xbd7ebd6e	-0.062192373
19	0xbe35abda	-0.17741337
20	0xbd8388a9	-0.0642255
21	0xbd4bc394	-0.049747065
22	0x3e0e2002	0.13879398
23	0xbe0c041f	-0.13673447
24	0xbdf7e425	-0.12104062
25	0xbe52f076	-0.20599541
26	0x3db58dfc	0.08864972
27	0xbde35191	-0.11099542
28	0xbd17f431	-0.037098113
29	0x3e2e15f3	0.1700056
30	0xbcda2420	-0.026628554
31	0xbc6d8349	-0.014496633
32	0xbe03849e	-0.12843558
33	0xbd9f2478	-0.07770628
34	0xbdd44f25	-0.10366658
35	0x3cd81768	0.026378348
36	0xbdb2dad1	-0.08733142
37	0xbd73f7e0	-0.059562564
38	0xbd64f8da	-0.055901386
39	0x3d8ed203	0.0697365
40	0xbd67d3e3	-0.056598555
41	0x3da3008b	0.07959088
42	0xbe268a2d	-0.16263647
43	0x3cff2a28	0.031148031
44	0x3d841293	0.06448855
45	0x3c7b8393	0.015351194
46	0x3de36e87	0.11105066
47	0x3dbdccb4	0.0926756
48	0xbc8e3d2c	-0.017363153
49	0x3cdfa580	0.027300596
50	0x3e4e1591	0.20125414
51	0xbde945b8	-0.11390251
52	0xbda9bde9	-0.082881756
53	0xbdfbec68	-0.1230095
54	0xbdb292df	-0.0871942
55	0xbcc1f9b0	-0.02367863
56	0xbd75e63b	-0.060034018
57	0x3ddbbb4b	0.10729083
58	0xbded3d32	-0.11583938
59	0x3a98dec9	0.0011663075
60	0xbe90378f	-0.28167388
61	0xbe201a1b	-0.15634958
62	0xbc2fb083	-0.010723236
63	0x3dd9f167	0.10641747
64	0xbe00f112	-0.12591961
65	0x3e30e4d9	0.17274798
66	0x3aede7ae	0.0018150711
67	0xbdc38036	-0.09545939
68	0xbda91d4c	-0.08257541
69	0xbe180566	-0.1484581
70	0x3e21fe6d	0.15819712
71	0xbabd179c	-0.0014426592
72	0xbe09c7ec	-0.1345517
73	0xbdf9103d	-0.121613
74	0xbd599167	-0.053117182
75	0xbc290bd1	-0.010317759
76	0xbd524c65	-0.051342387
77	0xbe712d22	-0.23552373
78	0xbc18a03b	-0.009315546
79	0xbcdc53f1	-0.026895495
80	0xbe75f138	-0.24017799
81	0xbc4749d0	-0.012163594
82	0xbddaef7e	-0.10690211
83	0xbc84c2d3	-0.01620618
84	0xbe824bb7	-0.2544839
85	0xbddf3def	-0.10900485
86	0xbe4b7c6f	-0.19871686
87	0x3ed032fa	0.40663892
88	0x3d34423b	0.044008475
89	0xbe46ff78	-0.19433391
90	0xbe254e98	-0.16143262
91	0xbd8663fe	-0.06562041
92	0x3e55d954	0.20883685
93	0xbddf9427	-0.1091693
94	0xbe3998d5	-0.18124707
95	0xbca20ec6	-0.019782435
96	0xbd1f3a9a	-0.038874246
97	0xbd03f3e6	-0.03221502
98	0x3d112486	0.035435222
99	0xbdf2c412	-0.11853804
100	0xbddbdcf5	-0.107355036
101	0xbcecebf2	-0.028921101
102	0x3d0a25ba	0.033727385
103	0x3e26b563	0.16280131
104	0xbdb03e92	-0.08605684
105	0xbdfdb2a1	-0.123875864
106	0x3c4ef50f	0.012631669
107	0x3e37b1d2	0.17938927
108	0xbdcb69e6	-0.09932308
109	0x3d731e1c	0.059354886
110	0xbe8317c7	-0.25604078
111	0xbd5141ed	-0.051088262
112	0x3b9a581d	0.004710211
113	0x3dadf9d9	0.0849492
114	0x3bf1b53a	0.00737634
115	0x3d988b2e	0.074484214
116	0xbc9cc09e	-0.019134816
117	0x3bd48452	0.0064855004
118	0x3e5758d2	0.21029976
119	0x3d14fd94	0.036374643
120	0xbe2b85e5	-0.16750295
121	0xbd8838f0	-0.06651485
122	0x3d61dedc	0.055144176
123	0xbbb46d6e	-0.005506209
124	0x3d59960c	0.05312161
125	0xbdedc2a8	-0.11609393
126	0xbdbbf92b	-0.091783844
127	0xbe2e9c28	-0.17051756
128	0xbe8232f7	-0.25429508
129	0x3d7e84a3	0.06213821
130	0x3bf94c8c	0.007608002
131	0x3dcb2383	0.09918883
132	0xbd4d7d03	-0.05016805
133	0xbe6b923a	-0.23005
134	0xbe42ed3a	-0.19035807
135	0xbdc1ff05	-0.09472469
136	0xbe066266	-0.13123474
137	0xbe7b18c4	-0.24521166
138	0xbdce2a30	-0.100666404
139	0xbf0e3f74	-0.5556557
140	0xbe1e5f3f	-0.15466021
141	0xbe077844	-0.13229471
142	0xbc327599	-0.010892295
143	0xbd1cf79f	-0.038322087
144	0x3ca6e59b	0.020373156
145	0xbe7077a3	-0.23483138
146	0x3ca1b4f8	0.019739613
147	0x3d4d4a0d	0.05011945
148	0xbe4157c6	-0.18881139
149	0xbdd4002a	-0.10351594
150	0xbd58c292	-0.05291993
151	0x3cc1e33c	0.023667924
152	0xbd1e3d06	-0.038632415
153	0xbbfa6e5b	-0.00764255
154	0xbe0ab6be	-0.13546273
155	0x3d1906be	0.037359945
156	0xbe534a42	-0.20633796
157	0xbe0f9015	-0.14019807
158	0xbeafb775	-0.34319654
159	0xbda92513	-0.082590245
160	0xbdef9bf4	-0.116996676
161	0xbe9ea3de	-0.30984396
162	0xbe2e7e31	-0.17040326
163	0xbe78f452	-0.24311951
164	0xbe65d9a1	-0.224463
165	0xbe539839	-0.20663537
166	0xbe7028a4	-0.23453003
167	0xbea65c08	-0.3249209
168	0xbda671ab	-0.08127149
169	0xbd85b2db	-0.065282546
170	0xbde5cfc9	-0.112212725
171	0xbe26de7f	-0.16295813
172	0xbe7e6c5d	-0.24846025
173	0xbd14d86a	-0.0363392
174	0xbeadc949	-0.3394263
175	0xbc0feebb	-0.008784945
176	0xbd4df2b2	-0.05028028
177	0x3d7d5318	0.061846823
178	0x3d4293cc	0.04750423
179	0xbdca5959	-0.09880323
180	0xbe1498ed	-0.14511462
181	0xbe8eb35f	-0.27871224
182	0xbe34d1f6	-0.17658219
183	0x3e47d349	0.19514193
184	0xbe5008d4	-0.20315868
185	0xbe2bf18a	-0.16791359
186	0xbd857a04	-0.06517413
187	0xbee28a0c	-0.44245946
188	0xbdb741d9	-0.08948106
189	0xbe27ba9b	-0.16379778
190	0xbe239c3d	-0.15977569
191	0xbd8f321e	-0.06991981
192	0xbe425b96	-0.1898025
193	0x3d9307be	0.07179211
194	0xbd9d8f05	-0.076932944
195	0x3d1e43ca	0.038638867
196	0xbe15830f	-0.14600776
197	0xbe7b2846	-0.24527082
198	0xbdc45e74	-0.09588328
199	0xbc9597aa	-0.018260796
200	0xbd602570	-0.054723203
201	0xbde3c0a2	-0.11120726
202	0xbe00f7d7	-0.12594543
203	0x3d1e9a95	0.03872164
204	0xbe8257e2	-0.25457674
205	0xbe2262d1	-0.15858008
206	0xbe2a0f15	-0.16607316
207	0xbe0006fa	-0.12502661
208	0xbe1805c1	-0.14845945
209	0x3c6d8733	0.014497566
210	0xbe53f8ae	-0.20700333
211	0xbdeb8268	-0.114994824
212	0xbe3e00ee	-0.18555042
213	0xbe222cd0	-0.15837407
214	0xbe7e605d	-0.24841447
215	0xbe5cc6e7	-0.2156025
216	0xbd09c151	-0.033631627
217	0x3e41ef73	0.18938999
218	0x3dd857b9	0.10563607
219	0xbe54225f	-0.20716237
220	0x3d2497da	0.04018388
221	0xbe5c2d25	-0.21501596
222	0xbdf12ee9	-0.117765255
223	0xbd03e74a	-0.032202996
224	0xbe299419	-0.16560401
225	0xbbed0468	-0.0072331913
226	0xbe9532d3	-0.29140338
227	0xbdf0dc99	-0.11760826
228	0x3e082712	0.13296154
229	0xbea54702	-0.32280737
230	0xbe3cbb76	-0.18430886
231	0xbdf0aa33	-0.11751213
232	0x3c949b81	0.018140556
233	0xbe12eb51	-0.14347579
234	0xbe8d0096	-0.2753951
235	0xbcaee1c2	-0.021347884
236	0xbe4c67b5	-0.19961436
237	0xbd0d445e	-0.03448903
238	0xbe3cc74a	-0.18435398
239	0xbe6d2413	-0.23158292
240	0xbe2cebd9	-0.16886844
241	0xbd4715f6	-0.048604928
242	0x3e016ff6	0.12640366
243	0xbe1ad43b	-0.15120022
244	0x3e61c1d5	0.22046597
245	0xbd08ecb8	-0.033428878
246	0xbd00f8ea	-0.031487383
247	0x3d36c90d	0.04462533
248	0xbe9db8c4	-0.30805027
249	0x3d9bbbb0	0.07604158
250	0xbe69a7fa	-0.22817984
251	0x3e010b51	0.12601973
252	0xbdbc9744	-0.09208539
253	0xbe3c3240	-0.18378544
254	0xbe237be3	-0.15965228
255	0xbe50b97f	-0.20383261

network_body._body_endoder.seq_layers.2.bias f4 [128]
0	0x3d368ea0	0.04456961
1	0x3e55b0d2	0.20868233
2	0x3d70d554	0.058797196
3	0xbf0319d8	-0.5121131
4	0xbdd411b7	-0.10354941
5	0x3cc53ad1	0.024075897
6	0x3dde2f80	0.10848904
7	0xbe7115d8	-0.23543489
8	0xbe2eb9ce	-0.17063066
9	0xbe651ab4	-0.22373468
10	0xbf006895	-0.5015958
11	0xbefeaead	-0.49742642
12	0xbe8f4ebb	-0.27989754
13	0xbe0747cd	-0.13210984
14	0xbe87aba5	-0.26498142
15	0x3e25b873	0.16183643
16	0xbea6e240	-0.3259449
17	0xbe7beaeb	-0.24601333
18	0xbec361e2	-0.38160616
19	0xbe080f27	-0.1328703
20	0xbeb0b7af	-0.3451514
21	0xbd950dd9	-0.07278032
22	0xbe1ec2f4	-0.15504056
23	0xbe3ca9cb	-0.18424146
24	0xbe9e2e53	-0.30894718
25	0xbc3cc64e	-0.011521889
26	0x3e1038ff	0.14084242
27	0xbe8eff28	-0.27929044
28	0x3d572c25	0.052532334
29	0x3d10077e	0.035163395
30	0xbdce5bcf	-0.10076105
31	0x3da5f2da	0.08102961
32	0x3d454626	0.048162602
33	0x3d847a18	0.064686
34	0xbe74fc61	-0.239244
35	0x3e05f299	0.13080825
36	0x3d56ef7d	0.052474488
37	0x3d8e5890	0.06950486
38	0x3d20abfb	0.039226513
39	0xbe959ca4	-0.2922107
40	0x3cbc6982	0.022999529
41	0x3e2a3cf8	0.1662482
42	0xbe2d6890	-0.16934419
43	0x3d949d05	0.072565116
44	0xbe1b3a75	-0.15159018
45	0x3db427a6	0.08796625
46	0xbdbe472d	-0.092909195
47	0xbeb028f2	-0.3440624
48	0x3dd5fdcb	0.10448798
49	0xbf00f026	-0.5036644
50	0xbda11f53	-0.07867303
51	0xbca518b8	-0.020153388
52	0xbe0d9b97	-0.13828884
53	0x3e003d26	0.12523326
54	0xbe5adf61	-0.21374275
55	0x3e318b7e	0.17338368
56	0xbe152cbf	-0.1456785
57	0xbe0fdf33	-0.14049987
58	0xbdcb2334	-0.09918824
59	0xbd67a682	-0.05655528
60	0x3e226efe	0.15862653
61	0x3d44ae7d	0.048017967
62	0x3e3313de	0.17488047
63	0xbe362d69	-0.1779076
64	0xbe77fb40	-0.24216938
65	0x3d00d4ca	0.03145293
66	0x3dcc9c19	0.09990711
67	0x3db29cfe	0.0872135
68	0xbeaad7a0	-0.33367634
69	0xbe404723	-0.18777137
70	0xbe8ed6e8	-0.27898335
71	0xbd977d7d	-0.07396982
72	0xbe1dcfb5	-0.15411265
73	0xbd837d5d	-0.064203955
74	0x3e493cf8	0.19652164
75	0xbe025aab	-0.127299
76	0xbe2144cb	-0.15748899
77	0xbe79e92a	-0.24405351
78	0xbe9b91aa	-0.3038457
79	0xbec42a91	-0.38313726
80	0xbd748cf8	-0.05970475
81	0xbe372315	-0.17884476
82	0xbebc9a04	-0.36836255
83	0xbea17e73	-0.31541786
84	0x3de9bd1f	0.11413025
85	0xbe338832	-0.17532423
86	0xbeaa9432	-0.3331619
87	0xbec33c2f	-0.38131854
88	0xbdbc03b8	-0.09180397
89	0xbe4bac5e	-0.19889972
90	0x3d766f18	0.06016454
91	0xbe23a520	-0.15980959
92	0xbd9331eb	-0.071872555
93	0x3d721ec3	0.059111368
94	0xbe36f6fb	-0.17867653
95	0xbe8e6bd5	-0.27816644
96	0xbe33a2cf	-0.17542575
97	0xbe8d625e	-0.2761411
98	0xbe38255a	-0.17982998
99	0xbe67b420	-0.22627306
100	0xbe8a5508	-0.27018
101	0xbe032edd	-0.12810846
102	0xbe9603dd	-0.29299822
103	0xbece98db	-0.40350994
104	0x3d649d33	0.05581398
105	0xbde4b40f	-0.11167156
106	0xbe587be0	-0.21141005
107	0xbe08f028	-0.13372862
108	0xbecdaf9b	-0.4017304
109	0xbe8ad24f	-0.27113578
110	0xbdb68257	-0.08911579
111	0xbeb92dca	-0.36167747
112	0xbdac5d7c	-0.08416268
113	0x3bb064e8	0.0053831227
114	0x3e4878e3	0.19577365
115	0x3c0c8281	0.008576036
116	0xbe830360	-0.25588512
117	0xbdad33c8	-0.08457142
118	0xbeb7c80e	-0.35894817
119	0x3d2e0ccf	0.042492684
120	0xbe9ce5b2	-0.30643994
121	0xbd301566	-0.042989157
122	0xbe58c264	-0.21167904
123	0xbdf04964	-0.11732748
124	0x3d67364f	0.056448277
125	0x3dc367c2	0.095412746
126	0x3d49dfd8	0.04928574
127	0x3d8ff80d	0.07029734

action_model._continuous_distribution.log_sigma f4 [1, 3]
0	0xc002d684	-2.044343
1	0xbfe8ba85	-1.8181921
2	0xbfe4655e	-1.7843435
