CS455_PR1/results/ShootTargetAgent_T2/ShootTargetAgent/ShootTargetAgent-500024.onnx (onnx, 490788 bytes, 18 tensors)

discrete_act_size_vector f4 [1, 2]
00000000: 0000 4842 0000 4842
50.0 50.0

network_body.observation_encoder.processors.0.conv_layers.0.weight f4 [16, 1, 8, 8]
00000000: f74a 6cbd 37ff 573c 5059 4e3d 1e70 15bd
00000010: 652b 20bd c919 c8bc 1fc8 773d 4aa2 c1bd
00000020: b0f7 843d 151a 9f3c a628 debd 8120 e4bd
00000030: 416a 64bd d16a 15bd e048 5abd 423e 2e3d
00000040: 8cc6 afbd c662 393c da4d 893d 2fc4 9f3d
00000050: 3f86 79bc 5472 42bd 75c0 8b3d 88b0 653d
00000060: 526a 6e3c 8f53 babd 93af 01bd 5a81 dbbc
00000070: e33d 89bd 3cd4 e43d a8e1 193d 9d04 173c
00000080: 4d9a f9bc e2e0 31be fdfa f33d b022 a63d
00000090: a568 15be fd9a b73c e2c7 7e3d ebe3 c8bd
000000a0: 8d89 9bbd e9f9 0cbe ccf0 713b b0b8 dcbd
000000b0: cfde a9bd 53be 953c 8904 85bd dfd6 e7bd
000000c0: 1b8f 89bd ca30 a4bd 75d8 133c 106b 02bd
000000d0: 51ad 4bbd 0ba8 9a3d 16c0 6ebd 77d4 96bd
000000e0: cb7e 87bd 2c72 c4bd b4b9 653d d6ec 0dbe
000000f0: 2145 e63b 1708 363d 04e8 553d 92c1 7ebd
00000100: 219f d63d 7c94 24bd 4ee7 3ebd d760 9ebd
00000110: a243 a13c b308 a5bc 9c95 133e f505 8d3d
00000120: 9f6f 9c3d 2b5d 07bd 8eaf 963d d77d c73d
00000130: ebda f43d cc9d 103e 1511 1a3e 7ddc a93d
00000140: 30ea a0bd 9cdf c03d f749 423d a7ac 683d
00000150: 7f76 d63d d15d bcbb 1d4d 0c3e bfcf 19bd
00000160: a807 efbc 535e 273c a45e 18bd 160d 62bd
00000170: 054e a0bd bfde aabd 3ab7 a0bd 4562 c2bd
00000180: 2d39 d6bd ad16 173d 1e97 2c3c 482d c0bd
00000190: 076f acbd 7243 243d fb60 2d3e 0a7c 8cbd
000001a0: a5df 9cbc e996 a63d 9651 d13d 6437 b2bd
000001b0: 78a8 3b3d 4c91 913c 8558 de3d 43fe ab3d
000001c0: bd53 793d 31b0 9d3d 8e5d a73d e8cf e63c
000001d0: 0e2a 34bd 4090 203e d232 883d ef9b 243e
000001e0: c975 e63d fe37 a43c a65c 693d e006 a9bc
000001f0: 34f6 cfbc 5c7e 11bd 8105 1b3e 5ae0 dd3d
00000200: 307a de3d 3459 f4bd d359 8abc 4ee3 433d
00000210: 181b d4bd b3e0 88bd e5e4 03be 310a adbd
00000220: 0cbb 2b3c 44bf bb3d 5528 0abe 687a 923d
00000230: 2bc2 0f3d b3ac adbd bbc4 dabd e132 afbd
00000240: 0ecf 4e3d ad01 7abd bdb6 91bd 5572 d4bd
00000250: 16ac fd3d edf6 e83d 1f43 cc3c be8e f6bd
00000260: 6840 1cbc 6a26 39bd c6ea be3d be50 8fbd
00000270: f31f 8dbd 6b48 bbbc e69d 0e3d 07c6 a8bc
00000280: 9719 cf3d 3d0d adbd a419 afbd 3ef9 33bd
00000290: d728 b33d d3ba 483d da58 f7bd 6052 173e
000002a0: 00fd 5fbd edf3 14be d6ca a83d 40f9 a8bd
000002b0: c696 003d b11b 8ebd bb1e 023c 05ac 843d
000002c0: e46d cabd 6184 44be f906 b7bc f90c d43d
000002d0: b077 19bd a316 a23c 3233 143e a84b b5bd
000002e0: c008 5fbe 5589 15be 97f7 463d 35a3 4f3d
000002f0: 9602 61bd 583c bbbb 2fb4 a23d 4afb da3d
00000300: 90bb dabd 2333 abbd a03a 963d d9fe d83c
00000310: 898b 4e3d 5661 e2bd f078 2fbe eb73 a43d
00000320: b034 0abe a624 19be af61 10be efa9 afbc
00000330: ad8b 78bd 455c e6b9 5f2f b83d 25c1 70bc
00000340: 14a2 4dbd c4c8 e1bd 2827 2a3d aca3 a639
00000350: 6348 81bd 1b1b 2fbe a0a5 a1bd cf68 babd
00000360: 0747 d2bd 6e22 b33b 4c21 b0bd 7d27 a4bd
00000370: 1f70 9d3c 8400 c8bd fb9c b03d 11e0 fb3d
00000380: dcf9 f9bd b70b 91bd 1c05 0c3d ef9a 05be
00000390: 08fd 88bd 02c7 24bd e4fc 0cbd 21e4 913d
000003a0: 8e36 53bc 0a8a 62bd 9e18 563d 7584 e43d
000003b0: 4805 62bd 0e26 1ebd bb39 c9bd 2d65 a33d
000003c0: 7e79 a83d 4a0f 4dbd 6d34 03bb b26c 883c
000003d0: 5520 f6bc ee59 8dbd 8ed5 85bd 32a1 0d3e
000003e0: 2c8b 953c f0f4 39be 570f 3c3d 54e7 ff39
000003f0: 9572 abbd 1a47 23be 895f 1abe 73f3 5ebd
-0.05768868 0.013183407 0.050378144 -0.036483876 -0.039103884 -0.024426358 0.060493585 -0.09454782
0.06492555 0.019421617 -0.10847597 -0.11139012 -0.055765394 -0.03647882 -0.053292155 0.042539842
-0.08582792 0.011315053 0.06704302 0.07801091 -0.015229761 -0.047472313 0.06823818 0.056076556
0.014551716 -0.09097969 -0.03166158 -0.026795078 -0.06701257 0.11173293 0.03756872 0.0092174085
-0.030469084 -0.17370942 0.119131066 0.08112085 -0.145907 0.022412771 0.06220234 -0.09809097
-0.07594595 -0.13767208 0.0036917208 -0.10777414 -0.082944505 0.01827923 -0.06495006 -0.1132028
-0.06716748 -0.08017118 0.009023775 -0.031840384 -0.049725834 0.07551583 -0.058288656 -0.07364743
-0.06615981 -0.09592089 0.056085303 -0.13859877 0.007027284 0.04444131 0.05222322 -0.06219632
0.1047957 -0.04018067 -0.046607308 -0.077333145 0.01968557 -0.02014575 0.1441254 0.06885902
0.076384775 -0.033047836 0.07357703 0.09740799 0.11955818 0.14122695 0.15045579 0.08294008
-0.07857168 0.0941765 0.04743382 0.05680528 0.1047182 -0.0057484885 0.13701291 -0.037551638
-0.029178455 0.01021536 -0.03719963 -0.05518826 -0.07827381 -0.08343267 -0.07847448 -0.094914
-0.10460124 0.03688686 0.010534076 -0.09383637 -0.08419614 0.040103383 0.16931526 -0.06859596
-0.01914961 0.081342526 0.102206394 -0.08701971 0.04581496 0.017769478 0.108567275 0.08398106
0.060870875 0.076996215 0.08172141 0.02817531 -0.04398542 0.15680027 0.06650318 0.16075109
0.112529345 0.02004623 0.056973122 -0.020633161 -0.025385953 -0.035520896 0.15138818 0.10833807
0.10863149 -0.11931077 -0.016888535 0.047824197 -0.1035673 -0.06683483 -0.12880285 -0.084492095
0.010481607 0.091673404 -0.13491948 0.071522534 0.035097282 -0.084802054 -0.106820546 -0.08554626
0.05049043 -0.061036754 -0.07114933 -0.103733696 0.123863384 0.11375222 0.02493435 -0.12038945
-0.00953684 -0.04520265 0.09322123 -0.06997822 -0.068908595 -0.02286168 0.034818552 -0.02060224
0.10112303 -0.084497906 -0.085498124 -0.043938868 0.08748024 0.049006294 -0.12077494 0.14777517
-0.05468464 -0.14546175 0.08241813 -0.08250666 0.03139379 -0.069388755 0.007941897 0.064781226
-0.09884241 -0.19191124 -0.022342192 0.10354037 -0.03746766 0.019786185 0.14472654 -0.08852321
-0.21780682 -0.1460317 0.048575964 0.050692756 -0.054934107 -0.0057139806 0.079445235 0.10692461
-0.10680306 -0.08359363 0.073354006 0.026488708 0.05042604 -0.110537216 -0.17135978 0.08029922
-0.13496661 -0.14955387 -0.14099763 -0.021443335 -0.06068008 -0.00043937765 0.0899341 -0.014694487
-0.050203398 -0.11024621 0.04154125 0.00031783932 -0.06312635 -0.17100184 -0.078929186 -0.09102022
-0.10267454 0.005466751 -0.08600101 -0.08015344 0.019218503 -0.09765723 0.08623692 0.12298597
-0.1220586 -0.070823126 0.03418456 -0.13047384 -0.06688887 -0.04022885 -0.034420863 0.0712359
-0.012891425 -0.055307426 0.05226957 0.11158077 -0.055180818 -0.03861051 -0.09825464 0.07978282
0.08226298 -0.05006341 -0.0020020262 0.016653392 -0.030044714 -0.06901918 -0.06534873 0.13831022
0.018254839 -0.18159842 0.045913067 0.00048809743 -0.08371464 -0.15945092 -0.15075506 -0.05443139

network_body.observation_encoder.processors.0.conv_layers.0.bias f4 [16]
00000000: c3e5 9abd ad8b 1dbd ed8e 3abd 1cdc 203c
00000010: d096 45bd 1ede b2bd 1a3d aabd 3225 f73c
00000020: 1378 9abc 8a91 0cbd 08d5 6c3c 46bf f5bc
00000030: dc3f 0ebd 6fa5 75bb 10da 4dbd eeec 03bd
-0.07563355 -0.038463283 -0.04554646 0.009818103 -0.04823953 -0.08733772 -0.083124354 0.030169103
-0.018856084 -0.034318484 0.0144550875 -0.029998433 -0.03472887 -0.003748264 -0.05025679 -0.032208376

network_body.observation_encoder.processors.0.conv_layers.2.weight f4 [32, 16, 4, 4]
00000000: a040 d63c 0739 b9bd 6129 0ebd 5088 393d
00000010: 6dea 9d3c 2f62 0cbe 60ec 243b 0960 343d
00000020: d3a1 7abd ead0 963d d8e4 bd3d f507 313d
00000030: c398 7f3d 413a fdbc 6993 ed3c 1ade 473d
00000040: a7eb a43d 0e7b 1cbc 65a2 a33b a856 9d3d
00000050: 3cb2 a33d 7f38 2e3d c499 0d3d 46e2 513d
00000060: ca79 a63d 46fb 483d c2c4 c23c 928a 2f3d
00000070: a331 5d3d 3bcd 3f3d 35f3 d33c ab67 ca3d
00000080: 5ace cc3c 9d5c c13c dfcc 87bd 98cb bf3d
00000090: c383 d83c a274 d3bd 6e0b 6f3c 219b 273c
000000a0: 9e22 a7bc fca0 52bd 7b37 7a3d 9af0 8c3d
000000b0: 9e78 183d 657c b13d b3b6 b6bc e4c8 a13b
000000c0: 80af cfbd 0602 ce3b 84ff c3bd 30c6 e9ba
000000d0: c323 adbd e303 cebd d98f 5dbd 9340 83bc
000000e0: b8de 8dbd f322 8db9 7e59 163d f643 83bd
000000f0: e40b 933c c356 d13c e0bb 033d a6f1 263c
00000100: fdb1 8ebd d67c f23b 1963 ea3d 9c97 5a3d
00000110: 4d0e 2c3d 5776 1cbd d8ee 0d3e 9b26 a739
00000120: f74e 973d 5f8b d03c 1686 6c3d 3f0a fa3c
00000130: 9aba 653d a98d 703c 4f7d 203d c170 ae3d
00000140: 1982 78bc 16fd 57bc 7481 4b3e 70c7 04be
00000150: 8adc 4ebc cc7b 483d ffde cf3a ab72 113d
00000160: a3e3 d23d 5dc2 613d 4dc4 163e a11d 37bd
00000170: e7f6 03bd b222 edbc 456f 883d d3c4 763a
00000180: 8feb 0e3e 777d 5d3d fec4 c03d 4c77 6c3d
00000190: 1d9f 653d 7add 3d3c 261b 983c 8492 acbc
000001a0: e5f6 aa3d 9d5e 453d 7b0a 1b3d 1a2c 4d3d
000001b0: 35b8 a93c 0a97 b5bc 9625 a63c 194a 043d
000001c0: faa4 f2bc 6091 c6bb a632 e7bc 87f2 2cbd
000001d0: f08e 04bd 28f7 83bd afcb d03c b97c c2bc
000001e0: 4867 a3bc 155e 7cbc 8d2a 073d 2128 91bd
000001f0: bdb8 67bd c42e 453c d818 80bd 3e9a 2bbc
00000200: 9ca7 2ebb bdc7 95ba 8fbc 31bd b61d 783d
00000210: 9dd8 993d 42ce 6b3d d37f 503d 52bd 853d
00000220: 666f 43bd f2ba ff3b 8647 003d 640d fbbc
00000230: 3785 f53b b6b0 9b3c f4b0 293d e411 05bd
00000240: 3b71 983d 8b23 d43d 451b 9e3d 36bd b5bc
00000250: d5a5 fbbb 6c5a 243d 5ea1 a73d 70ce a53c
00000260: 9737 c33d a1de d63b 8f89 893c ebab 823d
00000270: 1b98 ee3c c1f1 da3a 4923 13bc 494b b03d
00000280: 2579 ccbb 33c4 1bbd 7854 31bd 6391 283b
00000290: 0444 e83a 9d67 d33c 8626 e13d 9526 cf3d
000002a0: 171b ca3d f3fe f6bc 4121 f8bb a2dc a63b
000002b0: 1b81 cf3d ffea c63d dbf6 cb3d b358 3b3d
000002c0: f400 693d 3a51 e63c f6e8 8ebb 0b11 883d
000002d0: 4ab4 c53d ade0 273d e2f4 c03d 17ad 4b3c
000002e0: f342 b1bc a359 413d 2670 4a3d fb56 3e3d
000002f0: 65b0 af3d 3da2 c63d d6ca 443d 7d68 7a3d
00000300: 9961 8a3d bdc1 b43d dd23 a43c eb7f 043d
00000310: 14cf 48bc d206 8e3d e415 8d3d 5945 843d
00000320: 3fbf fa3c e624 dcbb e6fb 793d 5a79 f13d
00000330: 3921 1ebc 5bc4 743d d102 c23d c145 ba3d
00000340: 1049 29bd 4f6d f4bc 39ac e4bc dfbd 37bb
00000350: 9fd3 8cbd d504 78bd aba1 073e 618b 5d3d
00000360: 19b1 543c 15a2 4c3d 0b58 203d 2fc6 d4bc
00000370: ce51 1d3d 1f07 9d3d c928 4b3d b07f e13c
00000380: 4c56 06bc 6a67 6f3d e920 1a3c be5a 8d3d
00000390: c86a 903d 34e6 843c 63e9 d73d 781f 363d
000003a0: ecfc bd3d 129a 263c 71e8 8e3c 3229 cf3d
000003b0: 0cd5 893d 06da 6a3d 4a60 a03d f07c bbbc
000003c0: 5565 963d 97cf 423d 4c1b 553b 5f0a 3a3d
000003d0: 7848 e63d 506f 8d3d 5a03 6a3d e5c9 423d
000003e0: aa9c 0c3d aa59 863d 63a7 213c a6e1 853d
000003f0: b247 9a3d 4655 aa3d 5540 e23d 9da4 843c
0.026153862 -0.0904408 -0.03470743 0.045296013 0.019276822 -0.13709329 0.0025165305 0.0440369
-0.061189484 0.07364066 0.09272164 0.04322048 0.062401544 -0.030911567 0.029000955 0.048795797
0.080527596 -0.009550823 0.004993724 0.07682544 0.0799298 0.042534348 0.03457047 0.05124118
0.08128698 0.049067758 0.023775462 0.04285676 0.054002415 0.046826582 0.025872806 0.09883054
0.02500074 0.023603732 -0.06630873 0.09365004 0.026430016 -0.1032498 0.014590127 0.010229857
-0.020402249 -0.051423058 0.061088067 0.068818286 0.037224405 0.086663045 -0.022303915 0.004937278
-0.10140896 0.0062868623 -0.0957022 -0.0017835554 -0.08454087 -0.10059335 -0.054092262 -0.016022002
-0.06927246 -0.00026919655 0.03670644 -0.06409447 0.017950006 0.025554067 0.032161593 0.010189449
-0.06967542 0.0074001355 0.11444683 0.053367242 0.042005826 -0.038198795 0.13860643 0.00031881485
0.07388108 0.025457082 0.05774506 0.030522464 0.05608616 0.014682212 0.039182004 0.085176
-0.015167736 -0.013182899 0.19873601 -0.12966704 -0.012625823 0.048946187 0.0015859305 0.035509747
0.102973245 0.055117 0.1472332 -0.04470599 -0.032217886 -0.028947208 0.06661848 0.00094134844
0.13957046 0.05407473 0.09412573 0.057730958 0.056059945 0.011588449 0.018567633 -0.021065958
0.08347873 0.048185933 0.03785179 0.050090887 0.02071772 -0.022166748 0.020281594 0.032297228
-0.029619683 -0.0060598105 -0.028222393 -0.04222348 -0.03236288 -0.06443626 0.025487749 -0.023741113
-0.01994671 -0.01540329 0.032999564 -0.07087732 -0.056572665 0.012035076 -0.062547386 -0.010473786
-0.0026650196 -0.0011427324 -0.043392714 0.06057521 0.07512019 0.05756975 0.050903153 0.065302506
-0.04771366 0.007804268 0.03131821 -0.030646034 0.007492687 0.01900516 0.04142852 -0.032487765
0.07443472 0.10358342 0.07720045 -0.02218495 -0.007679681 0.040125296 0.08185075 0.020240039
0.09532087 0.006557301 0.016789226 0.06380447 0.029125264 0.0016704128 -0.008980581 0.086081095
-0.0062400275 -0.038028907 -0.043293446 0.0025721423 0.0017720466 0.025806243 0.10993676 0.10114781
0.09868448 -0.030150866 -0.0075723235 0.0050922194 0.10132047 0.09712791 0.09959193 0.045738887
0.056885675 0.028114904 -0.004361267 0.06643876 0.09653528 0.040985752 0.09421708 0.012431405
-0.02163837 0.047204625 0.04942336 0.04646967 0.085785665 0.09698913 0.048045002 0.061134804
0.067568965 0.08826015 0.020036632 0.032348555 -0.0122564025 0.069348946 0.06888941 0.064585395
0.030608771 -0.006718266 0.061031245 0.11790724 -0.009651476 0.05975757 0.094731934 0.09095336
-0.041329443 -0.029837279 -0.027914153 -0.0028036756 -0.06876301 -0.060551483 0.13245265 0.054088
0.0129816765 0.04995926 0.039146464 -0.025973408 0.038408093 0.07667374 0.049599443 0.027526706
-0.008199286 0.058448233 0.00940726 0.06902073 0.07051617 0.01622305 0.10542562 0.044463605
0.09276757 0.010168569 0.017444821 0.10115279 0.067300886 0.05733683 0.07830866 -0.022886723
0.07343546 0.047561254 0.003251749 0.045420047 0.11244291 0.06905997 0.057132103 0.047555823
0.034329094 0.06560071 0.009866568 0.0653718 0.07533206 0.08317046 0.110474266 0.016191775

network_body.observation_encoder.processors.0.conv_layers.2.bias f4 [32]
00000000: f13a 6ebd 3c62 4fbd ce00 c2bc 766f 5cbd
00000010: 3fcf c5bd a69a 67bd 1401 663d 2241 57bd
00000020: f908 54bc 05cd febc 7c79 f23b 1c9a a2bc
00000030: 88c1 78bd e20a 35bc 41b9 17bd e1c7 ce3d
00000040: b91b 3abd e53c 8cbc 6ff5 07bd 5512 3fbd
00000050: ced5 3bbc 9616 aebc 8e35 a33d 12e0 55bd
00000060: 53ba 4dbd aea6 43bd 39b2 5f3d f809 ae3b
00000070: 9ad4 f3bb f6fd 1f3c b86d e6bc 4273 273d
-0.05816168 -0.050630793 -0.023682024 -0.053817235 -0.0965867 -0.05654397 0.056153372 -0.05255235
-0.012941592 -0.03110362 0.007399736 -0.019848876 -0.06073144 -0.011049958 -0.037041906 0.100967176
-0.045436595 -0.01711888 -0.033193048 -0.046648342 -0.011464549 -0.021251004 0.07969199 -0.052215643
-0.05022652 -0.04776638 0.054613326 0.005311247 -0.0074411156 0.009765139 -0.02812849 0.040881403

network_body.observation_encoder.processors.0.dense.0.weight f4 [128, 512]
00000000: 088d 8dbd b919 333c 8db6 1ebe 4426 e63d
00000010: 2fb2 81bd 6e6c f6bd a449 f5bc e531 373d
00000020: 2097 74bd 0935 203d f8e4 0abe 9a21 cb3c
00000030: 78a6 063e af51 bab9 b067 38bd 31ff 90bd
00000040: e61c f1bb c118 f2bd 7ca1 8b3d 7a2f 1f3d
00000050: 78b1 a4bd 7c61 87bd 77bb bbbd 06b7 493e
00000060: 4d9f a73c e9a9 d33b 94b6 ca3d 093c 9a3d
00000070: 90e2 5abd 7013 0c3e 4aab d23d 6ce0 e0bb
00000080: 2d5c d7bd 2314 02be ccc6 d5bd 835a 6bbb
00000090: 7863 9cbd e175 f7bd 3680 adbd 0643 773d
000000a0: eef3 d13d a671 55bd efd2 28be 8aea 3e3d
000000b0: e4fa 073e d231 b43c 6cd6 f73d 0a0d 9c3d
000000c0: eac7 a4bd 04e9 dbbd 9a93 99bc 1bc8 053e
000000d0: 2e05 8fbd 7c46 aabd 289c 21be 78ab 01bd
000000e0: 2727 973d a6fe 5fbd ca8e 69bd 27e8 a8bc
000000f0: bb36 643e b674 e73d f417 d9bd 005e 8a3d
00000100: 1f6b de3d 9d56 16be ca6c 103b eb48 1a3c
00000110: 3385 77bd 3eff c9bd 3471 b3bb 5174 b73c
00000120: e6a2 d2bd a5cb 133d 36f6 20bd 03df 48bd
00000130: 57e8 3dbe f2b1 143d f1c3 9f3d 4c8a 2cbe
00000140: 3475 8cbd e665 bbbc d88d ac3d 7230 943b
00000150: 8176 1bbe b6ae 3cbd 26d8 a33c 22d4 62bd
00000160: de04 6c3d e5f6 3fbd 87e3 b4bd 2f05 303e
00000170: c4c0 b1bc 62ff ab3d 4339 e93c 8ad4 12bd
00000180: e4ac 9c3c 8138 3cbc dd22 05be 5d74 05bd
00000190: 8769 9fbd 90a7 883d 8ed3 64bd 45c8 3cbc
000001a0: 0894 4f3c f79b 6abd fc7a dcbd b873 66bd
000001b0: 120c e2bc 5575 913d 07ea 223d 56db d83c
000001c0: dd25 3fbd 0acf 42bd 0ba8 093d 2416 b33d
000001d0: bcfd 55bd a38c 4dbe 7f58 22bd e509 7a3d
000001e0: 144a 81bc aab7 dfbd 2112 cbbd 3428 a33d
000001f0: 2921 3d3e ea27 b5bc 4b4e ac3b f69b 203d
00000200: c834 b23d 2327 5fbe c908 d43c 570b 14bc
00000210: 512c fabc 1bc7 7b3b 5621 aebd 11e9 c53d
00000220: 0e78 f6ba 89e4 1dbe 3816 be3c 2f97 e83d
00000230: 227d 573d e185 2a3e 2253 65bd 4cac 493e
00000240: de8e 883d 775b 65bd a30b 03be f4d9 38bd
00000250: 8099 cd3d e3ed 0c3b 9b63 32bd fb12 aabc
00000260: 721c 143d d6d7 043d 69bf c3bc 0f7c 5fbd
00000270: dede e6bd bf11 b83d 3e81 30bc 2a7e cd3d
00000280: 26fc 1d3d 7166 cdbd cd24 b3bc 4f28 303d
00000290: 2b33 c53d 520f e9bd 61c5 b5bd 7d77 623d
000002a0: 4dcd af3b af37 39bd 3d0c 10be cedb 37bd
000002b0: 6964 d6bc 0f65 ad3d 2a46 343d 2722 013e
000002c0: ac20 bc3c 89be 91bd 545e 6cbd 78ae 2f3d
000002d0: 0206 a3bd 9304 073a 26f4 63bd 9eff 01bd
000002e0: 371a 25bb 2554 bbbc c471 a83d 045a ddbd
000002f0: 2aef 18bc 7384 3c3e 66d3 393e 29ed 9a3d
00000300: 06a1 4db9 2b6e 903d d88b 55bd e773 db3c
00000310: 9907 f9bc 6101 37bd 787a 8cbd c925 5b3d
00000320: 9bed 463c 27a3 41bc 14df 02be 26f7 cb3c
00000330: 678f 333c 3aec 9d3d 9c76 1dbe 59e8 a83d
00000340: 5b6c 21be b031 fabd 1506 b2bd fedb af3c
00000350: 6853 0dbe ab73 a4bd e097 10be 1b95 0e3e
00000360: 8093 973d ec63 a8bc 392d 10be f495 973d
00000370: fece f53d 6784 8f3b fda5 6ebd 5791 7e3e
00000380: 1d98 c33c b29d debc 9525 033e 7572 6a3d
00000390: dc72 c1bd ceba dcbd 39f4 5cbc a95f 89bd
000003a0: 9c57 a9bd c8ae 41bc f78f d5bc c95e 243d
000003b0: cbda 06be bd3e e13b c36a 6fbd 64e4 e03d
000003c0: d604 7fbd 192a 893a e720 d4bc 8845 3c3c
000003d0: 2aab 2ebd 8fb8 11bd e4a9 903d b0b2 b73d
000003e0: 51d7 a9bd bcec a0bd f2d7 dcbd 7492 863d
000003f0: 41c8 13bd 71b8 4bbe d0f9 d5bd 956e d7bc
-0.06911665 0.010931426 -0.15499325 0.11237767 -0.06332814 -0.120324 -0.029942341 0.044725318
-0.059714437 0.03911308 -0.13563907 0.024796296 0.1314944 -0.00035537544 -0.04502076 -0.07079924
-0.0073581813 -0.11821128 0.0681791 0.038863637 -0.08041662 -0.066103905 -0.091666155 0.19698724
0.020461703 0.006459464 0.09898105 0.07530982 -0.053438723 0.1367929 0.10286577 -0.0068626907
-0.10515628 -0.12702994 -0.10438308 -0.0035912103 -0.0763616 -0.120830305 -0.0847172 0.060366653
0.10251604 -0.052110337 -0.16486715 0.046610393 0.13279301 0.021996412 0.121014446 0.076196745
-0.08045943 -0.107378036 -0.01874714 0.13064615 -0.0698341 -0.08314225 -0.15782225 -0.031657666
0.073805146 -0.05468621 -0.05702094 -0.020618511 0.22286503 0.11301558 -0.10600272 0.0675621
0.108602755 -0.14681478 0.00220375 0.009416799 -0.060429763 -0.09863137 -0.0054761413 0.022394331
-0.10284977 0.036082882 -0.039297305 -0.049040806 -0.18545662 0.036302514 0.07801045 -0.16849631
-0.06858292 -0.022875737 0.08425492 0.0045223767 -0.15181924 -0.046065055 0.020000529 -0.055378087
0.05762183 -0.046866316 -0.0883246 0.17189477 -0.021698363 0.0839832 0.028469687 -0.035847224
0.01912541 -0.011488081 -0.1300158 -0.032581676 -0.077837996 0.06672585 -0.055865817 -0.011522357
0.012669571 -0.057277646 -0.10765645 -0.0562627 -0.027593646 0.071024574 0.039773967 0.026471775
-0.04666697 -0.04756073 0.033607524 0.08744457 -0.052243933 -0.2007318 -0.039635178 0.061044592
-0.015782394 -0.10923703 -0.09915567 0.079666525 0.18469681 -0.02211376 0.0052583567 0.039211236
0.087014735 -0.21792273 0.025883095 -0.009035907 -0.03053871 0.0038418237 -0.08502452 0.096635945
-0.001880409 -0.1541921 0.023203954 0.11356961 0.05260957 0.16652633 -0.055987485 0.19694632
0.06667875 -0.05599543 -0.12797408 -0.04512973 0.100390434 0.0021504096 -0.043552022 -0.020761004
0.03615994 0.0324324 -0.023894982 -0.05456167 -0.11272977 0.0898776 -0.010773001 0.100338295
0.038570546 -0.10029305 -0.021868134 0.04300719 0.096289 -0.11379875 -0.08875538 0.055289734
0.00536505 -0.04521912 -0.14067169 -0.044887356 -0.026170926 0.08466541 0.044012226 0.12610684
0.022964798 -0.0711642 -0.057707146 0.042890996 -0.0796013 0.0005150523 -0.05565276 -0.031737916
-0.0025192627 -0.022867272 0.08224824 -0.10808185 -0.009334365 0.184099 0.18147048 0.07564766
-0.0001961031 0.07052263 -0.05213532 0.026788665 -0.03039913 -0.04467905 -0.068592966 0.05350283
0.0121416105 -0.011818684 -0.1278041 0.024898123 0.010959483 0.07711072 -0.15377277 0.08247442
-0.1576399 -0.122165084 -0.08692566 0.021467205 -0.13801348 -0.080298744 -0.14120436 0.13924067
0.0740118 -0.020555459 -0.14079751 0.07401648 0.12002371 0.0043797973 -0.058263768 0.2486013
0.023876244 -0.027174804 0.12807305 0.05723806 -0.09445736 -0.10777818 -0.013485962 -0.06707699
-0.08268663 -0.011821456 -0.026069624 0.040129457 -0.131694 0.006873934 -0.058451425 0.10981062
-0.06226047 0.0010464817 -0.025894595 0.011491187 -0.042643704 -0.0355764 0.07063654 0.08969629
-0.082930215 -0.078576535 -0.10783376 0.065709025 -0.03607965 -0.19894578 -0.104480386 -0.026297847

network_body.observation_encoder.processors.0.dense.0.bias f4 [128]
00000000: 4e51 243d a83b b8bc 5016 5e3d 778f ed3d
00000010: 05f9 54bd a059 d53c 972c 32bd 10bd 833d
00000020: 9bfa 853d c31e 9e3c 97f8 953d 54c8 a93b
00000030: 8624 dc3d 9ee0 383c b6ca 433d f274 f3bb
00000040: b893 453d fac3 b03d 48eb 303c e282 9c3c
00000050: 64df 603d db96 483c 44bd b43d 61a8 db3d
00000060: 0ec5 d53a 58fc 1c3c 3ab4 f3bc 5c9f bfbd
00000070: f18c ccba da69 e53d 723e 65bd f924 2cbd
00000080: 5479 a33c 303b 4a3e 7980 403c c822 abbd
00000090: 3e9c bb3d 8449 953c 728e af3c 13f5 bcbb
000000a0: 4cf2 783c d65c 003e ee05 4b3c 53ca 633d
000000b0: 2c8e 58bc 792f 9b3b 4f0a 983d 6ff4 063e
000000c0: 60b4 a0ba 4ec5 21bd 69dc 2e3d 4f0a fd3d
000000d0: ac70 333c ceb0 ce3b 5546 623d f33b 71bd
000000e0: f13d c73d b836 023e 2cfe 8b3c 85b8 82bb
000000f0: e3ea 06bc 6857 1cbd 0385 0e3e afaf 533b
00000100: 2e2c 203d 34ce 10bd c1fb 023e e352 003e
00000110: 3ab0 383b 3bf8 04bd 1eab a13d bc42 8dbd
00000120: 73bf 44bd a862 923d 266a b93d bad4 9dbc
00000130: 414c 33bd ba7d 023e 827a 0c3c 5eb0 083e
00000140: 37db e1bc 9f9e 4bbd 6881 cabc d9ee ae3c
00000150: 012a acbb 365e cc3d e0a7 96bc 8535 0e3e
00000160: 27c6 81bd 6132 073e 9399 5bbd 94c6 123d
00000170: dcd4 a23b ab03 abbb 00b8 8a3d cdce 3fbd
00000180: 68d2 36bc fae4 bcbd 00fc 98bd 6147 0e3e
00000190: 971a a53d f047 283d d64d c33d bd2d 87b9
000001a0: fafc 59bd f730 973d 3d9b 51bd cbe3 d3ba
000001b0: ddf7 0ebd 49a2 62ba ab90 b53d 93f8 c93c
000001c0: 9a2e 84bd a732 023b 555d 7fbd 634a fbbc
000001d0: 1c1d 73bd 1609 eebc 331a 1fbc 3af2 9fbd
000001e0: 6d0f e8bc 4200 eebd 123d abbb d57f be3c
000001f0: 924f fbbb b75d 213d d4d6 063e a13f b63c
0.0401166 -0.022489384 0.054220498 0.11599629 -0.051995296 0.026043713 -0.043499555 0.06432545
0.0654194 0.019301778 0.073228054 0.0051813517 0.10749154 0.011284022 0.047800742 -0.0074297125
0.04823658 0.086311296 0.010798283 0.019105379 0.054900542 0.012242998 0.08825162 0.10725475
0.0016309337 0.009581648 -0.029749025 -0.09356567 -0.0015605969 0.1120183 -0.055967756 -0.042027447
0.019955315 0.1974914 0.01174938 -0.08356243 0.0916066 0.018223532 0.021430228 -0.00576652
0.015194487 0.12535414 0.0123915505 0.055612873 -0.01321749 0.004735884 0.07423841 0.13179182
-0.0012260787 -0.039494805 0.04269067 0.12355482 0.010952156 0.006307698 0.055242855 -0.058895063
0.09728611 0.12716186 0.017088972 -0.0039892816 -0.008234712 -0.038169295 0.13917927 0.003230076
0.039104633 -0.0353529 0.12791349 0.12531619 0.002818121 -0.032463294 0.07893966 -0.06897494
-0.048034143 0.071477234 0.09053449 -0.019266475 -0.043773893 0.12743273 0.00857413 0.13348529
-0.02757035 -0.04971182 -0.024719909 0.021354126 -0.0052540307 0.09978907 -0.018390596 0.13887604
-0.06336623 0.13202812 -0.053613257 0.03583391 0.0049692225 -0.005218943 0.067733765 -0.04682808
-0.011158563 -0.09223361 -0.0746994 0.13894416 0.08061712 0.04108423 0.095363304 -0.00025783284
-0.053219773 0.07382386 -0.051173437 -0.001616591 -0.03490435 -0.0008645398 0.08865484 0.024654662
-0.06454201 0.0019866617 -0.062344868 -0.030675119 -0.059353933 -0.029057067 -0.009710836 -0.07809873
-0.028327668 -0.11621143 -0.005225786 0.023254314 -0.0076693976 0.039396014 0.13167888 0.022247138

network_body._body_endoder.seq_layers.0.weight f4 [128, 128]
00000000: e57f 15be 771e b13d 9867 133d 257d ac3d
00000010: 1c06 9dbc 9888 1a3e 2cb2 b83d b51d 3d3c
00000020: d152 b53d f204 e2ba 70fa 1dbd db52 3f3d
00000030: c857 a9bd 32a3 9fbd 6812 74be faa5 d93c
00000040: 43b1 85ba bb14 6ebe f2fe 43bd 5063 293c
00000050: 24da 3ebe 115d 513d 8cf9 15bc f0c8 12be
00000060: fb07 203e 7d6e 01be 8e23 dabd 9b07 ddbd
00000070: 3f4b 97b9 da41 d1bd dd76 e93d 0e32 283d
00000080: 9e4e 22be 3bd3 50be 4990 cdbc e92d 6b3c
00000090: 4969 5f3d 534a 13bb 314c 7e3c c865 573c
000000a0: 5bea e7bc 90eb 55be 641c 54bd ccbd 83be
000000b0: 2730 91bd 33d7 b5bc b67f 0cbd 78e8 47be
000000c0: dfde 51be 0b86 5bbe c81a d13d 561b b8bd
000000d0: 960c 01be f64a 0f3d b794 c0bd 0b50 d03d
000000e0: 5135 ecbd a7e4 3ebd d92f 323d cd1e a3bd
000000f0: a285 b9bd adf2 67bd b34b 7bbe 881a f83c
00000100: 5880 d0bd 7420 91bd 985d 70bd 752f 40be
00000110: 3c7b 64bc c3e6 b33d 3857 613d 7ba8 bb3b
00000120: bf34 1dbb 1dba 2cbd 4cc4 66be 5f32 3abd
00000130: e411 f6bb f127 c03c d45a 03bd dd9b c1bd
00000140: 200c 8f3c a70e a4bd 8332 243d df40 25bd
00000150: b932 193d aa04 bbbd 47b0 35bd 800f 333b
00000160: 6dc8 e73d 6feb 2abe 956e 43bc af95 ef3c
00000170: dd22 6dbc 14c7 adbd 2f13 f83d 4693 843d
00000180: 259b 153e cf42 09bc dcba 63bc 0ff1 cdbd
00000190: ad03 7cbe 23bc 1bbe 35f6 46be a71e 7fbe
000001a0: fda9 8d3d f56a 1dbe fa30 12bd 9fee cb3d
000001b0: 8020 843e 7e54 8cbd d008 923c b97d ce3d
000001c0: 674e 2ebe c5e1 de3c 0c9b d7bc 3e41 1bbe
000001d0: 8f0c dc3d 9f6b a2bc 0f10 493d e14b 18be
000001e0: d823 11be 2f5a a8bd 3df8 3abe 3ee7 823d
000001f0: 99cd f43c ebaf 1b3c dfb9 7dbe ff58 9e3d
00000200: ff80 3a3d 979b 67bd 119a 073e 5672 92bd
00000210: 923c 883d 3738 333e e099 453e 132c b43c
00000220: 2990 243a e398 a73d c1a0 a5bd 5351 00bc
00000230: 39a5 dcbd ca6b b73c 0419 3abd f1c2 7d3d
00000240: f30f 963b 50b9 04bd e327 5b3d babf 0dbe
00000250: fb02 eb3d 1d19 ea3d 697a 9fbd 20da 6bbd
00000260: 402a 933c 2fb0 b73c 2040 d13b 1504 4a3d
00000270: 1d4b 88bc 4086 543c f806 f8bc 3d17 70bd
00000280: 95d2 92bc 2792 af3c 72d2 84bc ce60 29be
00000290: 7841 4a3b 7b14 a0bd 63f5 febc 4220 b33b
000002a0: b463 ef3b 749a bc3d ddb5 f03c bcb7 a73d
000002b0: 712c 643c 4098 d4bd 9351 de3c 9cd2 d2bd
000002c0: 7bce 6f3c 0254 f4bc 3ef1 cf3c dabc 08bd
000002d0: 6539 103d 7aa6 1cbe 18b6 41bd 8273 803e
000002e0: f5f8 2bb8 1272 b93d 9aad 993d 3087 2fbc
000002f0: bc1d 15be a4ec 813c 2bd9 9d3d 12b4 da3c
00000300: 78f4 983d 8a4c 3dbe 2eed 693d 3811 8ebc
00000310: c50c 953c 768e f3bc 528a 19bd 3caa 19be
00000320: 7456 df3b 83fc 30bd cd3b 7f3e 830b 67bd
00000330: e948 f3bc 1dc1 843e 7343 0cbc 279d 553c
00000340: ce1c 19be c474 4b3d 3dae adbd b65d adbc
00000350: 833a 1fbb dbf6 ce3d 8f0e 72bd 8a60 58bd
00000360: eda7 1e3d 98bb ea3c 288d a5bc 97b9 af3d
00000370: d4c3 77bd e63f a43d 9c0f 3c3c a72a 553d
00000380: 12c4 e8bd 3d1b 3a3d 345c a3bb 39b4 d4bd
00000390: 8ab2 a33d 0468 94bc 7ed6 993d ec08 4f3d
000003a0: 6217 47bd 0b61 3a3d 1acb 17bd 15a1 a23d
000003b0: 6a9b 0abd 061a 873d 9fca 6abe d0ad bd3d
000003c0: 8424 c6bd 48e4 9dbd c88a d1bd a8ae 07be
000003d0: cd8e 54bd 1c9d 823d 4a97 a1bd e093 523d
000003e0: 866a 17be 97d9 3ebd aa90 edbd b992 c53c
000003f0: 1274 e2bc 7e70 463d f32e c33a 3956 153c
-0.14599569 0.08648389 0.035987467 0.08422307 -0.019167952 0.15091169 0.090183586 0.011542727
0.088536866 -0.0017243905 -0.038568914 0.046709877 -0.08268696 -0.07794799 -0.23835146 0.026568402
-0.0010199923 -0.23250096 -0.047850557 0.010338619 -0.18637902 0.051114146 -0.009153735 -0.14334464
0.15628044 -0.12639804 -0.10651313 -0.10792466 -0.00028857027 -0.10217638 0.113996245 0.04106336
-0.15850303 -0.20393078 -0.025093215 0.014354208 0.054543767 -0.002247472 0.015521095 0.013146825
-0.028309992 -0.20890641 -0.051784888 -0.2573074 -0.070892625 -0.022197342 -0.034301482 -0.19522274
-0.20495175 -0.21437852 0.10210186 -0.08989589 -0.12602457 0.034983598 -0.09403365 0.10171517
-0.11533607 -0.04660478 0.043502662 -0.07964859 -0.090586916 -0.056627918 -0.24540596 0.030286089
-0.1018073 -0.07086268 -0.058683008 -0.18768103 -0.013945397 0.08784249 0.05501482 0.0057268715
-0.0023987738 -0.04216968 -0.22535819 -0.045458194 -0.007509457 0.023456546 -0.032069042 -0.09453557
0.017461836 -0.08010607 0.040087234 -0.04034507 0.03740189 -0.09131749 -0.044357564 0.002732247
0.11317525 -0.16691373 -0.01192822 0.02924618 -0.014473644 -0.08485237 0.12113034 0.06473403
0.14609964 -0.008377745 -0.013899531 -0.10055744 -0.24610777 -0.15208487 -0.19429858 -0.24914037
0.06917188 -0.15372832 -0.03569124 0.09957623 0.25806046 -0.06852053 0.017826468 0.100825734
-0.17022096 0.027207265 -0.02631905 -0.15161607 0.10744583 -0.019826708 0.04908758 -0.14872696
-0.1417383 -0.08220326 -0.18258758 0.06391762 0.029883193 0.009502391 -0.24777935 0.077318184
0.045533177 -0.056544866 0.13242365 -0.07150714 0.06652178 0.17501913 0.1929698 0.021993672
0.0006277585 0.08183458 -0.08087302 -0.007831889 -0.10773701 0.022390265 -0.045434013 0.06195349
0.004579538 -0.03240329 0.053504836 -0.13842669 0.11475178 0.11430571 -0.0778702 -0.057581067
0.017964482 0.022422878 0.006385818 0.0493203 -0.01663738 0.012971461 -0.03027676 -0.05861591
-0.017922679 0.021431996 -0.01621363 -0.16540834 0.0030861776 -0.07816406 -0.031122869 0.005466492
0.0073055867 0.09209147 0.029383594 0.081893414 0.013926611 -0.10380602 0.027138507 -0.10294077
0.014636631 -0.029825214 0.025383588 -0.033383228 0.035210986 -0.15297881 -0.0472928 0.25088125
-4.1001436e-05 0.0905496 0.07503815 -0.010713384 -0.14562124 0.01585991 0.07707437 0.026697192
0.07468504 -0.18486229 0.057110958 -0.017342195 0.018194566 -0.029731017 -0.03748543 -0.15006346
0.006815726 -0.043209564 0.24925156 -0.056407463 -0.029697852 0.25928584 -0.008561003 0.013037956
-0.14952394 0.049671903 -0.08480499 -0.021162849 -0.002429635 0.10105678 -0.059095915 -0.05282644
0.038734365 0.028653905 -0.02020891 0.0858032 -0.06048949 0.0802 0.011478331 0.05204263
-0.113655224 0.045436133 -0.0049853567 -0.10385937 0.07993038 -0.018116005 0.07511614 0.050545618
-0.048606284 0.045502704 -0.037058927 0.0794088 -0.03383962 0.065967605 -0.22928856 0.09261668
-0.096749336 -0.07709557 -0.102315485 -0.1325022 -0.051893998 0.063776225 -0.07890184 0.051410556
-0.14786729 -0.04659423 -0.11599858 0.024117814 -0.027643237 0.048447125 0.0014891311 0.009114795

network_body._body_endoder.seq_layers.0.bias f4 [128]
00000000: c5b8 3dbd e5d0 9a3c 18fc 47bd 0d16 dfbc
00000010: 059a a23d e01b e6bd 745a 5ebd 9ea4 b73d
00000020: 0699 f6bc 5a80 0cbe e78a 06bd e420 b2bd
00000030: 4598 d0bd aa05 fdbd fe99 db3b a3d6 93bd
00000040: 6143 033e e11f c8bd b9ab f33c 0150 a0bd
00000050: 234b e7bd 2b4d 0bbd 54de 483c ca40 b63d
00000060: dcf8 58bd 065e a73d 9b0b b8bd 8a65 863c
00000070: c0d1 03be 0367 8d3d 2cd7 a939 4c91 5b3d
00000080: f459 dbbd e645 8abd ae93 f3bd a37c f7bd
00000090: 871b 47bd 5dde a5bd 240e d1bd bcab ffbd
000000a0: 9565 1abe 6212 943b 3e69 9dbd 2bc6 b1bd
000000b0: caf7 96bd 2180 09be 4d04 dabc 64d4 833d
000000c0: 299f 9ebd 7be7 19bd 6821 1dbd 1c92 c5bd
000000d0: ab78 2fbd 1104 e0bd 0766 cebd 215f b4bc
000000e0: c264 c9bd 763c 353b ce77 e33d 2b8f a6bd
000000f0: f14a afbb 2450 50bd e7ac edbd c97e 1a3d
00000100: 7747 57bd e8eb 313c 5c04 90bd 7b64 e03d
00000110: 4852 86bd e5c8 92bd ed85 113d 136f bd3d
00000120: ea45 99bd 1db9 ed3d fca4 b1bd 7a17 aabb
00000130: 9a17 c9bd 51f2 06be 2e38 f0bd 70ab 37bd
00000140: 6962 d9bd 8592 403d 69bd eabd 39be f8bd
00000150: e107 53bd d519 cebd d10c 00be 87f7 e3bc
00000160: eeef d3bc 9816 fdbc 6fc9 e3bc e35a 02be
00000170: de55 ebbd 8c68 e6bd 333a 21bd dfdd 753d
00000180: 9bf7 04be 6b8e a13d 138e 4fbd 934e bcbd
00000190: cb09 813d b1fc abbd f4a9 0cbe adb7 723d
000001a0: 9a77 b9bd b120 0bbe cf65 abbd 97e9 2abd
000001b0: 9680 e5bd cc42 9dbd 7761 60bc 49e5 25be
000001c0: 5e9b a1bd 0272 72bc 066b 683d 385e 90bd
000001d0: dc9b cc3d b15a 88bd 949c 163d 2bb5 b7bd
000001e0: abf3 01be fb93 963d 61b7 9dbc 99db 953d
000001f0: e1fd a2bb 10b5 aabd 858c e1bd 0f9a cdbd
-0.046318788 0.018898437 -0.0488244 -0.027232194 0.07939533 -0.112357855 -0.05428548 0.08966945
-0.030102264 -0.13720837 -0.03284731 -0.0869768 -0.10185293 -0.12354596 0.006701707 -0.07218673
0.12818672 -0.097717054 0.02974497 -0.078277595 -0.11293628 -0.03400914 0.012260038 0.08899076
-0.052971706 0.081722304 -0.089865886 0.01640584 -0.12872982 0.069044136 0.00032394507 0.053605363
-0.107105166 -0.06751613 -0.11893402 -0.120843194 -0.048610236 -0.08099053 -0.10207775 -0.124839276
-0.15077813 0.004518793 -0.07686089 -0.08680376 -0.07371481 -0.13427784 -0.026613379 0.06436995
-0.07745201 -0.037574273 -0.038361937 -0.09647009 -0.042839687 -0.109382756 -0.10078054 -0.022018017
-0.09833671 0.0027654446 0.11106835 -0.08132776 -0.00534951 -0.050857678 -0.11605244 0.037718568
-0.05255839 0.010859467 -0.070320815 0.10956665 -0.06558663 -0.07167224 0.035528112 0.09249701
-0.07484038 0.11607573 -0.086740464 -0.005190787 -0.09818955 -0.13178374 -0.117294654 -0.04484123
-0.106144734 0.047014732 -0.11461908 -0.12145657 -0.051521186 -0.10063521 -0.12504889 -0.027827991
-0.025871243 -0.030894563 -0.027806012 -0.12729983 -0.11490987 -0.112504095 -0.039362144 0.060026046
-0.12985079 0.07888492 -0.050672602 -0.09194674 0.06300696 -0.083978064 -0.13736707 0.059257198
-0.09056015 -0.1358669 -0.08369028 -0.041726675 -0.112061664 -0.07678756 -0.013695112 -0.16200747
-0.07890962 -0.014797689 0.05674269 -0.07049221 0.09990665 -0.06657923 0.03677042 -0.08970102
-0.12690608 0.07352444 -0.019252481 0.073172756 -0.0049741124 -0.08335316 -0.1101313 -0.1003915

network_body._body_endoder.seq_layers.2.weight f4 [128, 128]
00000000: 6360 0abe 905e 7cbe b348 9e3d 3ac5 51be
00000010: 752b 4a3e 8e59 6abe c9a2 53be dc06 b13c
00000020: cf24 5bbe 3448 32bd 5cb3 03bd e843 a6bc
00000030: 6b75 dcbc 654e 11bd e777 4d3b 1852 273d
00000040: 7316 213c 28f9 d9bc 8c27 173c 08df 26be
00000050: b069 8fbd 47be e8bb f093 ff3d db06 bcbc
00000060: f5ac 2fbe bf6f 23be 8b73 d3bc a522 013d
00000070: cd56 99bd beb3 0f3e 7bad 0abd 6092 b93c
00000080: a307 16be 5070 2bbe e448 0cbe a613 4bbc
00000090: 1cec 30bd be85 d3bc d7bc 683c 0932 5bbd
000000a0: 5c1a c3bd c1d5 8f3c bf5a 36be bf8f 10bc
000000b0: 15a4 2a3c 6441 02be cfdd 23bd 9f3c 5e3d
000000c0: b9b6 1cbd a2e8 2e3d 677e db3d 0070 09be
000000d0: 582e ebbd d156 1ebe b234 0fbe d408 bfbc
000000e0: 9a2c a7bd c93b 123d 1087 343d 52a0 f1bc
000000f0: e8b6 81be 5eaa 2fbe 7219 c5bd 18f3 213e
00000100: 4749 12be 2afd 6c3d 72bf 61be 9f63 a93c
00000110: 5b6d 0fbe deb7 31be 9073 c03d acaa 053e
00000120: 7746 1bbe 54f4 ba3b 2883 07be 09c5 3cbb
00000130: af96 c1bd 7955 59be a0fb 0b3c 42ad 03bd
00000140: 98f0 87be a7e5 bb3d b838 fabd 2c5c 4dbd
00000150: 8976 88be 0152 08be 5caa 63be 083e 2e3e
00000160: 8801 1e3d f818 a4bd 90a9 b3bd b2e3 c8bd
00000170: 56e1 cc3d e061 1dbe e724 febd 1c82 3a3d
00000180: 3511 8fbd 9aa4 be3d 23e4 193c 8263 fabd
00000190: baa8 373c def5 8dbd f993 babc a9ac 6a3e
000001a0: 38d5 01be 3510 dbbd d4ad 633b 55d6 a43d
000001b0: 140f 97bd aede 823b 14f5 3ebe e324 8abd
000001c0: 8b6a f83c 74a2 343d 959c c93d 7360 203d
000001d0: 1ce8 06ba 7a28 2d39 9935 b43d d8e3 0bbe
000001e0: b2f8 41be 9b1f 6fbc 3ba1 903d 75b3 fbbc
000001f0: f3a9 67bd 9ec4 10be 8aab 09be 39fc 31be
00000200: a62a 34be bc06 51bd edaa 8bbd 121d 323d
00000210: b7d9 afbc 80e2 1bbe fd6c 3ebe 8281 74bc
00000220: b5e6 5fbe 1c05 3ebe 2c7c 0bbd e6d6 b7be
00000230: 60a9 9bbd b2c4 8bbd c020 813c e002 5ebe
00000240: f8e8 963c c180 28be 0d24 bdbd 5d90 ca3d
00000250: 6d44 f1bd fdbb 9bbd ec9c e0bd adb3 903d
00000260: d3be 193d 675d 0ebd 922b bebd 3850 efbd
00000270: 39aa c9bd c65a 22be 564e 38be 9130 eebc
00000280: d63f 93bd a67e 84be d783 bbbd 9fc0 2bbe
00000290: 153d 79be 02f0 0abe c87c 12be 4dcc 58be
000002a0: 2b21 2abc 1f33 01be 5c44 d33d 5df4 aabd
000002b0: 5411 b0bd d8c9 a2bc cc6f 85be 2848 093d
000002c0: 7477 c53c 4b46 8a3d 5110 a739 cdaf 9dbc
000002d0: 6e16 73bd f379 47be 9a0b 02be 9e85 573d
000002e0: 0a2b 01be 6c7c 11be fd2c 6abc 7e71 59be
000002f0: c4e6 3abe a5cd 9dbd 687f e1bd 1663 53bd
00000300: 3c93 cdbd 3210 9bbd c2f0 dfbd 5c78 b33d
00000310: 2e87 a7bd 1957 26be d9d4 06be 9ea9 acbb
00000320: ff0b e33b 415f ecbc 3930 86bd 2e7d cabc
00000330: 4ccc 48be bb7c a6bd 1f00 b0bd e0e4 72bd
00000340: 975f 9abd 3200 a53d 2c9b e6bd 9039 38bd
00000350: bd3c f7bd 8fcc afbd 55e5 35be 51df e1bd
00000360: 18c0 0cbb cc7d a03d 4ad6 91bd 2f3b 05be
00000370: 2aa0 2fbd dc07 11be 5d10 09be 274c c63d
00000380: 8728 dabd 6880 353d dc8e 5dbe 5fbe 2ebd
00000390: ddc2 bc3d 3c4f 7ebe 9d96 f4bd ce68 80bd
000003a0: 34ea ad3d 6793 30bd 418f 4abe c64d fabd
000003b0: 6bb9 f6bd 73e9 5abd 8711 72be 5fcd 23be
000003c0: cb51 2fbe f931 02be 630d ed3d 890c 03be
000003d0: 98fb 293e cc45 98bd 76fb f9bd c730 a2bd
000003e0: a34e 4abe 3e6e 253e cff0 9cbe 3784 a33c
000003f0: edbd f4bd a08d e4bd 2873 e3bd 1368 3cbe
-0.13513331 -0.24645448 0.0772871 -0.20485392 0.1974314 -0.22885725 -0.20667566 0.021609716
-0.2140076 -0.04352589 -0.032153472 -0.020296052 -0.026911458 -0.035475153 0.0031351985 0.040849775
0.0098320125 -0.026608065 0.009225737 -0.16296017 -0.0700258 -0.007102761 0.12479389 -0.022952488
-0.17155822 -0.15960597 -0.025811931 0.03152718 -0.07487259 0.1403341 -0.03385685 0.022652805
-0.1465135 -0.16742063 -0.1369968 -0.012394821 -0.04319392 -0.02582061 0.014205179 -0.053514514
-0.09526512 0.01755798 -0.17808054 -0.008823334 0.010415097 -0.12720257 -0.040006455 0.05425703
-0.038260195 0.042702325 0.10717469 -0.13421631 -0.11483449 -0.15462805 -0.13984945 -0.02331964
-0.08162804 0.035701547 0.04407412 -0.029495392 -0.2533486 -0.17154834 -0.09623994 0.15815389
-0.14285766 0.057858624 -0.22045687 0.020677386 -0.1400656 -0.17355296 0.09397042 0.13053387
-0.15163599 0.0057053957 -0.13233626 -0.0028803966 -0.09452569 -0.21224011 0.008543879 -0.032147653
-0.26550746 0.09174662 -0.122178495 -0.05013673 -0.26652935 -0.13312532 -0.22232956 0.1701585
0.03857568 -0.08012575 -0.08772576 -0.098090544 0.10003917 -0.15369368 -0.12409382 0.04553424
-0.06985704 0.09308739 0.009392771 -0.12226011 0.011209661 -0.06931661 -0.022775637 0.22917427
-0.12678993 -0.106964506 0.003474106 0.08048693 -0.07375923 0.0039938306 -0.18648177 -0.06745317
0.030324241 0.04410024 0.09844319 0.03915448 -0.00051462813 0.00016513644 0.087992854 -0.13661134
-0.18942526 -0.014594938 0.07062002 -0.03072522 -0.05655856 -0.14137504 -0.13444343 -0.17381372
-0.17594394 -0.051031813 -0.06819711 0.043484755 -0.02146612 -0.15223122 -0.18596263 -0.014923455
-0.21865351 -0.18556637 -0.034053966 -0.35906142 -0.07600665 -0.06824626 0.015762687 -0.21680784
0.018421635 -0.16455366 -0.09235392 0.09890816 -0.11780629 -0.07604215 -0.109674305 0.070655204
0.0375355 -0.034757044 -0.09285654 -0.116852224 -0.098469205 -0.1585494 -0.17998633 -0.029075893
-0.0718991 -0.25877875 -0.09156006 -0.16772698 -0.24339707 -0.13568118 -0.14305413 -0.21171685
-0.010383884 -0.12617157 0.10315773 -0.0834739 -0.08597055 -0.019871637 -0.26061857 0.03351608
0.024104811 0.067516886 0.0003186488 -0.019248867 -0.059347562 -0.19480114 -0.12699738 0.05261766
-0.12614074 -0.1420762 -0.014292953 -0.212347 -0.18252093 -0.07705239 -0.11010629 -0.051608168
-0.10037848 -0.075714484 -0.10934593 0.08763191 -0.0818008 -0.16244163 -0.13167132 -0.0052692434
0.0069289203 -0.028854014 -0.065521665 -0.024717893 -0.19609183 -0.08129259 -0.08593773 -0.059300303
-0.075377636 0.08056678 -0.112600654 -0.04497677 -0.12072132 -0.08583938 -0.17763264 -0.11028922
-0.0021476801 0.07836494 -0.071209505 -0.13010858 -0.042877354 -0.14163154 -0.13385148 0.09682494
-0.10652261 0.04431191 -0.21636528 -0.04266202 0.09216855 -0.24834913 -0.1194279 -0.0626999
0.08491936 -0.043109324 -0.1978121 -0.12221865 -0.120470844 -0.05344529 -0.23639499 -0.15996312
-0.17121045 -0.12714376 0.11574819 -0.1279775 0.16599882 -0.07435188 -0.122061655 -0.0791946
-0.1975656 0.16155335 -0.30652472 0.019960506 -0.11950288 -0.11159825 -0.11105949 -0.18399076

network_body._body_endoder.seq_layers.2.bias f4 [128]
00000000: f860 873d b480 ab3d 88e0 c43d 764d 95bd
00000010: 509c 4dbd 2b58 b53d adb8 833d bdf5 4cbd
00000020: 2b35 603d 1511 d4bd b57c 87bd 4c04 0fbe
00000030: 2669 2abd 1f37 96bb dfae 34bd 0e8e 88bd
00000040: 4c0c 80bd 4d69 3bbd 9771 19be 2762 d3bd
00000050: 7e4f d7bd fc8a 2cbd 59b8 13bd 568f 6dbd
00000060: 62d0 04bd e32a 5c3d 8fc2 78bd 066b 42bc
00000070: cb03 06be de85 923d 9f5d 07bd 59a6 9a3d
00000080: 2428 fe3c b7f2 af3d bf28 d8bd 0319 093d
00000090: dd05 113d cf6e 0bbd 1d4f 9fbc d376 1cbe
000000a0: b5ea 29bd 741f ed3d e2a1 88bc 30f3 653d
000000b0: ab07 31be 9751 363d 1ed1 c6bc 5000 02be
000000c0: 8cdf ebbc d612 8e3c 16d6 12be 92b9 43bd
000000d0: 0cdb 83bc 97ef af3d 3e30 eabd 65e3 283d
000000e0: eaf2 50bd 5abc 33be 9125 2ebd ab4f 373d
000000f0: 3eef 8a3d f24f a53d 5e82 693d 2c41 69bc
00000100: d45b 5cbc 4903 c2bb 9464 5b3d 0541 423d
00000110: 194c 74bc 4c55 0cbe b094 db3b 42d7 5abb
00000120: 4366 63bd 6c9e 173d 4c1b 4f3d a9b6 af3c
00000130: 462e a4bd 0419 8b3d c4df 61bd d0ac a0b9
00000140: 9e8b 023d 4784 cfbd 9273 0dbb efe2 05be
00000150: b930 a43d 5795 28be e55e 3ebd 9e21 f3bd
00000160: 192d 793d 144f 44bd 9fe1 1cbd ce20 83bc
00000170: c1aa 2bbd a0e9 c7bc e4c6 3ebd 8a11 9dbd
00000180: 8e01 6abd 1ec9 8fbd 4c08 c8bd 39ab 16bd
00000190: a5ff 4ebd def1 46bd 5392 e7bd a889 bdbd
000001a0: b24a 873d 74e2 43bd 6297 f9bd be34 f83c
000001b0: 0e33 c4bd 2aef 263d 80fc 453c 2525 caba
000001c0: 5d2a 8ebd d593 8ebc 69d0 d83d dcab 72bd
000001d0: a157 4ebe d9b4 e0bc 1eca 00be 8023 90ba
000001e0: fca9 1a3d 8413 0dbd a988 2ebe 8503 0fbe
000001f0: 757d b5bd 1da8 34bd 3ac9 c73d 0713 403d
0.06610292 0.083741575 0.096131384 -0.07290165 -0.0501979 0.08854707 0.064317085 -0.05003904
0.054738205 -0.10354821 -0.06615583 -0.13966483 -0.041604184 -0.0045842077 -0.044112083 -0.0666772
-0.062523454 -0.04575472 -0.14984737 -0.103214554 -0.10513209 -0.042124733 -0.03606448 -0.057998024
-0.03242529 0.053751837 -0.06073242 -0.011866337 -0.13087384 0.071544394 -0.03304827 0.075512595
0.031025 0.08591216 -0.10554647 0.03347112 0.035405982 -0.034041222 -0.019446904 -0.15279703
-0.0414836 0.11578265 -0.016678754 0.056140125 -0.17288081 0.044511404 -0.024269637 -0.12695432
-0.028793119 0.017342966 -0.1433948 -0.047784396 -0.01609566 0.0859062 -0.11434983 0.041232485
-0.05101291 -0.17552319 -0.042516295 0.04475371 0.06783913 0.08071889 0.057009093 -0.01423673
-0.013449628 -0.005920802 0.053562716 0.04742529 -0.014910721 -0.13704413 0.0067010745 -0.0033392464
-0.055517446 0.037016317 0.05056314 0.021449404 -0.080166385 0.06791881 -0.05514504 -0.00030646333
0.03187143 -0.10132652 -0.0021583778 -0.1307485 0.080171056 -0.16463219 -0.046477217 -0.11871646
0.060834024 -0.047926977 -0.038301107 -0.016006853 -0.04191089 -0.024403393 -0.046576396 -0.07669361
-0.05713039 -0.07020782 -0.097672075 -0.036784384 -0.05053677 -0.048570506 -0.11307206 -0.092547715
0.06606044 -0.047823384 -0.12187077 0.030298587 -0.095800504 0.04075543 0.0120841265 -0.0015422447
-0.06941674 -0.017404476 0.10586626 -0.05924593 -0.20150615 -0.027429985 -0.12577102 -0.0010996908
0.037759766 -0.03444244 -0.17044319 -0.13966186 -0.0886182 -0.044105638 0.09755178 0.046893146

action_model._continuous_distribution.log_sigma f4 [1, 3]
00000000: e3fd 08bf e008 22bf 3d2c e8be
-0.535124 -0.6329479 -0.4534625

action_model._continuous_distribution.mu.weight f4 [3, 128]
00000000: 7110 d43c ebc6 c4bc a3fd 1d3c 2cd2 363c
00000010: 2cf7 173d 3f38 cabc bdc0 a03d 7589 31bd
00000020: 2a44 e63c e7d3 09bd 89b9 423a 9d6b e7ba
00000030: c7ef 08bc 3ba7 153d 00d2 e7bd a439 adba
00000040: 0949 a0bd 7bfa d83d 3040 cdbc 5528 a7bc
00000050: 9820 dbbc debe 48bd b47f f0bc fc96 e63c
00000060: 349f cebc eca6 95bd bd72 003d 9034 a2bc
00000070: 6674 33bd c470 a23c 6e04 b93d 8701 ebbc
00000080: 51bd 433d 0a78 cc3c d134 953a f0d6 00bc
00000090: 60b9 adbd be6c 413d 01d1 a73b 9714 e83c
000000a0: af82 5bbc 94e0 1d3d a2e9 aabd ff95 43bd
000000b0: 2978 5a3c 8e99 193d 3797 f93d 6c72 d4bb
000000c0: 3f9d 43bd 14f8 853c cf58 57bc a455 063e
000000d0: ee07 8c3c 6355 76bc 6580 a3bd b976 023d
000000e0: 459d 12bd 9c97 4fbc 2ac2 443d 1417 00bc
000000f0: 5408 27bd 3c89 b23c 50a3 c43c f11f ce3c
00000100: 6364 0a3c e259 053e 5d0c 3abd eff0 183d
00000110: c688 46bc 53fb a8bd a68d f3bc 3c0f e33d
00000120: 0888 383c d970 e6bb 4196 863d dff6 ef3d
00000130: 5ac0 58bb 32e1 3a3d e173 1d3d fb5c 853d
00000140: 090b 873d c3e9 b83a e618 583d 1bad d93b
00000150: 5de1 373c 6645 3e39 c0f1 1fbc 8fd7 0fbc
00000160: e18b da3b c3b6 803d b01b a83d 48f8 bc3d
00000170: c3cb ef3d f07a b5bb bb8f ce3b 6afb 4dbd
00000180: 504d 74bd 07ec 06bc 91f6 89bd 6988 743d
00000190: 3d38 45bc 61dd 2b3d 36b3 6fbd b5fb 20bc
000001a0: 2ece 553d cfb0 27bb ff28 50bd f49c 4cbb
000001b0: f93b 4dbb 8fbc 593d 470f fb3d 61a3 adbc
000001c0: 06f8 13bc 417f 043e 4c73 f2bc 8838 aa3d
000001d0: 6c01 623b 13d3 a63d 78f7 c5bc 3891 163c
000001e0: d8de 6d39 d04a 57bd 250a 0c3d f3dd 1d3c
000001f0: cad6 32ba bdb3 e13d 12d6 3b3d 0182 d83c
00000200: 90ff 743d 7313 2e3d 23c2 2bbc 50db 93bd
00000210: c815 4ebd 7ab8 e8bc 35a0 343d 1fdc 59bc
00000220: 1541 0a3d 1979 26bd 51af 65bd 4329 26ba
00000230: d8b9 55bd df81 5fbd 4e40 4ebd 13bc 3fbc
00000240: 8d53 36bd 41c6 bf3c 38f7 31bd 3059 75bd
00000250: a01b e9bc b764 13bd 69ac 45bc e120 ec3c
00000260: 4373 6ebd 4dde 71bd 6cb5 1cbd d381 1abd
00000270: 3cc9 d5bc b701 833d c599 72bc ca4e f63c
00000280: 8502 9e3a 7ba7 5b3d ffdc 31ba 4ab9 913d
00000290: 225a 4bbc 4484 a73d 60ce 40bd e643 06bd
000002a0: f9bd 1cbc 563e 803d 3aa5 56bd 4cc6 aebd
000002b0: 8802 8c3b 9886 eabc 7e59 b73c fd07 3abd
000002c0: 7ed9 9bbc c10e 3cbd 01b3 803b 16df 07bb
000002d0: 4e4c 3f3d ba24 ff3c a218 0abd 52b4 af3d
000002e0: 961c 02bd 303f b23c 03bc 5c3d 0056 a73d
000002f0: 4ddc c1bb 54a2 a63d c04d 9a3d 4ba7 683d
00000300: 7c4e 47bd 5f91 07bc 255f 733b 8833 ed3d
00000310: 8882 5d3c 1798 85bd bd4c b23d e84c 16bc
00000320: 5825 97bc ac0d 4c3b 27b3 0e3d a40e 12bc
00000330: 01de cebc f42d 053d c40a 66bb c6a7 953c
00000340: 48f6 27bd aa96 0dbd 1d6d 933d fe2f 81bd
00000350: aa03 2e3d df6a a3bc 5147 38bd 6c1a 30bd
00000360: 091c 67bd e00b 143d 49e8 efbb e85b ad3c
00000370: f0e8 9d3b 3c82 853b 033f 76bd cebd 39bd
00000380: 095a a4bc e5fa 833d 7188 7abd 49a0 053c
00000390: c434 07bc 514a e23c b763 44bd 581f 27bc
000003a0: a08a e53d 959d 1bbd 2386 dfbc 8b38 2abb
000003b0: 1799 36bd fac0 a63d 9d27 34bc d4e9 853d
000003c0: 5a83 47bc 709c bebb 7ef6 6d3d 09f5 1bbd
000003d0: e6d5 783c c4e0 1bbd 5549 b33a 3b5a fd3a
000003e0: 32a8 a53d 480c 39bd d8da 3b3a 1149 68bc
000003f0: 651a a73d a075 cb3b 2c45 bf3d c702 993c
0.025886746 -0.024020633 0.009642991 0.011158507 0.037100956 -0.024685023 0.07849262 -0.04334398
0.028108675 -0.03364935 0.00074281596 -0.0017655973 -0.008357949 0.036536437 -0.11319351 -0.0013216031
-0.0782643 0.1059465 -0.025055021 -0.020404974 -0.02674894 -0.04901015 -0.029357769 0.028148167
-0.025222398 -0.073072284 0.031359423 -0.019800454 -0.043812178 0.019829161 0.09034048 -0.028687252
0.047787968 0.024959583 0.0011383538 -0.007863745 -0.08482623 0.047222845 0.0051213508 0.02833013
-0.013397857 0.038544253 -0.08345343 -0.04775047 0.0133343125 0.037499957 0.12187045 -0.0064833667
-0.047757383 0.016353644 -0.013143732 0.13118607 0.017093625 -0.015035006 -0.07983474 0.031851504
-0.035794515 -0.012670424 0.04803673 -0.007818002 -0.040779427 0.021793954 0.024003655 0.025161715
0.008446786 0.13022569 -0.045421947 0.037339147 -0.01211757 -0.08251061 -0.02973063 0.1108689
0.011262901 -0.0070324955 0.065716274 0.11717009 -0.0033073635 0.04562492 0.03844059 0.06511875
0.06593902 0.0014107752 0.05275812 0.0066429502 0.011223164 0.00018145665 -0.009762228 -0.0087794205
0.006669507 0.06284859 0.08208406 0.092270434 0.11708786 -0.005538337 0.006303755 -0.050288595
-0.059644043 -0.008234984 -0.06736482 0.059700403 -0.012037334 0.04195917 -0.05852052 -0.009825637
0.05219858 -0.0025587564 -0.050820347 -0.003122148 -0.0031316264 0.05315834 0.12258773 -0.02119607
-0.009031301 0.12939169 -0.029595993 0.08311564 0.003448571 0.08145728 -0.024165854 0.009189896
0.00022685097 -0.05256158 0.034189362 0.009635436 -0.0006822167 0.110206105 0.04585845 0.026429178
0.059814036 0.042499017 -0.0104832975 -0.07219565 -0.05031374 -0.028408278 0.044098098 -0.01329711
0.033753473 -0.04064283 -0.056075398 -0.0006338546 -0.052179188 -0.054567214 -0.050354294 -0.011702555
-0.044513274 0.023409965 -0.043448657 -0.05989951 -0.028455555 -0.03598472 -0.012065032 0.028824272
-0.05821539 -0.059049893 -0.038258955 -0.037721466 -0.026096933 0.063968115 -0.014807169 0.030066866
0.0012055194 0.05362652 -0.0006784945 0.07115419 -0.012411626 0.081795245 -0.047071815 -0.032779597
-0.009566777 0.0626189 -0.052403666 -0.08533916 0.0042727627 -0.028628632 0.02238154 -0.045417774
-0.019024607 -0.045912508 0.003927589 -0.0020732335 0.04670363 0.031145442 -0.033714898 0.08579315
-0.031765543 0.021758646 0.05389024 0.081707 -0.0059161545 0.081364304 0.07534361 0.056800168
-0.048658833 -0.008274405 0.0037135568 0.115820944 0.013519891 -0.065231495 0.08706043 -0.009173609
-0.018450424 0.0031136079 0.03483882 -0.008914623 -0.025252344 0.032514527 -0.0035101632 0.018268477
-0.041006356 -0.034567513 0.07198546 -0.06307982 0.042483963 -0.019948421 -0.044989888 -0.042993948
-0.05642322 0.036144137 -0.0073213917 0.021161988 0.004819028 0.004074363 -0.060118686 -0.045347027
-0.020062463 0.06444339 -0.061165277 0.008155891 -0.008252326 0.027623327 -0.047946658 -0.010200344
0.11208081 -0.03799208 -0.027285641 -0.0025973644 -0.04457959 0.08142276 -0.010995773 0.0653874
-0.012177313 -0.0058169886 0.0580964 -0.03807548 0.015187716 -0.03805615 0.0013678471 0.0019329259
0.08088721 -0.045177728 0.0007166094 -0.014177577 0.08159331 0.0062090904 0.09339365 0.018678082

action_model._continuous_distribution.mu.bias f4 [3]
00000000: a719 4a3d c8f0 3f3d 418c a6bd
0.04934087 0.046860486 -0.0813222
