CS455_PR1/results/TEST/ShootTargetAgent.onnx (onnx, 490268 bytes, 18 tensors)

discrete_act_size_vector f4 [1, 2]
00000000: 0000 4842 0000 4842
50.0 50.0

network_body.observation_encoder.processors.0.conv_layers.0.weight f4 [16, 1, 8, 8]
00000000: c2e7 ef3d ef0d e5bd 78dc d93c ccd5 39bd
00000010: 50b9 7bbd 0caa 8b3d 3efd 8c3d 74d2 7d3d
00000020: b037 a93d c090 ca3d f8a5 083d 3c39 febc
00000030: 5cc1 b13d a68a 3cbd 001f da3b a0bc c33c
00000040: 6063 883b b45b 92bc 2640 b8bd b0a7 c43d
00000050: cca8 d3bd ec33 66bd 8030 aa3b c47b 6e3d
00000060: 16dc b3bd 87c5 dcbd a868 b4bd 14e2 bcbd
00000070: e0be 443d c8d8 19bd 32ee b6bd dbbe c2bd
00000080: 0a55 57bd 908e 8b3c f8da 2dbc a0f9 f53b
00000090: 9ad6 ba3d b26f f1bd 34a7 24bd dc24 be3d
000000a0: 10c8 c8bb de9f c9bd 481c 71bd 1015 74bd
000000b0: f059 80bc 787b 7fbd 7cb5 bf3d 4407 cf3d
000000c0: a6a4 9f3d f4f4 82bd 8025 fc3d ec8e afbd
000000d0: 07ba e9bd 88ab 1ebd 00ea f33c 5e1c edbd
000000e0: 2047 5abb 500b d53d d81e 6bbd e4df 09bd
000000f0: e862 e33d 08fb fb3c 8c45 c0bd 84fc b7bd
00000100: b539 e4bd 2015 0ebc 0493 bcbd dc45 10bd
00000110: 4a6e 56bd e8ae bf3c 2e53 b33d 1fd5 edbd
00000120: 1400 a4bc 308c f63d 571e d5bd 069a 87bd
00000130: 2447 ff3d 92c4 d5bd 1067 a83d 0066 383c
00000140: e06b 79bb f2d1 adbd d87b 8dbd 763c eebd
00000150: f1ad 90bd bac9 d4bd 44f1 c5bc 2169 b5bd
00000160: 2cf1 4a3d 64b5 85bd 988e 913d c0fd b83d
00000170: 5c64 6b3d b43c bbbc d023 7dbc c220 cdbd
00000180: ccb6 41bd a6dd fd3d f493 9abd 3252 d63d
00000190: c0f8 923b a0ab f53c c70c ffbd 08d1 c9bc
000001a0: c45a 493d 009b 98bb 0049 683c 94cc 8a3d
000001b0: 6824 f83c 1041 6d3c 8560 f2bd 60ec 543c
000001c0: 868c 953d 32c4 b2bd 4477 acbd a409 2e3d
000001d0: a2c0 953d 5268 b33d e06b 47bb 8833 4e3d
000001e0: e895 f93c fc9a 953d 507e 3e3c c065 7cbd
000001f0: 188c 953d 6226 f53d c08d cdbb b058 1c3c
00000200: 3484 f73d 6a0e df3d 0cc4 c03d 80c6 85bb
00000210: f220 c5bd ad76 f6bd 2a7f cb3d d871 103d
00000220: 0c60 743d 4443 a0bd a089 ce3b 10f5 323d
00000230: b0cb a13c 4f03 ebbd d0ef 373d 7864 f73d
00000240: 3ebe 8bbd aaa3 a7bd 980e 5d3d 108c b43d
00000250: d656 de3d fee9 dbbd 5272 cbbd b491 4b3d
00000260: b450 e43d 50d2 c03c a058 263c fc50 433d
00000270: e059 04bc 88f2 1abd f806 a83c acc8 873d
00000280: c723 9abd 30ec 783d 422c 8abd 5c33 01bd
00000290: 1219 04bd be61 90bd eefe 63bd a896 de3c
000002a0: a46f 9cbd a035 0f3d 2cf8 18bd 62ab ac3d
000002b0: 90c9 113c f210 8abd bb7b f6bd 4a54 febd
000002c0: 38d8 673d 8bf7 c6bd c2b8 b5bd 54f0 b9bd
000002d0: 809a eaba 4242 d73d 18ac d0bd 58e5 5f3d
000002e0: bcc2 1f3d 438a cbbd 400e fdbc 803f 923a
000002f0: ee5b a1bd b6a0 18bd 1ad0 8d3d 1429 f3bd
00000300: 0051 3ebb 645a d93d 082e 983c fa9a 80bd
00000310: 32f3 45bd 8041 a5ba dad7 db3d 5c71 0ebd
00000320: 66c6 a0bd 9922 d5bd 20ab 44bc 54b7 74bd
00000330: f462 b1bc e2b5 c33d 2011 f53b 1fc8 ccbd
00000340: a41f c0bc 70c9 4a3c 3893 cabc e03c 94bc
00000350: 43a8 dfbd 649e 42bd b8f8 733d d6c6 9cbd
00000360: 7084 c63c 0861 163d b839 dfbc a0f8 4d3c
00000370: 5012 7b3c f095 cc3c 00a7 edb9 7fc9 b2bd
00000380: e077 8f3d f8f1 16bd 1438 a43d 57ba dfbd
00000390: f0ff 53bc 58d9 573d 00e6 e4bc 2c69 ed3d
000003a0: 105a 87bc 9a90 60bd b8db 15bd 62ad c7bd
000003b0: e444 3f3d 2c5b ecbd 9cba 503d 2c61 5a3d
000003c0: 1099 a13d 34d2 a2bc 84f2 bd3d 8069 2cba
000003d0: 96f8 29bd 80a6 02ba a8b0 b9bd b00f e73c
000003e0: 12a6 c53d 343a f63d c006 5c3d 3a28 18bd
000003f0: d021 d7bc d9e5 a0bd 9215 5abd 6930 e6bd
0.11714126 -0.11184298 0.026594386 -0.04536991 -0.061456025 0.06819543 0.068842396 0.061968282
0.08262575 0.0989089 0.033361405 -0.03103315 0.086794585 -0.046030663 0.0066565275 0.023893654
0.004162237 -0.017865993 -0.0899661 0.09602296 -0.1033493 -0.05620186 0.00519377 0.0582235
-0.087822124 -0.10779863 -0.08809024 -0.092228085 0.048033595 -0.037560254 -0.08932151 -0.09509059
-0.052571334 0.017035753 -0.010611288 0.0075065643 0.09122963 -0.11788882 -0.04019852 0.09284374
-0.006127365 -0.09844945 -0.05886486 -0.0595904 -0.015667886 -0.06237361 0.09360787 0.10108808
0.07795076 -0.06394377 0.1231184 -0.08572182 -0.11412435 -0.038737804 0.029774666 -0.11577676
-0.0033306554 0.10402548 -0.05740246 -0.033660784 0.11102849 0.03075935 -0.09388265 -0.089837104
-0.11143819 -0.008672029 -0.092077285 -0.035222873 -0.052351274 0.023398831 0.087561 -0.11612915
-0.020019569 0.120384574 -0.104061775 -0.066211745 0.12464741 -0.104378834 0.082227826 0.011254787
-0.0038058683 -0.084873095 -0.06908387 -0.11632626 -0.07064427 -0.10390039 -0.024162896 -0.088579424
0.049546406 -0.06528738 0.07107276 0.09032774 0.057468757 -0.022856094 -0.015450433 -0.10016014
-0.04729347 0.12395792 -0.07547751 0.10464896 0.0044852197 0.029989064 -0.12453609 -0.024635807
0.049158826 -0.0046571493 0.014177561 0.067773014 0.030290797 0.014480844 -0.11834816 0.012995809
0.07302193 -0.087288275 -0.084211856 0.042489663 0.073121324 0.08760132 -0.0030429289 0.050342113
0.030466989 0.073049515 0.011626795 -0.061620474 0.073021114 0.119702116 -0.0062730014 0.009542629
0.120857626 0.10891421 0.09412393 -0.004082501 -0.096254244 -0.12034354 0.09936364 0.03526482
0.05966191 -0.0782533 0.0063030273 0.04369074 0.019750446 -0.114752404 0.044906437 0.1207971
-0.06823395 -0.08185513 0.053968996 0.08815777 0.108564064 -0.1073799 -0.09933914 0.0496995
0.111482054 0.023537785 0.010152966 0.047684655 -0.0080780685 -0.037828952 0.020511135 0.06630072
-0.07526355 0.06077212 -0.06746723 -0.03154312 -0.03225047 -0.07049893 -0.05566304 0.027171448
-0.07638481 0.03496325 -0.03734605 0.08431126 0.008898154 -0.06741513 -0.120353185 -0.124184206
0.056602687 -0.09715184 -0.088731304 -0.09079042 -0.0017898828 0.105106845 -0.10189074 0.05466208
0.039004073 -0.09938481 -0.030890584 0.001115784 -0.07878862 -0.03726264 0.06924458 -0.118730694
-0.002903998 0.10612944 0.018576637 -0.062795594 -0.048327632 -0.0012608021 0.1073453 -0.034776077
-0.078503415 -0.104069896 -0.01200369 -0.059745148 -0.02165363 0.09556176 0.007478848 -0.099991076
-0.023452587 0.012377128 -0.024728402 -0.018095434 -0.10920765 -0.047514334 0.05956337 -0.076551124
0.024233073 0.03671363 -0.027249202 0.012571484 0.01532419 0.02497384 -0.00045328587 -0.087298386
0.07005286 -0.036851853 0.080185086 -0.109242134 -0.012939438 0.05269751 -0.027941704 0.115923256
-0.016522437 -0.054825403 -0.036586493 -0.09749867 0.04669656 -0.11540827 0.050959215 0.053315327
0.078905225 -0.019875623 0.09274772 -0.0006577 -0.041496836 -0.0004983917 -0.09066898 0.028205723
0.09650816 0.1202282 0.053717375 -0.037147738 -0.02626124 -0.0785634 -0.053243227 -0.11239702

network_body.observation_encoder.processors.0.conv_layers.0.bias f4 [16]
00000000: 28e7 a33d 7cb5 df3d a9b3 fbbd c8a7 273d
00000010: a8f3 27bc e4a6 8e3d 304c 6e3c b4a0 96bd
00000020: 6495 43bd 80b1 353d e084 903c 4abb 9bbd
00000030: 268a bd3d 0ede 64bd 006d b5bc 1296 92bd
0.08003074 0.10923287 -0.12290127 0.040931493 -0.010250963 0.069654256 0.014544532 -0.073548704
-0.047749892 0.04435873 0.017641485 -0.07604082 0.09254865 -0.05587583 -0.022146702 -0.0715753

network_body.observation_encoder.processors.0.conv_layers.2.weight f4 [32, 16, 4, 4]
00000000: a0f8 a93c 1045 0ebd ce7e 6c3d 626e 47bd
00000010: 40be 88bb 70f8 a7bc d0c0 65bc bcc2 053d
00000020: 76e5 0a3d 528d 2e3d 6c5e f53c e8f6 f1bb
00000030: f0dc 6c3d 90ca 633d 8a79 cfbc 70cd 8c3b
00000040: f0c3 943b c7cc 13bd e090 043b a8e9 b63c
00000050: 4c95 e63c e46f 6bbc 00e2 a63b 0001 103b
00000060: 88eb 01bd 1eb7 173d 7cd5 5bbc 00d6 0c3a
00000070: 331e 31bd a09d 87ba 6099 903b d7c0 7dbd
00000080: 3141 27bd 38c9 703c 3eb5 1a3d 38d7 433c
00000090: 9c18 d53c c087 1a3c e2a0 1abd c5ae 7cbd
000000a0: c0ff 113c a006 9a3c 607e d9ba 40d6 98bc
000000b0: be30 27bd 10db d13b 9060 4abd bbcd 78bd
000000c0: 0e78 143d b05a ed3b b2a6 4b3d 3056 1c3c
000000d0: 56db b6bc 50b6 4fbd 20d8 84bb 9c93 f83c
000000e0: 8aa9 7ebd eca4 c93c 9f1f 53bd 503f aa3c
000000f0: 7400 bdbc 983f 943c ca86 563d 74f1 d73c
00000100: 486a ea3c 5a4d 493d ee14 44bd 505d bdbc
00000110: 944e 0fbc 1c22 793d 75af 63bd 36fa 6cbd
00000120: 34d3 61bd fafd 12bd ca62 5b3d 60cc 94bc
00000130: a003 673c f275 99bc d6f3 86bc 2870 e2bc
00000140: 4816 98bc 1cde a2bc e4a9 59bc 322c 17bd
00000150: 7a87 98bc a0ac c53b 987e 89bb e8b2 3bbc
00000160: 44c8 19bc 6022 2e3d 6018 7abd d28b 5abd
00000170: 1c28 733d fabc 73bd 4094 06ba df76 2cbd
00000180: 88d6 393c 24ce 313d 33f2 33bd f434 1abd
00000190: f098 2dbd 66b1 2bbd 4034 70ba c8bb 023d
000001a0: 08cf 5fbc b6d1 463d 3ce4 f33c 50a9 543c
000001b0: 006c c33c b496 d9bc 2429 1fbc 747a 68bd
000001c0: d888 a63c fe57 b1bc d8c3 d7bc 0a6d 593d
000001d0: 1c5e eebc 02aa 3ebd 1c42 6cbc c8ac f6bc
000001e0: 208d 7e3d b680 4e3d 408d 203c 1046 503c
000001f0: 9e4e 173d 1083 633c c22c cebc 7492 51bc
00000200: 3085 2f3c 4dac 0dbd e8b6 423d a860 2a3d
00000210: 92af 61bd 9842 433c 703d 1fbd 1801 e0bb
00000220: 604c c2ba 36fe 4cbd 6ccf 01bc 15bc 42bd
00000230: 085d 19bd 2e99 023d 48d5 513d 6861 5cbd
00000240: 6fa8 5bbd 6070 9dbc 0b26 61bd f04e 56bd
00000250: b28b 313d eee7 1c3d f274 743d 6a2f 773d
00000260: 00fb deba fcf7 f2bc 76cf 103d 982e a73c
00000270: 0e14 04bd 584b 48bc 7c77 723d 6426 c53c
00000280: d8c1 6e3d f0fe ea3c d8ba 81bc 1814 7f3c
00000290: 8473 7fbd e82b fe3c b4e0 cd3c 2c63 123d
000002a0: 94d7 4abd c6b9 443d b0d8 9e3b e6bc 48bd
000002b0: 3895 7dbd 2a7f 653d c851 bb3c 8a0f ddbc
000002c0: 40b1 a23a b4b5 e03c 68a6 573c ba88 44bd
000002d0: 341a a13c 706f d2bc 3083 3b3c 488a 223d
000002e0: d481 35bc 8050 d8bb 1ed7 2d3d 88e3 af3c
000002f0: b473 34bd 1651 4bbd cc73 b7bc 9edf 68bd
00000300: 47ea 5dbd cad2 90bc f000 943c 20a7 26bc
00000310: de27 f3bc 86e5 60bd 76bb 7f3d b074 023c
00000320: 0083 d23c 785e 013c d432 133d 3c6f ff3c
00000330: 5ee3 18bd 8093 093a 1840 00bc dccc 413d
00000340: 8450 f43c 8ee9 483d 60ad cb3b 180b 113d
00000350: 4a6b b2bc fcab 803c b0a3 6b3d 3494 b33c
00000360: 12fb 5f3d e4f6 973c baf9 383d da84 583d
00000370: b236 133d 9c25 2cbd 5abe 3e3d ec52 653d
00000380: 284a 393d eaf8 6abd 0265 1f3d 1a72 b4bc
00000390: 3e01 dfbc b835 443c 6c88 4cbd 3ed9 b6bc
000003a0: e087 a7bb 3fa1 5cbd 522a 183d 6253 47bd
000003b0: 10d9 bc3b 0831 43bd 44a4 b23c c8e3 313c
000003c0: 2404 ec3c da90 4e3d 4a82 3e3d 2a0a 703d
000003d0: c32d 74bd 26fd 2b3d 24ef ee3c 0452 783d
000003e0: e0d2 93ba 00ad bd3b b428 fc3c 4cce 873c
000003f0: 7c58 083d f03a db3c f044 c03b a251 29bd
0.020748436 -0.034733832 0.057738118 -0.048689254 -0.00417307 -0.020504206 -0.014023021 0.032656416
0.033910237 0.042615242 0.02995225 -0.00738417 0.05782789 0.0556131 -0.025326509 0.004296951
0.004539959 -0.036083963 0.0020227954 0.022328213 0.028147362 -0.0143699385 0.0050928593 0.0021973252
-0.03171876 0.03703987 -0.013417598 0.00053724647 -0.04324169 -0.0010346659 0.004412815 -0.061951485
-0.040833656 0.014696412 0.037770502 0.011953168 0.026012711 0.009431779 -0.037751086 -0.06169011
0.008911073 0.018801987 -0.0016593449 -0.01865685 -0.04081797 0.006404288 -0.049408495 -0.060743075
0.036247306 0.007243477 0.04971952 0.009542033 -0.022321384 -0.050710976 -0.0040540844 0.030343823
-0.062173404 0.024614774 -0.051543828 0.020782143 -0.023071505 0.01809673 0.05237464 0.026360251
0.028615132 0.049146034 -0.047871523 -0.023115784 -0.008746762 0.060823545 -0.05558725 -0.057855807
-0.05513306 -0.035886742 0.05356101 -0.01816386 0.014099985 -0.018732999 -0.016473692 -0.02764137
-0.018565312 -0.0198813 -0.013285134 -0.036907382 -0.018619288 0.0060325414 -0.0041959994 -0.011456229
-0.009386126 0.04251325 -0.061058402 -0.053356 0.059364423 -0.059506394 -0.00051337853 -0.04210555
0.011342652 0.04340948 -0.04393215 -0.037648156 -0.04238218 -0.041917227 -0.00091630593 0.031917363
-0.0136602 0.04853984 0.029771917 0.01297982 0.02385521 -0.026561119 -0.0097143985 -0.056757405
0.020328924 -0.021648403 -0.026338503 0.053082503 -0.02909761 -0.04654885 -0.014420059 -0.030111685
0.062146306 0.050415717 0.009799302 0.012712017 0.03694021 0.013886228 -0.025167827 -0.012791265
0.010712907 -0.034588147 0.047537714 0.041596085 -0.055099078 0.011917733 -0.03887695 -0.006836068
-0.0014823787 -0.050047122 -0.007922988 -0.04754265 -0.037442237 0.031884365 0.05122879 -0.05380383
-0.053627428 -0.019218624 -0.05496792 -0.052321374 0.043346114 0.038307123 0.05968184 0.060347952
-0.001701206 -0.029659264 0.0353541 0.02040796 -0.03224569 -0.012224995 0.05919598 0.024066158
0.058290333 0.028686017 -0.015836164 0.015568756 -0.062366024 0.031026796 0.02513156 0.03573911
-0.049521998 0.04802873 0.0048476085 -0.049008273 -0.061909884 0.056029476 0.022866145 -0.026984949
0.0012412444 0.027430393 0.013162233 -0.047981955 0.019665815 -0.025687903 0.011444852 0.039682657
-0.011078317 -0.006601393 0.04244148 0.0214708 -0.044055656 -0.049637876 -0.022394083 -0.056853883
-0.054178502 -0.017678637 0.018066853 -0.010171682 -0.029682096 -0.05490639 0.062434636 0.007962391
0.025697231 0.007896058 0.035937145 0.03118097 -0.03732621 0.00052481145 -0.007827781 0.04731451
0.02982355 0.04905086 0.0062157363 0.03541097 -0.021779675 0.015707009 0.05752915 0.021921255
0.0546828 0.018550344 0.045160033 0.052861072 0.035940833 -0.042028055 0.046568252 0.055987284
0.045236737 -0.05736629 0.038914688 -0.022027064 -0.027222272 0.011975698 -0.04993479 -0.022320386
-0.005112633 -0.053864714 0.037149735 -0.048663504 0.0057631806 -0.04765418 0.021806844 0.01085753
0.028810568 0.05043111 0.046510972 0.058603443 -0.059613954 0.041989468 0.029166766 0.06062509
-0.0011278056 0.0057884455 0.030781128 0.016577862 0.03328751 0.026761502 0.005867593 -0.041337617

network_body.observation_encoder.processors.0.conv_layers.2.bias f4 [32]
00000000: 8045 023b 3cb7 3ebd 78d0 6bbd dcf1 e03c
00000010: 8809 e13c 00af 653c 1487 39bc 209b 1f3b
00000020: 6610 7b3d 44e7 e23c e4c6 90bc 208d babc
00000030: 04ce 87bc 9e4e 6fbd 0c3f 133d 197e 21bd
00000040: b419 92bc 4885 5bbd 5e3b 583d 5bbe 64bd
00000050: b7ac 67bd 5762 65bd 1c5b a23c 0827 403d
00000060: a218 ebbc 9c92 373d 2609 dcbc 5690 91bc
00000070: b07b 3a3c a4e6 87bc 6ce2 7a3d 0c80 5cbd
0.001987785 -0.046561465 -0.05757186 0.027459078 0.027470365 0.014018774 -0.011323709 0.0024353936
0.061294936 0.027698167 -0.017672963 -0.022772372 -0.016577728 -0.058424585 0.035948798 -0.039426897
-0.017834522 -0.053593904 0.052790992 -0.0558456 -0.056561198 -0.056001987 0.019818835 0.046912223
-0.02869827 0.044817552 -0.026859831 -0.01776902 0.011382028 -0.01658947 0.06125109 -0.053833053

network_body.observation_encoder.processors.0.dense.0.weight f4 [128, 512]
00000000: 4e63 a53d ec76 1f3e 881a 70bd 2f91 04bd
00000010: 1ad6 bdbd 13f8 8abd c74c a4bd 1615 abbc
00000020: e9c7 2bbc 6887 08bd f876 56bc c396 a1bd
00000030: bd4d 0b3d 84e8 393d 47a4 903d ebe3 703d
00000040: 9a5d 4c3d 5f78 07bd 4032 2b3d 37d9 e83c
00000050: fb78 413c 3c9e 7d3c 74d7 9d3d 7b68 8a3c
00000060: 8e72 9abc 24e9 93bd 299c 2b3d 3355 a4bd
00000070: d8ae fe3c 90df 5bbd edf5 71bd 3a0e 333c
00000080: c64d eabc c923 38be ea12 a43d f5b9 833d
00000090: da24 46bd a707 b73d dc3f 96bc 4dbd 30be
000000a0: 34a0 4e3d 1d8c 69bd 6e6c 91bd 87d2 283c
000000b0: 0921 aa3a 1ded 813d c85c 8d3c f893 543c
000000c0: a7d2 13bd 0e0c ccbb 8541 ab3d b395 03bb
000000d0: b90d a23d d52d 263b 4f50 b0bd 362a 83bd
000000e0: 688d 2f3c 9936 e7bd 7ef2 2f3d 2ee3 5e3c
000000f0: f2a1 fbbc 7c71 e43d 132e 7b3d 27f7 13bc
00000100: ef8a 74bd f50b 1039 ac11 9dbd 0270 6dbd
00000110: c3af 90bc 43a4 45bd 44f4 ebbd 7a7d 4cba
00000120: a527 693c 96cf 01be 56b2 043d 1ab4 d8bb
00000130: 8ed9 8fbc 72ca 4dbc 4c5b ce3d 174c b33d
00000140: ce9b df3c 7f02 043d 6918 7d3d 334a 27bd
00000150: a7b1 233d 4276 a8bb 14c0 bbbb 736c 933c
00000160: 4c40 acbc de11 d93d 27c1 673d cdda c8ba
00000170: f70a 7abd 3003 b7ba a4b9 8bbb b542 88bd
00000180: 5fcf 5bbb c815 f1bb ca50 bb3d 04a3 b83d
00000190: e1ec 88bd c96f c4bd edc6 e0bc 9421 d73c
000001a0: 831e bbbd 602c a6bc c126 9b3b 8c84 903d
000001b0: c713 33bd a30f 9e3d 859c 3e3d a91a 6abd
000001c0: b7fb dd3d 4bbd a6bc ec64 463d 176a b33d
000001d0: 0414 28bd 76ae b83d 5b2d 69be 609a 373d
000001e0: f861 6b3c a80a 8fbd 5fda a0bc ccfb 2e3d
000001f0: 98b3 b8bd 9742 32bb 4021 89bd b4f2 dc3d
00000200: be34 6cbc 979f 48bd 4e29 533d 009b 493d
00000210: d44e b63d 5bb4 a43d d351 2ebd 3bea 6ebd
00000220: 925d 053d 0626 d83d 42b3 5d3d 4e3c a0bc
00000230: 1e92 efbc fa50 a8bd e8b5 39bd e0da 9dbc
00000240: c803 053e 382c 3a3d 9746 4fbd 43fe 793d
00000250: 2905 403d a3c5 acbc 7ed1 b2bc e87a aabc
00000260: e319 923d db65 073d 0939 ccbc 7a2c d8bc
00000270: 04c7 bc3b b237 c93d 8b39 8e3b c625 bfbd
00000280: 9e10 fc3c 9981 b4bc cf28 1f3c 5a4b 49bd
00000290: cc5c d6bc 56f5 dcbd da83 17bd 856c 3bbd
000002a0: d4ee 00bd b509 92bc 7f19 d93d 7247 a9bd
000002b0: cff2 923d 7cde aabd d749 91bc 7ed6 a33d
000002c0: 89cc 1ebd 490c d8bd 5a0e 053d eef5 81bb
000002d0: ba39 f43d d332 51bd d7bc 123c 136c e7bc
000002e0: de6b 09bd 6018 2d3b 95cd 6f3d 5f67 a93d
000002f0: e321 84bc 7e48 33bd f3fe a4bc 771b 803d
00000300: 1e72 cd3d 4b86 dfbd 43da a3bd 1ea8 c73d
00000310: ade1 88bd c383 f53c 920d 7bbc bfe0 b0bd
00000320: 08b9 6dbd ce9e 3abd d6be 083d 10ef 743c
00000330: 1b6a f7bc 2448 3b3a 0e47 843d a719 c83d
00000340: 171f 88bd cc80 df3d f449 cb3d 31f4 853d
00000350: 4f75 9f3d 512e 0fbd 9b7d 853d 7fd7 a9bc
00000360: a713 7fbd 5bb0 f1bd 1b17 e8bc ef5e d13c
00000370: d768 b43d e7f5 2b3c 1d66 793d 7ef1 833d
00000380: ab80 c7bd 73b9 63bd a81e 313c abb0 363e
00000390: 3b47 9dbd 4886 ffbc acf5 a63d 5451 a9bd
000003a0: 1ab8 5cbd 5331 02bd 81cb ba3d 225a f7bd
000003b0: f4ef 1abd 7161 043c d2f1 b1bd 220f aa3d
000003c0: 93d0 cbbd b486 033d 53d8 7c3d 9691 16bd
000003d0: 2869 d6bd 2062 b53d 450e b13d 929b 83bd
000003e0: 9d35 a23c 008f b63d bd1d 483e 023e 76bc
000003f0: 9ea5 453d 75a5 d63c d2ff 913d 954e c6bd
0.080755815 0.15572709 -0.058619052 -0.03236502 -0.09269352 -0.06785598 -0.080224566 -0.020884078
-0.010484674 -0.03333226 -0.013089888 -0.07890084 0.034009684 0.04538776 0.070625834 0.05881111
0.049893953 -0.03307378 0.04179597 0.028423889 0.011808629 0.015479621 0.0770711 0.016895523
-0.018853452 -0.072222024 0.041896973 -0.08024063 0.031089231 -0.053680003 -0.059072424 0.010928685
-0.028601538 -0.17982401 0.0801142 0.06431953 -0.04837499 0.089370064 -0.018340997 -0.17259713
0.05044575 -0.057018388 -0.071007594 0.0103041 0.0012979816 0.06344054 0.017256156 0.012974732
-0.036089566 -0.006227023 0.08362106 -0.0020078241 0.07912774 0.0025356908 -0.08609068 -0.064045355
0.010714866 -0.112897106 0.042955868 0.013603969 -0.03071687 0.11154458 0.061323237 -0.009031094
-0.05970281 0.00013737364 -0.07669386 -0.057968147 -0.017661935 -0.048252355 -0.11521199 -0.000780068
0.014230643 -0.12676844 0.032396637 -0.0066132667 -0.017559793 -0.012560474 0.10076007 0.08754747
0.027295973 0.032228943 0.061790857 -0.040842246 0.039964344 -0.0051410506 -0.0057296846 0.017996049
-0.021026753 0.10599111 0.05658069 -0.0015323997 -0.061045613 -0.0013962742 -0.0042640734 -0.06653348
-0.003354035 -0.007357333 0.09146269 0.09015468 -0.06685806 -0.09591634 -0.027438605 0.026261128
-0.09136679 -0.020284832 0.0047348444 0.07056531 -0.043720033 0.07717826 0.046535987 -0.05715433
0.108390264 -0.020353934 0.04843609 0.087604694 -0.041034713 0.09017651 -0.22771208 0.044824958
0.014366619 -0.069844544 -0.019635377 0.0427206 -0.0901863 -0.0027200335 -0.06695795 0.107884794
-0.014416872 -0.04898032 0.051553063 0.049220085 0.08901754 0.080422126 -0.042558502 -0.05832885
0.03255994 0.105541274 0.05412603 -0.019560006 -0.029244479 -0.0821857 -0.045339495 -0.019269407
0.12989724 0.045452327 -0.05060443 0.0610335 0.04687992 -0.021090334 -0.02182841 -0.02081056
0.07133844 0.03305612 -0.02492954 -0.026388396 0.005761029 0.09825076 0.0043403558 -0.093333766
0.030769642 -0.022034453 0.009714319 -0.049144126 -0.026167296 -0.107889816 -0.036990978 -0.04575779
-0.031477764 -0.017826894 0.10600566 -0.0826558 0.07175218 -0.08343217 -0.017735405 0.079998955
-0.03876928 -0.10549218 0.03248439 -0.0039660847 0.11925073 -0.05107386 0.008956156 -0.028249776
-0.033550136 0.0026412234 0.058545668 0.082716696 -0.01612944 -0.043770306 -0.0201411 0.062552385
0.10031532 -0.10914286 -0.080006145 0.09748863 -0.06683669 0.029970055 -0.01532306 -0.08636617
-0.058037788 -0.045561604 0.03338512 0.014949575 -0.030201962 0.00071442337 0.06458865 0.09770518
-0.06646555 0.10913238 0.09926215 0.065407164 0.07786047 -0.03495628 0.06518098 -0.02073264
-0.0622746 -0.11801215 -0.02833133 0.025557963 0.08809059 0.010495639 0.0608884 0.06442545
-0.09741338 -0.05559678 0.010810532 0.17840831 -0.07679602 -0.03119196 0.08152327 -0.08267465
-0.05388651 -0.03178532 0.091208465 -0.12077738 -0.037826493 0.0080798725 -0.08688702 0.083036676
-0.09951892 0.032110885 0.06172974 -0.036759935 -0.10469276 0.088566065 0.086453 -0.06426157
0.019800955 0.08913994 0.19542594 -0.015029432 0.048253648 0.026201943 0.07128872 -0.09682957

network_body.observation_encoder.processors.0.dense.0.bias f4 [128]
00000000: 0000 0000 0000 0000 0000 0000 0000 0000
00000010: 0000 0000 0000 0000 0000 0000 0000 0000
00000020: 0000 0000 0000 0000 0000 0000 0000 0000
00000030: 0000 0000 0000 0000 0000 0000 0000 0000
00000040: 0000 0000 0000 0000 0000 0000 0000 0000
00000050: 0000 0000 0000 0000 0000 0000 0000 0000
00000060: 0000 0000 0000 0000 0000 0000 0000 0000
00000070: 0000 0000 0000 0000 0000 0000 0000 0000
00000080: 0000 0000 0000 0000 0000 0000 0000 0000
00000090: 0000 0000 0000 0000 0000 0000 0000 0000
000000a0: 0000 0000 0000 0000 0000 0000 0000 0000
000000b0: 0000 0000 0000 0000 0000 0000 0000 0000
000000c0: 0000 0000 0000 0000 0000 0000 0000 0000
000000d0: 0000 0000 0000 0000 0000 0000 0000 0000
000000e0: 0000 0000 0000 0000 0000 0000 0000 0000
000000f0: 0000 0000 0000 0000 0000 0000 0000 0000
00000100: 0000 0000 0000 0000 0000 0000 0000 0000
00000110: 0000 0000 0000 0000 0000 0000 0000 0000
00000120: 0000 0000 0000 0000 0000 0000 0000 0000
00000130: 0000 0000 0000 0000 0000 0000 0000 0000
00000140: 0000 0000 0000 0000 0000 0000 0000 0000
00000150: 0000 0000 0000 0000 0000 0000 0000 0000
00000160: 0000 0000 0000 0000 0000 0000 0000 0000
00000170: 0000 0000 0000 0000 0000 0000 0000 0000
00000180: 0000 0000 0000 0000 0000 0000 0000 0000
00000190: 0000 0000 0000 0000 0000 0000 0000 0000
000001a0: 0000 0000 0000 0000 0000 0000 0000 0000
000001b0: 0000 0000 0000 0000 0000 0000 0000 0000
000001c0: 0000 0000 0000 0000 0000 0000 0000 0000
000001d0: 0000 0000 0000 0000 0000 0000 0000 0000
000001e0: 0000 0000 0000 0000 0000 0000 0000 0000
000001f0: 0000 0000 0000 0000 0000 0000 0000 0000
0.0 0.0 0.0 0.0 0.0 0.0 0.0 0.0
0.0 0.0 0.0 0.0 0.0 0.0 0.0 0.0
0.0 0.0 0.0 0.0 0.0 0.0 0.0 0.0
0.0 0.0 0.0 0.0 0.0 0.0 0.0 0.0
0.0 0.0 0.0 0.0 0.0 0.0 0.0 0.0
0.0 0.0 0.0 0.0 0.0 0.0 0.0 0.0
0.0 0.0 0.0 0.0 0.0 0.0 0.0 0.0
0.0 0.0 0.0 0.0 0.0 0.0 0.0 0.0
0.0 0.0 0.0 0.0 0.0 0.0 0.0 0.0
0.0 0.0 0.0 0.0 0.0 0.0 0.0 0.0
0.0 0.0 0.0 0.0 0.0 0.0 0.0 0.0
0.0 0.0 0.0 0.0 0.0 0.0 0.0 0.0
0.0 0.0 0.0 0.0 0.0 0.0 0.0 0.0
0.0 0.0 0.0 0.0 0.0 0.0 0.0 0.0
0.0 0.0 0.0 0.0 0.0 0.0 0.0 0.0
0.0 0.0 0.0 0.0 0.0 0.0 0.0 0.0

network_body._body_endoder.seq_layers.0.weight f4 [128, 128]
00000000: cdec 93bc 0ab1 86bd a822 073b 2e38 923d
00000010: 7f0e afbc ecea 34be 1c73 e4bc 0923 493b
00000020: 278f bebd a71e 423e dfb8 d03d 4342 ecbd
00000030: c229 3c3d c932 c93d 75a4 86bd 4516 e83d
00000040: 055b f63c 4026 52bd 8063 fa3c 1345 473d
00000050: c320 f13c 3e2c d6ba 8382 673d 910b 0bbe
00000060: 900e ca3d 53f5 52bd 8006 1f3d 2f01 763c
00000070: f58f 4d3d 5af4 afbc 258c 4a3d a9fd 31bd
00000080: f183 6cbd 4c82 97bd 1fc3 9b3c a9cc 9fbd
00000090: c1cc d0bc eca7 063d c6b7 1e3e 1312 a5bd
000000a0: c503 9a3d e596 b3bd 6c74 3fbd b9c1 943c
000000b0: ddbe d13d d209 c93a 327f 99be f769 40bc
000000c0: 04ee 2bbe 08a4 4c3e e990 e5bd ed01 19bd
000000d0: 41fd cf3d bdfc 1a3c 1cf4 c33c d83d 31be
000000e0: 1a89 4bbd e67b 12bd 1a47 d6bd 7673 b6bd
000000f0: 666e 963d bfc7 873c bbc7 28be e34f a8bd
00000100: b40c 27bd d1ca d6bd 9bfd 98bd f286 0dbe
00000110: 2267 a33c 6926 bdbd c157 023e 8f24 a839
00000120: d884 3bbe 1430 3abd 60c7 e13d ee61 2a3d
00000130: f3b2 ebbd 9ca0 03be 05d6 b63d b15d 5d3c
00000140: 15c3 a13c 222a 083d 28c0 b33d 915e 94bd
00000150: 92b0 0bbd 6909 943c 1d2b cbbc f057 92bc
00000160: 3618 41bd e0ac 04be fb31 913c eb9e 02bc
00000170: 15b5 03bb b1af 33bd bcf0 533d 2871 51bc
00000180: 4001 933d cce3 0b3d 5e70 6e3b f3a8 11be
00000190: d0cb d23a 9a1a 97bd eafc 2fbe b90b 3e3b
000001a0: 8322 19be 6fac 693c bdec ba3d 1cff cbbd
000001b0: 092e 62bd 207a 823d 8036 a43c 7813 163d
000001c0: 2e7e c43d 4b01 5dbd 7199 2dbd 7c8c d33d
000001d0: 3b87 9c3d e33b ffbd 551a 8c3c 7140 633d
000001e0: b244 13bd 6d3b abbd f313 a7bd c7d8 b93b
000001f0: 2d66 47bd 8bfe 3c3d 22b7 56bd 97bf c1bc
00000200: 3354 2b3d 17b0 973d f5b8 27bd 1228 c43c
00000210: 43c7 f9bd 5954 6fbd 6e88 afbc 6e2c 5d3d
00000220: 970c 9f3d e5f8 5dbd 598f 41bd 5667 f3bd
00000230: ab56 713d b565 003e c62a ffbd d4f5 33bd
00000240: 3e5d 8bbd 0fd3 5639 0c1a 3b3e c170 8c3d
00000250: 5e34 113d f539 3dbc 4788 ca3d 3477 87bd
00000260: b28f 2b3e 540c 363d 9bb9 913d 78e8 b8bd
00000270: 1906 5a3a 6d26 69bd 3d17 c43d 411e 1d3d
00000280: dd5a 603c adf9 273d a3ce bd3c e0a7 ebbd
00000290: 709f e93c a8f8 2dbe dfa2 883d a801 0e3c
000002a0: 38dd 12bd ded5 f3bc 2a1a 53bd 2e11 59bc
000002b0: 3cb2 f5bd 2a2d 353d af3d dbbd 2a22 893d
000002c0: 85b7 dabc 7249 b5bc 13df 5d3c bd9f 6dbd
000002d0: 73f4 283e ca3e f23c ddc7 de3d 4a71 5c3d
000002e0: 888e 38bd 72cc 663c 4aca 313b 8c42 763d
000002f0: ff0e c43c 0eae 383d 3f2b d1bc 2704 8e3d
00000300: 3fa2 95bd 468e 0fbd f438 8a3d a93b 6a3c
00000310: d077 4c3c 7f07 a6bd d0e4 f83c d0f1 c6bd
00000320: 4ad7 9fbd 6d7e 693b e445 6d3d ee76 26bd
00000330: 0fee 1abe 7bf9 943d 89bc d8bc e963 afbc
00000340: c891 4cbc efb0 9a3c 857e 683c f180 87bc
00000350: ce36 5f3d 9a45 b63d 157c eabb 049c 7e3d
00000360: 0741 d13d 7de7 bb3c e6b0 2f3d f11b 51bd
00000370: 2aae f0bc 6290 b7bd 96c4 8f3d 598d e63c
00000380: 50e3 d13d 8e19 8d3b 9cc4 71bc e05b 673b
00000390: 69c3 0e3e 493a c83d 7de5 15be c878 433c
000003a0: 4c9f 193e 1e0f 47bd 064e 1abe 6304 5dbd
000003b0: 040e 293d 1506 5bbe cf4c 563d 76b7 8fbd
000003c0: 0f51 67bd d1d6 08be 67f7 43bd d562 6abd
000003d0: 002d c33d 356a 52bd ca4c a53d a2cd 103c
000003e0: d7d8 643d bc94 18be 16d4 7ebd 3e78 4abc
000003f0: 315f 283d 794f 76bd 6e88 babd 15ec 093d
-0.018057251 -0.06576736 0.0020620022 0.07139622 -0.021369217 -0.1766774 -0.02788692 0.0030691049
-0.09304648 0.18957005 0.10191511 -0.11536076 0.04593826 0.098241396 -0.065743364 0.113323726
0.030072698 -0.05130601 0.030565023 0.04864986 0.029434567 -0.001634009 0.05652095 -0.13578631
0.09866059 -0.05150349 0.03882456 0.015014931 0.050186116 -0.02147882 0.04945006 -0.0434548
-0.057743017 -0.07397899 0.01901394 -0.07802708 -0.02548826 0.032874987 0.15499792 -0.08060088
0.0752025 -0.08769015 -0.046741888 0.01815878 0.102414824 0.001533801 -0.29979855 -0.011744014
-0.16790015 0.19984448 -0.1120928 -0.037355352 0.10155726 0.009459672 0.023920111 -0.17308748
-0.049691297 -0.03576269 -0.1046278 -0.08908741 0.073452756 0.016574739 -0.16482441 -0.08218362
-0.0407836 -0.10487903 -0.074702464 -0.13821009 0.019946638 -0.09235842 0.12728788 0.00032070695
-0.18312395 -0.045456007 0.11024356 0.0415973 -0.11508741 -0.12854236 0.0892754 0.013511107
0.019746343 0.033243306 0.08776885 -0.072445996 -0.034103937 0.018070893 -0.024800831 -0.017864197
-0.04714223 -0.12956572 0.017724028 -0.007972459 -0.0020096947 -0.043868724 0.051743254 -0.012783326
0.07177973 0.03415279 0.0036382894 -0.14224605 0.0016082469 -0.07378121 -0.17186323 0.0028998686
-0.14954571 0.014262303 0.091271855 -0.099607676 -0.055219684 0.0637095 0.020045519 0.03663966
0.09594379 -0.05395631 -0.04238266 0.1032953 0.07642981 -0.12462594 0.0171024 0.055481378
-0.035954185 -0.08360944 -0.08158102 0.005671594 -0.048681427 0.04614119 -0.052420743 -0.023650927
0.041828346 0.07406633 -0.040947873 0.023944888 -0.12196209 -0.05843005 -0.02142736 0.05399745
0.07766073 -0.054192442 -0.047255848 -0.11884944 0.058920544 0.12538798 -0.1245933 -0.04393561
-0.06804894 0.00020487256 0.18271655 0.068574436 0.035450332 -0.011549463 0.09889274 -0.06614533
0.16754034 0.04444535 0.071154796 -0.09028715 0.00083169487 -0.05692141 0.09574745 0.03835893
0.0136935385 0.041009594 0.023169821 -0.11506629 0.028518409 -0.16989386 0.0667169 0.008667387
-0.035855502 -0.029765066 -0.051538624 -0.013248725 -0.11996886 0.044232525 -0.107051246 0.066959694
-0.026698837 -0.022129748 0.013541955 -0.058013666 0.164995 0.029570956 0.10877965 0.05381898
-0.045057803 0.0140868295 0.002712863 0.060122058 0.023932932 0.045087866 -0.025533317 0.06934386
-0.073063366 -0.035047792 0.06749144 0.014296451 0.012479737 -0.081068985 0.030382544 -0.09714091
-0.07804735 0.0035628334 0.05792798 -0.040640764 -0.15129875 0.07274147 -0.026457088 -0.021409946
-0.012485929 0.018883197 0.014190321 -0.016540976 0.054495625 0.08899994 -0.007155905 0.062160507
0.10217481 0.02293753 0.042893313 -0.051052038 -0.029379923 -0.08963086 0.07019918 0.028143572
0.102484345 0.004306025 -0.014756348 0.0035302565 0.1394173 0.09776742 -0.14638324 0.011930652
0.15002173 -0.0485984 -0.15068826 -0.05395926 0.041273132 -0.21389039 0.052319344 -0.07017414
-0.056473788 -0.13363196 -0.047843363 -0.05722316 0.095300674 -0.05137082 0.08071287 0.008838089
0.055870857 -0.14900488 -0.06221398 -0.0123577695 0.041106407 -0.060134385 -0.09108053 0.03367241

network_body._body_endoder.seq_layers.0.bias f4 [128]
00000000: 0000 0000 0000 0000 0000 0000 0000 0000
00000010: 0000 0000 0000 0000 0000 0000 0000 0000
00000020: 0000 0000 0000 0000 0000 0000 0000 0000
00000030: 0000 0000 0000 0000 0000 0000 0000 0000
00000040: 0000 0000 0000 0000 0000 0000 0000 0000
00000050: 0000 0000 0000 0000 0000 0000 0000 0000
00000060: 0000 0000 0000 0000 0000 0000 0000 0000
00000070: 0000 0000 0000 0000 0000 0000 0000 0000
00000080: 0000 0000 0000 0000 0000 0000 0000 0000
00000090: 0000 0000 0000 0000 0000 0000 0000 0000
000000a0: 0000 0000 0000 0000 0000 0000 0000 0000
000000b0: 0000 0000 0000 0000 0000 0000 0000 0000
000000c0: 0000 0000 0000 0000 0000 0000 0000 0000
000000d0: 0000 0000 0000 0000 0000 0000 0000 0000
000000e0: 0000 0000 0000 0000 0000 0000 0000 0000
000000f0: 0000 0000 0000 0000 0000 0000 0000 0000
00000100: 0000 0000 0000 0000 0000 0000 0000 0000
00000110: 0000 0000 0000 0000 0000 0000 0000 0000
00000120: 0000 0000 0000 0000 0000 0000 0000 0000
00000130: 0000 0000 0000 0000 0000 0000 0000 0000
00000140: 0000 0000 0000 0000 0000 0000 0000 0000
00000150: 0000 0000 0000 0000 0000 0000 0000 0000
00000160: 0000 0000 0000 0000 0000 0000 0000 0000
00000170: 0000 0000 0000 0000 0000 0000 0000 0000
00000180: 0000 0000 0000 0000 0000 0000 0000 0000
00000190: 0000 0000 0000 0000 0000 0000 0000 0000
000001a0: 0000 0000 0000 0000 0000 0000 0000 0000
000001b0: 0000 0000 0000 0000 0000 0000 0000 0000
000001c0: 0000 0000 0000 0000 0000 0000 0000 0000
000001d0: 0000 0000 0000 0000 0000 0000 0000 0000
000001e0: 0000 0000 0000 0000 0000 0000 0000 0000
000001f0: 0000 0000 0000 0000 0000 0000 0000 0000
0.0 0.0 0.0 0.0 0.0 0.0 0.0 0.0
0.0 0.0 0.0 0.0 0.0 0.0 0.0 0.0
0.0 0.0 0.0 0.0 0.0 0.0 0.0 0.0
0.0 0.0 0.0 0.0 0.0 0.0 0.0 0.0
0.0 0.0 0.0 0.0 0.0 0.0 0.0 0.0
0.0 0.0 0.0 0.0 0.0 0.0 0.0 0.0
0.0 0.0 0.0 0.0 0.0 0.0 0.0 0.0
0.0 0.0 0.0 0.0 0.0 0.0 0.0 0.0
0.0 0.0 0.0 0.0 0.0 0.0 0.0 0.0
0.0 0.0 0.0 0.0 0.0 0.0 0.0 0.0
0.0 0.0 0.0 0.0 0.0 0.0 0.0 0.0
0.0 0.0 0.0 0.0 0.0 0.0 0.0 0.0
0.0 0.0 0.0 0.0 0.0 0.0 0.0 0.0
0.0 0.0 0.0 0.0 0.0 0.0 0.0 0.0
0.0 0.0 0.0 0.0 0.0 0.0 0.0 0.0
0.0 0.0 0.0 0.0 0.0 0.0 0.0 0.0

network_body._body_endoder.seq_layers.2.weight f4 [128, 128]
00000000: 1d54 74be fa13 9f3b 6dde 14bc a6be a6bc
00000010: 2c2d 133e 60d6 133d bc3b 853d e604 feba
00000020: fb20 663d 4014 be3d 5309 273e f3fe 12be
00000030: 0af6 a13d 6e00 dabc e46a 2b3d 3555 113e
00000040: 4f96 dcbd 72c6 a6bc 9cd7 82bd caec e23a
00000050: 84c4 9fbd eb58 c83c 2278 10bd 8f2a 92bc
00000060: 9ac9 903d 8c4b 8abd e19d f33c b2dd e1bc
00000070: 7fe2 ea3d 4d10 b9bd 84de 10be 6c1f f0bc
00000080: 7bd0 1ebc eb05 2ebe 66fc 49be 24c3 35bd
00000090: bc49 fbbd 9bb5 61be 501d 32bd 867b f0bd
000000a0: 57cc 00bd 61f9 383d d1e8 adba d007 8bbc
000000b0: 313c c6bd 4f1b fb3d bdab 17bd 658f 2dbc
000000c0: b788 13be 0734 a5bd b931 683d 7931 9abd
000000d0: 5f5f 363e b87b 8e3d d924 a9bd 2c5c ed3a
000000e0: c60b e73d 8172 13be d740 f73c a80c a9bc
000000f0: a960 78bd 0dfc 6fbd d329 b3bd 2f36 51bb
00000100: 8672 28bd 18c0 b43d 34b3 cabc 1f2c b53d
00000110: 264a 76bd 2e76 babd 9725 7b3e 558d 93bc
00000120: b8d8 783c 64d2 ac3c c890 cf3b b144 bc3d
00000130: 741c 483e a2ed d4bb fa12 3f3d b157 debd
00000140: b190 f1bc 1820 c3bc b70e 3ebb 121b babc
00000150: 61e5 fa3d d303 41bd dbbc c4bc d7fd f839
00000160: ab0c f0bd 91e7 fabb af5b 6f3d 03ea 20bd
00000170: 75f3 4d3c 5807 6bbd 2b25 8abd 7e45 e33c
00000180: 08c8 59bd e493 2c3d bd3e 72be 801d 21bc
00000190: 3e02 6c3d 4abb e5bd ad50 c93b bdd4 15be
000001a0: 7b91 843c 5832 083e 58f3 a43c 272d b93d
000001b0: 22a3 a1bd 0981 aebc 1ab8 50bd 7964 80bb
000001c0: 41ef 8d3d 199f e9bd cd2d 413d 80a0 953d
000001d0: b264 223d eeb9 9dbc d28a 9e3d 62c8 7dbd
000001e0: 5db8 d33d 34d2 863d 0c1f 4b3a 3a27 983d
000001f0: a08b 32be 7186 9f3c 59bb 2b3d a160 9f3d
00000200: 7b35 ce3d 6968 033e 1aa7 da3c 6027 9d3d
00000210: 9fa5 d13d 1f76 4e3e 8d5d 7dbe ae5b 883d
00000220: 8c24 5c3d 2b16 a63c 461f 8fbd 8fec 3f3e
00000230: 2656 163e f086 bc3d 37cb d9bc cfd7 89bd
00000240: d035 7a3e 3ecd 163d 7e1a edbc c0a2 e23c
00000250: 0e7c 073e ca1d 183e 9f05 303d ae5b 463d
00000260: 49cb b0bd dead 603d 11b2 c0bb d787 fabc
00000270: 0c66 3e3d b4ac 9e3d 9d00 8bbc 6065 13bd
00000280: 4c44 05bd 7406 e8bd 33d2 15be e575 543b
00000290: be4a 33be a43c 293d 6b7d 46bd 62a0 56bd
000002a0: 845d 66bd 4ab1 583d 1678 6e3d ba6a 653b
000002b0: 3e98 b93d b15d 31bc e1db 093e c810 d63d
000002c0: a684 25bd 9417 4abc 1ef0 ed3c 1782 8fbc
000002d0: c55c cd3c b3b0 c9bd 2d99 96bd 982d e8bc
000002e0: cb75 223e 0b2f 6abb 22de 923d d7b4 30bb
000002f0: 32a9 2abc 1071 bdbc df9d f33b 5628 18be
00000300: 7992 27be 4d51 b6bd cb77 0fbd 9a7b 193d
00000310: 47d6 853d 50cb 1dbe 21fe b73b b29f aa3d
00000320: 28d6 6abc 73b5 41be d381 23be b505 363d
00000330: b8cc c63d cdc8 76bd 2c4b e43d 0ec1 443d
00000340: cae7 4c3c 395e 3d3e 6cb7 a43d 4685 09bc
00000350: 4098 e73d d9f4 533d e223 233c bd5d 57be
00000360: 5fa9 e43d ed49 a43d cd99 31bd a513 60bd
00000370: 0ae5 8a3c 5aea 0fbe edd5 993d 34c7 dbbb
00000380: df50 f9bd 83b3 083c 0236 473d b9f5 d3bd
00000390: 42b8 373e eb1b d43b 89ad 393d 5004 173d
000003a0: f2df ad3c 5143 683d 6e0f babb 04de a4bc
000003b0: 224c 9f3d 0105 c1bd d62a 353d 221e d9bd
000003c0: 734f 44bd d9ab fcbd 8201 053d 7724 4e3e
000003d0: 90bc c53d 7adf 023e 2047 7a3c d7c1 823e
000003e0: b9e0 803d aa1b 93bd d944 a73d 1ed7 773d
000003f0: a8bf 7bbd 62a8 d83c f15f d2bc 8d8c a53b
-0.23860212 0.0048546763 -0.009086234 -0.02035458 0.143727 0.036093116 0.06505534 -0.0019380122
0.056183796 0.09281206 0.1631215 -0.14355068 0.07908256 -0.026611533 0.041849986 0.1419266
-0.107708566 -0.020358298 -0.063887805 0.0017313 -0.07801154 0.024456462 -0.035270818 -0.01784256
0.070697024 -0.06752691 0.029738368 -0.027571533 0.11468982 -0.09036312 -0.14147383 -0.029311858
-0.00969326 -0.16994445 -0.19725189 -0.044375554 -0.12269923 -0.22041933 -0.043484986 -0.1174231
-0.031444874 0.0451597 -0.0013268237 -0.016971499 -0.09679449 0.12261068 -0.037029017 -0.01059327
-0.14407621 -0.08066564 0.056688044 -0.075289674 0.17809819 0.06957191 -0.08258981 0.0018109134
0.112815425 -0.14399149 0.030182285 -0.020635918 -0.060639057 -0.058589984 -0.08748212 -0.0031923165
-0.041124843 0.088257015 -0.024743654 0.08846306 -0.060129307 -0.09104572 0.24526058 -0.018011728
0.0151883885 0.021096416 0.006334398 0.09192789 0.19542104 -0.0064980546 0.046648957 -0.108565696
-0.02948794 -0.023819014 -0.002900047 -0.022717986 0.12250782 -0.047122788 -0.024015835 0.00047491372
-0.11721166 -0.0076569994 0.058437046 -0.03928567 0.012570252 -0.05738005 -0.067453705 0.027743097
-0.05316928 0.042133227 -0.23656745 -0.0098336935 0.057619326 -0.11217363 0.0061436505 -0.14631934
0.016182652 0.13300455 0.020135567 0.09041815 -0.07892443 -0.021301763 -0.050956823 -0.0039182273
0.069304 -0.114072986 0.04716282 0.073060036 0.03964681 -0.019253697 0.077413216 -0.061958678
0.10337899 0.06583062 0.0007748462 0.07429357 -0.17436075 0.019473286 0.041926716 0.077821024
0.10068794 0.12832798 0.026691008 0.07673526 0.10236668 0.20162247 -0.24742718 0.066581115
0.05374579 0.020274242 -0.06988387 0.18742584 0.146813 0.09205425 -0.026586158 -0.06730615
0.2443459 0.036816828 -0.028943297 0.027665496 0.13230917 0.14855114 0.04297411 0.048427276
-0.086325236 0.054853313 -0.005880602 -0.030582352 0.04648404 0.07747784 -0.016968066 -0.03598535
-0.032535836 -0.11329356 -0.14630966 0.0032418903 -0.1750898 0.041317597 -0.04845945 -0.052399047
-0.056241527 0.05290345 0.05821999 0.003500624 0.09062241 -0.01082556 0.13462783 0.104524195
-0.040409707 -0.012334723 0.02904516 -0.017518086 0.02506865 -0.09848156 -0.07353435 -0.028342053
0.15865247 -0.0035733606 0.07171275 -0.0026963258 -0.010416316 -0.023125201 0.007434591 -0.14859137
-0.16364469 -0.08902226 -0.035026353 0.03747139 0.06535011 -0.15409589 0.0056150113 0.08331241
-0.014333285 -0.18916874 -0.15967493 0.044439036 0.09707016 -0.060250092 0.111471504 0.048035674
0.012506435 0.18492974 0.080427974 -0.008393591 0.11308336 0.051747177 0.009957286 -0.21031852
0.111651175 0.08021913 -0.043359566 -0.054706234 0.016954917 -0.14054242 0.07511506 -0.0067070965
-0.12173628 0.00834358 0.04863549 -0.10349602 0.17941383 0.0064730546 0.04533151 0.036869347
0.02122495 0.056704823 -0.005678109 -0.020125397 0.07778193 -0.094247825 0.044230305 -0.106014505
-0.04792733 -0.12337465 0.03247214 0.20131098 0.09655106 0.12780562 0.015275747 0.25538513
0.062928624 -0.07183011 0.081674285 0.060507886 -0.061462075 0.026447479 -0.025680514 0.0050521553

network_body._body_endoder.seq_layers.2.bias f4 [128]
00000000: 0000 0000 0000 0000 0000 0000 0000 0000
00000010: 0000 0000 0000 0000 0000 0000 0000 0000
00000020: 0000 0000 0000 0000 0000 0000 0000 0000
00000030: 0000 0000 0000 0000 0000 0000 0000 0000
00000040: 0000 0000 0000 0000 0000 0000 0000 0000
00000050: 0000 0000 0000 0000 0000 0000 0000 0000
00000060: 0000 0000 0000 0000 0000 0000 0000 0000
00000070: 0000 0000 0000 0000 0000 0000 0000 0000
00000080: 0000 0000 0000 0000 0000 0000 0000 0000
00000090: 0000 0000 0000 0000 0000 0000 0000 0000
000000a0: 0000 0000 0000 0000 0000 0000 0000 0000
000000b0: 0000 0000 0000 0000 0000 0000 0000 0000
000000c0: 0000 0000 0000 0000 0000 0000 0000 0000
000000d0: 0000 0000 0000 0000 0000 0000 0000 0000
000000e0: 0000 0000 0000 0000 0000 0000 0000 0000
000000f0: 0000 0000 0000 0000 0000 0000 0000 0000
00000100: 0000 0000 0000 0000 0000 0000 0000 0000
00000110: 0000 0000 0000 0000 0000 0000 0000 0000
00000120: 0000 0000 0000 0000 0000 0000 0000 0000
00000130: 0000 0000 0000 0000 0000 0000 0000 0000
00000140: 0000 0000 0000 0000 0000 0000 0000 0000
00000150: 0000 0000 0000 0000 0000 0000 0000 0000
00000160: 0000 0000 0000 0000 0000 0000 0000 0000
00000170: 0000 0000 0000 0000 0000 0000 0000 0000
00000180: 0000 0000 0000 0000 0000 0000 0000 0000
00000190: 0000 0000 0000 0000 0000 0000 0000 0000
000001a0: 0000 0000 0000 0000 0000 0000 0000 0000
000001b0: 0000 0000 0000 0000 0000 0000 0000 0000
000001c0: 0000 0000 0000 0000 0000 0000 0000 0000
000001d0: 0000 0000 0000 0000 0000 0000 0000 0000
000001e0: 0000 0000 0000 0000 0000 0000 0000 0000
000001f0: 0000 0000 0000 0000 0000 0000 0000 0000
0.0 0.0 0.0 0.0 0.0 0.0 0.0 0.0
0.0 0.0 0.0 0.0 0.0 0.0 0.0 0.0
0.0 0.0 0.0 0.0 0.0 0.0 0.0 0.0
0.0 0.0 0.0 0.0 0.0 0.0 0.0 0.0
0.0 0.0 0.0 0.0 0.0 0.0 0.0 0.0
0.0 0.0 0.0 0.0 0.0 0.0 0.0 0.0
0.0 0.0 0.0 0.0 0.0 0.0 0.0 0.0
0.0 0.0 0.0 0.0 0.0 0.0 0.0 0.0
0.0 0.0 0.0 0.0 0.0 0.0 0.0 0.0
0.0 0.0 0.0 0.0 0.0 0.0 0.0 0.0
0.0 0.0 0.0 0.0 0.0 0.0 0.0 0.0
0.0 0.0 0.0 0.0 0.0 0.0 0.0 0.0
0.0 0.0 0.0 0.0 0.0 0.0 0.0 0.0
0.0 0.0 0.0 0.0 0.0 0.0 0.0 0.0
0.0 0.0 0.0 0.0 0.0 0.0 0.0 0.0
0.0 0.0 0.0 0.0 0.0 0.0 0.0 0.0

action_model._continuous_distribution.log_sigma f4 [1, 2]
00000000: 0000 0000 0000 0000
0.0 0.0

action_model._continuous_distribution.mu.weight f4 [2, 128]
00000000: b776 4d3c bae4 d23b 25e9 873c ac1f 1e3c
00000010: d226 023d 0bdb fc3c 18f7 5f3c 9389 bdbc
00000020: e4c1 80bc d57e 86bc 17cc 153c ab0d 3b3c
00000030: 3719 133d 7e1a 883b 6d29 f239 cc7c 18bc
00000040: ab25 f03b 3d40 7fbb 7a40 7a3d 4b6d c13c
00000050: cac4 d73b bee2 18bc 3f94 f9bc 6dde d93a
00000060: 06d2 8b3c 7f62 8cbc 9122 a4bc c7e1 babc
00000070: c0d4 c7bc 439b 6fba 634c acbb 0f40 06bc
00000080: ff10 0abc 0f21 d7ba 8763 0d3c 7b79 013d
00000090: 62db d8bb aa23 73bb 8fc4 a9bc 12d0 f4bb
000000a0: efc3 61bb 0970 3c3c 43c7 bfbc e9f9 a0bc
000000b0: bd5f 823c 421f d7bc 17fd a0bc b97b af3b
000000c0: f72d 02bd 9b57 043c f3e2 b23c 0c3e aa3c
000000d0: f0a8 7c3b cecb 13bc 0f63 9bbc 5a75 033d
000000e0: dd45 e63c ba12 e1bc db0c 023d ba05 55bc
000000f0: 3895 c73b e536 80bc 3f9e d4bc 5517 033b
00000100: c325 25bc 9720 9c3c baf1 493c a5b5 223d
00000110: 6dd5 03ba bbd3 fbbc f866 92bb 6549 4a3b
00000120: 9b2f aab9 4bad 143b fb51 db3c 5a8d 363c
00000130: 2d89 d93c dd10 ae3c 93d2 02bc ab56 f2bb
00000140: e75e b2b9 6bd5 323c e093 8a38 370a 41bd
00000150: eb83 66bb cad6 ccbc f593 eb3b 81a7 b5bc
00000160: 6d83 e0bb 6f17 a13a 889c 79bc 12e9 9dbc
00000170: 1bac d33b 1844 523d a996 2ebc b5fd a9bc
00000180: 9711 8c3c 01f5 3e3c 3858 903b 5b84 663b
00000190: beea 3c3c 2f7b 303c d215 26bd 9e87 91ba
000001a0: 350f 02bc 2890 2bbc 08bb 563c dc3e ab3c
000001b0: 3f4b 27bc 6acc e0bb 1e36 33bb 7398 f33b
000001c0: 5a0b 82ba 1187 813b 7cc4 273c 7970 13bd
000001d0: fcec 2bbc b080 5fbc 70ea 133a ed63 06bd
000001e0: 15aa 723b b782 03bc 3b3f 1a3d 86e3 86bb
000001f0: 4bc2 07bc 7724 dc39 ca3a a8bc dbfb 923c
00000200: d492 b6bc f8e7 dabb d8b6 e6bc 805e 0c3c
00000210: 83a1 6dbc 393b b33b c516 03bc f0f6 723b
00000220: 14f1 9f3b b1be 80bc 7a5f 8bbb 8389 00bc
00000230: 8af1 623c 0756 823c cbc9 c93c 92aa 8a3b
00000240: 9cdb 403c b0d6 f63b 3bb4 213c f903 9b3c
00000250: b505 493b 1047 833b a639 cbbc 44cc 993c
00000260: 3ba1 e43c ab16 9dbc 6bc3 7bbc 6604 9a3b
00000270: ea2d 6e3b cf1a 8fbc fcee b93b 953a debb
00000280: 2fe5 4b3d 685e e13c e359 823c cb1c 2bbc
00000290: 729b 583c b04f 61bc 4b92 b6bb c0b8 fdbb
000002a0: d7c1 7a3c 93b4 7dbc 04f9 3bbc ba6c 573c
000002b0: d2d7 cc3b 4a01 923b f022 da3c 4b25 ebba
000002c0: 986a a33b 3dfe 7d3a 61ea afbb 6f7f 0dbc
000002d0: 5f5f 0abd ca55 4ebb 4f9c f6ba 2a19 f0bb
000002e0: abd8 65bd 4bd6 0dbd 66db 243c 3193 363b
000002f0: 454a 833c 2f68 14ba 4b2d e63a ea13 f4bc
00000300: 2aee 83bc 1151 9a3b c3f6 ff3c 575b 563c
00000310: 4b82 05bd 4764 0fbd 6c62 94bc 1a92 9dbc
00000320: fbf7 c3bc 715a a63b 172d c5bb d3ea 0f3c
00000330: 8ab9 75bc 655e 3c3b cc8c b2bc 2172 3abc
00000340: 74c1 b9bc 188b 98bb 4e9d 8e3c 8957 95ba
00000350: abc9 fabc 8b3c 03bd 23d4 40bc 60f2 8a3c
00000360: 08d4 6b3c 87a1 30bc daf2 273d bf29 393c
00000370: 78ea 763a 9b02 07bc 5004 033b eb20 353c
00000380: 640c 053d 2438 383c a7ce 9e3b 272b 94bc
00000390: 6314 9d3c 7531 12bc 4092 98bb 7a7b 6ebc
000003a0: 8582 14bc e31c 07bb 97cc 06bd 0763 a7bc
000003b0: e366 05bb 3a35 fdbc cb1f ad3c 71e5 cb3c
000003c0: 6126 3bba d3e4 28bc efa4 c13b 6834 8abc
000003d0: 9f7d 8e3b 47cc 353b 6278 823b 7cb3 a03c
000003e0: 8b5a ccbc cada 5c3c 2338 e7bc f348 793c
000003f0: 2787 62bb 043a 103c 67e7 65bc 244f 1d3c
0.012540511 0.0064359577 0.016590664 0.009651106 0.031775303 0.030866167 0.013669752 -0.02313689
-0.015717454 -0.0164179 0.009142897 0.011416833 0.03591272 0.0041535487 0.00046188702 -0.009307098
0.007328709 -0.00389482 0.061096646 0.023611685 0.0065847384 -0.009331403 -0.030466197 0.0016622074
0.01706792 -0.01713681 -0.020036014 -0.022812737 -0.02439344 -0.0009140262 -0.0052581294 -0.008193984
-0.008426904 -0.001641305 0.008629686 0.031609993 -0.0066179493 -0.0037100115 -0.02072361 -0.007471093
-0.003444906 0.011501321 -0.023410445 -0.019650416 0.015914792 -0.026260022 -0.019651933 0.005355325
-0.031782117 0.008077527 0.021836733 0.02078154 0.0038552843 -0.009020759 -0.018968133 0.032094337
0.028109485 -0.02747475 0.03175054 -0.013001854 0.0060907863 -0.015651176 -0.025954364 0.002000292
-0.010079804 0.019058509 0.0123256985 0.03972401 -0.00050290563 -0.03074061 -0.0044678412 0.00308665
-0.00032460396 0.0022686298 0.02677249 0.011142099 0.026554668 0.021248275 -0.007984775 -0.0073955855
-0.00034021513 0.010915141 6.607897e-05 -0.047128882 -0.0035173844 -0.025004763 0.0071892687 -0.022174599
-0.0068516047 0.0012290309 -0.015235074 -0.019276176 0.0064597256 0.05133447 -0.010656037 -0.02075086
0.017098231 0.011655093 0.0044050477 0.0035174105 0.011530576 0.010771557 -0.040548153 -0.0011103039
-0.007938196 -0.010471381 0.013106115 0.020903997 -0.010210811 -0.0068603056 -0.0027345489 0.007433945
-0.0009921596 0.0039528687 0.010239717 -0.035995934 -0.010493513 -0.013641521 0.0005642539 -0.03281014
0.0037027646 -0.00802677 0.037657958 -0.0041164784 -0.008286069 0.00041988838 -0.020535845 0.01794236
-0.02228681 -0.006680485 -0.028163359 0.008567452 -0.014503839 0.0054697064 -0.008001034 0.0037073456
0.0048810337 -0.015715929 -0.004253325 -0.007845285 0.013851533 0.015910162 0.024632355 0.0042317593
0.011771109 0.007532917 0.00986963 0.018922793 0.0030673568 0.004006274 -0.024807762 0.01877416
0.027908912 -0.019175848 -0.0153664155 0.0047002314 0.0036343285 -0.017468838 0.005674241 -0.006781886
0.049779113 0.027510837 0.015912002 -0.0104438765 0.013220655 -0.013751909 -0.0055716387 -0.007742971
0.015305004 -0.015484947 -0.011472944 0.013148481 0.0062513137 0.00445572 0.026627988 -0.0017940191
0.004987072 0.00096890685 -0.0053685163 -0.00863634 -0.03378236 -0.003148424 -0.0018814894 -0.0073272185
-0.056114834 -0.034628194 0.010062074 0.002785873 0.016026625 -0.00056612765 0.0017561106 -0.029794652
-0.016104776 0.004709371 0.031245595 0.013083301 -0.03259496 -0.03500774 -0.018113337 -0.019234706
-0.023921957 0.0050766994 -0.006017338 0.008784014 -0.014997849 0.0028742787 -0.021795653 -0.0113797495
-0.022675253 -0.004655253 0.017408993 -0.0011393885 -0.03061374 -0.03204016 -0.011769327 0.016961277
0.014393814 -0.010780699 0.041003086 0.011301457 0.0009419094 -0.008240367 0.0019991584 0.011055212
0.03248252 0.011243854 0.004846412 -0.018086983 0.01917476 -0.008922924 -0.0046561062 -0.014555806
-0.009064321 -0.0020616583 -0.032909956 -0.020432962 -0.0020355515 -0.03090917 0.021133324 0.02488968
-0.0007139203 -0.010308462 0.005909554 -0.016870692 0.0043484713 0.0027740167 0.003981636 0.019616835
-0.024945518 0.013479898 -0.02822501 0.015215146 -0.003456542 0.0088028945 -0.014032221 0.009601388

action_model._continuous_distribution.mu.bias f4 [2]
00000000: 0000 0000 0000 0000
0.0 0.0
