CS455_PR1/results/ShootTargetAgent/ShootTargetAgent/ShootTargetAgent-3844.onnx (onnx, 490268 bytes, 18 tensors)

discrete_act_size_vector f4 [1, 2]
00000000: 0000 4842 0000 4842
50.0 50.0

network_body.observation_encoder.processors.0.conv_layers.0.weight f4 [16, 1, 8, 8]
00000000: 7096 99bc 072a b7bd b4fd e4bd dbd8 c73c
00000010: 21d5 543b 077a 673c b850 fe3d 9a7f aabc
00000020: 8852 873d a85c 613c 10df b0bd 5520 7f3c
00000030: 736c eb3d 9878 ef3c 2d13 fd3d d9ca 9dbd
00000040: 4b85 1fbc 7e21 ff3d f462 943d 4e77 803c
00000050: c404 c1bd 79e0 1cbd 87a4 073e 4128 0d3d
00000060: c6b5 483d 6b26 e3bb c6c7 d6bc 1c76 90bd
00000070: f0bd e1bd db78 4c3d cb6a e53c 69a9 a03c
00000080: b1e7 8bbd e489 193d 4894 503d 49aa c2bd
00000090: cb4c 9fbb 37a2 acbd 55c8 a43b 9efe 8ebd
000000a0: 7812 fabc cd87 9b3d 37ba ea3d 551f ab3d
000000b0: bafb ed3d b169 c23d 2ddd f03d d75f 943d
000000c0: 594a c83d 08a4 80bd ab64 d63d 46bd e83d
000000d0: 5fe4 6cbc ac7f cd3c 4f44 043e 8b9e 833d
000000e0: 0b3c df3d 1d33 813d a469 c23d 0965 05bd
000000f0: 0b14 ff3c 296d 013e 226c a53c 13c1 bb3d
00000100: 4f16 343d 0426 a5bc b15a 64bd 1b8c 89bd
00000110: c584 c6bd 6b73 c53d ff6f 10be 8181 d83c
00000120: ff70 85ba 8b60 d1bc 3931 83bd e44c 123c
00000130: c3c2 e9bd 8606 bbbd b7b2 793c 24f4 10be
00000140: 24ed 063d 6587 d23d f240 c3bb bc12 143c
00000150: 519f 923d 090b aa3d 2c66 2b3d a694 123d
00000160: dcb3 82bd f30e adbd c034 2ebd c762 95bc
00000170: 16e6 3bbb 4340 083d 11ec 05be e0c6 46bd
00000180: 16e9 dbbd d530 28bd 5fd1 90bd 5949 cb3d
00000190: e239 a33d ac2a d53d 1a60 5a3d 0833 873d
000001a0: facc 823d 67e9 6b3c b2ff 1f3c bc6c e3bd
000001b0: 06f6 10be dd4a c1bd 4e5e 343d cc3e be3d
000001c0: b0c4 663b 15c2 ce3d ba19 033d 3489 00be
000001d0: 7377 85bb 590a 78bd 425f ce3d 40ff b3bd
000001e0: 845d 01be f84e 163b 39e8 b4bd f019 953b
000001f0: 948e f73d a4ae 08be 5b94 bb3d 004b 3abd
00000200: c5f5 4e3d 2cc6 b5bd d023 80bd b71d aebc
00000210: 6444 9cbd 239b ad3d 81e4 92bd 66cc 8bbc
00000220: 98ee 0a3d 8db3 ab3d 8a7f 4dbd 0c6a d53d
00000230: 844c f23d ee61 5fbd 5112 863d 6067 9a3d
00000240: 0806 85bc a0fa b63c d3c5 2ebc 989d c4bd
00000250: 7bf2 5c3c 8b80 a8bc 6197 babd e49a 51bd
00000260: 18dd 9d3c e942 6a3d c547 143d 5141 7dbd
00000270: d739 d9bd a846 303b a25a cabd f7a1 c8bd
00000280: e396 5b3c b928 a6bd e7ea 94bd bc7b 8a3d
00000290: 2930 023d 640f d93d 815f fc3c 00aa e53c
000002a0: f234 afbc e2ce 893d a139 783b 0be7 e83c
000002b0: 019b b83d f630 ed3c ceec 3c3c 46f9 01be
000002c0: eee7 a03d 72ec c23b 7abf 783b 099a b2bc
000002d0: 9d22 bbbd af96 bdbd 8802 643d 8eae a7bd
000002e0: 4c53 e7bd eb7a 113d eb8d e03d 311e dd3d
000002f0: 963b f5bd 56ed 1f3d b6d0 883d d8ac 7ebd
00000300: 774d 2cbd d90d e6bd 5dbd df3d 45ba e8bd
00000310: e82d ab3d c2cc 5b3d b8f5 0a3d b79c 6cbd
00000320: 1f44 a13d 462b ad3d 26d4 e2bb abe0 cabc
00000330: a066 11bd db04 bebb 181f 4abe d1ad 1abe
00000340: ffd3 923d 5bab e63c 9c59 763d 9c11 76bd
00000350: af5f a03d 494d 733d 07d4 2ebe 0b91 34be
00000360: 805d 60bb 1f02 39bd 7f46 cebd c2d2 83bd
00000370: 3e99 b23b 1ade 04be b63c 08be 6f81 2bbd
00000380: 06bc e53d a794 a4bd f988 b3bc 2115 2f3d
00000390: e7c1 c7bd 66fb f6bd d496 e03b eb03 98bd
000003a0: c38b 133d b81c 0bbe 0bf5 c53c 807b ae3d
000003b0: b377 21bd 6d6c 4bbd f1cc 9cbd 75a8 813c
000003c0: c223 243d 57cc 0bbd c0fb 783d fad1 a3bd
000003d0: 89a3 753d a5b3 04bd 7db5 8cbc b294 9abd
000003e0: 912b 3e3d 79c1 01be b479 c2bd 94ff febd
000003f0: 88c2 8f3d b39f e93c 0bdd adbd c332 ecbd
-0.018748492 -0.08943563 -0.111812025 0.024395397 0.0032475668 0.014128215 0.1241774 -0.020812798
0.066075385 0.013755001 -0.08636296 0.015571673 0.114952944 0.029232308 0.12357173 -0.07704706
-0.009736369 0.1245756 0.07245436 0.015681889 -0.09424737 -0.03830001 0.13246356 0.034462217
0.049001478 -0.00693207 -0.026218306 -0.070537776 -0.11022556 0.049919944 0.028005024 0.019612031
-0.06831301 0.03748502 0.050922662 -0.095051356 -0.0048614494 -0.084293775 0.0050287643 -0.06982158
-0.030526385 0.07594261 0.11461299 0.083555855 0.11620279 0.09492815 0.11760936 0.072448425
0.09779806 -0.062812865 0.1046842 0.11364226 -0.014458745 0.025085293 0.12916683 0.06426724
0.10900124 0.06308577 0.094928056 -0.032567058 0.031137487 0.12639298 0.020193163 0.09167685
0.043966588 -0.020159729 -0.055750553 -0.06716176 -0.096932925 0.09641155 -0.14105223 0.02642894
-0.001018077 -0.02555873 -0.06405873 0.008929465 -0.11414101 -0.091321036 0.015240363 -0.14155632
0.032941 0.10279731 -0.00595867 0.00903767 0.071592934 0.08302886 0.041845486 0.035786293
-0.06381962 -0.08450117 -0.042530775 -0.018235577 -0.0028671077 0.03326441 -0.13078333 -0.048529506
-0.10737817 -0.041062195 -0.07071184 0.09926099 0.07970025 0.1040853 0.053314306 0.0660153
0.063867524 0.014398909 0.009765552 -0.11104724 -0.1415635 -0.09438107 0.04403525 0.09289321
0.003521245 0.10095612 0.032006957 -0.12552339 -0.0040730773 -0.060556743 0.10076763 -0.087889194
-0.1263333 0.0022935253 -0.088333555 0.004550211 0.120877415 -0.1334787 0.09159156 -0.04548168
0.050527353 -0.08875689 -0.06256831 -0.021254404 -0.07630232 0.084768556 -0.0717249 -0.017065238
0.033918947 0.08383856 -0.05017046 0.104206175 0.118310004 -0.054536752 0.06546462 0.075392485
-0.016238227 0.022336304 -0.010667282 -0.09600371 0.013485546 -0.020569107 -0.091109045 -0.051173106
0.019270465 0.057192717 0.036201257 -0.06182987 -0.10606735 0.0026897583 -0.09880568 -0.09796517
0.013402673 -0.08113236 -0.072713666 0.06761882 0.03178421 0.10598639 0.030807259 0.028035164
-0.021387551 0.06728913 0.0037876146 0.028430482 0.0901394 0.02895401 0.011531068 -0.12692747
0.07856737 0.0059485966 0.0037955926 -0.021801965 -0.09137461 -0.09257256 0.055666476 -0.081875905
-0.112951845 0.035517614 0.10964569 0.10796774 -0.11974256 0.0390447 0.066804335 -0.062176555
-0.042066064 -0.1123311 0.1092479 -0.11363653 0.08358365 0.05366207 0.033925742 -0.057766642
0.07874321 0.084555194 -0.0069222627 -0.024765333 -0.03549826 -0.0057989187 -0.19738424 -0.15105368
0.07169341 0.02815788 0.060144052 -0.060075387 0.0783075 0.059399877 -0.1707307 -0.17633455
-0.0034235418 -0.04516804 -0.1007204 -0.06436683 0.005450397 -0.1297535 -0.1330441 -0.041871484
0.11217503 -0.08036166 -0.0219159 0.04274476 -0.09753781 -0.12059669 0.0068539176 -0.07422622
0.03602196 -0.13585174 0.024164697 0.085196495 -0.039420795 -0.04966395 -0.07656277 0.015827397
0.040073164 -0.03413042 0.060786963 -0.07999034 0.059970412 -0.032397885 -0.017176384 -0.07547893
0.046428267 -0.1267146 -0.09495869 -0.124510914 0.07019526 0.028518533 -0.08489426 -0.115331195

network_body.observation_encoder.processors.0.conv_layers.0.bias f4 [16]
00000000: 3728 4bbd 33d0 5cbc 467a 063c 1a6b fbbc
00000010: dfc5 04be 1096 aabd 0dc6 91bc 3e4d adbc
00000020: 67a2 a43c 7966 233d a735 8abb d1ff 57bc
00000030: 5fa5 6cbd 9a5b 68bd 3357 17bb 452f 4dbd
-0.0495989 -0.013477373 0.008207863 -0.030690718 -0.12966107 -0.083294034 -0.017794633 -0.021154996
0.02009697 0.039892647 -0.0042178216 -0.01318355 -0.057774898 -0.056727983 -0.0023092746 -0.050093908

network_body.observation_encoder.processors.0.conv_layers.2.weight f4 [32, 16, 4, 4]
00000000: 5266 3b3d 4397 33bc f65b f2bb bf4e d23c
00000010: b77a e7bc f5da 123d d7bb 623d 6364 943c
00000020: 76a8 c9bd f4b7 17bd 65f6 173a 11b2 1cbd
00000030: a426 ed3c c2c4 7d3c f428 ce3c 469b 97bd
00000040: 89ec 2ebc 3f2d d43c 7a4d 983c 4b61 eebc
00000050: 569c e13c 30f4 63bd 3769 d63c 8056 4ebd
00000060: d84e 0ebd 5aed a4bc e536 a53d b867 b03b
00000070: 9fd5 cebc d32e 35bd fda7 d83c f9d5 b9bb
00000080: d211 3abd 1a1d 633d e8cd 69bd 872a 163d
00000090: 3577 95bd 04c4 d33c 7de0 3f3d 59f1 30bd
000000a0: 735f e1bc d33f c0bc c6d0 a63d fb22 1cbc
000000b0: c057 06b8 ebe5 6cbd c6a1 8d3d 9528 93bc
000000c0: 67c7 b9bc aa32 86bc 6d96 fb3c b4c9 00bb
000000d0: 0446 e8bb 2e03 213d 0e7f 71bd cd8a 573d
000000e0: 679c 3bbc 7a09 0bbd 0962 303d 81d6 bb3c
000000f0: 53bc 0a3d c24f afbd 3b39 ee3c c064 773d
00000100: 3ef4 483d b710 cbbc 4871 40bb 3054 d03a
00000110: c7f2 683d 7ff3 e63c f770 da3b 80a6 6dbd
00000120: 8883 12bd 962e c4bd 59c0 2c3d 2a61 fc3b
00000130: cda3 9b3d 17d0 dc3a c8f7 64bd c148 513c
00000140: f753 91bd 472d 343b 0adf f5bc c65a 153c
00000150: 1bdf 06bd acad 18bd ed05 96bc 1998 443d
00000160: f8c4 213d 05d3 37bd f61a b73c f48b c9bd
00000170: 1555 acbc 5aae 08bd 9af9 a6bb 32d3 ce3c
00000180: ca04 a1ba 25a0 d6bc fc79 47bd 9bda 593c
00000190: 1273 2cbd 2975 8dbd f334 a8bd acce 5dbd
000001a0: fd03 303d 26f1 55bd 31a2 c93d 66bd 2dbd
000001b0: 01ed fabc 2d92 8abd 8520 cbbb 2d1d da3d
000001c0: 7cf2 8e3d 7dbf b1bc 5000 233d ac5d 2bbd
000001d0: 6bb2 7e3c fb8f 8e3d 4c5d 34bc 2cd6 11bc
000001e0: 966c dcbc 57a3 a13d 313a 9e3d b772 9ebc
000001f0: 1b30 8fbd 3fb2 0cbd 0b58 fcbb eb9b a93c
00000200: 4d9d 813d 668b 4fbd 0fc5 3d3d 6739 e13c
00000210: baae 43bd d57e 933d 68f7 d63c f0b2 6b3d
00000220: d439 d7bc 9a29 6c3c 6d3b 713d 163e 023d
00000230: e5da 37bd ec48 c2bc 5521 ab3d 354f 303d
00000240: f537 a7bb 5536 93bd 3a5a 02bd a99f 01bd
00000250: 8829 6b3c af74 223d 1e58 413d c8dc 81bd
00000260: 2c08 a4bb 96cc b33b 880d 38bc 13b0 f0bc
00000270: 49ab b1bd 1d44 7c3d f611 393d bd80 81bd
00000280: ce7f 23bd a81c a8bc 70c1 393b f7c9 833c
00000290: 5dd4 99bc a65b 9dbc e8db 2c3b b51e 6dbd
000002a0: dd3c a6bd 9970 86bd 5d01 9fbd ed3c 5d3c
000002b0: 0182 e4b7 3421 153c 1dfa 5abb 7356 393c
000002c0: 7601 283d 0171 8abc d7d7 bb3c f36c 343c
000002d0: 9d8f 25bd dc16 963c 8cf0 f83c 1914 0a3c
000002e0: 3617 b63c 1829 55bc 3c5d f7ba 2ffc c1bb
000002f0: 6de3 7d3d 958e aebd 1386 8abd 386d 8b3c
00000300: 18c5 5f3c 0fd8 19bd b76c f8bc 461b 2dbd
00000310: 6efa bd3c c614 bdbc 2bff 84bb ce2a 52bd
00000320: cff6 0f3c 2bb8 b63d 4291 b33d 1600 5cbc
00000330: 4a18 64bd 85ab d2bc fa19 e03d 8597 233d
00000340: cf90 45bd 6570 893d 88d4 8dbc 3eda 0a3d
00000350: 011e 2b3d 5773 423d 3723 90bd f63d b1bd
00000360: b694 91bd 59a7 26bd a228 3d3c 4acb aabd
00000370: 0491 3d3c 6234 173d 5614 b4bc c09c b0bd
00000380: 4a02 b2bc 9a1f 1abd 21da 083d dd2d 823d
00000390: cc89 10bd b6f8 7a3c 0305 d1bc e6e7 e6bd
000003a0: 070f 243d 7ef0 85bd 7696 ed3c 7ee0 e33c
000003b0: 4643 d33c f144 1d3c 6f78 0d3d 2714 ca3c
000003c0: 9a5e 853c 805f 84bd c95d df3c e5d3 f83c
000003d0: a6e3 23bd 2d44 86bd 8a07 5a3c 9ef1 fbbb
000003e0: 0269 95bd 890a e5bd 48d3 d6bb 9b11 1a3d
000003f0: bf64 72bd 757b 11bd e3cd 673d d615 c93c
0.045751877 -0.010961357 -0.0073962165 0.025672315 -0.028256757 0.035853345 0.05535492 0.018114274
-0.098465845 -0.037040666 0.00057969085 -0.038255755 0.02894909 0.015488805 0.025166012 -0.07402663
-0.010676512 0.025900481 0.018591631 -0.029099127 0.027540367 -0.055652797 0.026173217 -0.05037546
-0.03474316 -0.02013271 0.08067111 0.005383458 -0.025248347 -0.04423411 0.02644729 -0.0056712595
-0.04542715 0.055447675 -0.057081133 0.03666165 -0.072981276 0.025850303 0.046844948 -0.043198917
-0.027511334 -0.023467934 0.08145289 -0.009529824 -3.2029813e-05 -0.057836454 0.069156215 -0.017963687
-0.02267809 -0.01638158 0.030711377 -0.0019651474 -0.0070884246 0.039309673 -0.05895906 0.052622605
-0.011450863 -0.033944584 0.043062244 0.022929432 0.033871006 -0.085601345 0.029080024 0.060398817
0.049061053 -0.024788244 -0.0029364396 0.001589423 0.056872156 0.02819228 0.0066662985 -0.058020115
-0.03576997 -0.09579198 0.042175625 0.0077020125 0.07599602 0.0016846684 -0.055900365 0.012773694
-0.07096093 0.0027492808 -0.03001358 0.00911588 -0.032927614 -0.037275 -0.018313373 0.047996614
0.039494485 -0.04487898 0.022351723 -0.09841147 -0.021036664 -0.0333694 -0.005095673 0.02524719
-0.0012284752 -0.02619941 -0.048700318 0.0132967485 -0.042101927 -0.06907112 -0.08213224 -0.054152176
0.042972554 -0.05223193 0.09845389 -0.042416953 -0.03063059 -0.06766162 -0.006198945 0.10650096
0.06979844 -0.021697754 0.03979522 -0.04183738 0.015545468 0.06961056 -0.011008572 -0.00890116
-0.026907247 0.07892483 0.07725943 -0.01934181 -0.06991597 -0.034349676 -0.007700925 0.02070423
0.06328831 -0.05067005 0.046330508 0.027493192 -0.047774054 0.07201926 0.02624102 0.057543695
-0.026272692 0.014414215 0.058894563 0.03179749 -0.04488649 -0.023716412 0.08355967 0.043044288
-0.005103106 -0.071880974 -0.031824328 -0.031646404 0.014353164 0.03966206 0.047203176 -0.06340939
-0.005005857 0.005487035 -0.011233695 -0.029380834 -0.08675248 0.061588395 0.045183145 -0.06323383
-0.039916806 -0.020521477 0.0028344058 0.016087515 -0.01877802 -0.01920874 0.0026376192 -0.057890613
-0.081170775 -0.06564445 -0.07763932 0.013503295 -2.7240256e-05 0.0091021545 -0.003341324 0.011312115
0.04101702 -0.016899588 0.022930069 0.011012304 -0.040420163 0.018321447 0.03038814 0.008427643
0.022227865 -0.013010286 -0.001887239 -0.005919955 0.06198447 -0.08523289 -0.06763854 0.017019853
0.013657831 -0.037559565 -0.030325277 -0.042262338 0.023190703 -0.023081195 -0.0040587387 -0.051310353
0.008786871 0.08921846 0.0876794 -0.013427755 -0.055687226 -0.025716553 0.10942455 0.039939422
-0.048233803 0.06710891 -0.017313257 0.03389954 0.04177666 0.047473278 -0.07037967 -0.08654396
-0.071084425 -0.04068694 0.011545332 -0.083395556 0.011570219 0.03691519 -0.021982353 -0.08623648
-0.021729607 -0.037627794 0.03341115 0.06356404 -0.035287663 0.015318086 -0.025515085 -0.112747
0.040053394 -0.06540011 0.02900241 0.027817007 0.025788914 0.009598956 0.034538683 0.024667813
0.016280461 -0.06463528 0.0272664 0.030374477 -0.040012024 -0.06555972 0.0133074615 -0.007688715
-0.07295419 -0.1118365 -0.0065559484 0.037614446 -0.05917811 -0.03551813 0.056592833 0.024546545

network_body.observation_encoder.processors.0.conv_layers.2.bias f4 [32]
00000000: 6846 90bd 0f3a 1b3b c0a4 e6bc fa6f a8ba
00000010: bb34 dcbd bb71 7ebd def7 62bc 339c 0bbc
00000020: d6df 643d 619a d5bc 3201 bfbc caf3 ed3c
00000030: fb5a 643c 702c b7bc bfda 01bd 713c ecbc
00000040: 398d 8bba 73e3 c43c 72cc 6fbd f8b4 37bc
00000050: 094a 42bd 2a68 9a3a a120 f8bc 9e0f 8cbd
00000060: 3488 08bd 71b4 eabc 3a2d fcbb 51f1 5ebc
00000070: 60f6 38bd 84b7 71bd d751 bcbd 8c34 e13c
-0.07044679 0.0023685729 -0.02815473 -0.0012850754 -0.10752245 -0.06212018 -0.013853041 -0.0085211275
0.05587753 -0.02607459 -0.023316 0.029046912 0.013937707 -0.022360057 -0.031702753 -0.028837414
-0.0010646946 0.024034237 -0.058544584 -0.01121258 -0.047433887 0.0011780311 -0.030288996 -0.06838916
-0.03333302 -0.028650494 -0.007695821 -0.013607339 -0.045156837 -0.059012905 -0.09195297 0.027490877

network_body.observation_encoder.processors.0.dense.0.weight f4 [128, 512]
00000000: db96 93bd 8265 e9bc 182e 373d 16da 863d
00000010: 90e3 6b3c b58a a7bd afa1 0dbd 6d93 063e
00000020: 8e40 a1bc e87c fbbd 0e38 583b a4a9 c1bd
00000030: 4583 51bd 6410 203d cd14 653d 7801 c83b
00000040: 25fa a6bc e399 c93b 47e6 f2bc 5487 ca3d
00000050: 3bba 973d 901a cfbd 426c 47bd 197a 8a3d
00000060: 798e 8a3d 7e45 dc3c afd5 01be cb87 31bd
00000070: 484a 6abd b37f 5bbc c00f a83c a6bb 1e3e
00000080: 1c94 253b 8d6f a03d a64a 543d ffff 68bd
00000090: 19db abbc 10e0 b33c ed45 0e3d 1165 033e
000000a0: 97f5 b7bd 8bd5 93bc 614e 2bbe eac3 863d
000000b0: 45b5 44bc ac44 6cbc 0b54 4b3d d5c2 ffbd
000000c0: e884 9cbc 3dfe 6d3c c7f8 ce3d f8a5 ce3c
000000d0: cd8d abbd 7a24 0fbc ff30 54bc c18c 8fbc
000000e0: 3029 57bd 399e 05bd f583 07be 4f58 2bbd
000000f0: f04b 3b3c 7d55 243c 176d a93d f236 103d
00000100: e4af 5c3d 22a4 3e3c 7ce8 80bd 5bc2 8abc
00000110: 4e78 a23d ec5a 5f3d 1660 c5bd 8d2b 84bc
00000120: 8842 82bd c3b9 a5bb 7bad 393e 6c90 abbc
00000130: 80bb 2b3e 3983 8bbd 4e95 91bd 4383 0b3e
00000140: c709 afbd 1028 0abd 4b35 35bd 6b94 4ebd
00000150: 5d2e 143c 69bf b5bd 6994 4ebd 4f53 2b3c
00000160: 6c28 933c 7249 b3bd cdde 063d 003b 763d
00000170: ae15 3bbd 4359 ac3b 772f 66bd 14a0 073b
00000180: 47ec 0dbc 7975 8e3c 39d9 463a 0490 33bd
00000190: 2a19 b9bc c953 bd3d 0dd8 043d 0b88 143d
000001a0: c441 f23c 06d9 023e 4841 453d fd50 cdba
000001b0: 9108 afbd e832 5a3d 7303 c3bc b188 003a
000001c0: 8d7a 033e d957 cd3d 7fc2 643d 5da7 083c
000001d0: 3d13 2e3d 03c2 48bd 52c0 ed3c 35f7 7e3d
000001e0: ae1f 9ebc eeed 00bd e783 063e 219d 59bd
000001f0: b2fe 833b 6253 dfbd 2978 9cbd 641d 5d3d
00000200: fa2b d8bc 6542 aebd 3bf2 553e da38 d33c
00000210: 45d0 5fbd 75ec 86bd 710e bd3d 9109 953c
00000220: 522a dc3d c253 9cbc 30e3 b9bc 61d3 393c
00000230: 084c d0bd f3ef aa3b 1198 a03d 6d57 223c
00000240: 3237 1fbd 136d d83c 179f 35bd 2479 273d
00000250: 3bae debc b0d5 cf3d 5be8 ddbd 0911 10bd
00000260: 2894 5abd c665 4d3d f2d5 703c 8fda 00bd
00000270: ad30 dc3a 9990 74bc 6b74 d4bb 9266 89bd
00000280: e347 3b3c 0333 633d 2990 62bc 57f5 e1bc
00000290: e467 acbc f586 5dbd 86b8 1c3e 5387 a23b
000002a0: 148a 663d 9989 5a3d 0724 c5bd 6274 b73d
000002b0: 3ffc f93c a54a 9fbc 7671 03bd 8532 bc3d
000002c0: 0c93 743c 995e a7bd 5015 15be 65e8 bcba
000002d0: 4544 a0bd 8597 f2bc d3d0 a63d eca2 b43c
000002e0: 137c 923c 4996 9dbd 1089 6bbd 64e9 833c
000002f0: 7367 0cbc afac 4abd 9650 3d3d 9503 74bd
00000300: ed20 3bbd 77be b2bc e386 d0bc 7442 72bd
00000310: 2ecc 63bd 2a6e 333d e230 26bd 0ea4 4ebd
00000320: d5b7 d63c 7d46 78bd 0ac3 43bc 5ddc 8b3d
00000330: 2882 c0bc a4a0 c2bd b192 eebd 061f 8cbd
00000340: 9be4 13bd 1089 29bd 6f45 27bd 5295 dabd
00000350: 8e2f 05bc 9ce7 e8bd 7ea1 3fbd 4e50 8abd
00000360: d152 f73d 2fe6 533d fb45 0bbe 1286 ce3c
00000370: 85cb bdbd 40a2 143e ca30 363d 2976 03be
00000380: cb8a b03c dcb3 783d 9c65 413d 5ee1 3abd
00000390: 44ee b3bd 16de 1d3d dcdc 8d3c 8838 3dbd
000003a0: b369 32bd aa21 fa3c 3295 8ebc e268 e73c
000003b0: 4855 97bd be18 77bd c65a cabc b6a7 ebbd
000003c0: 1a80 1c3b cf38 22bd 663b 123e 36ee 023e
000003d0: bd92 96bc d52e b53d 2a50 00be c524 38bd
000003e0: a86a 3bbd 9b19 c03b 3c9c 27bc f3df 8fbc
000003f0: 9d95 4e3d d89c 3abd b148 9bbc 4702 31be
-0.07206508 -0.028490786 0.044721693 0.06584565 0.014397517 -0.08180753 -0.03457802 0.13142176
-0.019684102 -0.12279683 0.0032992396 -0.094561845 -0.05115058 0.03907813 0.05592804 0.0061036907
-0.02038295 0.006152378 -0.02965082 0.09889093 0.074085675 -0.10112488 -0.048687227 0.067615695
0.06765456 0.026888605 -0.1267917 -0.043342393 -0.057199746 -0.013397145 0.020515323 0.1550127
0.0025265282 0.078337766 0.051829003 -0.056884762 -0.020978497 0.021957427 0.034734655 0.12831523
-0.089823894 -0.018046161 -0.16729118 0.065803364 -0.012006109 -0.0144206695 0.049640696 -0.12488333
-0.019106343 0.014525947 0.10106044 0.025225624 -0.08376656 -0.008736724 -0.012951135 -0.017523171
-0.052529514 -0.032621596 -0.13233931 -0.041832265 0.011431679 0.010030148 0.0827276 0.03520865
0.05387868 0.011635812 -0.06294343 -0.016938379 0.079331025 0.05453007 -0.096374676 -0.016134048
-0.06360346 -0.005057545 0.18132584 -0.02094289 0.16770744 -0.06812138 -0.07108556 0.13624291
-0.08546787 -0.033729613 -0.044240277 -0.05043451 0.009044257 -0.08874399 -0.050434504 0.010456874
0.01796361 -0.08754243 0.032927323 0.06011486 -0.045674972 0.0052596643 -0.05619761 0.002069478
-0.00866229 0.01739 0.0007585469 -0.043838516 -0.022595007 0.092444964 0.032432605 0.036262553
0.029572375 0.127781 0.04815796 -0.0015664395 -0.08546556 0.053271204 -0.023805356 0.0004903181
0.12839718 0.10026521 0.05584955 0.008340684 0.042498816 -0.04901315 0.02902237 0.062247474
-0.019302215 -0.031476907 0.13136254 -0.053128365 0.004028165 -0.10904576 -0.07640106 0.053983107
-0.026388157 -0.085087575 0.20893185 0.025783945 -0.05464198 -0.06588069 0.0923127 0.018193038
0.107502595 -0.019082908 -0.02269134 0.011341901 -0.10170752 0.0052165925 0.07841504 0.009908539
-0.038870998 0.026419198 -0.044341173 0.040887013 -0.027182689 0.101481795 -0.10835334 -0.035172496
-0.05336395 0.050145887 0.014699446 -0.031458434 0.0016799174 -0.014927053 -0.0064836047 -0.06709017
0.011430713 0.05546857 -0.013828316 -0.027582807 -0.021045633 -0.054083783 0.15304765 0.0049599796
0.056284025 0.05335388 -0.09626012 0.08957745 0.030515788 -0.019444773 -0.032090627 0.09189323
0.014927637 -0.0817234 -0.14558911 -0.0014412521 -0.078255214 -0.029613266 0.08145299 0.022050343
0.017881429 -0.0769468 -0.05750376 0.0161025 -0.008569586 -0.04948109 0.04621943 -0.05957373
-0.045685697 -0.021819336 -0.025454944 -0.059145406 -0.055614643 0.043806233 -0.040573962 -0.050449423
0.026210705 -0.060614098 -0.011948356 0.0682914 -0.023499563 -0.09503296 -0.11649073 -0.06841855
-0.036106687 -0.04139048 -0.0408377 -0.10673012 -0.008129014 -0.11372301 -0.04678487 -0.06753598
0.12076343 0.051733192 -0.13600914 0.025210414 -0.09267334 0.14515018 0.044480123 -0.12838043
0.021550557 0.060718402 0.047216043 -0.045625083 -0.0878568 0.038541876 0.017317228 -0.04619649
-0.043557834 0.03053363 -0.017405126 0.028248254 -0.07389313 -0.06032633 -0.024701487 -0.11506598
0.0023880065 -0.03960496 0.14280471 0.12786183 -0.018380517 0.08846823 -0.1253058 -0.04495694
-0.045756012 0.0058624274 -0.01023012 -0.017562842 0.05043565 -0.045559734 -0.01895556 -0.17286025

network_body.observation_encoder.processors.0.dense.0.bias f4 [128]
00000000: 4b4a a9bc 9a59 d53c 9d11 d43b d1cc 223d
00000010: 3ef9 bdbb b949 b63a a727 65bc 5603 083b
00000020: b2ec 27bc 91ab 2ebd 724f 143d 066d c23c
00000030: 1228 19bd 0330 9bbc 9bcd 0cbd 6054 4f3c
00000040: 99e0 b73c e2bf 1a3c 8ac3 e33c 5b87 59bd
00000050: 305c a8bc 3b4d fe3a 5412 f73b ad29 6cbc
00000060: ad9d 40bd db98 1bbc c6db d53c 0b00 0b3d
00000070: 3be9 ac3c 9911 0bba 9e22 43bc e8de 4cbc
00000080: 223f 903c 8f9d c23a 688e c5bc d41b 223d
00000090: 5b50 923c 5768 0ebc 8983 0fbd 5f91 f0bb
000000a0: 331f a93c 0f58 b2bc a44f 383c 668c 4ebd
000000b0: c0f3 dbba 0f2b 36bc c4df 4abd e1be 4f3d
000000c0: 75b1 2d3d 4a46 483d bd72 14bc 2c44 1ebd
000000d0: 890d c9bc d5e1 3b3d d33b efb9 291e afbc
000000e0: 583f 523d 5eb4 04bd 7c85 a6bb 9317 cc3c
000000f0: f30c 0fbd 96ec d83c 28d3 91bb 61f2 41bd
00000100: 8501 08bc 6333 cebb 02c2 e1bb ac87 dabc
00000110: 06f7 793d 0f9e 393d ffbb 593c f30d b0bb
00000120: 94f0 0a3d 182b 433d 7697 a53c ba02 d6bb
00000130: 684a edbc 9cec 2c3d 9f11 8c3d cc5c 8cbc
00000140: 88f2 b73c 65ef be3c 3c28 043c 4132 04bd
00000150: c238 4dbc b902 f63c cfd9 2bbd 7794 083d
00000160: 4901 fd3b 0371 44bd 2bb2 423c 8af6 46bd
00000170: 88ff 823b fbd2 213d 4bef 4fbd 70d5 193d
00000180: cbe3 6f3d a982 563d 5057 653c d567 2a3d
00000190: a362 c0bb bd45 a93c fe50 503d 20d2 523c
000001a0: 15f9 1f3d 3ec4 723b 75c9 683c 24c9 513c
000001b0: 7606 033c bc5d 5e3d ea60 403d 910a 2b3c
000001c0: d91f 63bb 6447 2e3c 5249 2b3d da55 62bc
000001d0: f06e 7a3c 0fc8 003d 7189 7d3c b3e3 06bd
000001e0: fafa 4f3c d517 223d b7cd 473d 25f9 b8bc
000001f0: fd59 abbb 28b5 eeba 9c4b 59bc e0df ff3c
-0.020665308 0.026043702 0.006471826 0.03974611 -0.0057975342 0.0013907469 -0.013986505 0.0020753941
-0.010249304 -0.042644087 0.036208577 0.023733627 -0.03739173 -0.018943792 -0.03437577 0.012654394
0.022445964 0.0094451625 0.027803201 -0.0531076 -0.02055177 0.0019401679 0.0075400267 -0.014414233
-0.04702537 -0.009496893 0.026105773 0.033935588 0.021107307 -0.00053050515 -0.011910109 -0.012504317
0.01760823 0.0014847982 -0.024115756 0.03957732 0.017860582 -0.008691869 -0.03503755 -0.0073415483
0.02064476 -0.021770505 0.011249457 -0.050426863 -0.0016781017 -0.011118664 -0.049529806 0.050719146
0.042405564 0.048895158 -0.009060559 -0.038639233 -0.024542587 0.045869667 -0.00045630205 -0.021376686
0.05132994 -0.032398574 -0.0050818305 0.024913585 -0.03492446 0.02648 -0.0044502206 -0.04735029
-0.008301144 -0.006292747 -0.0068895826 -0.026676022 0.061026596 0.045316752 0.013289451 -0.0053727566
0.03392084 0.04764852 0.020213824 -0.0065310868 -0.028966144 0.042217836 0.068392985 -0.017134093
0.022454515 0.023307512 0.008066233 -0.03227449 -0.012525739 0.030030595 -0.041955765 0.033344712
0.0077211005 -0.04795934 0.011883299 -0.04857496 0.003997747 0.039507847 -0.050765317 0.037557065
0.05856685 0.0523707 0.013997868 0.04160293 -0.0058711334 0.020663137 0.05085849 0.0128674805
0.039055903 0.003704324 0.014208187 0.012804303 0.007997146 0.05428861 0.046967424 0.010439531
-0.0034656434 0.010637138 0.04181797 -0.013814414 0.015285239 0.03144079 0.015474663 -0.032931995
0.012694115 0.03957351 0.04878017 -0.022579739 -0.0052292333 -0.0018211948 -0.013262656 0.031234682

network_body._body_endoder.seq_layers.0.weight f4 [128, 128]
00000000: b5ca 2bbd edef f2bc 1691 f0bc 05d3 a33b
00000010: 2364 43bc b097 673c 788f 4cbe c2de 1dbe
00000020: fa89 a0bc 6953 3f3d b8aa cf3d 3b52 423c
00000030: d53f f6bd 6035 953d 3084 24bd 2821 98bd
00000040: 3b3a 75bc f3e6 e03d b8b0 9b3d 3102 d6bc
00000050: 257c 21be d2cb 35be eb17 4b3d 795e 653d
00000060: 6436 803d 535f 743d 6a1f ecbd 99fe 96bd
00000070: 95fd b83d d278 2cbd 647d a8bd bc6f b7bd
00000080: c6c3 283d c46f 26be fbfa 11be 5b3e 193e
00000090: 23de 2e3e 514c 063e f76e 653c 3cb6 9d3d
000000a0: 26f4 e9bd d633 f93d de41 313c 5f5d ddbc
000000b0: 5f34 88be bce7 a3bc 5155 733d 8ca4 373e
000000c0: bcf3 e1ba 568e b1bc a915 073c 8c36 b5bd
000000d0: e875 6b3c 210e 973d 0eec f13c b51f 38bc
000000e0: b5c0 3cbc 3c98 a73d 0f13 02bd 2d0c 1c3d
000000f0: c20e e5bd ee8e 86bd 1aeb cb3c 5f3c 843b
00000100: d98c 963e 7821 2abd 5a25 03be aa9a 143e
00000110: 2511 1f3e 64cb d13c 4185 5abd f152 12bb
00000120: 00ef e7bd 1b59 c9bc 729b 323e 871f 0ebd
00000130: baee a5bd 3f32 65bd 0b09 ca3d 023b e03c
00000140: 1bb5 733d 5ffd 093e b964 49bd 90c3 453b
00000150: 7502 92bd 3c39 16be 6ad8 d2bc 5cd0 903d
00000160: fdac fbbd be7a bb3d e82c 993d 0009 c4bc
00000170: d688 66be 90d2 0d3d b8c6 7dbd 4893 083b
00000180: 790d e4bb 76f0 533d 6319 85bd 1ef0 013d
00000190: 1efa abbd bf10 623d 34ce a23d ee60 a33d
000001a0: 1f39 463d 701d 2a3d a718 203b cf4a ea3b
000001b0: 07db 87bd c274 49bd e263 b7bd 83cd f6bc
000001c0: 1991 60be 4b2f 73bc 64f3 7abd 66f1 85bc
000001d0: 888f 1dbd d134 063d 4159 0cbd 574c 94bd
000001e0: 21b6 4abe 800c 21bd ca7a 2f3e 1c5b 0dbe
000001f0: e044 55bd bca9 e1bd 5d7b fbbd 50b2 81bd
00000200: a93b 793d 767d 023d af7d f23d eef2 443d
00000210: f71d b13c 52fe 1fbe fbe1 043d b891 8fbe
00000220: 778a 37be 78c3 df3c 6f3e 273e fc8e 6ebd
00000230: 18b9 973c 1d19 8cbd fe97 03be 01ad 433c
00000240: 7e32 393e 79a4 1bbd 1bc8 c33d df45 ab3d
00000250: ca38 f7bd d787 f0bc 0e6f 093d 95c8 76bc
00000260: 5612 563d 09f2 51bc dcc5 7b3d d524 a1bd
00000270: a6dd 25bc cc51 053e 2a37 a83b 4680 ad3a
00000280: a2fe 593d c8a3 c13c 1803 f0bd aa34 c53d
00000290: 2209 3c3d 0dc6 a43d bf55 0abe 96cb 963d
000002a0: 7822 97bd c499 1e3d b641 b53d c8cb 87bd
000002b0: 1604 dcbc 1b0e b93d 9d9a ccbd ebfb cf3d
000002c0: c578 a4bd 0f30 f7bd 09b7 8abd 4870 b7bd
000002d0: 4979 f1bc 5d31 16bb 4100 f03b b92b 0dbd
000002e0: ad83 babd 0da0 7e3b 35d3 383d e4b6 e0bd
000002f0: a85a c1bd 678e 133d 077f 48bd f641 d4bd
00000300: 91d2 443d 765d ef3c 2559 0bbe 1522 2ebd
00000310: aece 2f3d e830 8abd 7636 c1bd aa50 783d
00000320: f894 a93d e928 aa3d 7559 1d3d f023 14be
00000330: 5be5 1cbe 6ec3 b43d bcfd 3abc 7c50 89bd
00000340: 54be 3dbc 5d37 46bd c362 983d 6ef3 fb3d
00000350: b5e0 0d3e d8cf a9bb 63e8 56ba 16c5 0b3e
00000360: 3627 f8bc 3b39 53bd c499 83bc 4ee5 47be
00000370: 7156 4fbe 5e58 083e 71b5 42be ebc1 e53d
00000380: 06c5 373d ecaa 1f3c df8e 17bd e8e7 0bbe
00000390: ec46 7abe 1ed8 743d 5bda c13c a55e ebbc
000003a0: 568e 223e c70d 0a3e 2577 8ebd 68b7 023d
000003b0: 83f2 bfbd 5dd5 803d cfc6 803e 9330 76bd
000003c0: ec00 0cbd 976a 593d 9f4b c0bd 2deb f9bd
000003d0: fa0a 193d c95a 78bb fa00 443e 843f 93bd
000003e0: 7c6d 6ebd 356c 2fbc 436f 82bc a8d0 893d
000003f0: 6e35 c0bd 59e1 ee3c 43e3 71bd 8039 e6bc
-0.041941363 -0.029655421 -0.029366057 0.0049995207 -0.01192573 0.014135286 -0.19976604 -0.15417007
-0.019597042 0.046710405 0.10139984 0.011860426 -0.12023894 0.07285571 -0.040165126 -0.07428199
-0.0149674965 0.1098155 0.07602066 -0.026124092 -0.15770014 -0.17753533 0.049583357 0.0559983
0.06260374 0.05966122 -0.11529429 -0.073727794 0.09032742 -0.04210741 -0.08227041 -0.089568585
0.04120233 -0.16253573 -0.14255898 0.14965193 0.17076926 0.1311505 0.014003507 0.07700774
-0.11423521 0.1216809 0.010818927 -0.027022062 -0.26602456 -0.02000796 0.059407536 0.17933863
-0.0017238776 -0.021674316 0.00824491 -0.088482946 0.014371373 0.07375742 0.029531505 -0.011238028
-0.011520554 0.08183333 -0.031756457 0.03809755 -0.111844555 -0.065702304 0.024892379 0.004035517
0.29404333 -0.041535825 -0.12807217 0.14512125 0.15533884 0.02560968 -0.053349737 -0.002232727
-0.113248825 -0.024578622 0.1744211 -0.034698036 -0.08102174 -0.05595612 0.09865006 0.027371887
0.059498888 0.1347556 -0.049168322 0.0030176379 -0.07129375 -0.1467027 -0.02573796 0.070709914
-0.12288854 0.091542706 0.07479268 -0.023930073 -0.22513136 0.034624636 -0.06195709 0.002083974
-0.006959614 0.051742993 -0.06498983 0.031723134 -0.083973154 0.05519175 0.079494864 0.07977472
0.04839432 0.04153198 0.0024428756 0.007150031 -0.06633573 -0.049183615 -0.08954598 -0.030127292
-0.2193035 -0.0148428185 -0.06126727 -0.01635046 -0.03846696 0.032765213 -0.034264807 -0.07241123
-0.19796039 -0.03931856 0.17136684 -0.13804287 -0.052067637 -0.110187024 -0.12279389 -0.063328385
0.060847912 0.03185793 0.118403785 0.04808324 0.021620734 -0.15624359 0.032442074 -0.28040862
-0.17923914 0.027314886 0.1633241 -0.05824183 0.018520877 -0.068407275 -0.12850949 0.011943103
0.18085667 -0.03799865 0.095596515 0.08362936 -0.120713785 -0.029361648 0.033553176 -0.015062471
0.05226358 -0.012814053 0.06146799 -0.07868353 -0.010123646 0.13019484 0.005133529 0.0013237081
0.053221352 0.023637667 -0.1171934 0.096291855 0.045907147 0.08045588 -0.13509272 0.0736305
-0.07379621 0.03872086 0.08850424 -0.06630665 -0.026857417 0.090358935 -0.09990428 0.101554714
-0.080308475 -0.12069713 -0.067731924 -0.08956963 -0.029476779 -0.0022917606 0.007324249 -0.034465525
-0.091071464 0.0038852722 0.045123298 -0.109723836 -0.094411194 0.036024477 -0.048949268 -0.103641436
0.048052374 0.02921937 -0.13608225 -0.042512972 0.042921714 -0.067476094 -0.09434216 0.060623802
0.08280367 0.08308584 0.03841539 -0.14466834 -0.15321867 0.08826338 -0.011413034 -0.06704804
-0.011581022 -0.048392642 0.07440712 0.1230229 0.1385525 -0.0051822476 -0.00081980805 0.13649401
-0.030292135 -0.05156825 -0.016064532 -0.19521067 -0.20247819 0.1331496 -0.19014527 0.112186275
0.04486563 0.009745341 -0.037001487 -0.13662684 -0.24441117 0.059776418 0.02366369 -0.028731653
0.1587461 0.13481818 -0.06956319 0.03191319 -0.09372427 0.06290696 0.2515168 -0.060104918
-0.034180567 0.053080168 -0.093894236 -0.12203059 0.037363984 -0.003789591 0.19140998 -0.07189849
-0.05820988 -0.010706951 -0.015922194 0.06729251 -0.09385191 0.029160189 -0.059054624 -0.02810359

network_body._body_endoder.seq_layers.0.bias f4 [128]
00000000: 240e 9b3c d8a1 383d 5fc1 2b3d 7faa 293d
00000010: a314 9dbc a2dc 9039 6198 5fbd c8e9 fabc
00000020: ec4e 033d e0d1 acbb 57e3 553c 8d67 273c
00000030: d3be 653d 7848 e0bc ee98 08bc eb82 83bc
00000040: b8a7 9f3c b695 c33b 748e 72bd e42e 08bd
00000050: 42c7 7fbc 60ab 4d3c 59ed f7bc 2a64 a3bd
00000060: 1251 603c 4614 49bd ca31 743c 05db 3ebd
00000070: d0bc f13b b1e4 7cbc 8cfd c9bc fe18 62bb
00000080: b348 95bd 9ba6 6dbd fbeb 1c3c 0d53 543c
00000090: c4fa 633c 5e0a 803b 1c8e 7f3d a680 d9ba
000000a0: 2200 823b 29ec 60bd 3919 143d 98eb bebc
000000b0: 7035 4d3b d23b bdbc d41b 72bd 4521 9a3c
000000c0: 3c0e 633d 2b69 153d 0a5d d5bc 2d92 5bbd
000000d0: d434 603d 04af e5bb 5df0 a7bc 5ab8 793d
000000e0: bd8e 79bd 0321 cc3b 1409 f7bb ed5e 31bd
000000f0: 4184 4ebc 62b6 21bd 81d7 31bc 3fe8 e33c
00000100: 11b0 1f3c a407 5b3c 07ba 9cbd b21a 0a3c
00000110: b440 083d 2cda 48bd 3dc4 573c 0c7b 40bd
00000120: aa7c 51bb 173d 10bd 92c7 61ba 263b feba
00000130: e83b 5ebd b3c7 c33a 3eda 02bb e412 18bb
00000140: 1ffb 733d 7762 92bc 2051 a0bc 83ad 923a
00000150: ecfe dbbc fe27 403d 6717 8c3d aeea 6b3d
00000160: 03c7 3a3c 83ed 2bbd e9c9 a8bc 0a5e 09bc
00000170: 354b ebbc a11a 2d3d ba19 d9bc 778b 8abd
00000180: 96da 81bc 47e8 44bd d7d5 e9bc e9bd d0bb
00000190: 50f6 79bd 7ace 45bd 091a b33c cc23 aabc
000001a0: b1e3 413d 147d c83c a71e a9bd 2bd8 0dbd
000001b0: 41b8 b6bc b5c4 7dbd 43fa c1bb 9931 cdba
000001c0: 4b37 1abc d158 b6bb 841e 43bd 3e3e 99bb
000001d0: 2f51 5e3c 81df 0a3d 30f2 043c e7e7 003d
000001e0: e79e 813c 7b50 4ebd 7e30 02bd 57ed 313d
000001f0: e73c 39bb 7794 ecbc 5dcb b3bb 6f2c eb3c
0.018927641 0.04507622 0.04193246 0.041422363 -0.01917488 0.00027630205 -0.05458868 -0.030629054
0.032057688 -0.0052740425 0.01305469 0.0102175595 0.056090187 -0.027378306 -0.0083372425 -0.016053637
0.019489154 0.0059687747 -0.059217885 -0.033247843 -0.015611472 0.012553066 -0.030264543 -0.07978089
0.013691204 -0.0490916 0.014904449 -0.046595592 0.0073772445 -0.015435384 -0.024657033 -0.003449976
-0.07289257 -0.058020215 0.0095777465 0.012959254 0.013914768 0.003907486 0.062391385 -0.0016594126
0.003967301 -0.05491272 0.036156867 -0.0233057 0.0031312369 -0.023099814 -0.05910857 0.018814692
0.055433497 0.03647725 -0.026045341 -0.0536062 0.05473788 -0.007009389 -0.020500356 0.060966827
-0.06092714 0.0062295212 -0.007538924 -0.04330342 -0.012604774 -0.039480574 -0.010854603 0.027820705
0.009746567 0.013368521 -0.076526694 0.008429216 0.03326483 -0.04903619 0.013169345 -0.046992347
-0.0031965175 -0.03521451 -0.0008612807 -0.001939629 -0.05425635 0.0014936834 -0.0019966508 -0.002320462
0.05956566 -0.017869217 -0.019569933 0.0011190627 -0.026854955 0.04691314 0.06840401 0.057596855
0.011399987 -0.041974556 -0.02060409 -0.008384237 -0.028722385 0.042261723 -0.026501525 -0.06764882
-0.0158513 -0.04807308 -0.02854435 -0.0063702953 -0.061025918 -0.048292615 0.021863 -0.020769022
0.047336284 0.024473704 -0.082577996 -0.034629982 -0.022304656 -0.061955173 -0.005919726 -0.001565504
-0.009412597 -0.005564787 -0.047636524 -0.0046766093 0.01356916 0.033904556 0.008114383 0.03147116
0.01582284 -0.05036972 -0.031784527 0.043439236 -0.002826506 -0.028879387 -0.0054868893 0.028707711

network_body._body_endoder.seq_layers.2.weight f4 [128, 128]
00000000: a851 c13d 8cef 8fbd dba7 8ebc c4f4 1fbd
00000010: 96db 09be 0744 c1bc 6732 923d eaf7 21bd
00000020: d366 2a3c 07d7 fd3d 4d46 16be a712 163e
00000030: d300 86bd e1be 523d 22b1 773d 61d5 afbd
00000040: 2405 33bd b03f 913d 7227 2f3d 0a27 fdbb
00000050: 6608 a2bb b9a9 b33d 9031 ca3d ed07 efbd
00000060: 7e28 e93b 1c39 a8bd b2b2 89bc 3edc cfbc
00000070: d0a4 0abe b4a6 e83d 468c f03d 0d28 d4bc
00000080: 346e aabc 05f0 6bbd cb5a 993d 754b 8cbd
00000090: 9aca 743d 1c8b 18bd 552f b23d 5a2a 1f3a
000000a0: 62b4 33be 04c9 253e 0196 d2bc d0ac 213c
000000b0: d5aa 83bc fc8f 89bd 5f16 5c3d 6ecd 1d3e
000000c0: c4d6 6cbd cfad 9a3d 07ad 6b3d ab81 5239
000000d0: 4ad9 d2bc cd3b 6a3d 6305 fdbc a390 aebd
000000e0: 0956 8abd 9060 ac3c 8104 dbbd abd5 a9bd
000000f0: bac3 01be 086d a13d fc96 b73d efab 9d3d
00000100: ece1 ec3d cf7e a9bd 8332 283d 0ab8 99bd
00000110: 561a 5abd ad5f 8d3c 974f 96bd a840 c8bc
00000120: de16 5a3d 6b49 62bd c053 8fbd f0e2 033e
00000130: 8eae f3bd 1b5a 943d f058 c13d 8196 0cbe
00000140: 6cf1 423d f02c 8ebd 9e5b a2bc 3027 8a3d
00000150: 46e1 0abe 15f0 b3bd bc6b 0ebe aa0e 3abd
00000160: af50 12bd 9843 c83d df9d 70bd 168d 88bc
00000170: 0c16 36be c1a0 393e a420 87bc 3cd2 1dbd
00000180: 6745 e33d a57c 07bd d2c9 90bd aa25 d23d
00000190: 21bf 943b c0b9 b93d 8ae7 60bc 57a8 94bd
000001a0: a72d 02be f5ea 123d 084e 4f3d 3f93 1f3d
000001b0: 6621 b2bd 16ac 89bd 96a2 dfbb 4985 74bd
000001c0: fb11 d4bd 8efe ae3c d3b4 3d3c e8a4 13bd
000001d0: 1c6f 2cbd a174 6bbe 9dec 87bd 0fd1 b6bd
000001e0: 8d1c bc3d e223 6fbd 896d ccbd 0fc8 f13d
000001f0: 2f19 a73d 6e98 ca3d 70f1 efbd d944 8c3d
00000200: a0d1 633c 2e4a 063e a702 06be a90c 153e
00000210: c0af 363d d0a3 153e b6d9 bdbd 5f78 dd3d
00000220: 1043 fe3d dc0d 7bbd 65e1 893d e5f9 443d
00000230: ca2e 643b a98e 37bd 6a02 7bbe 26b7 f63d
00000240: db05 2bbe 9350 e73d 3b18 1dbe 0b78 b2bd
00000250: a41e 17bd 89d9 e5bb c69d 94bd badf 0fbc
00000260: fad5 1fbe 1f4f 01be 3f61 093e 7d02 b73c
00000270: ffaf 4dbe c770 36bd df96 b93c cc55 ff3d
00000280: 77d0 b7bc 420a d93d fe7e f43c b9cd 113d
00000290: 822d c23d 9291 643d 0ae8 48bd 8bb5 0d3e
000002a0: b5eb 39bd 4cb9 833d 03f5 1cbe 771d 0e3e
000002b0: 333f 12be 9cb6 9ebd 952b 9dbd 137b 2cbd
000002c0: 316b 3c3d 88cf 58bd 5400 443a 4632 763d
000002d0: 6b7d 32bd 7701 f03d a4c1 553c 88c0 babc
000002e0: b165 c3bd f2d2 b1bc 31cd 7bbd 4552 cbbd
000002f0: 1644 023e e1b6 ac3c 6a31 c8bd 7625 223e
00000300: 397d 80bd a681 493e d0b0 8c3b 28e2 343d
00000310: 5488 1abd 7bf0 adbd 65d8 e7bd c4db d7bc
00000320: 9b9e 17bd 965b 2e3d ce10 01bc bfca ec3d
00000330: 663f f53c 4eef 80bd 7528 33bd 05b9 4e3d
00000340: 8b9f 99bd aa74 303e bf59 2cbd 3f13 153b
00000350: 7ae2 7fbe 9e73 b0bd 5d10 2b3d 4dcf 31bd
00000360: e036 b73d 8fc9 373d 5e55 12bd 6607 04bd
00000370: 1ed9 36be 8904 0dbe f959 c1bc 3a70 b8bc
00000380: ca99 90bd 0aeb 933d eb86 6bbd 7909 133e
00000390: a33a 87bd a3c6 aabc 5084 3dbd ec87 083d
000003a0: dd33 3c3d 1b45 7f3d b028 483d 73cf a3bd
000003b0: 3371 c33d f3ed 9a3b 8623 f43d 7e36 453d
000003c0: 45c0 773d 9c84 133e 3802 853d 7395 3f3d
000003d0: 799f b23d 028d 4dbe a2ad d83d e3d1 d9ba
000003e0: e00d 8d3d 952b 8f3d adfe 72bd c851 d83d
000003f0: dd1e b73d 1b45 c2bd 806d db3c ef82 fdbb
0.09439403 -0.07028112 -0.017414024 -0.039051786 -0.13462672 -0.023592008 0.0713852 -0.03954307
0.010400492 0.12394529 -0.14675255 0.14655553 -0.06543126 0.051451568 0.06047166 -0.08585621
-0.043706074 0.070922256 0.042762227 -0.007725601 -0.004944849 0.087726064 0.098727345 -0.116714336
0.0071154227 -0.08214018 -0.016808841 -0.025373574 -0.13539433 0.11359921 0.11745505 -0.025898004
-0.020804502 -0.057601947 0.074880205 -0.0685033 0.05976353 -0.03724204 0.08700434 0.00060716795
-0.1754928 0.16189963 -0.025706293 0.009867862 -0.01607267 -0.06716916 0.053732272 0.15410396
-0.057822004 0.075526826 0.05753806 0.00020075466 -0.025738377 0.057185937 -0.030886358 -0.08523681
-0.06754691 0.021042138 -0.106942184 -0.08292707 -0.1267232 0.07882124 0.08964345 0.07698809
0.11566529 -0.0827614 0.041063797 -0.07505806 -0.053247772 0.017257536 -0.07339399 -0.024444893
0.053244464 -0.055245798 -0.06998396 0.12879539 -0.11898528 0.07243749 0.094407916 -0.13729288
0.04759352 -0.06942165 -0.019819077 0.06745756 -0.13562497 -0.087860264 -0.13908285 -0.04542414
-0.035721477 0.097785175 -0.058744308 -0.016668838 -0.17781848 0.18127729 -0.016495056 -0.038530573
0.11097222 -0.033077855 -0.07069744 0.1026109 0.004539386 0.09068632 -0.013727078 -0.07258671
-0.12712727 0.035868604 0.050611526 0.038958784 -0.086977765 -0.06722276 -0.0068248017 -0.059697423
-0.10354992 0.021361616 0.011578756 -0.03604594 -0.04209815 -0.22993709 -0.06636927 -0.089265935
0.09185133 -0.05838383 -0.0998183 0.11805736 0.081591 0.09892355 -0.117159724 0.06849069
0.013904959 0.13114235 -0.1308695 0.1455561 0.044601202 0.14613271 -0.09270041 0.108139746
0.12415135 -0.061292514 0.06732444 0.04808988 0.0034817928 -0.044813786 -0.2451264 0.120466515
-0.16701452 0.11294665 -0.15341274 -0.08714303 -0.036894456 -0.0070144576 -0.072566554 -0.008781368
-0.1560897 -0.12627839 0.13416003 0.022340054 -0.20086668 -0.044541147 0.022654949 0.12467536
-0.022438271 0.1059766 0.02984571 0.035596583 0.09481336 0.05580289 -0.049049415 0.13838784
-0.045390803 0.06431827 -0.1532784 0.13878427 -0.14281921 -0.07749674 -0.07674328 -0.04210956
0.046000663 -0.052932292 0.00074768555 0.06010654 -0.04357664 0.117190294 0.013046656 -0.022796884
-0.095408805 -0.021707032 -0.061474983 -0.09927801 0.12721285 0.021083297 -0.0977505 0.15834603
-0.06273884 0.19678363 0.0042935386 0.044160992 -0.03772767 -0.08493134 -0.11320571 -0.02634991
-0.037016492 0.042567812 -0.007877542 0.11562108 0.029937457 -0.06295644 -0.043739755 0.050469417
-0.075011335 0.17232004 -0.042077776 0.0022747067 -0.24988738 -0.08615802 0.041763652 -0.043410588
0.089460135 0.044869956 -0.035725944 -0.03223362 -0.17856261 -0.13771261 -0.023602473 -0.022514451
-0.07060583 0.072225645 -0.057501715 0.14359082 -0.06602981 -0.02084667 -0.04626876 0.03333275
0.0459479 0.062321763 0.048866928 -0.07998552 0.095430754 0.004728073 0.11920838 0.04814767
0.060486097 0.14406055 0.06494564 0.046773385 0.08721823 -0.20073321 0.10579993 -0.0016618337
0.06887412 0.069907345 -0.05932491 0.105624735 0.089414336 -0.09485837 0.026785612 -0.0077365558

network_body._body_endoder.seq_layers.2.bias f4 [128]
00000000: 7069 bebc 14e7 433c d1cd 5e3c 4767 ffbc
00000010: b28c ae3c c482 b0bd d2f5 babb a34f 8abd
00000020: 8a80 093d 82b5 a73c 4cd2 83bd b1ed 33bd
00000030: e3f2 553d 8af4 d63c fa5f 403d 8c31 8abc
00000040: 0684 643d d304 94bc 8f06 c3bd 5dbb 0b3d
00000050: cd7b 2ebd cc9f 32bd fd21 9dbd a250 1abc
00000060: 02c6 26bd 090d d6bc 73e5 5fbc ef53 c9bd
00000070: d84a 2dbd 270a 61bc d76b 71bc f14a bcbc
00000080: 05f5 97bc ca34 9cbd 1306 d0bd 1ccd 203c
00000090: fbe0 653c 4da1 98ba 99c9 d2bc 06c2 24bd
000000a0: 65aa 99bc 44a5 833d add0 533d 933f 88bd
000000b0: 0c82 c2bc 9add 20bc 2c4a 39bc 9fe9 33bc
000000c0: c05e 6d3c edea 6c3c 1a9b d8ba 0aca 163d
000000d0: 59b0 2dbb 6959 4bbd ed3c eabc c895 37ba
000000e0: cd67 863d b9c9 53bd 10f2 d7bd a3b9 0dbd
000000f0: 5347 81bd 6e84 2abd 37de 853c 33f1 2cbd
00000100: 4edd 863d b6b0 b1b9 816c 3ebd 9644 203d
00000110: cfdc 5f3d d6db 12bd 05aa 563d 3827 cc3c
00000120: 2d7a 1bbd 11e9 303c 2324 053b 01aa 6cbd
00000130: b94f afbd 643e 15bd 53a0 cb3b 64a6 433c
00000140: 8d3d 8ebc e825 1f3b aff2 03bd 531a cdbc
00000150: af32 4d3c b274 763c c1c3 0dbd 967c 583b
00000160: 1a0d 643d 7088 c6bd a4d0 b5bb e2f6 173c
00000170: fc78 64bd 1c7b f23b 23d7 87bd e05b f4bc
00000180: b8cf e3bc 1523 883c fdae 29bd 5a2b 0f3c
00000190: 5648 eabc 288e b2bc 927a 37bc d5b2 233d
000001a0: f24f ac3a 7b3f 0e3d a94d 9cbc db3d b93c
000001b0: c9ce fcbc 2f75 c9bc ee9a 6ebc 8740 233c
000001c0: 0ca1 50bd e6da 5fbd 014f d1bc 07ac c6bd
000001d0: 6bd2 04bd a3e9 763d 008a 2dbd af6c 5abd
000001e0: ceca 60bd 0d26 50bc 95ce 253d ca78 70bc
000001f0: ff42 2ebd 6570 92bc 6ec3 a63c 847b 2dbd
-0.023243636 0.011956949 0.013598875 -0.031177176 0.021307323 -0.086186916 -0.0057055736 -0.06753471
0.03356985 0.020472292 -0.06436595 -0.043927852 0.052233588 0.026239652 0.04696653 -0.016869329
0.05578997 -0.018068707 -0.09522735 0.03411423 -0.042598534 -0.043609425 -0.076724984 -0.009418638
-0.04071618 -0.026129263 -0.013665545 -0.09830462 -0.042307705 -0.013735331 -0.014735184 -0.022984954
-0.018549452 -0.07627256 -0.101574086 0.009814527 0.01403069 -0.0011644751 -0.025730895 -0.040224098
-0.018758008 0.06428006 0.05171268 -0.06652751 -0.023743652 -0.009818459 -0.011309188 -0.010980993
0.014487922 0.014460308 -0.0016525716 0.036813773 -0.0026502816 -0.049645815 -0.028593505 -0.0007003215
0.06562767 -0.05170605 -0.10544217 -0.034600865 -0.06312432 -0.0416302 0.016341312 -0.042222213
0.06585179 -0.0003389173 -0.046490196 0.03912791 0.05465394 -0.035854183 0.052408237 0.024921045
-0.037958313 0.010797755 0.0020315729 -0.057779316 -0.08560128 -0.036436453 0.0062141805 0.011941526
-0.017363334 0.0024284068 -0.032213863 -0.025036966 0.012524291 0.015042471 -0.034610514 0.0033033243
0.055676557 -0.09693992 -0.0055485535 0.00927517 -0.055779442 0.0073999297 -0.06632831 -0.029828966
-0.027809009 0.01661829 -0.041426647 0.008738363 -0.028598946 -0.021796301 -0.011198657 0.03996547
0.0013146384 0.03472851 -0.01908 0.022612503 -0.030860322 -0.02459201 -0.014563305 0.009964115
-0.050934836 -0.054652117 -0.025550367 -0.0970078 -0.032427233 0.060281407 -0.042367935 -0.053326305
-0.05488091 -0.0127043845 0.040480215 -0.014677236 -0.04254436 -0.01787586 0.02035686 -0.04235412

action_model._continuous_distribution.log_sigma f4 [1, 2]
00000000: e7ed b6bf 9777 9ebf
-1.4291352 -1.2380246

action_model._continuous_distribution.mu.weight f4 [2, 128]
00000000: 43fc 01bd a16d 16bd 5201 533c b7ad 94bb
00000010: 2149 92ba 96f2 3abb 1069 653b 81d1 6abc
00000020: 28fe 473c bada a4ba be1f 813a 5bd0 8639
00000030: a291 623b f83e 5a3c 137e 5d3b f73f 5d3c
00000040: bfb4 91ba ac52 183c 701c a1bb e77b ad3b
00000050: 6e6d debb 8fed bbbb 86d2 2cb7 15fe bbbc
00000060: 6803 1dbb 5164 38bc 7eb5 27b9 ef8a 843c
00000070: 8ad5 38bb 83fb 803b d996 b4bc 9bfe 71bb
00000080: 6cbb bc3b 5ed5 f63a 6d53 123c ed1c cdba
00000090: 1c4b 053c f04b 463c 6905 2e3b ba6a e03a
000000a0: adc9 963b 6923 32bc 4016 28bc b575 45bc
000000b0: 2209 b0bc 2a7f ae3c 69a5 8ebc 69a5 c7bc
000000c0: 71c8 10bc 0cd2 22bb f2f7 5ebb ecd0 0a3d
000000d0: eff1 9ebb 8873 833c 9a6f 7fbb 98ba 9b3b
000000e0: 368d cebc 9abc b0bb 9bd3 543b 9520 0d3b
000000f0: b331 65bc b2ce 02bc 4235 243c 757e dabc
00000100: f922 493a f1f4 d939 a7b0 19bc 4b46 9cbc
00000110: ee02 ac38 e84e edbc 2237 0fbc 41e2 d6bc
00000120: 7924 403a fdca 22bb 132e f13b 2932 bc3b
00000130: dd29 1d3b a78a 7c3b ea14 20bc cff1 2e3c
00000140: c6b3 af3b 9a92 563b b849 e63a daff 3a3b
00000150: dc49 cab9 e3e6 333c efb1 ba3b e729 c53b
00000160: 644b b13c 8ccd c13b 091b c23b 9b09 86ba
00000170: 80b4 d6bb bb74 4bbc 32c2 c03b b358 7d3a
00000180: a0fe b7bb aa48 75bb aa4b 3bb9 e3e2 0e3c
00000190: 1abc 51bb 1e9c 9ebb 4a25 8a3b fa52 503c
000001a0: 985b 863c 6d5d 263c b37f bbbc b85c 0e3b
000001b0: e545 083c a8b2 083c 9e2a 90bc 3fe2 0d3c
000001c0: 7eb8 8cbb 9f42 63bb a645 2bbc f301 58bb
000001d0: f2ee 1fbc 4bde 4e3b 8a5d e1ba 8ec9 273c
000001e0: 0a8d 163c 28f1 0abc 5ece bfbb 46e9 d8ba
000001f0: ae74 a9bb c20c 233b 1a60 a43c 2502 22bc
00000200: f4a9 f53c 0589 8d3c af05 563c f310 073d
00000210: f1e1 3cbc b55c 563d 5420 ef3c 4f37 453d
00000220: 5b4a 4fbd 005e d2bc 7cf7 1e3d 4231 233c
00000230: ddee 3cbb 71ce e03c 6824 f8bc 27d3 d33c
00000240: 7dbc 9abb 089e 823d e95a bc3c a730 24bd
00000250: bd8d ff3c fa29 3f3d 3b02 6a3c 8d21 c43c
00000260: d4cd 2a3d 91f8 663d 5cbb be3b 98c4 b73b
00000270: b368 303d e14c 033d f75a 22bc 2297 5f3d
00000280: d949 c93c 2716 473d e406 303d 1462 2abc
00000290: 6549 313b 432d 233d 5946 3f3d b55c 583d
000002a0: 8d31 ce3c 5eda 35bd 6214 19bd 471f e43b
000002b0: 01e6 5d3d 0464 293d f2b1 ce3c e425 933d
000002c0: b89a 323d b437 93bb 52e8 863c 8eae 16bd
000002d0: 67d7 c43c e455 5f3d 616f 563d f720 c1ba
000002e0: 9ead 9fbd a859 1e3d b843 f53c 8ed6 123d
000002f0: 3602 e93c b1f8 2e3d fb6d bc3c 2fae 2a3d
00000300: 532a 82bc f4fc a13c 69ea 453d fd23 09bd
00000310: bfe1 96bc 69e6 e03c 852e a9bd 3b16 29bd
00000320: 9668 443d a6ec 8dbc 17e4 1a3c 7ab6 823d
00000330: eb6b 623d d5f4 093d 77b3 023c 0188 6fbc
00000340: 7426 4f3d f419 77ba 0503 e7bb ba2b 7c3d
00000350: 7105 ddbc 18d9 743c 0fbb 293d 09db 823b
00000360: 8c24 7bbd defb 2a3d d3c8 1e3d d0cb 7bbc
00000370: 3d58 d43c a439 053d 9dd0 f33c 13dc d03c
00000380: 8bfd 6b3d 373f 73bc ab66 373d 283c 16bc
00000390: 32b1 5e3d 066f 343d 9707 0d3c 74bd f6bc
000003a0: a997 2d3d cfe2 97bc 842f 053d bf4e e73c
000003b0: 7180 223d 2d17 b43c 11e0 243d 4aa8 973c
000003c0: 5c9f 1a3d 06b3 c23c 2eab 313d 5c49 163d
000003d0: 959a f63c 3297 f2bb 08c7 073d 06c1 283d
000003e0: b434 4d3c 5670 57bc 5681 2bbd d6f7 fc3c
000003f0: a2b0 313d 166b a13c 0a05 2bbd 8c8d 3e3d
-0.031734716 -0.036725644 0.012878733 -0.00453731 -0.001116071 -0.002852594 0.003500525 -0.014332176
0.012206592 -0.0012577393 0.0009851379 0.0002571371 0.0034571667 0.013320677 0.003379707 0.01350402
-0.0011116489 0.009297054 -0.00491672 0.0052943113 -0.0067879474 -0.0057351063 -1.0301015e-05 -0.022948304
-0.002395833 -0.011254386 -0.00015993972 0.01617953 -0.002820345 0.0039362325 -0.022044586 -0.0036925438
0.005759647 0.0018831899 0.008931023 -0.0015648879 0.008135583 0.012103066 0.0026553518 0.0017121651
0.0046016783 -0.0108727 -0.010259211 -0.012051989 -0.02148873 0.02130087 -0.017412858 -0.024370866
-0.008836851 -0.0024844436 -0.0034022299 0.03389065 -0.004850618 0.0160463 -0.0038976432 0.0047524683
-0.025213819 -0.005393577 0.003247476 0.0021534313 -0.0139889 -0.00798385 0.010022463 -0.026671628
0.0007672753 0.0004157196 -0.009380496 -0.019076487 8.202145e-05 -0.02896829 -0.008741172 -0.026230933
0.00073296536 -0.0024840229 0.007360229 0.0057432842 0.0023981251 0.0038534792 -0.009770611 0.010677769
0.005362007 0.003274119 0.0017569577 0.0028533847 -0.00038583472 0.010980341 0.005697481 0.006016958
0.021642394 0.0059143957 0.005923633 -0.0010226251 -0.006552279 -0.012417967 0.005882525 0.00096644013
-0.0056150705 -0.0037427344 -0.00017861897 0.008721086 -0.0032002986 -0.004840388 0.004215871 0.012715096
0.016401097 0.01015411 -0.02288804 0.0021722745 0.008317445 0.008343376 -0.017598446 0.008659898
-0.004294454 -0.003467716 -0.010453617 -0.0032960146 -0.009761559 0.0031565602 -0.0017194015 0.0102409255
0.0091889 -0.008480348 -0.0058534583 -0.0016549013 -0.00517138 0.002487943 0.020065356 -0.009888207
0.029988267 0.01727725 0.0130628785 0.03297515 -0.011528478 0.052334506 0.02919022 0.04814845
-0.05060802 -0.025679588 0.03881024 0.009960474 -0.0028828897 0.027442189 -0.030290797 0.025857521
-0.0047221766 0.06377798 0.022992568 -0.04008546 0.031195516 0.04667089 0.014282758 0.02394178
0.0417002 0.056389395 0.005820675 0.0056081526 0.0430686 0.03205574 -0.009909383 0.05458749
0.024571346 0.04860511 0.04297532 -0.01039936 0.0027051803 0.039838087 0.046697948 0.052822787
0.025170112 -0.044397704 -0.037372954 0.0069617364 0.054174427 0.041355148 0.025231335 0.071849614
0.043604583 -0.0044927243 0.0164682 -0.036787562 0.024028493 0.05452527 0.052352313 -0.0014734556
-0.07796787 0.03865972 0.029939517 0.035849147 0.028443437 0.04271764 0.023001662 0.04167002
-0.015889322 0.019773938 0.048319254 -0.033481587 -0.018418191 0.027453618 -0.08260826 -0.041280966
0.047951303 -0.017324757 0.009453795 0.06382461 0.0552787 0.033680756 0.007977358 -0.014619828
0.05057378 -0.00094261696 -0.0070499205 0.06156514 -0.026980134 0.014944337 0.04143816 0.003993396
-0.06131415 0.041744106 0.03876574 -0.015368417 0.025920982 0.032525674 0.02976256 0.025495565
0.057614844 -0.014846615 0.044775646 -0.009169616 0.054368205 0.044051193 0.008607767 -0.030119635
0.042380963 -0.018540768 0.032516018 0.028235791 0.039673273 0.021983707 0.04025275 0.018512864
0.037749633 0.023767006 0.04337614 0.036691055 0.030103007 -0.007403278 0.033148795 0.041199706
0.012524772 -0.013149342 -0.04187139 0.030879896 0.04338134 0.019704383 -0.041752852 0.04652171

action_model._continuous_distribution.mu.bias f4 [2]
00000000: c043 49bb 56ec 14bd
-0.0030710548 -0.0363582
