CS455_PR1/results/ShootTargetAgent/ShootTargetAgent/ShootTargetAgent-6744.onnx (onnx, 490268 bytes, 18 tensors)

discrete_act_size_vector f4 [1, 2]
50.0 50.0
00000000: 0000 4842 0000 4842

network_body.observation_encoder.processors.0.conv_layers.0.weight f4 [16, 1, 8, 8]
-0.017285082 -0.08877018 -0.11164622 0.02410395 0.002697041 0.01217537 0.12301285 -0.021803249
0.068767264 0.015782572 -0.08453581 0.015539512 0.114930585 0.028804123 0.1240021 -0.07740076
-0.00579378 0.1274372 0.074724644 0.017482536 -0.09382063 -0.03814975 0.13352327 0.036249515
0.053958636 -0.0045728725 -0.02317844 -0.06780224 -0.107915096 0.05156054 0.029998174 0.021527898
-0.062662855 0.041463025 0.055948097 -0.091169 -0.0015641395 -0.08195466 0.008354234 -0.06689464
-0.024615567 0.08120764 0.12069143 0.088696025 0.121001385 0.09820464 0.12160384 0.07598939
0.10519749 -0.056723565 0.1119009 0.12130794 -0.009133009 0.028705155 0.1336415 0.0692468
0.11905188 0.072805785 0.10440339 -0.024173303 0.038662646 0.1331425 0.026366293 0.09711403
0.06829624 -0.018350264 -0.06170987 -0.07947027 -0.10676176 0.101062946 -0.13663822 0.032637645
0.010941467 -0.030734893 -0.05818132 0.0029137682 -0.116480015 -0.0888869 0.021217583 -0.13020577
0.048388295 0.09855972 -0.0073032603 0.006037576 0.07316285 0.09173736 0.048785206 0.049350202
-0.05253176 -0.083517455 -0.040733483 -0.017369542 0.0010208795 0.03980197 -0.12551214 -0.047641277
-0.09531404 -0.03926946 -0.06590929 0.10424411 0.08606683 0.10822208 0.05260305 0.0684221
0.10154822 0.034702804 0.0217013 -0.106073484 -0.13672677 -0.097704686 0.047158223 0.1003107
0.031736527 0.1251133 0.0586099 -0.10216903 -0.010808987 -0.06300397 0.10175026 -0.08288394
-0.103395596 0.02769564 -0.07813494 0.006577425 0.13002843 -0.12867072 0.0921473 -0.042225778
0.05407333 -0.08439077 -0.058907043 -0.01844969 -0.0729737 0.08665894 -0.06725034 -0.008524143
0.04122056 0.08879808 -0.043220136 0.110335104 0.12360408 -0.049962725 0.07237379 0.083972506
-0.007094844 0.029625395 -0.0012794335 -0.088235065 0.020744298 -0.014261792 -0.08274799 -0.042844694
0.03306735 0.06999641 0.04712092 -0.051051583 -0.09482931 0.009978337 -0.09174111 -0.09109248
0.027725771 -0.06416983 -0.055836067 0.08282355 0.045595147 0.11601783 0.03762395 0.033547707
-0.0030418169 0.0867096 0.023193855 0.045952946 0.10625744 0.04123974 0.022415116 -0.1206731
0.10032947 0.026476473 0.024399644 -0.002010167 -0.07451106 -0.08198334 0.0666123 -0.07163237
-0.08892157 0.059569247 0.13274227 0.13116017 -0.099899784 0.056440543 0.07987298 -0.050545856
-0.03676122 -0.111271024 0.11655074 -0.105737 0.09121545 0.07173618 0.06495693 -0.029402297
0.08655679 0.085544385 0.00056155707 -0.01692118 -0.015607266 0.008071377 -0.17727165 -0.15777637
0.079025656 0.025869284 0.06443091 -0.042374443 0.09373156 0.06252795 -0.17803614 -0.1842437
0.003156964 -0.026951121 -0.08316039 -0.048097394 0.0028400186 -0.13159598 -0.14167699 -0.051166773
0.1282048 -0.0652706 -0.012739818 0.04401081 -0.09923186 -0.12424159 -0.0010380682 -0.08519352
0.05919109 -0.11942132 0.03268561 0.08206785 -0.036626432 -0.056344222 -0.08732908 0.0026066522
0.055306323 -0.02463414 0.05971582 -0.0719032 0.05767453 -0.042214956 -0.03192252 -0.091388285
0.050220363 -0.092608064 -0.07879005 -0.12072714 0.06556328 0.020616015 -0.1008644 -0.13577972
00000000: 7299 8dbc 24cd b5bd c6a6 e4bd a675 c53c
00000010: d7c0 303b 347b 473c 29ee fb3d ba9c b2bc
00000020: dad5 8c3d 744a 813c 1c21 adbd 7099 7e3c
00000030: ba60 eb3d a0f6 eb3c d0f4 fd3d 4a84 9ebd
00000040: c0d9 bdbb e67e 023e 3c09 993d 8937 8f3c
00000050: 0825 c0bd ea42 1cbd 53ba 083e 5f7a 143d
00000060: bb03 5d3d 09d8 95bb b6e0 bdbc e7db 8abd
00000070: 9702 ddbd 2531 533d bbbe f53c 465b b03c
00000080: 6255 80bd 22d5 293d d529 653d d0b6 babd
00000090: d003 cdba d8d7 a7bd 32e0 083c 0f00 89bd
000000a0: 96a6 c9bc 3150 a63d 122d f73d 43a6 b53d
000000b0: 93cf f73d 841f c93d 6f0b f93d 53a0 9b3d
000000c0: c871 d73d f856 68bd 4d2c e53d 4c70 f83d
000000d0: 9ea2 15bc 1327 eb3c 51d9 083e 44d1 8d3d
000000e0: 79d1 f33d 331b 953d 72d1 d53d 1707 c6bc
000000f0: b95c 1e3d 8256 083e 20fe d73c b8e3 c63d
00000100: e6de 8b3d 4b53 96bc 7dc3 7cbd 4fc1 a2bd
00000110: e9a5 dabd 17fa ce3d e4ea 0bbe 0daf 053d
00000120: d743 333c bec7 fbbc 894f 6ebd ebf4 3e3b
00000130: 138d eebd 560a b6bd 7fd0 ad3c a954 05be
00000140: ce32 463d aed9 c93d 3050 efbb dcd6 c53b
00000150: 68d6 953d cce0 bb3d ffd2 473d 7023 4a3d
00000160: 8b2b 57bd 330b abbd 27d8 26bd 924a 8ebc
00000170: 08cf 853a 6407 233d 4186 00be 8023 43bd
00000180: 0234 c3bd 03d9 20bd 73fb 86bd f07d d53d
00000190: ce43 b03d 8aa3 dd3d 4c76 573d e320 8c3d
000001a0: 83f8 cf3d 8724 0e3d edc6 b13c 0e3d d9bd
000001b0: 1a02 0cbe 6519 c8bd fb28 413d b26f cd3d
000001c0: 29fe 013d b31d 003e ef10 703d ff3d d1bd
000001d0: 2d18 31bc 3a08 81bd 7162 d03d 0ebf a9bd
000001e0: 12c1 d3bd f8e1 e23c 3605 a0bd 7187 d73b
000001f0: 2c26 053e 42c2 03be b9b7 bc3d f0f4 2cbd
00000200: ff7b 5d3d 11d5 acbd 8348 71bd ce23 97bc
00000210: 3c73 95bd 3e7a b13d 8cba 89bd d9a8 0bbc
00000220: e4d6 283d c5db b53d 9907 31bd 5ff7 e13d
00000230: 2324 fd3d b7a5 4cbd b638 943d c7f9 ab3d
00000240: dd7b e8bb f5b0 f23c aab2 a7ba 96b4 b4bd
00000250: f2ef a93c 4baa 69bc c777 a9bd eb7d 2fbd
00000260: a171 073d 475a 8f3d de01 413d 771b 51bd
00000270: df35 c2bd 2e7c 233c c3e2 bbbd b28e babd
00000280: 2821 e33c 796b 83bd 5cb4 64bd 659f a93d
00000290: fac1 3a3d c29a ed3d 921b 1a3d 5269 093d
000002a0: 3859 47bb ce94 b13d 0a01 be3c 2839 3c3d
000002b0: 809d d93d 00eb 283d e89f b73c 7523 f7bd
000002c0: 8a79 cd3d 30e5 d83c c3e1 c73c 02bd 03bb
000002d0: 4199 98bd e2e6 a7bd 086c 883d feb3 92bd
000002e0: 831c b6bd e2fe 733d 97ed 073e da4e 063e
000002f0: 4298 ccbd 332e 673d 7294 a33d 2c09 4fbd
00000300: ef92 16bd 10e2 e3bd 28b2 ee3d a48c d8bd
00000310: 2acf ba3d 6bea 923d 2408 853d 16dd f0bc
00000320: b044 b13d e531 af3d 7535 133a 499e 8abc
00000330: 9eb5 7fbc cf3d 043c b386 35be 2190 21be
00000340: 34d8 a13d d2eb d33c 5af4 833d d390 2dbd
00000350: 55f6 bf3d a70e 803d 1b4f 36be 61aa 3cbe
00000360: 11e5 4e3b 99c8 dcbc ff4f aabd c601 45bd
00000370: 9b1f 3a3b 19c1 06be c613 11be 4094 51bd
00000380: 1e48 033e 98ac 85bd abba 50bc ae44 343d
00000390: 133a cbbd 6072 febd ca0f 88ba f179 aebd
000003a0: 5b72 723d 2a93 f4bd 59e1 053d 3013 a83d
000003b0: 9905 16bd 33c9 66bd 97d9 b2bd 5ed4 2a3b
000003c0: e288 623d 89cd c9bc 9398 743d fc41 93bd
000003d0: 213c 6c3d 97e9 2cbd 30c1 02bd c829 bbbd
000003e0: deb3 4d3d 4ca9 bdbd ae5c a1bd ca3f f7bd
000003f0: 0a46 863d ebe2 a83c ff91 cebd d709 0bbe

network_body.observation_encoder.processors.0.conv_layers.0.bias f4 [16]
-0.042997696 0.007769654 0.018051045 -0.017494062 -0.1254917 -0.091053545 -0.023485508 -0.014700629
0.02844888 0.05124535 0.006057767 0.00033395665 -0.051191505 -0.056988113 0.008537127 -0.018481245
00000000: 5a1e 30bd 9598 fe3b c9df 933c b54f 8fbc
00000010: e580 00be 487a babd ae64 c0bc e8da 70bc
00000020: a00d e93c a5e6 513d 3c80 c63b e716 af39
00000030: 2fae 51bd 5e6c 69bd 4edf 0b3c fb65 97bc

network_body.observation_encoder.processors.0.conv_layers.2.weight f4 [32, 16, 4, 4]
0.036961894 -0.015290132 -0.012263216 0.020115275 -0.02879838 0.03798408 0.053510163 0.015128451
-0.08919189 -0.027485562 0.005443529 -0.03500383 0.05323233 0.0355567 0.04189257 -0.06364001
-0.019989183 0.03477216 0.028623952 -0.002879773 0.064248376 -0.04731083 0.03475848 -0.043201692
-0.061986867 -0.0024167001 0.06216336 0.012051554 0.0070824847 -0.047968216 0.015813146 -0.0078202905
-0.048518103 0.054339685 -0.057788797 0.03412142 -0.06862943 0.035773166 0.054757696 -0.037674613
-0.020999826 -0.012701974 0.09681712 -0.0017051854 0.009584254 -0.04784346 0.08767301 -0.0014194319
-0.008582935 -0.004232617 0.033679515 0.029343996 0.00063541904 0.051377125 -0.060646694 0.07084657
-0.009089708 -0.041923292 0.038946353 0.02929792 0.014572337 -0.08884922 0.03951568 0.073592834
0.052189562 -0.023907961 0.00043383983 -0.006099985 0.05273025 0.02541712 0.0018745296 -0.04599735
-0.0437878 -0.11278275 0.027730726 0.008198105 0.054617386 -0.011728686 -0.054734197 0.028184563
-0.07209681 0.0011100037 -0.02432667 0.013967739 -0.028777236 -0.033217106 -0.026917033 0.045309998
0.03545232 -0.04880826 0.020967875 -0.0759629 -0.029182134 -0.039274883 -0.019781504 0.007627989
-0.0044249836 -0.015425647 -0.043934852 0.014747338 -0.03537848 -0.055162404 -0.09072093 -0.048109263
0.04398167 -0.047738172 0.08854199 -0.028533358 -0.030132858 -0.080154404 -0.0066076675 0.09619906
0.06349265 -0.025774648 0.03461249 -0.04704094 0.01708224 0.069466546 -0.012354173 -0.010105635
-0.015921447 0.087022975 0.082409225 -0.016935753 -0.046727426 -0.01658358 0.007745183 0.02857121
0.05391328 -0.058854274 0.04199037 0.020518595 -0.052112527 0.070067935 0.026611017 0.05495964
-0.02364915 0.019641822 0.060933966 0.030500352 -0.03442429 -0.009342776 0.09296467 0.04871859
-0.009135557 -0.069018915 -0.025852732 -0.014716819 0.014537758 0.045967877 0.055283085 -0.057960894
0.00028718202 0.011023462 -0.0070062135 -0.022610713 -0.075976 0.07082168 0.054476786 -0.054932877
-0.018794682 -0.016526964 0.0092070075 0.0041899197 -0.013230644 -0.018767478 0.019483674 -0.055245005
-0.0514101 -0.025805103 -0.03461969 0.024765072 -0.009640634 0.0018468546 -0.0045907176 0.0273244
0.030791163 -0.006094657 0.015007534 0.013880521 -0.055135973 0.015332276 0.02665185 0.01847859
0.031046785 -0.016993755 -0.0030158923 0.0054021985 0.040896613 -0.11024227 -0.058996618 0.028379591
8.186143e-05 -0.0476496 -0.037802786 -0.050446283 0.017075188 -0.026984442 -0.009138058 -0.057533372
0.010945158 0.09093737 0.085676886 -0.01671369 -0.04126866 -0.013506076 0.115954034 0.04196208
-0.05886165 0.065598994 -0.035653487 0.006526506 0.040014144 0.034567315 -0.059183493 -0.08568907
-0.027763015 -0.0019156169 0.017117474 -0.08783653 0.031599984 0.015260705 -0.032325074 -0.09124243
-0.042512435 -0.04371522 0.025453068 0.05601555 -0.04065249 0.00071864825 -0.015904583 -0.10266955
0.043966178 -0.058553267 0.022935202 0.034962635 0.044096 -0.0061006765 0.025284257 0.024944007
0.035380404 -0.06513767 0.027569298 0.028073115 -0.031599253 -0.06520196 0.012980189 -0.0027484202
-0.050082974 -0.07967549 0.013492719 0.066944085 -0.051804435 -0.040025603 0.05378277 0.050289117
00000000: 5b65 173d 7683 7abc a8eb 48bc cac8 a43c
00000010: 95ea ebbc 3295 1b3d 792d 5b3d 53dd 773c
00000020: 3daa b6bd 6729 e1bc a25f b23b 2d60 0fbd
00000030: 250a 5a3d e7a3 113d 8b97 2b3d b255 82bd
00000040: 5bc0 a3bc 416d 0e3d c77c ea3c 93ba 3cbb
00000050: a794 833d 00c9 41bd e85e 0e3d 42f4 30bd
00000060: f1e5 7dbd 8061 1ebb 029f 7e3d e273 453c
00000070: 3014 e83b 527a 44bd 928a 813c ad20 00bc
00000080: ebba 46bd 4a93 5e3d f2b3 6cbd e7c2 0b3d
00000090: 968d 8cbd e286 123d 9b49 603d b250 1abd
000000a0: d407 acbc f11b 50bc 0e48 c63d 8780 dfba
000000b0: 4607 1d3c 81f7 43bd e88d b33d 3b0c baba
000000c0: 709f 0cbc c4b1 8abb 88f3 093d d262 f03c
000000d0: 4092 263a d270 523d ab68 78bd 0218 913d
000000e0: 00ed 14bc c2b7 2bbd 3686 1f3d 3102 f03c
000000f0: d0c0 6e3c 94f6 b5bd 32db 213d d7b7 963d
00000100: b9c4 553d a1da c3bc ff74 e339 62e2 c7bb
00000110: adfb 573d 9037 d03c c7b2 f53a b867 3cbd
00000120: d65a 33bd a4fa e6bd 8c2b e33c 5851 063c
00000130: 7bb6 5f3d ad29 40bc f730 60bd 50e3 e63c
00000140: 7ea7 93bd 8b7d 913a ba48 c7bc f2d8 643c
00000150: 3dbe ebbc a90e 08bd 1c81 dcbc fa96 393d
00000160: 7436 113d 2ceb 47bd d2c4 ab3c 7092 9bbd
00000170: 5f0f efbc b3de 20bd d20c a2bc 36f4 f93b
00000180: 74ff 90bb dabb 7cbc 08f5 33bd d29e 713c
00000190: 06e9 10bd f9f1 61bd e5cb b9bd 380e 45bd
000001a0: 2026 343d 1a89 43bd 8155 b53d cabe e9bc
000001b0: 2fd9 f6bc fe27 a4bd 2285 d8bb 0304 c53d
000001c0: 6f08 823d 5b25 d3bc d4c5 0d3d 00ae 40bd
000001d0: 0ef0 8b3c 7a44 8e3d 2869 4abc 1b92 25bc
000001e0: b26d 82bc 1a39 b23d 2bc6 a83d d9bc 8abc
000001f0: 4265 3fbd 4ada 87bc 4ecb fd3b 2c0e ea3c
00000200: 2cd4 5c3d 2e11 71bd 18fe 2b3d 9d16 a83c
00000210: f273 55bd c77f 8f3d 59ff d93c 5c1d 613d
00000220: ddbb c1bc e3e7 a03c e595 793d e0db f93c
00000230: 7c00 0dbd 7112 19bc 4364 be3d 258d 473d
00000240: 4ead 15bc ca59 8dbd 1cc9 d3bc d01e 71bc
00000250: c72f 6e3c d048 3c3d 8470 623d 6768 6dbd
00000260: eb90 9639 c09b 343c 6194 e5bb 1a3a b9bc
00000270: 4e99 9bbd f50a 913d 0d23 5f3d 4c01 61bd
00000280: 4ef7 99bc 8e63 87bc fdd8 163c 984b 893b
00000290: 58c5 58bc 41be 99bc 3a9c 9f3c 9648 62bd
000002a0: 6693 52bd 3965 d3bc 60cd 0dbd 1fe0 ca3c
000002b0: c0f3 1dbc 2812 f23a bb6d 96bb 6cd7 df3c
000002c0: c03d fc3c b0b5 c7bb 29e2 753c 206b 633c
000002d0: 42d6 61bd 3a34 7b3c fb54 da3c 6960 973c
000002e0: d455 fe3c 7d36 8bbc 47a6 45bb ed04 b13b
000002f0: 3583 273d b3c6 e1bd 70a6 71bd 517c e83c
00000300: 05ad ab38 3a2c 43bd 18d7 1abd c3a0 4ebd
00000310: 44e1 8b3c 7a0e ddbc cbb7 15bc 1da8 6bbd
00000320: 5253 333c 5f3d ba3d 5d77 af3d 26eb 88bc
00000330: 5409 29bd 9748 5dbc 4f79 ed3d 6ee0 2b3d
00000340: ea18 71bd c458 863d 6409 12bd 4ddc d53b
00000350: dfe5 233d 7596 0d3d 646a 72bd c07d afbd
00000360: 436f e3bc 7015 fbba f239 8c3c a3e3 b3bd
00000370: fc6e 013d 0908 7a3c 4c67 04bd 50dd babd
00000380: 8521 2ebd bb0e 33bd f482 d03c 9070 653d
00000390: 3a83 26bd ab63 3c3a 544a 82bc 6a44 d2bd
000003a0: e115 343d 8dd5 6fbd 9be2 bb3c fb34 0f3d
000003b0: 029e 343d 2fe8 c7bb ee20 cf3c 6057 cc3c
000003c0: 0beb 103d e666 85bd 02d9 e13c 97f9 e53c
000003d0: 386e 01bd 9b88 85bd dcaa 543c d71e 34bb
000003e0: ce23 4dbd e72c a3bd 9110 5d3c fb19 893d
000003f0: e330 54bd e3f1 23bd 524b 5c3d f6fb 4d3d

network_body.observation_encoder.processors.0.conv_layers.2.bias f4 [32]
-0.06952701 0.010426026 -0.027948141 0.0012494945 -0.09577225 -0.056876622 0.0078914575 0.002964905
0.05568817 -0.02123056 -0.015145206 0.03689684 0.030085562 -0.023931835 -0.028810643 -0.013368445
0.014624101 0.025715912 -0.03698923 -0.0038929048 -0.04859117 0.0064227986 -0.018043138 -0.06409587
-0.033950835 -0.014573085 0.018947069 -0.005955332 -0.04197298 -0.05051603 -0.08373747 0.040638722
00000000: 2d64 8ebd ecd1 2a3c 80f3 e4bc 14c6 a33a
00000010: 3e24 c4bd 76f7 68bd 2c4b 013c da4e 423b
00000020: 4719 643d b6eb adbc 9923 78bc 2421 173d
00000030: ff75 f63c b20c c4bc 4c04 ecbc 5307 5bbc
00000040: ed99 6f3c 2daa d23c 0582 17bd 1b20 7fbb
00000050: 8907 47bd 5776 d23b 34cf 93bc b244 83bd
00000060: 0810 0bbd f3c3 6ebc e236 9b3c f224 c3bb
00000070: dceb 2bbd e6e9 4ebd 8d7e abbd ca74 263d

network_body.observation_encoder.processors.0.dense.0.weight f4 [128, 512]
-0.07413108 -0.030960038 0.044580493 0.065909885 0.0027890021 -0.09786718 -0.03833338 0.13119319
-0.012955021 -0.122730225 0.017449724 -0.091235876 -0.044474605 0.04476258 0.056114014 0.0079876855
-0.018923631 0.0061857877 -0.029532166 0.09912005 0.07229253 -0.10780988 -0.048993103 0.068543784
0.06815387 0.033971082 -0.12249688 -0.04028658 -0.04728088 -0.009651783 0.020370763 0.15743557
0.0013643779 0.07799573 0.051963795 -0.05688773 -0.032437474 0.017033149 0.03448322 0.12843895
-0.087989174 -0.021434613 -0.16671516 0.06617445 -0.007359978 -0.014437124 0.05485082 -0.12398716
-0.019944886 0.014115726 0.10103416 0.024786057 -0.08652285 -0.008841551 -0.014968368 -0.017728874
-0.04583005 -0.037360042 -0.12815166 -0.043533396 0.016628003 0.014415245 0.09367677 0.03522382
0.038257863 -0.0031003722 -0.075486876 -0.029647833 0.064943224 0.037360694 -0.10118077 -0.019773321
-0.070923045 -0.014673233 0.16452849 -0.03610418 0.15827557 -0.08657592 -0.08664774 0.11634777
-0.08906734 -0.03731461 -0.04649075 -0.05307688 0.0022924382 -0.088087454 -0.057830412 0.0084249005
0.0013011147 -0.063371986 0.04039353 0.075558744 -0.048513666 0.0018013811 -0.054957908 0.0032895054
-0.004571602 0.02079973 0.0026569117 -0.042344335 -0.019366467 0.10173441 0.035395067 0.03745262
0.02948239 0.12539588 0.046167515 -0.003719435 -0.09110795 0.048307613 -0.031463705 -0.008366984
0.12369934 0.09542259 0.049793057 0.008201564 0.032443624 -0.02406892 0.027803984 0.061465856
-0.0140003525 -0.021376086 0.15302576 -0.054657906 -0.0013553313 -0.11518751 -0.07745068 0.051532008
-0.012214438 -0.072706856 0.21939912 0.03213899 -0.04018601 -0.054601 0.10536086 0.02785132
0.11321439 -0.015342122 -0.021589689 0.014318106 -0.09198701 0.012416177 0.08431608 0.017118452
-0.04036806 0.025489345 -0.04410657 0.041022364 -0.035580486 0.101479284 -0.10907149 -0.03493503
-0.048339713 0.0502454 0.022242896 -0.03079614 0.0058223447 -0.010630107 -0.006237258 -0.06417675
0.003012239 0.050540503 -0.014571192 -0.027929699 -0.023906138 -0.055969626 0.14567828 0.0038963293
0.045535874 0.050388627 -0.09770043 0.08884794 0.018107306 -0.025204051 -0.028763458 0.08872649
0.025509512 -0.06824374 -0.13792033 -5.3644762e-05 -0.0743758 -0.020659 0.08341178 0.02478696
0.03073663 -0.054558482 -0.050810084 0.023819989 -0.005841279 -0.04750618 0.0541973 -0.03821787
-0.01922709 -0.0051776813 -0.003857485 -0.04658157 -0.031801805 0.049183343 -0.03973868 -0.032072455
0.024090853 -0.06237735 -0.011242766 0.06774597 -0.026363954 -0.101641215 -0.12334092 -0.07405001
-0.037177596 -0.04297103 -0.040889993 -0.10652255 -0.018375179 -0.112627 -0.045450572 -0.0675936
0.12499947 0.052274693 -0.13627082 0.02676304 -0.0869246 0.1501195 0.047432672 -0.12485335
0.018171327 0.059805863 0.046343338 -0.0525488 -0.095991954 0.025385307 0.01083885 -0.05240161
-0.027402932 0.027871419 -0.023398109 0.023401607 -0.0546323 -0.056273296 -0.027827388 -0.11899267
-0.0002680377 -0.043169037 0.14115699 0.1256148 -0.022142159 0.10706721 -0.10650077 -0.05072964
-0.05144309 0.007682125 -0.013445975 -0.019134156 0.04459547 -0.048036695 -0.016044958 -0.13941674
00000000: 09d2 97bd e89f fdbc 099a 363d c3fb 863d
00000010: b1c7 363b 976e c8bd 7603 1dbd 8257 063e
00000020: 4c41 54bc fc59 fbbd b9f2 8e3c e0d9 babd
00000030: 012b 36bd f858 373d cfd7 653d c8de 023c
00000040: bb05 9bbc 26b2 ca3b 71ed f1bc 74ff ca3d
00000050: 1b0e 943d 6dcb dcbd feac 48bd af60 8c3d
00000060: 4294 8b3d 4325 0b3d a5df fabd 8a03 25bd
00000070: 99a9 41bd 8322 1ebc 96e0 a63c ca36 213e
00000080: edd4 b23a 3abc 9f3d fdd7 543d 1c03 69bd
00000090: 28dd 04bd 1a89 8b3c 473e 0d3d 8085 033e
000000a0: ab33 b4bd a497 afbc 61b7 2abe 7886 873d
000000b0: f82b f1bb b089 6cbc 41ab 603d fbec fdbd
000000c0: 7563 a3bc a545 673c ffea ce3d 210c cb3c
000000d0: e432 b1bd 27dc 10bc e33d 75bc 253c 91bc
000000e0: 4ab8 3bbd d806 19bd 303a 03be 1350 32bd
000000f0: 7337 883c eb2d 6c3c 9bd9 bf3d da46 103d
00000100: 47b4 1c3d 9d2f 4bbb dd98 9abd 03e0 f2bc
00000110: f400 853d 8707 193d dd37 cfbd a9fb a1bc
00000120: 1a40 91bd 0068 70bc 287a 283e fae1 13bd
00000130: fe12 223e b74e b1bd 5f74 b1bd bd47 ee3d
00000140: f068 b6bd 34d7 18bd 166d 3ebd 2467 59bd
00000150: bb3c 163b 3267 b4bd 95df 6cbd 9808 0a3c
00000160: 2a8a aa3a 2cc9 81bd b073 253d 8bbe 9a3d
00000170: 44b6 46bd 521c ec3a 8b1b 61bd be94 573b
00000180: 61cd 95bb 3264 aa3c 951f 2e3b 4171 2dbd
00000190: 6da6 9ebc 215a d03d 6bfa 103d eb67 193d
000001a0: 0e85 f13c c767 003e 261a 3d3d c4c1 73bb
000001b0: ce96 babd 34de 453d 16e0 00bd ad15 09bc
000001c0: 1456 fd3d eb6c c33d cef3 4b3d da5f 063c
000001d0: 9be3 043d 2f2c c5bc 2ec5 e33c 9fc3 7b3d
000001e0: bc61 65bc e71c afbc c9b2 1c3e f8e0 5fbd
000001f0: 5fa5 b1ba 6ee7 ebbd 769e 9ebd 3a13 533d
00000200: 111f 48bc 55e7 94bd 2aaa 603e 2ca4 033d
00000210: 169a 24bd 4ca5 5fbd 6fc7 d73d 7428 e43c
00000220: f2dc e73d 865d 7bbc dcdc b0bc 7d96 6a3c
00000230: af63 bcbd 396d 4b3c e9ad ac3d ff3b 8c3c
00000240: fb58 25bd 08cf d03c 17a9 34bd 1107 283d
00000250: d8bc 11bd 5fd4 cf3d e060 dfbd 0918 0fbd
00000260: ddff 45bd 1fce 4d3d bc36 b63c 3048 fcbc
00000270: 5ec9 be3b e629 2ebc ea61 ccbb 1a6f 83bd
00000280: fc68 453b 8f03 4f3d 02bc 6ebc d3cc e4bc
00000290: ced6 c3bc 6840 65bd b02c 153e 8f59 7f3b
000002a0: d383 3a3d 4e64 4e3d 2a17 c8bd e9f5 b53d
000002b0: c655 943c ba78 cebc 58a1 ebbc 3cb6 b53d
000002c0: 53f9 d03c 60c3 8bbd fd3a 0dbe a000 61b8
000002d0: 5752 98bd 103d a9bc ccd3 aa3d 060e cb3c
000002e0: 63cb fb3c b778 5fbd 3c1e 50bd 2322 c33c
000002f0: 3368 bfbb d795 42bd fdfd 5d3d 578a 1cbd
00000300: 2182 9dbc 8aa9 a9bb dccd 7cbb 51cc 3ebd
00000310: 9c42 02bd 7974 493d 07c5 22bd 685e 03bd
00000320: 2e5a c53c 647f 7fbd 9433 38bc 66be 8a3d
00000330: 38f9 d7bc 4529 d0bd 2a9a fcbd 88a7 97bd
00000340: 8947 18bd 6402 30bd 447c 27bd 7f28 dabd
00000350: 8b87 96bc fca8 e6bd 612a 3abd 836e 8abd
00000360: b9ff ff3d fd1d 563d 948a 0bbe 2a3e db3c
00000370: 8605 b2bd edb8 193e c348 423d 1db3 ffbd
00000380: 09dc 943c fef6 743d 83d2 3d3d 693d 57bd
00000390: 6e97 c4bd d9f4 cf3c 6f95 313c 12a3 56bd
000003a0: 1d7c e0bc 9a52 e43c 64ad bfbc bab4 bf3c
000003b0: 1ec6 5fbd d47e 66bd 43f6 e3bc 6eb2 f3bd
000003c0: 6987 8cb9 04d2 30bd 758b 103e 2ba1 003e
000003d0: 7963 b5bc 0e46 db3d 131d dabd e2c9 4fbd
000003e0: fdb5 52bd 56ba fb3b 824c 5cbc 3cbf 9cbc
000003f0: bda9 363d 20c2 44bd b770 83bc 43c3 0ebe

network_body.observation_encoder.processors.0.dense.0.bias f4 [128]
-0.005311274 0.028631242 0.012179117 0.03382479 -0.007318417 0.01572646 -0.0036394536 0.015791774
0.007873736 -0.037237138 0.022094617 0.032896213 -0.04432307 -0.022887614 -0.017500324 0.019269323
0.02953078 -0.004162652 0.02152666 -0.037614267 -0.010450241 0.011248695 0.017429264 -0.0013990526
-0.029005103 0.014657407 0.02050699 0.038770385 0.01962607 0.009834934 -0.019531915 0.0010128502
0.022496011 0.0065208776 -0.00981449 0.02606696 0.0026371037 -0.014363308 -0.025380168 -0.0058094785
0.031629715 -0.015722895 0.032383338 -0.03672446 0.014645224 -0.008635887 -0.0361266 0.037927594
0.030219395 0.035317767 0.0022508504 -0.032385156 -0.046723448 0.04392764 0.014444544 -0.036678478
0.037306976 -0.023674946 -0.01253773 0.008390609 -0.028819954 0.015568856 -0.015195697 -0.038949355
-0.005593869 -0.0149247935 -0.006327029 -0.009551748 0.049646504 0.032019187 0.016484674 0.015974712
0.026076552 0.039576713 0.007793465 0.0020905174 -0.014364198 0.035442162 0.056161806 -0.0027534664
0.02497 0.026080398 0.021457687 -0.029998379 -0.012521664 0.036420286 -0.035069708 0.04286037
0.032187164 -0.042813316 0.009497725 -0.041681107 0.006363186 0.03550939 -0.03650223 0.019685546
0.04733963 0.040507603 0.017541002 0.023165254 0.008059979 0.026065765 0.038327705 0.017045133
0.02507829 0.013821479 0.009573811 0.0025871245 0.0150561035 0.0439229 0.034990136 0.011092337
0.0062332363 0.021637445 0.027941274 -0.0132003175 0.027144901 0.02314218 0.026359687 -0.027360177
0.02116688 0.024766158 0.045205366 -0.009936262 0.000512725 -0.0021501908 0.0017504189 0.030349128
00000000: 320a aebb 118c ea3c eb8a 473c dd8b 0a3d
00000010: 55cf efbb c7d4 803c e683 6ebb c05d 813c
00000020: d800 013c f885 18bd c5ff b43c 2ebe 063d
00000030: 1c8c 35bd ce7e bbbc d75c 8fbc b3da 9d3c
00000040: 89ea f13c db66 88bb ae58 b03c 6b11 1abd
00000050: 7d37 2bbc 724c 383c d1c7 8e3c 6a60 b7ba
00000060: 1c9c edbc 9f25 703c 46fe a73c b2cd 1e3d
00000070: dac6 a03c b422 213c 6501 a0bc 9dc1 843a
00000080: 8e49 b83c 16ad d53b f4cc 20bc 618a d53c
00000090: 42d3 2c3b 1554 6bbc 12ea cfbc 705d bebb
000000a0: 298e 013d 4dcd 80bc 64a4 043d 636c 16bd
000000b0: 86f2 6f3c 897d 0dbc 7cf9 13bd f759 1b3d
000000c0: aa8e f73c 5da9 103d 0183 133b 4ca6 04bd
000000d0: 1661 3fbd 78ed 333d cfa8 6c3c 2c3c 16bd
000000e0: 33cf 183d f6f1 c1bc 0d6b 4dbc c478 093c
000000f0: d317 ecbc 8414 7f3c 5ff7 78bc 5c89 1fbd
00000100: c64c b7bb 1f87 74bc f752 cfbb ef7e 1cbc
00000110: 225a 4b3d 8d26 033d de0a 873c 66dd 823c
00000120: 7e9e d53c 311b 223d 5360 ff3b 1001 093b
00000130: d057 6bbc cd2b 113d ec09 663d 8073 34bb
00000140: e38d cc3c 8fa6 d53c 08c8 af3c 29bf f5bc
00000150: aa27 4dbc 702d 153d 41a5 0fbd 5b8e 2f3d
00000160: b0d6 033d 045d 2fbd 599c 1b3c cfb9 2abd
00000170: 4682 d03b 4b72 113d 5d83 15bd 9543 a13c
00000180: 33e7 413d 4deb 253d 26b2 8f3c 0fc5 bd3c
00000190: 010e 043c df87 d53c 83fd 1c3d 3ca2 8b3c
000001a0: fc70 cd3c 7c73 623c 79db 1c3c bf8c 293b
000001b0: e0ad 763c 80e8 333d d151 0f3d a2bc 353c
000001c0: 2d40 cc3b 0341 b13c 19e5 e43c 2546 58bc
000001d0: fc5e de3c ab94 bd3c 45f0 d73c 7322 e0bc
000001e0: 2a66 ad3c 66e2 ca3c 4329 393d b4cb 22bc
000001f0: 6468 063a 37ea 0cbb 506e e53a bc9e f83c

network_body._body_endoder.seq_layers.0.weight f4 [128, 128]
-0.03465555 -0.03171217 -0.032125004 -0.0031962518 -0.010615111 0.019785943 -0.19433688 -0.16113558
-0.014862129 0.042629525 0.094632275 -0.0009925585 -0.11294843 0.08009163 -0.027706834 -0.07812611
-0.016675705 0.10760485 0.07358784 -0.020704938 -0.1537718 -0.17379351 0.04098865 0.04546077
0.057786807 0.031341016 -0.11884468 -0.07483213 0.09080001 -0.052518617 -0.07652976 -0.07606322
0.035557874 -0.17535031 -0.13720557 0.14592385 0.16637942 0.13325799 0.021815129 0.08645845
-0.11188029 0.110450506 0.0047127763 -0.023702651 -0.25879496 -0.01605764 0.057684027 0.17385922
-0.006125992 -0.0271755 0.01710749 -0.08456416 0.030100003 0.06838667 0.03638747 -0.00867932
-0.016467623 0.07652585 -0.033207998 0.039871544 -0.10680204 -0.071547955 0.041776963 0.0083053475
0.31015173 -0.044655688 -0.113628425 0.13898423 0.14947899 0.021831123 -0.04275506 -0.001909122
-0.11489774 -0.026947007 0.17433357 -0.04436522 -0.07731222 -0.056845117 0.09591738 0.031923465
0.054424845 0.14386165 -0.054313883 0.007938527 -0.05823789 -0.13549215 -0.018004974 0.06483177
-0.12703843 0.11341639 0.07014519 -0.019495808 -0.22320952 0.029816555 -0.043778837 -0.0009597798
-0.01196215 0.049316965 -0.04994885 0.030152204 -0.097839065 0.031274427 0.07757348 0.06787336
0.04212713 0.026306635 -0.011726675 0.0038109864 -0.08409903 -0.053886104 -0.09293381 -0.032787193
-0.21007913 -0.024442796 -0.06715894 -0.008603457 -0.04133202 0.03040384 -0.049785208 -0.06503037
-0.19057795 -0.04405204 0.17596617 -0.13598546 -0.049983315 -0.106228 -0.116443306 -0.06843528
0.06969982 0.035041958 0.121496074 0.04606971 0.015076073 -0.15974967 0.032411445 -0.28546986
-0.17907423 0.019689403 0.16433607 -0.06818699 0.018269783 -0.06500864 -0.12271864 0.0041476446
0.18500328 -0.032089192 0.09753126 0.081765614 -0.12357872 -0.024132192 0.022603072 -0.035211153
0.053622004 -0.03804612 0.06030977 -0.07674691 -0.0052769743 0.1230263 0.004372312 0.0046151406
0.05224882 0.0059035495 -0.119000174 0.09941417 0.04886098 0.08482238 -0.112358026 0.07511676
-0.06749787 0.033643916 0.08599154 -0.07110647 -0.02808465 0.09043859 -0.10519437 0.10303849
-0.07722185 -0.118383855 -0.0687216 -0.09393634 -0.013445997 -0.003023612 0.0034623311 -0.030712243
-0.08829504 -0.0045051803 0.039617438 -0.09991556 -0.0957208 0.036539406 -0.03935481 -0.10630682
0.04994138 0.035038784 -0.112211265 -0.048550066 0.043877725 -0.064268865 -0.085712716 0.057491425
0.08790878 0.087834015 0.046528306 -0.14918746 -0.15467857 0.09368685 -0.0064064697 -0.07131822
-0.012681661 -0.04074843 0.07274834 0.12363397 0.15567568 0.010090268 0.0014713813 0.13463913
-0.03401016 -0.029489977 -0.014141015 -0.19808334 -0.18997996 0.13422887 -0.17686857 0.11889071
0.04781785 0.014766012 -0.022977386 -0.13082221 -0.25457913 0.04910416 0.027890705 -0.036262233
0.16067663 0.121133186 -0.06815574 0.034159087 -0.099579096 0.064671844 0.25514674 -0.05871793
-0.038059592 0.044920884 -0.09255289 -0.11940006 0.036268707 0.001444807 0.16735888 -0.06628515
-0.057943206 -0.007639837 -0.0066643907 0.0660351 -0.10491347 0.027460944 -0.05829956 -0.030057697
00000000: faf2 0dbd 9fe4 01bd 8295 03bd 3578 51bb
00000010: 01eb 2dbc 2116 a23c 3f00 47be ba00 25be
00000020: 4a80 73bc 4c9c 2e3d 91ce c13d bd18 82ba
00000030: 8251 e7bd 1507 a43d 71f9 e2bc 9500 a0bd
00000040: 7d9b 88bc ee5f dc3d 39b5 963d 679d a9bc
00000050: 5b76 1dbe edf6 31be b7e3 273d 1335 3a3d
00000060: dcb1 6c3d 705f 003d d764 f3bd 9641 99bd
00000070: 5bf5 b93d c31d 57bd a3bb 9cbd 09c7 9bbd
00000080: 22a5 113d 088f 33be 9e7f 0cbe 106d 153e
00000090: 5e5f 2a3e c874 083e a4b5 b23c 2111 b13d
000000a0: 7e21 e5bd e033 e23d a26d 9a3b 102c c2bc
000000b0: c680 84be 508b 83bc 1646 6c3d 2708 323e
000000c0: 8cbc c8bb 279f debc 0225 8c3c f92f adbd
000000d0: 4894 f63c 4f0e 8c3d 070b 153d b533 0ebc
000000e0: 1ce7 86bc 96b9 9c3d 1c05 08bd 5850 233d
000000f0: 07bb dabd bc87 92bd 521e 2b3d 2713 083c
00000100: 35cc 9e3e e2e8 36bd 05b6 e8bd e251 0e3e
00000110: 0511 193e 2fd7 b23c ee1f 2fbd 813b faba
00000120: 824f ebbd f8bf dcbc 8084 323e 4eb8 35bd
00000130: df55 9ebd 6dd6 68bd 5570 c43d 2ec2 023d
00000140: 96ec 5e3d 7850 133e 3c78 5ebd 9810 023c
00000150: db8a 6ebd 74be 0abe 2b7f 93bc 85c6 843d
00000160: 5d16 02be da46 e83d 48a8 8f3d acb5 9fbc
00000170: 0991 64be d941 f43c 7051 33bd bb99 7bba
00000180: e5fc 43bc 9600 4a3d 2a97 4cbd c101 f73c
00000190: d95f c8bd 9d19 003d d8de 9e3d 3001 8b3d
000001a0: 7f8d 2c3d 0381 d73c 3d21 40bc bec1 793b
000001b0: 1d3c acbd adb7 5cbd 1554 bebd dd4b 06bd
000001c0: fc1e 57be 423c c8bc a08a 89bd 84f5 0cbc
000001d0: c44b 29bd 7911 f93c 93eb 4bbd a52e 85bd
000001e0: de26 43be e96f 34bd 7a30 343e c63f 0bbe
000001f0: 4ebb 4cbd 118e d9bd d479 eebd cc27 8cbd
00000200: c7be 8e3d 2888 0f3d efd2 f83d 98b3 3c3d
00000210: a201 773c 6b95 23be ddc1 043d 1b29 92be
00000220: 3c5f 37be ac4b a13c b747 283e 9fa5 8bbd
00000230: 83aa 953c 4023 85bd e953 fbbd f7e8 873b
00000240: 8071 3d3e f56f 03bd 78be c73d bb74 a73d
00000250: d716 fdbd e0b0 c5bc 142a b93c 9239 10bd
00000260: bfa2 5b3d 40d6 1bbd 6107 773d 7c2d 9dbd
00000270: 78ea acbb 36f5 fb3d 9d45 8f3b 9b3a 973b
00000280: dc02 563d 9072 c13b 5db6 f3bd a899 cb3d
00000290: 7322 483d 5bb7 ad3d f71b e6bd d1d6 993d
000002a0: 533c 8abd 34ce 093d 551c b03d 45a0 91bd
000002b0: c811 e6bc de37 b93d 2570 d7bd d805 d33d
000002c0: 7d26 9ebd 3c73 f2bd e9bd 8cbd b261 c0bd
000002d0: 994c 5cbc cb27 46bb 47e8 623b 3e98 fbbc
000002e0: 08d4 b4bd 31a0 93bb e545 223d 87a0 ccbd
000002f0: 4409 c4bd 58aa 153d 8232 21bd 64b7 d9bd
00000300: 558f 4c3d d484 0f3d 05cf e5bd 6fdc 46bd
00000310: 21b9 333d 659f 83bd 268a afbd 217c 6b3d
00000320: 8509 b43d 52e2 b33d 7794 3e3d 99c4 18be
00000330: 0f64 1ebe e4de bf3d 5ded d1bb 490f 92bd
00000340: bec6 4fbc d3e7 26bd 15fd 943d cf33 fd3d
00000350: 7269 1f3e a751 253c 5ddb c03a d7de 093e
00000360: 3d4e 0bbd f794 f1bc b7af 67bc 5cd6 4abe
00000370: 1b8a 42be 4b73 093e 091d 35be f97c f33d
00000380: a6dc 433d 25ed 713c 123b bcbc 42f6 05be
00000390: 3258 82be 7221 493d 0c7b e43c b587 14bd
000003a0: 6a88 243e ad14 f83d 3d95 8bbd 66ea 0b3d
000003b0: 20f0 cbbd ac72 843d 98a2 823e 3682 70bd
000003c0: 60e4 1bbd f6fe 373d 5f8c bdbd 0588 f4bd
000003d0: 7f8e 143d ae5f bd3a 2060 2b3e 82c0 87bd
000003e0: db55 6dbd 9957 fabb f660 dabb 693d 873d
000003f0: e0dc d6bd c6f5 e03c 85cb 6ebd 8f3b f6bc

network_body._body_endoder.seq_layers.0.bias f4 [128]
0.00072425953 0.03476099 0.027217492 0.030675936 -0.018357337 0.0048719845 -0.04353834 -0.020759542
0.03820022 0.0012274516 0.003873447 0.008315845 0.038772784 -0.011044451 -0.010518208 -0.026925018
0.031076636 0.016509337 -0.08062249 -0.019394783 -0.008822019 0.019306375 -0.023345776 -0.10218179
0.014897834 -0.05578798 0.016723702 -0.065046184 0.015163594 -0.021226699 -0.0044297725 -0.009365994
-0.070897095 -0.06417409 0.0178858 0.016055698 0.022836315 0.015833227 0.052949414 0.008772284
0.017196672 -0.08069606 0.024352977 -0.012344497 0.028097471 -0.014869985 -0.07174612 0.02973904
0.038627803 0.031122992 -0.022354474 -0.078883044 0.042449433 0.01947486 -0.0014884066 0.047227386
-0.07919509 0.023386892 0.005912245 -0.047993723 -0.013560522 -0.019640937 0.0033117472 0.0347013
0.023713918 0.020205595 -0.096369915 0.010844986 0.035329994 -0.06356183 0.0075712064 -0.0682249
-0.0050860117 -0.02817167 -0.0021192743 0.00863468 -0.073123686 0.010639589 0.010170074 0.0002497195
0.043471288 -0.01587662 -0.036794174 0.012019198 -0.028955929 0.032351132 0.052121762 0.036848083
0.021541439 -0.035567973 -0.03532464 0.00848402 -0.028808346 0.03599561 -0.023396106 -0.08156538
-0.010521239 -0.047399674 -0.021085894 -0.00641693 -0.04896703 -0.07013785 0.021889234 -0.026933497
0.0311865 0.022512503 -0.10553778 -0.013134711 -0.019722585 -0.079704575 -0.0076969643 0.0022811764
-0.0015782082 -0.0026317071 -0.06573594 -0.00039422952 0.016198393 0.03443151 0.010888903 0.02431287
0.027660884 -0.069164164 -0.024093349 0.031952918 0.0128157325 -0.012989151 -0.0043283952 0.02915951
00000000: 3cdc 3d3a 8a61 0e3d 38f7 de3c 1a4c fb3c
00000010: 2062 96bc 2ba5 9f3b 4255 32bd ea0f aabc
00000020: d577 1c3d 71e2 a03a a8d9 7d3b 2f3f 083c
00000030: 36d0 1e3d c9f3 34bc 9054 2cbc db91 dcbc
00000040: 6e94 fe3c 973e 873c 671d a5bd cfe1 9ebc
00000050: 3b8a 10bc 6728 9e3c a43f bfbc b044 d1bd
00000060: 0b16 743c f081 64bd 2500 893c ef36 85bd
00000070: b970 783c 9de3 adbc a027 91bb d373 19bc
00000080: 7f32 91bd b56d 83bd 3e85 923c 3d87 833c
00000090: 3913 bb3c afb4 813c 7ce1 583d a0b9 0f3c
000000a0: 09e0 8c3c fa43 a5bd e57f c73c 9340 4abc
000000b0: ab2c e63c 3da1 73bc a1ef 92bd 4a9f f33c
000000c0: 3038 1e3d a5f5 fe3c bb20 b7bc 6f8d a1bd
000000d0: 75df 2d3d be89 9f3c a316 c3ba 8171 413d
000000e0: 0931 a2bd de95 bf3c 81bb c13b 1195 44bd
000000f0: f42c 5ebc 08e6 a0bc e609 593b f322 0e3d
00000100: b143 c23c 3486 a53c 975d c5bd 2baf 313c
00000110: 2fb6 103d b42c 82bd e217 f83b 7fb9 8bbd
00000120: 8fa8 a6bb 46c8 e6bc 86e3 0abb 7978 0d3c
00000130: dfc1 95bd ac51 2e3c 62a0 263c c9ec 8239
00000140: f30e 323d af0f 82bc 7db5 16bd 2cec 443c
00000150: fc34 edbc 9f82 043d a17d 553d 04ee 163d
00000160: ac77 b03c b9af 11bd 92b0 10bd 8f00 0b3c
00000170: 7bff ebbc 2270 133d 31a9 bfbc c00b a7bd
00000180: 4661 2cbc 2926 42bd 53bc acbc 1c45 d2bb
00000190: a791 48bd 6fa4 8fbd 0d51 b33c a3a3 dcbc
000001a0: d57a ff3c 246c b83c 3124 d8bd f932 57bc
000001b0: 4291 a1bc 273c a3bd d136 fcbb ca7f 153b
000001c0: e1db ceba b878 2cbb 91a0 86bd 97b0 ceb9
000001d0: 7eb2 843c 0e08 0d3d 5f67 323c c92b c73c
000001e0: 1499 e23c f1a5 8dbd 6a5f c5bc 10e1 023d
000001f0: 14f9 513c 73d0 54bc 36d5 8dbb eddf ee3c

network_body._body_endoder.seq_layers.2.weight f4 [128, 128]
0.10672447 -0.056652024 -0.0006143858 -0.019943712 -0.1552986 -0.04770275 0.039275095 -0.03329139
0.008063196 0.12886211 -0.15666158 0.15865174 -0.047627527 0.041885592 0.038293872 -0.10823844
-0.061850846 0.08786428 0.023730254 -0.025052872 -0.01819361 0.060262147 0.071760304 -0.15005454
-0.019923491 -0.11214432 -0.02546399 -0.041836113 -0.16333076 0.09242563 0.085650735 -0.013996864
-0.043994427 -0.07802542 0.051497657 -0.08692384 0.06254366 -0.056025494 0.10265653 0.0013066652
-0.20021182 0.12866403 -0.012705151 0.01628478 -0.03198183 -0.09472599 0.028114848 0.13758771
-0.040415492 0.09240072 0.058211822 -0.019789096 -0.008934202 0.04833797 -0.048603576 -0.067816146
-0.093346044 -0.0044363528 -0.10445589 -0.11339009 -0.12177125 0.06368214 0.06185985 0.073850766
0.114392936 -0.09457617 0.009210628 -0.102333814 -0.04989262 -0.0051644864 -0.07692179 -0.054724168
0.04360238 -0.08370022 -0.05036412 0.1131863 -0.14442328 0.04873947 0.07797094 -0.15586121
0.06394067 -0.08614836 -0.05081087 0.06667229 -0.13469492 -0.07701415 -0.12267489 -0.026023688
-0.025117673 0.07407798 -0.091756985 -0.042617653 -0.16814962 0.1891698 -0.014968957 -0.07043718
0.106343776 -0.05901342 -0.08050823 0.08661616 -0.0149775045 0.064442 -0.023622924 -0.10007672
-0.10760098 0.03875962 0.017482622 0.010680214 -0.11600973 -0.09567205 0.015896317 -0.08533921
-0.12723126 0.031224722 -0.013851624 -0.053679716 -0.065493 -0.22515513 -0.08126622 -0.081776634
0.07674566 -0.087507285 -0.12346455 0.13044257 0.095399104 0.0667412 -0.12989885 0.04086716
0.011781304 0.13238889 -0.12840004 0.1518297 0.039387394 0.13245212 -0.10862424 0.12196018
0.12228444 -0.04916802 0.06892369 0.04817903 0.0051764343 -0.043134622 -0.24733655 0.11363157
-0.17630741 0.1312515 -0.16844809 -0.085218824 -0.032543793 -0.011510016 -0.091443986 -0.026078086
-0.18777317 -0.14483744 0.13595726 0.0075944234 -0.21686858 -0.051001336 0.014987948 0.12404947
-0.042711463 0.1032545 0.019408222 0.039151233 0.106135 0.046774257 -0.04716225 0.14924185
-0.04985462 0.04881341 -0.15546274 0.16981643 -0.14545688 -0.08269976 -0.09745763 -0.035706062
0.04786579 -0.052849825 0.009269578 0.043259233 -0.04230538 0.12181063 -0.0037540335 -0.02181989
-0.11658335 -0.026748478 -0.055504587 -0.11199511 0.123204604 0.023770964 -0.10443561 0.15836218
-0.0586928 0.20370921 -0.009746669 0.028869832 -0.039742563 -0.100781046 -0.12319555 -0.050845582
-0.03587256 0.031450383 -0.003539414 0.116527826 0.011780664 -0.07449215 -0.039795984 0.049342927
-0.073144265 0.17148638 -0.06607709 0.0065430473 -0.25288558 -0.089758545 0.044200268 -0.04045481
0.089596115 0.04161493 -0.05716534 -0.04196297 -0.17793626 -0.14213811 -0.015434954 -0.034026153
-0.067637004 0.06580723 -0.05467978 0.14594153 -0.06585698 -0.034449298 -0.049380768 0.016834708
0.048283253 0.06992855 0.028515555 -0.09833126 0.07904389 -0.0033778278 0.13480331 0.038496118
0.057436254 0.16020638 0.057974998 0.04655868 0.08348698 -0.20421553 0.10010218 -0.0015606679
0.072611354 0.05991252 -0.067323305 0.10556408 0.098630466 -0.110327005 0.027460113 -0.020354884
00000000: 5c92 da3d f40b 68bd bc0e 21ba ff60 a3bc
00000010: 9906 1fbe f563 43bd ecde 203d 8d5c 08bd
00000020: 7f1b 043c 6ef4 033e e56b 20be 9a75 223e
00000030: 1515 43bd 3a90 2b3d 09da 1c3d 1dac ddbd
00000040: 5057 7dbd 30f2 b33d f365 c23c ae3b cdbc
00000050: c40a 95bc 71d5 763d 11f7 923d e6a7 19be
00000060: 9736 a3bc ecab e5bd dc99 d0bc 585c 2bbd
00000070: 2e40 27be a649 bd3d a769 af3d 1a53 65bc
00000080: 8033 34bd cbcb 9fbd 35ef 523d 2005 b2bd
00000090: e416 803d fd7a 65bd 963d d23d 6944 ab3a
000000a0: 5404 4dbe 81c0 033e 4429 50bc a967 853c
000000b0: 61ff 02bd b3ff c1bd 1c51 e63c cbe3 0c3e
000000c0: b78a 25bd 973c bd3d 856f 6e3d be1c a2bc
000000d0: c260 12bc 09fe 453d 8b14 47bd 31e3 8abd
000000e0: 362c bfbd d35e 91bb f8ec d5bd 1039 e8bd
000000f0: 3563 f9bd c86b 823d c160 7d3d 123f 973d
00000100: d846 ea3d 27b1 c1bd 2de8 163c 6494 d1bd
00000110: 345c 4cbd da3a a9bb 2c89 9dbd 7326 60bd
00000120: 6998 323d 056b abbd 9c4a 4ebd 38ce e73d
00000130: b2e3 13be 0aa3 473d 3aaf 9f3d 159a 1fbe
00000140: 53f3 823d 8d6e b0bd 0f1f 50bd 7b8b 883d
00000150: 77ed 09be 98b9 9dbd f93c fbbd a12f d5bc
00000160: 94c3 cdbc 32b6 973d 16eb bbbd d98f 2ebd
00000170: 6a2f 2cbe bab5 413e 5b40 75bc 5e41 90bd
00000180: c4ca d93d 0eb8 71bd 80e1 a4bd d063 b13d
00000190: 3564 75bc 2bfa 833d dd84 c1bc 06f5 ccbd
000001a0: e75d dcbd 68c2 1e3d b737 8f3c 10fc 2e3c
000001b0: 8296 edbd b5ef c3bd fe38 823c 53c6 aebd
000001c0: e948 02be fdca ff3c ecf1 62bc 43df 5bbd
000001d0: 3221 86bd 118f 66be e76e a6bd 827a a7bd
000001e0: d42c 9d3d 0537 b3bd fbda fcbd bd92 053e
000001f0: 9b60 c33d 9caf 883d 3404 05be 5364 273d
00000200: 5f06 413c f490 073e 4d7b 03be 3f79 1b3e
00000210: ad54 213d 87a1 073e 6376 debd 42c6 f93d
00000220: 4470 fa3d 6864 49bd dd27 8d3d 6057 453d
00000230: 149f a93b eead 30bd cb45 7dbe abb7 e83d
00000240: ee89 34be cb66 063e a87d 2cbe 3587 aebd
00000250: a44c 05bd 8294 3cbc fc46 bbbd b6a1 d5bc
00000260: 9c47 40be 4450 14be 6138 0b3e a4da f83b
00000270: cc12 5ebe c7e6 50bd 0390 753c a60d fe3d
00000280: 37f2 2ebd 1877 d33d fefd 9e3c 0b5d 203d
00000290: 4f5d d93d 5d96 3f3d 342d 41bd dbd2 183e
000002a0: 5c34 4cbd 92f0 473d a031 1fbe 5ce4 2d3e
000002b0: a6f2 14be 7e5e a9bd de97 c7bd 8540 12bd
000002c0: eb0e 443d 0f79 58bd 6edf 173c 9830 313d
000002d0: 6848 2dbd da77 f93d 3b06 76bb a0bf b2bc
000002e0: 40c3 eebd a01f dbbc c758 63bd b15d e5bd
000002f0: b252 fc3d 53bb c23c 56e2 d5bd b229 223e
00000300: dd67 70bd 2699 503e 7eb0 1fbc 6d80 ec3c
00000310: 19c9 22bd 4b66 cebd f34d fcbd 7543 50bd
00000320: 1bef 12bd 1ed2 003d 83f5 67bb 24a6 ee3d
00000330: b003 413c 578f 98bd 1d01 23bd cf1b 4a3d
00000340: a9cc 95bd 209a 2f3e 6d53 87bd 0f67 d63b
00000350: 387a 81be 54d3 b7bd 570b 353d f1b3 25bd
00000360: 2b7e b73d 6b74 2a3d 3426 6abd 5de1 2bbd
00000370: ec34 36be a78c 11be e4e2 7cbc 025f 0bbd
00000380: 4585 8abd f1c5 863d e8f7 5fbd b271 153e
00000390: 06e0 86bd b51a 0dbd 7d43 4abd f1e8 893c
000003a0: a9c4 453d b336 8f3d 7499 e93c e661 c9bd
000003b0: c3e1 a13d 8c5e 5dbb e109 0a3e 1bae 1d3d
000003c0: 4742 6b3d 240d 243e 3177 6d3d 50b4 3e3d
000003d0: 39fb aa3d e01d 51be 5f02 cd3d 538f ccba
000003e0: 43b5 943d d566 753d cde0 89bd fb31 d83d
000003f0: c5fe c93d 20f3 e1bd 08f4 e03c 49bf a6bc

network_body._body_endoder.seq_layers.2.bias f4 [128]
-0.00040737254 0.019970937 0.028052822 -0.010198115 0.025959134 -0.08389445 -0.011528815 -0.039648153
0.013579489 0.0129948165 -0.040726397 -0.03982402 0.058706503 0.04614453 0.027488077 0.00863947
0.06628867 -0.018001905 -0.086136125 0.017317234 -0.043786183 -0.03566558 -0.03833741 0.008681279
-0.030969044 -0.018922448 -0.011650029 -0.06717744 -0.0338229 0.003195164 -0.0042646877 -0.009770197
-0.004838176 -0.09884664 -0.11354684 0.017829418 0.014444392 0.00810749 -0.01562674 -0.03905538
0.0060530338 0.05074906 0.03609697 -0.0364197 -0.015863061 0.0037148944 0.026252748 0.008519086
0.03601583 0.02496262 0.010311616 0.026853465 0.0105676 -0.07218162 -0.0120147895 -0.0033454297
0.048949786 -0.036226515 -0.1091745 -0.027402801 -0.057489667 -0.030674584 0.02159252 -0.022120528
0.06790371 0.009074596 -0.03237395 0.03048445 0.04225789 -0.02926165 0.030518431 0.019993393
-0.03957697 0.009094061 0.0045382697 -0.05962708 -0.08485064 -0.024114389 0.020847661 0.003730012
-0.011821149 0.0023361125 -0.034359697 -0.026337076 -0.010985342 0.029022215 -0.032808177 0.018340783
0.03292179 -0.11330281 0.0061385147 0.003634117 -0.041582506 0.010341779 -0.05444935 0.00050350354
-0.03197714 0.026602507 -0.023261568 0.009813971 -0.026672726 -0.015274471 0.011141721 0.031123208
0.012186478 0.03174637 -2.1724538e-06 0.026355427 -0.01876931 -0.010958711 0.01546091 0.011184306
-0.03551552 -0.02765688 -0.015023199 -0.108233556 -0.024354706 0.066532545 -0.03254941 -0.06317093
-0.036949027 -0.02201002 0.023431338 0.01062035 -0.03353522 0.019756513 -0.0007330996 -0.025627408
00000000: 9e94 d5b9 179a a33c 08cf e53c ff15 27bc
00000010: 40a8 d43c dad0 abbd 5be3 3cbc 1a66 22bd
00000020: 817c 5e3c 36e8 543c b9d0 26bd 831e 23bd
00000030: 3b76 703d 0c02 3d3d ad2e e13c 908c 0d3c
00000040: 5bc2 873d bb78 93bc 2368 b0bd dfdc 8d3c
00000050: 2459 33bd 1216 12bd b007 1dbd ec3b 0e3c
00000060: cbb2 fdbc 4003 9bbc c3df 3ebc 5394 89bd
00000070: e289 0abd f565 513b cbbe 8bbb 2d13 20bc
00000080: 9089 9ebb 1b70 cabd 3f8b e8bd 000f 923c
00000090: 2ca8 6c3c 47d5 043c a603 80bc 89f8 1fbd
000000a0: 8758 c63b 3fde 4f3d 6bda 133d d32c 15bd
000000b0: 40f3 81bc 9675 733b 0110 d73c a393 0b3c
000000c0: 5685 133d 697e cc3c 0df2 283c ccfb db3c
000000d0: ba23 2d3c f5d3 93bd aed9 44bc ff3e 5bbb
000000e0: 927f 483d 4162 14bd e196 dfbd d77b e0bc
000000f0: 497a 6bbd 4449 fbbc cce2 b03c 1c36 b5bc
00000100: 1a11 8b3d 9dad 143c 8c9a 04bd 86ba f93c
00000110: 9c16 2d3d 21b6 efbc ca01 fa3c 2fc9 a33c
00000120: 761b 22bd 42ff 143c c4b5 943b 863b 74bd
00000130: 2cc6 adbd 8a8b c5bc b7c8 aa3c 3873 743b
00000140: 7ead 41bc 7719 193b c1bc 0cbd dac0 d7bc
00000150: ddfb 33bc ffbf ed3c de61 06bd 693f 963c
00000160: 00d9 063d 4e0b e8bd 9825 c93b 5e2a 6e3b
00000170: 6b52 2abd 9170 293c 4806 5fbd 8dfd 033a
00000180: 76fa 02bd 80ed d93c 0b8f bebc c7ca 203c
00000190: c380 dabc c641 7abc c48b 363c 19f6 fe3c
000001a0: cba9 473c 7b08 023d 79ca 11b6 56e7 d73c
000001b0: 19c2 99bc 2a8c 33bc c24f 7d3c 613e 373c
000001c0: b978 11bd ae90 e2bc dd23 76bc 8ea9 ddbd
000001d0: 8583 c7bc 3742 883d 8852 05bd c35f 81bd
000001e0: dd57 17bd 5c4e b4bc 14f3 bf3c fa00 2e3c
000001f0: 3a5c 09bd 69d8 a13c 7b2d 40ba 92f0 d1bc

action_model._continuous_distribution.log_sigma f4 [1, 2]
-1.3484161 -1.3581423
00000000: e698 acbf 9bd7 adbf

action_model._continuous_distribution.mu.weight f4 [2, 128]
-0.032988377 -0.037005663 0.013935207 0.000646591 -0.007969747 -0.00033144918 0.0021986982 -0.008459166
0.012092872 -0.0013868497 0.0032629292 -0.0012129407 -0.00117836 0.018959332 0.0021715374 0.019507317
-0.00299188 0.0111051425 0.0041226763 0.0042683585 -0.009069609 -0.00035524953 0.0033145328 -0.023161618
-0.0014729542 -0.009566589 0.0010359389 0.020872327 -0.00021281536 0.009269371 -0.0276163 0.0026924354
0.008869193 0.0031005193 0.012916004 -0.0043266905 0.020522278 0.016248804 0.007543469 0.00085442996
0.006315491 -0.013690112 -0.013521447 0.0045752954 -0.01534952 0.025427641 -0.014973004 -0.013773132
-0.010930244 -0.011036796 3.9791285e-05 0.036818445 -0.0021202022 0.018908462 0.0058216117 -0.0030063489
-0.027168127 0.0032322665 0.010200295 0.013406044 -0.012215725 -0.0122516025 0.009131906 -0.024484934
-0.00014313645 0.0057253726 -0.0059727128 -0.025969744 -0.0008651244 -0.03447896 -0.011272726 -0.02971241
0.00022026012 -0.0073191575 0.010910499 0.009080501 0.0068057245 0.004098623 -0.023918979 0.018546436
0.009160652 -0.0038133448 0.006684038 0.006337376 -0.0045544645 0.013775494 0.006180462 0.01134418
0.021407545 0.011611495 0.0063433764 0.0020149846 -0.00041656493 -0.0049707266 0.01436142 0.0051481808
-0.0040783794 -0.0060172663 0.008111238 0.008593361 0.005882172 0.0014042795 -0.0016783265 0.013353562
0.019015184 0.011874176 -0.020605577 0.004508482 0.014311321 0.016298624 -0.016702358 0.008000862
-0.0012763015 0.00083832565 0.00045230522 -0.002323331 -0.0066172406 0.00033087895 -0.0010478055 0.014104854
0.014191596 -0.0041583315 -0.0078066057 0.0034974376 -0.00035204628 0.0041498085 0.021203047 -0.011049904
0.011746038 0.028678985 0.0031785371 0.012285524 -0.014079113 0.026252585 0.0027150454 0.032879025
-0.047287814 -0.026103383 0.013240557 -0.0027428828 -0.0012681682 0.027751321 -0.02844295 0.005684103
-0.0003325438 0.03135912 0.0075998623 -0.037581317 -0.00038517732 0.029742675 0.002113148 0.024938824
0.013249788 0.021937905 -0.004759312 -0.016940296 0.0142121315 0.0062222024 0.0026787824 0.028142195
0.0061158254 0.018307447 0.006378515 -0.012281447 -0.0024372311 0.023058387 0.0028491952 0.01733685
0.009015275 -0.03942954 -0.03390545 -0.0022982892 0.04214665 0.018079251 0.013383631 0.06759204
0.008700101 -0.008928063 0.012040462 -0.033411358 0.014532321 0.020955559 0.037296887 -0.011632887
-0.072339006 0.024637917 0.0012482683 0.016975494 0.008205479 0.004206597 0.014683561 0.021473736
-0.014827275 0.014199561 0.02215691 -0.032654986 -0.013992072 0.033791922 -0.078131534 -0.03673524
0.016492551 -0.021858493 -0.0007128238 0.035841517 0.027994934 0.00377088 0.0029234833 -0.010681478
0.012864785 -0.0033014454 -0.012941706 0.034841273 -0.025188506 0.006022167 0.003314352 -0.0011406443
-0.059350137 0.011432748 0.019260632 -0.019513864 0.0095315175 0.011335682 -0.009006415 0.0050642714
0.02081804 -0.013337891 0.029633135 -0.011561133 0.038152453 0.009587689 0.0012124253 -0.02795125
0.024913086 -0.01869061 0.018526597 0.00085299584 0.018278342 0.00091930496 0.018231405 -0.002272739
0.017312724 0.018408677 0.017634433 0.011845804 0.01518529 -0.0017927758 0.0028463486 0.016019318
-0.010157568 -0.015802963 -0.038371302 0.006244077 0.014213705 0.0057967175 -0.036971416 0.015829582
00000000: d21e 07bd 4093 17bd 7f50 643c fd7f 293a
00000010: 8b93 02bc 5bc6 adb9 0918 103b 5098 0abc
00000020: 2e21 463c f4c6 b5ba ded6 553b 89fb 9eba
00000030: 3373 9aba 9a50 9b3c 5a50 0e3b cfcd 9f3c
00000040: 6b13 44bb 58f2 353c 8417 873b 96dd 8b3b
00000050: b398 14bc c940 bab9 a238 593b 6fbd bdbc
00000060: 2410 c1ba 2fbd 1cbc 57c8 873a 71fc aa3c
00000070: 3027 5fb9 8fde 173c 943b e2bc 9273 303b
00000080: 1750 113c 1532 4b3b a69d 533c e9c6 8dbb
00000090: 561e a83c 361c 853c 342f f73b d3fb 5f3a
000000a0: 2ef2 ce3b 7e4c 60bc 0f89 5dbc 5cec 953b
000000b0: 8e7c 7bbc a14d d03c 5551 75bc b4a8 61bc
000000c0: c414 33bc add3 34bc 91e5 2638 f0ce 163d
000000d0: 17f3 0abb ebe5 9a3c 38c3 be3b 2a06 45bb
000000e0: b18f debc 6fd4 533b 231f 273c 06a5 5b3c
000000f0: 7724 48bc f2ba 48bc fd9d 153c a194 c8bc
00000100: e616 16b9 e89b bb3b bfb6 c3bb 80be d4bc
00000110: 84c9 62ba cf39 0dbd 3db1 38bc 7167 f3bc
00000120: a0f5 6639 8bd5 efbb f3c1 323c 62c6 143c
00000130: 8e02 df3b be4d 863b bcf1 c3bc b2ee 973c
00000140: 8f16 163c 4fe9 79bb c605 db3b c3a9 cf3b
00000150: 9e3d 95bb 9cb2 613c 7985 ca3b f1dc 393c
00000160: e05e af3c 243e 3e3c 19dc cf3b d50d 043b
00000170: 6666 dab9 7ae1 a2bb 294c 6b3c 12b2 a83b
00000180: eda3 85bb 7d2c c5bb ffe4 043c 2bcb 0c3c
00000190: 3cbf c03b cd0f b83a 4bfb dbba e6c8 5a3c
000001a0: bbc5 9b3c e78b 423c 07cd a8bc e3bb 933b
000001b0: 087a 6a3c b184 853c 62d3 88bc 0c16 033c
000001c0: 9249 a7ba 15c3 5b3a 6123 ed39 0743 18bb
000001d0: 70d5 d8bb d279 ad39 8556 89ba 0c18 673c
000001e0: de83 683c 9d42 88bb 8ece ffbb 4435 653b
000001f0: da92 b8b9 1efb 873b 03b2 ad3c a80a 35bc
00000200: 7472 403c 31f0 ea3c 014f 503b 3949 493c
00000210: 14ac 66bc a90f d73c e7ee 313b 28ac 063d
00000220: deb0 41bd c3d6 d5bc ecee 583c f0c1 33bb
00000230: aa38 a6ba bd56 e33c 3101 e9bc b641 ba3b
00000240: 4659 aeb9 6c72 003d 4408 f93b deee 19bd
00000250: a0f1 c9b9 e9a6 f33c be7c 0a3b 814c cc3c
00000260: a415 593c 1fb7 b33c 01f4 9bbb 60c6 8abc
00000270: 00da 683c 9ee3 cb3b 838e 2f3b 768a e63c
00000280: 4367 c83b 80f9 953c dd02 d13b 1f38 49bc
00000290: f4b9 1fbb f1e4 bc3c 90b9 3a3b 0206 8e3c
000002a0: ceb4 133c df80 21bd 71e0 0abd e59e 16bb
000002b0: f7a1 2c3d f01a 943c 0447 5b3c b26d 8a3d
000002c0: de8a 0e3c 0347 12bc 5c45 453c 59da 08bd
000002d0: f918 6e3c feaa ab3c 9fc4 183d dd97 3ebc
000002e0: 7926 94bd 75d5 c93c ef9c a33a 3110 8b3c
000002f0: 4670 063c 7ed7 893b 5293 703c b0e9 af3c
00000300: 19ee 72bc 47a5 683c 6882 b53c 3cc1 05bd
00000310: 013f 65bc 6669 0a3d 6d03 a0bd b177 16bd
00000320: 631b 873c 9510 b3bc ccdc 3aba 8ece 123d
00000330: a255 e53c de20 773b e997 3f3b 5e01 2fbc
00000340: d2c6 523c 105d 58bb 7309 54bc b9b5 0e3d
00000350: 2058 cebc 9955 c53b 9935 593b ac81 95ba
00000360: 2119 73bd 6c50 3b3c 79c8 9d3c 8adb 9fbc
00000370: 152a 1c3c 4cb9 393c a48f 13bc 30f2 a53b
00000380: 988a aa3c 2b87 5abc 30c1 f23c e86a 3dbc
00000390: bf45 1c3d af15 1d3c 3eea 9e3a 05fa e4bc
000003a0: 8716 cc3c 0d1d 99bc 17c5 973c 959b 5f3a
000003b0: 76bc 953c 83fd 703a 075a 953c 3cf2 14bb
000003c0: 6ad3 8d3c cbcd 963c 1676 903c e714 423c
000003d0: b9cb 783c 93fb eaba ce89 3a3b f23a 833c
000003e0: ee6b 26bc 3775 81bc 3a2b 1dbd 1d9b cc3b
000003f0: 9ae0 683c 64f2 bd3b 576f 17bd 0aad 813c

action_model._continuous_distribution.mu.bias f4 [2]
-0.003995372 -0.012833981
00000000: 9ceb 82bb 9e45 52bc
