CS455_PR1/results/ShootTargetAgent/ShootTargetAgent/ShootTargetAgent-1946.onnx (onnx, 490268 bytes, 18 tensors)

discrete_act_size_vector f4 [1, 2]
50.0 50.0
00000000: 0000 4842 0000 4842

network_body.observation_encoder.processors.0.conv_layers.0.weight f4 [16, 1, 8, 8]
-0.018479224 -0.0891785 -0.11202968 0.024069237 0.0030812444 0.014100321 0.12447911 -0.020195074
0.06616922 0.014150193 -0.08664201 0.015339638 0.11483342 0.029574165 0.1240186 -0.07636627
-0.009490404 0.12484809 0.072278924 0.0155510465 -0.09445727 -0.037980337 0.13309157 0.035497915
0.04974561 -0.0069927294 -0.02589452 -0.07044168 -0.10949516 0.050887227 0.029383732 0.020853879
-0.06695933 0.037857193 0.051929165 -0.09395585 -0.0037160993 -0.08293725 0.006842609 -0.0677348
-0.030328406 0.07676502 0.11575987 0.08514653 0.11738483 0.09642293 0.11924341 0.07470335
0.09840888 -0.061968498 0.10646092 0.11576204 -0.01292931 0.026556605 0.13115634 0.06681339
0.1111078 0.06590217 0.09783521 -0.03008372 0.03421764 0.12989691 0.023557233 0.09457733
0.053810682 -0.018958861 -0.05441067 -0.07174567 -0.10044184 0.0955358 -0.1415982 0.027708381
0.0010650092 -0.028808903 -0.055673603 0.005663814 -0.11725728 -0.093126796 0.015814492 -0.1344378
0.03517954 0.09909237 -0.0069908844 0.0067500365 0.0696744 0.08661155 0.04361872 0.045716625
-0.06773675 -0.08563663 -0.042733308 -0.01955985 -0.0013433315 0.036730055 -0.12692769 -0.0491542
-0.10898156 -0.04162612 -0.070811965 0.10161322 0.08279292 0.10609317 0.051516227 0.06370404
0.072653614 0.021630066 0.013905566 -0.10871689 -0.13892777 -0.098748416 0.044245582 0.09136365
0.0114734275 0.10907522 0.043340106 -0.11520009 -0.011447516 -0.065224834 0.09941108 -0.08904298
-0.11806264 0.011781554 -0.08328427 0.0013410627 0.12491969 -0.13428435 0.08992112 -0.046216592
0.050174363 -0.089886025 -0.06439366 -0.022680229 -0.07892374 0.08288338 -0.07313817 -0.016893744
0.03369753 0.08358394 -0.050166853 0.10354335 0.117664255 -0.054147583 0.066229865 0.07416541
-0.014461178 0.023087721 -0.008818878 -0.09453607 0.014461456 -0.01952511 -0.089429036 -0.049934946
0.022884576 0.060437754 0.038879674 -0.05900682 -0.103046104 0.003956388 -0.09893559 -0.09841915
0.016729582 -0.076704375 -0.06752352 0.07326082 0.037090708 0.109053105 0.029806323 0.026522648
-0.016591659 0.07236952 0.009098855 0.034167726 0.09601964 0.033019364 0.013561226 -0.12825336
0.08405147 0.011055629 0.009654216 -0.016629556 -0.08571612 -0.08966258 0.057401836 -0.08083774
-0.1062938 0.043004766 0.11683292 0.1150408 -0.113443635 0.044394862 0.070314854 -0.05963626
-0.041143373 -0.11085148 0.10967401 -0.113052264 0.08422839 0.05833457 0.0457799 -0.04320931
0.079357915 0.08624092 -0.0068951924 -0.02440169 -0.033894736 -0.0015429404 -0.19527587 -0.14522946
0.0718212 0.028450044 0.059408136 -0.060567636 0.077755116 0.06332822 -0.16659711 -0.171371
-0.0018597337 -0.04124879 -0.097839646 -0.06504446 0.0046708845 -0.12207267 -0.12836164 -0.03722562
0.11970148 -0.07460285 -0.022110732 0.040934857 -0.09888693 -0.115730904 0.011161697 -0.07047422
0.04363105 -0.13018766 0.01890338 0.08248142 -0.03546085 -0.046650287 -0.07424141 0.018308317
0.045640863 -0.030513344 0.05856882 -0.076202855 0.063791834 -0.030095544 -0.014919562 -0.07356954
0.051233057 -0.11894317 -0.090687454 -0.120038986 0.073040254 0.031245409 -0.08233204 -0.11301603
00000000: be61 97bc 38a3 b6bd d16f e5bd d92c c53c
00000010: b4ee 493b 0805 673c e7ee fe3d 2470 a5bc
00000020: ba83 873d 36d6 673c 5e71 b1bd 1b53 7b3c
00000030: c92d eb3d 8545 f23c 77fd fd3d eb65 9cbd
00000040: a47d 1bbc 5bb0 ff3d f906 943d d1c9 7e3c
00000050: d072 c1bd 4591 1bbd 2849 083e 4366 113d
00000060: 0ec2 4b3d 4423 e5bb bf20 d4bc ba43 90bd
00000070: 003f e0bd 206f 503d 27b6 f03c c1d5 aa3c
00000080: f921 89bd 2510 1b3d adb3 543d ed6b c0bd
00000090: cd89 73bb 01db a9bd f737 e03b 8bb8 8abd
000000a0: 4773 f8bc fb36 9d3d 8313 ed3d 4e61 ae3d
000000b0: 7567 f03d 6379 c53d e435 f43d 12fe 983d
000000c0: 988a c93d aed2 7dbd 2f08 da3d a614 ed3d
000000d0: 75d5 53bc 3d8d d93c d94d 063e 75d5 883d
000000e0: 7c8c e33d b8f7 863d d45d c83d 2272 f6bc
000000f0: cc27 0c3d b203 053e 19fb c03c c2b1 c13d
00000100: 9768 5c3d 9d4f 9bbc b9dd 5ebd 65ef 92bd
00000110: 74b4 cdbd 46a8 c33d 1eff 10be b0fc e23c
00000120: c797 8b3a a600 ecbc 010a 64bd 8497 b93b
00000130: 9624 f0bd 43b9 bebd 658d 813c 10aa 09be
00000140: 6c18 103d f1f0 ca3d ca13 e5bb 692f dd3b
00000150: 74b1 8e3d 6561 b13d 8ba9 323d 5b41 3b3d
00000160: 91b9 8abd 4262 afbd 1f09 2fbd fb3b a0bc
00000170: ba12 b0ba 4172 163d 55f9 01be ea55 49bd
00000180: b931 dfbd 2780 2abd dd05 91bd 981a d03d
00000190: 568f a93d 6047 d93d ae02 533d 4477 823d
000001a0: 6bcb 943d 8931 b13c 2cd4 633c f6a6 debd
000001b0: 1543 0ebe 9c3c cabd db3a 353d de1c bb3d
000001c0: 0bfb 3b3c d462 df3d 6585 313d 06ee ebbd
000001d0: 5d8e 3bbc 9994 85bd 0998 cb3d 2a5c b6bd
000001e0: d3ca f1bd 6b07 413c f190 aabd 99c6 af3a
000001f0: e5d5 ff3d d681 09be 9028 b83d 9c4d 3dbd
00000200: a283 4d3d 2a16 b8bd d3e0 83bd e3cb b9bc
00000210: c5a2 a1bd c3be a93d 77c9 95bd c064 8abc
00000220: 6c06 0a3d 0f2e ab3d c27b 4dbd 890e d43d
00000230: f5f9 f03d dbc9 5dbd 86a3 873d 09e4 973d
00000240: 94ee 6cbc 7622 bd3c 0e7d 10bc 219c c1bd
00000250: beef 6c3c 20f3 9fbc 9226 b7bd 9688 4cbd
00000260: 6f78 bb3c 948d 773d 4b40 1f3d 23b1 71bd
00000270: d609 d3bd 97a4 813b be9e cabd fb8f c9bd
00000280: 7a0c 893c 2f17 9dbd c549 8abd c509 963d
00000290: 6dec 173d 3c57 df3d 642c f43c 0646 d93c
000002a0: 3beb 87bc 7936 943d 5d13 153c 75f3 0b3d
000002b0: f2a5 c43d 503f 073d e82f 5e3c d954 03be
000002c0: 2d23 ac3d ab22 353c b72c 1e3c b53a 88bc
000002d0: ef8b afbd 04a1 b7bd 301e 6b3d 428e a5bd
000002e0: 90b0 d9bd c425 303d 1946 ef3d 839a eb3d
000002f0: 2355 e8bd 63d7 353d 3c01 903d 2745 74bd
00000300: f485 28bd 1a06 e3bd c49c e03d f287 e7bd
00000310: ef7f ac3d 3bf0 6e3d b483 3b3d 3ffc 30bd
00000320: 6786 a23d 149f b03d 11f1 e1bb 0ee6 c7bc
00000330: 35d5 0abd 7d3c caba 66f6 47be 08b7 14be
00000340: fe16 933d 1110 e93c f255 733d c515 78bd
00000350: 133e 9f3d 3ab2 813d 6f98 2abe e17b 2fbe
00000360: 4fc2 f3ba 7ef4 28bd 2760 c8bd 0836 85bd
00000370: 380e 993b 3c01 fabd 3c71 03be e479 18bd
00000380: 0d26 f53d 61c9 98bd 9121 b5bc 4fab 273d
00000390: 3b85 cabd 5304 edbd 8ddf 363c ca54 90bd
000003a0: 79b6 323d ea4f 05be 43db 9a3c 05ec a83d
000003b0: 653f 11bd 5f14 3fbd e10b 98bd 53fb 953c
000003c0: eaf1 3a3d 1ff7 f9bc dce5 6f3d 3e10 9cbd
000003d0: 4ba5 823d ee8a f6bc 2e71 74bc a1ab 96bd
000003e0: c1d9 513d 7a98 f3bd 58ba b9bd 00d7 f5bd
000003f0: 2196 953d 5ff6 ff3c b39d a8bd f374 e7bd

network_body.observation_encoder.processors.0.conv_layers.0.bias f4 [16]
-0.04670704 -0.008078995 0.0052536507 -0.027241265 -0.121291004 -0.08749501 -0.021712713 -0.019327126
0.022678403 0.04119618 -0.0039941114 -0.0057092635 -0.055344433 -0.056380983 0.004175317 -0.045857295
00000000: e24f 3fbd c35d 04bc d126 ac3b 1329 dfbc
00000010: 6b67 f8bd 9530 b3bd dcde b1bc ec53 9ebc
00000020: 0fc8 b93c 53bd 283d 09e1 82bb c614 bbbb
00000030: d8b0 62bd bfef 66bd 19d1 883b dcd4 3bbd

network_body.observation_encoder.processors.0.conv_layers.2.weight f4 [32, 16, 4, 4]
0.04329517 -0.012534489 -0.008562393 0.025213039 -0.028213248 0.036509756 0.05578568 0.018053371
-0.09574025 -0.033742055 0.0033396774 -0.03601488 0.035187043 0.023235552 0.033205725 -0.0683397
-0.01675829 0.031560905 0.02800718 -0.017307816 0.039514415 -0.057011448 0.028328104 -0.05000804
-0.055238996 -0.007263639 0.05999637 0.0011403739 -0.022099447 -0.04879381 0.022998033 -0.010975432
-0.04476986 0.059246786 -0.057447605 0.037162714 -0.072435044 0.031639393 0.047927957 -0.042745862
-0.028165907 -0.024849623 0.084766075 -0.0077808886 -0.001380043 -0.06022065 0.072463065 -0.012862197
-0.018678568 -0.011102771 0.03180942 0.00032092622 -0.004404406 0.04717649 -0.05872832 0.05290446
-0.009034828 -0.032048237 0.047145803 0.029093685 0.023964623 -0.08035854 0.023520626 0.06511347
0.04942315 -0.023411267 -0.0021261708 -0.011085469 0.055561192 0.027940325 0.0088994745 -0.06337449
-0.03984093 -0.10801406 0.041836962 0.0010851965 0.06838948 -0.006903926 -0.060376123 0.013226539
-0.074450836 -0.0023340355 -0.02750791 0.012802479 -0.03906634 -0.038484853 -0.020421335 0.047786266
0.039490495 -0.044465713 0.023662612 -0.076212965 -0.025012832 -0.03374635 -0.0050063115 0.027002841
0.008894515 -0.030523682 -0.0339874 0.0055337693 -0.039411414 -0.055006545 -0.086783975 -0.05626748
0.025692565 -0.05409977 0.09530632 -0.04850863 -0.031134892 -0.06581311 -0.008297011 0.10606222
0.06806031 -0.022696914 0.038252346 -0.04240167 0.015981209 0.070178725 -0.011280596 -0.008587196
-0.023932546 0.082533814 0.079938605 -0.017475564 -0.06516568 -0.026811492 -0.0011147918 0.025757296
0.060975965 -0.052815504 0.04403981 0.025584541 -0.049094345 0.07082282 0.025578229 0.056914307
-0.02650286 0.015507029 0.05961187 0.031890184 -0.041122593 -0.01896466 0.08851763 0.046328913
-0.0053756605 -0.07017901 -0.030315584 -0.028467624 0.014388104 0.041240014 0.049207717 -0.060915485
-0.003630952 0.0074859415 -0.009407104 -0.026281603 -0.08623251 0.0642115 0.047476552 -0.06064634
-0.03885648 -0.021250973 0.0029291236 0.009914075 -0.014333843 -0.019650562 0.008515175 -0.049318068
-0.080265604 -0.060911205 -0.07574328 0.013362495 -0.0056035495 0.005281652 -0.004617321 0.0044802153
0.044350494 -0.022126395 0.023711093 0.0045268764 -0.052579377 0.020612922 0.027392538 0.00672817
0.02424711 -0.017655909 0.005982842 -0.011304505 0.04999931 -0.09990711 -0.06919693 0.01619337
0.009870833 -0.0410176 -0.033726603 -0.04526305 0.02077691 -0.024914656 -0.005750222 -0.05251993
0.00959961 0.0902797 0.08785531 -0.013438412 -0.050979 -0.02058214 0.11355693 0.04205883
-0.049604777 0.06919974 -0.021448122 0.031635217 0.04472841 0.05187065 -0.06085035 -0.07894183
-0.065728225 -0.03381737 0.013399556 -0.083647795 0.012190568 0.027685545 -0.025909286 -0.08883053
-0.02331567 -0.04060489 0.031580232 0.06364738 -0.038114022 0.018386371 -0.022948133 -0.11286363
0.043677296 -0.065638356 0.0265711 0.020876525 0.027438883 0.0050852 0.04200646 0.02674969
0.018148795 -0.065362416 0.027567944 0.029573904 -0.038017288 -0.06751399 0.016437238 -0.0066355187
-0.07274688 -0.10597841 -0.010121871 0.04017371 -0.05879666 -0.041679483 0.053368185 0.025064014
00000000: 4756 313d 755d 4dbc 4749 0cbc 938b ce3c
00000010: 781f e7bc 418b 153d 867f 643d aae4 933c
00000020: 7713 c4bd 1c35 0abd 7dde 5a3b 5784 13bd
00000030: 4a20 103d 7c58 be3c ba02 083d aff5 8bbd
00000040: ae48 89bc 0246 013d 506f e53c 1fc9 8dbc
00000050: ded9 213d d684 69bd 5710 e83c 3bd5 4cbd
00000060: 4942 62bd d203 eebb c1be 753d 9978 953a
00000070: e609 b5bc 05dc 47bd 5f66 bc3c 4cd2 33bc
00000080: 9a60 37bd c2ac 723d 2e4e 6bbd ee37 183d
00000090: d358 94bd 4f98 013d 1b50 443d 4916 2fbd
000000a0: 30bc e6bc 7091 cbbc d699 ad3d d3f6 febb
000000b0: 8fe2 b4ba eea9 76bd 8467 943d f7bb 52bc
000000c0: cc03 99bc 66e8 35bc 984a 023d fd41 a839
000000d0: d652 90bb 233c 413d 1b8d 70bd 59b2 583d
000000e0: d106 14bc 0345 03bd f51b 413d e155 ee3c
000000f0: 7551 c43c 0593 a4bd 54ae c03c 365a 853d
00000100: ee6f 4a3d fcc8 bfbc 3a57 0bbb d49f 35bc
00000110: 2294 633d 1ce3 e43c 1acf 113c 7cca 81bd
00000120: 3e30 23bd 7a36 ddbd 3c5d 2b3d 273d 8e3a
00000130: c90f 8c3d 543a e2bb f44c 77bd 20b4 583c
00000140: ae79 98bd 9ef6 18bb 4558 e1bc 7dc1 513c
00000150: 0704 20bd 4ba2 1dbd a54a a7bc 88bb 433d
00000160: c9c0 213d ae21 36bd 18d8 c13c 8b15 9cbd
00000170: b6e7 ccbc 9d39 0abd fc0b a4bb 1035 dd3c
00000180: 4dba 113c cd0c fabc 5f36 0bbd 9f54 b53b
00000190: dd6d 21bd 8b4e 61bd ccbb b1bd bb78 66bd
000001a0: 3779 d23c b897 5dbd f62f c33d fcb0 46bd
000001b0: 9a0e ffbc 06c9 86bd 30f0 07bc 2637 d93d
000001c0: 3463 8b3d e1ee b9bc 7eae 1c3d 60ad 2dbd
000001d0: 06eb 823c ddb9 8f3d 40d2 38bc 4fb1 0cbc
000001e0: 300e c4bc 7d07 a93d dab6 a33d ea28 8fbc
000001f0: 9675 85bd c6a3 dbbc 351e 92ba f700 d33c
00000200: efc1 793d 1255 58bd 1663 343d ac96 d13c
00000210: 2717 49bd 8e0b 913d 6f89 d13c fa1e 693d
00000220: 871c d9bc 3211 7e3c 942b 743d 489f 023d
00000230: 2a70 28bd c65b 9bbc bb48 b53d 63c3 3d3d
00000240: 4f26 b0bb 03ba 8fbd 6358 f8bc ef34 e9bc
00000250: 15bc 6b3c 4aeb 283d 088e 493d 8482 79bd
00000260: 44f5 6dbb a14c f53b 4120 1abc 844c d7bc
00000270: ac9a b0bd 5281 833d c676 423d 4c68 78bd
00000280: f927 1fbd 8516 aebc 8af6 3f3b a56e 223c
00000290: 7fd8 6abc 37fa a0bc 3c83 0b3c be01 4abd
000002a0: 4b62 a4bd 077e 79bd 4b1f 9bbd 5eee 5a3c
000002b0: fb9d b7bb b511 ad3b e54c 97bb c5ce 923b
000002c0: dda8 353d 6a42 b5bc c43d c23c 3156 943b
000002d0: 795d 57bd 6edc a83c 5166 e03c fb77 dc3b
000002e0: e0a1 c63c 20a3 90bc b70b c43b 8836 39bc
000002f0: 14cc 4c3d 199c ccbd 1fb7 8dbd f5a7 843c
00000300: 46b9 213c 1202 28bd e824 0abd bf65 39bd
00000310: 5734 aa3c d219 ccbc 5c6c bcbb 231f 57bd
00000320: af47 1d3c 90e4 b83d 7ced b33d c92c 5cbc
00000330: 5bcf 50bd e09b a8bc 8990 e83d e145 2c3d
00000340: 612e 4bbd 98b8 8d3d f9b3 afbc ee93 013d
00000350: 2335 373d 5276 543d 373e 79bd 41ac a1bd
00000360: 859c 86bd 1584 0abd d089 5b3c 894f abbd
00000370: f3ba 473c cccc e23c b63f d4bc c8ec b5bd
00000380: 8100 bfbc 5051 26bd 465a 013d 8f59 823d
00000390: 731d 1cbd 049f 963c b9fd bbbc 0c25 e7bd
000003a0: f7e6 323d 676d 86bd a3ab d93c 3f05 ab3c
000003b0: 82c7 e03c c0a1 a63b f70e 2c3d 2a22 db3c
000003c0: c8ac 943c bbdc 85bd 2bd6 e13c f944 f23c
000003d0: 04b8 1bbd c644 8abd 63a7 863c c46e d9bb
000003e0: 51fc 94bd 350b d9bd 34d6 25bc 308d 243d
000003f0: c4d4 70bd 1bb8 2abd 9998 5a3d 0c53 cd3c

network_body.observation_encoder.processors.0.conv_layers.2.bias f4 [32]
-0.07062547 0.0065278914 -0.02953707 0.0027049552 -0.10126674 -0.060187902 -0.0025406135 -0.005476629
0.055582803 -0.024424829 -0.026066994 0.027568057 0.016995342 -0.021635251 -0.028464852 -0.018781323
0.004224891 0.025083935 -0.05527097 -0.005949043 -0.045362484 0.0034935572 -0.026963599 -0.06747374
-0.031913247 -0.025893198 0.0010215342 -0.007719611 -0.044163994 -0.054638155 -0.09166807 0.02983612
00000000: 16a4 90bd ece7 d53b baf7 f1bc 9e45 313b
00000010: f064 cfbd 9787 76bd 6c80 26bb 4b75 b3bb
00000020: cbaa 633d 9416 c8bc 738a d5bc 68d6 e13c
00000030: d139 8b3c 693c b1bc 1f2f e9bc 4adb 99bc
00000040: f470 8a3b d37c cd3c d063 62bd 31f0 c2bb
00000050: 03ce 39bd 2af4 643b c4e2 dcbc ac2f 8abd
00000060: 77b7 02bd f91d d4bc 00e5 853a caf4 fcbb
00000070: 4ee5 34bd 42cc 5fbd 78bc bbbd e16a f43c

network_body.observation_encoder.processors.0.dense.0.weight f4 [128, 512]
-0.07425977 -0.03126267 0.044779014 0.06592585 0.0005280885 -0.09868404 -0.035083976 0.13204126
-0.015549677 -0.12659425 0.015403432 -0.09549806 -0.049525462 0.03755867 0.051569317 0.0027647596
-0.020422315 0.005457827 -0.029804625 0.09899088 0.07151904 -0.112209074 -0.049343813 0.06859404
0.060112886 0.028860487 -0.124242164 -0.0430875 -0.051051572 -0.014700479 0.016992636 0.15369943
0.0011320069 0.07797174 0.0519601 -0.056894038 -0.03625887 0.018222325 0.035002295 0.12843078
-0.091597356 -0.021876508 -0.16814564 0.06617391 -0.012213066 -0.016089343 0.05152993 -0.12956128
-0.020028537 0.014154257 0.10106412 0.02481329 -0.08723425 -0.010016182 -0.014929394 -0.017737394
-0.053315528 -0.033922724 -0.13360503 -0.04352986 0.011717999 0.008532672 0.08273185 0.035537586
0.04512281 0.0031543595 -0.07134721 -0.025459897 0.07231626 0.045452777 -0.10040828 -0.019115338
-0.06740721 -0.007896452 0.18116127 -0.027004577 0.16350688 -0.069242105 -0.07149662 0.13554823
-0.08855929 -0.036797088 -0.046169743 -0.052723106 0.0013218778 -0.086451 -0.05644478 0.0086524915
0.018848551 -0.078119345 0.031470843 0.05898629 -0.047672007 0.0037115419 -0.054038685 0.0045041246
-0.012636197 0.01392904 -0.0017862405 -0.04637944 -0.025704883 0.09208027 0.02914263 0.033761863
0.022113586 0.12878197 0.04701024 -0.0035984775 -0.08574785 0.05303985 -0.024232462 -0.0059277285
0.123918325 0.094083734 0.05361927 0.008205759 0.04047368 -0.022075757 0.027436187 0.06136254
-0.023178658 -0.019877367 0.1457662 -0.0548815 0.0031665259 -0.11088922 -0.07429453 0.05160101
-0.017921776 -0.077255026 0.21640064 0.03095112 -0.04498931 -0.061751638 0.10081783 0.026131343
0.107675664 -0.01895923 -0.02462288 0.010871423 -0.09852319 0.0053663 0.07870378 0.012691908
-0.04105994 0.025207251 -0.0441016 0.04098826 -0.0379634 0.10103529 -0.107496895 -0.03490335
-0.05275378 0.048463147 0.020466246 -0.033665728 0.00027290144 -0.01579531 -0.009861724 -0.068570375
0.005078473 0.051517785 -0.014442928 -0.027881468 -0.02234912 -0.05541465 0.14613736 0.0038673864
0.046137925 0.055246882 -0.0966694 0.08964852 0.025184715 -0.020012027 -0.025015252 0.08809028
0.02110628 -0.07459651 -0.14083625 -0.0005423976 -0.07802574 -0.024347918 0.08111661 0.023451123
0.028024552 -0.054889277 -0.055025004 0.019557523 -0.0066137346 -0.04763654 0.052740555 -0.043447386
-0.024578985 -0.007528763 -0.007520079 -0.048490435 -0.036629908 0.048603456 -0.04042541 -0.037139557
0.024305949 -0.060089972 -0.009462187 0.06920971 -0.022291174 -0.09438473 -0.116990805 -0.06992485
-0.037850283 -0.043405578 -0.040924598 -0.10654424 -0.022242496 -0.1184331 -0.044181753 -0.06717624
0.12170145 0.04943719 -0.13834967 0.024537452 -0.09303406 0.14438897 0.043170664 -0.12883665
0.018394783 0.05998864 0.046467196 -0.051560044 -0.09478066 0.03201783 0.011542696 -0.05164182
-0.02789279 0.02867642 -0.022102946 0.023937518 -0.051883616 -0.06269782 -0.02540462 -0.118292786
-1.954453e-05 -0.042452887 0.1423049 0.12679718 -0.020284098 0.09988485 -0.11131391 -0.046555374
-0.045953996 0.00976885 -0.0142500745 -0.023204735 0.048724722 -0.045759574 -0.016265932 -0.14703955
00000000: 8215 98bd 490d 00bd 336a 373d 2204 873d
00000010: 6b6f 0a3a dc1a cabd 37b4 0fbd d335 073e
00000020: 13c4 7ebc eca1 01be ad5e 7c3c 7d94 c3bd
00000030: 36db 4abd 1fd7 193d 593a 533d f830 353b
00000040: b34c a7bc 92d7 b23b d428 f4bc bbbb ca3d
00000050: 9378 923d dfcd e5bd bd1c 4abd 087b 8c3d
00000060: ee38 763d d46c ec3c ad72 febd 857c 30bd
00000070: 741b 51bd 47da 70bc 2434 8b3c 6263 1d3e
00000080: d95f 943a a6af 9f3d 1dd4 543d b909 69bd
00000090: 2e84 14bd fc46 953c 915e 0f3d 5c83 033e
000000a0: 6597 bbbd 5d36 b3bc 5f2e 2cbe 3086 873d
000000b0: 5019 48bc cccd 83bc 0c11 533d b6ab 04be
000000c0: e312 a4bc 42e7 673c b5fa ce3d 3e45 cb3c
000000d0: dfa7 b2bd ea1a 24bc 6b9a 74bc 034e 91bc
000000e0: 6261 5abd 8ef2 0abd c2cf 08be 5e4c 32bd
000000f0: dafc 3f3c 9fcc 0b3c 516f a93d dc8f 113d
00000100: b2d2 383d 5fb9 4e3b 7c1e 92bd 4691 d0bc
00000110: 8c1a 943d b12c 3a3d dba2 cdbd c597 9cbc
00000120: cb0c 8abd 1f60 01bc 5782 393e b438 ddbc
00000130: 596e 273e cece 8dbd d26c 92bd 28cd 0a3e
00000140: 935e b5bd 8bb8 16bd 7c1c 3dbd 2ff4 57bd
00000150: dc42 ad3a 390d b1bd a432 67bd 2ec3 0d3c
00000160: 4768 9a3c 09fd 9fbd 92e7 003d 9c9b 713d
00000170: b943 43bd 573d 733b ab57 5dbd 5697 933b
00000180: 0d08 4fbc a136 643c 4920 eaba 5ef8 3dbd
00000190: 0c93 d2bc 9594 bc3d 86bc ee3c e149 0a3d
000001a0: 8d27 b53c 6cdf 033e cf8d 403d 6fd4 6bbb
000001b0: 929c afbd 5040 593d 2883 c6bc 643d c2bb
000001c0: e4c8 fd3d f9ae c03d e19f 5b3d 7371 063c
000001d0: bbc7 253d 38d8 b4bc dbc1 e03c 4957 7b3d
000001e0: 2be1 bdbc dcd5 a2bc bc43 153e 6ccb 60bd
000001f0: 7d85 4f3b e319 e3bd bb27 98bd 955b 533d
00000200: b0d0 92bc e237 9ebd 2198 5d3e 348d fd3c
00000210: b646 38bd 49ef 7cbd 9479 ce3d 6611 d63c
00000220: 0f85 dc3d 6350 9bbc ecb5 c9bc 0e1e 323c
00000230: 87c6 c9bd cad7 af3b 732f a13d b8f1 4f3c
00000240: 782e 28bd 707f ce3c e1a3 34bd 4ee3 273d
00000250: 837f 1bbd 97eb ce3d 5527 dcbd d1f6 0ebd
00000260: 5914 58bd 4b81 463d d4a8 a73c 13e5 09bd
00000270: 3614 8f39 2a65 81bc 1293 21bc a06e 8cbd
00000280: 5269 a63b 5004 533d 08a2 6cbc ad67 e4bc
00000290: 8015 b7bc 79fa 62bd 08a5 153e fa73 7d3b
000002a0: 1ffb 3c3d 8e4a 623d 9bfa c5bd a599 b73d
000002b0: 2d50 ce3c 43f0 a3bc c9ec ccbc ad68 b43d
000002c0: 14e7 ac3c 0ec6 98bd 6137 10be b02f 0eba
000002d0: f6cb 9fbd 4975 c7bc 7720 a63d 921c c03c
000002e0: bf93 e53c 94d3 60bd e661 61bd 1937 a03c
000002f0: 07b8 d8bb 881e 43bd 7b06 583d e3f5 31bd
00000300: de59 c9bc d7b3 f6bb ff6a f6bb e89d 46bd
00000310: 3e09 16bd 6b14 473d 1d95 25bd a61f 18bd
00000320: 451d c73c e720 76bd 4a07 1bbc d2bd 8d3d
00000330: fb9b b6bc c84c c1bd e098 efbd c234 8fbd
00000340: e608 1bbd 0cca 31bd 8da0 27bd de33 dabd
00000350: e535 b6bc 0e8d f2bd edf7 34bd b293 89bd
00000360: 9c3e f93d a77e 4a3d 89ab 0dbe c402 c93c
00000370: a488 bebd b4da 133e b9d3 303d c1ed 03be
00000380: a8b0 963c a6b6 753d 6354 3e3d a030 53bd
00000390: 5d1c c2bd 2125 033d 931d 3d3c 6086 53bd
000003a0: 6c7f e4bc d0ea ea3c 3d11 b5bc 9d18 c43c
000003b0: ea83 54bd b767 80bd 5a1d d0bc 7d43 f2bd
000003c0: 8ff3 a3b7 14e3 2dbd 60b8 113e 1fd7 013e
000003d0: d62a a6bc 6e90 cc3d 8cf8 e3bd d9b0 3ebd
000003e0: 423a 3cbd 870d 203c 2579 69bc db17 bebc
000003f0: 9393 473d 646e 3bbd 2240 85bc 8991 16be

network_body.observation_encoder.processors.0.dense.0.bias f4 [128]
-0.011601364 0.023981249 0.012479892 0.0389602 -0.005762781 0.010131058 -0.011688203 0.008600704
-0.0061868536 -0.0377722 0.033542734 0.024706777 -0.047793336 -0.022330636 -0.033368945 0.0135334125
0.020811208 0.0071422053 0.02673264 -0.0493367 -0.012379662 -0.00047985386 0.019168766 -0.0103902975
-0.04331645 -0.00055978145 0.027122965 0.033616323 0.020317258 -7.1623924e-07 -0.021601085 0.0021204855
0.016984079 0.0024269223 -0.013101489 0.037573464 0.012829082 -0.007532294 -0.029898748 -0.0032511158
0.02543379 -0.023794478 0.019300297 -0.045949817 0.0039799213 -0.0070893583 -0.050143734 0.044733558
0.037950043 0.04466306 -0.0022640964 -0.03221908 -0.026494786 0.044981223 0.002346773 -0.019601995
0.04665601 -0.023106512 -0.0017726396 0.022351684 -0.028312434 0.024303647 -0.0013165588 -0.044718172
-0.009800487 -0.012619986 -0.013824163 -0.025515733 0.053606022 0.04399709 0.024226008 -0.002562584
0.034842204 0.04615683 0.01951559 -0.0062916954 -0.019191923 0.039810456 0.064628944 -0.014329387
0.022503374 0.019411776 0.009945699 -0.03250575 -0.008106345 0.036829267 -0.039504874 0.0363877
0.014730528 -0.042688295 0.0138248755 -0.04830444 0.0045481767 0.0365115 -0.043835375 0.033860866
0.053573728 0.04806571 0.018973112 0.036148433 -0.0053352816 0.014991105 0.048958708 0.01562648
0.03547779 0.004873321 0.010914212 0.008122914 0.007351294 0.050221723 0.04299349 0.010048282
0.0019739913 0.016900843 0.036625396 -0.015758047 0.02842504 0.027016655 0.015486332 -0.035046965
0.015195371 0.034384094 0.04622797 -0.02199002 -0.0041834093 -0.0015804197 -0.014069193 0.03601983
00000000: a613 3ebc 5374 c43c 7678 4c3c bb94 1f3d
00000010: b6d5 bcbb bdfc 253c e07f 3fbc f8e9 0c3c
00000020: 17bb cabb 06b7 1abd 1b64 093d de65 ca3c
00000030: f2c2 43bd bdee b6bc e0ad 08bd 3fbb 5d3c
00000040: 447c aa3c 2909 ea3b 69fe da3c 4815 4abd
00000050: 11d4 4abc e594 fbb9 d107 9d3c 113c 2abc
00000060: 976c 31bd 4cbe 12ba fb30 de3c 45b1 093d
00000070: 6170 a63c 9643 40b5 c2f4 b0bc d8f7 0a3b
00000080: 3222 8b3c 000d 1f3b a1a7 56bc a2e6 193d
00000090: 1231 523c 76d1 f6bb 38ee f4bc ac10 55bb
000000a0: 865a d03c a3ec c2bc a81b 9e3c e035 3cbd
000000b0: 006a 823b d94d e8bb 8463 4dbd 893a 373d
000000c0: 8171 1b3d 9df0 363d 3c61 14bb 27f8 03bd
000000d0: 980b d9bc 3b3e 383d 51cc 193b 5d94 a0bc
000000e0: 5f1a 3f3d de49 bdbc ea57 e8ba e11a b73c
000000f0: 7aef e7bc 7118 c73c 6290 acba 672a 37bd
00000100: 3992 20bc 0fc4 4ebc be7e 62bc 5f06 d1bc
00000110: fd91 5b3d 4b36 343d 9f75 c63c 06f1 27bb
00000120: b3b6 0e3d f20e 3d3d 29df 9f3c 912a cebb
00000130: 6138 9dbc 4a10 233d 2e5c 843d cec5 6abc
00000140: ff58 b83c 7205 9f3c 49f3 223c c024 05bd
00000150: 7ad0 04bc 49da 163d ddcf 21bd 450b 153d
00000160: 5058 713c ecd9 2ebd bb81 623c e0da 45bd
00000170: df08 953b 158d 153d b98c 33bd b1b1 0a3d
00000180: 2070 5b3d 8de0 443d 806d 9b3c 6110 143d
00000190: 96d3 aebb 409d 753c ed88 483d 1b03 803c
000001a0: 2951 113d 61b0 9f3b 86d1 323c f815 053c
000001b0: 20e3 f03b 4bb5 4d3d f119 303d 8da1 243c
000001c0: 145e 013b a373 8a3c 8304 163d 0517 81bc
000001d0: a1db e83c 0852 dd3c 62ba 7d3c 688d 0fbd
000001e0: 01f6 783c 56d6 0c3d 8a59 3d3d 6a24 b4bc
000001f0: fb14 89bb 1626 cfba 7982 66bc 8789 133d

network_body._body_endoder.seq_layers.0.weight f4 [128, 128]
-0.039866246 -0.03024111 -0.027281836 0.0037674909 -0.013259691 0.01686426 -0.20046784 -0.16615385
-0.020568963 0.03784313 0.10142069 0.0017978792 -0.119832486 0.07427551 -0.04162577 -0.081755154
-0.016468626 0.11084566 0.07802388 -0.026779389 -0.15830031 -0.17888919 0.04916997 0.047997143
0.054648586 0.04823215 -0.11382931 -0.07378898 0.09179071 -0.04333677 -0.082668945 -0.08519417
0.040656235 -0.16245948 -0.14298183 0.15122877 0.17186362 0.1313336 0.010688319 0.07730515
-0.115201674 0.12033981 0.0092264125 -0.028153332 -0.2643593 -0.020084811 0.059218273 0.1795042
-0.0008250534 -0.020829143 0.007842054 -0.08882473 0.0184483 0.074132785 0.03300687 -0.018762594
-0.011136896 0.07216802 -0.032737233 0.03821842 -0.11231438 -0.065740936 0.018712508 0.0027788777
0.2979184 -0.039232153 -0.13008957 0.14473066 0.15555084 0.026580473 -0.060144734 -0.002119656
-0.11203719 -0.02436953 0.1764837 -0.038159553 -0.08163024 -0.05300077 0.09973776 0.028086226
0.060105663 0.13529071 -0.048279736 0.0008163466 -0.06730209 -0.15326543 -0.026693882 0.06895052
-0.13267274 0.09688909 0.07401123 -0.02498194 -0.22402862 0.034590516 -0.061182477 0.0038934727
-0.0065321513 0.05273345 -0.07101887 0.033407025 -0.08623694 0.051842075 0.080847844 0.071813464
0.048666894 0.038339645 -0.0023850608 0.008702341 -0.06804884 -0.04812247 -0.088575125 -0.028218362
-0.21931295 -0.01767758 -0.060726207 -0.016015423 -0.038274772 0.03330119 -0.033655655 -0.07101757
-0.19711281 -0.03887787 0.16964172 -0.1380119 -0.052146077 -0.11057693 -0.11953215 -0.062467914
0.06361767 0.032500606 0.122463666 0.047735218 0.018908497 -0.16058151 0.029669534 -0.2892117
-0.18246567 0.018915182 0.16522063 -0.06728328 0.016833322 -0.06592029 -0.13211797 0.0020606576
0.18243006 -0.03514619 0.09962124 0.08092218 -0.123391144 -0.03338663 0.034782354 -0.026286488
0.053531438 -0.023424396 0.06487688 -0.07823004 -0.0068042097 0.12848035 0.002956968 -0.0005565436
0.053055983 0.025406245 -0.11997526 0.09973095 0.04863819 0.081827044 -0.13903679 0.071706064
-0.07485189 0.037846126 0.08705586 -0.06973417 -0.02942114 0.09035827 -0.10046453 0.10375155
-0.077315934 -0.117648564 -0.07431688 -0.09297375 -0.021796795 -0.0018554449 0.0052704285 -0.041869473
-0.08831784 -0.0043615717 0.045773957 -0.10787939 -0.096995614 0.037015084 -0.05520366 -0.10682938
0.042296007 0.034272242 -0.14049488 -0.043118153 0.04508142 -0.06448871 -0.102480754 0.057630856
0.086166665 0.0849898 0.04264982 -0.1469757 -0.15608744 0.092889905 -0.008214919 -0.07643593
-0.011484369 -0.048521955 0.072185986 0.1206003 0.14269115 -0.011895996 -0.0040113344 0.13497438
-0.037903216 -0.04738051 -0.01598252 -0.19806312 -0.20605813 0.13420096 -0.1912426 0.11635995
0.047520615 0.012936966 -0.043752775 -0.13289277 -0.24495149 0.06145946 0.027011763 -0.03461826
0.16106582 0.13071992 -0.0716518 0.035547063 -0.09112824 0.065342344 0.2543201 -0.055893622
-0.042419992 0.053391356 -0.091081835 -0.123303145 0.039167345 -0.00094927585 0.19141257 -0.07358251
-0.06013297 -0.0078073773 -0.016475966 0.06552745 -0.10491213 0.026710397 -0.058008656 -0.025217399
00000000: ca4a 23bd 34bc f7bc 287e dfbc 02e8 763b
00000010: 2d3f 59bc eb26 8a3c 7147 4dbe 3c24 2abe
00000020: 3e80 a8bc 6601 1b3d a7b5 cf3d d1a6 eb3a
00000030: bc6a f5bd c21d 983d c97f 2abd 3f6f a7bd
00000040: 36e9 86bc 0d03 e33d fcca 9f3d 7360 dbbc
00000050: 7a19 22be ba2e 37be 7366 493d a798 443d
00000060: 32d7 5f3d 138f 453d 571f e9bd ad1e 97bd
00000070: c5fc bb3d e681 31bd 564e a9bd 487a aebd
00000080: 2787 263d c75b 26be d469 12be b7db 1a3e
00000090: 04fd 2f3e 517c 063e 0f1e 2f3c 2a52 9e3d
000000a0: dbee ebbd b874 f63d 612a 173c d1a1 e6bc
000000b0: 1a5a 87be e788 a4bc dc8e 723d f3cf 373e
000000c0: 6548 58ba e1a1 aabc f57b 003c bde9 b5bd
000000d0: e420 973c eed2 973d 3632 073d 03b4 99bc
000000e0: 8777 36bc d4cc 933d 7a17 06bd eb8a 1c3d
000000f0: 1505 e6bd 2fa3 86bd f94a 993c d51d 363b
00000100: c388 983e e5b1 20bd 3336 05be 4634 143e
00000110: b848 1f3e 4bbf d93c 535a 76bd ede9 0abb
00000120: c173 e5bd 9ca2 c7bc 25b8 343e 314d 1cbd
00000130: c12d a7bd 5617 59bd 5043 cc3d 1615 e63c
00000140: 5b31 763d a689 0a3e f9c0 45bd 1800 563a
00000150: aed5 89bd 9df1 1cbe 21ad dabc ee35 8d3d
00000160: 5ddb 07be ca6d c63d 3393 973d eda6 ccbc
00000170: c267 65be c9ae 0d3d 7a9a 7abd a229 7f3b
00000180: a80b d6bb 08ff 573d 5772 91bd ced5 083d
00000190: fe9c b0bd 5b58 543d 8e93 a53d f012 933d
000001a0: f056 473d 080a 1d3d ae4e 1cbb 4394 0e3c
000001b0: 315d 8bbd 111c 45bd e066 b5bd 322a e7bc
000001c0: 9393 60be 92d0 90bc 0bbc 78bd c732 83bc
000001d0: 02c6 1cbd d466 083d 83da 09bd a971 91bd
000001e0: f1d7 49be 673e 1fbd 8fb6 2d3e fe52 0dbe
000001f0: 2097 55bd 2876 e2bd 46cd f4bd 5bde 7fbd
00000200: fb49 823d 5b1f 053d 3bce fa3d 0186 433d
00000210: fee5 9a3c 7b6f 24be 860d f33c 8e13 94be
00000220: 48d8 3abe 03f4 9a3c 992f 293e d1cb 89bd
00000230: 09e6 893c 3801 87bd ef49 07be 190c 073b
00000240: f2ce 3a3e 74f5 0fbd 3806 cc3d 87ba a53d
00000250: 7fb4 fcbd 6bc0 08bd f177 0e3d c356 d7bc
00000260: c843 5b3d 85e4 bfbc 2bde 843d 1237 a0bd
00000270: d9f5 debb 5a90 033e b1c9 413b 02e5 11ba
00000280: 3b51 593d c220 d03c 97b5 f5bd be3f cc3d
00000290: d738 473d f094 a73d a95f 0ebe a1da 923d
000002a0: f34b 99bd 8a04 1b3d 584a b23d cad0 8ebd
000002b0: 9a04 f1bc c20d b93d 59c0 cdbd b17b d43d
000002c0: d157 9ebd bbf1 f0bd 7333 98bd 0569 bebd
000002d0: 318f b2bc 6632 f3ba 8fb3 ac3b 537f 2bbd
000002e0: fcdf b4bd 84eb 8ebb 797d 3b3d dfef dcbd
000002f0: a3a5 c6bd 219d 173d 3c1d 62bd 5dc9 dabd
00000300: 943e 2d3d 0d61 0c3d e4dd 0fbe a99c 30bd
00000310: 4ca7 383d a812 84bd 6ee1 d1bd 550e 6c3d
00000320: 2678 b03d 220f ae3d 94b1 2e3d cc80 16be
00000330: 63d5 1fbe 103d be3d de97 06bc 718a 9cbd
00000340: ef28 3cbc f5be 46bd 3fd6 933d 4afd f63d
00000350: a11d 123e 6ce7 42bc 8371 83bb b936 0a3e
00000360: 6740 1bbd 1112 42bd c6ed 82bc 0fd1 4abe
00000370: e700 53be fa6b 093e 1ad5 43be 204e ee3d
00000380: faa4 423d 91f5 533c 1c36 33bd 0b15 08be
00000390: 90d4 7abe eabc 7b3d c647 dd3c e0cb 0dbd
000003a0: 70ee 243e 71db 053e 2ebe 92bd cc99 113d
000003b0: 71a1 babd 35d2 853d 3f36 823e b6f0 64bd
000003c0: 96c0 2dbd e5b0 5a3d 1d89 babd 5c86 fcbd
000003d0: f06d 203d d3d8 78ba a801 443e 6db2 96bd
000003e0: fd4d 76bd 07d5 ffbb 9bf8 86bc 4133 863d
000003f0: 2cdc d6bd c3cf da3c 7c9a 6dbd b894 cebc

network_body._body_endoder.seq_layers.0.bias f4 [128]
0.01606042 0.044631314 0.029126333 0.040587388 -0.02027159 -0.0037842935 -0.057699103 -0.017789943
0.032115135 0.008838413 0.010501959 0.011424308 0.052580174 -0.015550275 -0.0049968865 -0.021057049
0.025064789 0.010758171 -0.06428452 -0.029361848 -0.004138273 0.011984606 -0.034601174 -0.087037
0.008883761 -0.055589218 0.020841543 -0.050455276 0.009674829 -0.018220862 -0.023693433 -0.002196167
-0.07193723 -0.064099304 0.01937768 0.016734472 0.027645966 0.01017159 0.06326237 0.011523264
0.004395309 -0.05965183 0.032756407 -0.019830741 0.008972467 -0.017529976 -0.06136876 0.021207197
0.050787807 0.033806268 -0.016407728 -0.057701606 0.05122491 0.012710981 -0.0095616765 0.059314635
-0.06620241 0.0048843264 0.010340548 -0.036021687 -0.011949179 -0.020570703 -0.013875483 0.032110803
0.02260519 0.02204329 -0.078140736 0.013730369 0.03216675 -0.054063573 0.011685659 -0.053072125
-0.002662304 -0.034669686 0.0019912173 0.009050129 -0.06035551 0.00581074 0.007559723 0.00024689327
0.05457462 -0.018367078 -0.023978598 0.012508125 -0.033566263 0.04249213 0.06447219 0.05339483
0.022171557 -0.030579843 -0.02732626 -0.0041726707 -0.03177907 0.041192804 -0.015168672 -0.068665996
-0.0057235034 -0.0444287 -0.018706497 -0.0010916251 -0.051104013 -0.05190002 0.024180291 -0.01997337
0.04372507 0.031534478 -0.09088108 -0.032353867 -0.026857002 -0.06470747 -0.010945691 -0.0028942418
-0.0065879016 0.0040122815 -0.05054043 -0.003685527 0.019854346 0.031895977 0.0064749434 0.03163176
0.021055637 -0.053880297 -0.025786735 0.041843563 0.0015251236 -0.02634804 -0.005403291 0.03925208
00000000: 2491 833c 53cf 363d 599a ee3c f63e 263d
00000010: 9b10 a6bc e901 78bb e555 6cbd 37bc 91bc
00000020: 298b 033d fece 103c 6910 2c3c 052d 3b3c
00000030: 4f5e 573d 95c6 7ebc ecbc a3bb d57f acbc
00000040: ac54 cd3c 0a43 303c 9aa7 83bd 4288 f0bc
00000050: 5a9a 87bb 155b 443c f6b9 0dbd 7440 b2bd
00000060: 328d 113c 85b1 63bd e2bb aa3c 31aa 4ebd
00000070: 2d83 1e3c eb43 95bc bb18 c2bc 91ed 0fbb
00000080: d453 93bd 7f46 83bd f1bd 9e3c bb16 893c
00000090: cb79 e23c bea6 263c b48f 813d 13cc 3c3c
000000a0: 8606 903b 7a55 74bd 952b 063d 1474 a2bc
000000b0: 4101 133c 069b 8fbc cf5d 7bbd b7ba ad3c
000000c0: e006 503d 7178 0a3d 8069 86bc 8558 6cbd
000000d0: 36d1 513d b841 503c 94a8 1cbc e7f3 723d
000000e0: 2195 87bd b30c a03b 676b 293c 7a8b 13bd
000000f0: 7dc6 43bc e483 a8bc fe55 63bc 9e86 033d
00000100: 852e b93c 2194 b43c 4008 a0bd 57f5 603c
00000110: 48c1 033d c471 5dbd 3575 3f3c 2862 59bd
00000120: 0d7a 2ebb cd01 0ebd 157f 023b fe46 143c
00000130: 5737 77bd 0568 be3b 8eb7 f73b 7471 8139
00000140: a389 5f3d 8e76 96bc c46e c4bc e1ee 4c3c
00000150: c77c 09bd 3a0c 2e3d ff09 843d 8ab4 5a3d
00000160: 20a1 b53c 9482 fabc 52db dfbc e6ba 88bb
00000170: c52a 02bd c9b9 283d 0686 78bc c2a0 8cbd
00000180: 3a8c bbbb defa 35bd 5e3e 99bc dc14 8fba
00000190: 7152 51bd 1e95 54bd bf15 c63c 319f a3bc
000001a0: 0f19 333d 4c2a 013d dc1f babd 7d85 04bd
000001b0: 3703 dcbc 5a85 84bd 8e55 33bc 52ad 3dbb
000001c0: 53df d7bb 7579 833b 7b03 4fbd e288 71bb
000001d0: 95a5 a23c 5ba5 023d c32b d43b 4e90 013d
000001e0: df7c ac3c 96b1 5cbd b43e d3bc 2864 2b3d
000001f0: a8e6 c73a d8d7 d7bc 170e b1bb cac6 203d

network_body._body_endoder.seq_layers.2.weight f4 [128, 128]
0.09689395 -0.066432066 -0.010009144 -0.028480306 -0.14893472 -0.038516622 0.05110997 -0.037341483
0.0024079718 0.12406413 -0.16156049 0.15470164 -0.05591751 0.042701825 0.039043482 -0.10057525
-0.06152835 0.07851304 0.036533624 -0.02252754 -0.016049907 0.068931855 0.085130975 -0.1352625
-0.006999881 -0.09887192 -0.029229246 -0.030055799 -0.14957052 0.09549611 0.09392443 -0.017695524
-0.030924084 -0.06849993 0.059430834 -0.08569276 0.062081244 -0.043271568 0.09545883 -0.0032400389
-0.19457603 0.14187796 -0.022758182 0.009060813 -0.031817287 -0.08738095 0.041978933 0.13824326
-0.048524927 0.08510408 0.05726982 -0.0072417217 -0.015682148 0.048278637 -0.04569564 -0.07460301
-0.07993803 0.0054730223 -0.107933275 -0.10376355 -0.13080879 0.06513537 0.06980064 0.07083277
0.115346335 -0.09212733 0.022258235 -0.09294348 -0.055729717 0.005675559 -0.07965738 -0.042236585
0.045065735 -0.07458374 -0.057508215 0.11351933 -0.13111255 0.054998714 0.07644697 -0.15627317
0.05563613 -0.08291691 -0.038162477 0.061165478 -0.13662614 -0.08736767 -0.13130921 -0.035525396
-0.029774293 0.07656695 -0.07952219 -0.03462867 -0.1815895 0.18153447 -0.017278276 -0.05974925
0.10907724 -0.050418876 -0.077421725 0.09010569 -0.014651897 0.0778297 -0.024856638 -0.08927757
-0.11783841 0.036023416 0.03235557 0.019092485 -0.102693886 -0.087130465 0.006268584 -0.07860656
-0.12561369 0.02614774 -0.005818462 -0.04728047 -0.056571584 -0.23247494 -0.082201384 -0.09204605
0.069748335 -0.07525108 -0.10901852 0.12286666 0.08953104 0.08095289 -0.12629896 0.050434012
0.012309281 0.13252768 -0.12753537 0.15009847 0.040138472 0.1357419 -0.10504996 0.11507225
0.12057702 -0.05682764 0.06424586 0.053082515 0.007534676 -0.04927944 -0.24605826 0.11426268
-0.17305622 0.12174997 -0.16353579 -0.093656756 -0.0372583 -0.0090923365 -0.085032076 -0.016808067
-0.17601529 -0.13898376 0.12738575 0.01273998 -0.21057092 -0.053247493 0.015020573 0.12913819
-0.035448983 0.09922978 0.022676686 0.034435615 0.10174768 0.05320433 -0.04477242 0.14133754
-0.04554937 0.05630753 -0.15505718 0.14421691 -0.1439463 -0.08589959 -0.08998358 -0.040820766
0.050118808 -0.048505943 0.0047389017 0.048628174 -0.039141614 0.11531938 0.010399969 -0.01821165
-0.110138625 -0.021725094 -0.061823156 -0.10644369 0.12294923 0.016269438 -0.10184365 0.15537828
-0.06334281 0.20112154 -0.0029940836 0.036200974 -0.037569296 -0.09542944 -0.12205049 -0.043420065
-0.04077287 0.035349462 -0.0033149752 0.109612115 0.017538201 -0.07111291 -0.049305372 0.050675333
-0.07171442 0.1669893 -0.056968942 0.00056933076 -0.2584597 -0.089678116 0.044778068 -0.040215235
0.09369886 0.038139127 -0.05428786 -0.03618976 -0.17990293 -0.14036812 -0.020789882 -0.029641934
-0.071690276 0.06571689 -0.05934381 0.14342615 -0.07089858 -0.02702342 -0.049564887 0.024695124
0.04889082 0.06574743 0.036668878 -0.09040252 0.08134255 -0.0021996389 0.12656318 0.039879885
0.060994007 0.152009 0.058667637 0.043435548 0.0880211 -0.20469505 0.10018276 -0.0053513204
0.06898766 0.06384262 -0.057415657 0.10773851 0.09642791 -0.103323534 0.023182979 -0.011396638
00000000: 5670 c63d 890d 88bd 65fd 23bc 884f e9bc
00000010: 5882 18be 9bc3 1dbd b058 513d 62f3 18bd
00000020: 10cf 1d3b 5615 fe3d 1d70 25be 1b6a 1e3e
00000030: c209 65bd 1ce8 2e3d 0fec 1f3d 66fa cdbd
00000040: 2705 7cbd 72cb a03d 48a4 153d ad8b b8bc
00000050: 187b 83bc 252c 8d3d 2659 ae3d 4182 0abe
00000060: 425f e5bb 5c7d cabd 2c72 efbc 9437 f6bc
00000070: 0429 19be 7793 c33d 745b c03d 34f6 90bc
00000080: 8154 fdbc b149 8cbd bf6d 733d b07f afbd
00000090: e748 7e3d 873d 31bd eb7f c33d d556 54bb
000000a0: f03e 47be 7548 113e 5e6f babc ce73 143c
000000b0: d852 02bd c9f4 b2bd 1af2 2b3d a48f 0d3e
000000c0: 13c2 46bd 0c4b ae3d c293 6a3d f74b edbb
000000d0: d977 80bc d2bf 453d 5a2b 3bbd 77c9 98bd
000000e0: 8db6 a3bd 0a57 b33b 1f0c ddbd fc81 d4bd
000000f0: bdf2 05be b165 853d a3f3 8e3d c510 913d
00000100: b33a ec3d 41ad bcbd e756 b63c 2759 bebd
00000110: d844 64bd 0afa b93b 6923 a3bd 4500 2dbd
00000120: d996 383d 5cbf 98bd bc8d 6bbd d37c e83d
00000130: 5e42 06be 5546 613d 3b90 9c3d 1306 20be
00000140: b6e2 633d 57d0 a9bd 4250 1cbd a788 7a3d
00000150: b9e7 0bbe d2ed b2bd ec75 06be 1483 11bd
00000160: 38e9 f3bc 22cf 9c3d 88dc a2bd cbd6 0dbd
00000170: 99f2 39be 2ce4 393e 2c8b 8dbc a1bb 74bd
00000180: e363 df3d 0684 4ebd 488f 9ebd 5589 b83d
00000190: 830e 70bc 2e65 9f3d 26a0 cbbc 29d7 b6bd
000001a0: 4455 f1bd 4a8d 133d 4687 043d d867 9c3c
000001b0: 2c51 d2bd 7571 b2bd b268 cd3b 7afc a0bd
000001c0: e0a0 00be c933 d63c cca8 bebb 2ba9 41bd
000001d0: 9bb7 67bd e90d 6ebe 3359 a8bd a482 bcbd
000001e0: 37d8 8e3d 3d1d 9abd 1a45 dfbd 84a1 fb3d
000001f0: 0d5c b73d a1ca a53d 8454 01be e593 4e3d
00000200: deac 493c 56b5 073e a298 02be 6ab3 193e
00000210: 3d68 243d edff 0a3e 6f24 d7bd 00ab eb3d
00000220: 16f1 f63d 19c4 68bd 5593 833d 0d6d 593d
00000230: 72e5 f63b 3dd9 49bd b2f6 7bbe 8d02 ea3d
00000240: a635 31be 0c58 f93d ed75 27be 1dcf bfbd
00000250: 299c 18bd 06f8 14bc 4c25 aebd 12b1 89bc
00000260: 5a3d 34be c251 0ebe 6971 023e 59bb 503c
00000270: e79f 57be 0b1a 5abd d918 763c cd3c 043e
00000280: f432 11bd fc38 cb3d 75c4 b93c 5c0c 0d3d
00000290: 1661 d03d c9ec 593d 4963 37bd caba 103e
000002a0: fa91 3abd b9a2 663d 4fc7 1ebe 99ad 133e
000002b0: a966 13be 20ec afbd 5049 b8bd ad33 27bd
000002c0: 6149 4d3d 2bae 46bd ca48 9b3b 562e 473d
000002d0: f552 20bd 912c ec3d a264 2a3c 9930 95bc
000002e0: 5c90 e1bd d3f8 b1bc 473a 7dbd 26ff d9bd
000002f0: cecc fb3d 7c47 853c 6793 d0bd 7c1b 1f3e
00000300: e0b9 81bd cef2 4d3e 6338 44bb 7947 143d
00000310: 43e2 19bd 8370 c3bd 9bf5 f9bd 3dd9 31bd
00000320: 7401 27bd 99ca 103d 0e40 59bb 517c e03d
00000330: 46ac 8f3c a5a3 91bd 6ef4 49bd f090 4f3d
00000340: 03df 92bd 3eff 2a3e 4458 69bd 243f 153a
00000350: d454 84be 29a9 b7bd 3569 373d bbb8 24bd
00000360: 30e5 bf3d c637 1c3d f25c 5ebd b73b 14bd
00000370: 7938 38be a9bc 0fbe 8b4f aabc a4d3 f2bc
00000380: 5ad2 92bd 9496 863d 7f12 73bd 4ede 123e
00000390: 4633 91bd 3860 ddbc 8d04 4bbd 6e4d ca3c
000003a0: be41 483d 97a6 863d 1b32 163d f524 b9bd
000003b0: ec96 a63d d127 10bb c799 013e 1759 233d
000003c0: dad4 793d 3fa8 1b3e 7a4d 703d 79e9 313d
000003d0: 6844 b43d 949b 51be 9e2c cd3d 215a afbb
000003e0: 6749 8d3d ebbf 823d ae2c 6bbd 02a6 dc3d
000003f0: ff7b c53d 4a9b d3bd 3bea bd3c f7b8 3abc

network_body._body_endoder.seq_layers.2.bias f4 [128]
-0.009074741 0.019260705 0.01159382 -0.0142376935 0.016066287 -0.073273964 -0.003172857 -0.050571732
0.02907957 0.018376177 -0.0423504 -0.039152436 0.049407497 0.033569578 0.04333916 -0.0140406415
0.053935368 -0.01735271 -0.092822835 0.031346202 -0.047023095 -0.037839506 -0.05897959 0.0053998763
-0.03336866 -0.017462753 -0.013792665 -0.086805865 -0.035206303 -0.0070671947 -0.012099253 -0.012665892
-0.016689561 -0.07548677 -0.09567605 0.016488047 0.0063225003 0.0041966774 -0.027893757 -0.029734606
-0.0072966795 0.062062856 0.04844887 -0.060361665 -0.017332511 -0.003457133 0.0076909433 0.008687609
0.026234806 0.022267526 0.008105053 0.03536601 0.0038147934 -0.054979175 -0.018474333 0.008956997
0.06324425 -0.039142307 -0.10342478 -0.032632917 -0.059072785 -0.03056289 0.021158786 -0.027850397
0.06829688 0.0060271723 -0.034137506 0.037720807 0.05451689 -0.027183613 0.04791022 0.02295375
-0.031686887 0.01055412 -0.0035861905 -0.052958198 -0.07737832 -0.028907035 0.018610148 0.0047806026
-0.016954264 0.0013902744 -0.036374006 -0.022903042 0.0057715843 0.013760744 -0.024376458 0.0030899215
0.050052896 -0.0952333 -0.00019937356 0.0070388834 -0.04855456 0.011509796 -0.061718684 -0.021345861
-0.020992687 0.024850965 -0.024038725 0.0068062125 -0.0238305 -0.018267145 -0.005299528 0.039674878
0.0048924633 0.03272604 -0.008995777 0.010811318 -0.0317332 -0.030544382 -0.0010686873 0.005526055
-0.047695134 -0.041414853 -0.020462152 -0.100777246 -0.02282484 0.062443633 -0.037257496 -0.04210408
-0.04552757 -0.013669626 0.036969215 -0.0037348636 -0.038497813 -0.004235982 0.015505393 -0.033747736
00000000: 39ae 14bc a0c8 9d3c 01f4 3d3c 3745 69bc
00000010: 729d 833c a910 96bd b5ef 4fbb 4e24 4fbd
00000020: 4738 ee3c a389 963c 9d77 2dbd 4e5e 20bd
00000030: 845f 4a3d 4180 093d 6784 313d b80a 66bc
00000040: 55eb 5c3d 4527 8ebc e619 bebd e064 003d
00000050: 4a9b 40bd 99fd 1abd 9594 71bd 72f1 b03b
00000060: 93ad 08bd 0c0e 8fbc a1fa 61bc 46c7 b1bd
00000070: 7c34 10bd ed93 e7bb f23b 46bc 9a84 4fbc
00000080: 8cb8 88bc cf98 9abd cef1 c3bd f111 873c
00000090: fa2c cf3b 4884 893b 7381 e4bc fd95 f3bc
000000a0: fc18 efbb 9f35 7e3d 5372 463d cb3d 77bd
000000b0: e9fc 8dbc 1191 62bb 4f04 fc3b 7956 0e3c
000000c0: 60ea d63c 636a b63c 0ecb 043c f3db 103d
000000d0: 9d01 7a3b d831 61bd 7c57 97bc 5ec0 123c
000000e0: 3486 813d af53 20bd 5fd0 d3bd 18aa 05bd
000000f0: 4ef6 71bd 075f fabc 3155 ad3c 8426 e4bc
00000100: 3cdf 8b3d 967f c53b c5d3 0bbd 2281 1a3d
00000110: 1a4d 5f3d 2bb0 debc 823d 443d 8109 bc3c
00000120: 1cca 01bd 30eb 2c3c 4b06 6bbb b2ea 58bd
00000130: 8678 9ebd 72ce ecbc 4f74 983c 9aa6 9c3b
00000140: abe3 8abc de39 b63a e9fc 14bd 299f bbbc
00000150: 8f1f bd3b be74 613c 23b1 c7bc 4880 4a3b
00000160: 4404 4d3d ad09 c3bd ef0e 51b9 6fa6 e63b
00000170: 25e1 46bd 9593 3c3c bbcc 7cbd 84dd aebc
00000180: dbf8 abbc 4094 cb3c dcec c4bc a606 df3b
00000190: 2e38 c3bc fba4 95bc aaa7 adbb 2082 223d
000001a0: f550 a03b bd0b 063d 0663 13bc f421 313c
000001b0: acfa 01bd 3638 fabc 3213 8cba e913 b53b
000001c0: f95b 43bd 9fa2 29bd 3ea0 a7bc 4d64 cebd
000001d0: 29fb babc e5c4 7f3d 519b 18bd 5475 2cbd
000001e0: 1e7b 3abd 91f6 5fbc 086d 173d 9dc4 74bb
000001f0: e2af 1dbd fecd 8abb 550a 7e3c 113b 0abd

action_model._continuous_distribution.log_sigma f4 [1, 2]
-1.3878255 -1.2445865
00000000: 44a4 b1bf 9c4e 9fbf

action_model._continuous_distribution.mu.weight f4 [2, 128]
-0.03326636 -0.044061627 0.0074070534 -0.005272356 -0.002604694 -0.0020309992 -0.0023269525 -0.015703458
0.012106332 -0.0036718375 0.00058764964 -0.00023898103 0.0008829562 0.010054515 0.0033033446 0.011009912
-0.0045307577 0.007379469 -0.002716962 0.005028706 -0.009126049 -0.0076593724 -0.0012818102 -0.02682229
-0.005863185 -0.014697203 0.0001384258 0.021031769 -0.003490111 0.0006425844 -0.026309144 -0.004378013
0.0030336555 6.534148e-05 0.0065395017 -0.0032000782 0.0076167714 0.010219936 -0.0023422767 -0.00012827717
-0.00022410568 -0.011924633 -0.011475969 -0.004527146 -0.02305686 0.01944813 -0.019872967 -0.024289193
-0.0107711665 -0.0035024814 -0.007055013 0.035359308 -0.009160272 0.011598192 -0.0047819507 0.0031118866
-0.026409466 -0.006061839 0.0015185619 0.0024635731 -0.017299568 -0.009348269 0.0058932137 -0.028372053
0.0005747479 -0.0046416232 -0.0080801835 -0.02140261 8.09943e-05 -0.037743118 -0.009336181 -0.028314533
-0.0013064035 -0.004091447 0.003480765 0.0046478715 0.0022727586 0.0017740397 -0.018072078 0.011078627
0.0019579134 0.0035769742 0.0034057423 0.0020758666 -0.001507132 0.010378877 0.003857996 0.004406671
0.022262054 0.0055515463 0.002220155 -0.000531803 -0.007903034 -0.015271066 0.011866676 -0.0013079658
-0.007658426 -0.0064971126 -0.00092609914 0.0070197927 -0.005224948 -0.0073735816 0.0017011043 0.013345546
0.014773765 0.010990499 -0.025423571 -0.0011750737 0.007089351 0.008728528 -0.019596953 0.0033221466
-0.0049554934 -0.003274502 -0.01317861 -0.0057176314 -0.013912028 0.0026725193 -0.0053403093 0.008218133
0.012908978 -0.011757904 -0.0067438167 -0.0041273893 -0.008486577 -0.0014887813 0.020692457 -0.011268266
0.025389764 0.023051102 0.0072254925 0.02702167 -0.013171524 0.04998505 0.01973137 0.042523973
-0.05105673 -0.027483199 0.03487688 0.004144822 -0.0036846064 0.026172537 -0.030970903 0.015360019
-0.0051282393 0.056024686 0.011318186 -0.041054435 0.022273932 0.037819356 0.010067429 0.027749851
0.032149725 0.047475066 0.0016644964 -0.0024550643 0.037109092 0.021581806 -0.006407305 0.04630733
0.01699703 0.04150534 0.03693131 -0.011873194 -0.0030671076 0.035385806 0.03287639 0.04535312
0.020051602 -0.043762125 -0.03729466 0.0016872681 0.048897613 0.03579556 0.020061316 0.07390224
0.034938913 -0.0066951634 0.014196403 -0.037305593 0.02058706 0.045221016 0.045343194 0.002641778
-0.077599324 0.031696614 0.021831457 0.027917271 0.01655008 0.035169702 0.023335043 0.036495745
-0.016485509 0.015218485 0.046835452 -0.033372283 -0.018434264 0.03318618 -0.08209675 -0.041814554
0.0428334 -0.019287145 0.002877132 0.057591185 0.05021859 0.029087812 0.015178475 -0.017733222
0.039460346 -0.0045552887 -0.007187439 0.05607329 -0.026963277 0.012196626 0.035058208 -0.0010282719
-0.06240861 0.035864584 0.034048535 -0.017677948 0.012848634 0.02088928 0.021294406 0.017572833
0.04967795 -0.014448123 0.040923785 -0.012393625 0.046959233 0.032081407 0.0049801385 -0.03177914
0.038629297 -0.019450355 0.028534671 0.018628465 0.03188162 0.014026346 0.03245557 0.010618079
0.03127553 0.022240551 0.031683106 0.02681927 0.027591703 -0.0046053366 0.025979957 0.035713393
0.0046916245 -0.013757332 -0.041878365 0.022231948 0.033937927 0.012925873 -0.041730024 0.039259523
00000000: 4f42 08bd f779 34bd deb6 f23b bac3 acbb
00000010: 84b3 2abb 831a 05bb c97f 18bb 8aa4 80bc
00000020: a359 463c 36a3 70bb 800c 1a3a fb96 7ab9
00000030: 3076 673a b1bb 243c ed7c 583b eb62 343c
00000040: c076 94bb 79cf f13b 0f0f 32bb d8c7 a43b
00000050: 6c85 15bc 79fb fabb 6a02 a8ba 6bba dbbc
00000060: f61f c0bb 8acc 70bc 6526 1139 d14a ac3c
00000070: 59ba 64bb 1c73 283a 4686 d7bc 6f75 8fbb
00000080: 4bd0 463b f107 8938 5149 d63b 67b8 51bb
00000090: 1c96 f93b 8571 273c e280 19bb 2482 06b9
000000a0: e9fd 6ab9 895f 43bc b405 3cbc 7458 94bb
000000b0: bde1 bcbc af51 9f3c a2cc a2bc 21fa c6bc
000000c0: 8c79 30bc e389 65bb bd2d e7bb ecd4 103d
000000d0: f714 16bc 5806 3e3c e9b1 9cbb cbf0 4b3b
000000e0: aa58 d8bc 64a2 c6bb 7b0a c73a e673 213b
000000f0: d3b7 8dbc 7b29 19bc dc1b c13b 826c e8bc
00000100: aeaa 163a c218 98bb bf62 04bc 8754 afbc
00000110: 7cdb a938 8798 1abd c8f6 18bc e1f3 e7bc
00000120: a13b abba 8c11 86bb 8c1d 643b 2c4d 983b
00000130: 90f2 143b e586 e83a e50b 94bc 2183 353c
00000140: 5650 003b ab6b 6a3b e032 5f3b 430b 083b
00000150: f58a c5ba 2a0c 2a3c 6fd6 7c3b d665 903b
00000160: e95e b63c bfe9 b53b 0580 113b b268 0bba
00000170: ba7b 01bc 7e33 7abc 726c 423c 0d70 abba
00000180: 89f3 fabb bbe5 d4bb 76c5 72ba 4a06 e63b
00000190: 0a36 abbb 169e f1bb 97f7 de3a 47a7 5a3c
000001a0: a90d 723c 7e11 343c 1845 d0bc ee04 9aba
000001b0: c94d e83b 1a02 0f3c ca89 a0bc 5fb8 593b
000001c0: b161 a2bb 0799 56bb 19eb 57bc f85a bbbb
000001d0: 46ef 63bc 6f25 2f3b c3fd aebb 59a5 063c
000001e0: 2e80 533c 39a4 40bc 3cfb dcbb 0d3f 87bb
000001f0: 490b 0bbc 3623 c3ba 3a83 a93c 889e 38bc
00000200: 32fe cf3c aad5 bc3c d3c3 ec3b 8d5c dd3c
00000210: 60cd 57bc 20bd 4c3d afa3 a13c 9e2d 2e3d
00000220: dd20 51bd 7224 e1bc 0fdb 0e3d 49d1 873b
00000230: 7079 71bb ca67 d63c b1b6 fdbc 97a8 7b3c
00000240: ca0a a8bb 247a 653d ea6f 393c b228 28bd
00000250: d277 b63c 78e8 1a3d dcf1 243c a853 e33c
00000260: 6eaf 033d 3775 423d 3b2b da3a 25e5 20bb
00000270: b4ff 173d 54cc b03c 5ff4 d1bb c1ac 3d3d
00000280: 5b3d 8b3c 8101 2a3d 4945 173d c987 42bc
00000290: 8701 49bb b5f0 103d 65a9 063d 31c4 393d
000002a0: 4243 a43c ea3f 33bd 49c2 18bd 5327 dd3a
000002b0: dd48 483d 5d9e 123d a157 a43c 0f5a 973d
000002c0: 1b1c 0f3d 1a63 dbbb 0898 683c c0cd 18bd
000002d0: 32a6 a83c ac39 393d c9b9 393d ae21 2d3b
000002e0: 65ec 9ebd 4fd4 013d e2d7 b23c c3b2 e43c
000002f0: 0994 873c 1b0e 103d 2229 bf3c 907c 153d
00000300: 9e0c 87bc f456 793c 88d6 3f3d 60b1 08bd
00000310: 7403 97bc 3bee 073d 5722 a8bd bd45 2bbd
00000320: 1372 2f3d 1300 9ebc 448e 3c3b bce4 6b3d
00000330: 02b2 4d3d 9049 ee3c 23af 783c 4345 91bc
00000340: 2ca1 213d 8844 95bb 9c84 ebbb 1bad 653d
00000350: 17e2 dcbc 5bd4 473c 3299 0f3d 14c7 86ba
00000360: 2ca0 7fbd bee6 123d 7a76 0b3d 58d1 90bc
00000370: 1483 523c ff1f ab3c 9b71 ae3c e7f4 8f3c
00000380: 1b7b 4b3d d2b7 6cbc b39f 273d a20e 4bbc
00000390: 5358 403d cb67 033d 6e30 a33b d82a 02bd
000003a0: c139 1e3d 5a56 9fbc 8bc1 e93c b99a 983c
000003b0: 4d96 023d c2ce 653c 22f0 043d 74f7 2d3c
000003c0: c51a 003d d131 b63c 25c6 013d 16b4 db3c
000003d0: ff07 e23c 5de8 96bb ebd3 d43c 3548 123d
000003e0: 33bc 993b 6f66 61bc a688 2bbd c61f b63c
000003f0: 7f02 0b3d 0ac7 533c 1aed 2abd 98ce 203d

action_model._continuous_distribution.mu.bias f4 [2]
-0.0031634357 -0.030710313
00000000: a551 4fbb 3294 fbbc
