CS455_PR1/results/ShootTargetAgent/ShootTargetAgent/ShootTargetAgent-37167.onnx (onnx, 490268 bytes, 18 tensors)

discrete_act_size_vector f4 [1, 2]
50.0 50.0
00000000: 0000 4842 0000 4842

network_body.observation_encoder.processors.0.conv_layers.0.weight f4 [16, 1, 8, 8]
-0.017569443 -0.089489125 -0.11065689 0.023705535 0.0007971774 0.010389352 0.121529795 -0.02385727
0.069436505 0.015165967 -0.08488675 0.0155765405 0.11299458 0.0256104 0.12025332 -0.08052879
-0.004471677 0.1269598 0.07390223 0.016082643 -0.09639943 -0.041168112 0.12999532 0.032024663
0.054311574 -0.0057895817 -0.025060328 -0.06952191 -0.11045536 0.048590504 0.026022485 0.016758597
-0.06426901 0.039449833 0.05368458 -0.09313841 -0.0044410056 -0.0851722 0.0042675096 -0.07146047
-0.025963126 0.07873824 0.116922125 0.0862411 0.1179558 0.09385039 0.11611604 0.07111117
0.103763536 -0.058829848 0.10910923 0.11827461 -0.012796331 0.024677936 0.12900582 0.06360985
0.117906734 0.07171064 0.1024339 -0.026405942 0.035632353 0.13044576 0.022184666 0.09216857
0.07065625 -0.015965125 -0.05755587 -0.076637186 -0.1040329 0.10366668 -0.13452372 0.032993875
0.013580803 -0.028233834 -0.054848775 0.00954023 -0.11227439 -0.08733981 0.021244308 -0.1303323
0.051318027 0.10109681 -0.0052363737 0.013106792 0.077075325 0.092758276 0.049737778 0.0495434
-0.046126507 -0.07795634 -0.034560267 -0.009527731 0.0053044697 0.04114199 -0.12422111 -0.04709688
-0.08388647 -0.029013155 -0.057887122 0.111258596 0.08955681 0.10962581 0.05303463 0.072649375
0.11440203 0.0444557 0.031207563 -0.098457865 -0.13320881 -0.09378004 0.05096991 0.10449252
0.045909233 0.13518775 0.07020372 -0.092316814 -0.006316144 -0.05861812 0.105846055 -0.078982264
-0.090187386 0.040051494 -0.065232486 0.01837338 0.13843809 -0.12364317 0.096899435 -0.037983578
0.058183324 -0.08038249 -0.05508792 -0.016476935 -0.07203474 0.087469876 -0.065897204 -0.007846306
0.046069548 0.09249476 -0.039412115 0.113632455 0.1249042 -0.049052283 0.07280765 0.08430021
-0.002256013 0.033349086 0.0022160853 -0.084968835 0.023428706 -0.012631524 -0.08172092 -0.042194158
0.039230816 0.07573789 0.051895242 -0.04613474 -0.089218564 0.014518207 -0.08797428 -0.08947304
0.034353193 -0.057850763 -0.05090956 0.08749314 0.051516447 0.12032781 0.041205205 0.035569873
0.004019663 0.092780225 0.028069576 0.05137541 0.11094596 0.043163188 0.02385025 -0.12017228
0.108367264 0.03323711 0.030586664 0.002532447 -0.071875975 -0.07997534 0.06805343 -0.070767716
-0.078944094 0.06915812 0.14080763 0.13808632 -0.09660472 0.060142335 0.08350534 -0.048643246
-0.036341738 -0.111348145 0.1158298 -0.107448116 0.088151984 0.071033366 0.06554204 -0.030243337
0.0872145 0.08580508 0.0007527449 -0.019095574 -0.01817081 0.0077609615 -0.17643476 -0.16360363
0.08090964 0.027171606 0.06500044 -0.042021994 0.092882834 0.06278107 -0.18195873 -0.19199608
0.0049858675 -0.025878355 -0.08213928 -0.047802914 0.0013169943 -0.13514072 -0.14723422 -0.06133856
0.12987442 -0.06404254 -0.012441298 0.04276942 -0.092001885 -0.12605213 -0.0066712857 -0.0949394
0.06043291 -0.1186085 0.03341561 0.08596398 -0.030888002 -0.055358518 -0.09395473 -0.006827482
0.05672249 -0.024226801 0.06495303 -0.06591832 0.06587906 -0.04094381 -0.03749299 -0.100405775
0.052536618 -0.088615134 -0.071332 -0.111924686 0.07399631 0.024567682 -0.105473705 -0.14111532
00000000: cbed 8fbc 1346 b7bd 14a0 e2bd 1c32 c23c
00000010: abf9 503a 1a38 2a3c 9de4 f83d 5270 c3bc
00000020: ba34 8e3d ad7a 783c 1bd9 adbd bf34 7f3c
00000030: b469 e73d e7cc d13c 5f47 f63d 47ec a4bd
00000040: 2587 92bb c001 023e 0d5a 973d bfbf 833c
00000050: 106d c5bd e59f 28bd 7e1d 053e 4b2c 033d
00000060: d075 5e3d 88b6 bdbb 514b cdbc 8161 8ebd
00000070: 6b36 e2bd d606 473d 1b2d d53c 5349 893c
00000080: 799f 83bd 2696 213d 5de4 5b3d 5abf bebd
00000090: db85 91bb c36e aebd 77d6 8b3b de59 92bd
000000a0: 9fb0 d4bc 8441 a13d de74 ef3d 2d9f b03d
000000b0: cf92 f13d a234 c03d 3fce ed3d bca2 913d
000000c0: fa81 d43d 91f7 70bd a974 df3d f539 f23d
000000d0: b4a7 51bc 6229 ca3c 1a1a 043e e245 823d
000000e0: 1679 f13d 07dd 923d ddc8 d13d 4651 d8bc
000000f0: 3bf3 113d 9393 053e 9ebc b53c e0c2 bc3d
00000100: 39b4 903d 4bc9 82bc b4bf 6bbd f5f3 9cbd
00000110: 330f d5bd 324f d43d 96c0 09be 9624 073d
00000120: 0482 5e3c a44a e7bc 1ca9 60bd a04e 1c3c
00000130: 1ef0 e5bd 37df b2bd 8b08 ae3c d575 05be
00000140: da32 523d d80b cf3d e395 abbb dfbd 563c
00000150: abd9 9d3d 0df8 bd3d d7b9 4b3d 05ee 4a3d
00000160: 26ef 3cbd 93a7 9fbd 118f 0dbd 331a 1cbc
00000170: 1ed1 ad3b 8184 283d a367 febd a8e8 40bd
00000180: abcc abbd ffac edbc 0c1b 6dbd 8cdb e33d
00000190: 9069 b73d 7f83 e03d d73a 593d 32c9 943d
000001a0: 9d4b ea3d 2e17 363d 01a7 ff3c 47a4 c9bd
000001b0: e467 08be c00f c0bd d3c5 503d 2d00 d63d
000001c0: 520b 3c3d a86e 0a3e f8c6 8f3d 9910 bdbd
000001d0: a8f7 cebb 8e19 70bd d1c5 d83d 74c1 a1bd
000001e0: 2ab4 b8bd 090d 243d 9c98 85bd c583 963c
000001f0: b7c2 0d3e a138 fdbd 3673 c63d ab94 1bbd
00000200: a351 6e3d 939f a4bd dfa3 61bd a3fa 86bc
00000210: f386 93bd 6823 b33d 1df5 86bd cb8d 00bc
00000220: 6cb3 3c3d e56d bd3d 996e 21bd 22b8 e83d
00000230: c6cd ff3d 0ceb 48bd 2d1c 953d 97a5 ac3d
00000240: 9ed9 13bb 0d99 083d be3b 113b 2404 aebd
00000250: 8fed bf3c 74f4 4ebc 4c5d a7bd c8d3 2cbd
00000260: 7eb0 203d 781c 9b3d 1b90 543d c8f7 3cbd
00000270: 39b8 b6bd c6dd 6d3c dc2b b4bd a43d b7bd
00000280: efb5 0c3d ecf4 6cbd 8b86 50bd 9a2f b33d
00000290: e902 533d 6d6e f63d cac6 283d b7b1 113d
000002a0: 61b7 833b 8f03 be3d 2bf2 e53c 066f 523d
000002b0: a337 e33d e2cb 303d 9961 c33c e21c f6bd
000002c0: a8ef dd3d a323 083d e290 fa3c 69f7 253b
000002d0: b633 93bd 1cca a3bd 995f 8b3d aaee 90bd
000002e0: 71ad a1bd c6a2 8d3d e02f 103e 8066 0d3e
000002f0: b2d8 c5bd cf57 763d d904 ab3d 243e 47bd
00000300: 13db 14bd 7f0a e4bd 2d38 ed3d c20d dcbd
00000310: 0789 b43d f179 913d e83a 863d e0c0 f7bc
00000320: 849d b23d 93ba af3d db53 453a 526e 9cbc
00000330: f3da 94bc aa4f fe3b 50ab 34be b687 27be
00000340: f4b3 a53d fd96 de3c f31e 853d 411f 2cbd
00000350: 5b39 be3d 5d93 803d 6453 3abe 9f9a 44be
00000360: 7d60 a33b d8fe d3bc a438 a8bd fdcc 43bd
00000370: ff9e ac3a 5462 0abe 91c4 16be 243e 7bbd
00000380: cdfd 043e bc28 83bd 96d6 4bbc fd2e 2f3d
00000390: 7c6b bcbd cf13 01be cd9a dabb 976f c2bd
000003a0: 8088 773d 03e9 f2bd cfde 083d e20d b03d
000003b0: d608 fdbc 9dbf 62bd 566b c0bd 12b9 dfbb
000003c0: d755 683d 4977 c6bc 1806 853d 2f00 87bd
000003d0: 9aeb 863d b2b4 27bd 4092 19bd 8ba1 cdbd
000003e0: a330 573d da7b b5bd 8316 92bd c538 e5bd
000003f0: 618b 973d 2a42 c93c 9902 d8bd 8980 10be

network_body.observation_encoder.processors.0.conv_layers.0.bias f4 [16]
-0.045732707 0.0069261417 0.022315549 -0.01660512 -0.12422711 -0.08846493 -0.021621114 -0.015558601
0.02394816 0.04755933 0.010542032 0.006407843 -0.05563416 -0.050227474 0.021188598 -0.0127469255
00000000: 3852 3bbd b0f4 e23b 19cf b63c 7607 88bc
00000010: c86a febd 1a2d b5bd c31e b1bc 81e9 7ebc
00000020: ee2e c43c 92cd 423d 7db8 2c3c e2f8 d13b
00000030: a5e0 63bd 53bb 4dbd b693 ad3c 7bd8 50bc

network_body.observation_encoder.processors.0.conv_layers.2.weight f4 [32, 16, 4, 4]
0.036699403 -0.018231135 -0.01837108 0.01252092 -0.03027423 0.03521825 0.049074274 0.01037023
-0.089328535 -0.028419651 0.004351459 -0.036890104 0.053123895 0.035395317 0.042544417 -0.06619281
-0.02271855 0.03205776 0.023006832 -0.004890181 0.059840273 -0.047822855 0.03449773 -0.039955795
-0.056885216 0.00028911026 0.06868386 0.011083435 0.0051390403 -0.042557266 0.01413812 -0.007310833
-0.04396017 0.05338002 -0.06177472 0.027463375 -0.06275981 0.037403513 0.053875756 -0.039067462
-0.017657679 -0.009101823 0.09802744 -0.0014350298 0.01437954 -0.0423962 0.092265725 0.00066839985
-0.006022465 -0.0011871593 0.036684465 0.04043673 0.005212207 0.054310434 -0.055314124 0.07014188
-0.005864835 -0.036905345 0.044452045 0.027092606 0.016621292 -0.08275258 0.042960927 0.07513099
0.052740786 -0.021918021 0.0038600557 -0.0038797848 0.054743696 0.028332915 0.0030141836 -0.038960777
-0.041282225 -0.11335946 0.028601062 0.0047648293 0.055986945 -0.009626636 -0.050981842 0.034316633
-0.071326606 0.0011392882 -0.02694054 0.013377693 -0.026765404 -0.031544197 -0.025558738 0.046600845
0.036375362 -0.046358716 0.022771925 -0.0740783 -0.026780782 -0.038696103 -0.01870508 0.008498937
-0.0101529425 -0.012205355 -0.04072211 0.017402466 -0.033949766 -0.05527236 -0.08578833 -0.048268918
0.046257555 -0.044831894 0.0906603 -0.026138572 -0.029826215 -0.07068923 -0.003167713 0.09040452
0.062383723 -0.028535148 0.031979352 -0.05412125 0.016622245 0.068617545 -0.016087752 -0.014146344
-0.013157611 0.086531006 0.08198279 -0.018895859 -0.04201006 -0.015336189 0.009500926 0.026719168
0.05979639 -0.058723323 0.04190092 0.01697065 -0.050089747 0.06815126 0.021815004 0.048628125
-0.021783179 0.01759968 0.059541162 0.027794672 -0.033930235 -0.008121747 0.09338944 0.047968876
-0.003803507 -0.06660969 -0.028787423 -0.017981552 0.015442026 0.044856865 0.0517002 -0.062015723
-0.0010344811 0.012245562 -0.0055343485 -0.023060536 -0.07513964 0.07143132 0.056669578 -0.053654972
-0.013903391 -0.016234322 0.0072930614 0.004308944 -0.009398615 -0.015652426 0.02361764 -0.05605023
-0.050448168 -0.027131487 -0.02747131 0.03087443 -0.006881149 0.011439415 0.011022965 0.039546784
0.03156833 -0.0032110545 0.018710868 0.016299136 -0.053369664 0.018654216 0.028420504 0.021678109
0.03223406 -0.015919005 -0.0013951929 0.0033208567 0.042726036 -0.10696343 -0.052500542 0.027286077
0.0032347294 -0.04931348 -0.0419018 -0.05721328 0.015538689 -0.031052077 -0.0158207 -0.06484951
0.009869778 0.0880952 0.082867265 -0.020496966 -0.041985594 -0.015521487 0.114627525 0.038277235
-0.069934696 0.07187776 -0.042554952 0.012285248 0.04298057 0.040799774 -0.06313358 -0.09197952
-0.018604374 -0.01100908 0.014725515 -0.08427112 0.03372076 0.027789503 -0.028732348 -0.08935817
-0.04947084 -0.039534245 0.021706868 0.051955167 -0.044046894 0.008662587 -0.014559185 -0.10109253
0.04899627 -0.058962096 0.020219319 0.03899053 0.043661255 0.00044428592 0.027526496 0.016230503
0.03770717 -0.065730736 0.027658071 0.025389735 -0.031333808 -0.064240284 0.018887592 -0.002608312
-0.043801203 -0.07498793 0.015940942 0.07213021 -0.04966159 -0.03795173 0.053441525 0.05423593
00000000: 1d52 163d 7659 95bc f27e 96bc 8b24 4d3c
00000010: a901 f8bc 0341 103d 1b02 493d e6e7 293c
00000020: e1f1 b6bd 54d0 e8bc af96 8e3b 141a 17bd
00000030: 7198 593d aefa 103d 0e43 2e3d 1990 87bd
00000040: 411c babc ff4e 033d d378 bc3c d03d a0bb
00000050: 131b 753d e6e1 43bd 7e4d 0d3d b0a8 23bd
00000060: 7900 69bd b993 9739 20aa 8c3d 4c97 353c
00000070: 6565 a83b 8750 2ebd 93a3 673c b68f efbb
00000080: 940f 34bd 02a5 5a3d 7d07 7dbd dffa e03c
00000090: 3788 80bd 6d34 193d d3ac 5c3d 3405 20bd
000000a0: d6a6 90bc d01f 15bc 9cc2 c83d 9c17 bcba
000000b0: 2a98 6b3c a3a7 2dbd d0f5 bc3d 8e37 2f3a
000000c0: 1958 c5bb 759a 9bba 7342 163d fca0 253d
000000d0: 29cb aa3b 9e74 5e3d 1091 62bd 8ca6 8f3d
000000e0: cd2d c0bb 0f2a 17bd 5913 363d 50f1 dd3c
000000f0: 6029 883c 2f7a a9bd ccf7 2f3d 47de 993d
00000100: b906 583d 6c8d b3bc fdf8 7c3b fd43 7ebb
00000110: ed3a 603d 6e1a e83c 9c89 453b 5695 1fbd
00000120: 8d17 29bd 0129 e8bd c64c ea3c 4922 9c3b
00000130: 9152 653d 0ab9 1dbc 56d2 50bd 998f 0c3d
00000140: af13 92bd 2b54 953a 68b2 dcbc 1c2e 5b3c
00000150: 1f43 dbbc 7d34 01bd 8f60 d1bc 87e0 3e3d
00000160: 55fe 143d a3e2 3dbd 308c ba3c 5db6 97bd
00000170: 5f63 dbbc ce7f 1ebd 653b 99bc 203f 0b3c
00000180: 8758 26bc f8f8 47bc 3acc 26bd 9e8f 8e3c
00000190: e90e 0bbd 4565 62bd cbb1 afbd a1b5 45bd
000001a0: 9078 3d3d a6a1 37bd 1bac b93d 8f20 d6bc
000001b0: 1b56 f4bc 84c5 90bd 6899 4fbb 0126 b93d
000001c0: 1386 7f3d 8bc2 e9bc c8fc 023d 3eae 5dbd
000001d0: 602b 883c 5b87 8c3d 76ca 83bc 11c6 67bc
000001e0: 0593 57bc 2b37 b13d 98e6 a73d 7dcb 9abc
000001f0: be12 2cbd a444 7bbc c6a9 1b3c 28e2 da3c
00000200: 0fed 743d de87 70bd 4da0 2b3d 0806 8b3c
00000210: e82a 4dbd e392 8b3d 61b5 b23c 492e 473d
00000220: a372 b2bc 342d 903c 6fe1 733d a7b1 e33c
00000230: 6efa 0abd 1311 05bc f642 bf3d 037b 443d
00000240: 4244 79bb a96a 88bd 9ad3 ebbc 0c4e 93bc
00000250: 8d00 7d3c d5bb 373d 97c3 533d 3304 7ebd
00000260: 6d97 87ba 9ca1 483c 7b59 b5bb 73e9 bcbc
00000270: d0e2 99bd 954a 923d 5c1e 683d 51c5 5bbd
00000280: 0ccb 63bc d7fd 84bc a2fa ee3b 0b32 8d3b
00000290: a6fc 19bc 8439 80bc c879 c13c ed94 65bd
000002a0: bda2 4ebd da42 debc 830b e1bc 5fec fc3c
000002b0: 437b e1bb 626c 3b3c ab99 343c cffb 213d
000002c0: cb4d 013d 8e70 52bb 8947 993c c485 853c
000002d0: 269a 5abd bad0 983c 1ed2 e83c 4a96 b13c
000002e0: dd07 043d 9368 82bc e8de b6ba bba2 593b
000002f0: 7f01 2f3d a50f dbbd cf0a 57bd 0d87 df3c
00000300: c1fd 533b eefc 49bd 39a1 2bbd 7958 6abd
00000310: fc95 7e3c ed60 febc 6a9a 81bc d2cf 84bd
00000320: d9b4 213c 426b b43d 50b6 a93d 41e9 a7bc
00000330: 16f9 2bbd d64d 7ebc d6c1 ea3d 97c8 1c3d
00000340: ec39 8fbd a634 933d 1a4e 2ebd 1148 493c
00000350: 650c 303d aa1d 273d 2e4c 81bd c25f bcbd
00000360: 3368 98bc 6e5f 34bc 4943 713c 5696 acbd
00000370: c81e 0a3d d0a6 e33c 1a60 ebbc 6b01 b7bd
00000380: efa1 4abd a9ee 21bd 9ad2 b13c f1ce 543d
00000390: 846a 34bd 86ed 0d3c a689 6ebc 9a09 cfbd
000003a0: 50b0 483d 3d82 71bd fca2 a53c 89b4 1f3d
000003b0: 25d6 323d 0cef e839 3f7f e13c d5f5 843c
000003c0: d572 1a3d d69d 86bd 2e93 e23c 22fe cf3c
000003d0: e157 00bd 6990 83bd 27ba 9a3c 37f0 2abb
000003e0: e468 33bd 4693 99bd 9496 823c 01b9 933d
000003f0: f469 4bbd 4673 1bbd 80e5 5a3d 7f26 5e3d

network_body.observation_encoder.processors.0.conv_layers.2.bias f4 [32]
-0.07225279 0.018100567 -0.029540068 0.00014977007 -0.09306459 -0.0478253 0.0044901185 0.0039160177
0.045097377 -0.028890481 -0.014911618 0.03318142 0.031947136 -0.031639095 -0.013244126 -0.012371454
0.020386273 0.019706646 -0.02768757 0.008092399 -0.06334866 0.0048945644 -0.02087365 -0.065911494
-0.045015138 0.0019107371 0.026405357 -0.013327203 -0.047540195 -0.04999432 -0.08262202 0.039857093
00000000: 45f9 93bd a447 943c 03fe f1bc 990b 1d39
00000010: a698 bebd 76e4 43bd d821 933b f051 803b
00000020: 07b8 383d bbab ecbc dc4f 74bc 3ee9 073d
00000030: 00db 023d ff97 01bd e4fd 58bc a4b1 4abc
00000040: 1d01 a73c d56f a13c 0bd1 e2bc fb95 043c
00000050: f1bc 81bd 9562 a03b 38ff aabc 9bfc 86bd
00000060: cb61 38bd b371 fa3a 0c50 d83c 575a 5abc
00000070: 82b9 42bd d8c6 4cbd bc35 a9bd 3141 233d

network_body.observation_encoder.processors.0.dense.0.weight f4 [128, 512]
-0.074233495 -0.0356927 0.044448406 0.06826169 0.002927038 -0.096628994 -0.0415513 0.13425034
-0.0068473327 -0.1250753 0.016944507 -0.09326225 -0.04009722 0.04599903 0.0570576 0.0034748847
-0.018719994 0.0038495602 -0.030452652 0.10069336 0.0720702 -0.11114605 -0.05017494 0.07107576
0.07065043 0.038418956 -0.12598285 -0.04427685 -0.043491863 -0.01322714 0.017357446 0.15387595
-0.0012455726 0.075852014 0.052677248 -0.053121764 -0.035227854 0.013077997 0.036030985 0.13158172
-0.086690746 -0.022922836 -0.17408812 0.0663449 -0.00850172 -0.020616844 0.051615745 -0.12308095
-0.02141668 0.013149572 0.1042267 0.026463091 -0.086673975 -0.008019337 -0.015297558 -0.017652126
-0.03737648 -0.043290954 -0.1322577 -0.04219885 0.016135832 0.009541066 0.09604389 0.0341104
0.038539767 -0.0024921375 -0.07482872 -0.032573 0.06530781 0.037641797 -0.10118037 -0.019835487
-0.071555525 -0.015201862 0.16484958 -0.03523469 0.15703532 -0.087915614 -0.08690512 0.11722555
-0.08905952 -0.03722916 -0.046420872 -0.053198975 0.002323717 -0.086398 -0.051922835 0.008320493
-0.001118237 -0.07061941 0.039349522 0.08165243 -0.048779868 0.0015152931 -0.055499747 0.004582094
-0.0032005804 0.022887638 0.0030315889 -0.04441347 -0.019616347 0.11550633 0.035407256 0.036835257
0.025893401 0.12264494 0.0501084 -0.0029227864 -0.094165474 0.04936259 -0.02820234 -0.004876609
0.12440324 0.09689594 0.0493873 0.007914352 0.032837123 -0.023453526 0.027286187 0.059327677
-0.016925083 -0.02200919 0.15343508 -0.0552721 -0.004430516 -0.11499531 -0.06951737 0.05744125
-0.011763301 -0.075109795 0.21794319 0.03369041 -0.039137006 -0.055737365 0.10380643 0.028962621
0.11740372 -0.014878311 -0.024972765 0.011255509 -0.089057826 0.0144374175 0.081240274 0.014026266
-0.042469762 0.022185119 -0.043430407 0.04398069 -0.03476103 0.09636837 -0.1095876 -0.031882953
-0.043680456 0.045081057 0.018372457 -0.032033216 0.008556973 -0.015718704 -0.0074671996 -0.068724945
0.0032848339 0.051258147 -0.014549514 -0.028242217 -0.023652077 -0.05587821 0.14538051 0.0027151452
0.04413861 0.05081505 -0.09714054 0.09058418 0.015692636 -0.02532657 -0.02481896 0.09549118
0.025881624 -0.06745584 -0.13785495 -0.00034168118 -0.07512457 -0.016138501 0.081756376 0.023768561
0.030034024 -0.0573894 -0.047370277 0.021742357 -0.006232746 -0.046558768 0.057183366 -0.04406594
-0.017774591 -0.004116533 -0.00218136 -0.047942944 -0.03199656 0.048997443 -0.03970794 -0.030512929
0.021120714 -0.064185165 -0.0119677 0.06961441 -0.028827893 -0.10351499 -0.12335309 -0.07078863
-0.038214598 -0.04651994 -0.041170236 -0.10440375 -0.018250989 -0.11499959 -0.04703058 -0.065223314
0.12982565 0.047346164 -0.1388127 0.021912463 -0.08309508 0.146892 0.04367592 -0.12782244
0.009709716 0.061776392 0.04755917 -0.053113405 -0.09601043 0.02548465 0.011299386 -0.053147063
-0.030300168 0.019922739 -0.02341569 0.023403974 -0.05576489 -0.038955342 -0.031054443 -0.119512305
-0.00022532302 -0.04287645 0.1412847 0.12534142 -0.018134953 0.121485084 -0.1022962 -0.05043858
-0.05233238 0.004825792 -0.014596495 -0.02044287 0.043111827 -0.04867263 -0.015888873 -0.13631494
00000000: bb07 98bd 8232 12bd 880f 363d c9cc 8b3d
00000010: 8cd3 3f3b 6ce5 c5bd b231 2abd ec78 093e
00000020: 975f e0bb bd13 00be 35cf 8a3c 4700 bfbd
00000030: fc3c 24bd 7b69 3c3d 3bb5 693d e4ba 633b
00000040: ac5a 99bc e748 7c3b d777 f9bc 5238 ce3d
00000050: 8b99 933d 8aa0 e3bd 3d84 4dbd 2b90 913d
00000060: 2cb1 903d 325d 1d3d a601 01be a45b 35bd
00000070: 8624 32bd a5b6 58bc 3431 8e3c a891 1d3e
00000080: 7b42 a3ba 4d58 9b3d 19c4 573d 3596 59bd
00000090: 154b 10bd 1845 563c 3a95 133d 5cbd 063e
000000a0: eb8a b1bd acc8 bbbc 2844 32be d6df 873d
000000b0: cc4a 0bbc a8e4 a8bc 086b 533d dd11 fcbd
000000c0: 0972 afbc 4d71 573c cf74 d53d 20c9 d83c
000000d0: 2082 b1bd 8a63 03bc 9ca2 7abc 319b 90bc
000000e0: 1418 19bd db51 31bd 906e 07be b4d8 2cbd
000000f0: 4b2f 843c 2252 1c3c a9b2 c43d 59b7 0b3d
00000100: e0db 1d3d 2153 23bb cd3f 99bd 446b 05bd
00000110: 1ac0 853d 492e 1a3d a737 cfbd 087e a2bc
00000120: b48b 92bd 3b11 79bc 54ce 283e 4052 10bd
00000130: decd 203e 1a0d b4bd 50fb b1bd f313 f03d
00000140: d664 b6bd 9b7d 18bd d023 3ebd 2be7 59bd
00000150: 8149 183b 6ff1 b0bd 0aad 54bd ad52 083c
00000160: cf91 92ba e9a0 90bd f72c 213d 6439 a73d
00000170: 66cd 47bd cd9c c63a b453 63bd 6425 963b
00000180: d4c0 51bb db7e bb3c 9fad 463b e6ea 35bd
00000190: 76b2 a0bc 958e ec3d 3307 113d 91e0 163d
000001a0: 661e d43c 452d fb3d 773e 4d3d 388c 3fbb
000001b0: d4d9 c0bd 6d30 4a3d 9808 e7bc f6cb 9fbb
000001c0: 20c7 fe3d 6171 c63d 564a 4a3d 33ab 013c
000001d0: 3880 063d 9c21 c0bc 4887 df3c 9401 733d
000001e0: 79a6 8abc 9e4c b4bc 161e 1d3e ff64 62bd
000001f0: dd2d 91bb a982 ebbd 1f5f 8ebd 8447 6b3d
00000200: dcba 40bc 2ad3 99bd 802c 5f3e f5fe 093d
00000210: 204e 20bd dd4c 64bd 7798 d43d 0543 ed3c
00000220: 5d71 f03d 29c4 73bc af93 ccbc 0769 383c
00000230: f363 b6bd eb8a 6c3c 4d61 a63d 6cce 653c
00000240: c6f4 2dbd 91bd b53c 15e4 31bd 1925 343d
00000250: 9561 0ebd c85c c53d 776f e0bd b397 02bd
00000260: 47ea 32bd eaa6 383d d681 963c 4335 03bd
00000270: 8c32 0c3c 83c4 80bc 69af f4bb aabf 8cbd
00000280: 5e46 573b 10f4 513d 1661 6ebc 395c e7bc
00000290: 00c2 c1bc 8de0 64bd a1de 143e 94f0 313b
000002a0: b0ca 343d 7123 503d 9ff1 c6bd 3384 b93d
000002b0: d88d 803c ab79 cfbc 2251 cbbc e190 c33d
000002c0: b305 d43c 4a26 8abd d929 0dbe ac23 b3b9
000002d0: e9da 99bd e434 84bc e36f a73d 49b6 c23c
000002e0: ea09 f63c 2611 6bbd 5607 42bd 071d b23c
000002f0: 103c ccbb 68b4 3ebd 1b39 6a3d 7d7e 34bd
00000300: 059c 91bc fbe3 86bb 26f5 0ebb d25f 44bd
00000310: d30e 03bd 8bb1 483d cba4 22bd 40f6 f9bc
00000320: 5905 ad3c 8373 83bd 2c14 44bc 0092 8e3d
00000330: 7928 ecbc abff d3bd 8ba0 fcbd a1f9 90bd
00000340: e986 1cbd b18b 3ebd 1fa2 28bd a2d1 d5bd
00000350: 1983 95bc e884 ebbd 23a3 40bd cd93 85bd
00000360: 04f1 043e 0dee 413d eb24 0ebe c481 b33c
00000370: c12d aabd db6a 163e 86e5 323d e3e3 02be
00000380: 8015 1f3c 3e09 7d3d 67cd 423d 718d 59bd
00000390: 1ea1 c4bd 2fc5 d03c 0f21 393c bcb0 59bd
000003a0: 0f38 f8bc 0335 a33c 43d2 bfbc b1b9 bf3c
000003b0: ba69 64bd a38f 1fbd e365 febc dec2 f4bd
000003c0: b044 6cb9 379f 2fbd f0ac 103e 8059 003e
000003d0: c18f 94bc 2ccd f83d ac80 d1bd af98 4ebd
000003e0: 7a5a 56bd ad21 9e3b 2326 6fbc ce77 a7bc
000003f0: 0796 303d f45c 47bd 6229 82bc 2596 0bbe

network_body.observation_encoder.processors.0.dense.0.bias f4 [128]
-0.0053870054 0.010906904 0.012474069 0.014860612 -0.0056819916 0.014045536 -0.0045551923 0.013440873
0.008513444 -0.018927263 0.010705588 0.026052084 -0.03638192 -0.019741287 -0.023407932 0.019667944
0.037063178 -0.023000661 0.014121295 -0.021790026 -0.009393881 0.014205717 0.02259859 0.0031852752
-0.025698602 0.011428256 0.012319595 -0.0012998162 0.016658893 0.0038006692 -0.011749176 0.00047612935
0.013067464 0.013303736 -0.007632863 0.010561288 -0.005633167 -0.019432954 -0.018520998 -0.025552826
0.023992084 0.0024054945 0.026390154 -0.032418072 0.014653455 -0.003986675 -0.028365199 0.013271212
0.025808835 0.024849573 -0.0019043481 -0.03316914 -0.053790618 0.027343506 0.020746738 -0.035872843
0.021093678 -0.015293383 -0.014712893 0.005968407 -0.03339412 -0.012784854 -0.009927859 -0.03422356
-0.0042550243 -0.01001258 0.0041994024 -0.0025156818 0.035857964 0.023047775 0.023429776 0.017870346
0.02103152 0.017534245 0.0059887036 0.0026547825 -0.014389665 0.009508634 0.030998645 0.0058755227
0.009592968 0.029591616 0.017463107 -0.032103535 -0.024058506 0.03244053 -0.027747527 0.007662301
0.033030663 -0.04177297 -0.0059046396 -0.028092809 0.014969908 0.02228725 -0.034350276 0.0142343175
0.028281989 0.022855014 0.023033697 0.00915019 0.010036771 0.035092346 0.020879531 0.0074207187
0.015046311 0.019641627 0.014782818 -0.00026618404 0.025382638 0.036844663 0.011220324 0.015033805
0.01654369 0.015578157 0.020709964 -0.013971576 0.023541281 -0.007396894 0.024076963 -0.021934405
0.017531725 0.018438848 0.031035809 -0.008130307 9.525574e-05 -0.0014355265 0.010076072 0.03717466
00000000: 7a85 b0bb dfb2 323c 0a60 4c3c ed79 733c
00000010: 0030 babb 3f1f 663c b943 95bb 1b37 5c3c
00000020: f97b 0b3c 590d 9bbc 7e66 2f3c 2e6b d53c
00000030: 3505 15bd 7bb8 a1bc fec1 bfbc ab1e a13c
00000040: 8fcf 173d e26b bcbc 015d 673c ff80 b2bc
00000050: cbe8 19bc 18bf 683c ae20 b93c 0dc0 503b
00000060: e085 d2bc 943d 3b3c 20d8 493c 985e aaba
00000070: 3b78 883c a614 793b 9e7f 40bc 00a1 f939
00000080: eb18 563c eaf7 593c 181d fabb 4109 2d3c
00000090: 6e96 b8bb dc31 9fbc 59b9 97bc 2954 d1bc
000000a0: 0c8b c43c 80a5 1d3b 2a30 d83c d0c8 04bd
000000b0: 0b15 703c a7a2 82bb 225e e8bc 7f6f 593c
000000c0: 0d6d d33c 5591 cb3c 529b f9ba 5ddc 07bd
000000d0: 8d53 5cbd 7dff df3c 10f5 a93c 67ef 12bd
000000e0: a6cc ac3c 1991 7abc 590e 71bc a092 c33b
000000f0: 46c8 08bd 9077 51bc 75a8 22bc 012e 0cbd
00000100: bb6d 8bbb ce0b 24bc 249b 893b 23de 24bb
00000110: cddf 123d b0ce bc3c cdef bf3c d564 923c
00000120: 4b4a ac3c faa3 8f3c e33c c43b dcfb 2d3b
00000130: a1c2 6bbc 1aca 1b3c dff0 fd3c 7587 c03b
00000140: d32b 1d3c 1e6a f23c ca0e 8f3c ff7e 03bd
00000150: 5816 c5bc 5ce0 043d c84e e3bc 0a14 fb3b
00000160: 294b 073d 221a 2bbd b57b c1bb e422 e6bc
00000170: 5844 753c c093 b63c e0b2 0cbd 0e37 693c
00000180: a1af e73c 703a bb3c 2ab1 bc3c aeea 153c
00000190: 4571 243c febc 0f3d 8d0b ab3c 8029 f33b
000001a0: cd84 763c 7ae7 a03c a233 723c 9e8e 8bb9
000001b0: 40ef cf3c 6eea 163d 73d5 373c 5950 763c
000001c0: a286 873c 873b 7f3c f1a7 a93c 09e9 64bc
000001d0: a5d9 c03c a561 f2bb 0d3d c53c c8af b3bc
000001e0: b19e 8f3c 110d 973c cf3e fe3c fb34 05bc
000001f0: 09c4 c738 4728 bcba 1c16 253c 7544 183d

network_body._body_endoder.seq_layers.0.weight f4 [128, 128]
-0.04997738 -0.030205611 -0.034472607 -0.011832799 -0.00029031961 0.012997485 -0.18664567 -0.14803375
-0.014707019 0.05514714 0.08100261 -0.009121003 -0.097552955 0.084421284 -0.015553979 -0.07418631
-0.019058954 0.09987156 0.06735324 -0.009373625 -0.14795229 -0.16873345 0.035939224 0.047307253
0.06573995 0.028894877 -0.12298689 -0.07445023 0.08537386 -0.05689581 -0.070025854 -0.072249226
0.028806861 -0.181184 -0.12395048 0.13632682 0.16166313 0.13410358 0.017871484 0.10018801
-0.11836585 0.09523962 0.0022164145 -0.011989191 -0.25074393 -0.00281469 0.058365263 0.16379808
-0.01875575 -0.047867946 0.02250883 -0.081333384 0.042229373 0.06859677 0.039358333 0.0031452808
-0.033017654 0.089059316 -0.02519101 0.029855872 -0.09919656 -0.07817081 0.052301843 0.01968253
0.32672563 -0.05310454 -0.10718451 0.1284354 0.14012867 0.010762819 -0.03272156 0.0029171784
-0.124792784 -0.034462318 0.16650324 -0.051833883 -0.07664398 -0.06156824 0.084516525 0.031303663
0.05033835 0.14165659 -0.05788162 0.020765794 -0.06868359 -0.12468682 0.0029665052 0.056770265
-0.11981722 0.119136274 0.06319322 -0.008933855 -0.2272165 0.025666494 -0.0375394 -0.0146570355
-0.024454221 0.03891576 -0.04208155 0.018628942 -0.10544685 0.022764096 0.06977579 0.06303785
0.023685863 0.026041878 -0.016204432 -0.002835114 -0.08084228 -0.0625915 -0.10412848 -0.043858122
-0.20985018 -0.025901703 -0.086027935 -0.00536361 -0.042863104 0.020906048 -0.040935744 -0.07522156
-0.18970019 -0.061230898 0.17231661 -0.12659965 -0.035129137 -0.103089176 -0.11653425 -0.072120115
0.05714698 0.030038899 0.11470683 0.033047944 0.020342473 -0.171197 0.03884945 -0.2827296
-0.177382 0.02887694 0.15638436 -0.08181392 0.027436813 -0.065155506 -0.11181105 0.0047097025
0.1798276 -0.062895454 0.08792502 0.097567536 -0.12366519 -0.03102714 0.013133638 -0.03633901
0.05503055 -0.05035963 0.04915142 -0.09027578 -0.0131994635 0.10838589 0.011219056 0.008014248
0.04163558 -0.008142539 -0.10826099 0.08861694 0.037982333 0.08357618 -0.11873375 0.056962494
-0.07839322 0.015731338 0.0770403 -0.05981609 -0.026201302 0.09848615 -0.1012778 0.086002536
-0.08891505 -0.13222736 -0.066557735 -0.088455796 0.0026847892 -0.014004014 0.0028849016 -0.02145025
-0.1041153 0.004856919 0.04288981 -0.10795127 -0.08592423 0.022606118 -0.031887464 -0.09669202
0.054014325 0.024955362 -0.10846901 -0.056813914 0.029168747 -0.07798536 -0.08509693 0.058343038
0.075560756 0.07421506 0.035003696 -0.1530379 -0.15468954 0.08099199 -0.020233056 -0.07929948
-0.02693744 -0.053162955 0.0641456 0.13867468 0.1570608 0.011974407 0.009085787 0.11910198
-0.033579774 -0.023421397 -0.023388423 -0.18873595 -0.19252145 0.12488078 -0.17112945 0.1024396
0.033221845 0.0036964673 -0.020916587 -0.14054264 -0.26510534 0.043236155 0.019011607 -0.050474185
0.14749315 0.11130682 -0.07410825 0.022988323 -0.09889583 0.0566396 0.24404778 -0.07278516
-0.043002807 0.034449264 -0.10552892 -0.11561214 0.028800674 -0.0105737485 0.16911961 -0.07691377
-0.065330386 -0.021980073 -0.00866904 0.06799252 -0.10100621 0.029376488 -0.06378836 -0.039504085
00000000: 15b5 4cbd c271 f7bc 2633 0dbd 5bde 41bc
00000010: 0a36 98b9 67f3 543c 0b20 3fbe 2996 17be
00000020: b5f5 70bc f8e1 613d b2e4 a53d 4270 15bc
00000030: d8c9 c7bd 11e5 ac3d 1ed6 7ebc feee 97bd
00000040: 8621 9cbc 7689 cc3d 7ff0 893d d593 19bc
00000050: ce80 17be 76c8 2cbe 0235 133d 40c5 413d
00000060: aba2 863d f3b4 ec3c 8de0 fbbd 5d79 98bd
00000070: 7ed8 ae3d 950b 69bd b769 8fbd 67f7 93bd
00000080: 5efc eb3c 4c88 39be c0d9 fdbd 4299 0b3e
00000090: 058b 253e 7352 093e 3867 923c 5f2f cd3d
000000a0: cb69 f2bd fd0c c33d 4441 113b 506e 44bc
000000b0: 8261 80be a976 38bb 6a10 6f3d afba 273e
000000c0: a9a5 99bc 2e11 44bd 7064 b83c 1e92 a6bd
000000d0: b5f8 2c3d 777c 8c3d 3436 213d 0e21 4e3b
000000e0: 853d 07bd bb64 b63d 615d cebc 4d94 f43c
000000f0: 9127 cbbd 0518 a0bd 753a 563d 423d a13c
00000100: 9548 a73e 2584 59bd 8d83 dbbd 9284 033e
00000110: e47d 0f3e 8956 303c 0b07 06bd 222e 3f3b
00000120: 5c93 ffbd 5c28 0dbd d37f 2a3e c44f 54bd
00000130: 85f7 9cbd fb2e 7cbd 0017 ad3d 4538 003d
00000140: 962f 4e3d 6d0e 113e 4715 6dbd 071d aa3c
00000150: fba9 8cbd ce5b ffbd b369 423b f087 683d
00000160: bb62 f5bd b8fd f33d 726b 813d 4e5f 12bc
00000170: 71ab 68be 8a42 d23c eac2 19bd 1024 70bc
00000180: 3854 c8bc 2266 1f3d b45d 2cbd b99b 983c
00000190: 85f4 d7bd c57b ba3c 9ce6 8e3d fd19 813d
000001a0: db08 c23c c755 d53c 28bf 84bc 52cd 39bb
000001b0: a390 a5bd f92f 80bd 5041 d5bd 93a4 33bd
000001c0: f7e2 56be cf2f d4bc 6a2f b0bd 39c1 afbb
000001d0: 3991 2fbd 2943 ab3c 3dac 27bd c30d 9abd
000001e0: c440 42be 40cd 7abd c473 303e 57a3 01be
000001f0: 92e3 0fbd 6b20 d3bd 82a9 eebd b6b3 93bd
00000200: f412 6a3d 2314 f63c 6aeb ea3d 485d 073d
00000210: 42a5 a63c 444e 2fbe 9a20 1f3d efc1 90be
00000220: a1a3 35be 558f ec3c 3923 203e 0e8e a7bd
00000230: 2bc3 e03c 4070 85bd 31fd e4bd d953 9a3b
00000240: ba24 383e 55cf 80bd 0812 b43d 7dd1 c73d
00000250: 2d44 fdbd a12c febc 782e 573c 37d8 14bd
00000260: b767 613d e645 4ebd 0053 493d 82e2 b8bd
00000270: 9042 58bc 6cf9 dd3d 22d0 373c 314e 033c
00000280: 128a 2a3d 4968 05bc f0b7 ddbd cc7c b53d
00000290: 5d93 1b3d fd29 ab3d ae2a f3bd 8151 693d
000002a0: a08c a0bd 02df 803c 4ec7 9d3d b701 75bd
000002b0: 1da4 d6bc 1bb3 c93d bc6a cfbd 1922 b03d
000002c0: 1819 b6bd 9c66 07be 6c4f 88bd 5028 b5bd
000002d0: 4af3 2f3b 1871 65bc 9e10 3d3b 6fb8 afbc
000002e0: 673a d5bd ca26 9f3b 3aad 2f3d 8e15 ddbd
000002f0: 0bf9 afbd 7730 b93c 6e9c 02bd 7706 c6bd
00000300: 203e 5d3d 306f cc3c 0025 debd b5b5 68bd
00000310: 4cf3 ee3c cab6 9fbd 4d47 aebd 1cf9 6e3d
00000320: 99bf 9a3d 11fe 973d 0960 0f3d f8b5 1cbe
00000330: ef66 1ebe 21df a53d cbbf a5bc c467 a2bd
00000340: e8ab dcbc 66c1 59bd c55e 833d bc00 0e3e
00000350: 8cd4 203e 4e30 443c 8edc 143c bdeb f33d
00000360: f28a 09bd 3bde bfbc 1499 bfbc ff43 41be
00000370: 5824 45be 7fc1 ff3d 8f3c 2fbe dacb d13d
00000380: a113 083d 6e40 723b 4359 abbc 69ea 0fbe
00000390: e3bb 87be 6518 313d 3bbe 9b3c 05be 4ebd
000003a0: 7208 173e d4f4 e33d 11c6 97bd 0252 bc3c
000003b0: e689 cabd edfe 673d a9e7 793e 6310 95bd
000003c0: b623 30bd ac1a 0d3d 8c1f d8bd 0fc6 ecbd
000003d0: 64ef eb3c 843d 2dbc b12d 2d3e f784 9dbd
000003e0: f0cb 85bd 8e0f b4bc 9708 0ebc aa3f 8b3d
000003f0: 58dc cebd f6a6 f03c 79a3 82bd 09cf 21bd

network_body._body_endoder.seq_layers.0.bias f4 [128]
-0.00948694 0.008988452 0.026475089 0.018786775 -0.012285853 0.010680603 -0.027797684 -0.009767911
0.025860649 0.005118412 0.002278333 0.0053983657 0.01669111 -0.005162821 -0.005683578 -0.011538122
0.011949792 0.016536837 -0.05423264 -0.014572007 0.00053697824 0.020717105 -0.016723014 -0.08166924
0.0038446228 -0.033547446 -0.0050038397 -0.0465889 0.0015762496 -0.009111598 -0.018984998 -0.005369066
-0.052459262 -0.036499325 0.01939557 0.02149694 0.028302003 -0.0020738277 0.028851634 0.002468053
0.020306397 -0.07757126 0.014067787 -0.004731859 0.019204551 0.0033119556 -0.038988426 0.031657837
0.017921332 0.00073307956 -0.027815877 -0.06081027 0.021075195 0.019773519 -0.023555567 0.03512522
-0.0720812 0.025233176 0.02683066 -0.0344469 -0.011683545 -0.010597524 0.011901888 0.014507893
0.030560514 0.025365127 -0.07883113 -0.021295289 0.0061474177 -0.03360562 0.019121738 -0.07597089
0.0027619347 -0.021429887 -0.0041577606 0.0071506645 -0.055127617 0.005793804 0.010307256 0.009856035
0.01650982 -0.0073919245 -0.024472114 0.00806446 -0.036191173 0.024878621 0.03244537 0.022706887
0.011244059 -0.012180724 -0.0131187895 0.012500492 -0.021950254 0.011192452 -0.026792906 -0.056080747
-0.008729894 -0.014981844 -0.01748341 -0.0036898311 -0.03330121 -0.053160857 0.0019125715 -0.044776846
0.013119053 0.01975952 -0.08967284 -0.021359205 -0.019057443 -0.06489089 0.0013038423 -0.008683786
0.0098327305 -0.0011353903 -0.049683634 0.0050363066 0.01570149 0.027673475 -0.012872464 -0.00035976764
0.030471362 -0.050130967 -0.016736506 0.0090857055 0.0107417675 -0.012936844 -0.0033666845 -0.0009498869
00000000: 1c6f 1bbc 4d44 133c 49e2 d83c b9e6 993c
00000010: 9a4a 49bc b2fd 2e3c f8b7 e3bc 9709 20bc
00000020: b6d9 d33c 5ab8 a73b 1650 153b c6e4 b03b
00000030: cbbb 883c e22c a9bb 4f3d babb 640a 3dbc
00000040: 0fc9 433c 4378 873c 0b23 5ebd 6dbf 6ebc
00000050: 00c4 0c3a ebb6 a93c b4fe 88bc 3442 a7bd
00000060: 11f6 7b3b 0c69 09bd 40f7 a3bb 01d4 3ebd
00000070: 299a ce3a d048 15bc 6d86 9bbc fdee afbb
00000080: 86df 56bd 5180 15bd 75e3 9e3c 5a1a b03c
00000090: 9ad9 e73c 0ee9 07bb 435a ec3c 0fbf 213b
000000a0: 9a59 a63c aedd 9ebd 937c 663c b60d 9bbb
000000b0: dd52 9d3c 650d 593b 54b2 1fbd a6ab 013d
000000c0: c2cf 923c 232c 403a 1fde e3bc 3114 79bd
000000d0: e3a5 ac3c 13fc a13c 9bf7 c0bc 76df 0f3d
000000e0: 4f9f 93bd ceb5 ce3c f9cb db3c 3118 0dbd
000000f0: 576c 3fbc 3da1 2dbc 2300 433c 83b2 6d3c
00000100: 0b5a fa3c 87ca cf3c 3772 a1bd 7573 aebc
00000110: 4770 c93b 0ca6 09bd 31a5 9c3c a096 9bbd
00000120: 9301 353b bb8d afbc d33d 88bb 1f50 ea3b
00000130: 7fcd 61bd f3d9 bd3b c4df 283c 357b 213c
00000140: 9a3f 873c f537 f2bb be79 c8bc cc20 043c
00000150: 323d 14bd 40ce cb3c 70e5 043d cb03 ba3c
00000160: 0039 383c a991 47bc 31f0 56bc ddce 4c3c
00000170: 05d1 b3bc 8c60 373c cc7c dbbc edb4 65bd
00000180: d407 0fbc 6976 75bc 5e39 8fbc 18d1 71bb
00000190: d966 08bd 33bf 59bd 40af fa3a ed67 37bd
000001a0: 4cf1 563c b8de a13c 65a6 b7bd 80f9 aebc
000001b0: 5b1e 9cbc 84e5 84bd b0e5 aa3a 7046 0ebc
000001c0: 7619 213c 60d1 94ba 1181 4bbd 9a07 a53b
000001d0: 69a0 803c 7cb3 e23c 07e7 52bc 329f bcb9
000001e0: 149f f93c 2156 4dbd ff1a 89bc 36dc 143c
000001f0: 3dfe 2f3c 0ef5 53bc 98a3 5cbb d501 79ba

network_body._body_endoder.seq_layers.2.weight f4 [128, 128]
0.119457416 -0.048385862 0.0056754244 -0.008664471 -0.15279463 -0.05137593 0.04176617 -0.030610712
0.0055753402 0.13479382 -0.1571583 0.16864671 -0.033796687 0.046078615 0.044515185 -0.10622038
-0.06592216 0.09445525 0.029823048 -0.021211483 -0.01639415 0.06247469 0.072720416 -0.1456626
-0.01706882 -0.10764884 -0.022641659 -0.036027897 -0.16228451 0.09156122 0.094145946 -0.009054738
-0.039994165 -0.080061994 0.046445593 -0.08997156 0.061196823 -0.04607692 0.11648491 0.008409999
-0.20141552 0.13319062 -0.0068838475 0.017966364 -0.03150287 -0.09563791 0.032361783 0.13849576
-0.028125662 0.107210785 0.063437 -0.014453345 0.0067658187 0.054947376 -0.04235926 -0.054645184
-0.08929733 -0.007272633 -0.099377066 -0.11011832 -0.12605253 0.066126585 0.058373872 0.08055709
0.1172474 -0.101307675 0.013094547 -0.10239853 -0.050789904 -0.00224397 -0.08204833 -0.050616786
0.04511611 -0.087657996 -0.045062583 0.12079033 -0.13894662 0.048973292 0.088384666 -0.15562002
0.066791646 -0.09396108 -0.047948316 0.07876502 -0.1198808 -0.073952205 -0.107657515 -0.008957654
-0.01587932 0.079110235 -0.09052704 -0.04598411 -0.17148566 0.18716274 -0.010336292 -0.06697137
0.11069894 -0.055084325 -0.0797206 0.084472515 -0.012970528 0.07030829 -0.026237851 -0.102479786
-0.09551241 0.041342 0.02172967 0.0047625424 -0.11890084 -0.091192774 0.023299191 -0.08933651
-0.12588182 0.03361643 -0.008121339 -0.056112215 -0.069665134 -0.22906923 -0.076316364 -0.082383424
0.07632705 -0.0824939 -0.118347764 0.13328618 0.102753 0.0653119 -0.12998724 0.04378243
0.025174525 0.15696432 -0.11143521 0.16646335 0.027791979 0.12858106 -0.12328507 0.121126786
0.14525002 -0.048755098 0.07022262 0.05499537 0.02030483 -0.043949578 -0.26202053 0.104677014
-0.15864173 0.13726601 -0.18232512 -0.09303074 -0.043129034 -0.018004619 -0.10158485 -0.041393004
-0.18206717 -0.15765083 0.13807382 -0.0062572854 -0.21306571 -0.06536593 0.019763704 0.12785077
-0.05746952 0.081081465 0.016561624 0.02046576 0.09707103 0.051800944 -0.029920707 0.15297753
-0.055684343 0.034257274 -0.13396208 0.16771483 -0.13585417 -0.09931684 -0.11096634 -0.038740255
0.06465079 -0.034966104 0.016778331 0.028795684 -0.022936577 0.12610821 0.007271653 -0.010284587
-0.13079555 -0.030818097 -0.05523967 -0.12668827 0.13335313 0.019553486 -0.10944067 0.1754126
-0.057451922 0.18663852 -0.024765264 0.03199476 -0.015140484 -0.11417265 -0.13537364 -0.06517306
-0.037749458 0.025045779 -0.010350482 0.11599402 -0.0021668954 -0.07583947 -0.03489811 0.03525965
-0.051684752 0.15970552 -0.080195814 0.018795598 -0.24637413 -0.06948987 0.06778921 -0.019740136
0.091083005 0.03132027 -0.072479 -0.0525407 -0.1865721 -0.118502766 -0.015595801 -0.047787458
-0.06664364 0.053116158 -0.06377939 0.13132599 -0.08170278 -0.048833504 -0.039139993 0.013697294
0.059902675 0.06862457 0.012122057 -0.09664389 0.07434872 -0.018401848 0.1417485 0.031132355
0.050062116 0.16015068 0.044182107 0.034119647 0.073595636 -0.18424247 0.104343995 0.020149395
0.06700779 0.04584106 -0.08012581 0.12967531 0.10773571 -0.10764729 0.022352764 -0.0149461245
00000000: 17a6 f43d 4130 46bd e9f8 b93b 6df5 0dbc
00000010: 3276 1cbe 916f 52bd 0113 2b3d 51c3 fabc
00000020: 58b1 b63b 6407 0a3e 1bee 20be b9b1 2c3e
00000030: 656e 0abd eebc 3c3d 8e55 363d 128a d9bd
00000040: 3302 87bd c171 c13d 774f f43c b4c3 adbc
00000050: 064d 86bc 76e5 7f3d 71ee 943d 9428 15be
00000060: e9d3 8bbc ff76 dcbd 007b b9bc fd91 13bd
00000070: e92d 26be 7384 bb3d 97cf c03d 535a 14bc
00000080: ecd0 23bd 8bf7 a3bd bc3d 3e3d 0243 b8bd
00000090: 85a9 7a3d 27bb 3cbd a48f ee3d 18ca 093c
000000a0: df3f 4ebe 1f63 083e e691 e1bb 322e 933c
000000b0: 2709 01bd cfdd c3bd ca8d 043d d5d1 0d3e
000000c0: ca67 e6bc 5491 db3d 42eb 813d b9cd 6cbc
000000d0: cdb3 dd3b 8010 613d e780 2dbd a1d3 5fbd
000000e0: 85e1 b6bd 444f eebb 3486 cbbd b785 e1bd
000000f0: ea13 01be 606d 873d 7119 6f3d 1efb a43d
00000100: 681f f03d 667a cfbd 838a 563c 52b6 d1bd
00000110: 1309 50bd 920f 13bb f408 a8bd 8c53 4fbd
00000120: accb 383d 0986 b3bd 8b93 38bd ec60 f73d
00000130: 0648 0ebe 3898 483d 0503 b53d db5a 1fbe
00000140: 0fca 883d ab6e c0bd 7465 44bd 8e4f a13d
00000150: 1184 f5bd 4174 97bd 8b7b dcbd 20c3 12bc
00000160: 5915 82bc 8c04 a23d 3e66 b9bd d659 3cbd
00000170: f099 2fbe 97a7 3f3e 8d59 29bc 4928 89bd
00000180: 20b6 e23d 1aa0 61bd 8e44 a3bd edff ac3d
00000190: 5682 54bc cbfd 8f3d c3f0 d6bc ece0 d1bd
000001a0: 039c c3bd 3b56 293d 6c02 b23c 1a0f 9c3b
000001b0: 4982 f3bd 47c3 babd f2dd be3c 0ff6 b6bd
000001c0: 2ae7 00be 62b1 093d 5d0f 05bc ecd5 65bd
000001d0: 98ac 8ebd 2091 6abe c14b 9cbd a4b8 a8bd
000001e0: 5b51 9c3d 90f2 a8bd 5060 f2bd 2c7c 083e
000001f0: 2a70 d23d 3fc2 853d 601b 05be 3555 333d
00000200: ce3a ce3c 41bb 203e 2538 e4bd 5e75 2a3e
00000210: 01ac e33c c1aa 033e e27c fcbd 5211 f83d
00000220: 6cbc 143e 6db3 47bd e1d0 8f3d d342 613d
00000230: 5156 a63c 7904 34bd 8e27 86be e760 d63d
00000240: fa72 22be 768f 0c3e 70b3 3abe e786 bebd
00000250: 12a8 30bd 6c7e 93bc b80b d0bd b68b 29bd
00000260: d16f 3abe 386f 21be 3963 0d3e ea09 cdbb
00000270: e62d 5abe 93de 85bd 7ee7 a13c 50eb 023e
00000280: 2965 6bbd 0a0e a63d 3eac 873c cfa7 a73c
00000290: 2dcd c63d 3a2d 543d 451c f5bc 24a6 1c3e
000002a0: 4415 64bd 5b51 0c3d 5b2d 09be 70bd 2b3e
000002b0: 5b1d 0bbe a166 cbbd 5242 e3bd 1aae 1ebd
000002c0: a267 843d 9e38 0fbd b672 893c ede4 eb3c
000002d0: 7de5 bbbc 8322 013e 0c47 ee3b af80 28bc
000002e0: 45ef 05be 3c76 fcbc fe42 62bd 92ba 01be
000002f0: b98d 083e a22e a03c 6e22 e0bd 5c9f 333e
00000300: b552 6bbd 2b1e 3f3e 86e0 cabc f00c 033d
00000310: cb0f 78bc 5ad3 e9bd 639f 0abe 7479 85bd
00000320: 2d9f 1abd ce2c cd3c 1195 29bc 468e ed3d
00000330: 7902 0ebb b951 9bbd 52f1 0ebd 6c6c 103d
00000340: 64b3 53bd d889 233e b43d a4bd 3af9 993c
00000350: 8049 7cbe b450 8ebd 12d5 8a3d 11b6 a1bc
00000360: ba89 ba3d af49 003d df6f 94bd eb34 57bd
00000370: c20c 3fbe 94b1 f2bd 8885 7fbc c8bc 43bd
00000380: 767c 88bd 5490 593d c59e 82bd 527a 063e
00000390: ca53 a7bd a405 48bd 4251 20bd 9d6a 603c
000003a0: 825c 753d 0a8b 8c3d 989b 463c 3bed c5bd
000003b0: 2444 983d 79bf 96bc 8526 113e 4809 ff3c
000003c0: ef0d 4d3d 8afe 233e 4cf8 343d 0bc1 0b3d
000003d0: 4fb9 963d 0faa 3cbe 4eb2 d53d 5810 a53c
000003e0: 613b 893d d6c3 3b3d 0019 a4bd 9bc9 043e
000003f0: 8aa4 dc3d 2f76 dcbd 251d b73c 97e0 74bc

network_body._body_endoder.seq_layers.2.bias f4 [128]
-0.0011924831 0.03554694 0.03205058 -0.02753874 0.02560806 -0.059702985 0.01274132 -0.03429451
-0.008392799 0.009972023 0.0039860075 -0.036441516 0.05713787 0.054306198 0.003958125 0.006722492
0.05354955 -0.013506893 -0.06705302 -0.003327837 -0.02716138 -0.029604405 -0.013727325 0.011889755
-0.01752526 -0.005546274 -0.028798087 -0.05470362 -0.023054399 0.0063228807 0.001378752 -0.0036184683
0.00056970766 -0.058958914 -0.08589794 -0.044877302 0.019004587 0.009933484 -0.0104212845 -0.026416896
0.008589144 0.01931347 0.016761819 -0.015889937 -0.010053247 0.0073244898 0.023156049 0.011376385
0.019408792 0.0063368734 0.02395289 0.014104218 0.018755253 -0.051604763 -0.010584586 -0.023192823
0.027308913 -0.030121421 -0.076351285 -0.013760141 -0.037214268 -0.024243472 0.030258765 -0.007548833
0.04915329 0.017002847 -0.012362106 0.013239665 -0.022692403 -0.018393489 0.014061658 0.012656649
-0.032195996 -0.02095346 0.0036629252 -0.03948078 -0.06594402 0.013351165 0.03058964 -0.0023888876
-0.005903763 -0.0037966124 -0.034038298 -0.021042574 0.0030468483 0.02921103 -0.006143427 0.014939172
0.02140882 -0.08248397 0.008352264 -0.024494719 -0.030574057 0.028091865 -0.049802456 -0.0043158224
-0.012965372 -0.0032392244 -0.026207337 0.0022035819 -0.026066996 -0.006404673 -0.014928956 0.012959284
0.014372829 0.015977705 0.009387443 0.026241599 -0.017067458 0.0008838108 0.00985495 0.015513905
-0.02299007 0.0012244814 -0.0016972008 -0.07122264 -0.017846113 0.042918745 -0.021767648 -0.039306875
-0.03122445 -0.005453825 0.0041710553 0.008355565 -0.019454917 0.01775495 -0.0024019547 -0.012075758
00000000: 184d 9cba ab99 113d 7847 033d ec98 e1bc
00000010: ffc7 d13c 1e8b 74bd f8c0 503c 6678 0cbd
00000020: f381 09bc b261 233c 0e9d 823b b343 15bd
00000030: 6609 6a3d 2d70 5e3d 29b3 813b 5a48 dc3b
00000040: c656 5b3d 044c 5dbc 1853 89bd d717 5abb
00000050: 8b81 debc f084 f2bc 93e8 60bc 3fcd 423c
00000060: 2291 8fbc 85bd b5bb f7e9 ebbc e710 60bd
00000070: 94dc bcbc 2b30 cf3b 3db7 b43a d323 6dbb
00000080: 6f58 153a e77e 71bd 42eb afbd 43d1 37bd
00000090: 82af 9b3c 0dc0 223c 09be 2abc 3f68 d8bc
000000a0: 7bb9 0c3c 4837 9e3c 1550 893c 9d2b 82bc
000000b0: 60b6 24bc 4602 f03b c1b1 bd3c 0464 3a3c
000000c0: 30ff 9e3c 8ca5 cf3b da38 c43c 6115 673c
000000d0: 9ea4 993c 845f 53bd f96a 2dbc e0fe bdbc
000000e0: f1b6 df3c 33c1 f6bc 105e 9cbd 3772 61bc
000000f0: fd6d 18bd 3f9a c6bc 3be1 f73c 335c f7bb
00000100: f654 493d 8e49 8b3c 6e8a 4abc 2eeb 583c
00000110: 6be5 b9bc f1ad 96bc de62 663c d55d 4f3c
00000120: f3df 03bd 97a6 abbc b00d 703b 99b6 21bd
00000130: a90d 87bd d8be 5a3c 2097 fa3c e28e 1cbb
00000140: 5b74 c1bb 96d0 78bb be6b 0bbd 7a61 acbc
00000150: a2ad 473b f84b ef3c cd4e c9bb 6ec3 743c
00000160: 8d61 af3c 5bed a8bd efd7 083c 26a9 c8bc
00000170: 7276 fabc e920 e63c a9fd 4bbd be6b 8dbb
00000180: b66c 54bc 2b49 54bb c5b0 d6bc f869 103b
00000190: 748a d5bc 4bde d1bb 9498 74bc 2d53 543c
000001a0: 047c 6b3c ade3 823c cacd 193c 9ff8 d63c
000001b0: 0ed1 8bbc 8aaf 673a a876 213c 092e 7e3c
000001c0: ac55 bcbc c77e a03a 9c74 deba 2ddd 91bd
000001d0: 0332 92bc 91cb 2f3d 1152 b2bc 3f00 21bd
000001e0: 6bca ffbc 00b6 b2bb 59ad 883b c8e5 083c
000001f0: eb5f 9fbc d472 913c 1d6a 1dbb 66d9 45bc

action_model._continuous_distribution.log_sigma f4 [1, 2]
-1.3196043 -1.3798466
00000000: cbe8 a8bf d09e b0bf

action_model._continuous_distribution.mu.weight f4 [2, 128]
-0.041965332 -0.039311275 0.013299742 0.0014717666 -0.010235406 0.003582163 0.0025737763 -0.008314083
0.016516687 -0.00044583698 0.0065740617 0.00043402895 -0.0035033775 0.016963672 0.006696672 0.02132942
-0.0054973653 0.015032341 0.010742455 0.009321075 -0.003954679 0.0034933602 0.0012008758 -0.02564841
-0.0012777732 -0.008593835 0.009419805 0.025994297 0.00076237274 0.012261797 -0.038160905 0.0042234543
0.012537552 0.0075220778 0.017087433 0.0002644168 0.022823855 0.015513263 0.013266901 0.0042780926
0.0036276097 -0.01869111 -0.017767472 0.0041811494 -0.016100269 0.025068237 -0.023601392 -0.015952751
-0.01720704 -0.01578725 -0.0021728703 0.044140954 -0.0021308593 0.022468908 0.008109457 0.00056400156
-0.028376522 0.004761825 0.0147113735 0.014756169 -0.008394192 -0.012790879 0.006690626 -0.028502252
0.0014283484 0.0030568712 -0.0046725906 -0.03335589 0.0035311615 -0.03609057 -0.012228794 -0.035129033
0.0032152182 -0.009526877 0.011961536 0.012927576 0.01149452 0.00461738 -0.03024859 0.022387797
0.012890902 -0.0016779857 0.020605827 0.0080727255 -0.0051452084 0.014649599 0.011198644 0.013001932
0.02818281 0.016271936 0.0039291508 0.009534502 0.005712955 -0.00414529 0.020614248 0.0032771344
-0.002490259 -0.0160693 0.01027616 0.013507089 0.0060790833 0.0048358003 0.0014277736 0.020505121
0.022132447 0.018512318 -0.022756636 0.0047531812 0.02181759 0.014395022 -0.022629203 0.008779294
-0.0004945882 0.002195179 0.004443957 0.0019071067 -0.00064815546 0.00056464435 0.0024904765 0.017380472
0.018087968 -0.004986575 -0.008337363 -0.0006768801 0.005656695 0.0018773112 0.027504778 -0.0099262195
0.01021511 0.025184471 0.0020561279 0.0025359876 -0.007529952 0.015642764 0.00090591144 0.022530422
-0.037517797 -0.012649092 -0.00056021276 -0.009995181 0.0013740428 0.029140959 -0.016851172 0.008885226
0.0036773912 0.024154924 0.0013390542 -0.027278941 -0.005807457 0.023853313 -0.008872805 0.019900015
0.013625736 0.017770987 -0.00721415 -0.023157893 0.005336551 0.008089903 0.0122788595 0.020431532
0.0057880986 0.012543208 0.00013310027 -0.0046166875 0.00083761127 0.021645175 0.008015948 0.00985951
0.008427168 -0.027645374 -0.016969288 -0.002640888 0.036495127 0.018667504 0.019520352 0.06423615
0.0065649706 0.00060206244 0.009935279 -0.024763936 0.014775617 0.016605146 0.027987992 -0.013131018
-0.06018901 0.018498756 -0.0050106714 0.0034020012 0.0032078882 -0.004320361 0.013920651 0.012749595
-0.008810603 0.012882812 0.00894542 -0.01491811 -0.0013761054 0.020767128 -0.06523747 -0.023908494
0.0069707306 -0.008675704 -0.0039203973 0.027673334 0.018432941 -0.008684009 -0.0041586054 -0.007953687
0.0070109456 -3.178279e-05 -0.021349115 0.030900538 -0.018822597 0.006116543 -0.004039508 0.00023961984
-0.04847291 0.0059990375 0.020811407 -0.009213637 0.0004967374 0.0085013015 -0.013576004 0.0046546776
0.014124273 -0.0042898785 0.018822625 -0.009992092 0.03241086 0.010653929 0.005102533 -0.020444738
0.020901822 -0.0110752275 0.014135731 -0.0054860953 0.007870173 -0.0022451405 0.01633736 -0.0064017978
0.0076387906 0.0038428986 0.014736942 0.006548323 0.010627015 0.004046678 0.0041044066 0.010729899
-0.01557526 -0.018733978 -0.02430092 -0.00852408 0.01017406 0.0049963305 -0.023121236 0.004180712
00000000: d7e3 2bbd dc04 21bd 29e7 593c 4be8 c03a
00000010: 68b2 27bc b9c2 6a3b cdac 283b cb37 08bc
00000020: 014e 873c 3abf e9b9 3a6b d73b 618e e339
00000030: ec98 65bb 66f7 8a3c c26f db3b 09bb ae3c
00000040: 3e23 b4bb 354a 763c 1f01 303c 6cb7 183c
00000050: 4096 81bb dcf0 643b b566 9d3a 9d1c d2bc
00000060: f47a a7ba 28cd 0cbc 8755 1a3c fef1 d43c
00000070: f8d9 473a b4e5 483c 9c4e 1cbd e764 8a3b
00000080: 4e6a 4d3c c37b f63b f2fa 8b3c 6ca1 8a39
00000090: 18f9 ba3c 572b 7e3c 6a5d 593c 3e2f 8c3b
000000a0: 31bd 6d3b 191e 99bc 178d 91bc 0602 893b
000000b0: b6e4 83bc e75b cd3c b557 c1bc 58af 82bc
000000c0: c7f5 8cbc 4354 81bc b766 0ebb 25cd 343d
000000d0: e3a5 0bbb b710 b83c 87dd 043c 81d9 133a
000000e0: e175 e8bc 1509 9c3b f907 713c dcc3 713c
000000f0: cb87 09bc d690 51bc 0a3d db3b 8e7d e9bc
00000100: 6b37 bb3a ca55 483b 881c 99bb 30a0 08bd
00000110: 0f6b 673b b5d3 13bd 485b 48bc 76e3 0fbd
00000120: 69b6 523b 9e16 1cbc 51fa 433c 2fce 533c
00000130: 8353 3c3c 644d 973b e4cb f7bc 9d66 b73c
00000140: 5d34 533c dbef dbba 8dcd a83c 7743 043c
00000150: 2399 a8bb df04 703c 847a 373c 0e06 553c
00000160: a3df e63c b94c 853c 1bc0 803b 9a36 1c3c
00000170: bd33 bb3b 36d5 87bb 36df a83c 31c5 563b
00000180: 9d33 23bb c4a3 83bc 575d 283c d64c 5d3c
00000190: 0c33 c73b a275 9e3b 2224 bb3a 5bfa a73c
000001a0: 1b4f b53c 25a7 973c 206c babc 93c0 9b3b
000001b0: cdba b23c 19d9 6b3c e160 b9bc 07d7 0f3c
000001c0: 41a7 01ba fedc 0f3b 9d9e 913b e2f7 f93a
000001d0: fae8 29ba a404 143a 4337 233b 7e61 8e3c
000001e0: 382d 943c 6c66 a3bb 6f99 08bc a870 31ba
000001f0: cc5b b93b 1c10 f63a b351 e13c 95a1 22bc
00000200: 475d 273c aa4f ce3c 1ac0 063b d032 263b
00000210: d1bd f6bb 4125 803c b07a 6d3a b891 b83c
00000220: 43ac 19bd 233e 4fbc 3edb 12ba d4c2 23bc
00000230: 3a19 b43a 05b9 ee3c 780b 8abc 5793 113c
00000240: 6300 713b 8ce0 c53c 3483 af3a 1678 dfbc
00000250: 7b4c bebb 0668 c33c 3e5f 11bc 5b05 a33c
00000260: 7b3e 5f3c 7694 913c ad64 ecbb 9fb5 bdbc
00000270: 3cde ae3b 838b 043c 452d 493c 0760 a73c
00000280: 17aa bd3b 0782 4d3c d590 0b39 9547 97bb
00000290: 2493 5b3a 3951 b13c 5355 033c c889 213c
000002a0: 1b12 0a3c 8d78 e2bc 2d03 8bbc c012 2dbb
000002b0: ea7b 153d 98ec 983c 25e9 9f3c 3e8e 833d
000002c0: f71e d73b bad3 1d3a 95c7 223c bddd cabc
000002d0: 6e15 723c 8407 883c 1347 e53c 7b23 57bc
000002e0: c088 76bd b48a 973c 8f30 a4bb 1cf4 5e3b
000002f0: 6f3b 523b d191 8dbb 7113 643c ade3 503c
00000300: 595a 10bc 6e12 533c d08f 123c 176b 74bc
00000310: 6f5e b4ba d31f aa3c 399b 85bd bfdb c3bc
00000320: ba6a e43b 8a24 0ebc ad76 80bb 30b3 e23c
00000330: ae00 973c 6047 0ebc e944 88bb 2e50 02bc
00000340: 13bc e53b 834e 05b8 57e4 aebc 2023 fd3c
00000350: d931 9abc 486d c83b d95d 84bb 7642 7b39
00000360: 888b 46bd 9393 c43b af7c aa3c cbf4 16bc
00000370: 7c37 023a 0b49 0b3c e36d 5ebc 4486 983b
00000380: 7f69 673c 1c92 8cbb e831 9a3c dfb5 23bc
00000390: 40c1 043d d18d 2e3c 2633 a73b b97b a7bc
000003a0: 4c3a ab3c df74 35bc 8e99 673c b4c4 b3bb
000003b0: e6f1 003c 3523 13bb edd5 853c 2cc6 d1bb
000003c0: d24e fa3b 24d9 7b3b 3773 713c 5193 d63b
000003d0: ee1c 2e3c ff99 843b 427e 863b 75cc 2f3c
000003e0: 602f 7fbc 0078 99bc b912 c7bc 95a8 0bbc
000003f0: 1ab1 263c 42b8 a33b bf68 bdbc 5bfe 883b

action_model._continuous_distribution.mu.bias f4 [2]
-0.008685961 -0.0026901434
00000000: 904f 0ebc 1e4d 30bb
