CS455_PR1/results/TEST/ShootTargetAgent/ShootTargetAgent-0.pt (torch, 934585 bytes, 41 tensors)

discrete_act_size_vector f4 [1, 2]
0	0x42480000	50.0
1	0x42480000	50.0

network_body.observation_encoder.processors.0.conv_layers.0.weight f4 [16, 1, 8, 8]
0	0x3defe7c2	0.11714126
1	0xbde50def	-0.11184298
2	0x3cd9dc78	0.026594386
3	0xbd39d5cc	-0.04536991
4	0xbd7bb950	-0.061456025
5	0x3d8baa0c	0.06819543
6	0x3d8cfd3e	0.068842396
7	0x3d7dd274	0.061968282
8	0x3da937b0	0.08262575
9	0x3dca90c0	0.0989089
10	0x3d08a5f8	0.033361405
11	0xbcfe393c	-0.03103315
12	0x3db1c15c	0.086794585
13	0xbd3c8aa6	-0.046030663
14	0x3bda1f00	0.0066565275
15	0x3cc3bca0	0.023893654
16	0x3b886360	0.004162237
17	0xbc925bb4	-0.017865993
18	0xbdb84026	-0.0899661
19	0x3dc4a7b0	0.09602296
20	0xbdd3a8cc	-0.1033493
21	0xbd6633ec	-0.05620186
22	0x3baa3080	0.00519377
23	0x3d6e7bc4	0.0582235
24	0xbdb3dc16	-0.087822124
25	0xbddcc587	-0.10779863
26	0xbdb468a8	-0.08809024
27	0xbdbce214	-0.092228085
28	0x3d44bee0	0.048033595
29	0xbd19d8c8	-0.037560254
30	0xbdb6ee32	-0.08932151
31	0xbdc2bedb	-0.09509059
32	0xbd57550a	-0.052571334
33	0x3c8b8e90	0.017035753
34	0xbc2ddaf8	-0.010611288
35	0x3bf5f9a0	0.0075065643
36	0x3dbad69a	0.09122963
37	0xbdf16fb2	-0.11788882
38	0xbd24a734	-0.04019852
39	0x3dbe24dc	0.09284374
40	0xbbc8c810	-0.006127365
41	0xbdc99fde	-0.09844945
42	0xbd711c48	-0.05886486
43	0xbd741510	-0.0595904
44	0xbc8059f0	-0.015667886
45	0xbd7f7b78	-0.06237361
46	0x3dbfb57c	0.09360787
47	0x3dcf0744	0.10108808
48	0x3d9fa4a6	0.07795076
49	0xbd82f4f4	-0.06394377
50	0x3dfc2580	0.1231184
51	0xbdaf8eec	-0.08572182
52	0xbde9ba07	-0.11412435
53	0xbd1eab88	-0.038737804
54	0x3cf3ea00	0.029774666
55	0xbded1c5e	-0.11577676
56	0xbb5a4720	-0.0033306554
57	0x3dd50b50	0.10402548
58	0xbd6b1ed8	-0.05740246
59	0xbd09dfe4	-0.033660784
60	0x3de362e8	0.11102849
61	0x3cfbfb08	0.03075935
62	0xbdc0458c	-0.09388265
63	0xbdb7fc84	-0.089837104
64	0xbde439b5	-0.11143819
65	0xbc0e1520	-0.008672029
66	0xbdbc9304	-0.092077285
67	0xbd1045dc	-0.035222873
68	0xbd566e4a	-0.052351274
69	0x3cbfaee8	0.023398831
70	0x3db3532e	0.087561
71	0xbdedd51f	-0.11612915
72	0xbca40014	-0.020019569
73	0x3df68c30	0.120384574
74	0xbdd51e57	-0.104061775
75	0xbd879a06	-0.066211745
76	0x3dff4724	0.12464741
77	0xbdd5c492	-0.104378834
78	0x3da86710	0.082227826
79	0x3c386600	0.011254787
80	0xbb796be0	-0.0038058683
81	0xbdadd1f2	-0.084873095
82	0xbd8d7bd8	-0.06908387
83	0xbdee3c76	-0.11632626
84	0xbd90adf1	-0.07064427
85	0xbdd4c9ba	-0.10390039
86	0xbcc5f144	-0.024162896
87	0xbdb56921	-0.088579424
88	0x3d4af12c	0.049546406
89	0xbd85b564	-0.06528738
90	0x3d918e98	0.07107276
91	0x3db8fdc0	0.09032774
92	0x3d6b645c	0.057468757
93	0xbcbb3cb4	-0.022856094
94	0xbc7d23d0	-0.015450433
95	0xbdcd20c2	-0.10016014
96	0xbd41b6cc	-0.04729347
97	0x3dfddda6	0.12395792
98	0xbd9a93f4	-0.07547751
99	0x3dd65232	0.10464896
100	0x3b92f8c0	0.0044852197
101	0x3cf5aba0	0.029989064
102	0xbdff0cc7	-0.12453609
103	0xbcc9d108	-0.024635807
104	0x3d495ac4	0.049158826
105	0xbb989b00	-0.0046571493
106	0x3c684900	0.014177561
107	0x3d8acc94	0.067773014
108	0x3cf82468	0.030290797
109	0x3c6d4110	0.014480844
110	0xbdf26085	-0.11834816
111	0x3c54ec60	0.012995809
112	0x3d958c86	0.07302193
113	0xbdb2c432	-0.087288275
114	0xbdac7744	-0.084211856
115	0x3d2e09a4	0.042489663
116	0x3d95c0a2	0.073121324
117	0x3db36852	0.08760132
118	0xbb476be0	-0.0030429289
119	0x3d4e3388	0.050342113
120	0x3cf995e8	0.030466989
121	0x3d959afc	0.073049515
122	0x3c3e7e50	0.011626795
123	0xbd7c65c0	-0.061620474
124	0x3d958c18	0.073021114
125	0x3df52662	0.119702116
126	0xbbcd8dc0	-0.0062730014
127	0x3c1c58b0	0.009542629
128	0x3df78434	0.120857626
129	0x3ddf0e6a	0.10891421
130	0x3dc0c40c	0.09412393
131	0xbb85c680	-0.004082501
132	0xbdc520f2	-0.096254244
133	0xbdf676ad	-0.12034354
134	0x3dcb7f2a	0.09936364
135	0x3d1071d8	0.03526482
136	0x3d74600c	0.05966191
137	0xbda04344	-0.0782533
138	0x3bce89a0	0.0063030273
139	0x3d32f510	0.04369074
140	0x3ca1cbb0	0.019750446
141	0xbdeb034f	-0.114752404
142	0x3d37efd0	0.044906437
143	0x3df76478	0.1207971
144	0xbd8bbe3e	-0.06823395
145	0xbda7a3aa	-0.08185513
146	0x3d5d0e98	0.053968996
147	0x3db48c10	0.08815777
148	0x3dde56d6	0.108564064
149	0xbddbe9fe	-0.1073799
150	0xbdcb7252	-0.09933914
151	0x3d4b91b4	0.0496995
152	0x3de450b4	0.111482054
153	0x3cc0d250	0.023537785
154	0x3c2658a0	0.010152966
155	0x3d4350fc	0.047684655
156	0xbc0459e0	-0.0080780685
157	0xbd1af288	-0.037828952
158	0x3ca806f8	0.020511135
159	0x3d87c8ac	0.06630072
160	0xbd9a23c7	-0.07526355
161	0x3d78ec30	0.06077212
162	0xbd8a2c42	-0.06746723
163	0xbd01335c	-0.03154312
164	0xbd041912	-0.03225047
165	0xbd9061be	-0.07049893
166	0xbd63feee	-0.05566304
167	0x3cde96a8	0.027171448
168	0xbd9c6fa4	-0.07638481
169	0x3d0f35a0	0.03496325
170	0xbd18f82c	-0.03734605
171	0x3dacab62	0.08431126
172	0x3c11c990	0.008898154
173	0xbd8a10f2	-0.06741513
174	0xbdf67bbb	-0.120353185
175	0xbdfe544a	-0.124184206
176	0x3d67d838	0.056602687
177	0xbdc6f78b	-0.09715184
178	0xbdb5b8c2	-0.088731304
179	0xbdb9f054	-0.09079042
180	0xbaea9a80	-0.0017898828
181	0x3dd74242	0.105106845
182	0xbdd0ac18	-0.10189074
183	0x3d5fe558	0.05466208
184	0x3d1fc2bc	0.039004073
185	0xbdcb8a43	-0.09938481
186	0xbcfd0e40	-0.030890584
187	0x3a923f80	0.001115784
188	0xbda15bee	-0.07878862
189	0xbd18a0b6	-0.03726264
190	0x3d8dd01a	0.06924458
191	0xbdf32914	-0.118730694
192	0xbb3e5100	-0.002903998
193	0x3dd95a64	0.10612944
194	0x3c982e08	0.018576637
195	0xbd809afa	-0.062795594
196	0xbd45f332	-0.048327632
197	0xbaa54180	-0.0012608021
198	0x3ddbd7da	0.1073453
199	0xbd0e715c	-0.034776077
200	0xbda0c666	-0.078503415
201	0xbdd52299	-0.104069896
202	0xbc44ab20	-0.01200369
203	0xbd74b754	-0.059745148
204	0xbcb162f4	-0.02165363
205	0x3dc3b5e2	0.09556176
206	0x3bf51120	0.007478848
207	0xbdccc81f	-0.099991076
208	0xbcc01fa4	-0.023452587
209	0x3c4ac970	0.012377128
210	0xbcca9338	-0.024728402
211	0xbc943ce0	-0.018095434
212	0xbddfa843	-0.10920765
213	0xbd429e64	-0.047514334
214	0x3d73f8b8	0.05956337
215	0xbd9cc6d6	-0.076551124
216	0x3cc68470	0.024233073
217	0x3d166108	0.03671363
218	0xbcdf39b8	-0.027249202
219	0x3c4df8a0	0.012571484
220	0x3c7b1250	0.01532419
221	0x3ccc95f0	0.02497384
222	0xb9eda700	-0.00045328587
223	0xbdb2c97f	-0.087298386
224	0x3d8f77e0	0.07005286
225	0xbd16f1f8	-0.036851853
226	0x3da43814	0.080185086
227	0xbddfba57	-0.109242134
228	0xbc53fff0	-0.012939438
229	0x3d57d958	0.05269751
230	0xbce4e600	-0.027941704
231	0x3ded692c	0.115923256
232	0xbc875a10	-0.016522437
233	0xbd60909a	-0.054825403
234	0xbd15dbb8	-0.036586493
235	0xbdc7ad62	-0.09749867
236	0x3d3f44e4	0.04669656
237	0xbdec5b2c	-0.11540827
238	0x3d50ba9c	0.050959215
239	0x3d5a612c	0.053315327
240	0x3da19910	0.078905225
241	0xbca2d234	-0.019875623
242	0x3dbdf284	0.09274772
243	0xba2c6980	-0.0006577
244	0xbd29f896	-0.041496836
245	0xba02a680	-0.0004983917
246	0xbdb9b0a8	-0.09066898
247	0x3ce70fb0	0.028205723
248	0x3dc5a612	0.09650816
249	0x3df63a34	0.1202282
250	0x3d5c06c0	0.053717375
251	0xbd18283a	-0.037147738
252	0xbcd721d0	-0.02626124
253	0xbda0e5d9	-0.0785634
254	0xbd5a1592	-0.053243227
255	0xbde63069	-0.11239702

network_body.observation_encoder.processors.0.conv_layers.0.bias f4 [16]
0	0x3da3e728	0.08003074
1	0x3ddfb57c	0.10923287
2	0xbdfbb3a9	-0.12290127
3	0x3d27a7c8	0.040931493
4	0xbc27f3a8	-0.010250963
5	0x3d8ea6e4	0.069654256
6	0x3c6e4c30	0.014544532
7	0xbd96a0b4	-0.073548704
8	0xbd439564	-0.047749892
9	0x3d35b180	0.04435873
10	0x3c9084e0	0.017641485
11	0xbd9bbb4a	-0.07604082
12	0x3dbd8a26	0.09254865
13	0xbd64de0e	-0.05587583
14	0xbcb56d00	-0.022146702
15	0xbd929612	-0.0715753

network_body.observation_encoder.processors.0.conv_layers.2.weight f4 [32, 16, 4, 4]
0	0x3ca9f8a0	0.020748436
1	0xbd0e4510	-0.034733832
2	0x3d6c7ece	0.057738118
3	0xbd476e62	-0.048689254
4	0xbb88be40	-0.00417307
5	0xbca7f870	-0.020504206
6	0xbc65c0d0	-0.014023021
7	0x3d05c2bc	0.032656416
8	0x3d0ae576	0.033910237
9	0x3d2e8d52	0.042615242
10	0x3cf55e6c	0.02995225
11	0xbbf1f6e8	-0.00738417
12	0x3d6cdcf0	0.05782789
13	0x3d63ca90	0.0556131
14	0xbccf798a	-0.025326509
15	0x3b8ccd70	0.004296951
16	0x3b94c3f0	0.004539959
17	0xbd13ccc7	-0.036083963
18	0x3b0490e0	0.0020227954
19	0x3cb6e9a8	0.022328213
20	0x3ce6954c	0.028147362
21	0xbc6b6fe4	-0.0143699385
22	0x3ba6e200	0.0050928593
23	0x3b100100	0.0021973252
24	0xbd01eb88	-0.03171876
25	0x3d17b71e	0.03703987
26	0xbc5bd57c	-0.013417598
27	0x3a0cd600	0.00053724647
28	0xbd311e33	-0.04324169
29	0xba879da0	-0.0010346659
30	0x3b909960	0.004412815
31	0xbd7dc0d7	-0.061951485
32	0xbd274131	-0.040833656
33	0x3c70c938	0.014696412
34	0x3d1ab53e	0.037770502
35	0x3c43d738	0.011953168
36	0x3cd5189c	0.026012711
37	0x3c1a87c0	0.009431779
38	0xbd1aa0e2	-0.037751086
39	0xbd7caec5	-0.06169011
40	0x3c11ffc0	0.008911073
41	0x3c9a06a0	0.018801987
42	0xbad97e60	-0.0016593449
43	0xbc98d640	-0.01865685
44	0xbd2730be	-0.04081797
45	0x3bd1db10	0.006404288
46	0xbd4a6090	-0.049408495
47	0xbd78cdbb	-0.060743075
48	0x3d14780e	0.036247306
49	0x3bed5ab0	0.007243477
50	0x3d4ba6b2	0.04971952
51	0x3c1c5630	0.009542033
52	0xbcb6db56	-0.022321384
53	0xbd4fb650	-0.050710976
54	0xbb84d820	-0.0040540844
55	0x3cf8939c	0.030343823
56	0xbd7ea98a	-0.062173404
57	0x3cc9a4ec	0.024614774
58	0xbd531f9f	-0.051543828
59	0x3caa3f50	0.020782143
60	0xbcbd0074	-0.023071505
61	0x3c943f98	0.01809673
62	0x3d5686ca	0.05237464
63	0x3cd7f174	0.026360251
64	0x3cea6a48	0.028615132
65	0x3d494d5a	0.049146034
66	0xbd4414ee	-0.047871523
67	0xbcbd5d50	-0.023115784
68	0xbc0f4e94	-0.008746762
69	0x3d79221c	0.060823545
70	0xbd63af75	-0.05558725
71	0xbd6cfa36	-0.057855807
72	0xbd61d334	-0.05513306
73	0xbd12fdfa	-0.035886742
74	0x3d5b62ca	0.05356101
75	0xbc94cc60	-0.01816386
76	0x3c6703a0	0.014099985
77	0xbc9975f2	-0.018732999
78	0xbc86f3d6	-0.016473692
79	0xbce27028	-0.02764137
80	0xbc981648	-0.018565312
81	0xbca2de1c	-0.0198813
82	0xbc59a9e4	-0.013285134
83	0xbd172c32	-0.036907382
84	0xbc98877a	-0.018619288
85	0x3bc5aca0	0.0060325414
86	0xbb897e98	-0.0041959994
87	0xbc3bb2e8	-0.011456229
88	0xbc19c844	-0.009386126
89	0x3d2e2260	0.04251325
90	0xbd7a1860	-0.061058402
91	0xbd5a8bd2	-0.053356
92	0x3d73281c	0.059364423
93	0xbd73bcfa	-0.059506394
94	0xba069440	-0.00051337853
95	0xbd2c76df	-0.04210555
96	0x3c39d688	0.011342652
97	0x3d31ce24	0.04340948
98	0xbd33f233	-0.04393215
99	0xbd1a34f4	-0.037648156
100	0xbd2d98f0	-0.04238218
101	0xbd2bb166	-0.041917227
102	0xba703440	-0.00091630593
103	0x3d02bbc8	0.031917363
104	0xbc5fcf08	-0.0136602
105	0x3d46d1b6	0.04853984
106	0x3cf3e43c	0.029771917
107	0x3c54a950	0.01297982
108	0x3cc36c00	0.02385521
109	0xbcd996b4	-0.026561119
110	0xbc1f2924	-0.0097143985
111	0xbd687a74	-0.056757405
112	0x3ca688d8	0.020328924
113	0xbcb157fe	-0.021648403
114	0xbcd7c3d8	-0.026338503
115	0x3d596d0a	0.053082503
116	0xbcee5e1c	-0.02909761
117	0xbd3eaa02	-0.04654885
118	0xbc6c421c	-0.014420059
119	0xbcf6acc8	-0.030111685
120	0x3d7e8d20	0.062146306
121	0x3d4e80b6	0.050415717
122	0x3c208d40	0.009799302
123	0x3c504610	0.012712017
124	0x3d174e9e	0.03694021
125	0x3c638310	0.013886228
126	0xbcce2cc2	-0.025167827
127	0xbc519274	-0.012791265
128	0x3c2f8530	0.010712907
129	0xbd0dac4d	-0.034588147
130	0x3d42b6e8	0.047537714
131	0x3d2a60a8	0.041596085
132	0xbd61af92	-0.055099078
133	0x3c434298	0.011917733
134	0xbd1f3d70	-0.03887695
135	0xbbe00118	-0.006836068
136	0xbac24c60	-0.0014823787
137	0xbd4cfe36	-0.050047122
138	0xbc01cf6c	-0.007922988
139	0xbd42bc15	-0.04754265
140	0xbd195d08	-0.037442237
141	0x3d02992e	0.031884365
142	0x3d51d548	0.05122879
143	0xbd5c6168	-0.05380383
144	0xbd5ba86f	-0.053627428
145	0xbc9d7060	-0.019218624
146	0xbd61260b	-0.05496792
147	0xbd564ef0	-0.052321374
148	0x3d318bb2	0.043346114
149	0x3d1ce7ee	0.038307123
150	0x3d7474f2	0.05968184
151	0x3d772f6a	0.060347952
152	0xbadefb00	-0.001701206
153	0xbcf2f7fc	-0.029659264
154	0x3d10cf76	0.0353541
155	0x3ca72e98	0.02040796
156	0xbd04140e	-0.03224569
157	0xbc484b58	-0.012224995
158	0x3d72777c	0.05919598
159	0x3cc52664	0.024066158
160	0x3d6ec1d8	0.058290333
161	0x3ceafef0	0.028686017
162	0xbc81bad8	-0.015836164
163	0x3c7f1418	0.015568756
164	0xbd7f7384	-0.062366024
165	0x3cfe2be8	0.031026796
166	0x3ccde0b4	0.02513156
167	0x3d12632c	0.03573911
168	0xbd4ad794	-0.049521998
169	0x3d44b9c6	0.04802873
170	0x3b9ed8b0	0.0048476085
171	0xbd48bce6	-0.049008273
172	0xbd7d9538	-0.061909884
173	0x3d657f2a	0.056029476
174	0x3cbb51c8	0.022866145
175	0xbcdd0f8a	-0.026984949
176	0x3aa2b140	0.0012412444
177	0x3ce0b5b4	0.027430393
178	0x3c57a668	0.013162233
179	0xbd4488ba	-0.047981955
180	0x3ca11a34	0.019665815
181	0xbcd26f70	-0.025687903
182	0x3c3b8330	0.011444852
183	0x3d228a48	0.039682657
184	0xbc3581d4	-0.011078317
185	0xbbd85080	-0.006601393
186	0x3d2dd71e	0.04244148
187	0x3cafe388	0.0214708
188	0xbd3473b4	-0.044055656
189	0xbd4b5116	-0.049637876
190	0xbcb773cc	-0.022394083
191	0xbd68df9e	-0.056853883
192	0xbd5dea47	-0.054178502
193	0xbc90d2ca	-0.017678637
194	0x3c9400f0	0.018066853
195	0xbc26a720	-0.010171682
196	0xbcf327de	-0.029682096
197	0xbd60e586	-0.05490639
198	0x3d7fbb76	0.062434636
199	0x3c0274b0	0.007962391
200	0x3cd28300	0.025697231
201	0x3c015e78	0.007896058
202	0x3d1332d4	0.035937145
203	0x3cff6f3c	0.03118097
204	0xbd18e35e	-0.03732621
205	0x3a099380	0.00052481145
206	0xbc004018	-0.007827781
207	0x3d41ccdc	0.04731451
208	0x3cf45084	0.02982355
209	0x3d48e98e	0.04905086
210	0x3bcbad60	0.0062157363
211	0x3d110b18	0.03541097
212	0xbcb26b4a	-0.021779675
213	0x3c80abfc	0.015707009
214	0x3d6ba3b0	0.05752915
215	0x3cb39434	0.021921255
216	0x3d5ffb12	0.0546828
217	0x3c97f6e4	0.018550344
218	0x3d38f9ba	0.045160033
219	0x3d5884da	0.052861072
220	0x3d1336b2	0.035940833
221	0xbd2c259c	-0.042028055
222	0x3d3ebe5a	0.046568252
223	0x3d6552ec	0.055987284
224	0x3d394a28	0.045236737
225	0xbd6af8ea	-0.05736629
226	0x3d1f6502	0.038914688
227	0xbcb4721a	-0.022027064
228	0xbcdf013e	-0.027222272
229	0x3c4435b8	0.011975698
230	0xbd4c886c	-0.04993479
231	0xbcb6d93e	-0.022320386
232	0xbba787e0	-0.005112633
233	0xbd5ca13f	-0.053864714
234	0x3d182a52	0.037149735
235	0xbd475362	-0.048663504
236	0x3bbcd910	0.0057631806
237	0xbd433108	-0.04765418
238	0x3cb2a444	0.021806844
239	0x3c31e3c8	0.01085753
240	0x3cec0424	0.028810568
241	0x3d4e90da	0.05043111
242	0x3d3e824a	0.046510972
243	0x3d700a2a	0.058603443
244	0xbd742dc3	-0.059613954
245	0x3d2bfd26	0.041989468
246	0x3ceeef24	0.029166766
247	0x3d785204	0.06062509
248	0xba93d2e0	-0.0011278056
249	0x3bbdad00	0.0057884455
250	0x3cfc28b4	0.030781128
251	0x3c87ce4c	0.016577862
252	0x3d08587c	0.03328751
253	0x3cdb3af0	0.026761502
254	0x3bc044f0	0.005867593
255	0xbd2951a2	-0.041337617

network_body.observation_encoder.processors.0.conv_layers.2.bias f4 [32]
0	0x3b024580	0.001987785
1	0xbd3eb73c	-0.046561465
2	0xbd6bd078	-0.05757186
3	0x3ce0f1dc	0.027459078
4	0x3ce10988	0.027470365
5	0x3c65af00	0.014018774
6	0xbc398714	-0.011323709
7	0x3b1f9b20	0.0024353936
8	0x3d7b1066	0.061294936
9	0x3ce2e744	0.027698167
10	0xbc90c6e4	-0.017672963
11	0xbcba8d20	-0.022772372
12	0xbc87ce04	-0.016577728
13	0xbd6f4e9e	-0.058424585
14	0x3d133f0c	0.035948798
15	0xbd217e19	-0.039426897
16	0xbc9219b4	-0.017834522
17	0xbd5b8548	-0.053593904
18	0x3d583b5e	0.052790992
19	0xbd64be5b	-0.0558456
20	0xbd67acb7	-0.056561198
21	0xbd656257	-0.056001987
22	0x3ca25b1c	0.019818835
23	0x3d402708	0.046912223
24	0xbceb18a2	-0.02869827
25	0x3d37929c	0.044817552
26	0xbcdc0926	-0.026859831
27	0xbc919056	-0.01776902
28	0x3c3a7bb0	0.011382028
29	0xbc87e6a4	-0.01658947
30	0x3d7ae26c	0.06125109
31	0xbd5c800c	-0.053833053

network_body.observation_encoder.processors.0.dense.0.weight f4 [128, 512]
0	0x3da5634e	0.080755815
1	0x3e1f76ec	0.15572709
2	0xbd701a88	-0.058619052
3	0xbd04912f	-0.03236502
4	0xbdbdd61a	-0.09269352
5	0xbd8af813	-0.06785598
6	0xbda44cc7	-0.080224566
7	0xbcab1516	-0.020884078
8	0xbc2bc7e9	-0.010484674
9	0xbd088768	-0.03333226
10	0xbc5676f8	-0.013089888
11	0xbda196c3	-0.07890084
12	0x3d0b4dbd	0.034009684
13	0x3d39e884	0.04538776
14	0x3d90a447	0.070625834
15	0x3d70e3eb	0.05881111
16	0x3d4c5d9a	0.049893953
17	0xbd07785f	-0.03307378
18	0x3d2b3240	0.04179597
19	0x3ce8d937	0.028423889
20	0x3c4178fb	0.011808629
21	0x3c7d9e3c	0.015479621
22	0x3d9dd774	0.0770711
23	0x3c8a687b	0.016895523
24	0xbc9a728e	-0.018853452
25	0xbd93e924	-0.072222024
26	0x3d2b9c29	0.041896973
27	0xbda45533	-0.08024063
28	0x3cfeaed8	0.031089231
29	0xbd5bdf90	-0.053680003
30	0xbd71f5ed	-0.059072424
31	0x3c330e3a	0.010928685
32	0xbcea4dc6	-0.028601538
33	0xbe3823c9	-0.17982401
34	0x3da412ea	0.0801142
35	0x3d83b9f5	0.06431953
36	0xbd4624da	-0.04837499
37	0x3db707a7	0.089370064
38	0xbc963fdc	-0.018340997
39	0xbe30bd4d	-0.17259713
40	0x3d4ea034	0.05044575
41	0xbd698c1d	-0.057018388
42	0xbd916c6e	-0.071007594
43	0x3c28d287	0.0103041
44	0x3aaa2109	0.0012979816
45	0x3d81ed1d	0.06344054
46	0x3c8d5cc8	0.017256156
47	0x3c5493f8	0.012974732
48	0xbd13d2a7	-0.036089566
49	0xbbcc0c0e	-0.006227023
50	0x3dab4185	0.08362106
51	0xbb0395b3	-0.0020078241
52	0x3da20db9	0.07912774
53	0x3b262dd5	0.0025356908
54	0xbdb0504f	-0.08609068
55	0xbd832a36	-0.064045355
56	0x3c2f8d68	0.010714866
57	0xbde73699	-0.112897106
58	0x3d2ff27e	0.042955868
59	0x3c5ee32e	0.013603969
60	0xbcfba1f2	-0.03071687
61	0x3de4717c	0.11154458
62	0x3d7b2e13	0.061323237
63	0xbc13f727	-0.009031094
64	0xbd748aef	-0.05970281
65	0x39100bf5	0.00013737364
66	0xbd9d11ac	-0.07669386
67	0xbd6d7002	-0.057968147
68	0xbc90afc3	-0.017661935
69	0xbd45a443	-0.048252355
70	0xbdebf444	-0.11521199
71	0xba4c7d7a	-0.000780068
72	0x3c6927a5	0.014230643
73	0xbe01cf96	-0.12676844
74	0x3d04b256	0.032396637
75	0xbbd8b41a	-0.0066132667
76	0xbc8fd98e	-0.017559793
77	0xbc4dca72	-0.012560474
78	0x3dce5b4c	0.10076007
79	0x3db34c17	0.08754747
80	0x3cdf9bce	0.027295973
81	0x3d04027f	0.032228943
82	0x3d7d1869	0.061790857
83	0xbd274a33	-0.040842246
84	0x3d23b1a7	0.039964344
85	0xbba87642	-0.0051410506
86	0xbbbbc014	-0.0057296846
87	0x3c936c73	0.017996049
88	0xbcac404c	-0.021026753
89	0x3dd911de	0.10599111
90	0x3d67c127	0.05658069
91	0xbac8dacd	-0.0015323997
92	0xbd7a0af7	-0.061045613
93	0xbab70330	-0.0013962742
94	0xbb8bb9a4	-0.0042640734
95	0xbd8842b5	-0.06653348
96	0xbb5bcf5f	-0.003354035
97	0xbbf115c8	-0.007357333
98	0x3dbb50ca	0.09146269
99	0x3db8a304	0.09015468
100	0xbd88ece1	-0.06685806
101	0xbdc46fc9	-0.09591634
102	0xbce0c6ed	-0.027438605
103	0x3cd72194	0.026261128
104	0xbdbb1e83	-0.09136679
105	0xbca62c60	-0.020284832
106	0x3b9b26c1	0.0047348444
107	0x3d90848c	0.07056531
108	0xbd3313c7	-0.043720033
109	0x3d9e0fa3	0.07717826
110	0x3d3e9c85	0.046535987
111	0xbd6a1aa9	-0.05715433
112	0x3dddfbb7	0.108390264
113	0xbca6bd4b	-0.020353934
114	0x3d4664ec	0.04843609
115	0x3db36a17	0.087604694
116	0xbd281404	-0.041034713
117	0x3db8ae76	0.09017651
118	0xbe692d5b	-0.22771208
119	0x3d379a60	0.044824958
120	0x3c6b61f8	0.014366619
121	0xbd8f0aa8	-0.069844544
122	0xbca0da5f	-0.019635377
123	0x3d2efbcc	0.0427206
124	0xbdb8b398	-0.0901863
125	0xbb324297	-0.0027200335
126	0xbd892140	-0.06695795
127	0x3ddcf2b4	0.107884794
128	0xbc6c34be	-0.014416872
129	0xbd489f97	-0.04898032
130	0x3d53294e	0.051553063
131	0x3d499b00	0.049220085
132	0x3db64ed4	0.08901754
133	0x3da4b45b	0.080422126
134	0xbd2e51d3	-0.042558502
135	0xbd6eea3b	-0.05832885
136	0x3d055d92	0.03255994
137	0x3dd82606	0.105541274
138	0x3d5db342	0.05412603
139	0xbca03c4e	-0.019560006
140	0xbcef921e	-0.029244479
141	0xbda850fa	-0.0821857
142	0xbd39b5e8	-0.045339495
143	0xbc9ddae0	-0.019269407
144	0x3e0503c8	0.12989724
145	0x3d3a2c38	0.045452327
146	0xbd4f4697	-0.05060443
147	0x3d79fe43	0.0610335
148	0x3d400529	0.04687992
149	0xbcacc5a3	-0.021090334
150	0xbcb2d17e	-0.02182841
151	0xbcaa7ae8	-0.02081056
152	0x3d9219e3	0.07133844
153	0x3d0765db	0.03305612
154	0xbccc3909	-0.02492954
155	0xbcd82c7a	-0.026388396
156	0x3bbcc704	0.005761029
157	0x3dc937b2	0.09825076
158	0x3b8e398b	0.0043403558
159	0xbdbf25c6	-0.093333766
160	0x3cfc109e	0.030769642
161	0xbcb48199	-0.022034453
162	0x3c1f28cf	0.009714319
163	0xbd494b5a	-0.049144126
164	0xbcd65ccc	-0.026167296
165	0xbddcf556	-0.107889816
166	0xbd1783da	-0.036990978
167	0xbd3b6c85	-0.04575779
168	0xbd00eed4	-0.031477764
169	0xbc9209b5	-0.017826894
170	0x3dd9197f	0.10600566
171	0xbda94772	-0.0826558
172	0x3d92f2cf	0.07175218
173	0xbdaade7c	-0.08343217
174	0xbc9149d7	-0.017735405
175	0x3da3d67e	0.079998955
176	0xbd1ecc89	-0.03876928
177	0xbdd80c49	-0.10549218
178	0x3d050e5a	0.03248439
179	0xbb81f5ee	-0.0039660847
180	0x3df439ba	0.11925073
181	0xbd5132d3	-0.05107386
182	0x3c12bcd7	0.008956156
183	0xbce76c13	-0.028249776
184	0xbd096bde	-0.033550136
185	0x3b2d1860	0.0026412234
186	0x3d6fcd95	0.058545668
187	0x3da9675f	0.082716696
188	0xbc8421e3	-0.01612944
189	0xbd33487e	-0.043770306
190	0xbca4fef3	-0.0201411
191	0x3d801b77	0.062552385
192	0x3dcd721e	0.10031532
193	0xbddf864b	-0.10914286
194	0xbda3da43	-0.080006145
195	0x3dc7a81e	0.09748863
196	0xbd88e1ad	-0.06683669
197	0x3cf583c3	0.029970055
198	0xbc7b0d92	-0.01532306
199	0xbdb0e0bf	-0.08636617
200	0xbd6db908	-0.058037788
201	0xbd3a9ece	-0.045561604
202	0x3d08bed6	0.03338512
203	0x3c74ef10	0.014949575
204	0xbcf76a1b	-0.030201962
205	0x3a3b4824	0.00071442337
206	0x3d84470e	0.06458865
207	0x3dc819a7	0.09770518
208	0xbd881f17	-0.06646555
209	0x3ddf80cc	0.10913238
210	0x3dcb49f4	0.09926215
211	0x3d85f431	0.065407164
212	0x3d9f754f	0.07786047
213	0xbd0f2e51	-0.03495628
214	0x3d857d9b	0.06518098
215	0xbca9d77f	-0.02073264
216	0xbd7f13a7	-0.0622746
217	0xbdf1b05b	-0.11801215
218	0xbce8171b	-0.02833133
219	0x3cd15eef	0.025557963
220	0x3db468d7	0.08809059
221	0x3c2bf5e7	0.010495639
222	0x3d79661d	0.0608884
223	0x3d83f17e	0.06442545
224	0xbdc780ab	-0.09741338
225	0xbd63b973	-0.05559678
226	0x3c311ea8	0.010810532
227	0x3e36b0ab	0.17840831
228	0xbd9d473b	-0.07679602
229	0xbcff8648	-0.03119196
230	0x3da6f5ac	0.08152327
231	0xbda95154	-0.08267465
232	0xbd5cb81a	-0.05388651
233	0xbd023153	-0.03178532
234	0x3dbacb81	0.091208465
235	0xbdf75a22	-0.12077738
236	0xbd1aeff4	-0.037826493
237	0x3c046171	0.0080798725
238	0xbdb1f1d2	-0.08688702
239	0x3daa0f22	0.083036676
240	0xbdcbd093	-0.09951892
241	0x3d0386b4	0.032110885
242	0x3d7cd853	0.06172974
243	0xbd169196	-0.036759935
244	0xbdd66928	-0.10469276
245	0x3db56220	0.088566065
246	0x3db10e45	0.086453
247	0xbd839b92	-0.06426157
248	0x3ca2359d	0.019800955
249	0x3db68f00	0.08913994
250	0x3e481dbd	0.19542594
251	0xbc763e02	-0.015029432
252	0x3d45a59e	0.048253648
253	0x3cd6a575	0.026201943
254	0x3d91ffd2	0.07128872
255	0xbdc64e95	-0.09682957

network_body.observation_encoder.processors.0.dense.0.bias f4 [128]
0	0x00000000	0.0
1	0x00000000	0.0
2	0x00000000	0.0
3	0x00000000	0.0
4	0x00000000	0.0
5	0x00000000	0.0
6	0x00000000	0.0
7	0x00000000	0.0
8	0x00000000	0.0
9	0x00000000	0.0
10	0x00000000	0.0
11	0x00000000	0.0
12	0x00000000	0.0
13	0x00000000	0.0
14	0x00000000	0.0
15	0x00000000	0.0
16	0x00000000	0.0
17	0x00000000	0.0
18	0x00000000	0.0
19	0x00000000	0.0
20	0x00000000	0.0
21	0x00000000	0.0
22	0x00000000	0.0
23	0x00000000	0.0
24	0x00000000	0.0
25	0x00000000	0.0
26	0x00000000	0.0
27	0x00000000	0.0
28	0x00000000	0.0
29	0x00000000	0.0
30	0x00000000	0.0
31	0x00000000	0.0
32	0x00000000	0.0
33	0x00000000	0.0
34	0x00000000	0.0
35	0x00000000	0.0
36	0x00000000	0.0
37	0x00000000	0.0
38	0x00000000	0.0
39	0x00000000	0.0
40	0x00000000	0.0
41	0x00000000	0.0
42	0x00000000	0.0
43	0x00000000	0.0
44	0x00000000	0.0
45	0x00000000	0.0
46	0x00000000	0.0
47	0x00000000	0.0
48	0x00000000	0.0
49	0x00000000	0.0
50	0x00000000	0.0
51	0x00000000	0.0
52	0x00000000	0.0
53	0x00000000	0.0
54	0x00000000	0.0
55	0x00000000	0.0
56	0x00000000	0.0
57	0x00000000	0.0
58	0x00000000	0.0
59	0x00000000	0.0
60	0x00000000	0.0
61	0x00000000	0.0
62	0x00000000	0.0
63	0x00000000	0.0
64	0x00000000	0.0
65	0x00000000	0.0
66	0x00000000	0.0
67	0x00000000	0.0
68	0x00000000	0.0
69	0x00000000	0.0
70	0x00000000	0.0
71	0x00000000	0.0
72	0x00000000	0.0
73	0x00000000	0.0
74	0x00000000	0.0
75	0x00000000	0.0
76	0x00000000	0.0
77	0x00000000	0.0
78	0x00000000	0.0
79	0x00000000	0.0
80	0x00000000	0.0
81	0x00000000	0.0
82	0x00000000	0.0
83	0x00000000	0.0
84	0x00000000	0.0
85	0x00000000	0.0
86	0x00000000	0.0
87	0x00000000	0.0
88	0x00000000	0.0
89	0x00000000	0.0
90	0x00000000	0.0
91	0x00000000	0.0
92	0x00000000	0.0
93	0x00000000	0.0
94	0x00000000	0.0
95	0x00000000	0.0
96	0x00000000	0.0
97	0x00000000	0.0
98	0x00000000	0.0
99	0x00000000	0.0
100	0x00000000	0.0
101	0x00000000	0.0
102	0x00000000	0.0
103	0x00000000	0.0
104	0x00000000	0.0
105	0x00000000	0.0
106	0x00000000	0.0
107	0x00000000	0.0
108	0x00000000	0.0
109	0x00000000	0.0
110	0x00000000	0.0
111	0x00000000	0.0
112	0x00000000	0.0
113	0x00000000	0.0
114	0x00000000	0.0
115	0x00000000	0.0
116	0x00000000	0.0
117	0x00000000	0.0
118	0x00000000	0.0
119	0x00000000	0.0
120	0x00000000	0.0
121	0x00000000	0.0
122	0x00000000	0.0
123	0x00000000	0.0
124	0x00000000	0.0
125	0x00000000	0.0
126	0x00000000	0.0
127	0x00000000	0.0

network_body.processors.0.conv_layers.0.weight f4 [16, 1, 8, 8]
0	0x3defe7c2	0.11714126
1	0xbde50def	-0.11184298
2	0x3cd9dc78	0.026594386
3	0xbd39d5cc	-0.04536991
4	0xbd7bb950	-0.061456025
5	0x3d8baa0c	0.06819543
6	0x3d8cfd3e	0.068842396
7	0x3d7dd274	0.061968282
8	0x3da937b0	0.08262575
9	0x3dca90c0	0.0989089
10	0x3d08a5f8	0.033361405
11	0xbcfe393c	-0.03103315
12	0x3db1c15c	0.086794585
13	0xbd3c8aa6	-0.046030663
14	0x3bda1f00	0.0066565275
15	0x3cc3bca0	0.023893654
16	0x3b886360	0.004162237
17	0xbc925bb4	-0.017865993
18	0xbdb84026	-0.0899661
19	0x3dc4a7b0	0.09602296
20	0xbdd3a8cc	-0.1033493
21	0xbd6633ec	-0.05620186
22	0x3baa3080	0.00519377
23	0x3d6e7bc4	0.0582235
24	0xbdb3dc16	-0.087822124
25	0xbddcc587	-0.10779863
26	0xbdb468a8	-0.08809024
27	0xbdbce214	-0.092228085
28	0x3d44bee0	0.048033595
29	0xbd19d8c8	-0.037560254
30	0xbdb6ee32	-0.08932151
31	0xbdc2bedb	-0.09509059
32	0xbd57550a	-0.052571334
33	0x3c8b8e90	0.017035753
34	0xbc2ddaf8	-0.010611288
35	0x3bf5f9a0	0.0075065643
36	0x3dbad69a	0.09122963
37	0xbdf16fb2	-0.11788882
38	0xbd24a734	-0.04019852
39	0x3dbe24dc	0.09284374
40	0xbbc8c810	-0.006127365
41	0xbdc99fde	-0.09844945
42	0xbd711c48	-0.05886486
43	0xbd741510	-0.0595904
44	0xbc8059f0	-0.015667886
45	0xbd7f7b78	-0.06237361
46	0x3dbfb57c	0.09360787
47	0x3dcf0744	0.10108808
48	0x3d9fa4a6	0.07795076
49	0xbd82f4f4	-0.06394377
50	0x3dfc2580	0.1231184
51	0xbdaf8eec	-0.08572182
52	0xbde9ba07	-0.11412435
53	0xbd1eab88	-0.038737804
54	0x3cf3ea00	0.029774666
55	0xbded1c5e	-0.11577676
56	0xbb5a4720	-0.0033306554
57	0x3dd50b50	0.10402548
58	0xbd6b1ed8	-0.05740246
59	0xbd09dfe4	-0.033660784
60	0x3de362e8	0.11102849
61	0x3cfbfb08	0.03075935
62	0xbdc0458c	-0.09388265
63	0xbdb7fc84	-0.089837104
64	0xbde439b5	-0.11143819
65	0xbc0e1520	-0.008672029
66	0xbdbc9304	-0.092077285
67	0xbd1045dc	-0.035222873
68	0xbd566e4a	-0.052351274
69	0x3cbfaee8	0.023398831
70	0x3db3532e	0.087561
71	0xbdedd51f	-0.11612915
72	0xbca40014	-0.020019569
73	0x3df68c30	0.120384574
74	0xbdd51e57	-0.104061775
75	0xbd879a06	-0.066211745
76	0x3dff4724	0.12464741
77	0xbdd5c492	-0.104378834
78	0x3da86710	0.082227826
79	0x3c386600	0.011254787
80	0xbb796be0	-0.0038058683
81	0xbdadd1f2	-0.084873095
82	0xbd8d7bd8	-0.06908387
83	0xbdee3c76	-0.11632626
84	0xbd90adf1	-0.07064427
85	0xbdd4c9ba	-0.10390039
86	0xbcc5f144	-0.024162896
87	0xbdb56921	-0.088579424
88	0x3d4af12c	0.049546406
89	0xbd85b564	-0.06528738
90	0x3d918e98	0.07107276
91	0x3db8fdc0	0.09032774
92	0x3d6b645c	0.057468757
93	0xbcbb3cb4	-0.022856094
94	0xbc7d23d0	-0.015450433
95	0xbdcd20c2	-0.10016014
96	0xbd41b6cc	-0.04729347
97	0x3dfddda6	0.12395792
98	0xbd9a93f4	-0.07547751
99	0x3dd65232	0.10464896
100	0x3b92f8c0	0.0044852197
101	0x3cf5aba0	0.029989064
102	0xbdff0cc7	-0.12453609
103	0xbcc9d108	-0.024635807
104	0x3d495ac4	0.049158826
105	0xbb989b00	-0.0046571493
106	0x3c684900	0.014177561
107	0x3d8acc94	0.067773014
108	0x3cf82468	0.030290797
109	0x3c6d4110	0.014480844
110	0xbdf26085	-0.11834816
111	0x3c54ec60	0.012995809
112	0x3d958c86	0.07302193
113	0xbdb2c432	-0.087288275
114	0xbdac7744	-0.084211856
115	0x3d2e09a4	0.042489663
116	0x3d95c0a2	0.073121324
117	0x3db36852	0.08760132
118	0xbb476be0	-0.0030429289
119	0x3d4e3388	0.050342113
120	0x3cf995e8	0.030466989
121	0x3d959afc	0.073049515
122	0x3c3e7e50	0.011626795
123	0xbd7c65c0	-0.061620474
124	0x3d958c18	0.073021114
125	0x3df52662	0.119702116
126	0xbbcd8dc0	-0.0062730014
127	0x3c1c58b0	0.009542629
128	0x3df78434	0.120857626
129	0x3ddf0e6a	0.10891421
130	0x3dc0c40c	0.09412393
131	0xbb85c680	-0.004082501
132	0xbdc520f2	-0.096254244
133	0xbdf676ad	-0.12034354
134	0x3dcb7f2a	0.09936364
135	0x3d1071d8	0.03526482
136	0x3d74600c	0.05966191
137	0xbda04344	-0.0782533
138	0x3bce89a0	0.0063030273
139	0x3d32f510	0.04369074
140	0x3ca1cbb0	0.019750446
141	0xbdeb034f	-0.114752404
142	0x3d37efd0	0.044906437
143	0x3df76478	0.1207971
144	0xbd8bbe3e	-0.06823395
145	0xbda7a3aa	-0.08185513
146	0x3d5d0e98	0.053968996
147	0x3db48c10	0.08815777
148	0x3dde56d6	0.108564064
149	0xbddbe9fe	-0.1073799
150	0xbdcb7252	-0.09933914
151	0x3d4b91b4	0.0496995
152	0x3de450b4	0.111482054
153	0x3cc0d250	0.023537785
154	0x3c2658a0	0.010152966
155	0x3d4350fc	0.047684655
156	0xbc0459e0	-0.0080780685
157	0xbd1af288	-0.037828952
158	0x3ca806f8	0.020511135
159	0x3d87c8ac	0.06630072
160	0xbd9a23c7	-0.07526355
161	0x3d78ec30	0.06077212
162	0xbd8a2c42	-0.06746723
163	0xbd01335c	-0.03154312
164	0xbd041912	-0.03225047
165	0xbd9061be	-0.07049893
166	0xbd63feee	-0.05566304
167	0x3cde96a8	0.027171448
168	0xbd9c6fa4	-0.07638481
169	0x3d0f35a0	0.03496325
170	0xbd18f82c	-0.03734605
171	0x3dacab62	0.08431126
172	0x3c11c990	0.008898154
173	0xbd8a10f2	-0.06741513
174	0xbdf67bbb	-0.120353185
175	0xbdfe544a	-0.124184206
176	0x3d67d838	0.056602687
177	0xbdc6f78b	-0.09715184
178	0xbdb5b8c2	-0.088731304
179	0xbdb9f054	-0.09079042
180	0xbaea9a80	-0.0017898828
181	0x3dd74242	0.105106845
182	0xbdd0ac18	-0.10189074
183	0x3d5fe558	0.05466208
184	0x3d1fc2bc	0.039004073
185	0xbdcb8a43	-0.09938481
186	0xbcfd0e40	-0.030890584
187	0x3a923f80	0.001115784
188	0xbda15bee	-0.07878862
189	0xbd18a0b6	-0.03726264
190	0x3d8dd01a	0.06924458
191	0xbdf32914	-0.118730694
192	0xbb3e5100	-0.002903998
193	0x3dd95a64	0.10612944
194	0x3c982e08	0.018576637
195	0xbd809afa	-0.062795594
196	0xbd45f332	-0.048327632
197	0xbaa54180	-0.0012608021
198	0x3ddbd7da	0.1073453
199	0xbd0e715c	-0.034776077
200	0xbda0c666	-0.078503415
201	0xbdd52299	-0.104069896
202	0xbc44ab20	-0.01200369
203	0xbd74b754	-0.059745148
204	0xbcb162f4	-0.02165363
205	0x3dc3b5e2	0.09556176
206	0x3bf51120	0.007478848
207	0xbdccc81f	-0.099991076
208	0xbcc01fa4	-0.023452587
209	0x3c4ac970	0.012377128
210	0xbcca9338	-0.024728402
211	0xbc943ce0	-0.018095434
212	0xbddfa843	-0.10920765
213	0xbd429e64	-0.047514334
214	0x3d73f8b8	0.05956337
215	0xbd9cc6d6	-0.076551124
216	0x3cc68470	0.024233073
217	0x3d166108	0.03671363
218	0xbcdf39b8	-0.027249202
219	0x3c4df8a0	0.012571484
220	0x3c7b1250	0.01532419
221	0x3ccc95f0	0.02497384
222	0xb9eda700	-0.00045328587
223	0xbdb2c97f	-0.087298386
224	0x3d8f77e0	0.07005286
225	0xbd16f1f8	-0.036851853
226	0x3da43814	0.080185086
227	0xbddfba57	-0.109242134
228	0xbc53fff0	-0.012939438
229	0x3d57d958	0.05269751
230	0xbce4e600	-0.027941704
231	0x3ded692c	0.115923256
232	0xbc875a10	-0.016522437
233	0xbd60909a	-0.054825403
234	0xbd15dbb8	-0.036586493
235	0xbdc7ad62	-0.09749867
236	0x3d3f44e4	0.04669656
237	0xbdec5b2c	-0.11540827
238	0x3d50ba9c	0.050959215
239	0x3d5a612c	0.053315327
240	0x3da19910	0.078905225
241	0xbca2d234	-0.019875623
242	0x3dbdf284	0.09274772
243	0xba2c6980	-0.0006577
244	0xbd29f896	-0.041496836
245	0xba02a680	-0.0004983917
246	0xbdb9b0a8	-0.09066898
247	0x3ce70fb0	0.028205723
248	0x3dc5a612	0.09650816
249	0x3df63a34	0.1202282
250	0x3d5c06c0	0.053717375
251	0xbd18283a	-0.037147738
252	0xbcd721d0	-0.02626124
253	0xbda0e5d9	-0.0785634
254	0xbd5a1592	-0.053243227
255	0xbde63069	-0.11239702

network_body.processors.0.conv_layers.0.bias f4 [16]
0	0x3da3e728	0.08003074
1	0x3ddfb57c	0.10923287
2	0xbdfbb3a9	-0.12290127
3	0x3d27a7c8	0.040931493
4	0xbc27f3a8	-0.010250963
5	0x3d8ea6e4	0.069654256
6	0x3c6e4c30	0.014544532
7	0xbd96a0b4	-0.073548704
8	0xbd439564	-0.047749892
9	0x3d35b180	0.04435873
10	0x3c9084e0	0.017641485
11	0xbd9bbb4a	-0.07604082
12	0x3dbd8a26	0.09254865
13	0xbd64de0e	-0.05587583
14	0xbcb56d00	-0.022146702
15	0xbd929612	-0.0715753

network_body.processors.0.conv_layers.2.weight f4 [32, 16, 4, 4]
0	0x3ca9f8a0	0.020748436
1	0xbd0e4510	-0.034733832
2	0x3d6c7ece	0.057738118
3	0xbd476e62	-0.048689254
4	0xbb88be40	-0.00417307
5	0xbca7f870	-0.020504206
6	0xbc65c0d0	-0.014023021
7	0x3d05c2bc	0.032656416
8	0x3d0ae576	0.033910237
9	0x3d2e8d52	0.042615242
10	0x3cf55e6c	0.02995225
11	0xbbf1f6e8	-0.00738417
12	0x3d6cdcf0	0.05782789
13	0x3d63ca90	0.0556131
14	0xbccf798a	-0.025326509
15	0x3b8ccd70	0.004296951
16	0x3b94c3f0	0.004539959
17	0xbd13ccc7	-0.036083963
18	0x3b0490e0	0.0020227954
19	0x3cb6e9a8	0.022328213
20	0x3ce6954c	0.028147362
21	0xbc6b6fe4	-0.0143699385
22	0x3ba6e200	0.0050928593
23	0x3b100100	0.0021973252
24	0xbd01eb88	-0.03171876
25	0x3d17b71e	0.03703987
26	0xbc5bd57c	-0.013417598
27	0x3a0cd600	0.00053724647
28	0xbd311e33	-0.04324169
29	0xba879da0	-0.0010346659
30	0x3b909960	0.004412815
31	0xbd7dc0d7	-0.061951485
32	0xbd274131	-0.040833656
33	0x3c70c938	0.014696412
34	0x3d1ab53e	0.037770502
35	0x3c43d738	0.011953168
36	0x3cd5189c	0.026012711
37	0x3c1a87c0	0.009431779
38	0xbd1aa0e2	-0.037751086
39	0xbd7caec5	-0.06169011
40	0x3c11ffc0	0.008911073
41	0x3c9a06a0	0.018801987
42	0xbad97e60	-0.0016593449
43	0xbc98d640	-0.01865685
44	0xbd2730be	-0.04081797
45	0x3bd1db10	0.006404288
46	0xbd4a6090	-0.049408495
47	0xbd78cdbb	-0.060743075
48	0x3d14780e	0.036247306
49	0x3bed5ab0	0.007243477
50	0x3d4ba6b2	0.04971952
51	0x3c1c5630	0.009542033
52	0xbcb6db56	-0.022321384
53	0xbd4fb650	-0.050710976
54	0xbb84d820	-0.0040540844
55	0x3cf8939c	0.030343823
56	0xbd7ea98a	-0.062173404
57	0x3cc9a4ec	0.024614774
58	0xbd531f9f	-0.051543828
59	0x3caa3f50	0.020782143
60	0xbcbd0074	-0.023071505
61	0x3c943f98	0.01809673
62	0x3d5686ca	0.05237464
63	0x3cd7f174	0.026360251
64	0x3cea6a48	0.028615132
65	0x3d494d5a	0.049146034
66	0xbd4414ee	-0.047871523
67	0xbcbd5d50	-0.023115784
68	0xbc0f4e94	-0.008746762
69	0x3d79221c	0.060823545
70	0xbd63af75	-0.05558725
71	0xbd6cfa36	-0.057855807
72	0xbd61d334	-0.05513306
73	0xbd12fdfa	-0.035886742
74	0x3d5b62ca	0.05356101
75	0xbc94cc60	-0.01816386
76	0x3c6703a0	0.014099985
77	0xbc9975f2	-0.018732999
78	0xbc86f3d6	-0.016473692
79	0xbce27028	-0.02764137
80	0xbc981648	-0.018565312
81	0xbca2de1c	-0.0198813
82	0xbc59a9e4	-0.013285134
83	0xbd172c32	-0.036907382
84	0xbc98877a	-0.018619288
85	0x3bc5aca0	0.0060325414
86	0xbb897e98	-0.0041959994
87	0xbc3bb2e8	-0.011456229
88	0xbc19c844	-0.009386126
89	0x3d2e2260	0.04251325
90	0xbd7a1860	-0.061058402
91	0xbd5a8bd2	-0.053356
92	0x3d73281c	0.059364423
93	0xbd73bcfa	-0.059506394
94	0xba069440	-0.00051337853
95	0xbd2c76df	-0.04210555
96	0x3c39d688	0.011342652
97	0x3d31ce24	0.04340948
98	0xbd33f233	-0.04393215
99	0xbd1a34f4	-0.037648156
100	0xbd2d98f0	-0.04238218
101	0xbd2bb166	-0.041917227
102	0xba703440	-0.00091630593
103	0x3d02bbc8	0.031917363
104	0xbc5fcf08	-0.0136602
105	0x3d46d1b6	0.04853984
106	0x3cf3e43c	0.029771917
107	0x3c54a950	0.01297982
108	0x3cc36c00	0.02385521
109	0xbcd996b4	-0.026561119
110	0xbc1f2924	-0.0097143985
111	0xbd687a74	-0.056757405
112	0x3ca688d8	0.020328924
113	0xbcb157fe	-0.021648403
114	0xbcd7c3d8	-0.026338503
115	0x3d596d0a	0.053082503
116	0xbcee5e1c	-0.02909761
117	0xbd3eaa02	-0.04654885
118	0xbc6c421c	-0.014420059
119	0xbcf6acc8	-0.030111685
120	0x3d7e8d20	0.062146306
121	0x3d4e80b6	0.050415717
122	0x3c208d40	0.009799302
123	0x3c504610	0.012712017
124	0x3d174e9e	0.03694021
125	0x3c638310	0.013886228
126	0xbcce2cc2	-0.025167827
127	0xbc519274	-0.012791265
128	0x3c2f8530	0.010712907
129	0xbd0dac4d	-0.034588147
130	0x3d42b6e8	0.047537714
131	0x3d2a60a8	0.041596085
132	0xbd61af92	-0.055099078
133	0x3c434298	0.011917733
134	0xbd1f3d70	-0.03887695
135	0xbbe00118	-0.006836068
136	0xbac24c60	-0.0014823787
137	0xbd4cfe36	-0.050047122
138	0xbc01cf6c	-0.007922988
139	0xbd42bc15	-0.04754265
140	0xbd195d08	-0.037442237
141	0x3d02992e	0.031884365
142	0x3d51d548	0.05122879
143	0xbd5c6168	-0.05380383
144	0xbd5ba86f	-0.053627428
145	0xbc9d7060	-0.019218624
146	0xbd61260b	-0.05496792
147	0xbd564ef0	-0.052321374
148	0x3d318bb2	0.043346114
149	0x3d1ce7ee	0.038307123
150	0x3d7474f2	0.05968184
151	0x3d772f6a	0.060347952
152	0xbadefb00	-0.001701206
153	0xbcf2f7fc	-0.029659264
154	0x3d10cf76	0.0353541
155	0x3ca72e98	0.02040796
156	0xbd04140e	-0.03224569
157	0xbc484b58	-0.012224995
158	0x3d72777c	0.05919598
159	0x3cc52664	0.024066158
160	0x3d6ec1d8	0.058290333
161	0x3ceafef0	0.028686017
162	0xbc81bad8	-0.015836164
163	0x3c7f1418	0.015568756
164	0xbd7f7384	-0.062366024
165	0x3cfe2be8	0.031026796
166	0x3ccde0b4	0.02513156
167	0x3d12632c	0.03573911
168	0xbd4ad794	-0.049521998
169	0x3d44b9c6	0.04802873
170	0x3b9ed8b0	0.0048476085
171	0xbd48bce6	-0.049008273
172	0xbd7d9538	-0.061909884
173	0x3d657f2a	0.056029476
174	0x3cbb51c8	0.022866145
175	0xbcdd0f8a	-0.026984949
176	0x3aa2b140	0.0012412444
177	0x3ce0b5b4	0.027430393
178	0x3c57a668	0.013162233
179	0xbd4488ba	-0.047981955
180	0x3ca11a34	0.019665815
181	0xbcd26f70	-0.025687903
182	0x3c3b8330	0.011444852
183	0x3d228a48	0.039682657
184	0xbc3581d4	-0.011078317
185	0xbbd85080	-0.006601393
186	0x3d2dd71e	0.04244148
187	0x3cafe388	0.0214708
188	0xbd3473b4	-0.044055656
189	0xbd4b5116	-0.049637876
190	0xbcb773cc	-0.022394083
191	0xbd68df9e	-0.056853883
192	0xbd5dea47	-0.054178502
193	0xbc90d2ca	-0.017678637
194	0x3c9400f0	0.018066853
195	0xbc26a720	-0.010171682
196	0xbcf327de	-0.029682096
197	0xbd60e586	-0.05490639
198	0x3d7fbb76	0.062434636
199	0x3c0274b0	0.007962391
200	0x3cd28300	0.025697231
201	0x3c015e78	0.007896058
202	0x3d1332d4	0.035937145
203	0x3cff6f3c	0.03118097
204	0xbd18e35e	-0.03732621
205	0x3a099380	0.00052481145
206	0xbc004018	-0.007827781
207	0x3d41ccdc	0.04731451
208	0x3cf45084	0.02982355
209	0x3d48e98e	0.04905086
210	0x3bcbad60	0.0062157363
211	0x3d110b18	0.03541097
212	0xbcb26b4a	-0.021779675
213	0x3c80abfc	0.015707009
214	0x3d6ba3b0	0.05752915
215	0x3cb39434	0.021921255
216	0x3d5ffb12	0.0546828
217	0x3c97f6e4	0.018550344
218	0x3d38f9ba	0.045160033
219	0x3d5884da	0.052861072
220	0x3d1336b2	0.035940833
221	0xbd2c259c	-0.042028055
222	0x3d3ebe5a	0.046568252
223	0x3d6552ec	0.055987284
224	0x3d394a28	0.045236737
225	0xbd6af8ea	-0.05736629
226	0x3d1f6502	0.038914688
227	0xbcb4721a	-0.022027064
228	0xbcdf013e	-0.027222272
229	0x3c4435b8	0.011975698
230	0xbd4c886c	-0.04993479
231	0xbcb6d93e	-0.022320386
232	0xbba787e0	-0.005112633
233	0xbd5ca13f	-0.053864714
234	0x3d182a52	0.037149735
235	0xbd475362	-0.048663504
236	0x3bbcd910	0.0057631806
237	0xbd433108	-0.04765418
238	0x3cb2a444	0.021806844
239	0x3c31e3c8	0.01085753
240	0x3cec0424	0.028810568
241	0x3d4e90da	0.05043111
242	0x3d3e824a	0.046510972
243	0x3d700a2a	0.058603443
244	0xbd742dc3	-0.059613954
245	0x3d2bfd26	0.041989468
246	0x3ceeef24	0.029166766
247	0x3d785204	0.06062509
248	0xba93d2e0	-0.0011278056
249	0x3bbdad00	0.0057884455
250	0x3cfc28b4	0.030781128
251	0x3c87ce4c	0.016577862
252	0x3d08587c	0.03328751
253	0x3cdb3af0	0.026761502
254	0x3bc044f0	0.005867593
255	0xbd2951a2	-0.041337617

network_body.processors.0.conv_layers.2.bias f4 [32]
0	0x3b024580	0.001987785
1	0xbd3eb73c	-0.046561465
2	0xbd6bd078	-0.05757186
3	0x3ce0f1dc	0.027459078
4	0x3ce10988	0.027470365
5	0x3c65af00	0.014018774
6	0xbc398714	-0.011323709
7	0x3b1f9b20	0.0024353936
8	0x3d7b1066	0.061294936
9	0x3ce2e744	0.027698167
10	0xbc90c6e4	-0.017672963
11	0xbcba8d20	-0.022772372
12	0xbc87ce04	-0.016577728
13	0xbd6f4e9e	-0.058424585
14	0x3d133f0c	0.035948798
15	0xbd217e19	-0.039426897
16	0xbc9219b4	-0.017834522
17	0xbd5b8548	-0.053593904
18	0x3d583b5e	0.052790992
19	0xbd64be5b	-0.0558456
20	0xbd67acb7	-0.056561198
21	0xbd656257	-0.056001987
22	0x3ca25b1c	0.019818835
23	0x3d402708	0.046912223
24	0xbceb18a2	-0.02869827
25	0x3d37929c	0.044817552
26	0xbcdc0926	-0.026859831
27	0xbc919056	-0.01776902
28	0x3c3a7bb0	0.011382028
29	0xbc87e6a4	-0.01658947
30	0x3d7ae26c	0.06125109
31	0xbd5c800c	-0.053833053

network_body.processors.0.dense.0.weight f4 [128, 512]
0	0x3da5634e	0.080755815
1	0x3e1f76ec	0.15572709
2	0xbd701a88	-0.058619052
3	0xbd04912f	-0.03236502
4	0xbdbdd61a	-0.09269352
5	0xbd8af813	-0.06785598
6	0xbda44cc7	-0.080224566
7	0xbcab1516	-0.020884078
8	0xbc2bc7e9	-0.010484674
9	0xbd088768	-0.03333226
10	0xbc5676f8	-0.013089888
11	0xbda196c3	-0.07890084
12	0x3d0b4dbd	0.034009684
13	0x3d39e884	0.04538776
14	0x3d90a447	0.070625834
15	0x3d70e3eb	0.05881111
16	0x3d4c5d9a	0.049893953
17	0xbd07785f	-0.03307378
18	0x3d2b3240	0.04179597
19	0x3ce8d937	0.028423889
20	0x3c4178fb	0.011808629
21	0x3c7d9e3c	0.015479621
22	0x3d9dd774	0.0770711
23	0x3c8a687b	0.016895523
24	0xbc9a728e	-0.018853452
25	0xbd93e924	-0.072222024
26	0x3d2b9c29	0.041896973
27	0xbda45533	-0.08024063
28	0x3cfeaed8	0.031089231
29	0xbd5bdf90	-0.053680003
30	0xbd71f5ed	-0.059072424
31	0x3c330e3a	0.010928685
32	0xbcea4dc6	-0.028601538
33	0xbe3823c9	-0.17982401
34	0x3da412ea	0.0801142
35	0x3d83b9f5	0.06431953
36	0xbd4624da	-0.04837499
37	0x3db707a7	0.089370064
38	0xbc963fdc	-0.018340997
39	0xbe30bd4d	-0.17259713
40	0x3d4ea034	0.05044575
41	0xbd698c1d	-0.057018388
42	0xbd916c6e	-0.071007594
43	0x3c28d287	0.0103041
44	0x3aaa2109	0.0012979816
45	0x3d81ed1d	0.06344054
46	0x3c8d5cc8	0.017256156
47	0x3c5493f8	0.012974732
48	0xbd13d2a7	-0.036089566
49	0xbbcc0c0e	-0.006227023
50	0x3dab4185	0.08362106
51	0xbb0395b3	-0.0020078241
52	0x3da20db9	0.07912774
53	0x3b262dd5	0.0025356908
54	0xbdb0504f	-0.08609068
55	0xbd832a36	-0.064045355
56	0x3c2f8d68	0.010714866
57	0xbde73699	-0.112897106
58	0x3d2ff27e	0.042955868
59	0x3c5ee32e	0.013603969
60	0xbcfba1f2	-0.03071687
61	0x3de4717c	0.11154458
62	0x3d7b2e13	0.061323237
63	0xbc13f727	-0.009031094
64	0xbd748aef	-0.05970281
65	0x39100bf5	0.00013737364
66	0xbd9d11ac	-0.07669386
67	0xbd6d7002	-0.057968147
68	0xbc90afc3	-0.017661935
69	0xbd45a443	-0.048252355
70	0xbdebf444	-0.11521199
71	0xba4c7d7a	-0.000780068
72	0x3c6927a5	0.014230643
73	0xbe01cf96	-0.12676844
74	0x3d04b256	0.032396637
75	0xbbd8b41a	-0.0066132667
76	0xbc8fd98e	-0.017559793
77	0xbc4dca72	-0.012560474
78	0x3dce5b4c	0.10076007
79	0x3db34c17	0.08754747
80	0x3cdf9bce	0.027295973
81	0x3d04027f	0.032228943
82	0x3d7d1869	0.061790857
83	0xbd274a33	-0.040842246
84	0x3d23b1a7	0.039964344
85	0xbba87642	-0.0051410506
86	0xbbbbc014	-0.0057296846
87	0x3c936c73	0.017996049
88	0xbcac404c	-0.021026753
89	0x3dd911de	0.10599111
90	0x3d67c127	0.05658069
91	0xbac8dacd	-0.0015323997
92	0xbd7a0af7	-0.061045613
93	0xbab70330	-0.0013962742
94	0xbb8bb9a4	-0.0042640734
95	0xbd8842b5	-0.06653348
96	0xbb5bcf5f	-0.003354035
97	0xbbf115c8	-0.007357333
98	0x3dbb50ca	0.09146269
99	0x3db8a304	0.09015468
100	0xbd88ece1	-0.06685806
101	0xbdc46fc9	-0.09591634
102	0xbce0c6ed	-0.027438605
103	0x3cd72194	0.026261128
104	0xbdbb1e83	-0.09136679
105	0xbca62c60	-0.020284832
106	0x3b9b26c1	0.0047348444
107	0x3d90848c	0.07056531
108	0xbd3313c7	-0.043720033
109	0x3d9e0fa3	0.07717826
110	0x3d3e9c85	0.046535987
111	0xbd6a1aa9	-0.05715433
112	0x3dddfbb7	0.108390264
113	0xbca6bd4b	-0.020353934
114	0x3d4664ec	0.04843609
115	0x3db36a17	0.087604694
116	0xbd281404	-0.041034713
117	0x3db8ae76	0.09017651
118	0xbe692d5b	-0.22771208
119	0x3d379a60	0.044824958
120	0x3c6b61f8	0.014366619
121	0xbd8f0aa8	-0.069844544
122	0xbca0da5f	-0.019635377
123	0x3d2efbcc	0.0427206
124	0xbdb8b398	-0.0901863
125	0xbb324297	-0.0027200335
126	0xbd892140	-0.06695795
127	0x3ddcf2b4	0.107884794
128	0xbc6c34be	-0.014416872
129	0xbd489f97	-0.04898032
130	0x3d53294e	0.051553063
131	0x3d499b00	0.049220085
132	0x3db64ed4	0.08901754
133	0x3da4b45b	0.080422126
134	0xbd2e51d3	-0.042558502
135	0xbd6eea3b	-0.05832885
136	0x3d055d92	0.03255994
137	0x3dd82606	0.105541274
138	0x3d5db342	0.05412603
139	0xbca03c4e	-0.019560006
140	0xbcef921e	-0.029244479
141	0xbda850fa	-0.0821857
142	0xbd39b5e8	-0.045339495
143	0xbc9ddae0	-0.019269407
144	0x3e0503c8	0.12989724
145	0x3d3a2c38	0.045452327
146	0xbd4f4697	-0.05060443
147	0x3d79fe43	0.0610335
148	0x3d400529	0.04687992
149	0xbcacc5a3	-0.021090334
150	0xbcb2d17e	-0.02182841
151	0xbcaa7ae8	-0.02081056
152	0x3d9219e3	0.07133844
153	0x3d0765db	0.03305612
154	0xbccc3909	-0.02492954
155	0xbcd82c7a	-0.026388396
156	0x3bbcc704	0.005761029
157	0x3dc937b2	0.09825076
158	0x3b8e398b	0.0043403558
159	0xbdbf25c6	-0.093333766
160	0x3cfc109e	0.030769642
161	0xbcb48199	-0.022034453
162	0x3c1f28cf	0.009714319
163	0xbd494b5a	-0.049144126
164	0xbcd65ccc	-0.026167296
165	0xbddcf556	-0.107889816
166	0xbd1783da	-0.036990978
167	0xbd3b6c85	-0.04575779
168	0xbd00eed4	-0.031477764
169	0xbc9209b5	-0.017826894
170	0x3dd9197f	0.10600566
171	0xbda94772	-0.0826558
172	0x3d92f2cf	0.07175218
173	0xbdaade7c	-0.08343217
174	0xbc9149d7	-0.017735405
175	0x3da3d67e	0.079998955
176	0xbd1ecc89	-0.03876928
177	0xbdd80c49	-0.10549218
178	0x3d050e5a	0.03248439
179	0xbb81f5ee	-0.0039660847
180	0x3df439ba	0.11925073
181	0xbd5132d3	-0.05107386
182	0x3c12bcd7	0.008956156
183	0xbce76c13	-0.028249776
184	0xbd096bde	-0.033550136
185	0x3b2d1860	0.0026412234
186	0x3d6fcd95	0.058545668
187	0x3da9675f	0.082716696
188	0xbc8421e3	-0.01612944
189	0xbd33487e	-0.043770306
190	0xbca4fef3	-0.0201411
191	0x3d801b77	0.062552385
192	0x3dcd721e	0.10031532
193	0xbddf864b	-0.10914286
194	0xbda3da43	-0.080006145
195	0x3dc7a81e	0.09748863
196	0xbd88e1ad	-0.06683669
197	0x3cf583c3	0.029970055
198	0xbc7b0d92	-0.01532306
199	0xbdb0e0bf	-0.08636617
200	0xbd6db908	-0.058037788
201	0xbd3a9ece	-0.045561604
202	0x3d08bed6	0.03338512
203	0x3c74ef10	0.014949575
204	0xbcf76a1b	-0.030201962
205	0x3a3b4824	0.00071442337
206	0x3d84470e	0.06458865
207	0x3dc819a7	0.09770518
208	0xbd881f17	-0.06646555
209	0x3ddf80cc	0.10913238
210	0x3dcb49f4	0.09926215
211	0x3d85f431	0.065407164
212	0x3d9f754f	0.07786047
213	0xbd0f2e51	-0.03495628
214	0x3d857d9b	0.06518098
215	0xbca9d77f	-0.02073264
216	0xbd7f13a7	-0.0622746
217	0xbdf1b05b	-0.11801215
218	0xbce8171b	-0.02833133
219	0x3cd15eef	0.025557963
220	0x3db468d7	0.08809059
221	0x3c2bf5e7	0.010495639
222	0x3d79661d	0.0608884
223	0x3d83f17e	0.06442545
224	0xbdc780ab	-0.09741338
225	0xbd63b973	-0.05559678
226	0x3c311ea8	0.010810532
227	0x3e36b0ab	0.17840831
228	0xbd9d473b	-0.07679602
229	0xbcff8648	-0.03119196
230	0x3da6f5ac	0.08152327
231	0xbda95154	-0.08267465
232	0xbd5cb81a	-0.05388651
233	0xbd023153	-0.03178532
234	0x3dbacb81	0.091208465
235	0xbdf75a22	-0.12077738
236	0xbd1aeff4	-0.037826493
237	0x3c046171	0.0080798725
238	0xbdb1f1d2	-0.08688702
239	0x3daa0f22	0.083036676
240	0xbdcbd093	-0.09951892
241	0x3d0386b4	0.032110885
242	0x3d7cd853	0.06172974
243	0xbd169196	-0.036759935
244	0xbdd66928	-0.10469276
245	0x3db56220	0.088566065
246	0x3db10e45	0.086453
247	0xbd839b92	-0.06426157
248	0x3ca2359d	0.019800955
249	0x3db68f00	0.08913994
250	0x3e481dbd	0.19542594
251	0xbc763e02	-0.015029432
252	0x3d45a59e	0.048253648
253	0x3cd6a575	0.026201943
254	0x3d91ffd2	0.07128872
255	0xbdc64e95	-0.09682957

network_body.processors.0.dense.0.bias f4 [128]
0	0x00000000	0.0
1	0x00000000	0.0
2	0x00000000	0.0
3	0x00000000	0.0
4	0x00000000	0.0
5	0x00000000	0.0
6	0x00000000	0.0
7	0x00000000	0.0
8	0x00000000	0.0
9	0x00000000	0.0
10	0x00000000	0.0
11	0x00000000	0.0
12	0x00000000	0.0
13	0x00000000	0.0
14	0x00000000	0.0
15	0x00000000	0.0
16	0x00000000	0.0
17	0x00000000	0.0
18	0x00000000	0.0
19	0x00000000	0.0
20	0x00000000	0.0
21	0x00000000	0.0
22	0x00000000	0.0
23	0x00000000	0.0
24	0x00000000	0.0
25	0x00000000	0.0
26	0x00000000	0.0
27	0x00000000	0.0
28	0x00000000	0.0
29	0x00000000	0.0
30	0x00000000	0.0
31	0x00000000	0.0
32	0x00000000	0.0
33	0x00000000	0.0
34	0x00000000	0.0
35	0x00000000	0.0
36	0x00000000	0.0
37	0x00000000	0.0
38	0x00000000	0.0
39	0x00000000	0.0
40	0x00000000	0.0
41	0x00000000	0.0
42	0x00000000	0.0
43	0x00000000	0.0
44	0x00000000	0.0
45	0x00000000	0.0
46	0x00000000	0.0
47	0x00000000	0.0
48	0x00000000	0.0
49	0x00000000	0.0
50	0x00000000	0.0
51	0x00000000	0.0
52	0x00000000	0.0
53	0x00000000	0.0
54	0x00000000	0.0
55	0x00000000	0.0
56	0x00000000	0.0
57	0x00000000	0.0
58	0x00000000	0.0
59	0x00000000	0.0
60	0x00000000	0.0
61	0x00000000	0.0
62	0x00000000	0.0
63	0x00000000	0.0
64	0x00000000	0.0
65	0x00000000	0.0
66	0x00000000	0.0
67	0x00000000	0.0
68	0x00000000	0.0
69	0x00000000	0.0
70	0x00000000	0.0
71	0x00000000	0.0
72	0x00000000	0.0
73	0x00000000	0.0
74	0x00000000	0.0
75	0x00000000	0.0
76	0x00000000	0.0
77	0x00000000	0.0
78	0x00000000	0.0
79	0x00000000	0.0
80	0x00000000	0.0
81	0x00000000	0.0
82	0x00000000	0.0
83	0x00000000	0.0
84	0x00000000	0.0
85	0x00000000	0.0
86	0x00000000	0.0
87	0x00000000	0.0
88	0x00000000	0.0
89	0x00000000	0.0
90	0x00000000	0.0
91	0x00000000	0.0
92	0x00000000	0.0
93	0x00000000	0.0
94	0x00000000	0.0
95	0x00000000	0.0
96	0x00000000	0.0
97	0x00000000	0.0
98	0x00000000	0.0
99	0x00000000	0.0
100	0x00000000	0.0
101	0x00000000	0.0
102	0x00000000	0.0
103	0x00000000	0.0
104	0x00000000	0.0
105	0x00000000	0.0
106	0x00000000	0.0
107	0x00000000	0.0
108	0x00000000	0.0
109	0x00000000	0.0
110	0x00000000	0.0
111	0x00000000	0.0
112	0x00000000	0.0
113	0x00000000	0.0
114	0x00000000	0.0
115	0x00000000	0.0
116	0x00000000	0.0
117	0x00000000	0.0
118	0x00000000	0.0
119	0x00000000	0.0
120	0x00000000	0.0
121	0x00000000	0.0
122	0x00000000	0.0
123	0x00000000	0.0
124	0x00000000	0.0
125	0x00000000	0.0
126	0x00000000	0.0
127	0x00000000	0.0
