CS455_PR1/results/ShootTargetAgent_T4/ShootTargetAgent/ShootTargetAgent-2926.onnx (onnx, 490788 bytes, 18 tensors)

discrete_act_size_vector f4 [1, 2]
000000 00 00 48 42 00 00 48 42
       50.0 50.0

network_body.observation_encoder.processors.0.conv_layers.0.weight f4 [16, 1, 8, 8]
000000 00 8a c0 3b 10 d4 20 3d 0c b7 2a 3d da 7d b8 bd
       0.005875826 0.03926474 0.041678473 -0.09008379
000010 c8 92 99 bd dc f3 d3 3d d0 15 45 3d 18 0f 30 3d
       -0.074986994 0.10349247 0.048116505 0.042983145
000020 36 9a cc bd 0c d0 72 3d e0 fe 4e 3c da 45 d3 3d
       -0.09990351 0.05928044 0.012634009 0.103160575
000030 20 bb f2 3d 00 00 b4 39 ac 1b 5b 3d f4 e3 76 bd
       0.118520975 0.00034332275 0.053493187 -0.060275987
000040 d0 d1 7b 3d 92 07 dc 3d 8f 00 ba bd 8c 63 86 3d
       0.06147939 0.107436314 -0.09082138 0.06561956
000050 80 b5 ff bc f4 7d 56 bd 7a b1 2a bd 14 e7 cf 3d
       -0.031214476 -0.052366212 -0.04167316 0.101514965
000060 c2 f1 e8 bd 14 b1 c9 bd 00 f8 0a 3c 54 70 fc 3d
       -0.11374237 -0.09848228 0.008481979 0.123261124
000070 74 7f bb 3d c8 9c ee 3c 7e b6 58 bd 28 43 5f 3d
       0.09155169 0.029127494 -0.052908413 0.054507405
000080 f4 cb a0 bc ae c0 94 3d f8 d7 a5 bc 78 9a 56 3d
       -0.019628502 0.07263313 -0.020244583 0.052393407
000090 a2 76 f3 bd 28 45 08 3d 78 f7 ab 3d 2c 17 8e 3d
       -0.11887862 0.033269078 0.0839681 0.069380134
0000a0 54 61 b5 bd 78 65 ef 3c 60 3e d7 3b 78 ed 9e bd
       -0.088564545 0.029223189 0.006568715 -0.07760137
0000b0 94 4c ca bd 60 e0 d3 3d 0e dd d3 3d ac b7 ad 3d
       -0.09877887 0.103455305 0.10344897 0.08482298
0000c0 18 42 1a bc 22 1f a9 3d 4e d3 37 bd 70 dd 1c 3c
       -0.009415172 0.08257891 -0.04487925 0.009574279
0000d0 97 79 d7 bd 18 02 72 bd f4 48 dd 3d 14 e6 a8 bd
       -0.10521238 -0.059084028 0.1080493 -0.08247009
0000e0 ec 4f fe bd e0 dc a8 3d 62 6f 35 bd e4 49 70 3d
       -0.12417588 0.082452536 -0.044295676 0.058664218
0000f0 c8 32 a9 3d 16 1f 6c bd d3 48 fe bd 40 19 da bc
       0.08261639 -0.057646833 -0.12416234 -0.026623368
000100 e5 6a cd bd 00 82 e4 3a 5c 98 84 3d 1a ff 96 bd
       -0.10030154 0.0017433763 0.06474373 -0.073728755
000110 4c 9d 3c 3d 30 31 ea bd ec b2 02 3d 90 0e ff bc
       0.046048447 -0.11435163 0.031908914 -0.031134874
000120 34 6f 12 bd d0 78 b8 3d 8c 4c 48 3d 50 ad 7b 3c
       -0.035750583 0.09007418 0.048901126 0.015361145
000130 be 9e 86 bd 1a a8 8a 3d 21 a2 ad bd 20 93 7d bd
       -0.065732464 0.06770344 -0.08478189 -0.061907887
000140 e6 5a 60 bd 64 2c 8d bd 04 bf d1 bd 10 92 b4 bd
       -0.054774188 -0.068932325 -0.102415115 -0.08816922
000150 78 c9 ac 3c 66 7e e7 bd f0 0d 22 3c b8 78 28 bd
       0.021092162 -0.113034055 0.009891018 -0.04113075
000160 3c 01 04 bd c3 d5 d2 bd e8 12 cf 3c 08 78 d0 3d
       -0.03222774 -0.10294678 0.02527757 0.10179144
000170 60 fb 9d bd a0 4f d7 bc c0 ed aa 3b 0c 00 06 3d
       -0.077139616 -0.026283085 0.0052163303 0.03271489
000180 20 05 b0 3d e6 ef b1 bd b4 bb f3 3d 8c 5c f5 bc
       0.085947275 -0.08688335 0.11901036 -0.029951356
000190 9c f5 cc bd 06 ca 27 bd d8 9c 4c bc 84 2c eb 3d
       -0.10007784 -0.04096415 -0.012488566 0.114831
0001a0 4c ed 63 3d 30 19 0a 3d 7c 3d 73 3d ca ca 89 3d
       0.055646226 0.033715427 0.059384808 0.06728132
0001b0 a0 f6 e9 3c ea 17 8b 3d d6 aa 2f bd 8e f2 2f bd
       0.028559983 0.067916706 -0.04288753 -0.042955928
0001c0 10 dd b6 3d 10 f5 b1 bc 9f ae f2 bd e6 9f e4 3d
       0.08928883 -0.0217233 -0.118497126 0.11163311
0001d0 8c 04 a9 bd a6 b8 85 bd e0 18 e4 3c f0 82 6c 3d
       -0.082528204 -0.065293595 0.027843893 0.05774206
0001e0 cc 69 d6 3d 34 1d 8b bd 60 76 3d 3d 58 31 1d bd
       0.10469398 -0.067926794 0.04625547 -0.038377136
0001f0 1a c7 be 3d b8 aa d1 3d 98 7d ed 3c a8 6e 85 3d
       0.09315319 0.1023764 0.028990552 0.06515247
000200 43 10 c7 bd f8 95 a3 3c 75 c0 b8 bd da 66 ed 3d
       -0.097198986 0.019968972 -0.09021083 0.11591883
000210 8e 30 56 bd c4 65 cf bc 8a 8d cf 3d 94 f6 9f bd
       -0.0522924 -0.02531708 0.10134418 -0.07810703
000220 ee 98 b4 bd 10 59 90 bc 58 01 ca 3c f4 d9 c5 bc
       -0.088182315 -0.017620593 0.024658844 -0.02415178
000230 04 38 c5 3d e5 70 9b bd 28 57 c2 bd d4 d9 4a bd
       0.09629825 -0.07589892 -0.0948928 -0.049524143
000240 28 75 85 bd 98 44 d3 3c ba 57 ae bd 16 45 c7 bd
       -0.065164864 0.025789544 -0.08512826 -0.09729974
000250 80 64 e2 3b 20 8e eb 3b 7e cf c7 3d 38 09 11 3d
       0.006908953 0.0071885735 0.09756373 0.035409182
000260 80 bd 02 bc 36 25 d6 3d 24 a4 fb 3d f6 80 8a 3d
       -0.007979751 0.10456316 0.12287167 0.067628786
000270 44 6e 79 bd 62 dd bb 3d e8 7f 99 3c 60 2e 82 bd
       -0.060896173 0.09173085 0.018737748 -0.063565016
000280 c0 1c e6 3b 84 32 47 bd ec db 2b 3d 18 a3 39 bc
       0.0070224702 -0.04863216 0.04195778 -0.0113303885
000290 50 a9 7e 3d b2 85 6c bd b0 37 9c 3d 3c 72 b3 3d
       0.062173188 -0.05774469 0.07627809 0.08762023
0002a0 5e 5b 9e 3d d4 c9 2b 3d a0 fd aa bd 3c e8 ea 3d
       0.07732271 0.041940525 -0.083491564 0.114700764
0002b0 98 6b 59 bc 2c 97 cd bc d8 72 3f 3d 9c 37 5a 3d
       -0.013270281 -0.025096498 0.046740383 0.05327569
0002c0 f2 8b 86 bd f0 c1 53 3d 00 9c d9 ba 3c 1c d3 bd
       -0.06569661 0.051698625 -0.0016602278 -0.1030812
0002d0 1e 2e bf 3d 4a 63 f0 3d c0 d0 9a 3d 56 38 c8 3d
       0.09334968 0.11737688 0.07559347 0.0977637
0002e0 76 38 e9 3d bc 21 8f bd 1d 08 de bd 11 49 f1 bd
       0.11387722 -0.06988856 -0.10841391 -0.117815144
0002f0 ba a2 9b 3d 68 6e de 3c 5b 7f e5 bd 8a ca 48 bd
       0.07599397 0.027152255 -0.11205932 -0.04902128
000300 30 4a 14 bd ba fe e5 3d 44 8c ef bd 3c d4 2f 3d
       -0.036203563 0.11230226 -0.116966754 0.04292701
000310 89 ee 90 bd 96 b4 d4 bd 20 7d e0 3d 20 36 b6 bc
       -0.07076747 -0.103860065 0.10961366 -0.022242606
000320 42 20 be 3d e8 e1 fc 3c 7a 3f d0 3d 6e d1 16 bd
       0.092834964 0.03086944 0.10168357 -0.03682082
000330 1c 07 d0 bd 5a 2e c7 bd 54 f1 47 3d 24 f2 7d bd
       -0.10157606 -0.09725638 0.048814133 -0.0619985
000340 f2 a5 b5 3d 48 2d 63 3d c0 44 99 3b b8 3c 66 3d
       0.08869542 0.055463105 0.004677385 0.05621025
000350 6b fe fc bd 54 47 80 bd e0 82 53 bc 80 98 c2 bb
       -0.12353214 -0.06263605 -0.012909621 -0.0059385896
000360 24 b7 94 bd 36 12 cb bd 1c 07 62 3d 29 8f af bd
       -0.07261494 -0.09915583 0.05518256 -0.085722275
000370 b0 40 ca 3d 24 bf cc 3d 6c 33 d4 bd 20 56 c2 3d
       0.098756194 0.09997395 -0.103613704 0.09489083
000380 a0 96 80 3b ca 1c b7 bd f8 a7 e5 bc fe 00 71 bd
       0.003924206 -0.08941038 -0.028034195 -0.058838837
000390 4a 01 bf 3d 1a 0e 99 bd 70 d1 4c 3c f8 f7 e8 3c
       0.09326418 -0.07473393 0.012501106 0.028438553
0003a0 00 fe b0 39 f4 c7 ec 3d 50 89 52 3d 44 75 b6 3d
       0.0003375858 0.115615755 0.051400483 0.089090854
0003b0 e0 7e e1 3d c9 b7 e2 bd ea bb e9 bd f0 e9 64 bd
       0.110105276 -0.110702105 -0.11412795 -0.055887163
0003c0 08 51 d5 bd af 50 e3 bd 04 e8 d5 bc c0 69 d8 3b
       -0.10415846 -0.110993735 -0.02611161 0.0066044033
0003d0 14 ab 3a 3d 2e 45 bd bd cc 4a e8 bd b2 3c b6 3d
       0.04557331 -0.092417106 -0.11342391 0.088982955
0003e0 54 ac ed bd 9c 5f 5b 3d 8e 6f c5 bd aa cb ab 3d
       -0.116051346 0.053557977 -0.09640418 0.08388455
0003f0 f8 98 1a 3d 00 e5 33 3d 50 17 41 3d d0 fa 1a 3c
       0.03774354 0.043919563 0.047141373 0.009459212

network_body.observation_encoder.processors.0.conv_layers.0.bias f4 [16]
000000 92 7d b8 3d b8 2b f8 bd fa 11 97 bc f9 4b b0 3d
       0.09008326 -0.12117714 -0.01844119 0.08608241
000010 0b 22 50 bd ed 8f 1e bd 70 b2 d3 3d a2 d2 c7 3c
       -0.050813716 -0.038711477 0.103367686 0.02439243
000020 6b a8 dd 3d 09 d2 f1 bc 8c d9 bf bb a8 3c 5e 3d
       0.10823139 -0.029519098 -0.005854791 0.054257065
000030 42 70 bd bd 12 d9 05 be b6 32 b7 3c a8 c9 f4 3d
       -0.09249927 -0.13071087 0.022363048 0.119525254

network_body.observation_encoder.processors.0.conv_layers.2.weight f4 [32, 16, 4, 4]
000000 bb 95 9a 3c 1a c1 9e bc 76 bf 46 bd 38 f6 51 bd
       0.018870225 -0.019379187 -0.048522435 -0.051260203
000010 9b b5 2b 3c ba 53 7a bd 30 79 28 bd dc 8f 1e bd
       0.01048031 -0.061115004 -0.0411312 -0.038711414
000020 5c 87 4f bd 36 58 51 3d 4f 47 51 3b 51 b3 e9 bb
       -0.050666198 0.051109515 0.0031933372 -0.007131972
000030 58 f2 e6 bc 34 0e 2c 3c f1 58 5a 3d f2 4a 09 3d
       -0.02819173 0.010501433 0.053307477 0.03351874
000040 44 7a f5 3c 89 35 6e 3d 7b fa a4 3b 0d a9 38 bc
       0.029965527 0.058156524 0.0050347424 -0.011270774
000050 ab f5 38 3d 9b e4 76 3d 27 b0 7a 3d e0 74 b5 3c
       0.045156162 0.06027661 0.06120315 0.022150457
000060 13 97 63 3d 06 ea 78 bd 29 b5 8a bc c3 d3 65 3c
       0.055563997 -0.060770057 -0.016932087 0.014027539
000070 c1 ea 3c 3d 17 3d 17 bd 2f c6 4b bc 07 8d 90 bc
       0.046122316 -0.036923494 -0.012437387 -0.017645372
000080 cb 78 5f bd f4 55 d3 3c d5 7b ee 3c 6b 63 8b 3c
       -0.054558557 0.025797822 0.029111782 0.01701518
000090 04 01 3b 3d a6 cc 39 bc fd 61 28 3d a4 99 9b 3b
       0.045655265 -0.011340296 0.041109074 0.00474854
0000a0 c1 f3 1c 3d fc 77 78 bd ee 83 28 3d 40 9e 15 3c
       0.0383184 -0.0606613 0.041141443 0.009131968
0000b0 5c 2b 32 3d 06 61 3e bd 44 3d 6d 3d d9 d0 82 bd
       0.043498382 -0.046479248 0.057919756 -0.06387491
0000c0 3a 0a e1 3c ea ea 28 3d 17 c5 c1 bb 65 51 83 bc
       0.027470697 0.041239657 -0.0059133875 -0.016030023
0000d0 e1 fc 5d 3d b1 04 95 3c 71 b6 78 bd f2 65 76 3d
       0.054196242 0.018190714 -0.060720865 0.060155816
0000e0 67 0b 43 3d f6 6d d6 3c db f1 f7 3c d7 82 90 bc
       0.047618296 0.02617548 0.030266693 -0.017640514
0000f0 56 a3 5b bd 60 12 16 3d fc 23 a5 3c 15 58 44 bd
       -0.053622566 0.036638618 0.02015876 -0.047935564
000100 54 bb 9d 3c bf 19 df 3b fa 4c e9 bc de ed 12 3d
       0.019254364 0.006808489 -0.028479088 0.03587138
000110 b0 78 a9 3c 67 0e 2f bd 91 9d a9 3c b4 99 2a bd
       0.020687431 -0.042738345 0.020705016 -0.04165049
000120 b4 e5 3e 3b 57 ff 54 3d 42 68 54 bc 62 87 10 bd
       0.0029128613 0.052001324 -0.01296431 -0.03528536
000130 08 5d 60 3d 9a 5d 43 3d 35 4a 33 3c 55 7a 28 bd
       0.05477622 0.047696687 0.010942985 -0.04113229
000140 7f 4b 23 3d bd 40 01 3d b7 c3 41 bd f9 9a dd 3b
       0.03986692 0.03155588 -0.04730579 0.006762859
000150 55 63 0e bc 66 e2 87 3c 10 f9 7a bc 72 ea a1 3b
       -0.008690675 0.016587447 -0.01531817 0.004941278
000160 cf 86 76 3d c5 d4 32 3d 3f f3 65 bd 43 d7 2d 3d
       0.060187157 0.043659944 -0.05614018 0.042441618
000170 97 34 13 bc 2c b2 ac bc 7e 01 96 bc d0 99 b9 bc
       -0.008984706 -0.021081053 -0.018311258 -0.022656351
000180 22 76 d5 3c 33 b4 57 bc 1f 93 ee bc d5 98 51 bd
       0.026057307 -0.013165521 -0.029122887 -0.051171143
000190 db b2 05 bd e6 81 20 bc ed 6d e2 3c 83 4c 37 bd
       -0.032641273 -0.009796595 0.027640307 -0.0447507
0001a0 e5 8b 56 3d dd 29 3e 3d ef 67 db 3c a9 70 e9 bb
       0.052379508 0.046426643 0.026782958 -0.007124026
0001b0 87 2b 22 bd 75 4e 54 bd 25 67 27 3d ed 47 01 3d
       -0.039592292 -0.051832635 0.04086985 0.031562734
0001c0 3b 89 af 3b 33 4a 09 bd f2 ff 24 bd e6 f4 0c 3c
       0.0053569353 -0.033518028 -0.04028315 0.00860331
0001d0 a2 de 0f bd df 9f 16 bc 6d a3 3d 3d 55 84 13 3d
       -0.03512443 -0.00919339 0.046298433 0.036014874
0001e0 1a ff 42 3c 3b 01 11 3d 69 0c ca 3c 73 ed 15 bd
       0.011901641 0.035401564 0.02466412 -0.036603402
0001f0 dc 2e d1 bc ee e3 4d 3d d6 fc 8f 3c 90 c5 5d bd
       -0.02553504 0.0502662 0.017576616 -0.05414349
000200 8d b0 12 3d af 44 89 3c 6b 41 84 bc 1f f2 fb bc
       0.035812903 0.016756384 -0.016144475 -0.0307551
000210 a3 24 22 bd bb 15 75 3d 6d fe 5b bd 8d 1e 70 bc
       -0.03958572 0.059835177 -0.053709436 -0.014655721
000220 68 9b 60 bd 6c 99 45 3d 0d 0f 0c 3d 20 75 73 3d
       -0.054835707 0.048242018 0.03419404 0.05943787
000230 7b 61 32 3d d1 62 3f 3d b0 99 26 3d df 8b 58 3c
       0.043549996 0.046725098 0.04067391 0.013216942
000240 b4 46 12 bd e2 be 1a 3d f5 f1 34 3d e9 9d 40 3c
       -0.03571196 0.037779696 0.04417606 0.011756399
000250 78 47 54 3c d7 2f c7 3a 39 ee c5 ba db c7 d8 bc
       0.012956493 0.0015196753 -0.0015100903 -0.026462486
000260 4b 16 10 bc ae 72 47 bd 28 6a 14 3d c5 ac ee 3c
       -0.008794378 -0.04869335 0.03623405 0.029135117
000270 e0 a0 56 3d 2e 05 e1 bc 8e 20 af 3b 42 d6 2d bc
       0.052399516 -0.02746829 0.005344457 -0.010610165
000280 d7 27 2f bd f0 93 22 bd e3 42 14 3d 16 79 91 bc
       -0.042762604 -0.039691865 0.0361966 -0.017757934
000290 89 e6 31 bd 5e 97 e7 3c b5 23 b2 3c 23 29 0d 3d
       -0.043432746 0.02827042 0.021745542 0.03446306
0002a0 df 2b 12 3d 60 a4 2c 3c a5 04 63 3d 80 bf 7a 3c
       0.03568637 0.010537237 0.05542435 0.015304446
0002b0 39 58 6d bd 2b 6d 5e bd b3 7a 07 3d 2b 0f 85 bd
       -0.057945464 -0.05430333 0.033076 -0.06497034
0002c0 08 f7 84 3c 6e 22 2b 3d 3d 5c dc 3a 94 df 84 ba
       0.016231075 0.04178088 0.0016812157 -0.0010137432
0002d0 0d d1 a3 bc dc dd 36 bd 6b db 7b bd 34 d7 88 3b
       -0.019997144 -0.044645175 -0.06148855 0.004176045
0002e0 40 31 08 3d 20 b6 9c 3b d4 b5 1c bd 0a b9 e7 3c
       0.033250093 0.004782453 -0.038259342 0.028286476
0002f0 13 8b e5 3c b3 a5 fa 3c 5c 83 63 3d d2 77 22 3d
       0.028020417 0.03059659 0.055545196 0.03966505
000300 3f 93 55 3b 72 7e 18 bd 55 09 33 3d a9 1a 19 bd
       0.0032588986 -0.037229963 0.04371007 -0.03737894
000310 5a 1c 25 bd bc 18 d2 3c b2 0f cf 3b a7 ab 6f bd
       -0.04031024 0.02564656 0.0063190097 -0.05851331
000320 13 e4 11 bd 01 9a 2d bd 5c 91 5b bd 7c 7c 7a bd
       -0.0356179 -0.042383198 -0.053605422 -0.061153874
000330 a6 aa 73 bc cd e8 27 3d 8c 6a 14 3d 84 f9 e6 3c
       -0.014872229 0.0409935 0.036234424 0.02819515
000340 91 b9 c4 bc 23 74 3d bd da 61 da 3c 50 c1 cb bc
       -0.024014266 -0.046253335 0.026657987 -0.024872452
000350 39 15 79 3d 3c b6 53 3d e0 0d 06 bd ea e1 6f 3d
       0.060811255 0.051687464 -0.032728076 0.058565058
000360 cf f4 06 bd 0a c1 01 bc aa 27 53 3d 8f ad e4 3a
       -0.03294831 -0.007919559 0.0515515 0.0017446744
000370 8e bf 7f bd d1 64 88 3b 2c 91 11 bd b6 43 43 3d
       -0.06243854 0.004162409 -0.035538837 0.047671996
000380 f8 bc 95 3a 0e 4e e3 3b 80 6d 27 bc 27 41 34 3d
       0.0011424115 0.006936795 -0.010218978 0.044007447
000390 eb 26 77 3d bc e8 30 bc da 2d 39 bd 3c 99 25 3d
       0.06033985 -0.010797676 -0.045209743 0.04042934
0003a0 5a 37 3e bd dc 0d 4f 3d c8 e7 31 3d c8 54 e1 bc
       -0.046439506 0.050550327 0.043433934 -0.027506247
0003b0 6a 76 a0 3b 24 b7 60 bd f7 00 7f 3d 8a 81 4e bc
       0.0048969286 -0.054862157 0.06225678 -0.012604127
0003c0 af 0b 83 b8 29 ca 0e 3d 58 b1 3c 3d 1a e2 39 3d
       -6.248743e-05 0.034860764 0.046067566 0.045381643
0003d0 ff 50 45 bd 01 8a 5d 3d 72 b8 1b 3d 68 46 79 3d
       -0.048172947 0.05408669 0.038017698 0.06085816
0003e0 cb c2 f8 3c 77 49 0b bd 91 53 28 bd c5 df 31 bc
       0.030366322 -0.03400561 -0.04109532 -0.0108565735
0003f0 a8 03 73 bd ff 95 65 3d 96 30 1d 3d 52 4a e4 3c
       -0.05932966 0.05605125 0.038376413 0.02786747

network_body.observation_encoder.processors.0.conv_layers.2.bias f4 [32]
000000 b1 e8 7b bd fb cd 0e bb 93 92 93 3c a9 79 02 3b
       -0.06150121 -0.0021790254 0.018014228 0.001990894
000010 bc 07 7a bd b9 9d c5 3c 96 c4 49 3d a6 fb 82 3c
       -0.061042532 0.02412306 0.049259745 0.015989136
000020 6d f8 00 3c 8e a0 83 bd 93 b6 3a 3d fd 4a 66 3c
       0.007871729 -0.06427108 0.045584273 0.014055965
000030 3e 57 6e 3d 8d 98 4e bd 13 12 02 bd 5f a6 85 3d
       0.05818867 -0.050438453 -0.03175552 0.065258734
000040 cf 4a 5f 3d 4b cc 01 3d d5 76 6a bd 57 c9 46 bd
       0.054514702 0.03168897 -0.057242233 -0.048531856
000050 13 cc 1b 3d 8b 83 98 3d 2d 0c 75 bd a8 60 d4 3c
       0.038036417 0.07446965 -0.059826065 0.025924996
000060 8f c1 73 3d 8d a4 69 3c 18 3d 2b bd 99 54 91 bd
       0.059510764 0.014260423 -0.04180631 -0.07096214
000070 b4 16 a3 bc e3 0b 50 3d c4 64 0d 3b bb 7f 3e 3d
       -0.019908287 0.050792586 0.0021574954 0.046508532

network_body.observation_encoder.processors.0.dense.0.weight f4 [128, 512]
000000 d7 89 da 3c a7 1e 3c bc 49 c6 80 3d 57 57 b2 3d
       0.026677055 -0.011481917 0.0628782 0.08708065
000010 80 3e f2 bc 9c f6 ee bc 7b bd ab 3c b8 0d ff 3b
       -0.029570818 -0.029170327 0.020964375 0.007783618
000020 a1 4c c3 bc 51 38 b7 3d f7 33 f5 3c 81 77 4f bd
       -0.02384025 0.089462884 0.029932005 -0.050651077
000030 45 78 1f 3d 99 0c ac bd 63 02 27 3d 77 c5 cb 3d
       0.038933057 -0.0840084 0.04077376 0.09949773
000040 b4 f8 08 3e 59 66 d6 bd e1 69 54 bd 29 2b 8f bc
       0.13376123 -0.1046874 -0.051858786 -0.017476635
000050 7f 2d 01 be f5 f2 80 3d 75 91 84 3c c9 60 99 3c
       -0.12615012 0.062963404 0.01618264 0.018722909
000060 96 ec 9c bd 9e 12 15 be 2e aa fe 3b 8b 7e a7 3c
       -0.07662313 -0.14557883 0.007771752 0.020446083
000070 1f 35 6f 3d f1 e6 4a 3d a8 79 34 3c dc a6 9d 3d
       0.05840027 0.04953665 0.011015333 0.076978415
000080 3c 74 87 bd 2c fd 11 bd 00 3c 63 3d c8 7f d1 3b
       -0.06613967 -0.035641834 0.055477142 0.0063934065
000090 ef 3c 77 3d ad 54 52 3d 4e 9b 31 bd b5 67 04 be
       0.060360845 0.051350284 -0.043361 -0.12930186
0000a0 d0 1b 9a bd a8 31 27 3d a6 f3 5d 3d c8 d7 32 3d
       -0.07524836 0.04081884 0.05418744 0.043662816
0000b0 e1 f1 cf bd 15 fc 25 3d 45 04 7d 3d 69 14 7a bb
       -0.101535566 0.040523607 0.06177165 -0.0038159138
0000c0 a4 d8 10 bd a2 76 5b 3b ad 92 81 3d 50 86 ee 3c
       -0.035362855 0.0033487459 0.06326804 0.02911678
0000d0 e7 40 19 3d 47 2a d8 3d aa 41 d2 3c ff 2b 90 bc
       0.03741541 0.10554939 0.025666077 -0.017599104
0000e0 40 ad 14 bd d7 a5 63 bc 5c 1a b0 3d 4d 25 85 3a
       -0.036298037 -0.01389452 0.08598778 0.0010158211
0000f0 3b c3 d0 3c 61 81 90 3d ad 16 32 bd d7 dd 95 3c
       0.025483718 0.07055927 -0.043478657 0.018294258
000100 ca d0 a9 3d 8d 5b 84 bd b9 c2 b8 3d b9 11 c9 b9
       0.082917765 -0.064627744 0.090215154 -0.00038350912
000110 d0 29 00 3e ca 39 36 bc 86 73 b0 3c fd ea 19 bd
       0.1251595 -0.011122176 0.02153946 -0.037577618
000120 6a b8 61 bd 59 81 d3 bd e9 b9 44 bc f5 03 1f bd
       -0.05510751 -0.103274055 -0.012007215 -0.038822133
000130 b2 cf 54 3c a3 a7 99 3d 04 2e f4 bc ed 43 be bd
       0.012988972 0.07502677 -0.029807098 -0.092902996
000140 89 2e 18 bc 58 a5 01 be 94 be 1a 3d d5 44 d0 3d
       -0.009288439 -0.1266073 0.037779406 0.10169379
000150 64 f2 54 bd e9 02 1e 3d 3f f9 31 3d 61 ca 69 3a
       -0.051988974 0.038576994 0.04345059 0.00089184014
000160 43 1d 0e 3d 32 b3 09 be 0f 08 87 3d 26 2e 08 3c
       0.034695875 -0.13447264 0.06593334 0.008311784
000170 57 3c 85 3c 4d 3e 8f bb fd 69 74 bd cc 3f 9f bd
       0.016264124 -0.0043714405 -0.05967139 -0.0777584
000180 e5 b6 2d bc 0f 9e c8 3d b1 ed 78 ba b7 0c de 3d
       -0.0106026875 0.09795772 -0.0009495868 0.10842269
000190 9d 51 e6 3d af ef 58 3d ea eb f9 bd d4 4c 7f 3d
       0.11246035 0.052962955 -0.122032 0.06232913
0001a0 77 e9 2b 3d 24 53 e0 3b 5f df fd 3d e7 ba 27 bc
       0.041970696 0.0068458486 0.1239612 -0.010237432
0001b0 26 30 89 3c fa 4a 9a 3c c7 44 64 bc b0 23 a9 3d
       0.016746592 0.01883458 -0.013932413 0.0825876
0001c0 ad 77 82 3d 35 05 b6 bd 78 8a de bc 69 9a b5 bd
       0.063704826 -0.08887712 -0.027165636 -0.08867342
0001d0 62 3a 08 3d 61 49 d0 3d 08 55 75 3c 4c 5a b5 3c
       0.033258803 0.10170246 0.014973886 0.022137783
0001e0 ad 4b ae bc c9 69 46 3d e2 0b bf 3d e0 c4 4a bd
       -0.02127632 0.04844073 0.09328438 -0.04950416
0001f0 e7 48 09 3d 72 8c 96 3d dd e3 60 3d 69 09 fc 3d
       0.03351679 0.073510066 0.054904807 0.12306482
000200 c0 42 04 3d 31 c7 97 bd 5e e1 7a 3d 8f c4 94 3d
       0.03229022 -0.074110396 0.061250083 0.07264053
000210 0e 09 1c 3c f8 04 86 3c d0 af aa 3d 1f 41 c1 bd
       0.009523643 0.016359791 0.08334315 -0.09436249
000220 18 09 ea 3c 57 78 3e bd a8 77 c1 bd ef 81 29 3d
       0.02856879 -0.046501484 -0.09446651 0.04138368
000230 4d ea 9a bd de de 19 bd 96 9a 93 3d 75 e0 ca 3c
       -0.075642206 -0.03756606 0.07207219 0.024765233
000240 a5 bc 44 3b ff 82 5e bb d7 21 67 bb e7 91 3f bd
       0.0030019667 -0.0033952591 -0.0035267973 -0.046770003
000250 42 05 23 be 81 60 bd 3d e7 7f d1 bd ef 5b 87 bd
       -0.15919974 0.09246922 -0.102294736 -0.06609332
000260 6d d4 10 3c ed aa 9f 3d c7 c5 5b bd f5 7f 89 bd
       0.008839709 0.077962734 -0.053655412 -0.06713859
000270 88 06 6c bd 63 27 aa 3c 1b f7 d0 bd 6c 1b 7e 3d
       -0.057623416 0.020770734 -0.10203382 0.06203787
000280 1f dc 78 bd 16 80 96 3d ff ee de 3d 51 72 59 bb
       -0.0607568 0.07348649 0.10885429 -0.003317971
000290 37 74 10 3e 18 cc 8a 3d 1d 86 ce 3c 8a 52 2f bd
       0.14106832 0.06777209 0.025210435 -0.042803325
0002a0 b1 dd c4 3c 12 10 37 3d e0 5e 9b bc b8 97 e4 3b
       0.024031492 0.04469306 -0.018966138 0.006976094
0002b0 ec 55 c2 bd 3a e3 18 3e 57 85 d1 3d f8 56 d8 bc
       -0.094890445 0.1493043 0.10230511 -0.026408657
0002c0 16 eb a0 bd f7 d6 80 3d af 33 bf 3d 06 05 0b 3c
       -0.07857339 0.06291001 0.0933603 0.008485084
0002d0 94 70 e7 bc 2c 6f 49 3d db 4b b2 3a d4 18 4f bc
       -0.028251924 0.049178287 0.0013602929 -0.012640197
0002e0 66 5a e8 bc 76 39 93 bc c2 18 6e bd b4 39 d8 3d
       -0.028363418 -0.017971735 -0.05812908 0.10557881
0002f0 d2 ab 84 3d b2 ab 00 3d 12 a1 d6 bc 4a d3 c2 bc
       0.064780846 0.03141374 -0.026199851 -0.023782391
000300 85 55 5d 39 1b c4 15 3d 3b ec 54 3d 72 e2 28 3d
       0.00021108061 0.036563974 0.0519831 0.04123158
000310 21 b1 66 3d 28 5a a8 bd a4 3d ce bc ff 89 46 3d
       0.056321267 -0.08220321 -0.025175877 0.048471447
000320 44 cb 16 bc ba d3 02 3d ca c4 b9 3d 5b f1 10 3d
       -0.009203736 0.0319402 0.09070738 0.035386425
000330 f0 b0 af 3c f0 22 69 3c 4e 69 64 3b 22 4f 0e bd
       0.021446675 0.014229521 0.0034852806 -0.034743436
000340 ae f4 13 be 9b b8 c0 bd e6 b1 ab 3c 77 4b 9a 3d
       -0.14448807 -0.09410211 0.020958852 0.07533925
000350 e0 08 94 bd 53 d5 56 3d 9e 32 8a 3d b1 3e 17 bd
       -0.07228255 0.052449536 0.06747936 -0.03692502
000360 df 6a d9 bb 3f 9b fb bc e7 d9 88 bc 2f 74 77 bd
       -0.0066350545 -0.030713676 -0.016705466 -0.060413536
000370 a4 86 e2 3c 6d e8 cc bb cb 76 c9 bd 2a 40 19 bd
       0.027652092 -0.0062532932 -0.09837111 -0.037414707
000380 57 00 01 bd 0c a2 2e bd c5 f3 38 3b de 93 42 3d
       -0.031494465 -0.04263501 0.002822147 0.0475043
000390 d4 cd c8 bc 8a 53 d0 3d 86 e8 40 bd b7 8b 37 bc
       -0.024512209 0.10172184 -0.04709675 -0.011202744
0003a0 9d 8c 8f bd 91 ce 98 3d 78 20 09 bd 00 02 c1 bd
       -0.07009242 0.074612744 -0.03347823 -0.094242096
0003b0 f4 0c b9 bb 7f 9b 76 bd 99 bc c2 bd 6b b6 81 3d
       -0.005647296 -0.060206886 -0.095086284 0.063336216
0003c0 92 3e 92 bd f3 11 8d bc c8 83 1b bd 49 f8 db 3d
       -0.071408406 -0.017220473 -0.037967473 0.10740716
0003d0 c4 e4 ca 3d 3f 64 5e bd ba 4d 03 bd 48 91 89 bd
       0.09906915 -0.05429482 -0.032056548 -0.06717163
0003e0 6d 9a 3e bd 55 68 ab 3d ad 98 d8 bc 20 5c b3 3d
       -0.04653399 0.08369509 -0.026439989 0.08757806
0003f0 10 00 b9 3d 48 11 05 bc b6 4a 5c bd 85 60 60 3d
       0.09033215 -0.008121796 -0.053782187 0.05477955

network_body.observation_encoder.processors.0.dense.0.bias f4 [128]
000000 c7 4b 0b 3c 27 bd f1 3c cc e3 60 bc 3d 8b da ba
       0.008501953 0.02950914 -0.013726186 -0.0016673576
000010 b0 70 50 bb f5 bc 9a bc 83 67 98 3c 68 eb b4 bb
       -0.0031805448 -0.01888893 0.018604046 -0.0055212267
000020 f3 43 e0 bb 67 ab 85 bc 02 6a 8e 3c 0c ca 65 bb
       -0.0068440377 -0.016317083 0.017384533 -0.0035063056
000030 22 5a 9c bc fa d9 85 bc fb 89 da bb da 61 35 bc
       -0.019085947 -0.01633929 -0.0066692806 -0.011070693
000040 91 8f 85 bc c8 b9 9b 3c ea b4 8a bc 9f b6 a2 3c
       -0.01630381 0.019009486 -0.01693197 0.019862471
000050 5f e6 99 3c 9a b6 c7 3c c6 b6 10 bc c3 26 a5 bc
       0.018786607 0.024379063 -0.008832639 -0.020160085
000060 fb 59 7a bb 60 5a fe 3b 4d 64 34 bb 5f 13 79 3b
       -0.0038200605 0.0077622384 -0.0027525604 0.003800593
000070 72 69 35 bc 97 4b df bb d7 0d 33 3c ca 92 52 3b
       -0.011072503 -0.006814431 0.010928593 0.003213095
000080 8c 17 79 bc fe 16 54 bb 7c 0e 6a 3c f3 38 0b 3c
       -0.015203368 -0.0032362337 0.01428568 0.0084974645
000090 4c 76 2c bb 19 b6 59 3b ab 9a d4 bb fe ee 32 bb
       -0.0026315628 0.003322011 -0.0064881644 -0.0027303095
0000a0 9a 52 8b bc 59 a4 b7 bb 44 2f c1 bb ea 85 01 bb
       -0.017007161 -0.0056043086 -0.005895527 -0.0019763657
0000b0 96 76 8c bc 01 c2 48 bb 65 c0 15 bc fe c2 19 bc
       -0.01714639 -0.0030633213 -0.009140109 -0.009384869
0000c0 e9 8d 01 bc 20 4f b9 39 65 b7 d7 3a 55 e7 97 3c
       -0.007907369 0.00035344902 0.0016457854 0.018542925
0000d0 9d f6 6c 3c 15 7c 21 bb 93 52 ed ba b0 87 22 bb
       0.014463094 -0.002464061 -0.0018106274 -0.0024800114
0000e0 e2 4e f6 3c 1d e1 a5 bb b6 9a 09 3d 8d d6 77 b9
       0.030066911 -0.005062236 0.03359481 -0.00023635682
0000f0 cb ea f2 3b 02 c4 15 bc 55 70 bd bc 86 ad 87 bb
       0.0074132434 -0.00914097 -0.023124853 -0.0041405587
000100 b6 a7 8c 3c a1 7b 10 3c ec 0f 4c 3c c0 42 24 bc
       0.017169815 0.008818538 0.012454968 -0.01002568
000110 c0 08 ac 3c 8e 93 73 bb 6e 18 74 3c 14 5c b1 bb
       0.021000266 -0.0037166807 0.014898403 -0.005412588
000120 91 07 16 bc ef e9 82 3c 16 69 10 bc 5a 5f 0c 3c
       -0.009157077 0.015980689 -0.008814117 0.008567655
000130 54 fe 9f 3b 9c 6a d6 ba c4 5d d4 3a 4d b3 5c 3c
       0.004882613 -0.0016358676 0.0016202261 0.013470483
000140 3a 37 41 bc ae e1 51 bc 71 93 4c bc f6 e2 84 3c
       -0.011792952 -0.012810154 -0.012486325 0.016221505
000150 40 ce 01 bb 58 03 68 3c 08 4f ac bb c6 2a 53 bc
       -0.0019806772 0.014160953 -0.0052584447 -0.012888616
000160 22 45 c1 bb 17 dd 5d bc ea f3 6b 3c 8f 66 8c 3c
       -0.005898134 -0.013541481 0.014401415 0.017138747
000170 28 3b 38 3c e1 55 5c bb 59 5c 6f bc cf 69 52 bc
       0.011244573 -0.0033620524 -0.01460942 -0.01284261
000180 ca bf 0d bc b2 66 73 ba 57 bc 56 3c 6f 23 70 3c
       -0.008651683 -0.0009285017 0.013106427 0.0146568855
000190 0c c2 f2 bb d9 57 8f 3c 5d 54 3c 3c f5 76 b8 3c
       -0.007408386 0.017497944 0.011494723 0.02251766
0001a0 68 5e 09 bb 2d dc 16 bb dc 7d 2c 3c 1b 98 90 3c
       -0.0020960812 -0.0023019419 0.010528054 0.017650655
0001b0 d7 44 ef ba 67 b6 45 bc 91 04 06 bb 75 06 28 bb
       -0.0018254769 -0.012067414 -0.00204495 -0.0025638614
0001c0 4a 6e 04 bc 37 1e 2e bb bc d6 3a bc 41 c3 60 bb
       -0.008082936 -0.0026568302 -0.011403736 -0.0034296068
0001d0 4c b1 7c bc 72 0e 01 bb 03 9e 3f 3c 74 9d cb 3b
       -0.01542313 -0.0019692448 0.011695388 0.0062138382
0001e0 51 6d c1 3c 85 4b 52 bc d8 7f 80 3c 67 96 78 3c
       0.023611696 -0.012835388 0.01568596 0.015172577
0001f0 a5 3a e5 bb 75 d0 8b bc 13 6c f6 bb 68 0a 3a bc
       -0.0069955164 -0.017067173 -0.0075202077 -0.01135502

network_body._body_endoder.seq_layers.0.weight f4 [128, 128]
000000 57 dc d8 3c c9 66 de 3d cb 3e 22 bd 05 ec 69 be
       0.026472254 0.108594485 -0.039610665 -0.2284394
000010 fc 04 67 3d 30 db 4e bc 53 2f 0a 3e 9e 6f a6 bd
       0.056401238 -0.012625501 0.13494615 -0.08126758
000020 9b 36 b2 3c e0 23 f3 bd df 04 1b 3e cc 58 a8 3c
       0.021754554 -0.11872077 0.15138577 0.020550154
000030 cd 43 62 be 59 93 1f 3e df f8 03 3e 17 70 ea bc
       -0.22096176 0.15583552 0.12887906 -0.028617902
000040 ea 05 eb 3b f9 cb a9 3d c6 6f 07 be 4c f9 11 3c
       0.007172336 0.08290858 -0.13226232 0.008909535
000050 88 e8 1d bd e0 3c fd 3d 1c a8 90 3c aa 2a fd bd
       -0.038551837 0.123651266 0.017658286 -0.12361653
000060 a3 5b dd 3d 43 76 06 be 39 4d 09 be 52 5f 86 bd
       0.10808494 -0.13131051 -0.13408364 -0.0656115
000070 c9 1e 13 be ca e7 b3 bb 2b 1f ab bb 8f 3f da bd
       -0.14367212 -0.005490278 -0.0052222214 -0.10656654
000080 03 ac de bd ad 14 29 3e 1b 20 e0 3d 1f 8d 71 36
       -0.108726524 0.16511793 0.10943624 3.5993942e-06
000090 a2 9b 2d bd 23 d3 9a 3c 8c 27 6a be 7f 10 94 bc
       -0.04238475 0.018899506 -0.22866648 -0.018074272
0000a0 cf f1 f8 bc 88 73 1d bd fb be 0d bd f8 f3 b7 bd
       -0.03038874 -0.038440257 -0.03460596 -0.0898208
0000b0 5b 11 5c 3d e2 65 07 be 51 60 6f bd c5 22 81 bc
       0.05372749 -0.13222459 -0.058441464 -0.01576365
0000c0 18 ee ba bd 18 e4 b3 bd 35 b2 1e 3c 9a 39 a3 3b
       -0.09127444 -0.0878374 0.009686043 0.004981232
0000d0 c7 52 da bb a2 49 91 3d 2c 0a d6 bd 1d ca 7a be
       -0.0066627 0.070941225 -0.10451159 -0.24491163
0000e0 74 07 21 3d 3b 3b ee bd 9d a5 93 3d 93 3f 99 3b
       0.03931375 -0.11632391 0.072093226 0.004676768
0000f0 de 4e 0f be a9 7e c8 bb b4 c2 96 3c ff 5a df bc
       -0.13994929 -0.0061186147 0.018403389 -0.02726507
000100 e8 82 67 3d a5 01 48 3b db 2c 2f 3e 2a f4 00 3e
       0.056521326 0.0030518558 0.17106955 0.12593141
000110 23 55 c9 bd f2 ec a9 bd d7 6a 7a ba c4 02 a5 3d
       -0.09830692 -0.08297147 -0.00095526635 0.08057168
000120 cb 7d 11 3e 9b 26 a3 bd ed 77 0a 3d 59 ea fb 3c
       0.14208142 -0.07966348 0.033805776 0.030751394
000130 06 d7 ed bd 75 e3 81 bd 94 61 6f bd 3a 5e 00 bd
       -0.11613278 -0.06342212 -0.058442667 -0.03133986
000140 35 cc 50 3c c3 14 83 bd b6 8b 0c bd 36 12 b0 3d
       0.012743999 -0.06400444 -0.034312926 0.085972235
000150 7b 19 4a bc da a3 bf bd de 82 77 be 24 a9 e4 bb
       -0.012335177 -0.09357424 -0.24171016 -0.006978171
000160 db ac f7 bd 57 dc 13 3d e3 a8 92 bd cf e6 28 3e
       -0.120935164 0.036098804 -0.07161119 0.16494296
000170 ee 42 2e 3e 08 1a 46 bd 0f 2c 7f 3c 00 e3 8a bd
       0.17017719 -0.04836467 0.015574469 -0.06781578
000180 93 bb 3e 3e 27 18 8a bd b3 96 55 3c 6a 5c 59 3d
       0.18626241 -0.06742888 0.013036418 0.05306665
000190 26 41 b7 bc bc 28 de 3d 00 56 c4 3d 2b b9 24 3e
       -0.022369932 0.10847613 0.09586716 0.16086261
0001a0 c6 5a 96 bd e2 df 4a 3e fb a8 72 3d ef e5 eb bc
       -0.073415324 0.19811967 0.059243184 -0.028796164
0001b0 a7 f7 8e 3c a7 d9 cc bd a7 20 1e bd 4a 4a 50 bd
       0.017452074 -0.100024514 -0.03860536 -0.050852098
0001c0 03 00 c1 3d 04 20 6d bd 48 a4 c9 bd b7 a5 db 3d
       0.0942383 -0.05789186 -0.09845787 0.10724967
0001d0 a2 c1 44 bd d1 24 61 3c 8a 49 11 3e ac 0b 1e 3e
       -0.048036225 0.013741688 0.14188209 0.1543414
0001e0 5d 71 3e 3e 4e e7 d9 bb 73 03 5a bd 70 dc ba bd
       0.18597932 -0.006649888 -0.053225946 -0.09124076
0001f0 46 0a a5 3d 2b 97 17 be fa b2 ab 3d de 93 b3 3a
       0.080586 -0.1480376 0.083837464 0.0013700684
000200 46 ff 72 3d d2 76 d8 bb ee f4 56 3c 0f 5b 9a 3d
       0.05932548 -0.0066059614 0.013119919 0.07536899
000210 a4 a5 e5 bd ab 7b 56 bd e9 63 c6 bc 96 c3 f9 bd
       -0.11213234 -0.052364033 -0.024217563 -0.12195508
000220 27 04 37 bd 44 6b 82 ba ad 07 85 3d 6a de 26 3e
       -0.044681694 -0.000995018 0.06495605 0.16295782
000230 ec 7b 15 be 24 4d 5f bd 41 44 8f bc 55 e6 6b be
       -0.14598054 -0.054516926 -0.0174886 -0.23037083
000240 00 f9 f4 bc 88 27 f0 3c a5 4b 0f 3d 1e 6d b7 bb
       -0.029903889 0.029315725 0.03498425 -0.0055977246
000250 76 eb 09 be 0f ff 0a 3e c6 2d fb 3c 2e 1c 0b bd
       -0.13468727 0.1357386 0.030661475 -0.03396242
000260 2c e3 aa 3d 60 16 90 3b 5d e1 d0 bd f5 94 f6 bc
       0.08344111 0.0043971986 -0.10199235 -0.030100325
000270 4f 19 ba bc 50 e6 cd bc 5a c5 09 3e 5e 15 ff 3b
       -0.022717146 -0.025134236 0.1345419 0.0077845296
000280 c1 de 42 3c 94 c6 11 3c 87 98 e5 3d f0 5e de 3d
       0.011893929 0.008897442 0.11210733 0.10857952
000290 dd 70 ce 3c b3 50 ac 3d db 6b b2 bc c4 71 84 3d
       0.025200302 0.0841383 -0.021779945 0.064670116
0002a0 cb c1 95 bd c4 3a ec 3b ab a8 12 3d 26 c5 d5 3d
       -0.07312354 0.007209154 0.035805386 0.10437994
0002b0 84 dc 8e bd bd f1 48 3e 9e 5f 32 bd 10 78 30 3d
       -0.06975654 0.19623466 -0.04354822 0.04308325
0002c0 ef 3a 5e bc a8 58 0d be 54 69 f0 3c 53 e5 be 3b
       -0.013563856 -0.13803351 0.0293471 0.0058256774
0002d0 0f 9f e5 3d 69 00 04 3e 82 a2 92 3d 6a 16 0d 3d
       0.11211979 0.12890781 0.07159902 0.034445204
0002e0 80 2b 54 3e e1 59 b5 3c 35 7a 6a bd 33 ee 9d be
       0.20719719 0.022137584 -0.057245452 -0.30845794
0002f0 61 7e 1c 3e c6 e2 27 3d 57 bb e8 bd 3c 37 74 bd
       0.15282585 0.040987752 -0.11363857 -0.059622988
000300 6c 09 0a 3d 53 b2 0d 3d 18 24 76 3d 7e 6e a3 bd
       0.03370039 0.03459389 0.060093015 -0.07980059
000310 48 ab 2a 3d e2 32 dd bd 4b 92 f6 bc d7 a0 89 bd
       0.041667253 -0.10800721 -0.030099055 -0.06720131
000320 35 50 59 be 1d 72 41 bd 47 51 fb bd 7d be f1 bc
       -0.21222003 -0.047227968 -0.12271362 -0.029509777
000330 60 ea 5a bc 35 70 aa bd 5e 82 ee bd 60 a2 02 3d
       -0.013361543 -0.08322183 -0.11645959 0.031893134
000340 ac 09 66 3c 44 f5 19 bd 7f 45 85 bd b6 2f 51 3d
       0.014040392 -0.03758742 -0.06507396 0.05107089
000350 25 10 09 bd f1 ae 3c 3e 80 0d db bd fb 83 d3 3c
       -0.033462662 0.1842611 -0.10695934 0.02581977
000360 21 6e c8 3d 7a 6b 5b bd d9 2d a6 3d eb 3a 47 3d
       0.097866304 -0.053569295 0.081142135 0.048640173
000370 c3 bc 7b bc c3 72 8e bd 50 8d 43 be 5b 27 1c 3d
       -0.0153648285 -0.06955483 -0.19096875 0.03812347
000380 5d ab d2 bb 0d 50 26 3d 6b d9 cf 3d 4f 90 eb 3a
       -0.0064291195 0.040603686 0.10148891 0.0017972084
000390 f0 1b 26 bc 37 c6 fb 3d 89 fc a1 bd 01 c3 ea 3d
       -0.010138497 0.12293666 -0.079094954 0.11462975
0003a0 69 26 9e 3c 9e 3a ca bd 50 cd ed bb 73 3d 03 3e
       0.019305425 -0.098744616 -0.007257141 0.1281641
0003b0 1a 45 45 be 67 d0 99 3d 61 83 1d 3e 8e bc 36 3e
       -0.19264641 0.07510453 0.15382148 0.17845365
0003c0 03 bf 7e bd 88 32 b1 bd 00 56 b0 bc ff 8f 17 3d
       -0.06219388 -0.08652216 -0.021525383 0.03700256
0003d0 ea 24 a4 3d 1e 36 e2 bc 82 4b a3 3d f5 84 fb 3d
       0.08014853 -0.027613696 0.07973386 0.12281219
0003e0 eb c4 21 3e cd aa 93 3d a1 a8 2c bd df 67 ee 3d
       0.15797774 0.07210312 -0.042153005 0.116409056
0003f0 07 87 73 bd d1 10 71 bc e1 a9 c8 bd 24 ee 73 3e
       -0.059454944 -0.014713482 -0.09798027 0.23821312

network_body._body_endoder.seq_layers.0.bias f4 [128]
000000 aa 07 dd 3c 87 86 c8 3c 56 33 41 bb 11 d7 97 bb
       0.026981194 0.02447821 -0.0029480061 -0.004633792
000010 8a ba 4c 3c 36 88 03 3c 81 05 5b bc 34 52 25 bc
       0.012495646 0.008028081 -0.013368011 -0.0100903995
000020 e2 b1 08 3d 3d 26 75 3c a6 b9 9f 3c 9b 51 66 bb
       0.033372767 0.01496273 0.019497704 -0.0035143855
000030 5a 5b 56 3c de bb 8e 3c f7 d8 36 ba 36 fb 59 bc
       0.013083303 0.017423566 -0.00069750793 -0.013304522
000040 88 48 72 bc 21 b3 20 3b 04 d8 50 3c 38 9d a9 3c
       -0.014787801 0.0024520832 0.012746815 0.02070485
000050 e5 5c 82 bc ce 4e f6 3c ef 61 37 3c d8 0b 39 bc
       -0.015913436 0.030066874 0.011192783 -0.011294328
000060 c9 98 0d bc d0 ec 36 bc ec 28 07 bc 0d 58 41 3c
       -0.008642384 -0.011164859 -0.008249503 0.011800778
000070 40 68 6e bc fd 64 6e bc 79 f1 81 3c 7f d2 00 3d
       -0.014551222 -0.014550445 0.015862213 0.031450745
000080 c4 8c 2d 3c 76 2d 9e 3c 7d 16 ca bb 91 e4 86 bc
       0.010592643 0.019308787 -0.0061672316 -0.01646641
000090 e7 e0 7a 3c 02 95 9c 3b e3 fd 82 bc 1d 5b 71 bb
       0.01531241 0.0047785053 -0.015990203 -0.003682799
0000a0 87 a3 2f bc 36 77 df 3b 4f 1f da 3c 9d 4f 44 bb
       -0.01072014 0.006819631 0.026626257 -0.002995468
0000b0 58 00 74 bc 79 f9 da 3c 50 fe 6f 3c 48 86 b9 bb
       -0.01489266 0.026730286 0.014648035 -0.0056617595
0000c0 9d 33 c9 39 37 73 0b bc db b0 8a 3a 11 64 95 3c
       0.00038376162 -0.008511356 0.0010581271 0.018236192
0000d0 65 ff f5 ba 2e 6e 77 bc 29 eb c9 bc 40 db d2 bc
       -0.001876813 -0.0151019525 -0.024648266 -0.025739312
0000e0 fe 81 bc 3b 9f 9d 6e bc 7f e9 65 b9 c2 b0 c5 3c
       0.005752801 -0.014563947 -0.00021926126 0.024132136
0000f0 6a 9f 48 bc d7 e0 3a bc 66 31 a8 3c 16 ea 93 bb
       -0.0122450385 -0.011406145 0.020531368 -0.004513989
000100 b1 f5 e6 bb f3 23 c1 bb 38 3d a6 bc 77 9c c2 bb
       -0.0070483317 -0.005894178 -0.020292863 -0.005939062
000110 ca 49 76 ba 9c ed 93 bc d7 4d 96 bc 60 c9 65 3c
       -0.00093951507 -0.018057637 -0.018347664 0.014025062
000120 55 c4 55 bc 1d be bf 3c d3 9d c4 3b 7d b3 2b ba
       -0.0130472975 0.023406083 0.0060002594 -0.0006549878
000130 6b 38 2f bb 53 01 08 3c d7 35 e3 3b 95 6b ff bb
       -0.0026736509 0.008301097 0.0069339084 -0.007794807
000140 37 94 e4 3b 9c 8f c3 3b 27 60 75 ba ea 57 87 3c
       0.0069756764 0.0059680473 -0.0009360336 0.016521413
000150 a6 0e ac 3b 50 a7 91 bb 93 2a cf ba f7 f2 a7 3c
       0.0052507697 -0.004444994 -0.0015805535 0.020501597
000160 03 f9 a6 bc 99 24 c2 3b 4f ff 0b bc 75 ea 90 3c
       -0.02038241 0.005924773 -0.008544757 0.017689923
000170 d6 81 2d bc a2 34 68 3b 0e f2 12 3c 09 85 8a bc
       -0.010590037 0.0035431762 0.008968843 -0.01690914
000180 58 66 84 bc 3a c0 a3 3c 99 ac 02 bc 20 0c 26 bc
       -0.016162083 0.019989122 -0.007975721 -0.010134727
000190 f0 ef 13 3c 55 92 bb bc 63 7e 36 bc c2 63 c5 bc
       0.0090293735 -0.022896925 -0.011138531 -0.02409542
0001a0 6c 3b 6b bb 80 6c 27 bc a2 a0 62 3c 7d a4 89 3c
       -0.0035893572 -0.0102187395 0.013832243 0.016802067
0001b0 5e 1c 94 bc 10 45 fc bb 28 85 66 3b 7a b4 07 3c
       -0.018079933 -0.0076986626 0.0035174582 0.008282775
0001c0 3e 9a b4 3c 6b 4d a0 3c 67 c0 4a 3b a7 17 48 3c
       0.022046205 0.019568166 0.0030937435 0.01221267
0001d0 1d 8c 0e bc 91 94 9d 3c 87 70 ed bc 7a f9 bb 3b
       -0.008700398 0.019235881 -0.028984321 0.005736527
0001e0 cc 3e a2 3b f7 ba 5a 3b 35 09 b2 3c 88 41 5a 3c
       0.0049513336 0.00333756 0.021732906 0.013321288
0001f0 f6 d1 a6 3c 65 44 a6 3b 7d 14 3c bc 01 c8 0f bc
       0.020363789 0.005074071 -0.011479494 -0.008775712

network_body._body_endoder.seq_layers.2.weight f4 [128, 128]
000000 41 5f ad bd 4a 7b 9d bd b5 5b 53 bc 12 0d a7 3d
       -0.08465434 -0.07689531 -0.012900283 0.0815679
000010 37 b0 4d bd 77 5b 0e bd 6f 05 23 3b af cf b2 bd
       -0.05021688 -0.034755196 0.0024875065 -0.08731019
000020 60 d2 04 3d 96 dc 3b bd d9 7d ac 3d 5d 02 d2 3b
       0.03242719 -0.045864664 0.08422441 0.006408973
000030 a4 fb 04 3e 34 e4 3a bd ec a9 5f 3e 4a a3 ab 3d
       0.12986618 -0.045627788 0.21842164 0.08380754
000040 a6 d6 e7 3c 82 d2 88 bc e9 53 b5 3b b1 ce a3 3d
       0.028300595 -0.01670194 0.0055336845 0.07998408
000050 65 10 14 3d bd e8 fa bd e0 58 bb bc 78 38 69 bd
       0.036148448 -0.122514226 -0.022869527 -0.05693862
000060 15 dd 12 bd 1f 8d 04 3e d5 6d b0 3d 6a d6 d6 3d
       -0.03585537 0.12944458 0.08614699 0.10490115
000070 fd a5 07 3e 03 a7 9b bd d2 41 cf bb 15 ca 11 3e
       0.13246913 -0.07600214 -0.006324985 0.14237244
000080 89 59 df 3a 31 0c 0b bd 62 d2 3d 3d c6 51 b2 bd
       0.0017040233 -0.033947174 0.046343215 -0.08707003
000090 14 9e df 3c c9 f9 e9 3d 12 34 b0 3c a2 16 29 bd
       0.027297057 0.11424596 0.021509204 -0.04128135
0000a0 20 99 01 3e 7f ef a7 bd 85 f8 bf bc db 5e c9 3c
       0.12656069 -0.08199977 -0.023433933 0.024581363
0000b0 18 d9 85 3d 92 22 91 bd d9 3c 0f bd 9b 80 cc bd
       0.06535548 -0.07086672 -0.03497014 -0.09985467
0000c0 13 69 26 bd 2b 9b 59 3e 08 f0 37 3d 22 40 c3 3c
       -0.04062755 0.21250598 0.044906646 0.023834292
0000d0 f7 9b 11 bd 3c 8d 07 be 0d 1c e4 3c 5a a8 96 bd
       -0.03554913 -0.1323747 0.027845407 -0.07356329
0000e0 8f 84 e6 bb 58 43 c7 bd 07 70 27 be 1d b8 d8 3d
       -0.007034845 -0.09729642 -0.16351329 0.10581992
0000f0 bb 82 93 bd 47 5d 42 bd 61 5e 0a 3e e6 07 09 be
       -0.07202669 -0.047452237 0.13512565 -0.1338192
000100 f6 7d c7 bb 8b 47 29 3d a9 20 01 3e 6f 91 9e bd
       -0.0060880138 0.041327994 0.12610115 -0.07742583
000110 f3 14 93 3d 2b 4b a4 3d 20 38 f3 bc 0c 16 8b bc
       0.0718173 0.0802215 -0.029689848 -0.016978286
000120 c8 d7 c1 3d e3 b3 87 3d 13 88 78 bd f3 ee 06 3e
       0.09464985 0.066261075 -0.060676645 0.1317709
000130 8c fb 89 bc 9c 57 88 3c f5 7d c2 3d a4 c8 1b 3e
       -0.01684358 0.016643338 0.09496681 0.15213257
000140 e4 05 ee 3d 08 bf 9c bc d9 85 98 3d 8f 7e 03 3e
       0.11622217 -0.01913406 0.074474044 0.12841247
000150 bb 2d 4a 3d 5b ca d3 3c 65 67 33 3c 86 1f bd 3d
       0.04936002 0.025853327 0.010949944 0.09234528
000160 3d 7e 18 3c a3 fc 27 bd 7a 4b 27 3e 78 ab cf bd
       0.009307441 -0.041012418 0.16337386 -0.10140127
000170 f2 1b 3e bd 65 1f 87 3c e9 2b 55 bc bf 04 4c 3d
       -0.04641337 0.016494462 -0.013010957 0.049809214
000180 d5 67 bc 3c 93 36 2f 3c b5 ee 5f bc 25 c9 99 3d
       0.02299873 0.010694164 -0.013667752 0.075090684
000190 b6 38 28 3e bd e5 30 3c 45 ad cf 3c 36 7f 13 be
       0.16427884 0.010796961 0.025351176 -0.14403996
0001a0 9b f4 3f 3d 4b 7e f7 3c 84 68 e5 bc fc 77 a6 3d
       0.046864133 0.030211588 -0.028003938 0.08128354
0001b0 ad 8c 0c be 3a 91 68 bc e6 b8 41 bd 4a 69 1c 3e
       -0.13725539 -0.014194781 -0.047295474 0.1527454
0001c0 e1 9f d0 bb 79 99 b5 3d 2c 68 81 3d d5 ff a6 3d
       -0.0063667153 0.08867163 0.06318697 0.08154265
0001d0 b6 8d 0a 3e 29 a9 9c bb 45 be 5a bd b9 fd 94 bd
       0.13530621 -0.0047809076 -0.05340411 -0.07274956
0001e0 23 6b 55 bd e2 ba 0b be 52 98 bb 3d f4 5c fc 3d
       -0.052104127 -0.13645509 0.09159912 0.12322417
0001f0 52 89 18 3d 82 68 15 bd c0 0e 69 bd ef 85 fc 3d
       0.037240334 -0.03647662 -0.056898832 0.12330233
000200 01 08 0c be ba c3 26 3d 5c 8d a9 bc 36 de fc bc
       -0.13674928 0.040714003 -0.020697288 -0.030867677
000210 81 7c db 3d d8 e4 96 3d 7f e4 79 bd 21 ac 23 3c
       0.107171066 0.07367867 -0.061008926 0.009989769
000220 a4 b4 bf 3d 28 28 cc 3c 9d a3 cf 3d 86 46 24 3c
       0.09360626 0.024921492 0.10138629 0.01002658
000230 4c b3 92 bc 87 71 48 3d 30 61 52 3c cc 19 43 3a
       -0.017907761 0.048936393 0.012840554 0.00074425037
000240 c9 c6 8e bc e6 17 14 3e ac a8 c6 39 e3 b0 a5 3c
       -0.017428773 0.14462242 0.00037891173 0.020225948
000250 fc a4 bc 3d 8f ef b5 bd ab 9b 69 3c a0 ce 26 bd
       0.09211156 -0.08883583 0.014258306 -0.040724397
000260 2e 49 84 bd 12 59 93 3d 8e 72 52 3c 81 f1 66 3e
       -0.064592704 0.07194723 0.012844695 0.22553064
000270 96 49 08 3e e1 38 76 3d 46 bb 31 be d0 30 3e 3e
       0.13309321 0.060112838 -0.17356595 0.18573308
000280 7e 9a 1e 3e 38 79 b8 bd 7b 06 c9 bd d2 47 c4 bc
       0.15488622 -0.09007496 -0.09815689 -0.023960028
000290 5d 03 2e 3d e9 09 38 3e cb e0 2d 3d c4 e9 70 3c
       0.042483676 0.1797253 0.042450707 0.014704172
0002a0 53 eb 33 bd 6e 54 3e be 4e 61 83 3d 1a da e4 3d
       -0.043925595 -0.18586895 0.06415044 0.11174412
0002b0 27 8c 5b 3d c6 84 09 be dc 90 8f bc ab 54 d3 bd
       0.053600457 -0.13429555 -0.017525129 -0.103188835
0002c0 69 fd 39 bc f1 7e 82 bd b3 48 9e bd 05 d1 79 3d
       -0.011351922 -0.063718684 -0.0772871 0.060990352
0002d0 01 d0 51 bd 40 63 4e 3c 37 0e 37 3c 71 cd 1d 3d
       -0.05122376 0.012596905 0.011172823 0.038526002
0002e0 49 74 0e be 7e d5 72 bd f8 90 3c bd 85 87 76 be
       -0.13911547 -0.059285633 -0.04603669 -0.24075134
0002f0 de d3 81 3d b2 74 ff 3c 7a 77 49 3d 6f 4a 2b be
       0.063392386 0.031183574 0.049186207 -0.16727613
000300 6c 62 43 be 7d 28 ce 3d 57 90 17 be b9 69 7f bd
       -0.19080514 0.10066316 -0.14801155 -0.062356684
000310 1d 1e dd bd e0 85 43 bd a5 49 ce bd 8b 8e 35 3d
       -0.10796759 -0.047735095 -0.1007264 0.044325393
000320 33 ad 92 3c d8 cf f2 bd 09 46 16 bd 62 f7 0e 3e
       0.017904853 -0.11856049 -0.036687884 0.13961557
000330 b1 90 aa bd 45 9b 0f 3c c5 8a 65 3c 4f 3a e9 3c
       -0.08328379 0.0087650465 0.014010136 0.028470187
000340 5e 3b 3c 3b 88 47 17 be 84 ce 90 bd 4a 1b 1d bd
       0.002872191 -0.14773381 -0.0707064 -0.038356103
000350 ce 3a b5 bc c3 00 5d bd 32 18 a8 3c 0a cd b4 bc
       -0.022122767 -0.053955805 0.02051935 -0.022070426
000360 0a ed 61 3d cb 27 4e 3d ce f0 d4 bd dd 2c 60 bd
       0.0551577 0.05033092 -0.10397492 -0.054730285
000370 82 97 11 3e 70 be 52 3d 80 cd cb bd 62 7b 4d 3c
       0.14217952 0.051451147 -0.099513054 0.012541624
000380 28 54 de bd 05 f9 09 be 94 63 13 3c 10 c8 e0 bc
       -0.10855895 -0.134739 0.008995909 -0.027439147
000390 3f ff fe 3b 08 3b 9f bc ea 04 85 bd 39 be ae 3d
       0.0077818925 -0.019437328 -0.06495078 0.08532376
0003a0 aa 24 1e bd a1 55 2e 3c b0 a6 af 3d 01 22 6a ba
       -0.038609184 0.010640533 0.08576715 -0.00089314586
0003b0 ca bd ea 3d f7 ae 57 3d 1e d4 09 3c 14 3b 8a bd
       0.11461981 0.052657094 0.008412389 -0.067495495
0003c0 48 2e 73 3d 18 2c 23 3e c1 21 10 3e 2c c5 ed 3d
       0.05937031 0.15934789 0.14075376 0.11609873
0003d0 62 59 d3 3b 0f 15 d5 3d f6 1e 04 bd 31 aa 72 3e
       0.0064498642 0.10404407 -0.03225609 0.23697735
0003e0 1e 36 e4 3d 25 c9 41 3e 5a 67 19 be cb e3 4e be
       0.111431345 0.18924387 -0.14980832 -0.20204084
0003f0 99 c2 68 3d 14 e8 25 3d 2d 9e 70 3d 49 49 6e bd
       0.056826208 0.04050453 0.0587446 -0.05817536

network_body._body_endoder.seq_layers.2.bias f4 [128]
000000 76 91 80 3b 8f 2f 01 3b 8e c4 67 3b df ff 53 bc
       0.0039235903 0.0019712185 0.0035364958 -0.012939422
000010 ef 79 fa bb c1 0b 72 bc 1b a7 5b 3c 36 fa c2 3b
       -0.00764393 -0.01477331 0.01340654 0.0059502376
000020 19 be 1c 3c fc 49 a2 bb e8 e2 76 bc 02 23 b4 3c
       0.009566807 -0.0049526673 -0.015068747 0.02198935
000030 d1 7d f8 3b f8 75 95 bc 3d d9 40 bc ce 40 c1 3b
       0.007583358 -0.018244728 -0.011770544 0.005897618
000040 22 16 21 3c a0 0e b0 3b fa 92 23 3c c4 82 c5 3b
       0.009831937 0.005372837 0.009983772 0.0060275514
000050 f3 ad 8c bc 5a 3c 56 bb 7a 18 3a bc c8 93 eb 3b
       -0.01717279 -0.003268978 -0.011358375 0.0071892478
000060 79 31 2f bc 0c f6 86 3b df e8 84 bc 76 82 f5 3b
       -0.010692948 0.0041186865 -0.016224323 0.007492359
000070 94 5a c6 3c 41 a1 8a ba df 78 42 bc 57 f0 bd bb
       0.024213113 -0.0010576622 -0.011869638 -0.005796473
000080 ff 31 17 bc 1c d4 26 bb 80 1f 0a bb 72 34 a5 3b
       -0.009228229 -0.0025456017 -0.0021075904 0.0050416524
000090 8e 1c 7c 3c 86 bd 4f bc 50 6b 4e 3b 27 c0 3e bb
       0.015387667 -0.012679463 0.0031497069 -0.002910623
0000a0 8c 59 03 3d ef f3 b2 39 f8 69 fe bb c0 68 b9 3c
       0.03206782 0.0003413255 -0.0077640973 0.022632957
0000b0 a4 82 1d bc c7 24 15 bc 7c a6 3d bc a2 b7 4e bc
       -0.009613667 -0.009103007 -0.0115753375 -0.012617024
0000c0 86 be a9 3c d0 90 30 bc c8 74 8c 3c 0c d1 cf 3c
       0.020720731 -0.0107767135 0.01714553 0.025368236
0000d0 e1 95 34 bc e7 7d 82 3a ab 6a 9e 3c 87 7a 1f bb
       -0.011022062 0.0009955735 0.019337973 -0.0024334507
0000e0 ea 31 48 bb ba 4b 00 3c d8 1f 9a bc 0d 37 63 bc
       -0.003054733 0.007830555 -0.018814012 -0.013868106
0000f0 c7 55 0d 39 d2 6d 11 bc 1e 24 0f bc 94 d9 5b 3c
       0.00013478762 -0.008876281 -0.008736638 0.013418574
000100 34 a0 35 bb d1 bb a5 ba be 09 8d 3c 11 e1 0a 3c
       -0.0027713897 -0.0012644475 0.01721656 0.008476512
000110 68 bf 3d 3c 75 ff 21 3c 4a 04 86 bc a3 90 70 bc
       0.011581279 0.009887566 -0.016359467 -0.014682922
000120 79 ff fe 3a eb 43 1e bc c5 79 75 bc 72 85 84 3c
       0.0019454799 -0.009659748 -0.014982645 0.016176913
000130 89 28 ed 3b 33 60 70 bc f8 35 a7 3c ee 28 9d 3c
       0.007237498 -0.014671373 0.020411476 0.019184556
000140 6d 64 2e bc 31 08 f7 bb 3c 2f 00 3c 1c e1 bc 39
       -0.010644061 -0.0075388183 0.007823762 0.00036025874
000150 ab 2c 81 3b a8 cc 9c bb 67 e5 df 3b 91 4b 5a bc
       0.0039420924 -0.004785139 0.006832767 -0.0133236805
000160 78 a3 69 3c 24 4e 3c bc 61 2a 88 bc f0 b2 9a bb
       0.014260165 -0.01149324 -0.01662177 -0.004721038
000170 38 34 21 bc a8 78 8c bc ea 09 3d bc 4b 8a 2e 3c
       -0.00983911 -0.017147377 -0.011538008 0.010653089
000180 25 23 1a bc c0 79 b4 bb e9 a7 30 bc 07 94 57 3c
       -0.009407793 -0.005507678 -0.01078222 0.013157851
000190 03 1f 33 bc 91 f8 79 bc 7d 34 84 3b 0c d1 66 bc
       -0.010932687 -0.015257017 0.0040345774 -0.014087927
0001a0 03 09 2c ba 4b b8 0d 3c 9c ed b8 3b 44 c2 38 bc
       -0.0006562622 0.008649896 0.0056435596 -0.011276785
0001b0 5d df 7d 3c 3a 66 84 3c d8 53 93 bb cc 09 05 3c
       0.0154951485 0.016162027 -0.004496079 0.008120012
0001c0 6a c1 5a 3c 60 75 72 3c 5d 8c 17 bc 30 4f 8c bb
       0.013351778 0.014798492 -0.009249774 -0.004281901
0001d0 b4 d0 40 bc b7 1f d9 bb 48 bb b6 3c 22 cb b0 bb
       -0.011768509 -0.006626095 0.0223061 -0.005395309
0001e0 35 34 d4 3c 08 4c 25 3b dc 83 25 bc 1e 1a ae bb
       0.0259038 0.002522232 -0.0101022385 -0.005313172
0001f0 4c 68 68 bb eb c5 b5 3a 81 78 a4 ba 1d 1a 67 3c
       -0.0035462556 0.0013868188 -0.001254812 0.014105347

action_model._continuous_distribution.log_sigma f4 [1, 3]
000000 39 c5 2c 3c 0d 34 c2 3b 60 7c 8b bb
       0.010545068 0.005926615 -0.00425677
